pooled_log/pooled_epoch_101_bs_32/best_0.pt (torch, 256125 bytes, 22 tensors)

module.layers.0.0.weight f4 [256, 66]
0.12667415 0.113511086 -0.10050859 0.1740017 -0.07960227 0.3693434 -0.017344078 -0.12499886
-0.14193195 0.11330949 0.13928904 0.25056413 -0.037983995 -0.060827814 0.31997505 0.0032871678
-0.04177969 0.022562968 0.05815859 -0.0057872166 -0.16596927 0.20053253 0.16816072 -0.012987103
0.3481935 0.23512103 -0.016452134 0.07559192 0.037100807 0.29701164 0.07939007 -0.03494097
0.20705378 0.0051654596 -0.18073197 0.30132058 -0.09870397 -0.07893018 -0.074734285 0.2419441
-0.15603514 -0.16009967 -0.16543394 -0.26872438 0.060028814 -0.10203697 0.2524292 -0.016504716
-0.024239069 -0.054051336 -0.018167872 0.058579937 -0.085429266 -0.1530874 0.02814604 0.12502499
0.060614496 0.12782077 0.2010958 0.1518966 0.121370465 -0.076715454 -0.2290074 -0.35501483
0.17030174 0.08264806 -0.1066786 0.2180323 -0.22297983 -0.29136673 0.07754026 -0.28671697
0.11814665 -0.28929877 0.3910061 -0.07981766 -0.26281506 0.18948631 0.14398398 -0.24346896
0.065943375 -0.3584607 -0.17598931 -0.10316065 -0.16332343 -0.22995912 0.14530589 0.11553441
-0.23435928 0.012008246 -0.04495038 -0.11045129 -0.060187254 -0.2221863 -0.08149515 0.13635758
-0.10098267 -0.13463089 -0.36937296 -0.17684421 -0.122472994 0.035711996 -0.0717311 -0.025656926
0.21635108 -0.020255603 0.3940574 -0.08010791 -0.06914253 0.06668984 0.23458867 0.21164787
-0.29366824 -0.17759629 -0.09761622 0.05890435 -0.2012802 0.2346931 -0.04423367 -0.14972565
0.12743624 0.19048873 -0.1705176 0.030306175 -0.07943802 -0.012571131 -0.122229174 -0.06480387
-0.06951044 0.14888014 -0.3090279 -0.43089944 -0.08456495 -0.09789731 0.006870812 -0.13508928
-0.26681745 0.04230604 0.052365422 -0.020681037 -0.24303022 0.27754554 0.2023288 -0.085950755
-0.1799266 0.22760624 0.13455552 -0.049374048 0.15783107 0.031665333 -0.14660567 0.097971424
-0.07179981 0.120494924 0.37714884 0.13319705 -0.15412532 0.17287767 0.052028783 0.006842636
-0.18507001 -0.12671643 -0.14025657 0.03811407 -0.04094445 -0.055578463 -0.11314645 -0.2872653
-0.27103412 -0.059272233 -0.2819131 -0.10298604 -0.10566618 0.022283465 0.032056578 -0.06488512
0.07680781 0.010680449 0.031991467 -0.1594496 -0.13908848 0.13347054 -0.12177446 -0.23117241
-0.10676094 0.008977194 0.0029477428 -0.21850514 0.13727733 -0.021401469 -0.23773907 -0.025164789
-0.32392108 0.06644439 0.04492076 -0.064791024 0.08789568 0.059929118 -0.18231672 -0.18359971
-0.09161495 0.10781566 0.088154286 0.051440157 0.09162633 0.018575422 -0.19110163 -0.02059695
0.15896848 0.2010081 0.021402774 -0.030812724 0.1843605 -0.49401468 -0.22404215 -0.10993344
0.047287613 0.07012152 -0.12369024 -0.1895998 0.120693125 -0.0039231423 0.08822479 0.21984574
-0.16039336 0.10843418 -0.124184534 -0.13001682 -0.14791903 0.08562348 -0.092100926 0.06957572
-0.023121806 0.40502852 0.07040402 -0.00058337534 0.060566723 -0.019596986 0.18475002 0.34726152
-0.016807375 0.3612544 0.08983276 -0.029581798 0.073753096 0.32660416 -0.04633951 -0.075933665
-0.28164688 -0.037742313 0.11287989 -0.18664528 -0.048713747 0.18004188 0.0030686755 -0.2808397
00000000: deb6 013e 8078 e83d 73d7 cdbd 802d 323e
00000010: 8406 a3bd 941a bd3e 2b15 8ebc 67ff ffbd
00000020: 9c56 11be ce0e e83d c9a1 0e3e f149 803e
00000030: 1b95 1bbd 9626 79bd c5d3 a33e 866d 573b
00000040: 2e21 2bbd f9d5 b83c b437 6e3d b1a2 bdbb
00000050: d9f3 29be 6658 4d3e 5332 2c3e dcc7 54bc
00000060: 6b46 b23e 91c3 703e a0c6 86bc f0cf 9a3d
00000070: 04f7 173d e911 983e 4397 a23d 431e 0fbd
00000080: e805 543e 0443 a93b cd11 39be b146 9a3e
00000090: 4f25 cabd 25a6 a1bd 4a0e 99bd 32c0 773e
000000a0: adc7 1fbe 2bf1 23be 8467 29be 3e96 89be
000000b0: c6e0 753d c2f8 d0bd 663e 813e e634 87bc
000000c0: 0391 c6bc ef64 5dbd cad4 94bc 84f1 6f3d
000000d0: 8af5 aebd f2c2 1cbe 8692 e63c 8d06 003e
000000e0: e846 783d 73e3 023e 0fec 4d3e c88a 1b3e
000000f0: 1491 f83d fe1c 9dbd ea80 6abe 81c4 b5be
00000100: 9463 2e3e 6343 a93d 4f7a dabd dc43 5f3e
00000110: d354 64be 052e 95be 6ecd 9e3d 91cc 92be
00000120: dff6 f13d f81e 94be f431 c83e 7177 a3bd
00000130: b28f 86be b308 423e 8970 133e ed4f 79be
00000140: 520d 873d 2988 b7be 8b36 34be e445 d3bd
00000150: 423e 27be 677a 6bbe 11cb 143e 4e9d ec3d
00000160: e1fb 6fbe 3cbe 443c e41d 38bd 4934 e2bd
00000170: e986 76bd ce84 63be eee6 a6bd 52a1 0b3e
00000180: 01d0 cebd aedc 09be 741e bdbe a616 35be
00000190: 1fd3 fabd be46 123d c1e7 92bd 792e d2bc
000001a0: 238b 5d3e 14ef a5bc e4c1 c93e 9e0f a4bd
000001b0: 999a 8dbd af94 883d 0338 703e 38ba 583e
000001c0: af5b 96be cddb 35be 03eb c7bd b045 713d
000001d0: 661c 4ebe 6353 703e 5d2e 35bd ae51 19be
000001e0: a57e 023e 7a0f 433e 2a9c 2ebe a844 f83c
000001f0: 67b0 a2bd 25f7 4dbc 4a53 fabd e4b7 84bd
00000200: 7d5b 8ebd 0974 183e e838 9ebe da9e dcbe
00000210: 6330 adbd 637e c8bd 8c24 e13b d854 0abe
00000220: 4c9c 88be 1949 2d3d 207d 563d 476b a9bc
00000230: eadc 78be 731a 8e3e 482f 4f3e f306 b0bd
00000240: ae3e 38be 9c11 693e ecc8 093e 713c 4abd
00000250: 789e 213e 82b3 013d cc1f 16be 3ea5 c83d
00000260: c70b 93bd 0bc6 f63d a719 c13e cf64 083e
00000270: 07d3 1dbe d806 313e 221c 553d 3138 e03b
00000280: fe82 3dbe f4c1 01be 6b9f 0fbe 801d 1c3d
00000290: 5eb5 27bd 3ea6 63bd 53b9 e7bd 7014 93be
000002a0: fcc4 8abe 71c7 72bd ea56 90be 58ea d2bd
000002b0: 8367 d8bd d08b b63c c24d 033d 7de2 84bd
000002c0: 6a4d 9d3d 0dfd 2e3c 7c09 033d c246 23be
000002d0: 366d 0ebe 80ac 083e e364 f9bd 76b8 6cbe
000002e0: 7ba5 dabd 1515 133c eb2e 413b d0bf 5fbe
000002f0: 6e92 0c3e 2252 afbc df71 73be 6326 cebc
00000300: fcd8 a5be ff13 883d d5fe 373d 28b1 84bd
00000310: a602 b43d 3c78 753d 3cb1 3abe 9001 3cbe
00000320: 9ea0 bbbd 75ce dc3d 3c8a b43d eab2 523d
00000330: 96a6 bb3d 7c2b 983c 25b0 43be efba a8bc
00000340: a2c8 223e 11d5 4d3e df54 af3c f76a fcbc
00000350: 00c9 3c3e 7eef fcbe 4e6b 65be c924 e1bd
00000360: a8b0 413d df9b 8f3d 4f51 fdbd 7326 42be
00000370: f52d f73d b48d 80bb 33af b43d 3e1f 613e
00000380: 283e 24be bd12 de3d 7654 febd 2123 05be
00000390: 1678 17be 5d5b af3d 699f bcbd b77d 8e3d
000003a0: f169 bdbc e65f cf3e fc2f 903d a8ed 18ba
000003b0: d014 783d dc89 a0bc 1c2f 3d3e 43cc b13e
000003c0: 9faf 89bc 56f6 b83e 3dfa b73d 8755 f2bc
000003d0: dd0b 973d a938 a73e 7fce 3dbd 1c83 9bbd
000003e0: 0534 90be af97 1abd 922d e73d f11f 3fbe
000003f0: 1188 47bd e65c 383e d51b 493b 39ca 8fbe

module.layers.0.1.weight f4 [256]
0.95906675 1.0351187 1.0172299 0.95752376 1.027175 1.0192457 0.97271544 0.9834486
1.0736381 0.99975115 0.99506205 0.9846373 0.9883879 0.9932774 0.98088413 0.95734626
1.0226161 1.0066582 0.97419286 0.9757038 0.97722244 0.9791724 0.9871827 0.96824783
0.9790404 1.0073737 0.9958278 0.99658054 0.98082745 1.0001489 0.9480217 0.9924244
1.0047246 1.0174456 0.9834772 0.98981905 0.9854142 0.9748107 1.0393543 0.96603894
0.9728469 1.0018795 0.9807254 0.97995204 0.99761075 1.0093653 0.9714947 1.013986
0.972555 0.9807226 0.9730934 1.0105804 0.9835609 0.9996579 1.0229799 0.98781747
0.98485476 0.97698605 0.96270114 0.9682585 1.102421 0.9991194 1.0051535 1.0074768
1.0176096 1.0170923 0.9707567 1.0213832 1.0000314 1.0177771 0.9877481 0.9883532
1.0177224 1.0121884 0.98990154 1.0815991 0.99548 0.9755452 1.022126 1.0142096
0.98944294 1.0015483 0.97895586 1.0450299 0.9916933 1.0002171 0.980271 0.9589476
0.98312896 0.97612256 0.96335924 1.0061646 1.0444987 1.0066576 1.0007211 0.997098
1.0285637 0.9906187 0.97637814 0.9888262 0.9877309 0.9774457 0.98949736 1.0265822
0.9972062 1.0072546 0.97104776 1.0782509 1.0015532 0.9439116 0.99347794 0.97687006
0.9719092 0.9973378 1.0031558 0.9869899 0.99862885 0.9759191 0.9651576 0.97213197
0.99259204 0.9791036 1.0124512 0.9770642 1.0021724 1.0359589 1.0257664 0.9902049
0.9767904 0.9730375 0.99177396 1.1201012 0.9994726 1.008976 0.99883807 0.989467
0.97971004 0.9648194 1.0481385 0.9855505 0.99018365 0.9848318 0.9726075 0.9662974
0.97687984 1.018143 1.0002437 0.98046625 1.0142196 0.9902514 1.0529804 0.9954173
0.96475554 0.99765563 0.9930071 0.97146374 0.984177 0.997197 0.9795409 0.97943515
0.99432915 0.96445644 0.97831374 1.0026833 1.0607901 0.9966554 0.9602285 0.97782135
1.0090907 0.97889316 0.96911126 0.98479587 0.9872146 0.96579754 1.007618 0.9717997
0.9929967 1.0220189 0.98619634 0.9527209 1.0138572 0.9945844 0.9421254 0.985085
1.0090004 0.99445397 1.0065963 1.0203711 0.9942008 0.97645897 0.99829817 0.99326205
0.97540563 0.97181875 1.0069594 0.99208134 1.0012481 1.0000397 1.0332776 1.000418
1.0288453 1.018083 1.0073658 1.033401 0.96602273 1.0015846 0.97883683 0.97898555
0.97635144 1.0388799 1.0310538 1.0069754 0.97249085 1.0184121 0.9734297 1.1091017
0.97523165 0.9969151 1.0581164 0.9884447 1.0183134 1.0252787 0.96911174 0.9724941
0.99341863 1.0032911 1.0204593 0.98174405 0.97678113 0.98016477 0.9817503 1.0199711
0.98948187 0.98045427 0.9926607 0.99231863 1.0222712 0.9876409 1.0010383 0.95790803
1.0059625 0.97638154 1.0186158 0.97820914 1.054283 1.0178727 1.0490977 0.960322
1.0070404 1.0555813 1.0088434 0.98277926 1.0247426 0.9773153 0.97623384 0.97220796
00000000: 6685 753f c57e 843f 9734 823f 4720 753f
00000010: 787a 833f a576 823f e103 793f 4ac3 7b3f
00000020: f96c 893f b1ef 7f3f 63bc 7e3f 3111 7c3f
00000030: fd06 7d3f 6d47 7e3f 391b 7b3f a514 753f
00000040: 16e5 823f 2dda 803f b464 793f b9c7 793f
00000050: 402b 7a3f 0bab 7a3f 01b8 7c3f 17df 773f
00000060: 64a2 7a3f 9ff1 803f 92ee 7e3f e71f 7f3f
00000070: 8217 7b3f e104 803f 8db1 723f 870f 7e3f
00000080: d19a 803f a83b 823f 29c5 7b3f c864 7d3f
00000090: 1b44 7c3f 328d 793f 9009 853f 544e 773f
000000a0: 7f0c 793f 963d 803f d210 7b3f 23de 7a3f
000000b0: 6b63 7f3f e232 813f e0b3 783f 4bca 813f
000000c0: 5df9 783f a310 7b3f a61c 793f b35a 813f
000000d0: a6ca 7b3f 95e9 7f3f 01f1 823f 9be1 7c3f
000000e0: 711f 7c3f c21b 7a3f 9573 763f cadf 773f
000000f0: 221c 8d3f 4ac6 7f3f dfa8 803f 00f5 803f
00000100: 0841 823f 1530 823f 8383 783f afbc 823f
00000110: 0701 803f 8546 823f 0fdd 7c3f b704 7d3f
00000120: ba44 823f 648f 813f 306a 7d3f d771 8a3f
00000130: c7d7 7e3f 55bd 793f 06d5 823f 9fd1 813f
00000140: 224c 7d3f bc32 803f da9c 7a3f 8ac3 853f
00000150: 9ddf 7d3f 1d07 803f 0af3 7a3f 977d 753f
00000160: 57ae 7b3f 2be3 793f b69e 763f 00ca 803f
00000170: 22b2 853f 28da 803f a117 803f d141 7f3f
00000180: faa7 833f 3099 7d3f ebf3 793f b723 7d3f
00000190: efdb 7c3f e239 7a3f b34f 7d3f 0c67 833f
000001a0: e848 7f3f b8ed 803f 9696 783f 2004 8a3f
000001b0: e532 803f 31a4 713f 9254 7e3f 2814 7a3f
000001c0: 0bcf 783f 8851 7f3f 6967 803f 5fab 7c3f
000001d0: 24a6 7f3f d6d5 793f 9214 773f a4dd 783f
000001e0: 831a 7e3f 89a6 7a3f 0098 813f e120 7a3f
000001f0: 2f47 803f 4d9a 843f 504c 833f 117e 7d3f
00000200: f00e 7a3f fc18 793f e6e4 7d3f 7a5f 8f3f
00000210: 70dd 7f3f 2026 813f dab3 7f3f b64d 7d3f
00000220: 47ce 7a3f 67fe 763f 6729 863f 0a4d 7c3f
00000230: ad7c 7d3f f01d 7c3f cefc 783f 445f 773f
00000240: cc14 7a3f 8352 823f fc07 803f d6ff 7a3f
00000250: f3d1 813f 1e81 7d3f 10c8 863f abd3 7e3f
00000260: 38fa 763f 5c66 7f3f b735 7e3f d9b1 783f
00000270: 06f3 7b3f 4d48 7f3f 31c3 7a3f 43bc 7a3f
00000280: 5b8c 7e3f 9ee6 763f c572 7a3f ed57 803f
00000290: f8c7 873f cf24 7f3f 89d1 753f 8052 7a3f
000002a0: e229 813f be98 7a3f ad17 783f 951b 7c3f
000002b0: 19ba 7c3f 823e 773f a0f9 803f ddc7 783f
000002c0: 0835 7e3f 84d1 823f 5d77 7c3f 84e5 733f
000002d0: 13c6 813f 159d 7e3f 212f 713f 882e 7c3f
000002e0: ed26 813f 8994 7e3f 26d8 803f 859b 823f
000002f0: f283 7e3f 37f9 793f 7890 7f3f 6c46 7e3f
00000300: 2fb4 793f 1dc9 783f 0ce4 803f 0bf9 7d3f
00000310: e628 803f 4d01 803f 7142 843f b20d 803f
00000320: 34b1 833f 8b50 823f 5df1 803f 7c46 843f
00000330: 444d 773f ed33 803f 0d95 7a3f cc9e 7a3f
00000340: 2bf2 793f 04fa 843f 92f9 833f 92e4 803f
00000350: 29f5 783f 545b 823f b032 793f 0bf7 8d3f
00000360: c8a8 793f d435 7f3f 5c70 873f b60a 7d3f
00000370: 1858 823f 553c 833f b517 783f 60f5 783f
00000380: af50 7e3f d86b 803f 699e 823f 9453 7b3f
00000390: 540e 7a3f 14ec 7a3f fd53 7b3f 6a8e 823f
000003a0: af4e 7d3f 0dff 7a3f 031f 7e3f 9808 7e3f
000003b0: c8d9 823f 09d6 7c3f 0622 803f 7639 753f
000003c0: 61c3 803f 24f4 793f 0162 823f ea6b 7a3f
000003d0: bff2 863f a749 823f d548 863f aad7 753f
000003e0: b3e6 803f 4a1d 873f c821 813f 6c97 7b3f
000003f0: c42a 833f 5631 7a3f 76ea 793f 9fe2 783f

module.layers.0.1.bias f4 [256]
-0.039826576 0.049406312 -0.028048553 -0.012602153 0.017036818 0.0077753305 -0.012056924 -0.009819886
0.0067869937 0.00033128876 -0.03040715 -0.009184601 0.0065558576 0.004249772 0.0021000744 -0.014643709
0.014666472 0.01688382 -0.019830914 -0.0040769987 -0.014342015 -0.0529139 -0.023706421 -0.007602324
-0.023000188 -0.021708446 -0.0062963176 -0.026094483 -0.017601386 -0.0027734886 -0.025326364 -0.03498846
-0.023928065 0.0061536874 -0.006932536 -0.00068973243 -0.01693589 -0.027996741 -0.017578045 -0.0054895324
-0.036419798 0.010331647 -0.008934199 -0.008138321 -0.010748355 0.012290565 -0.0056998455 -0.001317925
-0.0067452863 -0.017884893 -0.019684602 0.024739359 -0.006831718 0.008317834 0.0015132559 -0.0102909645
-0.0014132322 -0.016005715 -0.008005833 -0.02804863 0.06735285 -0.013047034 0.01457593 -0.0024609906
0.0059933597 0.026994105 -0.024157638 0.0027731634 -0.005891822 0.009030603 0.0048774634 -0.02962489
0.035737723 0.0140010165 0.020475829 0.030136418 0.010728505 -0.024838094 0.0002883185 0.0019372914
-0.0063208025 -0.009687331 -0.031102695 -0.00555338 -0.008140236 -0.0025971208 0.0068892413 -0.031504944
-0.0042034555 -0.019733872 -0.008055895 0.029107152 -0.004533499 -0.00040139473 -0.002333895 -0.00256583
0.0022835277 0.01099091 -0.020851685 -0.0072701667 -0.00720278 -0.006417884 -0.031710632 0.018770874
0.014873503 -0.021189705 -0.022855692 0.003221138 -0.01308367 -0.025493657 -0.01635599 -0.018610772
-0.038580712 -0.003291114 -0.0052490374 -0.015866015 -0.0028990987 -0.019893134 -0.03684632 0.0052144593
0.012397135 -0.004931492 -0.0042414237 -0.0009584495 0.0054594497 0.012968057 -0.010495721 -0.0026245893
-0.017322222 -0.0042996453 0.007489641 0.054877862 -0.017283136 0.00044509454 -0.0088891415 -0.0028362845
0.000945006 -0.02523391 0.03489249 -0.024641668 -0.00071146013 -0.01116242 -0.02297844 -0.0091620805
-0.007983632 0.015963497 3.0141313e-05 -0.039908055 0.042772233 -0.017797772 0.0028302756 0.006183219
-0.021645201 -0.02254659 0.0031068563 -0.011828388 0.0031271132 -0.013667064 -0.0040425276 -0.019622106
0.013235529 -0.012889126 -0.02665055 -0.012671705 0.01776015 0.0006334452 -0.018380692 -0.01838641
-0.034918033 -0.037222877 0.013180322 0.022953203 -0.0076366183 -0.018465796 -0.014745404 -7.7483244e-05
-0.026440378 0.017524386 -0.0139814615 -0.021132046 -0.0052969987 -0.0046613226 -0.033335757 -0.0039805863
-0.013605128 0.014762947 -0.0031430516 0.0012503339 -0.0062133176 -0.015975133 -0.0153057035 -0.009943695
-0.037559282 -0.016613998 -0.0059807086 -0.008741117 -0.0058935783 -0.0015881809 -0.01829746 0.0038993366
0.015349485 0.031238914 0.018690715 0.015087549 -0.015639838 0.014965965 -0.0151501 -0.018272726
-0.009786696 0.00064405025 0.01283326 -0.0023785168 -0.0067448374 0.0024121194 -0.024341552 0.048342995
-0.01982122 -0.007005331 0.0065707243 -0.0061047925 0.0015506939 0.009999932 -0.020056924 -0.013427482
0.0012374222 0.00031500353 -0.013032084 -0.017534351 -0.040353745 -0.051913794 -0.05120089 0.020205814
-0.027668525 -0.043528967 0.003499771 -0.006820101 -0.0074013574 -0.019681143 0.001833807 -0.042879086
0.008022973 -0.005918554 0.013081765 -0.040985968 0.05048293 -0.02302971 0.013769346 -0.012487145
0.012843921 0.068442784 0.0006486969 0.009244635 0.0054608905 -0.036606383 -0.0066409605 -0.027830496
00000000: 3121 23bd 465e 4a3d 14c6 e5bc 4379 4ebc
00000010: cc90 8b3c 33c8 fe3b 688a 45bc 96e3 20bc
00000020: 6e65 de3b d3b0 ad39 6a18 f9bc 027b 16bc
00000030: 85d2 d63b ac41 8b3b 67a1 093b 2bec 6fbc
00000040: a44b 703c f04f 8a3c 7174 a2bc 5898 85bb
00000050: c5fa 6abc 3fbc 58bd f833 c2bc ea1c f9bb
00000060: e46a bcbc e9d5 b1bc 5751 cebb 19c4 d5bc
00000070: c830 90bc 6bc3 35bb 3c79 cfbc 0f50 0fbd
00000080: ca04 c4bc dfa4 c93b 542a e3bb 29cf 34ba
00000090: 23bd 8abc 6c59 e5bc d5ff 8fbc 89e1 b3bb
000000a0: ed2c 15bd 1146 293c bf60 12bc 9856 05bc
000000b0: de19 30bc 5e5e 493c c5c5 babb 3abe acba
000000c0: 9007 ddbb 5783 92bc 9a41 a1bc 32aa ca3c
000000d0: 9bdc dfbb 8647 083c 7158 c63a 6f9b 28bc
000000e0: 343c b9ba 6b1e 83bc e62a 03bc 3ec6 e5bc
000000f0: 4bf0 893d 3ac3 55bc e2cf 6e3c 9248 21bb
00000100: f263 c43b be22 dd3c 3de6 c5bc f6bd 353b
00000110: 2f10 c1bb 18f5 133c 21d3 9f3b e6af f2bc
00000120: b861 123d 8564 653c edbc a73c a6e0 f63c
00000130: 9dc6 2f3c 4279 cbbc 7429 9739 b6ec fd3a
00000140: bc1e cfbb 9cb7 1ebc 14cb febc 21f9 b5bb
00000150: a05e 05bc 7534 2abb 25bf e13b 540b 01bd
00000160: 24bd 89bb eea8 a1bc dffc 03bc 1f72 ee3c
00000170: bf8d 94bb 4a72 d2b9 43f4 18bb 7c27 28bb
00000180: 3da7 153b 3813 343c 27d1 aabc 943a eebb
00000190: 4c05 ecbb 1d4d d2bb 02e3 01bd 60c5 993c
000001a0: feaf 733c 0896 adbc dc3b bbbc ba19 533b
000001b0: e45c 56bc 13d8 d0bc fffc 85bc 9e75 98bc
000001c0: cf06 1ebd bbaf 57bb 1e00 acbb 72f9 81bc
000001d0: cefe 3dbb edf6 a2bc 2bec 16bd 0ede aa3b
000001e0: 5a1d 4b3c 5a98 a1bb a4fb 8abb 7540 7bba
000001f0: 2fe5 b23b f977 543c 3ff6 2bbc 4d01 2cbb
00000200: 55e7 8dbc 0ae4 8cbb aa6b f53b 9cc7 603d
00000210: 5d95 8dbc 945b e939 c3a3 11bc f5e0 39bb
00000220: 47ba 773a 58b7 cebc 6deb 0e3d 53dd c9bc
00000230: 4881 3aba 95e2 36bc 483d bcbc 8d1c 16bc
00000240: c8cd 02bc e1c5 823c fad7 fc37 a176 23bd
00000250: f031 2f3d a2cc 91bc 257c 393b 9a9c ca3b
00000260: 4751 b1bc a0b3 b8bc 669c 4b3b dbcb 41bc
00000270: 41f0 4c3b d2eb 5fbc 2e77 84bb 8abe a0bc
00000280: d5d9 583c ea2c 53bc 4152 dabc fc9c 4fbc
00000290: bc7d 913c ca0d 263a 1b93 96bc 199f 96bc
000002a0: 3606 0fbd 0477 18bd 47f2 573c 5b08 bc3c
000002b0: 993c fabb 9545 97bc b596 71bc 807e a2b8
000002c0: 7e99 d8bc 4d8f 8f3c 8012 65bc 1d1d adbc
000002d0: 7292 adbb 02be 98bb 138b 08bd 946f 82bb
000002e0: 0be8 5ebc 4ae0 713c a8fb 4dbb 3ee2 a33a
000002f0: 1699 cbbb 48de 82bc c6c4 7abc e1ea 22bc
00000300: c3d7 19bd 141a 88bc d2f9 c3bb e736 0fbc
00000310: eb1e c1bb 822a d0ba 8ee4 95bc 038c 7f3b
00000320: 687c 7b3c c0e8 ff3c 451d 993c c431 773c
00000330: 1e1f 80bc cf33 753c 2038 78bc afb0 95bc
00000340: 6158 20bc 7bd5 283a 9842 523c e4e0 1bbb
00000350: cc03 ddbb a614 1e3b ef67 c7bc 4e03 463d
00000360: 1c60 a2bc fa8c e5bb 3b4f d73b b60a c8bb
00000370: a740 cb3a c1d6 233c 6b4e a4bc f1fe 5bbc
00000380: 0031 a23a 0f27 a539 8684 55bc 33a4 8fbc
00000390: f849 25bd 8fa3 54bd 06b8 51bd aa86 a53c
000003a0: 1aa9 e2bc 6e4b 32bd 6a5c 653b 277b dfbb
000003b0: 1687 f2bb 593a a1bc 5a5c f03a fba1 2fbd
000003c0: ca72 033c 6ef0 c1bb e654 563c e7e0 27bd
000003d0: 30c7 4e3d cda8 bcbc d398 613c e296 4cbc
000003e0: 4f6f 523c bb2b 8c3d 500d 2a3a cf76 173c
000003f0: 45f1 b23b 93f0 15bd 6a9c d9bb c8fc e3bc

module.layers.0.1.running_mean f4 [256]
864185.9 -1.2094032e+06 -428642.53 -554512.8 12680.695 -543109.06 -684869.25 -321654.3
-398642.03 185249.84 -39146.43 -576216.8 66821.38 -372043.75 651314.5 749121.0
323189.94 -522880.34 150473.16 317055.06 -468079.7 -1.2290032e+06 415328.88 -167986.17
-95466.41 426445.9 488614.03 299080.56 592464.94 237584.19 -223228.4 -1.2612804e+06
575236.1 -1.4147461e+06 204812.72 581289.1 -128977.34 -269304.2 298069.03 269535.28
836134.2 401362.06 -546431.0 89174.07 448679.16 -50366.133 -527960.5 215784.86
-240730.7 -520590.03 -1.3202876e+06 -295688.88 -33657.21 900787.3 -286419.53 -1.1138389e+06
1.2868648e+06 1.2163692e+06 10257.864 19340.1 -507093.7 -311113.5 -242166.34 -638011.0
1.2548105e+06 411199.47 13866.443 1.2573502e+06 -582837.9 -557131.56 -835247.25 10304.154
-349775.9 536094.4 343045.88 -1.1129624e+06 -461356.6 287754.3 -560737.3 -25525.719
-647552.5 -46565.96 -715391.94 912640.44 -463499.16 49785.18 -257398.67 216580.28
-374063.56 173020.56 -110415.67 312923.38 341013.38 -165520.34 -282739.97 -258433.16
131816.36 -461820.5 -179941.67 61182.133 -167317.58 -474595.16 -324920.7 799232.3
-67922.62 -1.1844222e+06 -1.3273108e+06 49703.984 354497.53 355986.56 526181.0 -1.0512461e+06
-1.2116889e+06 -97755.195 -788920.75 -1.0199158e+06 -211547.33 25477.318 312399.4 -118701.375
358771.66 595938.0 -672905.0 -1.4567738e+06 -353915.25 640931.3 -302003.22 85340.84
-21103.447 -820036.3 -988194.4 494892.62 135435.0 -275098.0 293308.88 -949954.5
-556274.3 1.030747e+06 -343843.56 832938.4 184089.73 1.2129289e+06 -426798.66 875431.9
-1.0250427e+06 268668.22 1.1893785e+06 847573.8 -743105.94 -263034.38 873666.4 135200.77
1.646028e+06 538806.75 -1.965056e+06 922447.44 -78729.625 942794.3 1.2280511e+06 732599.9
-949238.6 466501.3 -528389.5 127564.01 915460.3 -4245.3076 -540906.4 51120.895
-538383.44 -744065.75 702289.3 349196.94 -654713.3 108927.7 -848346.6 521857.56
-865690.56 -535837.6 483142.88 -700537.75 -256349.56 486811.6 569122.6 970270.75
-229326.62 -610798.75 746077.56 115180.57 476956.22 -489673.4 1.1668701e+06 -158838.9
168119.34 797498.75 -165871.23 -477362.62 104900.44 468792.72 190875.3 -334185.62
301180.97 465355.28 -197553.38 433903.2 -589270.6 348916.03 -845231.5 -530882.56
77050.914 -103973.555 -41034.848 -647205.75 511402.72 -986557.4 782455.0 -235842.67
-759976.3 -179265.52 514383.44 40285.29 29712.885 502402.25 213578.16 215771.4
-1.0468946e+06 311250.3 154459.23 -313708.4 -320984.97 -154326.1 402342.88 -764688.94
954732.56 741314.0 -615099.6 1.1800336e+06 211884.52 -372698.5 -277809.9 -588648.56
248229.77 474347.88 705569.1 -666578.06 901692.6 206436.4 605152.44 428745.38
-953591.25 -560244.3 250271.22 1.0711128e+06 23240.012 1.0855421e+06 -6384.65 -84011.84
00000000: 9efb 5249 daa1 93c9 514c d1c8 0d61 07c9
00000010: c822 4646 5198 04c9 5434 27c9 ca0e 9dc8
00000020: 41a6 c2c8 76e8 3448 6eea 18c7 8dad 0cc9
00000030: b182 8247 78a9 b5c8 2803 1f49 10e4 3649
00000040: bece 9d48 0b50 ffc8 4af2 1248 e2cf 9a48
00000050: f68d e4c8 5a06 96c9 1ccc ca48 8b0c 24c8
00000060: 3475 bac7 bd39 d048 c194 ee48 1209 9248
00000070: 0fa5 1049 0c04 6848 1aff 59c8 03f7 99c9
00000080: 4270 0c49 d1b2 acc9 2e03 4848 92ea 0d49
00000090: ace8 fbc7 067f 83c8 a18a 9148 e99b 8348
000000a0: 6322 4c49 42fa c348 f067 05c9 092b ae47
000000b0: e514 db48 22be 44c7 88e5 00c9 37ba 5248
000000c0: ad16 6bc8 c131 fec8 fd2a a1c9 1c61 90c8
000000d0: 3679 03c7 35eb 5b49 71da 8bc8 77f7 87c9
000000e0: 8616 9d49 8a7b 9449 7547 2046 3318 9746
000000f0: b69a f7c8 30e9 97c8 967d 6cc8 b0c3 1bc9
00000100: d42c 9949 efc7 c848 c6a9 5846 327c 9949
00000110: 5e4b 0ec9 b904 08c9 f4ea 4bc9 9e00 2146
00000120: fdc9 aac8 e6e1 0249 bc80 a748 13dc 87c9
00000130: 9345 e1c8 4a81 8c48 15e6 08c9 706b c7c6
00000140: 0818 1ec9 f6e5 35c7 ffa7 2ec9 07d0 5e49
00000150: 6551 e2c8 2e79 4247 ab5d 7bc8 1281 5348
00000160: f2a5 b6c8 24f7 2848 d6a7 d7c7 6ccb 9848
00000170: ac82 a648 16a4 21c8 7f0e 8ac8 4a60 7cc8
00000180: 17ba 0048 907f e1c8 6bb9 2fc8 22fe 6e47
00000190: 6565 23c8 65bc e7c8 16a7 9ec8 0520 4349
000001a0: 4fa9 84c7 3295 90c9 7606 a2c9 fc27 4247
000001b0: 3118 ad48 52d2 ad48 5076 0049 7153 80c9
000001c0: 47e9 93c9 99ed bec7 8c9b 40c9 bd00 79c9
000001d0: d596 4ec8 a30a c746 ed89 9848 b0d6 e7c7
000001e0: 752e af48 207e 1149 9048 24c9 2ed4 b1c9
000001f0: 68cf acc8 357a 1c49 6776 93c8 6cae a647
00000200: e5de a4c6 4534 48c9 2642 71c9 94a5 f148
00000210: c042 0448 4053 86c8 9c37 8f48 28ec 67c9
00000220: 25cf 07c9 b0a5 7b49 72e4 a7c8 a65a 4b49
00000230: 6fc6 3348 0710 9449 d565 d0c8 7eba 5549
00000240: 2b41 7ac9 872f 8348 1430 9149 5ded 4e49
00000250: 1f6c 35c9 4c6f 80c8 264c 5549 3108 0448
00000260: 60ee c849 6c8b 0349 00e0 efc9 f734 6149
00000270: d0c4 99c7 a52c 6649 99e8 9549 7edb 3249
00000280: 6abf 67c9 aac8 e348 5800 01c9 0126 f947
00000290: 4580 5f49 76aa 84c5 a60e 04c9 e5b0 4747
000002a0: f770 03c9 1ca8 35c9 1575 2b49 9e81 aa48
000002b0: 95d7 1fc9 dabf d447 aa1d 4fc9 32d0 fe48
000002c0: a959 53c9 dad1 02c9 dce8 eb48 9c07 2bc9
000002d0: 6457 7ac8 73b3 ed48 2af2 0a49 ece1 6c49
000002e0: a8f3 5fc8 ec1e 15c9 d925 3649 49f6 e047
000002f0: 87e3 e848 2d19 efc8 b170 8e49 ba1d 1bc8
00000300: d62d 2448 acb3 4249 cffb 21c8 5416 e9c8
00000310: 38e2 cc47 17e7 e448 d366 3a48 342d a3c8
00000320: 9f0f 9348 6939 e348 58ec 40c8 e6dd d348
00000330: 6add 0fc9 815e aa48 f85a 4ec9 299c 01c9
00000340: 757d 9647 c712 cbc7 d94a 20c7 5c02 1ec9
00000350: 57b5 f948 d6db 70c9 7007 3f49 ab50 66c8
00000360: 858a 39c9 6110 2fc8 ee29 fb48 4a5d 1d47
00000370: c521 e846 4850 f548 8a92 5048 dab6 5248
00000380: ea96 7fc9 4afa 9748 cfd6 1648 8d2d 99c8
00000390: 1fbb 9cc8 86b5 16c8 dc74 c448 0fb1 3ac9
000003a0: c916 6949 20fc 3449 ba2b 16c9 0d0c 9049
000003b0: 21eb 4e48 50fb b5c8 3da6 87c8 89b6 0fc9
000003c0: 7169 7248 7c9d e748 1242 2c49 21bd 22c9
000003d0: ca23 5c49 1a99 4948 07be 1349 2c59 d148
000003e0: 74cf 68c9 45c7 08c9 ce67 7448 46c0 8249
000003f0: 0690 b546 3183 8449 3385 c7c5 ec15 a4c7

module.layers.0.1.running_var f4 [256]
2.0115344e+07 3.0579378e+06 4.6325725e+06 8.036435e+07 3.9165995e+06 3.2589744e+07 5.0114804e+07 2.617062e+07
5.1421975e+06 1.3392717e+07 6.462073e+07 2.406153e+07 2.5611286e+07 4.009957e+07 1.6098656e+08 8.9292824e+07
4.9932625e+06 1.2574822e+07 1.494957e+08 1.3938123e+08 1.1767035e+08 1.4518003e+08 7.328858e+07 3.8511804e+07
1.0989096e+08 9.2126184e+07 4.7722044e+07 6.3843885e+06 2.4856696e+07 5.8529205e+06 1.4537307e+08 1.2819102e+08
1.4620554e+07 5.8767075e+06 5.371583e+07 3.0356648e+07 8.7765624e+07 1.7569512e+08 4.0192828e+06 2.0252002e+07
2.3186048e+07 4.4431972e+07 4.4703056e+07 5.750416e+07 1.1484165e+08 9.717255e+06 4.4215052e+07 1.2954517e+07
6.9017955e+06 2.2798036e+07 6.2536644e+07 6.3889745e+06 6.4807972e+07 6.845024e+07 1.2493448e+07 3.965537e+07
9.5970744e+07 1.1891044e+08 1.8971856e+07 2.7425534e+07 1.6803811e+06 2.7598194e+07 2.8007476e+07 2.5402458e+07
1.3927783e+07 2.245483e+07 9.646716e+06 1.6486539e+07 8.868735e+07 3.4868525e+06 2.8223894e+07 2.9242536e+07
8.534284e+06 4.7185545e+06 1.4500279e+07 3.1763455e+06 4.3184775e+06 4.4844556e+07 1.4954785e+07 3.398652e+07
7.945217e+07 1.2210902e+07 8.6763464e+07 1.465824e+07 2.5084756e+07 2.1438584e+07 2.7759222e+07 1.4105848e+07
8.987072e+06 3.94666e+07 1.6617024e+07 5.23714e+06 2.7357398e+06 6.634028e+06 2.0481042e+07 6.957564e+07
1.2878955e+07 1.1300646e+07 3.9095148e+07 3.919802e+07 5.6438428e+07 9.503967e+07 1.3829886e+08 1.0008047e+07
8.493067e+06 2.5117352e+07 1.3923765e+08 4.5172035e+06 7.734958e+07 7.636787e+07 1.2255072e+07 9.246409e+07
1.4944229e+08 1.2237878e+08 2.5735106e+07 2.011746e+08 5.4777685e+06 6.38286e+07 5.909536e+07 7.816535e+07
8.959254e+06 1.8100154e+07 3.491651e+06 1.311009e+08 3.644969e+07 3.2004316e+07 7.39746e+06 1.0336418e+08
1.7739896e+07 1.5922433e+07 1.1769382e+07 2.2119308e+06 3.3015714e+07 1.4734783e+07 7.369086e+06 9.354342e+07
9.240333e+07 6.996559e+07 2.692738e+06 5.5770852e+07 4.9587884e+07 8.77288e+07 3.49878e+07 1.3915685e+08
4.9452268e+07 1.4914805e+07 5.650252e+07 5.780672e+07 1.6044796e+07 6.388791e+07 3.5701348e+06 1.5304244e+07
5.0072172e+07 7.211961e+07 5.278108e+07 4.5450532e+07 1.919032e+07 9.04768e+06 5.3468444e+07 5.2767924e+07
6.03897e+07 5.113197e+07 1.1661717e+07 3.7130216e+07 6.780196e+06 7.7401896e+07 4.0973656e+07 2.9665432e+07
9.89065e+06 7.7338376e+07 5.5536188e+07 9.532916e+07 2.7012448e+07 6.4378044e+07 4.0882932e+06 1.29194744e+08
1.660981e+07 1.5394571e+07 6.0579424e+07 2.1405461e+08 7.093284e+06 8.1381976e+07 2.0552493e+08 2.3469128e+07
1.3876579e+07 3.4370376e+07 4.279317e+07 5.1306948e+07 9.395805e+07 8.274389e+07 7.145517e+07 1.9552336e+07
6.677718e+07 5.6616736e+07 5.265433e+06 3.5780012e+07 6.031593e+06 8.878049e+06 4.9327545e+06 1.5975783e+07
8.305621e+06 4.119166e+06 1.0738874e+07 3.746408e+07 4.0348036e+07 1.1697084e+07 3.8774148e+07 3.291799e+07
5.0782336e+07 4.360731e+06 1.6072509e+07 2.4380642e+07 6.260628e+07 6.4177585e+06 1.8208492e+07 1.2309449e+06
8.437163e+07 2.582507e+07 5.050222e+06 2.547645e+07 7.882132e+06 5.5033305e+06 4.8220136e+07 2.8910002e+07
9.895552e+06 1.7673068e+07 1.0354959e+07 1.1791774e+08 2.3639994e+07 7.216413e+07 2.1615162e+07 6.412438e+06
4.1290924e+07 1.9208216e+07 6.2922236e+07 1.9854738e+07 7.5559325e+06 1.1176306e+07 1.2899475e+07 5.2457052e+07
1.21078136e+08 1.1720664e+08 4.6589965e+06 1.175231e+08 4.908688e+06 1.1353375e+07 6.1251265e+06 5.2310176e+07
7.719808e+06 2.396417e+06 1.2382795e+07 2.5106856e+07 3.1322032e+07 1.3014594e+07 9.939121e+07 4.988111e+07
00000000: c877 994b 47a4 3a4a f95f 8d4a 6848 994c
00000010: de0c 6f4a d8a3 f84b 3d2c 3f4c 7eaa c74b
00000020: 6bed 9c4a 4d5b 4c4b 2e82 764c 2d93 b74b
00000030: 0b66 c34b bcf7 184c 5c87 194d 0350 aa4c
00000040: dd61 984a 66e0 3f4b f991 0e4d 9fec 044d
00000050: 3a70 e04c 5874 0a4d 70c9 8b4c 2fe9 124c
00000060: b299 d14c 7db7 af4c 8f0b 364c 09d6 c24a
00000070: 3ca4 bd4b f19d b24a 79a3 0a4d 4681 f44c
00000080: 8a17 5f4b c757 b34a dee8 4c4c 549a e74b
00000090: 4f66 a74c 518e 274d 4b51 754a b182 9a4b
000000a0: 40e5 b04b 997e 294c 5487 2a4c 685c 5b4c
000000b0: 060b db4c 0746 144b c3aa 284c 95ab 454b
000000c0: 47a0 d24a 6aef ad4b f18e 6e4c ddf9 c24a
000000d0: 0939 774c f88e 824c 88a2 3e4b f245 174c
000000e0: b70c b74c bdcd e24c 68be 904b 7f3d d14b
000000f0: e91f cd49 b98e d24b 1aae d54b 2dce c14b
00000100: 6785 544b 1751 ab4b 7c32 134b 8b90 7b4b
00000110: 5f28 a94c 12d2 544a cb54 d74b 541a df4b
00000120: 0c39 024b b5ff 8f4a b741 5d4b 66de 414a
00000130: 1bca 834a 8311 2b4c 2131 644b f6a5 014c
00000140: 018b 974c d652 3a4b f97c a54c c0aa 5f4b
00000150: aa61 bf4b 3c90 a34b 3bc9 d34b f83c 574b
00000160: c021 094b 9a8d 164c 408e 7d4b 28d3 9f4a
00000170: eff9 264a 5874 ca4a 0942 9c4b 7bb4 844c
00000180: 6b84 444b 266f 2c4b db22 154c 5187 154c
00000190: a74b 574c 1746 b54c 5fe4 034d efb5 184b
000001a0: 0b98 014b 54a1 bf4b 91c9 044d a7da 894a
000001b0: 5a88 934c 00a9 914c 60ff 3a4b 7b5c b04c
000001c0: ef84 0e4d 446b e94c e157 c44b e4da 3f4d
000001d0: 112b a74a 9e7c 734c 506e 614c ad16 954c
000001e0: 16b5 084b dd17 8a4b 0c1d 554a 1c0e fa4c
000001f0: 660b 0b4c 6e2c f44b a8c0 e14a ca26 c54c
00000200: 3c58 874b 01f5 724b 2696 334b 6b01 074a
00000210: d1e3 fb4b bfd5 604b fce2 e04a 806b b24c
00000220: d03e b04c e372 854c 085a 244a b9bf 544c
00000230: ab29 3d4c 5454 a74c c677 054c d7b5 044d
00000240: 3ba5 3c4c f594 634b 3e8a 574c e083 5c4c
00000250: fcd2 744b 8ab6 734c 5be7 594a 3486 694b
00000260: 9b02 3f4c a78e 894c 0658 494c 4961 2d4c
00000270: 1869 924b 800e 0a4b 47f7 4b4c 2d4b 494c
00000280: 515e 664c 900d 434c 95f1 314b faa3 0d4c
00000290: 48ea ce4a e5a1 934c 564d 1c4c 4c54 e24b
000002a0: 5aeb 164b e182 934c 8fda 534c 71d3 b54c
000002b0: b016 ce4b 2f95 754c 9587 794a 5f6b f64c
000002c0: 1272 7d4b 0be7 6a4b 9817 674c 6d23 4c4d
000002d0: 4878 d84a 4b39 9b4c fc00 444d 240e b34b
000002e0: 63bd 534b d21c 034c 343e 234c 71b8 434c
000002f0: f435 b34c 4ad2 9d4c 384a 884c 282c 954b
00000300: 17bc 7e4c c8f9 574c 32b0 a04a 6b7d 084c
00000310: d211 b84a e177 074b 2589 964a 67c5 734b
00000320: aa77 fd4a f869 7b4a badc 234b 04ea 0e4c
00000330: 61ea 194c bc7b 324b 61e9 134c f324 fb4b
00000340: 20b8 414c 3614 854a 3d3f 754b 7102 ba4b
00000350: f2d2 6e4c bdda c34a 76eb 8a4b 0743 9649
00000360: 16ed a04c 9707 c54b dc1e 9a4a b15e c24b
00000370: 288b f04a c5f2 a74a faf1 374c d990 dc4b
00000380: 80fe 164b b6d5 864b 0f01 1e4b 06e9 e04c
00000390: dd5b b44b 64a4 894c 1de9 a44b 2cb1 c34a
000003a0: 2b83 1d4c 0c8c 924b 7f07 704c c97a 974b
000003b0: b996 e64a 7289 2a4b 93d4 444b 971b 484c
000003c0: 2ff0 e64c ce8d df4c 692e 8e4a 5428 e04c
000003d0: 20cd 954a 1f3d 2d4b 8dec ba4a 288c 474c
000003e0: 0097 eb4a 0444 124a 4bf2 3c4b d48c bf4b
000003f0: d8f7 ee4b 4296 464b dd92 bd4c 0648 3e4c

module.layers.1.0.weight f4 [128, 256]
-0.05195418 -0.043670613 -0.14408095 -0.10095236 0.036396157 0.02649931 0.037130654 -0.084742144
0.0028945778 0.02241208 0.072815605 0.06318311 0.04701406 -0.02922385 -0.03289825 -0.00786072
0.07152237 -0.0057703867 -0.054411694 -0.047311205 -0.14526059 -0.08252654 0.016396562 -0.093868524
-0.08445528 -0.097115844 -0.1225452 0.022080764 0.051139314 -0.09203898 -0.08581434 -0.028470974
0.11201727 0.06069781 0.2370452 0.054683656 -0.0649394 -0.22333801 0.005829787 0.027904268
0.03918486 -0.009044089 0.037624445 0.038803224 0.013697034 0.096231066 0.0866699 -0.041898
-0.23875253 0.0072690514 0.058931533 0.23721834 -0.04739658 0.0068383883 0.054402336 -0.1051314
-0.04680622 -0.109750606 0.13802138 0.105934925 -0.033288788 0.019050986 0.07788847 0.066878416
-0.032367997 0.0717085 0.060163207 -0.034312524 -0.103399865 -0.0017446949 0.0022809452 0.07029472
-0.012240596 0.07156993 -0.087264545 -0.124539085 -0.09373717 -0.011413129 0.049421415 -0.04753315
-0.024865773 -0.08561168 -0.23210722 -0.061482694 -0.07105704 -0.08011083 -0.051091872 -0.083588734
0.0009093239 0.043812204 -0.036209796 -0.044273593 -0.0041688276 -0.07756357 0.10088086 0.13785607
0.060652915 0.01252971 -0.1273694 0.047948267 0.08295235 -0.17360353 0.00490479 -0.09360039
-0.006681495 0.07954868 -0.07463384 0.0041194693 0.07741147 -0.10566665 0.16531931 0.009915218
0.15331654 0.06797029 -0.12127176 -0.08240049 0.058113173 -0.031782236 0.103282765 0.08734997
-0.011077499 -0.006754737 -0.0804761 -0.07149302 -0.11316956 0.09806152 0.12185174 0.050219953
0.026939401 0.048877288 0.036606386 0.23421143 -0.057239234 0.09855872 0.08909282 0.13085395
0.025099836 0.010747884 0.077489324 -0.08311123 -0.09073347 0.0154729085 -0.111070275 -0.03248066
0.0023927428 -0.03372783 0.007782813 -0.13607961 0.027203543 0.066155806 0.0834656 -0.08763453
-0.0806131 -0.08858945 -0.012675508 -0.055367943 0.110417 0.09718546 0.007340987 -0.06043847
0.0046823756 -0.052278772 -0.061929226 0.056486983 0.08278422 0.038620237 0.043351132 0.01027306
-0.0804514 0.20527087 0.042385455 -0.0013016646 0.044412147 0.036304362 -0.008436601 0.04085074
0.005992606 0.045299128 0.06376847 -0.19134654 0.18783925 0.2223934 -0.011504064 -0.08824054
-0.024313215 -0.05982287 -0.05291687 0.13653104 -0.015232876 0.06339046 -0.046593927 -0.01667681
-0.069403365 0.07840969 0.18318963 -0.028497146 -0.0061283056 -0.08977818 -0.023496464 -0.009908567
-0.0036924386 -0.00056649954 0.07858441 0.14366557 -0.061163902 0.2343393 -0.15260983 0.120037906
-0.047980703 -0.12757125 0.08838395 -0.10508698 0.0047062696 0.035382807 0.18430007 -0.112337105
-0.08981292 0.1162818 0.056089975 0.06910426 0.044883408 -0.1286873 -0.07640432 -0.05020372
0.090315916 -0.10813898 0.19182174 -0.11163957 0.12783201 0.15187342 -0.14519757 -0.0046323454
0.08362454 0.11197496 0.052866578 0.020493155 -0.033781625 0.11913492 -0.18989122 0.031623296
-0.11274216 -0.09482328 0.026537241 0.019453151 -0.057200078 0.059937697 -0.026662907 -0.119683154
-0.054261725 0.008786271 0.059459083 -0.0028243375 -0.010799444 -0.13751894 0.17023258 -0.054399244
00000000: e8cd 54bd f5df 32bd f589 13be 1cc0 cebd
00000010: 2314 153d 1515 d93c 5016 183d 4a8d adbd
00000020: f5b2 3d3b 8a99 b73c 5920 953d 2566 813d
00000030: d191 403d db66 efbc 51c0 06bd 40ca 00bc
00000040: 527a 923d 8315 bdbb ccde 5ebd 65c9 41bd
00000050: 31bf 14be ad03 a9bd 1552 863c 243e c0bd
00000060: e4f6 acbd ace4 c6bd faf8 fabd b8e2 b43c
00000070: 7577 513d ef7e bcbd 6ebf afbd f63b e9bc
00000080: 4f69 e53d 449e 783d fabb 723e f8fb 5f3d
00000090: f3fe 84bd b8b2 64be cc07 bf3b 7e97 e43c
000000a0: 4e80 203d a92d 14bc 171c 1a3d 21f0 1e3d
000000b0: 8669 603c cb14 c53d fd7f b13d 3d9d 2bbd
000000c0: 8b7b 74be 3931 ee3b 3162 713d 5de9 723e
000000d0: eb22 42bd 8f14 e03b fcd4 5e3d 224f d7bd
000000e0: e1b7 3fbd edc4 e0bd 7a55 0d3e 69f4 d83d
000000f0: d359 08bd d010 9c3c fd83 9f3d 8df7 883d
00000100: 4e94 04bd e8db 923d b26d 763d 4a8b 0cbd
00000110: 4fc3 d3bd 3fae e4ba e97b 153b aef6 8f3d
00000120: c88c 48bc 4193 923d c1b7 b2bd 590e ffbd
00000130: 46f9 bfbd 22fe 3abc 1c6e 4a3d 1fb2 42bd
00000140: 4eb3 cbbc 2d55 afbd 84ad 6dbe 47d5 7bbd
00000150: 5a86 91bd 2611 a4bd b645 51bd 9230 abbd
00000160: b25f 6e3a 6d74 333d b950 14bd 3a58 35bd
00000170: a99a 88bb a6d9 9ebd a09a ce3d 242a 0d3e
00000180: 316f 783d 6a49 4d3c 206d 02be 6765 443d
00000190: ece2 a93d 20c5 31be 5cb8 a03b 90b1 bfbd
000001a0: 71f0 dabb 6bea a23d a0d9 98bd 9dfc 863b
000001b0: e889 9e3d c267 d8bd 7749 293e 7073 223c
000001c0: 03ff 1c3e 0234 8b3d 545d f8bd 97c1 a8bd
000001d0: 1408 6e3d 172e 02bd ea85 d33d 8be4 b23d
000001e0: 667e 35bc d756 ddbb a7d0 a4bd ef6a 92bd
000001f0: 71c5 e7bd 7ad4 c83d 688d f93d 70b3 4d3d
00000200: 05b0 dc3c 8d33 483d 94f0 153d 1fd5 6f3e
00000210: b073 6abd 27d9 c93d 4c76 b63d 94fe 053e
00000220: 2c9e cd3c e517 303c b9b2 9e3d 3836 aabd
00000230: 78d2 b9bd 1582 7d3c d078 e3bd 710a 05bd
00000240: 90cf 1c3b 3126 0abd f806 ff3b 7458 0bbe
00000250: f7d9 de3c b27c 873d 03f0 aa3d bc79 b3bd
00000260: 7b18 a5bd 636e b5bd efac 4fbc 7fc9 62bd
00000270: 4f22 e23d 2c09 c73d aa8c f03b 548e 77bd
00000280: 9d6e 993b 4422 56bd 80a9 7dbd e55e 673d
00000290: c68a a93d 4130 1e3d f590 313d 5650 283c
000002a0: b4c3 a4bd 8732 523e 5f9c 2d3d 9e9c aaba
000002b0: 83e9 353d e2b3 143d ab39 0abc 1b53 273d
000002c0: 9f5d c43b 948b 393d 0b99 823d 59f0 43be
000002d0: ef58 403e 18bb 633e 8b7b 3cbc 75b7 b4bd
000002e0: 822c c7bc d308 75bd 5cbf 58bd cbce 0b3e
000002f0: 5093 79bc dcd2 813d 46d9 3ebd ce9d 88bc
00000300: 5a23 8ebd 4295 a03d 1096 3b3e d972 e9bc
00000310: f4cf c8bb 9fdd b7bd a87b c0bc 8b57 22bc
00000320: d7fc 71bb 2481 14ba ddf0 a03d 111d 133e
00000330: 0087 7abd a4f6 6f3e c045 1cbe 6fd6 f53d
00000340: 6a87 44bd 0aa2 02be a502 b53d d837 d7bd
00000350: 0d37 9a3b 90ed 103d 28b9 3c3e ff10 e6bd
00000360: d6ef b7bd 2725 ee3d 9abe 653d 8986 8d3d
00000370: aad7 373d 9bc6 03be de79 9cbd 6aa2 4dbd
00000380: 8df7 b83d f877 ddbd eb6c 443e 49a3 e4bd
00000390: 65e6 023e b584 1b3e acae 14be eeca 97bb
000003a0: 5843 ab3d 2153 e53d a08a 583d 43e1 a73c
000003b0: 9a5e 0abd 02fd f33d d872 42be 6e87 013d
000003c0: 5de5 e6bd b532 c2bd a164 d93c 375c 9f3c
000003d0: a14a 6abd 3b81 753d 2b6c dabc 711c f5bd
000003e0: 8b41 5ebd 4bf4 0f3c 5e8b 733d 8518 39bb
000003f0: 27f0 30bc c4d1 0cbe 7351 2e3e bed1 5ebd

module.layers.1.1.weight f4 [128]
1.0030515 0.99920607 1.016169 0.9884636 0.98470646 0.9883542 1.0596594 0.9852252
1.0178856 0.981571 0.9823733 0.9767464 0.9937013 1.0104238 0.9950067 0.9870214
1.0510767 1.0152582 1.0078197 0.9928013 1.0081486 0.97954524 0.99580044 1.0155987
1.0062791 1.0539464 1.0000894 1.0041139 1.0450066 0.9845144 1.0027272 1.0084689
1.0004481 0.9863486 1.0093067 0.9898267 1.0423933 0.98639 1.0057994 0.9927127
0.99059325 1.0109 0.97124225 0.9984378 0.9955107 0.9807663 0.99332887 0.9529577
1.0077467 0.98935544 0.99705297 0.99820465 0.97896624 1.0461491 1.0006922 1.0012097
0.97293574 1.0277622 0.9679887 0.9988443 0.9791188 0.9486366 1.0009266 0.9958708
1.0131735 0.99549735 0.9914026 0.98358923 1.0349417 0.9957186 0.9981387 0.9797826
1.0417409 0.9978499 1.0042844 0.9828368 0.9905902 0.99957514 0.99824315 0.99423534
1.0153557 0.99088866 1.0441325 0.9965869 0.97798723 1.0151981 0.9941024 1.0000066
1.0000992 0.98316604 1.0389925 0.97982496 1.0401232 0.9753273 0.9854759 0.99187636
1.0317935 1.058385 0.97819155 1.0035447 0.99868804 0.97737277 0.98775655 0.9763807
0.9886767 0.9689482 0.9913709 0.99654895 0.9701558 0.9790651 0.99476236 1.0110767
0.99940425 0.9916762 1.0612866 0.98872346 0.98496044 0.9964757 1.0068352 0.98829377
0.9445428 0.9693913 0.99131906 1.0025036 0.9903379 0.9938081 1.0288899 0.99103993
00000000: fe63 803f f8cb 7f3f d311 823f f30b 7d3f
00000010: b915 7c3f c804 7d3f eba2 873f b837 7c3f
00000020: 134a 823f 3d48 7b3f d17c 7b3f 0d0c 7a3f
00000030: 3563 7e3f 9155 813f c2b8 7e3f 6fad 7c3f
00000040: ae89 863f fbf3 813f 3c00 813f 3a28 7e3f
00000050: 030b 813f 7ac3 7a3f c7ec 7e3f 23ff 813f
00000060: c1cd 803f b7e7 863f ee02 803f ce86 803f
00000070: c7c2 853f 2309 7c3f 5d59 803f 8215 813f
00000080: af0e 803f 5881 7c3f f630 813f 4865 7d3f
00000090: 256d 853f 0e84 7c3f 09be 803f 6b22 7e3f
000000a0: 8597 7d3f 2c65 813f 55a3 783f 9f99 7f3f
000000b0: cad9 7e3f 8013 7b3f cd4a 7e3f 09f5 733f
000000c0: d8fd 803f 6646 7d3f dd3e 7f3f 578a 7f3f
000000d0: 889d 7a3f 37e8 853f af16 803f a427 803f
000000e0: 5112 793f b68d 833f 1cce 773f 43b4 7f3f
000000f0: 88a7 7a3f d9d9 723f 5d1e 803f 64f1 7e3f
00000100: abaf 813f ead8 7e3f 90cc 7d3f 81cc 7b3f
00000110: f878 843f 6ae7 7e3f 0586 7f3f 08d3 7a3f
00000120: c457 853f 1773 7f3f 648c 803f 319b 7b3f
00000130: 5297 7d3f 28e4 7f3f dd8c 7f3f 3586 7e3f
00000140: 2df7 813f e1aa 7d3f 22a6 853f 5220 7f3f
00000150: 5f5d 7a3f 03f2 813f 7f7d 7e3f 3700 803f
00000160: 4003 803f c5b0 7b3f b5fd 843f cfd5 7a3f
00000170: c222 853f 0daf 793f 2648 7c3f 9ceb 7d3f
00000180: cf11 843f 2979 873f c36a 7a3f 2774 803f
00000190: 05aa 7f3f 1a35 7a3f 9ddd 7c3f 16f4 793f
000001a0: eb19 7d3f fd0c 783f 7cca 7d3f d51d 7f3f
000001b0: 215c 783f 03a4 7a3f bfa8 7e3f f66a 813f
000001c0: f5d8 7f3f 7ede 7d3f 3dd8 873f fb1c 7d3f
000001d0: 5e26 7c3f 0819 7f3f fadf 803f d200 7d3f
000001e0: 8fcd 713f 072a 783f 16c7 7d3f 0a52 803f
000001f0: c986 7d3f 356a 7e3f aab2 833f cbb4 7d3f

module.layers.1.1.bias f4 [128]
-0.004268574 -0.003133708 0.011014139 -0.039885417 -0.0021803237 -0.004950374 0.05617308 -0.0053134495
0.011391279 -0.03144469 -0.014769955 -0.018591696 -0.001756956 0.01440669 0.005025317 -0.0069188997
0.024229439 0.003269807 -0.001665076 -0.0173681 -0.015231529 0.0031190657 0.0074567664 -0.0042105615
-0.014873437 0.0297147 -0.006496525 0.0006872757 0.03224084 -0.0125101665 0.0037169592 0.018071571
0.0057930653 -0.034527097 0.002390194 -0.0024963184 0.0063991374 -0.028810646 -0.014008616 -0.027433958
0.002179149 -0.005548488 -0.012533645 -0.018312454 -0.015010406 -0.024885435 -0.017774386 -0.028182942
-0.01982333 -0.028527755 -0.0064276196 0.022314321 -0.0099434 0.03273291 0.008697775 0.0011601885
-0.0064396486 0.00036284802 -0.030038582 0.0036956458 -0.02099898 -0.04723727 0.011927535 -0.00598107
0.0060721207 -0.010959306 0.003168236 -0.004855197 0.00993574 -0.027104648 0.01613213 -0.010460017
0.026277158 -0.018041272 0.010793231 -0.006084305 0.0071801846 0.0033723207 -0.005035785 -0.0075757764
-0.01864416 0.016021097 0.04779309 0.012012785 -0.01449472 0.016350392 -0.020979267 0.008255898
0.0043576974 -0.0060219606 0.0050278385 0.0014450484 -0.022013318 -0.011972922 -0.00034691294 0.0016439444
-0.009333397 0.017467545 -0.0006579965 0.0010019492 -0.016499642 -0.011231587 -0.027388692 -0.0192955
-0.0021465155 -0.015166464 0.0015172783 0.03109082 -0.03982535 -0.0335208 -0.017068634 0.0079535255
-0.0003212326 -0.017083192 0.03143838 -0.0046692747 -0.009723771 0.009826444 0.00311459 -0.0135227945
-0.049212992 -0.026268752 0.0027453627 -0.014375432 0.011152284 -0.028824328 0.0029751621 -0.010490607
00000000: 65df 8bbb e55e 4dbb a674 343c e45e 23bd
00000010: c3e3 0ebb bf36 a2bb be15 663d 721c aebb
00000020: 7da2 3a3c 26cc 00bd aefd 71bc 9d4d 98bc
00000030: a949 e6ba 0a0a 6c3c 6aab a43b f0b7 e2bb
00000040: d17c c63c 424a 563b ae3e daba 8c47 8ebc
00000050: aa8d 79bc 3d69 4c3b e457 f43b c0f8 89bb
00000060: b7af 73bc 3e6c f33c cde0 d4bb 4b2a 343a
00000070: f90e 043d 71f7 4cbc 3a98 733b d50a 943c
00000080: c1d3 bd3b 496c 0dbd cda4 1c3b 4699 23bb
00000090: dbaf d13b 4e04 ecbc 6584 65bc 2ebd e0bc
000000a0: 0ed0 0e3b 17d0 b5bb eb59 4dbc 0004 96bc
000000b0: 35ee 75bc 8adc cbbc 979b 91bc eadf e6bc
000000c0: 8964 a2bc 0ab3 e9bc c89e d2bb 86cc b63c
000000d0: a4e9 22bc f212 063d 1d81 0e3c 7711 983a
000000e0: b003 d3bb a33c be39 7913 f6bc a632 723b
000000f0: 0e06 acbc de7b 41bd b56b 433c dafc c3bb
00000100: a4f8 c63b a98e 33bc 2ea2 4f3b 5818 9fbb
00000110: 84c9 223c 910a debc 8727 843c 7e60 2bbc
00000120: 3243 d73c 4acb 93bc 18d6 303c d95e c7bb
00000130: c147 eb3b 2702 5d3b 3a03 a5bb 383e f8bb
00000140: a3bb 98bc ad3e 833c b0c2 433d 46d1 443c
00000150: 437b 6dbc 42f1 853c b6dc abbc bf43 073c
00000160: 04cb 8e3b de53 c5bb 91c0 a43b c767 bd3a
00000170: 4655 b4bc 132a 44bc dee1 b5b9 9f79 d73a
00000180: 1beb 18bc 1918 8f3c 667d 2cba d653 833a
00000190: 422a 87bc b104 38bc 405e e0bc 9911 9ebc
000001a0: 8eac 0cbb c37c 78bc 69df c63a 2db2 fe3c
000001b0: e81f 23bd 1b4d 09bd 85d3 8bbc 814f 023c
000001c0: 1c6b a8b9 0df2 8bbc 88c5 003d b700 99bb
000001d0: 7450 1fbc 18ff 203c 261e 4c3b b68e 5dbc
000001e0: 9093 49bd 9131 d7bc 8beb 333b ef86 6bbc
000001f0: 12b8 363c ff20 ecbc f0fa 423b cbe0 2bbc

module.layers.1.1.running_mean f4 [128]
0.17147237 -0.8813388 0.63028216 -0.8596234 0.6306048 0.5385147 -0.06299613 0.030787917
-0.6267412 0.93744564 -0.15228115 -0.29888326 -1.0427248 -0.3526009 0.445911 0.5511842
0.13481237 -0.17304108 -0.10359291 -0.9955262 0.15577196 0.19846864 0.26244238 -0.1301199
0.7142178 0.22164975 -0.23386939 0.33594695 0.49924976 -1.5864482 -1.0368015 0.18001175
-0.6432601 -0.039149225 0.62857604 -0.59886074 -0.9429201 -0.66149354 -0.10373522 -0.628709
-0.8093951 1.1087828 0.19998568 0.004626045 0.18402633 -0.63979286 0.9929981 0.5827924
-0.29595554 0.06869904 0.42360616 -0.4976464 0.18805614 -0.25315157 -1.2383807 0.36360797
-0.16249123 -0.16050717 -1.262264 0.10828013 0.53920364 0.20173977 -0.7733799 -1.2609468
0.5595757 -0.66722375 -0.6874227 1.0783767 -0.41896844 -0.7965683 0.81902957 2.4572155
-0.27439043 -0.49437523 -0.51679564 0.50589454 0.47423005 -0.9359219 0.7185891 -0.4467797
0.803539 -0.7777082 0.4425007 0.44956076 0.24911705 0.26394752 1.2101057 0.66478956
-0.15505706 -1.5831524 -0.48971206 0.48192853 -0.39024386 0.59077805 0.5659945 0.49401537
0.0945747 -0.36683792 -1.1489093 0.16224842 -0.15882169 -0.43183905 1.2502515 0.13390741
0.6314145 -0.43985108 0.46895936 -0.1308185 -0.1332847 0.009096428 -1.0709181 0.54369295
-0.020993322 -0.021468174 0.06007754 0.23450254 -0.27138996 0.646315 -0.047050446 0.46186182
0.9014026 -0.03777901 -0.19640422 -0.24918675 -0.992855 -0.012630684 0.43955514 -1.1427785
00000000: 7496 2f3e 6b9f 61bf 2c5a 213f 4710 5cbf
00000010: 516f 213f 19dc 093f 1d04 81bd f136 fc3c
00000020: 1c72 20bf 70fc 6f3f 97ef 1bbe 3a07 99be
00000030: 0278 85bf 1b88 b4be 724e e43e 681a 0d3f
00000040: 410c 0a3e ae31 31be 8528 d4bd ceda 7ebf
00000050: af82 1f3e 5d3b 4b3e d95e 863e 273e 05be
00000060: fad6 363f 27f8 623e 757b 6fbe 3d01 ac3e
00000070: aa9d ff3e bc10 cbbf e9b5 84bf 0055 383e
00000080: b2ac 24bf f05a 20bd 5cea 203f f04e 19bf
00000090: 3663 71bf a457 29bf 2273 d4bd 13f3 20bf
000000a0: 8434 4fbf 98ec 8d3f 0cc9 4c3e 1496 973b
000000b0: 6671 3c3e 77c9 23bf 2035 7e3f e231 153f
000000c0: 7c87 97be 15b2 8c3d e8e2 d83e 82cb febe
000000d0: ca91 403e 159d 81be 4283 9ebf d32a ba3e
000000e0: 1a64 26be fe5b 24be de91 a1bf f9c1 dd3d
000000f0: 4009 0a3f df94 4e3e 3afc 45bf b466 a1bf
00000100: 5a40 0f3f 2dcf 2abf effa 2fbf 3f08 8a3f
00000110: 0883 d6be e6eb 4bbf ecab 513f 0543 1d40
00000120: e77c 8cbe c01e fdbe b84c 04bf 4e82 013f
00000130: 48ce f23e 9498 6fbf 75f5 373f 4fc0 e4be
00000140: bbb4 4d3f e217 47bf 748f e23e d42c e63e
00000150: 8a18 7f3e 2124 873e bee4 9a3f a62f 2a3f
00000160: 47c7 1ebe bda4 cabf 8abb fabe 56bf f63e
00000170: 0bce c7be 3b3d 173f 04e5 103f 95ef fc3e
00000180: 61b0 c13d 2ed2 bbbe 760f 93bf 7324 263e
00000190: 27a2 22be 021a ddbe 3e08 a03f 061f 093e
000001a0: 61a4 213f 2934 e1be 711b f03e 49f5 05be
000001b0: c97b 08be 2f09 153c d813 89bf 762f 0b3f
000001c0: 30fa abbc 06de afbc de13 763d 6f21 703e
000001d0: a0f3 8abe e674 253f f8b7 40bd 2779 ec3e
000001e0: 52c2 663f 2abe 1abd 301e 49be d02a 7fbe
000001f0: bf2b 7ebf eef0 4ebc 5f0d e13e 9146 92bf

module.layers.1.1.running_var f4 [128]
1.2563937 0.9805913 0.87278724 0.7169464 0.98690534 0.970423 0.30025128 0.42064965
0.7819318 0.7964899 1.4784125 1.8995136 1.6202635 0.58584565 1.1387665 2.4499295
0.36958647 1.0771841 2.0478532 0.9851513 0.6382372 2.845604 2.1556354 0.50531954
0.50035965 0.25593695 1.3072437 0.5627044 0.87548774 1.5242496 2.7991483 0.5592808
1.822014 0.42615196 0.5051547 3.2270548 0.40311715 0.6106849 0.44154185 0.5200595
1.4506289 0.5594306 1.3138885 0.6496656 3.0309086 0.8117431 1.0325611 1.317464
0.52931726 0.97638243 0.6225424 2.2894833 1.0336049 0.51373583 2.3146703 1.2247616
3.541572 0.6780845 1.0978055 1.4237449 1.3042552 1.4816554 0.5663725 2.4196827
0.56729007 0.9984035 0.5490642 3.9139204 0.53525525 0.99432594 0.42579317 2.5439224
0.86654633 0.67172486 1.0546192 1.9411064 1.1688527 1.7739061 0.81237566 0.73763657
0.53890014 0.395317 0.18988837 1.3863332 1.746416 0.3719406 5.4551516 0.86930275
1.4511217 2.4114466 0.2848942 1.2593699 0.21095029 0.51804745 0.68869734 1.3695885
0.5605715 0.5771709 0.80587274 0.9162074 0.570041 0.80692637 0.49493238 1.8574194
3.1519814 1.2605788 1.1055189 1.3573576 1.3426971 1.0033011 1.4293388 0.8397509
0.5378597 1.5738258 0.879808 1.2840571 2.074977 0.7236121 0.77844006 1.0694542
2.5861392 1.4209958 4.499335 0.60555476 2.1032872 0.347609 0.45841706 3.33158
00000000: 82d1 a03f 0808 7b3f fc6e 5f3f cd89 373f
00000010: d4a5 7c3f a46d 783f 89ba 993e 645f d73e
00000020: af2c 483f c3e6 4b3f 9f3c bd3f 4323 f33f
00000030: cb64 cf3f fbf9 153f 1ac3 913f a5cb 1c40
00000040: 703a bd3e 2be1 893f 0710 0340 e032 7c3f
00000050: 8363 233f 601e 3640 eef5 0940 9f5c 013f
00000060: 9217 003f 2b0a 833e c353 a73f 650d 103f
00000070: f71f 603f 9c1a c33f 3f25 3340 072d 0f3f
00000080: c137 e93f 9730 da3e d251 013f 1188 4e40
00000090: 5f65 ce3e d855 1c3f c611 e23e 9f22 053f
000000a0: 35ae b93f d836 0f3f 802d a83f 7c50 263f
000000b0: 68fa 4140 65ce 4f3f f62a 843f a9a2 a83f
000000c0: 5681 073f 33f4 793f f05e 1f3f e586 1240
000000d0: 2a4d 843f 3184 033f 8f23 1440 fdc4 9c3f
000000e0: 1ea9 6240 f296 2d3f e484 8c3f 463d b63f
000000f0: d6f1 a63f e2a6 bd3f cafd 103f 15dc 1a40
00000100: ec39 113f 5f97 7f3f 798f 0c3f ac7d 7a40
00000110: 7d06 093f 258c 7e3f 9001 da3e a0cf 2240
00000120: fbd5 5d3f 29f6 2b3f c3fd 863f 2d76 f83f
00000130: f79c 953f 5b0f e33f daf7 4f3f c0d5 3c3f
00000140: 5cf5 093f fd66 ca3e 1972 423e 5e73 b13f
00000150: 8f8a df3f 006f be3e 9a90 ae40 a08a 5e3f
00000160: 5bbe b93f 2455 1a40 a7dd 913e 0833 a13f
00000170: 5a03 583e c29e 043f 784e 303f ad4e af3f
00000180: 9d81 0f3f 79c1 133f ad4d 4e3f 918c 6a3f
00000190: 35ee 113f ba92 4e3f c767 fd3e ebbf ed3f
000001a0: 10ba 4940 a55a a13f a581 8d3f e5bd ad3f
000001b0: 80dd ab3f 2c6c 803f 93f4 b63f eaf9 563f
000001c0: 2cb1 093f 2073 c93f 193b 613f fc5b a43f
000001d0: 6ccc 0440 a53e 393f d947 473f e0e3 883f
000001e0: 4e83 2540 31e3 b53f 8dfa 8f40 a305 1b3f
000001f0: 429c 0640 cff9 b13e a4b5 ea3e 9b38 5540
