test/output/local3/simulatorRun/fsv_volumes_pretrained/fold_2/current.nn.pt (torch_old, 737324 bytes, 42 tensors)

layers.0.0.weight f4 [256, 66]
0	0xbe8c2bbe	-0.27377123
1	0xbe03a95f	-0.12857579
2	0x3e048470	0.12941146
3	0x3cae78df	0.02129787
4	0x3ee28fcf	0.44250342
5	0x3e9b3b45	0.30318657
6	0x3d32fbce	0.04369717
7	0x3da68b00	0.08131981
8	0xbc451804	-0.012029652
9	0x3d9b06eb	0.07569679
10	0xbe714b44	-0.23563868
11	0xbdf90286	-0.121586844
12	0xbdd47a74	-0.103749186
13	0xbc9ca5e9	-0.01912208
14	0xbe0ad968	-0.13559496
15	0x3e528009	0.20556654
16	0x3c4301f5	0.011902322
17	0xbd94215b	-0.072329246
18	0x3d4a65a5	0.049413342
19	0xbe0272af	-0.12739061
20	0xbddf3d83	-0.10900404
21	0x3ecc8a9a	0.39949495
22	0x3e88a2ac	0.2668661
23	0xbdb45521	-0.088052996
24	0xbeb4cfc0	-0.3531475
25	0xbed1ac89	-0.40951946
26	0xbeb11a73	-0.34590492
27	0x3d60705c	0.054794654
28	0x3d9a3f4e	0.07531606
29	0xbe613356	-0.2199224
30	0xbc959962	-0.018261615
31	0x3de6b38a	0.11264713
32	0x3ecfd42e	0.40591568
33	0x3cad072e	0.021121588
34	0x3e9a7c0a	0.3017276
35	0x3da5367d	0.080670334
36	0x3ca2d5d2	0.019877348
37	0x3bb82c3c	0.0056205075
38	0x3c79e5e2	0.015252562
39	0xbdbb3694	-0.09141269
40	0x3ce6b224	0.028161116
41	0xbd90d9a1	-0.070727594
42	0x3dfdb2db	0.123876296
43	0x3ec1864b	0.3779777
44	0x3e00d637	0.12581716
45	0xbddf7f03	-0.109128974
46	0xbe140ab2	-0.14457205
47	0xbdbcc72b	-0.09217676
48	0xbe1bd0ca	-0.15216365
49	0x3e4b5a00	0.19858551
50	0xbe56852f	-0.20949243
51	0xbe487f9e	-0.19579932
52	0x3c75e94a	0.015009234
53	0xbeb6f159	-0.3573101
54	0x3e563e45	0.20922191
55	0xbd8646df	-0.06556486
56	0xbe617574	-0.22017461
57	0x3e2c1c4d	0.16807671
58	0xbcaec924	-0.021336146
59	0x3f01b386	0.50664556
60	0xbe2c1f42	-0.16808799
61	0x3e2318af	0.15927385
62	0x3e98b1ab	0.2982305
63	0x3e0d3d2b	0.13792865
64	0xbec23a1d	-0.37934962
65	0xbd3fbd78	-0.04681155
66	0xbd6ef4e5	-0.05833902
67	0x3d214872	0.03937573
68	0xbe8ea807	-0.2786257
69	0x3decfeb3	0.115720175
70	0xbe62b1e2	-0.2213817
71	0x3da6b8e4	0.08140734
72	0xbe415ffd	-0.18884273
73	0xbcbd4a70	-0.023106784
74	0x3da9753f	0.08274316
75	0x3e2a16a3	0.16610198
76	0x3da6a44b	0.08136805
77	0x3e92c4ba	0.28665715
78	0xbcae1670	-0.021250933
79	0x3c3fd8cb	0.011709402
80	0xbe0cbb36	-0.1374329
81	0x3c5cf787	0.0134867495
82	0x3e180d03	0.14848714
83	0xbe35e437	-0.17762838
84	0xbe336427	-0.17518674
85	0x3defc4b2	0.117074385
86	0x3d2c8061	0.04211462
87	0x3db262ec	0.08710274
88	0xbeacf310	-0.33779192
89	0xbe009856	-0.12558112
90	0x3e9e6c8b	0.30942187
91	0x3b9b455c	0.004738493
92	0xbd3ffd07	-0.046872165
93	0xbc0ae380	-0.008477092
94	0xbdc0682c	-0.09394869
95	0x3d8e99d7	0.06962936
96	0x3e7aa26a	0.24476019
97	0xbe46fe26	-0.19432887
98	0x3df58cd2	0.1198975
99	0xbd639cb4	-0.055569366
100	0xbe346d97	-0.1761993
101	0x3e9ffae1	0.31246093
102	0x3e625972	0.22104433
103	0x3d4ce01e	0.050018422
104	0xbdc38f17	-0.095487766
105	0x3e2e3a18	0.17014349
106	0xbe36c452	-0.17848328
107	0x3ea1d0f4	0.3160473
108	0xbc560f40	-0.013065159
109	0xbd6655fd	-0.05623435
110	0x3d5197a8	0.05117002
111	0x3ce01d17	0.027357621
112	0x3db72df3	0.08944311
113	0x3bb9c27e	0.005668937
114	0xbd84728e	-0.06467162
115	0xbdfc1c95	-0.12310139
116	0xbd35ab67	-0.044352915
117	0xbdcf0201	-0.10107804
118	0x3c82f4e3	0.015985912
119	0x3e09fab4	0.13474542
120	0x3d1c3937	0.0381405
121	0xbd7e8bcb	-0.062145036
122	0xbe338f49	-0.17535128
123	0xbda92956	-0.08259837
124	0xbe34dc50	-0.17662168
125	0xbe2e1613	-0.17000608
126	0x3db2bce9	0.08727438
127	0xbe611243	-0.21979623
128	0xbebce781	-0.36895373
129	0x3ec67742	0.38762861
130	0xbdbcbdf8	-0.09215921
131	0xbdb6818e	-0.08911429
132	0x3e849649	0.25895908
133	0xbd89887a	-0.06715484
134	0xbd9a7d23	-0.07543399
135	0xbd90ba63	-0.070668004
136	0xbc757fc6	-0.014984077
137	0xbe8f06a6	-0.2793476
138	0xbc1d766f	-0.009610756
139	0xbe22500b	-0.15850846
140	0xbd79d3d4	-0.06099303
141	0x3e3fdbd7	0.18736206
142	0xbe3b77e7	-0.18307458
143	0xbe61560d	-0.22005482
144	0xbe763bf4	-0.24046308
145	0xbd8715a7	-0.06595927
146	0xbc398500	-0.011323214
147	0x3c8cb862	0.017177764
148	0xbd349ae0	-0.044093013
149	0xbe7e1d2c	-0.24815816
150	0x3d34fcda	0.04418645
151	0xbdf6147b	-0.12015625
152	0xbe589206	-0.21149454
153	0x3d459b6b	0.04824392
154	0x3d60df41	0.05490041
155	0xbcd1d379	-0.025613533
156	0xbe854554	-0.26029456
157	0x3e347b0a	0.1762506
158	0x3e3c1a42	0.18369392
159	0x3e91c336	0.28469247
160	0x3e4f7c95	0.20262368
161	0xbe2b5686	-0.16732225
162	0x3e4c4ac4	0.19950396
163	0xbd886ddf	-0.06661581
164	0x3dc9ddde	0.09856771
165	0x3d9408a8	0.072282135
166	0xbe04a5a9	-0.1295382
167	0xbe5ee858	-0.2176832
168	0xbddee82b	-0.10884126
169	0x3ea1e948	0.31623292
170	0xbe4bc744	-0.19900233
171	0x3dc2a4f6	0.0950412
172	0xbe595796	-0.21224818
173	0x3e4e7b33	0.20164184
174	0x3d9dec06	0.077110335
175	0xbd92eef6	-0.071744844
176	0x3de16f17	0.11007517
177	0x3e780dd1	0.2422402
178	0x3e308d99	0.17241515
179	0x3e509dd1	0.20372702
180	0x3d754c4a	0.059887208
181	0x3ee4f276	0.44716233
182	0xbeb3a559	-0.35087088
183	0x3d0ddecd	0.034636308
184	0xbd697515	-0.056996424
185	0xbe69b084	-0.22821242
186	0x3e028a4b	0.12748067
187	0xbe321400	-0.17390442
188	0xbea030f7	-0.31287357
189	0x3e44a187	0.19202243
190	0xbea806d1	-0.328177
191	0xbddddbe7	-0.10832959
192	0xbe5c4863	-0.21511988
193	0xbde6da93	-0.112721585
194	0xbda4d054	-0.08047548
195	0x3daf0fc9	0.08547933
196	0xbcfd45cf	-0.030917076
197	0xbed407fa	-0.41412336
198	0xbe129f8f	-0.1431868
199	0x3e831a50	0.25606012
200	0x3e123a96	0.14280161
201	0x3dd3e280	0.10345936
202	0xbe4b31cd	-0.19843216
203	0x3e7fe300	0.24988937
204	0x3e701225	0.23444422
205	0xbd891064	-0.066925794
206	0x3e4b5b62	0.19859079
207	0x3c9cb273	0.01912806
208	0xbe00cfc3	-0.12579255
209	0xbd9f971d	-0.077924944
210	0x3ef4ce9c	0.4781388
211	0xbe95c041	-0.2924824
212	0x3bf1be56	0.007377426
213	0xbe16d4b8	-0.14729583
214	0x3c55bdf6	0.0130457785
215	0xbce319d3	-0.027722275
216	0xbe818e66	-0.25303954
217	0x3cbc7232	0.023003671
218	0xbdb1204d	-0.08648739
219	0xbe70cf9d	-0.23516698
220	0xbea7cf03	-0.32775125
221	0x3ed1a96f	0.4094958
222	0xbeaf9dab	-0.3429998
223	0xbbefadba	-0.007314411
224	0x3e4eed1b	0.20207636
225	0x3bc7af92	0.0060939277
226	0x3e9fe573	0.31229743
227	0x3be321ee	0.006931535
228	0xbe756ba1	-0.23966838
229	0x3e2e9ac4	0.17051226
230	0xbe09d7bd	-0.13461204
231	0x3e8b48f0	0.27204084
232	0xbd29980e	-0.041404776
233	0xbd9faebd	-0.077970006
234	0xbe889ed7	-0.26683685
235	0xbdea1982	-0.114306465
236	0x3e4820ec	0.19543809
237	0x3ebeffb0	0.3730445
238	0xbdf6eeed	-0.1205729
239	0x3d7b8e71	0.06141514
240	0x3e235a33	0.15952377
241	0xbe30b6bc	-0.17257208
242	0x3d66864a	0.05628041
243	0xbdf32e5f	-0.11874079
244	0x3e5f48d3	0.21805124
245	0xbdab69fd	-0.08369825
246	0xbddc0d2d	-0.107447006
247	0x3d3c90d2	0.04603655
248	0x3ebe2226	0.37135428
249	0x3d850303	0.06494715
250	0x3d3a1648	0.045431405
251	0xbda53e8a	-0.08068569
252	0xbe828890	-0.25494814
253	0xbe2163cd	-0.15760727
254	0xbe91839b	-0.2842072
255	0x3d893ebf	0.06701421

layers.0.1.weight f4 [256]
0	0x3f7dfbe4	0.9921248
1	0x3f755879	0.95838124
2	0x3f822a55	1.0169169
3	0x3f77af99	0.96752316
4	0x3f7fdaba	0.99943125
5	0x3f86ba0a	1.0525525
6	0x3f81eac9	1.0149776
7	0x3f6b2714	0.91856503
8	0x3f7b394c	0.98134303
9	0x3f7a522d	0.9778164
10	0x3f767f86	0.96288335
11	0x3f7fec3e	0.9996985
12	0x3f8288b2	1.0197966
13	0x3f77dc50	0.96820545
14	0x3f777b67	0.9667267
15	0x3f82be00	1.0214233
16	0x3f755bfb	0.95843476
17	0x3f7af1ad	0.9802502
18	0x3f76ac59	0.9635673
19	0x3f754dd3	0.95821875
20	0x3f7e0f2b	0.99241894
21	0x3f8660ae	1.0498254
22	0x3f89d695	1.076861
23	0x3f80a382	1.0049899
24	0x3f82ca70	1.0218029
25	0x3f7d24ca	0.9888426
26	0x3f900538	1.1251593
27	0x3f79b4d1	0.9754153
28	0x3f944072	1.1582167
29	0x3f7b4d34	0.9816468
30	0x3f84abbd	1.036491
31	0x3f88dc0d	1.0692154
32	0x3f7bed1e	0.9840869
33	0x3f789b97	0.9711241
34	0x3f70914a	0.93971694
35	0x3f78d15e	0.9719447
36	0x3f74eaab	0.95670575
37	0x3f78a5d0	0.9712801
38	0x3f7e38a6	0.9930519
39	0x3f77aa2e	0.9674405
40	0x3f76047a	0.9610058
41	0x3f7a5bfc	0.97796607
42	0x3f7a0bcc	0.9767425
43	0x3f751a92	0.9574367
44	0x3f802c59	1.0013534
45	0x3f7a3a5b	0.97745293
46	0x3f7676af	0.96274847
47	0x3f7fdae9	0.99943405
48	0x3f7ba2a1	0.98295027
49	0x3f751377	0.95732826
50	0x3f7d84a3	0.9903051
51	0x3f82214a	1.0166409
52	0x3f80bc66	1.0057495
53	0x3f7a31b6	0.977321
54	0x3f745e43	0.9545633
55	0x3f809bd9	1.0047561
56	0x3f7666cc	0.96250606
57	0x3f7d1810	0.9886484
58	0x3f70cea7	0.94065326
59	0x3f796977	0.9742655
60	0x3f7946f9	0.9737392
61	0x3f7efa36	0.9960054
62	0x3f7ef2be	0.99589145
63	0x3f79d3f0	0.97589016
64	0x3f7bb771	0.98326784
65	0x3f783ca2	0.9696752
66	0x3f8596b0	1.0436611
67	0x3f858da7	1.0433854
68	0x3f7d0edc	0.988508
69	0x3f7c2a2b	0.98501843
70	0x3f7c596d	0.9857395
71	0x3f7f754a	0.99788344
72	0x3f84576e	1.0339181
73	0x3f7918e8	0.9730363
74	0x3f7cb468	0.9871278
75	0x3f80d945	1.0066305
76	0x3f8102ae	1.0078943
77	0x3f81e68d	1.0148484
78	0x3f7de6f0	0.9918051
79	0x3f819a20	1.012516
80	0x3f820a6b	1.0159429
81	0x3f896019	1.0732452
82	0x3f7c1b79	0.9847942
83	0x3f7618f5	0.9613183
84	0x3f851306	1.039643
85	0x3f8802d1	1.062586
86	0x3f7fccb1	0.9992171
87	0x3f772b8d	0.9655083
88	0x3f750f9e	0.95726955
89	0x3f782b5f	0.9694118
90	0x3f7a0c9e	0.976755
91	0x3f9311d0	1.1489811
92	0x3f7becef	0.98408407
93	0x3f838a48	1.0276575
94	0x3f7c34df	0.98518175
95	0x3f751de9	0.95748764
96	0x3f7947d0	0.973752
97	0x3f789dac	0.9711559
98	0x3f818279	1.0117942
99	0x3f74b21f	0.9558429
100	0x3f8238ae	1.0173547
101	0x3f7b1876	0.980842
102	0x3f7be375	0.98393947
103	0x3f80ded7	1.0068005
104	0x3f6fc3b3	0.9365799
105	0x3f7a72a5	0.97831184
106	0x3f8a27fe	1.0793455
107	0x3f8160b1	1.0107633
108	0x3f7d479b	0.98937386
109	0x3f82556f	1.0182322
110	0x3f80fa6e	1.0076425
111	0x3f726541	0.9468575
112	0x3f7a5ac5	0.97794753
113	0x3f80d2c7	1.0064324
114	0x3f84418f	1.0332507
115	0x3f77c664	0.96787095
116	0x3f855a11	1.0418111
117	0x3f803169	1.0015079
118	0x3f7fdb55	0.9994405
119	0x3f7a240e	0.97711265
120	0x3f865a01	1.0496217
121	0x3f7758a4	0.9661963
122	0x3f75ce20	0.96017647
123	0x3f73157f	0.94954675
124	0x3f810866	1.0080688
125	0x3f7691f5	0.9631646
126	0x3f84f393	1.0386833
127	0x3f7c39be	0.9852561
128	0x3f7f2890	0.9967127
129	0x3f76c291	0.96390635
130	0x3f8120dc	1.0088153
131	0x3f8051cb	1.0024961
132	0x3f809d7a	1.0048058
133	0x3f749ffb	0.9555661
134	0x3f7d936a	0.9905306
135	0x3f77e244	0.9682963
136	0x3f7ea3c6	0.9946865
137	0x3f752f4c	0.95775294
138	0x3f8122c9	1.008874
139	0x3f868299	1.0508605
140	0x3f7baecc	0.98313594
141	0x3f882ca1	1.063862
142	0x3f7a9f36	0.97899187
143	0x3f73c4fc	0.9522245
144	0x3f847458	1.0348005
145	0x3f72d7a6	0.94860303
146	0x3f7b2014	0.9809582
147	0x3f780a0a	0.9689032
148	0x3f7a8d3f	0.97871774
149	0x3f8296b0	1.0202236
150	0x3f956b52	1.1673377
151	0x3f7a6f13	0.97825736
152	0x3f7fd1c2	0.9992944
153	0x3f85205f	1.0400504
154	0x3f77494d	0.96596223
155	0x3f7dfca1	0.99213606
156	0x3f8751ee	1.0571878
157	0x3f86b20b	1.0523084
158	0x3f8ea5d3	1.1144356
159	0x3f94e1b1	1.1631376
160	0x3f7b6396	0.9819883
161	0x3f81c831	1.0139219
162	0x3f889560	1.0670586
163	0x3f820cda	1.0160172
164	0x3f81b2ca	1.0132687
165	0x3f76629c	0.96244216
166	0x3f7aa2f9	0.97904927
167	0x3f77adc7	0.9674954
168	0x3f7c78ea	0.98622
169	0x3f7b5e90	0.98191166
170	0x3f80e2c2	1.0069201
171	0x3f7ac340	0.9795418
172	0x3f71ee7a	0.9450451
173	0x3f7617df	0.96130174
174	0x3f776d3d	0.9665106
175	0x3f80b90c	1.0056472
176	0x3f80312a	1.0015004
177	0x3f75abb5	0.9596513
178	0x3f80d43c	1.0064769
179	0x3f73e79b	0.95275277
180	0x3f7e1418	0.9924941
181	0x3f864a08	1.0491343
182	0x3f72268e	0.9459008
183	0x3f71cf78	0.944572
184	0x3f794512	0.9737102
185	0x3f7b57be	0.9818076
186	0x3f7333d5	0.95000964
187	0x3f77ef4c	0.96849513
188	0x3f780654	0.96884656
189	0x3f7dd4fb	0.9915311
190	0x3f834735	1.0256106
191	0x3f952c9d	1.165424
192	0x3f79f748	0.97642946
193	0x3f8246a2	1.0177805
194	0x3f7e6286	0.99369085
195	0x3f81a4ab	1.0128378
196	0x3f7d0d21	0.9884816
197	0x3f7d939e	0.9905337
198	0x3f84b409	1.0367442
199	0x3f7d23b6	0.98882616
200	0x3f7e91f4	0.99441457
201	0x3f79484a	0.9737593
202	0x3f7e05ae	0.99227417
203	0x3f835162	1.0259211
204	0x3f735992	0.9505855
205	0x3f6fa0f6	0.9360498
206	0x3f702888	0.93811846
207	0x3f8068b9	1.0031959
208	0x3f85c576	1.0450885
209	0x3f809c9a	1.0047791
210	0x3f7771ed	0.9665821
211	0x3f7fce98	0.9992461
212	0x3f8041e5	1.002011
213	0x3f715644	0.94272256
214	0x3f78008e	0.96875846
215	0x3f7f295c	0.99672484
216	0x3f777a7c	0.9667127
217	0x3f87f8a8	1.0622759
218	0x3f7c64f4	0.9859154
219	0x3f706631	0.9390593
220	0x3f8747f6	1.0568836
221	0x3f7a1986	0.97695196
222	0x3f85d10b	1.045442
223	0x3f81bd1a	1.0135834
224	0x3f7f49b3	0.9972183
225	0x3f933dca	1.1503232
226	0x3f7ac885	0.9796222
227	0x3f8e30cb	1.110864
228	0x3f8d7e23	1.1054119
229	0x3f7a00bc	0.9765737
230	0x3f89497f	1.0725554
231	0x3f7374b2	0.9509994
232	0x3f817cb7	1.0116185
233	0x3f87aa95	1.0598933
234	0x3f7bdb90	0.983819
235	0x3f798084	0.97461724
236	0x3f84bb5c	1.0369678
237	0x3f831146	1.0239646
238	0x3f801762	1.0007136
239	0x3f7da66f	0.9908208
240	0x3f7a19a6	0.97695386
241	0x3f7dbf5e	0.9912013
242	0x3f6c0202	0.92190564
243	0x3f8e7999	1.1130859
244	0x3f867705	1.0505072
245	0x3f738ff2	0.9514152
246	0x3f7b2f8a	0.98119414
247	0x3f7d75eb	0.99008054
248	0x3f74c6e5	0.9561599
249	0x3f7883b9	0.9707599
250	0x3f848964	1.0354428
251	0x3f8332b1	1.0249845
252	0x3f70b390	0.9402399
253	0x3f7fe913	0.9996502
254	0x3f787b65	0.97063285
255	0x3f7b63a2	0.981989

layers.0.1.bias f4 [256]
0	0x3d22e29f	0.039766904
1	0xbd2286c1	-0.039679293
2	0xbb905d70	-0.00440567
3	0xbcfc5f48	-0.030807152
4	0xbb2fb20b	-0.0026809003
5	0x3e01c45c	0.12672561
6	0x3c2fc69d	0.010728505
7	0xbcb60a8b	-0.022221824
8	0x3c6e7633	0.014554548
9	0xbcf9dd2e	-0.030500975
10	0xbd192fb5	-0.037399013
11	0x3d21c203	0.039491665
12	0x3cfd2b85	0.03090454
13	0x3c28b619	0.010297322
14	0xbbb0b176	-0.0053922487
15	0x3b60bf11	0.0034293572
16	0xba22b63c	-0.00062069646
17	0x3bb52d81	0.005529106
18	0xbc875829	-0.01652153
19	0xbd11aad9	-0.035563324
20	0xbc12d41c	-0.008961704
21	0x3cfde874	0.030994631
22	0x3d8839f9	0.066516824
23	0xbd90614c	-0.07049808
24	0x3c530b07	0.012881047
25	0x3bc4b8db	0.006003482
26	0x3e69e465	0.22841032
27	0x3c9c0e2f	0.019049732
28	0x3e069a97	0.13144909
29	0xbaaf253c	-0.0013362537
30	0x3da75184	0.08169845
31	0x3d7cd0f1	0.0617227
32	0xbb1048c5	-0.002201603
33	0xbd1f7a18	-0.038934797
34	0xbbcfb59f	-0.0063387896
35	0xbd106cae	-0.035259895
36	0xbd32e054	-0.043670967
37	0xbd6dd6db	-0.05806623
38	0x3ca4dc27	0.020124508
39	0xbbb6f3a7	-0.005583245
40	0xbc8204d9	-0.015871452
41	0x3cb9e8e1	0.022694053
42	0x3d422620	0.04739964
43	0xbb9d8733	-0.004807377
44	0xbcabe706	-0.020984184
45	0xbce23177	-0.027611477
46	0xbd2ce557	-0.042210903
47	0x3c74281a	0.014902139
48	0x3c0ae887	0.00847829
49	0xbc8f7692	-0.017512593
50	0x3cdb2c0f	0.026754407
51	0x3d136427	0.035984185
52	0xbb600d18	-0.0034187492
53	0xbcc51c8d	-0.024061466
54	0xbd087b3f	-0.03332066
55	0x3b5ebb2f	0.0033986082
56	0xbccad96b	-0.024761876
57	0xbbbf40f5	-0.005836601
58	0xbd04f462	-0.032459624
59	0x3bdf5954	0.0068160687
60	0xbce6bcd3	-0.02816621
61	0x3d0acdfb	0.033887845
62	0x3d09b68b	0.033621352
63	0xbc83f8ba	-0.016109813
64	0xbbb50e27	-0.0055253687
65	0xbcb86bc5	-0.022512326
66	0x3db39f42	0.087706104
67	0x3d5f8c55	0.05457719
68	0xbd10bbef	-0.035335477
69	0x3d5a1b2c	0.05324857
70	0xbc11aeba	-0.008891756
71	0x3cc113a1	0.02356893
72	0x3cbfe20f	0.023423223
73	0x3c0fdfbe	0.008781372
74	0x3bf5f78c	0.0075063165
75	0x3d2bb9a4	0.041925088
76	0x3ca913ca	0.020639319
77	0x3c3bad92	0.011454957
78	0xbc554783	-0.013017538
79	0x3ca048e4	0.019566007
80	0x3d03d504	0.03218557
81	0x3e21988c	0.15780848
82	0x3c3ea146	0.01163513
83	0xbbc86c59	-0.0061164317
84	0x3d45ad8e	0.048261218
85	0x3d6113f3	0.054950666
86	0xbc00b3b7	-0.007855347
87	0xbce1ecde	-0.027578767
88	0xbcf81906	-0.03028537
89	0x3bc02836	0.0058641685
90	0xbc87d2ea	-0.016580064
91	0x3d33b2c8	0.04387167
92	0x3bf206b9	0.0073860553
93	0x3d83bb6a	0.06432231
94	0xbccb0abd	-0.024785394
95	0xbd2790ad	-0.040909458
96	0xbc9c15d9	-0.019053387
97	0xbc2e9004	-0.010654453
98	0x3c8602ec	0.016358815
99	0xbce9c898	-0.028538033
100	0xbc5b5566	-0.01338706
101	0xbd0e233c	-0.03470157
102	0x3c887648	0.016657963
103	0x3ae1a2f1	0.0017214698
104	0xbcb1d371	-0.021707268
105	0x3bcffc09	0.0063471836
106	0x3e26037c	0.16212267
107	0x3cd2eb1e	0.025746878
108	0xbc27e625	-0.010247742
109	0x3d165fa8	0.03671232
110	0x3d3def12	0.046370573
111	0xbd226e05	-0.039655704
112	0xbc0a74ea	-0.008450726
113	0xbab44d52	-0.0013755953
114	0x3d40f49e	0.047108285
115	0xbce7b5b2	-0.028284881
116	0x3b4af919	0.0030971228
117	0xbb2aab6a	-0.0026042112
118	0xbc766133	-0.015037823
119	0xbca0a481	-0.019609692
120	0x3d861d31	0.065485366
121	0xbb27aaa6	-0.0025583892
122	0xbcc9fc51	-0.024656447
123	0xbcc7c373	-0.02438519
124	0x3c82cbbe	0.015966292
125	0xbbab54a8	-0.0052285977
126	0x3e2c684a	0.16836658
127	0xbc83412c	-0.016022287
128	0x3c5a1dba	0.013312751
129	0x3c0668c6	0.008203691
130	0x3cfc7e20	0.03082186
131	0x3cc0dfdb	0.023544243
132	0x3cdcaa5a	0.026936699
133	0x3ccbdc49	0.024885314
134	0x3cce86af	0.025210707
135	0xbce2e40c	-0.027696632
136	0xbc56ccd4	-0.013110358
137	0xbc95a9e6	-0.01826949
138	0x3ccf7b5e	0.02532738
139	0x3a33e4d8	0.00068624085
140	0xba2b662f	-0.0006538359
141	0x3d99e0a6	0.075135514
142	0xbc3d9366	-0.011570787
143	0x3b978a78	0.004624661
144	0x3d56b2ef	0.052416738
145	0xbd450271	-0.04809803
146	0xbc8ba6ec	-0.017047368
147	0x3aa4d48a	0.0012575549
148	0xbbcbb2d7	-0.0062163877
149	0x3d1af365	0.037829775
150	0x3db9096e	0.09035002
151	0xbc05a792	-0.008157628
152	0x3c5b6118	0.013389848
153	0x3dc0e83f	0.094192974
154	0xbc685f74	-0.014182914
155	0xbcce428f	-0.025178222
156	0x3d06ac82	0.03287936
157	0x3ce8aa53	0.02840153
158	0x3dd0ace5	0.10189227
159	0x3e3da4c6	0.18519887
160	0x3c6ff5f3	0.014646041
161	0xbc8ac18f	-0.016937999
162	0x3df56888	0.119828284
163	0x3ac2bde3	0.0014857616
164	0x3c8403bd	0.016115064
165	0xbd678e99	-0.056532476
166	0xbcda983a	-0.026683915
167	0xbc47ca51	-0.012194232
168	0xbc99c0e7	-0.01876874
169	0x3d0ef0e0	0.034897685
170	0x3c9a6ed5	0.018851677
171	0x3bb9441b	0.0056538708
172	0xbceb685f	-0.028736291
173	0xbd142caf	-0.036175426
174	0xbd1a0460	-0.03760183
175	0xbba1ac19	-0.0049338457
176	0xbcda5adf	-0.026654659
177	0x3d588508	0.052861243
178	0x3cc3e7f8	0.023914322
179	0xbceceb1b	-0.0289207
180	0x3c22ab44	0.009928528
181	0xbc095c5f	-0.008383839
182	0xbc9503c7	-0.018190278
183	0xbd355381	-0.04426909
184	0xbc930172	-0.017945025
185	0x3d177348	0.036975175
186	0xbcac03f3	-0.020997977
187	0xbc8a7627	-0.016902043
188	0xbc47af43	-0.012187782
189	0x3b5537bc	0.003253444
190	0x3d80e5ce	0.06293832
191	0x3de208ba	0.11036821
192	0xbb06b96c	-0.0020557297
193	0x3cc8f0ac	0.024528824
194	0xbab800ec	-0.0014038361
195	0xbc7abde5	-0.015304063
196	0xbcb33258	-0.021874592
197	0xbc37ffee	-0.011230452
198	0xbc629f70	-0.013831958
199	0x3d36d36b	0.044635218
200	0x3becfbc3	0.007232161
201	0xba78cfd4	-0.0009491418
202	0x3bba0059	0.005676311
203	0xbbb8e1ac	-0.0056421366
204	0xbd739508	-0.0594683
205	0xbd3a63c9	-0.04550532
206	0xbd290829	-0.041267548
207	0x3c74cec9	0.01494188
208	0xba96dcfb	-0.0011509949
209	0xbcc5c705	-0.024142751
210	0xbcde33ef	-0.027124373
211	0x3c8467c5	0.016162762
212	0xbc827aa9	-0.01592763
213	0xbc392a64	-0.011301611
214	0xbc74ad27	-0.014933861
215	0xbc4e710a	-0.012600193
216	0xbcd17729	-0.025569515
217	0x3d48f9f0	0.049066484
218	0x3b0bcfd8	0.0021333601
219	0xbd145319	-0.03621206
220	0x3d8c055b	0.06836959
221	0x3c732d39	0.014842325
222	0x3d92b635	0.071636595
223	0x3d46b141	0.048508886
224	0x3ca6c2c2	0.02035654
225	0x3d17509c	0.03694211
226	0x3ba86489	0.005138938
227	0x3db23d70	0.087031245
228	0x3d02a1ec	0.031892702
229	0x3bd38dce	0.0064561134
230	0x3d17410f	0.03692728
231	0xbcaea7a9	-0.021320181
232	0x3d162630	0.036657512
233	0x3d47ef16	0.048811994
234	0x3c2e3eb3	0.010635066
235	0xbc2ec2b5	-0.010666539
236	0x3db40bac	0.08791289
237	0x3bd45ea1	0.006481007
238	0x3b31c7f7	0.0027127245
239	0x3d48a3ca	0.048984326
240	0xbd2a05ba	-0.041509368
241	0x3c08629c	0.008324292
242	0xbcf1c70c	-0.029513858
243	0x3df81126	0.12112646
244	0x3d9970ba	0.07492204
245	0xbc3c3f1a	-0.011489654
246	0x39bc458b	0.00035909968
247	0xbc1549eb	-0.009111862
248	0xbcf94fdf	-0.030433593
249	0x3af6b03a	0.001882083
250	0x3b00ec0d	0.0019671947
251	0x3d7317e9	0.059348974
252	0x3c5f4c71	0.013629065
253	0xbbb098e2	-0.005389319
254	0x3cf4c76c	0.029880248
255	0xbc1c1f59	-0.009528958

layers.1.0.weight f4 [128, 256]
0	0x3db10f73	0.08645525
1	0xbe40e51b	-0.18837397
2	0x3e1a2c05	0.15055855
3	0xbdf11f8d	-0.11773596
4	0x3dff6684	0.12470725
5	0x3db2d61f	0.087322466
6	0x3cc64719	0.024203824
7	0xbd3ddada	-0.04635129
8	0x3dae6080	0.085145
9	0xbe17c4e2	-0.14821199
10	0xbe012fcb	-0.12615888
11	0x3d64b584	0.05583717
12	0xbd0312a5	-0.032000203
13	0x3e52b934	0.20578462
14	0xbdc6232d	-0.09674678
15	0xbd9e62bf	-0.07733678
16	0xbd94979d	-0.072554804
17	0x3d8d48a8	0.06898624
18	0xbc4b64fb	-0.012414212
19	0x3db08180	0.0861845
20	0x3cdb587e	0.026775595
21	0x3bc2627c	0.0059321504
22	0xbbff245d	-0.0077863173
23	0x3d1bab92	0.03800542
24	0x3e186b5a	0.14884701
25	0x3d9ff1fb	0.07809826
26	0xbd1001a4	-0.035157815
27	0xbd2904ba	-0.041264273
28	0xbd55677e	-0.05210065
29	0x3aaf9e9e	0.0013398712
30	0x3dbf337e	0.09335993
31	0x3ca6191a	0.020275641
32	0xb9ddb9da	-0.00042290875
33	0xbd800cac	-0.06252417
34	0x3d839c37	0.0642628
35	0xbd640923	-0.055672776
36	0x3c8ce0c6	0.017197024
37	0x3d2b8182	0.041871555
38	0xbc25737e	-0.010098336
39	0xbd8fdea5	-0.07024888
40	0xbbb79b4e	-0.0056032306
41	0x3cb5acdd	0.022177154
42	0xbd15242b	-0.036411446
43	0xbd01f2dc	-0.03172575
44	0x3d860d36	0.065454885
45	0x3dc3d9b2	0.095630065
46	0xbd25d57a	-0.04048679
47	0xbc3295a9	-0.01089994
48	0x3e005e81	0.1253605
49	0x3df731a7	0.12070017
50	0xbe04bc87	-0.12962542
51	0x3c7da9ff	0.015482425
52	0xbe37a85a	-0.17935315
53	0x3c3c77d1	0.011503176
54	0xbc1a155b	-0.009404506
55	0xbdd8f233	-0.10593071
56	0xbd6d2ad7	-0.057902183
57	0xbdfe31c8	-0.12411839
58	0xbd1383ae	-0.03601425
59	0xbc507bbf	-0.012724816
60	0x3d2f8de2	0.04285992
61	0x3df8180d	0.12113962
62	0xbcd68e12	-0.026190791
63	0x3c2d87ba	0.010591442
64	0x3dab00c0	0.083497524
65	0x3c151e82	0.009101512
66	0xbe8a2b3e	-0.26986116
67	0xbd8920c9	-0.066957064
68	0xbb644d62	-0.0034836163
69	0x3dadb363	0.08481481
70	0x3d31d261	0.043413524
71	0xbe0e20dd	-0.13879724
72	0xbdfd0381	-0.12354184
73	0xbdeddf90	-0.11614907
74	0xbe929887	-0.28631994
75	0x3d4850e3	0.048905265
76	0x3b781710	0.0037855543
77	0x3da20f99	0.07913131
78	0xbd4af321	-0.049548272
79	0xbd7dddcf	-0.06197911
80	0xbe17546f	-0.14778303
81	0xbe3aa1bd	-0.18225761
82	0x3db256df	0.087079756
83	0x3d6ebbce	0.058284573
84	0xbe41da89	-0.18931021
85	0x3c5071f8	0.012722485
86	0xbd07cc13	-0.033153605
87	0xbdfc5b45	-0.12322096
88	0xbdf99d6c	-0.12188229
89	0x3c3bce18	0.011462711
90	0x3d1cc2f4	0.03827186
91	0x3d76d968	0.06026593
92	0xbc8b5089	-0.017006176
93	0x3d145358	0.036212295
94	0xbe0bed41	-0.13664724
95	0xbe0a9325	-0.13532694
96	0x3d128b2a	0.03577725
97	0xbcad9012	-0.021186862
98	0x3ddc6e31	0.10763205
99	0xbdc950aa	-0.098298386
100	0x3d8515a6	0.0649827
101	0xbd54d509	-0.05196098
102	0xbe4e6f17	-0.20159565
103	0xbda51378	-0.08060354
104	0x3e442fc9	0.19158854
105	0x3d94c57c	0.0726423
106	0xbd32c799	-0.043647382
107	0x3d65cb27	0.056101944
108	0x3c46b4da	0.012128079
109	0x3d04aa03	0.0323887
110	0x3d7c6cb8	0.06162712
111	0xbcb854eb	-0.02250143
112	0xbda2ff4e	-0.07958852
113	0xbd3f0d34	-0.04664345
114	0xbd26ca4b	-0.040720265
115	0xbdc7d252	-0.09756912
116	0x3ca6f283	0.02037931
117	0x3d467d74	0.048459485
118	0xbdc380e5	-0.09546069
119	0x3a1a5660	0.00058875047
120	0xbdd43d1f	-0.103632204
121	0xbda0d6d4	-0.07853475
122	0xbdba42be	-0.09094761
123	0xbc9e74fe	-0.019342896
124	0xbd0f4e2d	-0.034986664
125	0x3d9427c4	0.07234147
126	0xbde53035	-0.111908354
127	0xbddf14cd	-0.10892639
128	0x3cab722d	0.020928467
129	0x3ddbb211	0.10727323
130	0x3e464a04	0.19364172
131	0x3cb0b487	0.021570457
132	0x3d1b8083	0.037964355
133	0xbdb771b8	-0.08957237
134	0xbd484444	-0.04889323
135	0x3dc71542	0.097208515
136	0x3c7a0990	0.015261069
137	0xbc3e6d6f	-0.011622771
138	0x3d6e1310	0.05812365
139	0xbc3ede71	-0.011649714
140	0xbe2cba31	-0.16867901
141	0xbd433d2f	-0.04766577
142	0xbe4b0693	-0.19826727
143	0x3db03fbd	0.08605907
144	0x3ccd1478	0.025034174
145	0x3bc3978e	0.0059689945
146	0xbde3e630	-0.11127889
147	0x3d915ab3	0.07097378
148	0x3e1301ce	0.14356157
149	0xbe141745	-0.14462002
150	0x3d1e4134	0.0386364
151	0x3d1fa888	0.038979083
152	0xbe180781	-0.14846613
153	0x3d9d9c61	0.076958425
154	0xbd96cf93	-0.073638104
155	0x3dcf8628	0.1013301
156	0x3df7e504	0.12104228
157	0x3d810930	0.063005805
158	0x3da259fb	0.07927319
159	0xbda00995	-0.078143276
160	0x3c192824	0.009347949
161	0x3dbff6ee	0.0937327
162	0xbd498585	-0.0491996
163	0x3dd2b963	0.10289266
164	0x3de46eb9	0.11153931
165	0x3d6e2274	0.058138326
166	0x3e0e3a11	0.13889338
167	0xbd4f3fd1	-0.05059797
168	0xbc1ac844	-0.009447161
169	0x3d94cc59	0.07265539
170	0x39c34c91	0.00037250345
171	0x3d570788	0.052497417
172	0xbcf9a8b4	-0.030475952
173	0x3dbf0ad9	0.09328241
174	0x3d109fcf	0.035308655
175	0x3e3ea343	0.18616967
176	0xbc8c79e8	-0.017147973
177	0xbe32bbb8	-0.17454422
178	0xbdbabf53	-0.091185234
179	0xbd11cacf	-0.035593804
180	0x3d8709d4	0.065936714
181	0xbce99992	-0.02851561
182	0xbe32283a	-0.17398158
183	0xbd7c434e	-0.061587624
184	0xbd3851ac	-0.044999763
185	0xbb6f3a90	-0.0036503412
186	0x3e0047ba	0.12527362
187	0xbc19a1c8	-0.009376951
188	0x3d909e76	0.07061474
189	0xbd0559bf	-0.03255629
190	0xbd25bb33	-0.04046173
191	0x3d27b429	0.0409433
192	0x3c0b751c	0.008511808
193	0xbd2612e5	-0.040545363
194	0x3dcdaf23	0.1004317
195	0x3d4f7972	0.05065293
196	0xbca65092	-0.02030209
197	0xbe006659	-0.12539043
198	0xbcdec391	-0.027192863
199	0xbd87b819	-0.06626911
200	0x3e2bcfe1	0.16778518
201	0x3d05e09d	0.03268491
202	0x3d84720a	0.06467064
203	0x3b87a800	0.0041399
204	0x3e50c452	0.2038739
205	0xbdf6178e	-0.120162115
206	0xbc80df85	-0.015731582
207	0xbe086bb2	-0.13322333
208	0xbe13dc9c	-0.14439625
209	0xb9a39dd9	-0.00031207388
210	0x3da43e3f	0.08019685
211	0x3aeec638	0.0018217033
212	0x3c170fc2	0.009220066
213	0xbdc65c8e	-0.09685622
214	0xbd1b3deb	-0.037900846
215	0xbb96dad5	-0.0046037235
216	0xbd1e9d65	-0.038724322
217	0x3e060f78	0.13091838
218	0xbda96b35	-0.08272401
219	0x3c328f37	0.010898403
220	0x3dac559c	0.08414766
221	0xbc2f4f8e	-0.01070012
222	0xbc1311cd	-0.008976412
223	0x3df2ccfd	0.11855505
224	0xbde42036	-0.11138956
225	0x3db294c2	0.087197796
226	0xbc23ffe6	-0.010009741
227	0xbd834721	-0.06410051
228	0x3e28645c	0.16444534
229	0xbde44c7c	-0.11147401
230	0x3d78f317	0.060778704
231	0x3d8ca80c	0.0686799
232	0xbe0a976b	-0.13534324
233	0xbd487542	-0.04893995
234	0xbdad71e8	-0.084689915
235	0xbe11595a	-0.14194241
236	0xbd84478f	-0.06458961
237	0x3d0949ad	0.03351753
238	0xbd30463b	-0.043035727
239	0x3c4c49d7	0.012468777
240	0x3dad7ad4	0.08470693
241	0x3d7c6cff	0.061627384
242	0xbd6c4269	-0.05768052
243	0xbdee697b	-0.116412126
244	0x3cd8fb07	0.026486887
245	0x3e16f362	0.1474128
246	0xbe2337dc	-0.15939277
247	0xbd427e5c	-0.047483787
248	0x3d314159	0.04327521
249	0xbe0ce746	-0.13760099
250	0xbd653302	-0.055956848
251	0xbc8f54b9	-0.017496454
252	0xbdbac98d	-0.09120474
253	0x3c535530	0.012898728
254	0x3d23b1c1	0.03996444
255	0x3e1161da	0.14197484

layers.1.1.weight f4 [128]
0	0x3f8a24f4	1.0792527
1	0x3f7d32e8	0.989058
2	0x3f79bcd1	0.97553736
3	0x3f837c88	1.0272379
4	0x3f76cdf8	0.96408033
5	0x3f8159f9	1.0105582
6	0x3f8952db	1.072841
7	0x3f6fbe01	0.936493
8	0x3f8b797e	1.0896451
9	0x3f886588	1.0655985
10	0x3f7fd2df	0.9993114
11	0x3f765240	0.96219254
12	0x3f7a92d3	0.97880286
13	0x3f819b4f	1.0125521
14	0x3f7c48d5	0.9854863
15	0x3f767869	0.9627748
16	0x3f78c8e2	0.9718152
17	0x3f7f0ae9	0.9962602
18	0x3f8199c3	1.0125049
19	0x3f803252	1.0015357
20	0x3f78a628	0.97128534
21	0x3f813224	1.0093427
22	0x3f729457	0.947576
23	0x3f7f0e80	0.996315
24	0x3f7c4423	0.9854147
25	0x3f796f83	0.9743578
26	0x3f80ad63	1.0052913
27	0x3f7d4bab	0.98943585
28	0x3f841398	1.031848
29	0x3f7e19a4	0.99257874
30	0x3f71ed4b	0.94502705
31	0x3f80a092	1.0049002
32	0x3f7431fe	0.9538878
33	0x3f7b6429	0.9819971
34	0x3f7c96e5	0.98667747
35	0x3f85dacb	1.0457395
36	0x3f7d3364	0.9890654
37	0x3f796e4b	0.9743392
38	0x3f817d44	1.0116353
39	0x3f81ce49	1.0141078
40	0x3f7cb0d4	0.9870732
41	0x3f82a26c	1.0205817
42	0x3f81c381	1.0137788
43	0x3f858bb2	1.0433257
44	0x3f89957f	1.0748748
45	0x3f7b19e5	0.98086387
46	0x3f7b4d2f	0.9816465
47	0x3f7ec310	0.9951639
48	0x3f79835d	0.9746607
49	0x3f82c674	1.0216813
50	0x3f7ed60f	0.9954538
51	0x3f85afcf	1.0444278
52	0x3f7b116a	0.98073447
53	0x3f832d5e	1.024822
54	0x3f7ae076	0.9799875
55	0x3f822fdf	1.0170859
56	0x3f7b0482	0.98053753
57	0x3f8411ad	1.0317894
58	0x3f82a3c3	1.0206226
59	0x3f81855f	1.0118827
60	0x3f792c3d	0.9733313
61	0x3f7f6f4d	0.99779207
62	0x3f7dfe94	0.9921658
63	0x3f72725e	0.9470576
64	0x3f8054f0	1.0025921
65	0x3f8058a0	1.0027046
66	0x3f798d90	0.9748163
67	0x3f822bac	1.0169578
68	0x3f8156f7	1.0104665
69	0x3f8ad07b	1.0844873
70	0x3f755495	0.95832187
71	0x3f7ef057	0.9958548
72	0x3f85ca3d	1.0452343
73	0x3f83eac5	1.0306021
74	0x3f80063a	1.00019
75	0x3f76b447	0.9636883
76	0x3f7755ba	0.96615183
77	0x3f7ba933	0.9830505
78	0x3f84f68d	1.0387741
79	0x3f75dd3a	0.9604069
80	0x3f81b52a	1.0133412
81	0x3f6a0355	0.91411334
82	0x3f754523	0.9580862
83	0x3f828dff	1.0199584
84	0x3f809bc1	1.0047532
85	0x3f7f5cf8	0.99751234
86	0x3f7b2529	0.98103577
87	0x3f7b0b78	0.98064375
88	0x3f82e37c	1.0225673
89	0x3f79cfeb	0.9758288
90	0x3f7cbfe3	0.98730296
91	0x3f7bb9b0	0.9833021
92	0x3f81a863	1.0129513
93	0x3f78ef16	0.97239816
94	0x3f7f5955	0.99745685
95	0x3f8099e5	1.0046965
96	0x3f7bf791	0.9842463
97	0x3f792f71	0.97338015
98	0x3f8b27c9	1.0871516
99	0x3f78f400	0.97247314
100	0x3f77c965	0.9679168
101	0x3f75d39f	0.96026033
102	0x3f871869	1.0554324
103	0x3f850505	1.0392157
104	0x3f7b358d	0.98128587
105	0x3f815adb	1.0105852
106	0x3f7d0839	0.9884067
107	0x3f7ea78d	0.9947441
108	0x3f833adc	1.0252337
109	0x3f83dc7c	1.0301661
110	0x3f754a96	0.95816934
111	0x3f70c66c	0.9405277
112	0x3f79c125	0.9756034
113	0x3f7762ca	0.96635115
114	0x3f758da5	0.9591926
115	0x3f805b3f	1.0027846
116	0x3f87b489	1.060197
117	0x3f73aa88	0.95182085
118	0x3f75d70b	0.96031255
119	0x3f7aa7cb	0.9791228
120	0x3f7a50c4	0.9777949
121	0x3f767934	0.9627869
122	0x3f80ee62	1.0072749
123	0x3f7250c8	0.9465451
124	0x3f7b10ab	0.9807231
125	0x3f81ecff	1.015045
126	0x3f76766e	0.9627446
127	0x3f7bf889	0.9842611

layers.1.1.bias f4 [128]
0	0x3d52d07d	0.05146836
1	0xbb0946a0	-0.0020946637
2	0xbd066f2a	-0.032820858
3	0x3bd5a27e	0.0065196147
4	0xbcc25429	-0.023721771
5	0x3cc983f9	0.024599062
6	0x3ca6ae7a	0.020346869
7	0xbd0a181a	-0.03371439
8	0x3d26776f	0.040641245
9	0x3c638fde	0.013889281
10	0xbc7b1124	-0.015323911
11	0xbcde3de4	-0.027129121
12	0xbd3b6c41	-0.045757536
13	0x3c9ac27d	0.018891567
14	0xbad93c58	-0.001657377
15	0x3bd54e56	0.0065095825
16	0xbd06b6f4	-0.03288932
17	0xbacd2b97	-0.001565325
18	0xbc564ac0	-0.013079345
19	0xbca1bdef	-0.019743888
20	0xbd197887	-0.03746846
21	0x3c8ed348	0.017434731
22	0xbd28a634	-0.04117413
23	0xb96a118a	-0.00022322513
24	0xbc51d009	-0.012805947
25	0xbbfd720b	-0.0077345422
26	0xbcd7d4a8	-0.02634652
27	0xbd753c54	-0.059871987
28	0x3c83b76c	0.016078673
29	0xba6ad354	-0.0008957882
30	0xbd7c404f	-0.061584767
31	0x3caf3522	0.02138764
32	0xbcdaf673	-0.026728844
33	0xbc7ea34d	-0.015541864
34	0xbc4287c6	-0.011873191
35	0x3d1971ec	0.03746216
36	0xbd4d8f22	-0.05018533
37	0xbd26f298	-0.0407587
38	0xbc024f78	-0.007953517
39	0x3cab89dd	0.020939762
40	0xba4e8681	-0.0007878319
41	0xbc5676a1	-0.013089807
42	0x3bb6d530	0.005579613
43	0x3b351b9c	0.0027634865
44	0x3d55ed8d	0.0522285
45	0x3b91e3b0	0.0044521913
46	0xbd06ad85	-0.032880325
47	0x3c352b5e	0.011057703
48	0xbc381fc9	-0.011238047
49	0x3cb0a68e	0.021563794
50	0xbabb1b2e	-0.0014275068
51	0x3c8df67b	0.017329445
52	0xbd249a75	-0.040186364
53	0x3ca5447f	0.020174263
54	0xbcefd5e0	-0.029276788
55	0x3c94c1b7	0.018158777
56	0xbc2c9b4e	-0.010535074
57	0x3cbf12a2	0.023324315
58	0x3c782c29	0.015147247
59	0x3b8bc787	0.004265729
60	0xbc1bd9d3	-0.009512383
61	0xbc4b9271	-0.012425051
62	0x3c10e6ba	0.008844072
63	0xbcd1e12b	-0.025620064
64	0xbc45c264	-0.012070272
65	0xbc5fa90b	-0.013651143
66	0xbce35149	-0.02774872
67	0xbbb59660	-0.0055416077
68	0xbbc8d0f7	-0.006128426
69	0x3d5c63b6	0.05380603
70	0xbd0530ee	-0.032517366
71	0xbc92ed1d	-0.01793533
72	0x3cdbdf1a	0.026839782
73	0x3d0ef8e7	0.03490534
74	0xbbad2999	-0.0052845
75	0xbc780e63	-0.015140149
76	0x3c7a1c64	0.015265558
77	0x3b6fbdb9	0.003658159
78	0x3ca616ad	0.020274485
79	0xbcffd053	-0.031227266
80	0x3d24d01a	0.040237524
81	0xbd89aefb	-0.06722828
82	0xbd8d9a19	-0.069141574
83	0x3c0840aa	0.008316198
84	0x3c67d6aa	0.014150301
85	0xbcffc94e	-0.03122392
86	0xbd24a97a	-0.040200688
87	0xbc63471f	-0.013871937
88	0x3c506518	0.012719415
89	0x3c0316ed	0.008001071
90	0x3b812af4	0.003941888
91	0xbc89eceb	-0.016836604
92	0x3c34243a	0.010994965
93	0xbcdf196b	-0.0272338
94	0x3ccd6d1a	0.025076438
95	0xbac68aa4	-0.0015147519
96	0xbc0607b6	-0.008180549
97	0xbbfc82e8	-0.007706035
98	0x3d6c82af	0.057741817
99	0xbc3539e1	-0.011061163
100	0xbd6be197	-0.057588186
101	0xbc910667	-0.017703248
102	0x3d68c54a	0.056828775
103	0x3ce1464b	0.027499339
104	0xbd4aac63	-0.049480807
105	0xbc760c26	-0.015017545
106	0x3ba67ba8	0.005080659
107	0xbccf5405	-0.025308618
108	0xbc250008	-0.010070808
109	0x3ac8c322	0.0015316943
110	0xbc9104a7	-0.017702414
111	0xbcdd5879	-0.027019726
112	0xbcd1fc3b	-0.025632968
113	0xbcd1ac8b	-0.02559497
114	0xbd638556	-0.05554708
115	0xbb912d59	-0.0044304547
116	0x3d17564c	0.036947533
117	0xbc3a67a1	-0.011377246
118	0xbcfc8bb0	-0.030828327
119	0xbbfb18ba	-0.0076628597
120	0xbd3b0348	-0.045657426
121	0xbc92f7f0	-0.017940491
122	0x3d2c5950	0.042077363
123	0xbd066810	-0.032814085
124	0x3c0ba14a	0.008522341
125	0x3b0cb58f	0.0021470522
126	0xbbc3b849	-0.0059728962
127	0xbc76b3a9	-0.015057483

layers.2.0.weight f4 [64, 128]
0	0xbb14b121	-0.0022688585
1	0x3e26364c	0.1623165
2	0xbda3bd9a	-0.07995148
3	0xbe0330cf	-0.12811588
4	0xbe1e309e	-0.15448233
5	0x3cbfa475	0.023393849
6	0x3cb81a25	0.022473404
7	0x3e2d71ad	0.16937895
8	0xbd6559ca	-0.055993833
9	0xbc7b0223	-0.015320334
10	0xbcd1efea	-0.025627095
11	0x3dba6363	0.09100988
12	0x3dcef7b0	0.101058364
13	0xbe4866ba	-0.19570437
14	0xbd905520	-0.07047486
15	0xbdf75d3b	-0.12078329
16	0x3c182ca9	0.009287992
17	0xbdb7afcb	-0.08969077
18	0x3c0c31e1	0.008556814
19	0xbe05fdfc	-0.13085169
20	0xbe9b65a5	-0.30350986
21	0x3e5e85d0	0.21730733
22	0x3e2088db	0.15677206
23	0x3e1b75c9	0.1518165
24	0xbc8b2842	-0.01698697
25	0xbe4cc00e	-0.19995138
26	0xbe9cc6cf	-0.3062043
27	0x3c9e82e1	0.019349517
28	0xbe332698	-0.17495191
29	0x3e663014	0.22479278
30	0xbc3e9a3c	-0.011633452
31	0xbe0e1191	-0.13873889
32	0xbe119e4f	-0.14220546
33	0x3d6576c4	0.056021467
34	0xbe6a61b8	-0.22888839
35	0x3d3517dc	0.044212207
36	0xbd435b13	-0.047694277
37	0xbcdf1b05	-0.027234564
38	0xbe117db2	-0.14208105
39	0xbdca4527	-0.09876471
40	0x3daa1bbf	0.083060734
41	0x3e1d7094	0.15374976
42	0x3d2e03d7	0.04248413
43	0x3e3c7f8a	0.18408027
44	0x3d830af4	0.063985735
45	0x3d8c37a7	0.06846552
46	0xbd85a02c	-0.06524691
47	0xbdb77a91	-0.089589246
48	0x3d9cd4a6	0.07657747
49	0xbd59d4ab	-0.05318133
50	0xbbf7c723	-0.0075615807
51	0xbdd43f17	-0.10363596
52	0xbb038566	-0.0020068525
53	0x3e2eff31	0.17089535
54	0xbe20a5b5	-0.15688212
55	0xbd3e4d9d	-0.046460737
56	0xbd26abc1	-0.04069114
57	0xbd6c0695	-0.057623465
58	0x3d3c76af	0.046011623
59	0xbdb29463	-0.08719709
60	0x3e818c6a	0.2530244
61	0x3e1162b2	0.14197806
62	0xbe3553f0	-0.17707801
63	0x3e7a193e	0.24423692
64	0xbd7b6151	-0.061372105
65	0x3e7cce38	0.24688041
66	0xbe32e6a0	-0.17470789
67	0x3d2d00cc	0.042237088
68	0xbdbe75d6	-0.09299819
69	0x3ac1ed94	0.0014795535
70	0xbd137d82	-0.036008365
71	0xbdc0c44b	-0.0941244
72	0xbae854d8	-0.0017725481
73	0x3db572dc	0.08859798
74	0x3e78b1b9	0.24286546
75	0xbe3e0e92	-0.18560246
76	0xbe1ead55	-0.15495808
77	0xbe977e64	-0.29588616
78	0xbe0585c8	-0.13039315
79	0x3e0e5a7c	0.13901705
80	0xbe13d290	-0.14435792
81	0xbdb7267c	-0.08942887
82	0xbdd734ca	-0.105081156
83	0xbcc032f6	-0.0234618
84	0xbe0f47a1	-0.13992168
85	0x3e00194d	0.12509651
86	0xbd4ecd3b	-0.05048869
87	0x3dabed53	0.083948754
88	0xbdb34b01	-0.0875454
89	0xbbf3687b	-0.0074282265
90	0x3df005c3	0.11719849
91	0x3d3ecbe9	0.046581183
92	0x3b717466	0.003684306
93	0xbe1717d5	-0.14755185
94	0xbd59b463	-0.053150546
95	0xbe1ed76a	-0.15511861
96	0xbe366dee	-0.17815372
97	0xbe11ccd0	-0.14238286
98	0x3b1bae8b	0.0023755159
99	0xbcfc7342	-0.030816678
100	0xbd8afc98	-0.0678646
101	0xbd2250e3	-0.03962792
102	0xbc8d1531	-0.017222019
103	0xbcab73cb	-0.020929238
104	0x3d06ea8e	0.032938533
105	0x3d42bdca	0.04754428
106	0xbd432c99	-0.047649954
107	0xbc3ec4c4	-0.011643592
108	0xbd6d6229	-0.05795494
109	0x3cbac4bb	0.022798887
110	0x3d991f67	0.07476693
111	0x3da9a28c	0.082829565
112	0xbe21796e	-0.15768978
113	0x3d150779	0.03638408
114	0xbcfa343e	-0.03054249
115	0xbcc44588	-0.023958936
116	0x3dbc25be	0.09186886
117	0x3e1673c5	0.146926
118	0x3d653b23	0.0559646
119	0xbe357c94	-0.17723304
120	0x3db28d2f	0.08718335
121	0xbe0d942a	-0.13826051
122	0x3c97b62c	0.018519484
123	0xbe0b180b	-0.1358339
124	0xbb945a3e	-0.0045273593
125	0xbe00c38e	-0.12574598
126	0x3c380bc6	0.011233276
127	0x3de56b83	0.11202147
128	0xbcfaf135	-0.030632595
129	0xbd1ea27e	-0.038729183
130	0xbd880a0f	-0.066425435
131	0xbea1ecbf	-0.31625935
132	0x3e00dee0	0.1258502
133	0xbe5659ff	-0.20932768
134	0x3e1fbb7d	0.15598865
135	0x3d9bcfc3	0.07607987
136	0xbd769e7e	-0.060209744
137	0x3e1e4a29	0.15457977
138	0xbe5e7bba	-0.21726885
139	0xbe868631	-0.26274255
140	0x3c7f088d	0.0155660035
141	0x3e86405b	0.26220974
142	0x3e83b0b2	0.25720745
143	0xbd25f5dc	-0.040517673
144	0x3dba2f99	0.0909111
145	0xbb7fe6cf	-0.0039047485
146	0xbdd296f0	-0.10282695
147	0xbdeb06df	-0.1147592
148	0x3d141d97	0.03616103
149	0x3d9224bd	0.071359135
150	0xbe3100b3	-0.17285423
151	0x3ccd9eee	0.025100198
152	0xbd935d1c	-0.071954936
153	0x3d7bf5cf	0.06151372
154	0xbdc26c18	-0.094932735
155	0xbd832ae0	-0.06404662
156	0x3e7e7c44	0.24852091
157	0xbe24d2b6	-0.16096005
158	0x3de0ab67	0.109701924
159	0x3dc87346	0.09787612
160	0x3dfc8e5b	0.1233184
161	0xbdc8c208	-0.098026335
162	0xbe6df517	-0.23238026
163	0x3e8e0e97	0.27745506
164	0xbcbd6228	-0.023118094
165	0xbd886da6	-0.06661539
166	0xbe5ff8d3	-0.21872263
167	0xbe37755d	-0.17915864
168	0x3bc98541	0.0061499183
169	0xbdf678f9	-0.120347925
170	0xbe2ffa29	-0.17185272
171	0x3dc0c5da	0.09412737
172	0xbe19816e	-0.1499078
173	0x3d65b6fb	0.056082707
174	0x3d8cd90c	0.06877336
175	0x3c9d84fc	0.019228451
176	0xbdfcf337	-0.12351077
177	0xbe779167	-0.2417656
178	0x3e54ca82	0.20780376
179	0x3e11f50f	0.14253639
180	0x3af7d7c4	0.0018908908
181	0xbdbfad7e	-0.09359263
182	0xbbdd8744	-0.0067605097
183	0x3db70f9e	0.089385256
184	0xbd675aa6	-0.056482933
185	0xbd83d50b	-0.06437119
186	0x3db3c627	0.08778029
187	0xbd423c2c	-0.047420666
188	0x3e03618a	0.12830177
189	0x3da11ac0	0.0786643
190	0xbe305c75	-0.1722277
191	0xbc85765d	-0.016291792
192	0xbd7b8719	-0.061408136
193	0x3d0d9bd1	0.034572426
194	0x3da27bd2	0.07933773
195	0x3d36bf2e	0.044615917
196	0xbdcdb575	-0.10044376
197	0x3e0162a3	0.12635283
198	0x3d3be41a	0.04587183
199	0x3ca3008a	0.019897718
200	0x3af8d4bc	0.0018984298
201	0xbddc7f62	-0.10766484
202	0x3d300d1d	0.042981256
203	0x3eaf7976	0.34272355
204	0x3c7960f0	0.015220866
205	0x3e8c021a	0.27345353
206	0xbe4d821f	-0.20069169
207	0xbd9901e8	-0.07471067
208	0xbd40a954	-0.047036484
209	0x3ddf3779	0.108992524
210	0xbdec8bd4	-0.115501076
211	0xbbd36574	-0.006451303
212	0xbd097586	-0.033559345
213	0x3c802768	0.01564379
214	0xbe84a3a1	-0.2590609
215	0xbcf24378	-0.029573187
216	0x3db2bd40	0.08727503
217	0x3da23b17	0.07921427
218	0xbcd05976	-0.025433283
219	0x3df2dc40	0.118584156
220	0x3e23bcae	0.15989944
221	0xbdb73472	-0.0894555
222	0x3c913960	0.017727554
223	0x3c52fb0e	0.012877239
224	0xbd52c0e5	-0.05145349
225	0x3d971845	0.07377676
226	0xbe3d79a2	-0.1850343
227	0x3e28024c	0.16407126
228	0x3e44bdeb	0.19213073
229	0xbd3543ce	-0.044254117
230	0xbdea2364	-0.114325315
231	0xbdf62d48	-0.120203555
232	0x3e264c8c	0.16240138
233	0xbe90d1fa	-0.282852
234	0x3da7f435	0.08200876
235	0xbdc1c3ed	-0.09461198
236	0x3daf47ca	0.085586146
237	0x3d066b50	0.032817185
238	0x3d238202	0.039918907
239	0xbad596d0	-0.0016295556
240	0x3e22aebd	0.1588697
241	0x3e261c21	0.16221668
242	0xbdc9d9aa	-0.09855969
243	0x3d89868e	0.067151174
244	0x3d688b4a	0.05677346
245	0xbd9e2c2e	-0.0772327
246	0x3db704b9	0.08936448
247	0x3e09de76	0.13463768
248	0xbe02a7ad	-0.12759276
249	0x3e203978	0.15646923
250	0x3d4dac3f	0.050213095
251	0x3c48ca54	0.01225527
252	0xbda1cfb0	-0.07900941
253	0xbe5d93c4	-0.216384
254	0x3d26564d	0.040609647
255	0xbe39e7dd	-0.18154855

layers.2.1.weight f4 [64]
0	0x3f776642	0.9664041
1	0x3f87ef7d	1.0619961
2	0x3f7e2dc1	0.99288565
3	0x3f750ba4	0.9572089
4	0x3f7a9417	0.9788222
5	0x3f6ea314	0.9321759
6	0x3f830696	1.0236385
7	0x3f79a391	0.9751521
8	0x3f83e7f0	1.0305157
9	0x3f84417a	1.0332482
10	0x3f848c2f	1.0355281
11	0x3f75a8cf	0.95960706
12	0x3f84483d	1.0334545
13	0x3f884ddb	1.064876
14	0x3f75cd8b	0.9601676
15	0x3f7371f3	0.9509575
16	0x3f74af1b	0.9557969
17	0x3f7a004a	0.9765669
18	0x3f81e121	1.0146829
19	0x3f721672	0.945655
20	0x3f7a4d2f	0.9777402
21	0x3f839659	1.0280257
22	0x3f86dc55	1.053599
23	0x3f7a3fee	0.977538
24	0x3f819c66	1.0125854
25	0x3f71aecd	0.9440735
26	0x3f7e8058	0.9941459
27	0x3f82a021	1.0205117
28	0x3f78063f	0.9688453
29	0x3f798c6c	0.9747989
30	0x3f6c4133	0.92286986
31	0x3f734d3c	0.95039725
32	0x3f81194b	1.0085844
33	0x3f801e73	1.0009292
34	0x3f73dfad	0.9526318
35	0x3f7c8bb4	0.9865067
36	0x3f7bc433	0.9834625
37	0x3f735481	0.9505082
38	0x3f7ee014	0.99560666
39	0x3f78a8d8	0.97132635
40	0x3f79bfca	0.9755827
41	0x3f7fb95f	0.9989223
42	0x3f6ed7db	0.9329812
43	0x3f76761a	0.9627396
44	0x3f7b63ad	0.9819897
45	0x3f821ba8	1.016469
46	0x3f8b90b0	1.090353
47	0x3f8050eb	1.0024694
48	0x3f78c6b9	0.97178227
49	0x3f805b56	1.0027874
50	0x3f7f58fc	0.99745154
51	0x3f7f5193	0.9973385
52	0x3f8910ff	1.0708312
53	0x3f6cd50a	0.9251257
54	0x3f76626d	0.96243936
55	0x3f820480	1.0157623
56	0x3f844dd4	1.0336251
57	0x3f6cfdfc	0.9257505
58	0x3f829f48	1.0204859
59	0x3f75e64b	0.96054524
60	0x3f89b933	1.0759643
61	0x3f7e9f67	0.9946198
62	0x3f80b797	1.0056027
63	0x3f762ec8	0.9616513

layers.2.1.bias f4 [64]
0	0xbd09e212	-0.033662863
1	0x3dbfa9f5	0.093585886
2	0xbd0baafa	-0.034098603
3	0xbbad8c78	-0.005296286
4	0xbc77da6b	-0.0151277585
5	0xbd94e032	-0.07269324
6	0xbbabc403	-0.0052418723
7	0xbd372a40	-0.044718027
8	0xbc3b9f64	-0.011451576
9	0x3d0613c9	0.032733712
10	0x3d150462	0.036381133
11	0xbc4bf8cb	-0.012449454
12	0x3c5949ae	0.0132621955
13	0x3d0aa6e1	0.033850554
14	0xbcd664d7	-0.026171131
15	0xbd2a5a75	-0.041590173
16	0xbd8235ac	-0.06357893
17	0xbd34f668	-0.044180304
18	0xbc437f0e	-0.011932148
19	0xbd3de36c	-0.046359465
20	0xbd130282	-0.035891064
21	0x3b78d6b5	0.0037969772
22	0x3d9e1b69	0.07720072
23	0xbce9ede2	-0.028555814
24	0xbc11ea2e	-0.00890593
25	0xbd9a66ad	-0.07539115
26	0xbc1b8274	-0.009491552
27	0x3a895778	0.0010478338
28	0xbd0a2ee7	-0.033736136
29	0x3c8d9400	0.017282486
30	0xbd769504	-0.060200706
31	0xbd420a02	-0.047372825
32	0x3c972e06	0.018454563
33	0xbcefa8b5	-0.02925525
34	0xbd03eb84	-0.032207027
35	0x3b2b4e92	0.002613936
36	0xbb8abe82	-0.004234136
37	0xbca713da	-0.020395208
38	0xbc2e9e7f	-0.010657906
39	0xbd319afc	-0.043360695
40	0xbcdab799	-0.026698874
41	0xbbf292b6	-0.007402743
42	0xbd17adbe	-0.037030928
43	0xbd2d7212	-0.042345114
44	0xbb90e123	-0.0044213696
45	0x3c16f668	0.009214021
46	0x3d1fd62a	0.039022602
47	0xbd224b48	-0.039622575
48	0xbcb0a516	-0.021563094
49	0xbc735a52	-0.014853077
50	0x3cda15b2	0.026621673
51	0xbce628e7	-0.028095676
52	0x3c7a26be	0.015268026
53	0xbd9803af	-0.074225776
54	0xbd0ac66d	-0.03388064
55	0x3c0226fa	0.007943863
56	0xbb4f3fc2	-0.0031623696
57	0xbd47974c	-0.048728272
58	0x3c9a0834	0.01880274
59	0xbb1760f2	-0.0023098555
60	0x3ccb9a9a	0.024853993
61	0xbba34c11	-0.004983433
62	0xbcbfdde2	-0.023421232
63	0xbd586e42	-0.052839525
