test/output/local0/simulatorRun/fsv_volumes_pretrained/fold_9/best.nn.pt (torch_old, 737310 bytes, 42 tensors)

layers.0.0.weight f4 [256, 66]
00000000: eabc 8fbe 505b e6bd 04d8 f83d 0611 1b3d
00000010: bd03 d33e fcff a33e c391 8d3d 4164 e23d
00000020: 70f9 0b3c 1122 c03d 0866 80be b3a3 b3bd
00000030: 0a6f b8bd 0d51 14bc 4424 f7bd 41d0 673e
00000040: 2f7c e33c f6ac 57bd 74d5 dd3d 508b d0bd
00000050: 9801 20be 2940 c63e c663 623e cd86 4fbd
00000060: ff31 adbe 3010 c6be a4a8 c2be f006 9b3d
00000070: c317 993d cb75 44be 1556 9d3b 0142 f53d
00000080: 879e cf3e 8b02 733c 2e96 ae3e faa1 e33d
00000090: b1be 5c3d efa1 083d 2ee1 a13c 3c70 c0bd
000000a0: 51e0 383d 75ae 4dbd cc54 0f3e c25f d43e
000000b0: 4de3 0f3e 550d f6bd 4ed2 2abe dc44 1bbe
000000c0: 0617 29be 57e9 2a3e 48a2 33be 27d7 65be
000000d0: aa0f 213d faeb afbe 3e37 373e 3f21 bbbd
000000e0: 7aff 71be ae5c 143e 4b31 2cbc a493 ec3e
000000f0: b6b0 0fbe 1ab5 293e b0bc 943e b3a6 2e3e
00000100: 582b b3be f401 6d3b efd2 993c ce24 81bc
00000110: 5dcf 54be 82cd 453e c170 5ebe d464 493c
00000120: 1f9e 8bbe da13 8dbd eaf6 a13c 1345 e83d
00000130: 098f b13d e32e 5d3e cf03 abbd 2365 7dbd
00000140: 66d3 4ebe a04b 65bd decf ba3d ed63 7fbe
00000150: e5c1 12be bc48 913d b6d4 aa3d 48ff 2c3e
00000160: 65b8 babe 19c8 45be 9112 703e e451 60bd
00000170: 7adc 90bd 643c 5abd 054f 0cbe 64c7 033d
00000180: a445 403e 0f20 70be d0bf a73d 73e3 c7bd
00000190: b376 5ebe 9243 843e 0156 2f3e df13 b33b
000001a0: d968 1abe 2cbf e13d 4344 77be 47db 8a3e
000001b0: b4f0 8dbd 0a6b 94bd f0ee 08bc d9fd ba3c
000001c0: f481 053e 3a94 96bc 4f74 d8bb e677 b2bd
000001d0: 34b9 853d ae27 1cbd 0a09 b93d c819 603e
000001e0: 93c3 5d3d b25a cebb c9e9 26be 0834 c7bc
000001f0: c262 9bbd e05b 3dbe 8bda 6a3d 5d61 8cbe
00000200: b5d2 e5be 0da6 af3e a4ce 18be 18c9 bebc
00000210: 8ee1 923e 6016 d9bd 55ed 01bd 6fdc f9bc
00000220: 3f20 973b 808c 8cbe d893 60bd 4f5b 27be
00000230: 719b 4abd 2ebb 3b3e 5dc6 31be b287 31be
00000240: 11c2 88be 2775 bcbd e6e9 80bd 645b 9bbc
00000250: 991b c9bd ae5e 93be 3dcc 823d 2b8e 1cbe
00000260: 3f3c 22be e4ef b33d b9c7 a33c 5fe5 fdbc
00000270: 7d11 98be cecc 063e 2fdf 4b3e 9294 7e3e
00000280: e7bc 353e dfdc 1cbe a739 383e e709 6fbd
00000290: 3972 903d 2c6f 713d f92e f4bd 20c9 6dbe
000002a0: 26cc b7bd 05d7 9e3e 2c5f 85be b910 833d
000002b0: daee 74be 8893 213e 7973 833c 61fb 91bd
000002c0: fb75 d63d 8462 8a3e b398 193e 2a45 023e
000002d0: 2f43 c73d 027f e43e e04d 8abe a070 363d
000002e0: e6be 84bc 5562 24be 5359 0c3e 3718 07be
000002f0: 7483 a3be e5aa 7b3e 428d 68be 0349 93bd
00000300: 5b90 69be 8eea 17be d62e 02be 21f9 a93d
00000310: 3c97 e6bc b95a b2be 5007 f5bd 18fe 4f3e
00000320: 6bac 3f3e ee0b 093e 9817 8abe b264 433e
00000330: 1339 493e 0875 f3bd dab5 3c3e 66cb 26bc
00000340: e420 95bd 3b8c debd a22d e23e 8a14 a7be
00000350: 3a46 40bc 7688 4bbe 9f95 11bd 21b5 40bd
00000360: d2b6 82be 700d fdbc eae8 84bc b200 48be
00000370: 05dc c5be a966 b23e 51c3 c2be 4c4b 5dbd
00000380: 695f 313e f182 58bd ff37 823e a72d 4cbd
00000390: 2d33 88be e3b2 073e cef5 2abe 535b 523e
000003a0: 6943 c2bd 5db2 dcbd 0ec4 9fbe 1d28 2bbe
000003b0: 5cb8 0a3e a866 af3e 5280 2bbe 741d 683c
000003c0: 359c f93d 5df7 68be 1e9c 383c 0c70 57bd
000003d0: 8b06 7c3e dceb 1dbd 4f81 8ebd af03 ac3d
000003e0: e842 ca3e cd83 cd3d ba50 833d 1f29 5abd
000003f0: 0a92 3cbe cb2f f5bd 8e0e 6ebe c52b fe3d
-0.28073817 -0.11247885 0.12150577 0.03785803 0.4121379 0.32031238 0.069125675 0.11054278
0.008543357 0.09381498 -0.25077844 -0.087714575 -0.09005554 -0.009052527 -0.12067464 0.22638036
0.027769176 -0.052655183 0.108317286 -0.10182822 -0.15625608 0.38720825 0.22108373 -0.050665665
-0.33827206 -0.38684225 -0.38019288 0.075696826 0.07475235 -0.1918556 0.0048015215 0.1197548
0.40550634 0.014832149 0.34098953 0.11114879 0.053892795 0.033357557 0.019760694 -0.09396407
0.0451358 -0.050215203 0.13997191 0.41479307 0.14051552 -0.12014262 -0.16681787 -0.15162987
-0.16512689 0.16690575 -0.17542374 -0.22445355 0.03932158 -0.34359723 0.17892167 -0.091372006
-0.23632613 0.1448848 -0.010509799 0.4620639 -0.14032254 0.16572991 0.29050207 0.17055778
-0.34994006 0.0036164494 0.018777339 -0.01576462 -0.20782228 0.19316676 -0.217227 0.012292106
-0.27269074 -0.06888552 0.019771058 0.113413 0.0866986 0.21599917 -0.08350336 -0.06186403
-0.2019783 -0.055980325 0.09121679 -0.24940462 -0.14331777 0.07093951 0.08341353 0.16894257
-0.36468807 -0.19314612 0.23444583 -0.054765597 -0.070733026 -0.05328025 -0.13702019 0.032172576
0.18776566 -0.2344973 0.08190882 -0.09760179 -0.21724968 0.25832802 0.17122652 0.0054650153
-0.15079059 0.11022791 -0.24147134 0.2712042 -0.06930676 -0.072469786 -0.008357748 0.022826122
0.13037854 -0.018381227 -0.006605662 -0.08714275 0.06529465 -0.03812378 0.09034927 0.21884835
0.054141592 -0.006297433 -0.1630012 -0.024316803 -0.07587196 -0.18492079 0.057337325 -0.27418032
-0.4488732 0.34306374 -0.14922577 -0.023289248 0.2868771 -0.10599971 -0.031720478 -0.030500619
0.0046119983 -0.27450943 -0.054828495 -0.16343425 -0.049464647 0.18333122 -0.17360826 -0.1733692
-0.2671056 -0.092020325 -0.062946126 -0.018964477 -0.09819717 -0.28783172 0.063866116 -0.15288608
-0.15843295 0.0878599 0.019992696 -0.030993162 -0.29700842 0.13164064 0.19909357 0.24861363
0.17747842 -0.1531863 0.17990743 -0.058359053 0.07053036 0.058943912 -0.11923022 -0.23221254
-0.08974485 0.31023422 -0.26049173 0.06399674 -0.2391924 0.15778935 0.016046273 -0.07128025
0.10471722 0.27028286 0.14999656 0.12721696 0.09729611 0.4462815 -0.2701254 0.044541
-0.016204309 -0.16053136 0.1370595 -0.13192831 -0.31936228 0.2457691 -0.22710136 -0.0719166
-0.22808973 -0.1483557 -0.12713179 0.08299471 -0.028148286 -0.3483484 -0.119642854 0.20311773
0.18718116 0.13383457 -0.26971126 0.19081381 0.19650678 -0.11887556 0.18428746 -0.01018033
-0.07281664 -0.108665906 0.4417544 -0.32632858 -0.011735493 -0.19876274 -0.03554308 -0.047047738
-0.25530106 -0.030890197 -0.016224343 -0.19531515 -0.38644424 0.34843948 -0.3803964 -0.054026887
0.17321552 -0.05285925 0.25433347 -0.049848225 -0.26601544 0.13251834 -0.1669533 0.2054265
-0.09485514 -0.107762076 -0.31204265 -0.16714521 0.1354689 0.34258008 -0.16748169 0.014167178
0.12187997 -0.22750612 0.01126769 -0.05259709 0.24611871 -0.03855501 -0.069582574 0.0839914
0.3950417 0.10034905 0.06411882 -0.053261872 -0.18415084 -0.119720064 -0.2324774 0.12410692

layers.0.1.weight f4 [256]
00000000: 649e 833f eec2 793f 1a92 7c3f 28c6 783f
00000010: 9093 773f c96f 833f db1a 7d3f 865f 7a3f
00000020: 2dea 7d3f ac4f 803f 7688 823f 5a7c 853f
00000030: 1308 853f fef6 7e3f 5a1c 7d3f b995 7d3f
00000040: 5502 803f 1fca 783f 63bc 763f c141 7a3f
00000050: ad4a 793f 2d46 7c3f faf8 833f 4a2d 803f
00000060: 2431 7b3f ec05 813f 8e59 863f 7ef4 7c3f
00000070: 7169 933f ab5c 7e3f 2848 853f 0f36 833f
00000080: 4546 783f 47f2 7d3f 65f3 7f3f b60a 773f
00000090: 8b14 813f ace8 7a3f cb9f 7f3f 9715 783f
000000a0: 9fc8 7a3f b6e1 7d3f 685c 7e3f 2fe4 7a3f
000000b0: 4676 833f b12c 803f edb3 793f d889 7d3f
000000c0: 4097 793f 57f1 813f a878 7f3f f5ee 813f
000000d0: a90a 843f d072 7d3f 7a95 793f 864c 823f
000000e0: 76f5 7e3f c6f2 7e3f a1a6 7c3f 7f94 823f
000000f0: d747 7a3f 183e 7f3f b046 7c3f f2ec 7b3f
00000100: 9bf7 7f3f a963 7b3f 1bf5 803f 8580 843f
00000110: 3cd5 793f f61a 863f 4bad 7d3f fa3c 793f
00000120: 818a 783f bab8 793f 005d 813f 27e4 7a3f
00000130: 264c 853f c463 833f 668b 7c3f 8393 803f
00000140: ed13 813f bf41 853f 7c54 823f 7636 7a3f
00000150: d464 7e3f ae16 833f 7045 7d3f 710e 843f
00000160: 8321 813f 3fda 7b3f 3a38 7e3f 9864 8b3f
00000170: 841b 833f ca2b 813f 3b4e 863f 9352 7b3f
00000180: 3eb2 733f d5db 7a3f ffc2 803f dade 793f
00000190: 1308 793f 3fba 7c3f e202 7e3f b459 823f
000001a0: 10e9 7f3f 10d3 7f3f 4487 843f fe74 813f
000001b0: a047 813f 934b 813f 3499 823f b301 823f
000001c0: ee1f 803f db79 813f 0cff 803f c033 803f
000001d0: 7b9a 853f 8d62 7e3f e0a2 763f d411 7c3f
000001e0: 0d94 833f 07b5 803f dbfa 7d3f 8024 7c3f
000001f0: b253 813f d934 7d3f 7397 813f 1279 7d3f
00000200: 8dd9 803f 13e6 813f 47ed 813f 547c 773f
00000210: ddea 803f 0743 7c3f d033 813f c9e8 793f
00000220: 8490 793f 9efb 7e3f ee12 7a3f 72a7 7a3f
00000230: d1b5 7a3f 1a94 7e3f 186c 7e3f 49ca 7c3f
00000240: c437 803f 1fae 7c3f 4ac9 7d3f be9f 7d3f
00000250: 0e36 7a3f 38aa 823f 0129 8d3f d79a 783f
00000260: efdb 7d3f a1ff 833f 641f 7a3f b3eb 7a3f
00000270: b96f 853f ce6e 7f3f e81d 893f 6a78 863f
00000280: 2e8c 7c3f 2b96 813f 2897 813f 3605 7c3f
00000290: 0b17 7d3f ad20 7d3f 4f39 743f 29d4 7e3f
000002a0: 9897 7c3f 5dde 7b3f c242 7b3f 2735 833f
000002b0: 0a78 7c3f b114 6a3f 9881 7c3f d0a3 7e3f
000002c0: a655 803f 0259 7e3f 4d96 7e3f 5335 7a3f
000002d0: e2b8 7a3f 2d02 7f3f bd5a 7a3f 8337 783f
000002e0: fd8f 7d3f 40db 763f 4539 7a3f fac8 793f
000002f0: 59af 7d3f 38a9 7e3f 043a 893f 1a19 8a3f
00000300: 9056 7b3f 9efa 7d3f 1bc1 793f 0bf6 7d3f
00000310: 99ad 7e3f c706 743f a019 843f d967 823f
00000320: d725 803f f493 783f 9476 7b3f a43f 823f
00000330: 03e5 7a3f f0ef 7f3f d58d 7f3f da3b 7b3f
00000340: bc04 7f3f 98c4 843f 4b05 793f 5ccd 7a3f
00000350: 5fee 823f 1180 753f 48e1 7e3f def6 7f3f
00000360: beb0 733f 0129 873f 9152 803f 4c09 733f
00000370: 7f21 893f 8010 823f 3cdf 813f 647d 813f
00000380: b3d1 783f ecf9 833f 0c31 813f daa1 873f
00000390: 280d 883f 226d 7b3f e73a 833f e0f8 7b3f
000003a0: b6c4 803f 416c 853f 87ac 7b3f 47a0 7e3f
000003b0: da32 823f ecea 7c3f 08f6 7b3f a000 7e3f
000003c0: 9e51 7e3f 6bf2 7e3f 945e 763f 0cc6 8a3f
000003d0: cd8a 853f a254 7e3f 9cc5 7e3f aa9f 7b3f
000003e0: 3d1e 823f 2666 813f 1f83 7b3f 1e3d 7b3f
000003f0: e274 793f 3056 7a3f 069c 803f ec4a 783f
1.0282712 0.97563064 0.98660433 0.9717736 0.9670954 1.0268489 0.98869103 0.9780201
0.9918545 1.0024314 1.0197895 1.0428574 1.0393089 0.9959563 0.98871386 0.99056584
1.0000712 0.9718341 0.96381205 0.9775658 0.9737957 0.9854458 1.0310357 1.0013821
0.9812186 1.0079932 1.049608 0.98810565 1.1516553 0.9936015 1.0412645 1.0250872
0.9698222 0.9919781 0.99980766 0.9650072 1.0084394 0.9801128 0.998532 0.96907943
0.97962373 0.9917253 0.9935975 0.9800443 1.0270469 1.0013639 0.9754017 0.9903846
0.97496414 1.0151776 0.9979348 1.0151049 1.0315753 0.99003315 0.9749371 1.0179603
0.99593294 0.9958919 0.98691756 1.0201567 0.9776587 0.9970412 0.9854536 0.98408425
0.9998719 0.98198944 1.00748 1.0351721 0.97590995 1.0476978 0.9909255 0.9735867
0.9708634 0.97547495 1.0106506 0.9800438 1.0413864 1.0264821 0.98650205 1.0045017
1.0084206 1.0410689 1.0182033 0.9773935 0.993726 1.0241296 0.9893408 1.0316907
1.0088352 0.9837989 0.99304545 1.0890074 1.0242772 1.0091488 1.0492624 0.98172873
0.9519385 0.9799169 1.0059508 0.9760567 0.97277945 0.9872169 0.9922315 1.0183625
0.99965 0.9993143 1.035378 1.0113828 1.0099983 1.0101188 1.0203004 1.0156769
1.0009744 1.0115312 1.0077834 1.0015793 1.0437769 0.99369127 0.9634228 0.98464704
1.0279557 1.0055245 0.992109 0.98493195 1.0103667 0.98908764 1.0124344 0.99012864
1.0066391 1.0148338 1.0150536 0.96674085 1.0071675 0.98539776 1.0093937 0.97620827
0.9748614 0.9960269 0.97685134 0.9791175 0.9793368 0.99444735 0.9938369 0.9874616
1.0017018 0.9870319 0.9913527 0.9907187 0.9773873 1.0208197 1.1028138 0.97111267
0.9916372 1.0312387 0.9770415 0.980159 1.042472 0.9977845 1.0712252 1.0505497
0.986514 1.0123953 1.0124254 0.9844545 0.98863286 0.98877984 0.95399946 0.9954248
0.98668814 0.98386174 0.9814874 1.0250596 0.98620665 0.9143782 0.98635244 0.9946871
1.0026138 0.99354565 0.9944809 0.97737616 0.9793836 0.99612695 0.97794706 0.96959704
0.99047834 0.964283 0.97743636 0.9757229 0.99095684 0.9947696 1.072083 1.078891
0.9817896 0.99210536 0.9756028 0.99203557 0.9948364 0.9532284 1.032032 1.0187942
1.0011548 0.9710076 0.9822781 1.0175672 0.98005694 0.9997549 0.99825794 0.981382
0.996166 1.0372496 0.972737 0.97969604 1.0228995 0.9589854 0.995625 0.99986064
0.9519156 1.0559388 1.0025197 0.9493606 1.0713347 1.0161285 1.0146251 1.0116391
0.97194976 1.0310645 1.0093093 1.0596268 1.0629015 0.982134 1.025235 0.9842663
1.0060031 1.0423661 0.9831013 0.99463314 1.0171769 0.9879596 0.9842229 0.99219704
0.9934329 0.9958865 0.96238065 1.0841689 1.0432984 0.9934789 0.9952028 0.98290503
1.0165478 1.0109298 0.9824695 0.9814013 0.97443974 0.9778776 1.0047615 0.9698932

layers.0.1.bias f4 [256]
00000000: 3597 b23b a6e5 9cbb b625 46bc 53ff dbbb
00000010: 4b33 3ebc a23d 223d 9a6f a8bb 3f36 003c
00000020: b036 8ebc 5640 46bd 54a4 443d 9944 a13d
00000030: 77d1 ce3b 293b 533c 5456 ccbc f969 a7bc
00000040: b393 a33c 4f57 b2bb f602 b1bc 22f2 87bc
00000050: babe 5e3c c12d aabc af6f 983c f0fb c53c
00000060: b078 47bd 6bdb 2cbc bb6a 313d 2cf2 ce3c
00000070: e79f c93d 2a86 b939 d1cb 903c 4ee8 5a3d
00000080: 808f 4bbd 1055 b7bc c71e 3e3c d086 f2bc
00000090: d437 14bc 4123 6abb a07e 57bb a5c1 f6bc
000000a0: df3d 963c de49 83bc b706 813c 50b0 a939
000000b0: cc8b 88bc 9ad3 c0bb c7bf d1bc 705f 4d3c
000000c0: c6f6 2bbd ac18 ff3c 2122 963c f7c2 eb3c
000000d0: 1684 943d b71c e7bc 4ff8 02bd 932a 2a3c
000000e0: 2837 1e3b 76e3 713c 3fff b4bc 5250 ce3c
000000f0: 8a03 76bb fa3b db3a 8d80 583c 4058 31bc
00000100: f92b 80bb a15c e4bc b8e4 df3a 49de af3d
00000110: 59fe cfba ce4e 773d d2a8 b83b 9e94 d2bc
00000120: bd83 12bd 1eda 0c3c ceb0 d53c d622 a43c
00000130: c189 c93d c698 e83c 5606 eebb dd73 a03c
00000140: a013 07bd 22a2 c13d f828 c83c 1de3 943c
00000150: 5161 9dbc fcfe 473d ee18 de3b 383c 663b
00000160: 29e6 e33c c109 8fbb e8d8 ed3c 0ebc 863d
00000170: 6761 a43b b98f 533c 0e2f 9e3d 9ce7 dfbb
00000180: 68e9 8dbc 8620 b638 d783 d23c 8f4f 8b3b
00000190: ff47 7e3b 6122 f43c d5bb c63b e375 67bc
000001a0: eb58 cfbb b20a 173b aed1 19bb f505 ad3c
000001b0: 1974 8f3c f127 fa39 8044 c13c e18c fd3c
000001c0: ae96 0d3a ab37 443d c675 343d 8940 ce3c
000001d0: 46fb c73c 9f73 833c 65ef a4bc 7ec3 1a3a
000001e0: 40ba 753d e1fe 143d 878e 48bc e5c1 adbb
000001f0: 6633 683d 1734 393b 5ecc 9e3d 342e 04bc
00000200: e673 8ebb cc02 3d3c 18d0 95b9 53f4 5abd
00000210: 3428 0f3d 27cb 3abb 93fd 85bb 5996 92bc
00000220: 6cff a1bc e720 c23b 7dea 9d3b 59e2 933c
00000230: f174 4abc 4153 fb3c 0af1 f53c c7a0 b9ba
00000240: e03e a73c 820a 0cbd 8f16 89ba 21af 29bc
00000250: fdcc 16bc 142c 953c 01ab 1c3d ea63 bfbc
00000260: 7c8b a7bc 168c 1b3d b9dd ccbc b584 dcbc
00000270: e262 ea3c 5447 37bc 57ec 8d3d 9c8a 3c3d
00000280: 3b2f 06bc b504 4fbc ecc3 aa3d 300a ddbc
00000290: 21bc d2bb 92b0 1e3c 1113 34bd 0464 513c
000002a0: 89d1 1abc 51d1 d7bb f523 89bc 8b95 4a3c
000002b0: 36ba d5ba 6dad fdbc 8fdb 1abc 701f 3c3c
000002c0: de00 9d3b 3626 fe3c 2516 e23b cd15 34bc
000002d0: 5cb8 933b b270 cabc b8e2 a13b 174c b5bc
000002e0: 89f6 5fba 7e3c 4cbd 1920 27bc d956 eabc
000002f0: 569d a13b 0ef3 d2bc 19b4 273d dc8c 7e3c
00000300: 03a8 c5bc e2c6 bcbc ef5b f0bc 73ab 303c
00000310: 3820 773c 2ba1 53bd 5c55 e2ba 6e3f b13c
00000320: a8b3 e63a 4f38 fbbb 5b87 46bb 6204 5eba
00000330: 35e3 d73c 0f7f f23c 6a0f b43c c2e9 15bd
00000340: 44e6 ed3a 1795 703c bda7 0dbc f31b bebc
00000350: e65f 283d cc69 eabc c876 343b e59b 953c
00000360: ea7d 3fbd 6634 253d 1ae7 433c 9f24 73bd
00000370: 2d34 283d 0ec1 29bb 5ea8 fe3c df49 373d
00000380: ce00 7e3c 3056 31ba ac5b f3ba 54e2 973d
00000390: 7886 8e3c bf5e 03bd 9fbd 063d 0f00 21bd
000003a0: 5096 e9bb 0bff 14bd 85fb 76bc 02f9 c73c
000003b0: 81dc bd3d c18b d6bb a33c 6cba b4c2 a0bc
000003c0: af45 3d3c d959 cabc 5ca2 0cbd 83f9 843d
000003d0: 7cb9 843c b5ce 64bc 82b6 ddbc 3b5e 82bb
000003e0: 687d 4e3c 2f16 153b afae b3bc 9ef5 c1bc
000003f0: 952f a0bc d277 2ebb 5905 8d3c a8ad 04bd
0.005450154 -0.0047881184 -0.012093952 -0.0067137866 -0.011608909 0.03960956 -0.005140257 0.007825433
-0.017360061 -0.0484012 0.048008278 0.07874412 0.0063115912 0.012892523 -0.024943508 -0.020436274
0.01996789 -0.005442537 -0.021607857 -0.01659495 0.013595277 -0.02077377 0.018607942 0.024167985
-0.04869908 -0.01055036 0.043314677 0.02526196 0.09844952 0.0003538591 0.017675312 0.0534442
-0.0496974 -0.022379428 0.011604018 -0.0296053 -0.009046514 -0.003572658 -0.003288187 -0.030121634
0.01834005 -0.016026434 0.015750272 0.00032365555 -0.016668223 -0.0058846 -0.025604142 0.012534961
-0.04198339 0.031139694 0.01832682 0.02877949 0.07251756 -0.028211934 -0.031975087 0.010386127
0.0024141762 0.014763704 -0.022094367 0.025184784 -0.003753873 0.0016726248 0.013214243 -0.010824263
-0.003911492 -0.0278762 0.0017081713 0.085873194 -0.0015868648 0.06037789 0.0056353593 -0.025705632
-0.035770167 0.008596925 0.026085284 0.020036142 0.098407276 0.02839316 -0.007263939 0.019586498
-0.0329777 0.094547525 0.024433598 0.018174702 -0.019211443 0.048827156 0.006777874 0.0035131108
0.02781971 -0.0043651764 0.029034093 0.06578837 0.005016494 0.012912684 0.07723819 -0.00683303
-0.01732321 8.684494e-05 0.025697632 0.0042514275 0.0038800237 0.02980155 0.006064872 -0.0141272275
-0.0063277385 0.0023047146 -0.0023470926 0.021121005 0.017511414 0.00047713474 0.023592234 0.030950965
0.0005401176 0.04790465 0.04405763 0.025177257 0.024411809 0.016046343 -0.020133683 0.00059037644
0.059992075 0.036375884 -0.012241012 -0.005302655 0.056689642 0.0028259808 0.07753824 -0.008067656
-0.0043473123 0.011536311 -0.00028574537 -0.053455662 0.03495045 -0.0028502436 -0.0040890663 -0.017893957
-0.019775115 0.0059243324 0.004819213 0.018052267 -0.012356983 0.030679347 0.030022163 -0.0014162295
0.020415723 -0.03418971 -0.0010458993 -0.010356695 -0.009204146 0.018209495 0.03824902 -0.023363072
-0.020452254 0.037975393 -0.02500807 -0.026918748 0.028611604 -0.01118644 0.06929844 0.046030626
-0.008189972 -0.0126354 0.083381504 -0.026982397 -0.006431118 0.009685652 -0.043963496 0.012780193
-0.009449371 -0.0065862318 -0.016740778 0.012364755 -0.0016306106 -0.030966485 -0.009451761 0.011482105
0.004791363 0.03102408 0.0068996125 -0.010991526 0.0045080613 -0.02471194 0.004940357 -0.022131009
-0.00085435115 -0.049862377 -0.010200524 -0.028605865 0.004932086 -0.025750663 0.04094324 0.015536513
-0.024127966 -0.023044053 -0.029340712 0.010783064 0.015083365 -0.051667374 -0.0017267871 0.021636691
0.0017601149 -0.0076666246 -0.003029308 -0.0008469281 0.026353458 0.029601602 0.021980006 -0.036599882
0.001815029 0.014683983 -0.008645949 -0.023206687 0.04110708 -0.028614901 0.002753662 0.018262813
-0.04675094 0.040333174 0.011956954 -0.059361096 0.041065384 -0.0025902423 0.031086143 0.044748183
0.015503122 -0.0006764857 -0.0018566749 0.074162155 0.017398104 -0.03207278 0.03289568 -0.039306697
-0.0071285143 -0.03637604 -0.015074615 0.024410728 0.092705734 -0.0065474217 -0.0009011721 -0.019624092
0.011552258 -0.024701046 -0.034334525 0.06492903 0.016201727 -0.013965298 -0.027064566 -0.0039785183
0.012603141 0.0022748818 -0.021933882 -0.02367669 -0.019553939 -0.0026621711 0.017214464 -0.032392174

layers.1.0.weight f4 [128, 256]
00000000: 5965 df3d 65c6 4fbe 0e74 133e 0e56 05be
00000010: 9e2f ad3d bfe8 c63c fd0b c23d 7545 48bd
00000020: 3735 ac3d 5f05 23be 2b4f e8bd e1cd a03d
00000030: f9e6 fbbc 4c49 4a3e 8bff ccbd 48ff 40bd
00000040: 0fc3 b9bd cf7f a63d dbef 79bc c576 873d
00000050: 1f25 a53c 83c7 b13c 5ce6 f83c efb4 723d
00000060: 3567 043e b174 7d3d 474b b9bd e266 41bd
00000070: d951 2d3c 66ed e1bc 7f55 693d 0820 08bc
00000080: 8357 e43c e924 aabd 0485 a13d 2df2 26bd
00000090: 59c1 e33c d5da 6a3d cbbc 80bc 99d4 98bd
000000a0: 3644 99bb 7c65 823c 697c 66bd 44ca 38bd
000000b0: c73e b43d 4090 7b3d b25b 3cbd 7865 8dbb
000000c0: 0909 003e 2a06 fc3d f1a2 10be 1a7f ca3b
000000d0: 7600 33be 921f 223d a8a1 9bbb 3ad5 d1bd
000000e0: f9a2 5bbd 994e 03be 83f0 efbc 827a dbbc
000000f0: d390 113d 99df 003e db85 ccbc bdc6 4c3c
00000100: 585b af3d 0f6e 2fbc 6ca4 6abe 4500 7ebd
00000110: 1e3c 7abc 263a 963d aad5 263d e0b4 eebd
00000120: 12d4 2dbd 628b 07be d99d 9bbe 17da 223d
00000130: 9bf1 abbc 7d26 483d c813 12bd 0cb9 79bd
00000140: 27bb 0abe 95c0 05be 4d73 193d 9e00 103d
00000150: c5a4 26be 3ce5 42bb 555c 36bd d573 e9bd
00000160: 37de cabd 9d4d 4bbc cfe9 043d e689 a13d
00000170: 5584 02bb 5c41 183d 0bd5 0fbe fd4c 10be
00000180: 0dd5 383d 5512 0fbd 2d08 e23d 09d8 73bd
00000190: f76e 433d cd0a 32bd e34a 5fbe a552 acbd
000001a0: 9bf0 353e ae61 963d 3022 50bc 8218 6c3c
000001b0: 8c9e 433c 0ed7 093d d29b 783d 0f87 b7bc
000001c0: ffd2 05be 6f7f 24bd 582c 263c aa0d dcbd
000001d0: dba7 a5bc c7de 4e3d 5427 8ebd 33fb 95bc
000001e0: 8314 b4bd e04a 4abd bf7c c1bd 7720 13bd
000001f0: beb0 063c 9015 963d e50b 03be 58a0 08be
00000200: dc60 b73b 6563 0a3e 102d 3f3e 73ad 1ebc
00000210: 55b2 b0bc eb28 a6bd 62e4 5fbd 6d1e ca3d
00000220: 4511 d53b ef51 1dbd 226e 1a3d 2010 d1bc
00000230: 0cac 2ebe c131 cebc 5ae4 4cbe 947f e73d
00000240: 6900 243d d369 96bc 3fbc 0ebe 18ed 423d
00000250: 7a3c f63d a763 0dbe cd24 863d 0332 2f3d
00000260: 1104 16be d1bb 4c3d a49b 93bd d157 cb3d
00000270: fae2 173e 9717 983c e914 c63c 42b7 6cbc
00000280: 0503 08bb 0c42 ab3d 8c5c ef3a 458b bb3d
00000290: 77ad e23d 5ab4 833d f1a5 f23d 06ff 2abd
000002a0: 3b3f b5bc 2b55 893d c7ba 1cbc 5ded ea3c
000002b0: 3f21 3dbd 3c70 f53d 76f2 fc3c c40e 323e
000002c0: 60a8 c63a 2b78 f7bd 5cbb cebd 4007 fbbc
000002d0: 415e 8f3d a36e 9bbd ad23 36be 4077 63bd
000002e0: 6d62 52bd fe42 b4bc c1fd d23d afff 8cbc
000002f0: 6236 023d b829 8cbc 3394 43bd 7fcd aa3d
00000300: 4f96 81bc e6f2 08bd ffa9 7b3d 9967 2b3d
00000310: 58fc f5bc abec d4bd f898 343b c552 fcbc
00000320: 8887 2f3e 44e3 bf3c d65b 493d aa0a c63c
00000330: 0506 4c3e ffb1 e4bd 6970 0bbc 95ad ddbd
00000340: 1cc7 03be f9e1 543c 9497 713d 95a3 233c
00000350: 3413 d53c d18f cfbd c2ef 0dbd 9596 c1bc
00000360: 0fff 6fbd 3afc bf3d 4bcf d4bd 4c66 843c
00000370: d079 863d a014 61bd 7e83 c2bc 2166 e03d
00000380: e89c 8dbd 91e2 343d 5194 eebc 5287 e9bc
00000390: 807d 443e 32ce b3bd 47bf 713d c8d3 933d
000003a0: 2274 ffbd d376 88bd 2fe3 e0bd 84b2 24be
000003b0: fd29 68bc 6f16 213d 33a9 2bbd d040 59bb
000003c0: 22ef c73d 64cc 703d fd34 9abd 285a 9abd
000003d0: fdf3 9a3b db3a 163e a33f febd 9c20 57bd
000003e0: 109a d63c f821 0cbe c181 dfbc 64d4 3dbc
000003f0: b326 aabd 52aa 1d3d 541b f23c 87bf f23d
0.109080024 -0.20290525 0.1439974 -0.13021109 0.08456348 0.024280904 0.09474943 -0.048894364
0.084085874 -0.15920018 -0.11343225 0.07851768 -0.030749785 0.19754523 -0.100096785 -0.047118455
-0.090704076 0.08129846 -0.01525494 0.0661445 0.020159302 0.02170158 0.030383281 0.059254583
0.12929995 0.061878864 -0.09047561 -0.047217257 0.010578596 -0.02757902 0.0569663 -0.008308418
0.02787376 -0.08307821 0.07886699 -0.0407583 0.027802156 0.0573376 -0.015715024 -0.07462425
-0.004677321 0.015917532 -0.05627099 -0.04511477 0.08801036 0.061416864 -0.045985885 -0.0043150745
0.12503447 0.12305863 -0.14124657 0.0061797025 -0.17480645 0.03958089 -0.0047494955 -0.10245748
-0.05362222 -0.12822951 -0.02928949 -0.026791815 0.035538506 0.12585296 -0.024966171 0.012498555
0.08562344 -0.010707392 -0.22914284 -0.062011976 -0.015273122 0.0733531 0.04073111 -0.11655593
-0.042438574 -0.13236764 -0.30393866 0.039758768 -0.02098923 0.04886483 -0.035663396 -0.06096749
-0.13547955 -0.13061745 0.037463475 0.03515684 -0.16273792 -0.0029738685 -0.04452165 -0.11399046
-0.09905665 -0.012408641 0.03244954 0.0788763 -0.0019915302 0.037171707 -0.14046113 -0.14091869
0.045125056 -0.034929592 0.11036716 -0.0595322 0.047713246 -0.04346733 -0.21805911 -0.08414201
0.17767565 0.0734285 -0.012703463 0.01441014 0.011939656 0.033652358 0.060695477 -0.022403268
-0.1306877 -0.040160593 0.010142408 -0.10744794 -0.020221641 0.050505426 -0.06941095 -0.018308258
-0.08792975 -0.049387813 -0.094476216 -0.035919633 0.00822085 0.073283315 -0.12797506 -0.13342416
0.0055962633 0.13514479 0.18669534 -0.009684908 -0.02156941 -0.08113273 -0.054661162 0.098690845
0.006502303 -0.038408216 0.037702687 -0.025520384 -0.17057818 -0.025170209 -0.20008984 0.113036305
0.040039454 -0.018361008 -0.13938998 0.04758939 0.12023254 -0.13807546 0.06549988 0.042772304
-0.14649989 0.049983803 -0.072074205 0.09928859 0.14832678 0.018565936 0.024179893 -0.014447989
-0.0020753753 0.08362207 0.0018261834 0.09157423 0.11068242 0.06430884 0.11848057 -0.041747116
-0.022124877 0.067056976 -0.009566016 0.028677637 -0.046174284 0.11984298 0.030877333 0.17388445
0.0015156381 -0.12083467 -0.1009433 -0.030643106 0.070003994 -0.07589462 -0.17787047 -0.055533648
-0.051363397 -0.0220046 0.10302306 -0.017211763 0.031790145 -0.017109737 -0.047748756 0.083399765
-0.015818743 -0.03343477 0.061441418 0.041846845 -0.030027553 -0.10396703 0.0027556997 -0.030801186
0.17141545 0.023423798 0.049159847 0.024175007 0.19924171 -0.111667626 -0.008510687 -0.10824124
-0.12868923 0.012993329 0.058982447 0.009987731 0.026010133 -0.10134853 -0.03465248 -0.023631373
-0.058592852 0.0937428 -0.103911005 0.01616206 0.06566203 -0.05495131 -0.023744341 0.109569795
-0.06914693 0.044161383 -0.029123457 -0.028506909 0.191885 -0.08779563 0.059020307 0.072181284
-0.124733225 -0.06663289 -0.10980832 -0.16083723 -0.014170167 0.039328035 -0.041909408 -0.0033150204
0.09762408 0.058788672 -0.07529638 -0.07536727 0.0047287927 0.14670889 -0.124144815 -0.052521333
0.02619651 -0.13684833 -0.027283551 -0.011586282 -0.083081625 0.03849251 0.029554047 0.11852937

layers.1.1.weight f4 [128]
00000000: a2ed 7a3f 2b0b 7f3f c27d 7e3f 4b7e 7d3f
00000010: 54f8 7b3f d15e 813f bf91 823f 2f87 783f
00000020: cff9 803f 22c7 883f 3b93 843f 5734 7b3f
00000030: 4814 7f3f a9ed 863f 4f4f 7e3f 8a01 7c3f
00000040: acd3 803f 499d 833f b4a0 723f 1335 7f3f
00000050: e61c 793f 29a9 823f 28a9 803f 4f9f 793f
00000060: 23b3 7c3f 9272 833f 26ce 823f 889d 803f
00000070: eb17 813f fdd7 743f 71ab 813f 809d 773f
00000080: d6db 803f fbee 7c3f 529a 803f b28c 843f
00000090: bab1 773f d6ca 763f 24dd 823f 2d38 803f
000000a0: dc2f 7a3f 1861 743f a411 6f3f 4e10 833f
000000b0: bb8b 863f 2164 7d3f da71 7d3f a6e8 793f
000000c0: 94bf 813f 78ab 803f 533c 7d3f 886d 833f
000000d0: 9b5e 803f 00b8 7b3f 6a86 7a3f bc37 7c3f
000000e0: 0a2a 793f 0fc5 813f 7519 833f a38d 823f
000000f0: b412 7d3f 0da7 7e3f 00f8 813f 7824 793f
00000100: 3853 793f 14e8 7d3f 1ec0 803f 5ebe 813f
00000110: 656b 783f 1963 863f e403 813f 9670 853f
00000120: 3877 7e3f 066f 833f 4da3 793f e910 833f
00000130: fd5d 7f3f fd2e 7c3f b86a 853f cf10 783f
00000140: 3118 833f fa72 793f aa80 723f d377 893f
00000150: cb46 743f 2ebe 7d3f 7554 783f e5c9 7e3f
00000160: 5dce 773f c5ea 703f 0db5 753f 2b5e 7f3f
00000170: 4855 823f 718a 7c3f 7d64 7f3f 42da 7e3f
00000180: a9e7 803f 9602 743f bf96 803f 74e2 803f
00000190: 341d 823f 2226 7c3f dce5 843f ebc3 8a3f
000001a0: f5ac 7c3f d664 783f 61c7 7f3f 1564 753f
000001b0: 4e69 813f e83c 7b3f 7f27 7d3f 927f 803f
000001c0: c95f 743f 71d8 7b3f 2b32 7c3f 9904 853f
000001d0: f96c 823f 9bca 7d3f 4117 803f 09cb 803f
000001e0: 66f3 7a3f 9016 6d3f 8610 813f fd18 7e3f
000001f0: 35f4 853f 758a 803f b49d 793f f696 813f
0.9801885 0.99626416 0.9941064 0.9902083 0.98425794 1.0107061 1.0200728 0.97081274
1.0076236 1.068577 1.0357431 0.9812674 0.9964032 1.0541278 0.99339765 0.9843985
1.0064597 1.0282375 0.94776464 0.9969036 0.9730972 1.0207874 1.0051622 0.9750871
0.9871084 1.0269339 1.0219162 1.0048075 1.0085424 0.9564207 1.0130445 0.967247
1.0067089 0.98802155 1.0047095 1.0355437 0.96755564 0.96403253 1.0223737 1.0017143
0.9772928 0.95460653 0.9338629 1.0239351 1.0511392 0.9898091 0.9900185 0.9762062
1.013659 1.0052328 0.9892017 1.0267801 1.0028871 0.98327637 0.9786135 0.98522544
0.9732977 1.0138263 1.0242144 1.0199474 0.98856664 0.9947365 1.0153809 0.9732127
0.97392607 0.9918225 1.005863 1.013622 0.9703887 1.0498992 1.0079312 1.0424984
0.99400663 1.0268257 0.975148 1.0239536 0.9975279 0.985092 1.0423193 0.9690065
1.0241758 0.97441065 0.94727576 1.0739692 0.9542052 0.99118316 0.9700387 0.99526817
0.9679926 0.9410823 0.95979387 0.99753064 1.0182276 0.98648745 0.9976271 0.99551785
1.0070697 0.95316446 1.0046004 1.0069108 1.0165162 0.98495686 1.0382648 1.084104
0.9870141 0.97028863 0.99913603 0.9585584 1.0110261 0.9813981 0.9888839 1.0038931
0.95458657 0.9837714 0.9851405 1.0392028 1.0189506 0.99137276 1.0007097 1.0061961
0.98027647 0.9261255 1.0083168 0.9925688 1.0465151 1.0042254 0.9750626 1.0124195

layers.1.1.bias f4 [128]
00000000: 67e2 cdbc de0d 4b3c fadd 62bc 690a 60bc
00000010: f3bf 58bc 7813 5b3c 762d 083c 7be7 88bb
00000020: f062 0e3b 5d36 503d 05d3 0b3d b32f 94bc
00000030: 4738 4ebb 3453 143d 889e 3f3c 2287 efbc
00000040: 2595 bdbb d9d4 963c 80d2 22bd 39c1 5d3c
00000050: bdfc ffbc 79ef 3a3c 0cee 48bc 299d 97bc
00000060: 4e53 8abc 4eac 2f3b fde1 a13c ae5a d6bb
00000070: 5111 523c 40e6 19bd 845d 21ba 72a2 9bbc
00000080: 51d0 203d 0459 61bc 7c5d 803c 21f3 693c
00000090: a600 a5bc c895 24bd c9a2 c63b f3b8 013c
000000a0: 7ad6 10bd fc99 5bbd 932d debc 3e4d b73c
000000b0: 07bd 403d 495c a43a cb7e 36bc 2b58 fdbc
000000c0: 13e1 853c da66 16bd 5f37 b8bb 1ed2 e73c
000000d0: 41bd c43b b18c feba 5991 e9bc bfd9 8c3c
000000e0: 1460 40bc 1518 3dbc 990a e33c d682 343c
000000f0: 6a72 fcbb 3f86 74bc 0aca 1ebb 9044 00bd
00000100: 8d50 a4bc 8e06 30bc dc02 1abc 7375 c03c
00000110: 3032 62b9 87f5 0f3d cda4 c33a 855a 333d
00000120: b12f 0cbd b852 743c 86ef 97bc 93c0 ce3c
00000130: 1d80 febb 4289 a03c 9144 643d fbf5 cfbc
00000140: 92ae cf3c dcfd eebc 8b65 b8bc 2352 ce3d
00000150: 8b11 2cbd 6ef6 9ebc d91a edbc 0c7a 803c
00000160: 05e3 82bb 7b25 0abd 8666 0abc 778e 5fbc
00000170: da01 203d b070 0cbc 693c 1f3c e85e dbbb
00000180: 09b4 e43c 5c9c d7bc c9fd 8dbc d70f 0f3c
00000190: a07c bc3b ee3a eebc 280b 703c 9cb3 853d
000001a0: 6730 29bc f82f f8bc 0355 413c 0061 75bd
000001b0: a96b 8f3c e2ef 08bd 4216 253c ae2f c23c
000001c0: 9d69 2ebd 5b7e 08bd b3f3 7bbc ea6a 313d
000001d0: e5ff b33c 268e b2bc b6fa 913b fb4a 8b3c
000001e0: 1568 dbbc 3e5c 46bd ac23 d83c c91d e5bb
000001f0: 08cb 353d 70e9 be3b 88b8 4cbc 34e9 51bb
-0.025132371 0.012393443 -0.013846869 -0.013674357 -0.013229358 0.013371341 0.00831162 -0.0041779852
0.0021726452 0.050833095 0.03413679 -0.018089151 -0.003146665 0.03621216 0.011695512 -0.029239241
-0.0057856017 0.01841204 -0.03975153 0.013534837 -0.031248445 0.011409634 -0.012263786 -0.018507557
-0.016885426 0.0026805582 0.01976108 -0.0065415716 0.012821511 -0.0375731 -0.00061555975 -0.018998358
0.039261166 -0.013754133 0.015669577 0.014279158 -0.02014191 -0.040181905 0.006061886 0.0079176305
-0.03536079 -0.053613648 -0.02712134 0.0223757 0.04705527 0.001253971 -0.011138628 -0.03092583
0.016342675 -0.03671918 -0.005621835 0.028298434 0.006004006 -0.0019420591 -0.02851169 0.017193673
-0.011741657 -0.011541386 0.027715014 0.011017522 -0.007704069 -0.014924585 -0.0024229311 -0.031315386
-0.02005794 -0.01074375 -0.009400096 0.023493504 -0.00021571736 0.035146262 0.0014926434 0.043787498
-0.03422517 0.0149123 -0.01854683 0.02523831 -0.007766737 0.0195967 0.055729453 -0.025385847
0.025351796 -0.029173784 -0.022509357 0.1007426 -0.042008918 -0.019404616 -0.028943466 0.015683196
-0.003994348 -0.03372715 -0.008447295 -0.013644806 0.039064266 -0.008571789 0.009718993 -0.0066946633
0.027917879 -0.026319675 -0.017332928 0.008731804 0.005752161 -0.029080834 0.014651097 0.065283984
-0.010326481 -0.03029631 0.0118000535 -0.05990696 0.017507391 -0.033431895 0.010076107 0.023704376
-0.04258119 -0.033323627 -0.015377927 0.04331485 0.021972606 -0.021796297 0.004454936 0.017003527
-0.026783029 -0.048427813 0.026384197 -0.006992076 0.04438308 0.0058261678 -0.012495168 -0.003202987

layers.2.0.weight f4 [64, 128]
00000000: c771 43bc 7e3f 323e 3be1 94bd 7293 d7bd
00000010: fbdb 06be 1177 983a 40e8 4f3c 9aa6 393e
00000020: c5dc a5bd 0e5c bf3c 04fe bbbc 8895 fa3d
00000030: fb6d f63d 177b 23be c152 bcbd cb16 02be
00000040: 3d28 a53b fa17 97bd aa92 8f3b 74fd d7bd
00000050: dbc3 81be a1df 5b3e f71a 153e d75a 0d3e
00000060: ddf7 c43b 4789 43be e76c 93be 6d6a 4e3c
00000070: 0cf5 2abe 531c 3e3e 9e42 8d3c 5644 efbd
00000080: 4b48 d0bd 5a11 1e3d 5723 58be 769a 753c
00000090: c5f8 8ebd 9ca8 b0bc 0819 c3bd fdf2 abbd
000000a0: 8832 a83d af2e 1f3e 7061 853c 2362 6c3e
000000b0: 39bd 9fbc 06c2 d23d a78e 5bbd 68bb eabd
000000c0: f064 fc3d a1da c3bc e5e7 c2bc d0d9 05be
000000d0: e82f 033b ec6c 5d3e 9d3b 3ebe 86aa acbc
000000e0: 630b d0bc 2c4c acbb 05e4 283d 0fd2 b8bd
000000f0: 3cea 913e 2a16 0b3e d36c 36be bf12 823e
00000100: 899a 4cbd 2468 843e f703 27be 82f5 d83d
00000110: 37cc cbbd c03e 35bc 918d 70ba c0fb 50bb
00000120: 72df 113c d319 e33d 9a06 7c3e ca60 4cbe
00000130: 2430 1fbe cfb2 96be 936d 04be d008 353e
00000140: 6516 1cbe 28fc c8bd d859 acbd 6ae4 ae3c
00000150: e247 08be 334a e43d a3b8 c0bc 2a45 ea3d
00000160: ff0a 58bd 129f d5bc 1b14 db3d 3cc3 ea3d
00000170: 01b0 733b 60bd 02be 1327 17bd 1aaa 11be
00000180: 2c78 1ebe cb7e d6bd 7d4e 343c 71d8 68bc
00000190: 43d1 00bd 29f1 49bd e86c d4bc d13b 53bd
000001a0: 8741 a53d 6bc9 963d ce92 c9bd a60e 1ebc
000001b0: f287 87bd 385f 543c 0969 a43d d524 033e
000001c0: 3604 00be 1be3 8b3c fcae 66bd 1986 36bd
000001d0: 1453 7d3d 651e 2a3e 4be7 843d d3c3 48be
000001e0: 05d5 c23d e71a e7bd e46f 62bb e532 dabd
000001f0: 22ed c1bb b57e aabd fa37 943c aa15 0e3e
00000200: a422 20bd d89d 35bd bb76 31bd b5ce 89be
00000210: ba1e 113e b973 5fbe 2a28 f03d ee55 c73d
00000220: a47a 8abd 323e 153e 3ec7 48be 3f4b 77be
00000230: f7a9 abbb fcf1 9a3e 1009 823e 0c24 9fbd
00000240: cc61 ff3d 3c58 1b3d 8a80 09be 7689 97bd
00000250: 8632 fa3c ddd4 513d ed0b 64be 8dfd ce3c
00000260: 1c0e 68bd a22f 513d a6f5 8abd 305e 51bd
00000270: beb8 8b3e 247d f2bd 92f6 ef3d 805f e83d
00000280: b2f5 fd3d c5fd adbd d1be 86be 4ccf 7e3e
00000290: 6bcf c9bc 68c7 61bd 5bc8 50be 4a67 f8bd
000002a0: 05a7 c73c e069 b1bd 4250 1dbe c4f6 c13d
000002b0: 7844 25be 7c3b a53d 0df2 c73c 8eba 13bb
000002c0: 1356 fabd 6a18 63be aa19 833e 8311 f33d
000002d0: 17ae 53bc 4c08 ccbd 5e1a 853c 290a ff3d
000002e0: f095 d1bc bacf 6abd ce97 b13d 7649 8ebd
000002f0: 7ec1 cb3d 76c6 ec3d 8c81 2ebe c9e4 5cbd
00000300: 64b9 16bd a34b 223d 5617 b93d 4bcc b83d
00000310: 0bf1 88bd 0ae1 c43d 8524 fd3c 8eb5 693d
00000320: 6373 c4bb 88cc e6bd 655e f4bb 6275 bf3e
00000330: 286d ac3c c3af 8e3e bf4a 3fbe 0010 9bbd
00000340: ac3d 8fbd a415 da3d 3ffe e6bd 7c10 0b3c
00000350: 1b23 6dbc 8538 c2bb c8e2 8ebe 15b7 0abd
00000360: 99ad 903d df95 783d 6494 d3ba 2130 ec3d
00000370: 50db 303e 1125 c9bd 9e9e bd3b 06f1 193d
00000380: 9336 9ebd 1e20 603d a794 12be d1f0 253e
00000390: dcd7 573e ea01 22bd 6958 e7bd 213f f8bd
000003a0: fd7b e63d b86b 6dbe 29c8 d33d 34a6 00be
000003b0: 6039 f73d f3f6 363d 96d6 653d fb19 d9bc
000003c0: dab8 f03d fb20 213e 895d c8bd a48d 493d
000003d0: e112 ce3c 4b06 d8bd df1e f13d e312 2f3e
000003e0: 288d 81bd 2584 063e 5976 aa3d 6559 b63c
000003f0: ab32 62bd 680c 73be 8292 1d3d d79a 07be
-0.011928982 0.17407033 -0.07269522 -0.1052617 -0.13169853 0.0011632164 0.01268965 0.1812996
-0.08098749 0.023359325 -0.022948273 0.12235552 0.12032696 -0.15964924 -0.091954716 -0.12704007
0.005040197 -0.0737762 0.0043814974 -0.10546389 -0.25344738 0.21472026 0.14561068 0.13804184
0.006010993 -0.19095336 -0.28794023 0.012598616 -0.1669504 0.18565492 0.01724368 -0.11682956
-0.10170039 0.038590766 -0.21107231 0.01499044 -0.06981043 -0.021564774 -0.09526259 -0.08395956
0.08212763 0.15545152 0.016281813 0.23084311 -0.019499408 0.10290913 -0.05360284 -0.11461526
0.1232394 -0.023907961 -0.023792217 -0.1307137 0.0020017568 0.21623582 -0.18577428 -0.021077406
-0.025396055 -0.005258104 0.04123308 -0.090244405 0.2849902 0.13582674 -0.1781495 0.25404927
-0.049952064 0.25860703 -0.16310106 0.10593702 -0.0995106 -0.011062324 -0.00091763685 -0.0031888336
0.008903371 0.1108891 0.24611893 -0.19958797 -0.15545708 -0.29433295 -0.12932424 0.17679143
-0.15242918 -0.0981372 -0.08415574 0.02134915 -0.13308671 0.11146965 -0.023525542 0.11438973
-0.05274486 -0.026076827 0.10697194 0.11463019 0.0037183764 -0.12767553 -0.0369025 -0.14225045
-0.1547553 -0.104734026 0.011005041 -0.01421176 -0.031449568 -0.049302254 -0.025930837 -0.051570717
0.08069139 0.07362636 -0.09842454 -0.009647047 -0.066177264 0.012962155 0.08027846 0.12807019
-0.12501606 0.017076066 -0.05631922 -0.04456148 0.061846808 0.16613157 0.06489428 -0.19605951
0.095132865 -0.11284428 -0.0034551555 -0.106542386 -0.005918161 -0.08324949 0.018093098 0.13875452
-0.039095536 -0.044339985 -0.04332612 -0.26915517 0.14171878 -0.21821488 0.11726411 0.09733187
-0.06761673 0.14574507 -0.19607255 -0.24149798 -0.0052387672 0.30262744 0.2539754 -0.07770547
0.12469825 0.037925944 -0.1342794 -0.073992655 0.03054167 0.051228393 -0.22270174 0.025267387
-0.05665408 0.051070817 -0.06785135 -0.051115215 0.27289385 -0.11840275 0.117169514 0.1134634
0.12400378 -0.08495668 -0.26317456 0.24883765 -0.024635037 -0.05512181 -0.2038893 -0.12129076
0.024371633 -0.08662772 -0.15362647 0.09470895 -0.161394 0.08067986 0.024407411 -0.0022541615
-0.122234486 -0.22177282 0.25605518 0.118685745 -0.012919924 -0.0996252 0.016247924 0.1245311
-0.025584191 -0.05732701 0.086715326 -0.06947605 0.09949015 0.11561291 -0.17041606 -0.053929124
-0.036797896 0.039622914 0.09037654 0.09023341 -0.066866 0.09613235 0.030901203 0.05705791
-0.0059952005 -0.1126948 -0.007457542 0.37394243 0.021048144 0.2786847 -0.18680857 -0.07571411
-0.06994185 0.10648659 -0.11278962 0.008487817 -0.014473702 -0.005927148 -0.27907395 -0.033866007
0.07064361 0.060689803 -0.0016142246 0.11532617 0.17271161 -0.09821523 0.005786731 0.037583373
-0.07725253 0.05471813 -0.14314519 0.16205145 0.21078438 -0.039552607 -0.1129616 -0.12121416
0.11254118 -0.23185623 0.10340912 -0.12563401 0.1207149 0.044669103 0.05611285 -0.026501646
0.11754008 0.15735237 -0.097834654 0.049207345 0.025155487 -0.10548075 0.11773466 0.17097048
-0.063257515 0.13136347 0.08323354 0.022259424 -0.055224102 -0.23735201 0.0384698 -0.1324266

layers.2.1.weight f4 [64]
00000000: 0c6e 803f ebb0 853f d14c 763f 000e 833f
00000010: 2830 803f 5b08 763f e145 783f ea21 773f
00000020: 3cd3 793f 1135 893f 8f43 843f dd53 703f
00000030: 38e9 8a3f d059 843f 59b2 783f 80f5 793f
00000040: b451 7c3f e554 7e3f f338 813f 3bc4 7d3f
00000050: 2d07 823f 6b34 753f e921 763f c54d 7e3f
00000060: 5271 7a3f 9386 7e3f c5a6 7b3f 3c7d 863f
00000070: f829 793f 4b4b 723f f787 7f3f 1c00 813f
00000080: 5ffc 703f 027c 773f 91cd 6f3f bd83 813f
00000090: a2b5 7a3f fb6b 7c3f f2b8 7d3f a9bb 723f
000000a0: a5e9 833f 8e1f 7f3f 73a0 7d3f 3f85 7c3f
000000b0: 96b7 7d3f fd25 713f 3159 853f db01 823f
000000c0: adb9 803f 4b0a 7f3f e44f 763f f94d 7c3f
000000d0: ba5e 833f f84d 7b3f 2d1d 823f 0fcb 803f
000000e0: d98e 7e3f 6095 823f ad09 803f b2d0 7d3f
000000f0: 8848 803f 950d 803f b158 7b3f e04e 813f
1.0033584 1.0444616 0.9621096 1.0238647 1.0014696 0.961065 0.96981627 0.96536124
0.97587943 1.071932 1.0333117 0.93877965 1.0852423 1.0339909 0.97147137 0.9764023
0.9856217 0.9934829 1.0095505 0.9912755 1.015844 0.9578311 0.9614549 0.99337417
0.97829163 0.99424094 0.98301345 1.0506968 0.97329664 0.9464614 0.9981684 1.0078158
0.9413509 0.96673596 0.93673044 1.0118328 0.979334 0.98602265 0.9911033 0.94817597
1.0305678 0.99657524 0.9907295 0.9864082 0.99108255 0.9419859 1.0417844 1.0156816
1.0056664 0.9962508 0.96215653 0.98556477 1.0263283 0.98165846 1.0165154 1.0061969
0.9943672 1.0201836 1.0002953 0.9914657 1.0022135 1.0004145 0.9818221 1.0102196

layers.2.1.bias f4 [64]
00000000: 6f25 ad3c bd5f f33c 6637 04bd 2b00 813c
00000010: f91b deba dfb0 7ebc 7e5b 0cbd 5a6d 3ebc
00000020: 1b93 cabc 1f51 213d 5a1d aa3c dbee 4ebd
00000030: 7c5a 3e3d ccb0 b73c 4902 8fbc 0fba 0bbc
00000040: 6902 74bb 9472 843b c95c 97b9 0792 083c
00000050: 9d0e c63c cc2f 5abd b4bc babc 5514 18bc
00000060: afd0 3c3c 4cdb e9bb e68b 22bc cfe3 963d
00000070: 496e 22b8 82dd 1abd ca85 ec3b 3a72 743c
00000080: 382e 1dbd 76c8 b5bc c015 0dbd 4d23 d93c
00000090: 90e6 8fbc 0357 a43b cc25 91bc 1217 e1bc
000000a0: 93c5 103d d984 c1bc bd6c 62bc a4a6 c1bc
000000b0: ba81 563c c77a b1bc 8c66 b83d 798c 3a3c
000000c0: a910 513c f60d 733b 4c7b 0bbd d44a 2fbc
000000d0: ae33 553d 0803 82ba 6696 1e3d c680 86bb
000000e0: 8a50 1c3b 869f aa3c 5276 bf3c aa78 88bc
000000f0: dc77 24bb 1bae 33bc d01a 5dbb 8cde c4bc
0.021136014 0.029708738 -0.032279395 0.01574715 -0.0016945592 -0.015545099 -0.03426694 -0.011622751
-0.024728348 0.039384004 0.020765949 -0.05052076 0.04647301 0.02242317 -0.017457144 -0.008528247
-0.0037232882 0.004041979 -0.00028870095 0.008335597 0.02417689 -0.05326824 -0.022795059 -0.009282191
0.011524363 -0.007136738 -0.00992105 0.0736767 -3.872652e-05 -0.037808903 0.0072180973 0.014919812
-0.038374156 -0.022190314 -0.03444457 0.02650609 -0.017565995 0.0050152554 -0.017718218 -0.027476821
0.03534467 -0.023622917 -0.013819871 -0.02363903 0.013092453 -0.02166499 0.09003934 0.01138603
0.01276032 0.0037087179 -0.034053132 -0.010698993 0.05205124 -0.0009919116 0.03871765 -0.0041047065
0.0023851716 0.02082802 0.02337185 -0.0166591 -0.0025095856 -0.010966803 -0.0033737905 -0.0240319

layers.3.0.weight f4 [32, 64]
00000000: a6cd 5ebd 4449 533d f446 9e3e 578d 313c
00000010: ba03 ecbd 5469 f23d e78f 02bd a1eb ffbd
00000020: 631b 573d b8d4 e4bd d8ae 67bd e9c3 c1be
00000030: 053f da3d 4e78 60be 0d0c 983d 5934 043c
00000040: 9cfd a3be 8521 bcbd 3629 9f3e 6239 c83e
00000050: b980 a23d b945 aa3d b947 bebd 2386 243e
00000060: cc4f 81be 634e d83c dbc3 943e 1467 03be
00000070: f508 ad3e 2229 b43b 7047 d6bd fd65 61be
00000080: 50b9 d53d 75c4 79bd 11e6 f73d 96f1 ab3d
00000090: 6dad 5cbc 683d 75be 69f4 053e 72b7 3dbe
000000a0: 147c c33c aa70 69bd 94eb 15bd 1a6d 1bbe
000000b0: 1fdc a83c 08f0 2dbe be77 753d bb90 843e
000000c0: b566 f8bd 487d 9d3e 7b37 253d 9c21 82be
000000d0: bd12 74be a157 973e 6fe9 a23d 73be debd
000000e0: f8fb 2c3e 77d2 d33d 963b b43d b0e9 b9bd
000000f0: 45f2 3cbe 2460 04be 1c53 a53e 79c4 10be
00000100: f1d4 87bc 65ba c93c ac5d edbd 7b39 4d3d
00000110: 7ed7 11be fed6 60be cfd0 c9bb 0445 14bd
00000120: 7110 11be 4b11 5c3e 0192 28be a8bc 0c3d
00000130: d7d9 90be 3bd0 5dbe b7e1 a23e ffaa 583e
00000140: 614b 61bd 7407 9938 8a11 383e b290 833d
00000150: a118 2a3e 4008 913d dab9 9c3c 829b 003e
00000160: 7787 2bbe 347a f0bd 8475 a9be 0907 853e
00000170: 17ea 123d 5978 bcbd c60c e33d e63d b8bc
00000180: b533 e83d 09a8 6a3e c933 03bc ec16 883d
00000190: ddf1 123e 9a54 75bd 528c 16be 6a65 54be
000001a0: 5e5f 76be 0ba2 45be bd50 b3bd 1b51 24be
000001b0: 0d47 333e 0ebf ca3d 6281 803e d64c 0bbe
000001c0: ad5a 963c dffb 35bd 3697 8dbe da9e cdbd
000001d0: 691b 29be 3dd7 ba3d fc64 47bc daa7 8ebe
000001e0: 2b0e a3ba ef4e 2ebe c71f 3c3e 93ad 78be
000001f0: c9bb 85be 0f69 debd 672c e7bc 11c5 e93d
00000200: 503e e3bb 3388 e63c 3c48 0e3e 98d3 833e
00000210: de73 a8bd b86a 22be 62c5 45bd 6389 823c
00000220: f88a 833a 1f1c a4bd a814 a03e e03c 1fbc
00000230: 5773 223d 830e 9e3c 3d32 b7bd 9790 c6bd
00000240: 5f22 1dbd 0faf 873d 0c1e e3be eb29 5c3e
00000250: 2f60 02be dc06 373e 1757 93be f02b 793d
00000260: 695a ab3e fc49 edbd 4e9f 793e 4929 df3e
00000270: eacc 8cbe a0d8 f43d 133d b0be 874a 11be
00000280: 0b64 583e 6667 1e3c d37c 993d 8c8d c0bd
00000290: 9254 abbe a574 1e3e a41d c4bd 44c9 b9bc
000002a0: 10e1 b6bd 2ad1 7d3d 350a d83e cf97 e9bc
000002b0: 6efb 0bbe 940b 803b ad5a e03d d925 08bd
000002c0: bba0 6a3d b9b7 803d f33a 06be 510d d3bd
000002d0: 6142 92bd 4a10 8b3d 8075 b43d 97a9 ddbd
000002e0: e45e 033e 9150 dabc c140 a439 3c9f 7ebc
000002f0: df9b 47be d74f 3bbe 938e 823e cdfd 4fbe
00000300: 8039 8fbe d652 8a3d c873 a83e 4fdb 2fbe
00000310: d37b 33bd 781f e63d b52b 69bd d47b 3fbe
00000320: 9166 303c b408 fc3e f371 423e f236 6ebd
00000330: 069e 483e d057 393c 527f 663d 1ff4 cdbc
00000340: ca07 483e b0f0 30be 4f2f 973e 001d 6abd
00000350: eb77 17be 9d7f ebbd 63a4 4e3b 283c 593e
00000360: ced5 413e 70c2 8bbc e48a 003d d302 5ebd
00000370: a6d3 ab3d 553f 3ebd 3c63 093e 2f2e 6c3e
00000380: 64ff 223e 6fab a93e e57d b93c 2c1e 413e
00000390: e43a 853e 0747 abbe 8555 183c 626c 1f3d
000003a0: 16d5 36be 7828 16be 13cb caba 7f1d 62bc
000003b0: 92e2 2dbc 8288 34be b1ca 64bb 0522 96be
000003c0: 673f cebd d60a 65be b21f 9bbc 23df 75be
000003d0: 09ab 53be 5390 0f3e e722 2a3e ab8b 5d3e
000003e0: d2d3 61be c9aa 02be 7f5d 81be f7bd 8b3d
000003f0: 6244 5abe 5813 cbbd 819e 2b3e 24a5 2ebe
-0.05439534 0.051583543 0.30913508 0.010836921 -0.11524148 0.11836496 -0.031875517 -0.124961145
0.052516352 -0.111733854 -0.05656323 -0.3784478 0.10656551 -0.21920893 0.074241735 0.008069121
-0.32029426 -0.09186081 0.3108613 0.3910628 0.07934708 0.0831408 -0.09291024 0.16066794
-0.25256193 0.026404565 0.29055676 -0.1283229 0.33795896 0.0054980675 -0.10462844 -0.22011562
0.10435736 -0.06097837 0.121044286 0.08395688 -0.013469082 -0.23949206 0.13081516 -0.1852701
0.023862876 -0.05699221 -0.036601618 -0.15178338 0.020612774 -0.16986096 0.05992865 0.2589167
-0.12128965 0.30759645 0.040336113 -0.25416267 -0.23835273 0.29559043 0.0795468 -0.10876169
0.16892993 0.10342877 0.088004276 -0.090777755 -0.18451793 -0.129273 0.3228997 -0.14137448
-0.01658103 0.024625013 -0.11590132 0.050103646 -0.1424236 -0.21957013 -0.006158925 -0.03619863
-0.14166428 0.21490972 -0.16461946 0.034359604 -0.282912 -0.21661465 0.31812832 0.2115898
-0.055003528 7.296997e-05 0.1797544 0.06424083 0.16610958 0.07081652 0.01913159 0.12559322
-0.16750894 -0.117420584 -0.3309747 0.2598193 0.035867777 -0.09202642 0.11086421 -0.022490453
0.11337987 0.22915663 -0.008007952 0.06644997 0.14350076 -0.059895135 -0.14701965 -0.20741811
-0.24059817 -0.19300096 -0.08755634 -0.16046564 0.17507572 0.09899722 0.2509871 -0.1360353
0.018353784 -0.044429656 -0.27654427 -0.10040064 -0.16514362 0.09123085 -0.012170073 -0.27862436
-0.0012440135 -0.17022298 0.18371497 -0.24284963 -0.2611983 -0.10859882 -0.028219415 0.114145406
-0.0069349185 0.028141117 0.13894743 0.2574737 -0.08225225 -0.15861022 -0.048283942 0.015934652
0.0010035923 -0.08013176 0.3126576 -0.009719104 0.039660778 0.01929403 -0.08945129 -0.09695547
-0.038362857 0.06625187 -0.4435886 0.21500365 -0.12732004 0.1787371 -0.28777382 0.060832918
0.33467415 -0.11586377 0.24377176 0.43586186 -0.27500087 0.119553804 -0.34421596 -0.14188586
0.21131913 0.009668207 0.074945115 -0.09401998 -0.3346296 0.15474184 -0.09575966 -0.022678979
-0.08929646 0.061967053 0.42195287 -0.02851477 -0.13670132 0.00390763 0.10954795 -0.03323922
0.05728219 0.06285042 -0.13108425 -0.10305274 -0.07141567 0.06790216 0.08811474 -0.10823362
0.12829167 -0.026649745 0.00031328763 -0.015540894 -0.19493054 -0.18292175 0.254994 -0.20311661
-0.27973557 0.06754081 0.32900834 -0.17173503 -0.04381926 0.11236471 -0.056926448 -0.1869958
0.010766641 0.4922539 0.1898878 -0.05815787 0.19591531 0.01131244 0.056273766 -0.02514082
0.19534221 -0.17279315 0.2952828 -0.057156563 -0.14791839 -0.1149895 0.0031531088 0.21214354
0.18929216 -0.017060488 0.031382456 -0.054201912 0.08389978 -0.046447117 0.13416761 0.23064493
0.15917736 0.33138606 0.022643039 0.18859166 0.26021492 -0.33452627 0.009297733 0.03892172
-0.17854723 -0.14663875 -0.0015471898 -0.013800978 -0.010613101 -0.17630199 -0.0034910853 -0.2932283
-0.10070687 -0.22367415 -0.018936012 -0.24010901 -0.20670713 0.14019899 0.16614877 0.2163531
-0.2205346 -0.12760462 -0.25266644 0.06823342 -0.21315148 -0.09915799 0.16759683 -0.17055184

layers.3.1.weight f4 [32]
00000000: 3704 743f 8110 833f 9c3f 7b3f 25cf 793f
00000010: f058 8d3f e13c 7b3f 7b79 8a3f 62fc 753f
00000020: be19 8c3f 66ff 753f 7704 7f3f e6c3 7f3f
00000030: 48e7 7c3f 85ce 8f3f f5df 8b3f af2e 7a3f
00000040: b697 813f 3b2d 743f 0940 763f c503 883f
00000050: e5b5 843f 1d8e 893f 231b 803f 100e 7b3f
00000060: 7e07 7b3f 0ff7 873f 5876 883f abf5 893f
00000070: 3fc5 7a3f 613f 883f 4425 793f d2d8 893f
0.9531893 1.0239412 0.98143935 0.975817 1.1042767 0.9813977 1.0818323 0.9608823
1.0945356 0.9609283 0.9961619 0.9990829 0.9879041 1.12349 1.0927721 0.97727484
1.0124424 0.95381516 0.9619146 1.062615 1.036801 1.0746495 1.0008281 0.9806833
0.9805831 1.0622271 1.0661116 1.0778097 0.97957224 1.0644342 0.9732249 1.0769293

layers.3.1.bias f4 [32]
00000000: 7615 32bd 3ad4 833c d886 8ebc 03c0 02bd
00000010: 9af5 d03d e18f e8bc e827 9e3d 286e 09bd
00000020: dac6 a63d c2e8 cbbc 5af5 7cbc 67d6 1ebc
00000030: 1e5c 53bc 883e e43d 1bf6 b53d 1035 fabc
00000040: 1cd6 b23a ef63 3abd bf82 0bbd 270e 803d
00000050: bdeb 143d dd2c a13d 9c82 a2bc 8d31 36bd
00000060: 380f 03bd a450 243d d632 9c3d 2e1e a43d
00000070: 9ceb fdbc a652 8b3d 938a d8bc f9c6 983d
-0.043477498 0.016092408 -0.017398283 -0.031921398 0.10203095 -0.02838892 0.07722455 -0.03355232
0.08143397 -0.024891261 -0.015439356 -0.009694672 -0.01290038 0.111447394 0.088848315 -0.03054288
0.0013644132 -0.04550546 -0.034060236 0.06252699 0.03635763 0.07869885 -0.01983767 -0.04448085
-0.031996936 0.040115967 0.07626884 0.08013569 -0.030996136 0.06802873 -0.026433265 0.07459826

fc_out.weight f4 [2, 32]
00000000: 9750 183e 74bf 1e3d cb05 32bd 0d7c 4cbe
00000010: 092b 40be 1e79 ec3d 3cbc 85be f685 1f3e
00000020: 4ada 71bd 9e2d c9bc 567f 253c 27c3 d93e
00000030: 7694 13bd e853 52be ba86 8abe bfc7 3b3e
00000040: 9e2b e3bd bcc1 113e aa00 ebbd 7b15 2abe
00000050: a851 3bbe 498d d7b9 39b4 823e 9f12 08be
00000060: fb73 b63e 24c2 6f3c fe51 ba3d 1887 553e
00000070: 310f 033f c732 19bf 53db efbd bff8 11bf
00000080: 1309 57be 34ed 84be 5d92 34bf 01b8 92be
00000090: 1cbc b5bc 2e35 0abe 87bd e73e b0af 19be
000000a0: 7f69 1d3f dd1a 12bd e07c a6be 9ea8 1ebc
000000b0: 03ce 24be 1cc9 9a3d f036 5a3e 40e8 debd
000000c0: c932 6ebe ab4f 98bd 0ac9 bdbd 849f ff3d
000000d0: 0f53 f73d 00a6 af3e 679c a1be 925b fcbe
000000e0: e359 5abd 7efe fe3d 7686 1d3f 6125 d33e
000000f0: 5204 b9be 68f9 5dbd bf15 38bf 82e3 c3bd
0.14874493 0.038756803 -0.043462556 -0.19969197 -0.18766417 0.11546539 -0.26120174 0.15578446
-0.059046067 -0.024557885 0.01010116 0.42531702 -0.036030255 -0.2053982 -0.27055913 0.18337916
-0.11092304 0.1423406 -0.11474736 -0.16609757 -0.18292868 -0.0004111326 0.25528124 -0.13288353
0.3563536 0.014633689 0.0909767 0.20852315 0.51195055 -0.59843105 -0.11711755 -0.5702018
-0.20999555 -0.25962222 -0.7053583 -0.2865601 -0.022184424 -0.13496849 0.45261785 -0.15008426
0.614891 -0.03567015 -0.32517147 -0.009683756 -0.16094212 0.0755789 0.2131002 -0.10884142
-0.2326156 -0.074370705 -0.09266861 0.12481597 0.12076389 0.34306335 -0.31564638 -0.49288613
-0.05330838 0.12450884 0.61533296 0.41239455 -0.3613611 -0.05419293 -0.7190818 -0.09564878

fc_out.bias f4 [2]
00000000: 42d5 5dbd 42d5 5d3d
-0.054158457 0.054158457
