test/output/local1/simulatorRun/freesurfer_volumetric/5/current.nn.pt (torch_old, 23025 bytes, 50 tensors)

layers.0.0.weight f4 [16, 66]
0	0xbd83f2ec	-0.06442818
1	0xbe3dc680	-0.18532753
2	0x3e814d3b	0.25254235
3	0x3bb14b6c	0.0054106023
4	0xbdf67991	-0.12034906
5	0x3e9b495e	0.30329412
6	0x3d9faa6e	0.07796179
7	0x3d8a3a52	0.06749405
8	0xbe4c433f	-0.19947527
9	0x3dbca40e	0.092109784
10	0xbc8d48fb	-0.017246714
11	0xbe7d9250	-0.24762845
12	0xbcc08fa0	-0.023505986
13	0xbdc7555b	-0.09733077
14	0x3e89f978	0.26948142
15	0x3df17196	0.11789243
16	0x3e10e217	0.14148746
17	0xbe4e8f16	-0.2017177
18	0xbe3ae4c1	-0.18251325
19	0x3ec70f70	0.38878965
20	0x3e375bc5	0.17906101
21	0xbdd91734	-0.10600129
22	0xbd5a1836	-0.053245746
23	0xbe8dbdad	-0.27683774
24	0x3e67b52c	0.22627705
25	0xbe462f89	-0.1935407
26	0x3cdd9650	0.027049214
27	0xbe71aa3c	-0.23600096
28	0xbdd3daae	-0.10344444
29	0xbe478b77	-0.19486795
30	0xbd54c238	-0.051943034
31	0x3e5dd16a	0.21661916
32	0xbdc1df94	-0.09466472
33	0x3e35e7ee	0.17764255
34	0xbd3da418	-0.04629907
35	0x3ce2d893	0.027691161
36	0x3e9d8cca	0.30771476
37	0x3c0e40c8	0.008682437
38	0x3e3e176e	0.18563625
39	0x3e596292	0.21229008
40	0x3d0c2610	0.034215987
41	0x3c679b1f	0.014136105
42	0x3c25f8f0	0.010130152
43	0x3dd9529f	0.10611462
44	0xbd34eef0	-0.04417318
45	0xbdf41c81	-0.11919499
46	0xbe4d3715	-0.20040543
47	0x3db3c395	0.08777539
48	0x3e6ba247	0.23011123
49	0xbe25a2c4	-0.16175371
50	0x3d7559e7	0.05990019
51	0x3c2f9ebb	0.010718997
52	0x3db07857	0.08616703
53	0xbe8f0ca2	-0.27939326
54	0xbca51bbd	-0.020154828
55	0x3da15cba	0.07879014
56	0x3d926816	0.07148759
57	0xbe823799	-0.25433043
58	0xbd47285f	-0.048622485
59	0xbd5b00b0	-0.053467453
60	0x3c74e97b	0.014948244
61	0x3e208f9c	0.15679783
62	0xbdc4d844	-0.09611562
63	0xbd807fc4	-0.06274369
64	0xbd64d854	-0.05587037
65	0x3d9e5924	0.07731846
66	0x3e2aa294	0.16663581
67	0xbe11b076	-0.14227471
68	0xbe5bf65b	-0.21480696
69	0x3ea2902d	0.31750622
70	0x3e3e5358	0.1858648
71	0x3ec7c9ff	0.39021298
72	0xbdee8ecd	-0.11648331
73	0xbe5f66c7	-0.2181655
74	0x3d873a7a	0.066029504
75	0xbdb7ecce	-0.08980714
76	0xbde8a153	-0.11358895
77	0x3dd685fb	0.104747735
78	0x3e1d829d	0.15381856
79	0x3c60bf1e	0.013717441
80	0xbc10fd45	-0.008849447
81	0x3d0d399d	0.034478772
82	0xbda53c77	-0.080681734
83	0x3df0eae8	0.11763555
84	0xbdac6587	-0.08417802
85	0xbd89d758	-0.06730527
86	0xbe5b8cd2	-0.21440437
87	0x3e026f34	0.12737733
88	0xbe7d04d5	-0.24708875
89	0x3d979b75	0.07402698
90	0x3dcaf153	0.0990931
91	0xbeb4f033	-0.35339507
92	0x3ed76b76	0.42074174
93	0x3e92731f	0.28603455
94	0xbd1cbd9c	-0.038266763
95	0x3e73f1f5	0.23822768
96	0x3e81a6cf	0.25322577
97	0xbe2de87d	-0.16983218
98	0x3dd0e8e2	0.10200669
99	0x3dc97043	0.09835865
100	0x3d272500	0.04080677
101	0xbbbac819	-0.005700123
102	0xbe8ce6b5	-0.27519765
103	0xbe1b0b74	-0.15141088
104	0xbe171ca2	-0.14757016
105	0xbe07f2b5	-0.13276179
106	0xbda3469b	-0.07972451
107	0x3e87bf11	0.2651296
108	0x3de055b0	0.109538436
109	0xbd2fce7d	-0.042921532
110	0x3dbf05dd	0.0932729
111	0xbe88b4a8	-0.2670033
112	0xbe963b49	-0.29342106
113	0x3e9a801a	0.3017586
114	0xbd5cdc08	-0.053920776
115	0x3e02aa13	0.1276019
116	0x3e6f83bf	0.23390101
117	0xbd0e743c	-0.03477882
118	0xbdfcc0d5	-0.12341467
119	0xbbd57906	-0.0065146713
120	0xbe947a1d	-0.28999415
121	0x3ea60c33	0.32431182
122	0x3daa2393	0.083075665
123	0x3e7fa364	0.24964672
124	0x3e1bacbf	0.15202616
125	0xbe817d5a	-0.25290948
126	0xbe6c163e	-0.2305536
127	0x3b5e88c4	0.003395603
128	0x3dd3dd95	0.10344998
129	0xbd71ae08	-0.05900386
130	0xbdf06228	-0.11737472
131	0xbe27a36d	-0.16370936
132	0x3ea29d36	0.31760567
133	0xbe917290	-0.28407717
134	0x3d94abfa	0.072593644
135	0x3db897bb	0.09013315
136	0xbe2ffd7e	-0.17186543
137	0x3e49650d	0.19667454
138	0x3ec439b9	0.3832529
139	0x3ee7f572	0.45304447
140	0x3eb11884	0.34589016
141	0x3cf48dec	0.02985283
142	0xbdcd7df2	-0.10033788
143	0x3df3a576	0.118967935
144	0xbdb2dfb5	-0.08734075
145	0x3d7f713d	0.06236385
146	0xbe9bd17b	-0.30433258
147	0x3e81735b	0.25283322
148	0xbdd2d1f9	-0.10293955
149	0x3e949d95	0.29026476
150	0x3e948459	0.29007223
151	0xbb27a4ac	-0.002558033
152	0x3e066878	0.13125789
153	0x3e224449	0.15846361
154	0x3eacb826	0.33734244
155	0x3e8fad1b	0.28061756
156	0x3e0ecfe0	0.13946486
157	0xbd73c349	-0.05951241
158	0x3e58a2c9	0.21155848
159	0xbe208534	-0.15675813
160	0x3bf64934	0.0075160507
161	0x3d5ca90f	0.053872164
162	0xbc9ff292	-0.019524846
163	0xbdddcfe7	-0.1083067
164	0xbdad9f28	-0.08477622
165	0xbc554f14	-0.013019342
166	0x3ebd454e	0.36966938
167	0xbee8431e	-0.45363706
168	0xbdc868e8	-0.09785634
169	0x3d1e76e3	0.038687598
170	0xbd2bb9ac	-0.041925117
171	0x3d867494	0.06565204
172	0xbe5ed90d	-0.21762486
173	0x3daed6f6	0.08537094
174	0x3d501b80	0.050807476
175	0xbdcf3529	-0.10117561
176	0x3e37bb06	0.17942438
177	0x3e2cc59d	0.16872258
178	0x3e333238	0.17499626
179	0x3e1f084f	0.15530513
180	0xbd26823b	-0.04065154
181	0x3e6dc6f7	0.2322043
182	0xbccf6ca7	-0.025320364
183	0x3d0bfb61	0.03417528
184	0xbe1dcbcd	-0.15409775
185	0xbe40d78e	-0.18832228
186	0xbd7f665a	-0.06235347
187	0x3e305007	0.17218028
188	0xbcbfb349	-0.02340092
189	0x3d394a7d	0.045237053
190	0xbc703b2a	-0.014662543
191	0xbcd64684	-0.026156671
192	0x3e17f509	0.14839567
193	0x3e05ea66	0.13077697
194	0xbe52ef71	-0.20599152
195	0xbec9772a	-0.39348727
196	0x3e4f7e7f	0.20263098
197	0x3e90d446	0.28286952
198	0xbde416cb	-0.1113716
199	0xbe301e32	-0.17199019
200	0xbca8ad15	-0.020590344
201	0xbdb24f52	-0.087065354
202	0x3d642aef	0.055705007
203	0x3e15b88a	0.14621177
204	0x3d5bd99e	0.053674333
205	0x3e093ea9	0.13402809
206	0xbcbc537a	-0.022989023
207	0xbd3da03c	-0.04629539
208	0xbd525ecf	-0.051359948
209	0xbd012474	-0.031528905
210	0x3db04cc8	0.08608395
211	0x3cf731af	0.030175058
212	0xbe6cd0ce	-0.23126528
213	0x3e16c033	0.14721756
214	0xbe137bce	-0.14402696
215	0xbda84f46	-0.08218245
216	0xbde143bb	-0.10999247
217	0xbe0c5568	-0.13704455
218	0xbcacb700	-0.021083355
219	0xbdfbde44	-0.12298253
220	0xbd06e3b0	-0.032931983
221	0xbea7dc38	-0.327852
222	0x3a07a82e	0.0005174902
223	0xbe3d2622	-0.18471578
224	0x3e9dbb3a	0.30806905
225	0x3dfcff08	0.12353331
226	0x3e742d33	0.23845367
227	0xbe249c65	-0.16075285
228	0x3dda1af3	0.106496714
229	0x3e66dd46	0.22545347
230	0xbc944c22	-0.01810271
231	0xbdc22f08	-0.09481627
232	0x3d9effbf	0.077636234
233	0xbd8c8719	-0.06861705
234	0x3e7820c8	0.24231255
235	0x3d8591e7	0.06521969
236	0xbd8ae068	-0.06781083
237	0x3d8dd722	0.06925799
238	0x3e429294	0.19001228
239	0xbe859a97	-0.26094505
240	0x3d097f60	0.03356874
241	0xbe50c5af	-0.2038791
242	0x3d2736b8	0.04082367
243	0xba9c4546	-0.00119225
244	0xbddc6f29	-0.107633896
245	0x3e4ff8b7	0.20309721
246	0xbe02cccc	-0.12773436
247	0x3e61368b	0.21993463
248	0x3bb073c4	0.005384894
249	0xbd18922e	-0.037248783
250	0xbcc08b89	-0.023504036
251	0x3c0bfdf3	0.008544433
252	0xbd14fefa	-0.036375977
253	0xbe64938d	-0.22321911
254	0xbe98fab9	-0.29878786
255	0x3c24226f	0.010017975

layers.0.1.weight f4 [16]
0	0x3f77654e	0.96638954
1	0x3f86563c	1.0495067
2	0x3f7f292c	0.996722
3	0x3f7bc041	0.9834023
4	0x3f7768bd	0.9664419
5	0x3f7a7e2b	0.9784877
6	0x3f8617c4	1.0476003
7	0x3f7ab3c7	0.9793057
8	0x3f7504e6	0.957106
9	0x3f7b2d4f	0.9811601
10	0x3f7c71c8	0.98611116
11	0x3f7778fd	0.9666899
12	0x3f83f945	1.0310446
13	0x3f858f9f	1.0434455
14	0x3f84c630	1.0372982
15	0x3f7aecd2	0.9801761

layers.0.1.bias f4 [16]
0	0xbd80a797	-0.06281965
1	0x3d2a92b5	0.041643817
2	0x3b162d93	0.0022915348
3	0xbcd095e1	-0.025462093
4	0xbcaded55	-0.021231333
5	0x3c533f9c	0.012893584
6	0x3d3a204b	0.045440953
7	0xbcb4c8cf	-0.02206841
8	0xbcf0a1c0	-0.029374003
9	0xbd4177a4	-0.04723324
10	0x3cdaa6df	0.026690898
11	0x3a653843	0.00087440404
12	0x3cffe1ed	0.03123566
13	0x3d06f317	0.032946672
14	0x3baca49f	0.005268648
15	0xbc504260	-0.0127111375

layers.0.1.running_mean f4 [16]
0	0xc8e9a72e	-478521.44
1	0xc87fd708	-261980.12
2	0x497f5ff2	1.0460151e+06
3	0xc84ea305	-211596.08
4	0x48edc17d	486923.9
5	0x48d3ea6b	434003.34
6	0xc8e402be	-466965.94
7	0x48f86bb0	508765.5
8	0x4843f817	200672.36
9	0xc818242f	-155792.73
10	0x47e9fe89	119805.07
11	0x48c18c10	396384.5
12	0xc96a0ace	-958636.9
13	0x48d0ceba	427637.8
14	0xc657a8f1	-13802.235
15	0xc837d215	-188232.33

layers.0.1.running_var f4 [16]
0	0x4f5993b2	3.6503352e+09
1	0x4eb8cbac	1.5501778e+09
2	0x50417c3d	1.2984579e+10
3	0x4e7e6f88	1.06718054e+09
4	0x4f2faa3b	2.947169e+09
5	0x4f002acc	2.1502884e+09
6	0x4f4f6d5e	3.4800512e+09
7	0x4f6ec953	4.0061714e+09
8	0x4e4785ab	8.368565e+08
9	0x4d8d1dc3	2.9594224e+08
10	0x4d60cbff	2.3571659e+08
11	0x4f0359f1	2.2037097e+09
12	0x5016693c	1.0093916e+10
13	0x4f0f4918	2.4039322e+09
14	0x4d3a3aa8	1.952754e+08
15	0x4e00a1ec	5.3952384e+08

layers.1.0.weight f4 [8, 16]
0	0x3e866ae7	0.26253435
1	0x3ee51d0b	0.4474872
2	0xbe969d2d	-0.2941679
3	0xbdbf5983	-0.09343245
4	0xbe18ff75	-0.14941199
5	0x3e0b0abb	0.13578312
6	0xbf5b75ea	-0.857268
7	0xbdc465aa	-0.095897034
8	0xbe82c6b4	-0.25542223
9	0xbe82c7a5	-0.25542942
10	0x3e052dc8	0.13005745
11	0x3e817a72	0.2528873
12	0xbf403309	-0.75077873
13	0x3e033c07	0.12815867
14	0xbf1166ff	-0.56797785
15	0xbedb3961	-0.42817214
16	0xbd8c30da	-0.06845255
17	0x3e97b1b6	0.2962777
18	0xbead4b71	-0.3384662
19	0xbdff4c5d	-0.12465737
20	0x3d50dd5a	0.050992347
21	0x3e99a6f5	0.3001019
22	0xbcfc1122	-0.030769888
23	0xbeadbd60	-0.33933544
24	0xbea306b4	-0.31841052
25	0x3dfbc5f3	0.12293615
26	0x3e990081	0.29883197
27	0xbf4940ec	-0.7861469
28	0xbebbcefd	-0.36681357
29	0x3ead0cbd	0.3379878
30	0x3e19c5e2	0.15016893
31	0x3db17822	0.08665492
32	0x3f19d444	0.60089517
33	0xbe8708d7	-0.26373932
34	0x3ee1573b	0.44011864
35	0x3f4dcddd	0.8039225
36	0xbea35333	-0.31899413
37	0xbf47cfb7	-0.7805132
38	0xbd375aef	-0.044764455
39	0xbe50661e	-0.20351455
40	0xbee2d8df	-0.44306085
41	0x3b8bac85	0.0042625093
42	0x3f247cee	0.6425313
43	0x3e001286	0.12507066
44	0x3f2aec26	0.66766584
45	0xbe717900	-0.23581314
46	0x3e4ef889	0.20211996
47	0x3dd1e11c	0.10248014
48	0xbf200461	-0.6250668
49	0x3ecb5935	0.39716497
50	0x3e6935b8	0.22774398
51	0x3e24efd1	0.16107108
52	0xbdce0d67	-0.1006115
53	0x3e4e8f50	0.20171857
54	0xbd624116	-0.055237852
55	0x3e99f8ff	0.3007278
56	0x3e7492e1	0.23884155
57	0x3e4a7481	0.19771005
58	0x3e8de723	0.27715406
59	0xbd266556	-0.040623985
60	0x3dea65ed	0.11445222
61	0x3ecc764e	0.3993401
62	0xbf09046e	-0.53522384
63	0x3e02549b	0.12727587
64	0x3eb19856	0.34686536
65	0xbf1e0423	-0.6172506
66	0x3cdcc5eb	0.026949843
67	0xbe6398c2	-0.22226241
68	0xbf4e63af	-0.80620855
69	0x3ecd6c7f	0.40121838
70	0xbebabd4f	-0.36472556
71	0x3e0b9550	0.13631177
72	0xbe467a68	-0.19382632
73	0x3eba0cc3	0.3633786
74	0x3d5a8849	0.053352628
75	0xbd83df6f	-0.06439101
76	0xbe9749b4	-0.2954842
77	0xbe6f38e4	-0.23361546
78	0x3e3a5137	0.18195044
79	0x3e53db30	0.20689082
80	0xbf60bcb3	-0.8778793
81	0xbd4fad19	-0.05070219
82	0x3ecacce4	0.39609444
83	0xbe213ea3	-0.1574655
84	0x3ec69ce4	0.38791573
85	0xbe5d4f89	-0.21612372
86	0x3d1758c6	0.036949895
87	0x3f035239	0.51297337
88	0xbc67f3d9	-0.014157259
89	0x3e9b0614	0.30278075
90	0x3ebc63ba	0.36794835
91	0xbe558b17	-0.2085384
92	0xbf36a224	-0.71341157
93	0x3f455625	0.7708457
94	0x3e1e0f0b	0.15435426
95	0x3d0844a8	0.0332686
96	0x3f555509	0.8333288
97	0xbdfea4bd	-0.12433765
98	0x3e606167	0.21912156
99	0x3e444414	0.19166595
100	0x3e8ea7c7	0.2786238
101	0xbe31dd8d	-0.17369671
102	0xbf548586	-0.8301624
103	0x3ddd3cb5	0.108025946
104	0xbd1fbd8c	-0.038999125
105	0xbd471b67	-0.048610117
106	0x3e6e9c84	0.23301893
107	0x3ee3420f	0.44386336
108	0xbf2cf866	-0.67566526
109	0x3f05f6ab	0.5232951
110	0xbecf6bac	-0.40511835
111	0xbe744739	-0.23855294
112	0x3db8514b	0.089998804
113	0x3ea9dbe6	0.33175582
114	0x3dd3dce5	0.10344867
115	0x3e9195c6	0.2843458
116	0x3ee13c52	0.43991333
117	0xbd03a431	-0.032139007
118	0x3ec5b040	0.3861103
119	0x3dfcdc38	0.12346691
120	0x3ea8c646	0.3296377
121	0xbda6babe	-0.08141087
122	0x3df34c78	0.1187982
123	0x3dfd19d6	0.123584434
124	0x3eb7bb4a	0.35885078
125	0xbf481d76	-0.78169954
126	0xbdbac917	-0.09120386
127	0x3eef9132	0.46790463

layers.1.1.weight f4 [8]
0	0x3f730e93	0.94944113
1	0x3f80eb12	1.0071738
2	0x3f8b268e	1.0871141
3	0x3f6f347e	0.9343947
4	0x3f78ecf8	0.97236586
5	0x3f780a82	0.96891034
6	0x3f8672ab	1.0503744
7	0x3f855561	1.041668

layers.1.1.bias f4 [8]
0	0xbc07e58c	-0.008294474
1	0xbcc6dc72	-0.024275038
2	0x3d74d916	0.05977734
3	0xbd6da7e4	-0.05802144
4	0xbcec9ed0	-0.028884321
5	0xbd2eca7c	-0.042673573
6	0x3d7513f4	0.059833482
7	0x3d319d2c	0.04336278

layers.1.1.running_mean f4 [8]
0	0xbf8141dd	-1.0098225
1	0xbe72df56	-0.23718008
2	0x3efb8147	0.49122068
3	0x3f0f1d3e	0.55903995
4	0xbf037d6f	-0.5136327
5	0x3eb1e6c4	0.34746373
6	0x3cde87ff	0.027164457
7	0x3f5d4c94	0.86444974

layers.1.1.running_var f4 [8]
0	0x3fab8bdf	1.340206
1	0x3ebbf869	0.3671296
2	0x402106a4	2.5160303
3	0x3f667031	0.9001494
4	0x3e95d317	0.2926261
5	0x4046f033	3.1084106
6	0x3ffae5b7	1.9601353
7	0x3f63a56b	0.8892428

layers.2.0.weight f4 [4, 8]
0	0xbe31a408	-0.17347729
1	0x3c2ef755	0.010679086
2	0x3ea93271	0.33046296
3	0x3f602a83	0.8756487
4	0x3e0ca073	0.13733082
5	0x3e1b86a7	0.15188085
6	0xbf9a0c61	-1.2035028
7	0x3eca644e	0.3952965
8	0xbeff2339	-0.4983156
9	0x3e1c8b4f	0.15287517
10	0x3c297960	0.010343879
11	0xbda4e5b6	-0.080516264
12	0xbd9834ed	-0.0743197
13	0xbed57933	-0.4169403
14	0xbf1ea8e7	-0.61976475
15	0xbe9ade75	-0.30247846
16	0xbe80d887	-0.25165197
17	0x3f15c83c	0.5850866
18	0xbf0f6b94	-0.56023526
19	0xbdc49ef9	-0.09600634
20	0xbf0921a9	-0.53566986
21	0x3e77e978	0.24210155
22	0x3e976ba1	0.29574302
23	0xbeda70ca	-0.42664176
24	0xbde94ad7	-0.11391228
25	0x3f4c5c6d	0.7982853
26	0xbf2ff924	-0.68739533
27	0xbd890952	-0.06691231
28	0xbd359102	-0.044327743
29	0x3f275bfc	0.6537473
30	0x3edeb364	0.4349624
31	0xbf0bdc50	-0.54633045

layers.2.1.weight f4 [4]
0	0x3f809fc8	1.0048761
1	0x3f7c4b3d	0.98552305
2	0x3f7b9e40	0.98288345
3	0x3f7e3ee2	0.993147

layers.2.1.bias f4 [4]
0	0x3a564fd4	0.00081753475
1	0xbc134a1e	-0.008989839
2	0xba085573	-0.0005200721
3	0xbcecb24a	-0.028893609

layers.2.1.running_mean f4 [4]
0	0x3dd97d90	0.10619652
1	0xbf439773	-0.7640297
2	0xbea31be2	-0.3185721
3	0x3e0e1e6e	0.13878796

layers.2.1.running_var f4 [4]
0	0x3f25ff93	0.648431
1	0x3f1ba800	0.6080322
2	0x3f4064b2	0.7515365
3	0x3fdc7c0a	1.7225354

layers.3.0.weight f4 [2, 4]
0	0x3f0c0e8c	0.54709697
1	0x3e2017dc	0.15634102
2	0x3ef087a0	0.46978474
3	0x3f5b7090	0.8571863
4	0xbfcf7bb6	-1.6209629
5	0x3f18d671	0.5970221
6	0x40033b13	2.0504806
7	0x3f898694	1.0744195

layers.3.1.weight f4 [2]
0	0x3f6f5551	0.9348956
1	0x3f7a4b55	0.977712

layers.3.1.bias f4 [2]
0	0x3b66c400	0.003521204
1	0x3a8938de	0.0010469218

layers.3.1.running_mean f4 [2]
0	0x3f49df97	0.78856796
1	0x3f4781d5	0.7793248

layers.3.1.running_var f4 [2]
0	0x3e90b4e5	0.28263012
1	0x40a1108b	5.0332694

fc_out.weight f4 [2, 2]
0	0xbfd96221	-1.6983072
1	0x3f35e777	0.7105631
2	0xbebb5f4b	-0.3659614
3	0xbf835c0a	-1.0262463

fc_out.bias f4 [2]
0	0xbd85c2cd	-0.06531296
1	0x3d85c2cd	0.06531296

exp_avg f4 [16, 66]
0	0xba1b01cc	-0.00059130485
1	0x381eb8b5	3.7842157e-05
2	0x398228ba	0.00024825876
3	0xba1931e4	-0.0005843921
4	0x3849764e	4.8032314e-05
5	0x376de380	1.417927e-05
6	0xb8bf09e6	-9.1094334e-05
7	0xb50be6fd	-5.211767e-07
8	0x37f4d9d3	2.9188499e-05
9	0x37f9425f	2.971402e-05
10	0xb8c2583d	-9.2670765e-05
11	0x38d129bf	9.9736724e-05
12	0xb737aa1b	-1.0947256e-05
13	0xb78147ce	-1.5411435e-05
14	0xb7d47cb6	-2.5330442e-05
15	0x3773e41d	1.453704e-05
16	0xb7461227	-1.1805946e-05
17	0xb7f58c17	-2.927151e-05
18	0xb978356f	-0.00023671029
19	0xb799f019	-1.8350825e-05
20	0xb985ec07	-0.0002554359
21	0xba23a978	-0.00062432094
22	0x3785257c	1.587229e-05
23	0xb7d313a3	-2.5162304e-05
24	0xb85ac644	-5.21599e-05
25	0xb5db03c6	-1.631787e-06
26	0x38d7f142	0.00010296937
27	0x37e1c66f	2.6914493e-05
28	0xb81a3c0f	-3.6772395e-05
29	0x383a73d9	4.4453747e-05
30	0xb645b9eb	-2.9463506e-06
31	0xb806bb77	-3.212268e-05
32	0xb59f20c1	-1.1855956e-06
33	0x3904b3a6	0.00012655425
34	0x00000000	0.0
35	0x00000000	0.0
36	0xb56e4f22	-8.877706e-07
37	0x00000000	0.0
38	0x00000000	0.0
39	0x3659e5ca	3.2469275e-06
40	0xb7b77b81	-2.1872811e-05
41	0xb66b5a40	-3.5070261e-06
42	0x380a3ecd	3.296025e-05
43	0x37e2e3d1	2.7047385e-05
44	0xb70a5acd	-8.246582e-06
45	0x38f64d34	0.00011744574
46	0x3a774000	0.0009431839
47	0x3a6821b3	0.0008855119
48	0x394968d5	0.00019207907
49	0x3a2a1c50	0.0006489204
50	0x3a5c4786	0.0008402992
51	0x3a22120a	0.00061824976
52	0x39b9c973	0.0003543604
53	0x3a7f828e	0.0009746932
54	0x3985bfb1	0.00025510558
55	0xb88e11c4	-6.774397e-05
56	0x3aa37c0e	0.0012472884
57	0x3b0b2c23	0.0021236024
58	0x3b0acaf0	0.002117809
59	0x3c1174c0	0.008877933
60	0xa88cce35	-1.563255e-14
61	0xae300cc1	-4.0029095e-11
62	0x3707bc60	8.0904865e-06
63	0x3685150c	3.966159e-06
64	0x374a6c69	1.2065379e-05
65	0x3c411d49	0.011786767
66	0x3a75c7d3	0.00093757844
67	0x38f5718a	0.00011703659
68	0xbab1a533	-0.0013553262
69	0xbb455ca6	-0.0030115037
70	0xb9c48559	-0.00037483385
71	0xb8efb7c8	-0.0001143064
72	0xb96dfacc	-0.0002269551
73	0x3982334b	0.00024833748
74	0x38f009bf	0.00011445907
75	0x39928f0c	0.00027953868
76	0xba90c696	-0.0011045511
77	0xb997c078	-0.00028944365
78	0xb8f1ac1f	-0.000115238356
79	0x38d9985c	0.000103757455
80	0xb8276410	-3.9909093e-05
81	0xb9926690	-0.00027923705
82	0xb5c2c1f0	-1.451057e-06
83	0x3918a2fb	0.00014556565
84	0x3a082398	0.0005193292
85	0x385f60a5	5.325735e-05
86	0xb9d601c5	-0.0004081858
87	0xbb5cbad5	-0.0033680697
88	0xb9b89177	-0.00035203595
89	0x36d5e2d3	6.3743005e-06
90	0xb7fe4d6d	-3.0315214e-05
91	0x38a17b09	7.699995e-05
92	0xb99d3f75	-0.00029992653
93	0xb8ec9941	-0.00011281903
94	0x38269da6	3.9724306e-05
95	0xb86299fa	-5.4026e-05
96	0xb609a925	-2.0513046e-06
97	0x3951d948	0.00020012737
98	0x36102353	2.1478234e-06
99	0xb911f640	-0.00013920013
100	0x00000000	0.0
101	0x00000000	0.0
102	0x3600c1a4	1.91862e-06
103	0x00000000	0.0
104	0x00000000	0.0
105	0x37c09f18	2.2962267e-05
106	0xb85125f9	-4.9864848e-05
107	0xb89e6f07	-7.5547076e-05
108	0xb898df9a	-7.289574e-05
109	0xb84c9bf7	-4.8782644e-05
110	0x36f9ddd3	7.446602e-06
111	0xbd458e99	-0.048231695
112	0xbd4fcd15	-0.05073269
113	0xbd4f7db4	-0.05065699
114	0xbc42b3cb	-0.011883686
115	0xbc508096	-0.01272597
116	0xbcc9a7d1	-0.024616154
117	0xbc12f226	-0.0089688655
118	0xbbd98ef6	-0.0066393567
119	0xbc7fc994	-0.015612025
120	0xbb087df4	-0.0020827027
121	0xbd080051	-0.033203427
122	0xbd25e071	-0.040497247
123	0xbd2df66e	-0.04247134
124	0xbd2db3de	-0.042407863
125	0xbd449bee	-0.04800027
126	0xb10f33c9	-2.0838675e-09
127	0xb180abba	-3.7448133e-09
128	0xb7435d38	-1.164461e-05
129	0xb78bc7a9	-1.6663065e-05
130	0xb7edbf10	-2.8341572e-05
131	0xbd57581f	-0.052574273
132	0xbafd260b	-0.0019313706
133	0xb7ba83be	-2.2234275e-05
134	0x37242607	9.784016e-06
135	0x39c716cf	0.00037973232
136	0x38e5617b	0.00010937728
137	0x392c8398	0.00016452221
138	0x38f766a2	0.00011796995
139	0x3846103a	4.722199e-05
140	0xb913f3f5	-0.00014109894
141	0xb8503936	-4.9644346e-05
142	0x397a504b	0.0002387177
143	0x391ab7d7	0.0001475507
144	0x389a4d70	7.357716e-05
145	0xb8afe1ec	-8.3867315e-05
146	0x386c3d06	5.6323617e-05
147	0x38d9baf2	0.000103821876
148	0xb766e9d9	-1.3763515e-05
149	0xb82fb759	-4.1894007e-05
150	0xbad447b7	-0.0016195689
151	0xb88fc4d1	-6.855431e-05
152	0x37d87700	2.580462e-05
153	0xb6af44aa	-5.2234e-06
154	0x385d4dc2	5.2762924e-05
155	0x38ec5688	0.000112694746
156	0x38cc2f7c	9.736323e-05
157	0x38056f92	3.181358e-05
158	0x38adc3c4	8.285747e-05
159	0x38bcf139	9.00947e-05
160	0x383dddc7	4.5267658e-05
161	0x38a6a8b3	7.9469195e-05
162	0x360ade72	2.0693083e-06
163	0xb76c1312	-1.4071136e-05
164	0x342c1ceb	1.6029269e-07
165	0xb9416c3b	-0.00018446233
166	0x00000000	0.0
167	0x00000000	0.0
168	0x34ee19a0	4.43496e-07
169	0x00000000	0.0
170	0x00000000	0.0
171	0x37990f1f	1.8246063e-05
172	0x384bb72d	4.8569567e-05
173	0x37d54552	2.5423858e-05
174	0x37f39288	2.9036091e-05
175	0x3814b954	3.545855e-05
176	0x37a4c5e2	1.964247e-05
177	0x3b2eb424	0.0026657665
178	0x3bdbc1cd	0.0067064525
179	0x3bdac876	0.006676729
180	0x3b33fa7a	0.0027462528
181	0x3b39a4db	0.0028327021
182	0x3bb6ba30	0.0055763945
183	0xb9650d6b	-0.0002184414
184	0xba314a0e	-0.0006763049
185	0xba6a7b74	-0.00089447876
186	0x3ac23530	0.0014816877
187	0x3bf656fe	0.0075176945
188	0x3b2002de	0.0024415771
189	0x3bcad973	0.0061904727
190	0x3bc9de31	0.0061605205
191	0xbc854951	-0.016270312
192	0x00000000	0.0
193	0x00000000	0.0
194	0xb49e1c18	-2.9450234e-07
195	0x35f7fbee	1.8476255e-06
196	0x35d0ec1e	1.5565927e-06
197	0xbc8e1441	-0.017343642
198	0xbc030c84	-0.007998589
199	0xb8685aca	-5.5397664e-05
200	0xbaae9fb9	-0.0013322748
201	0xbb6f939d	-0.003655649
202	0xb9d309c2	-0.00040252326
203	0xb78263b8	-1.5543643e-05
204	0xb957c435	-0.0002057709
205	0xb79c04f2	-1.8598952e-05
206	0xb9f936b0	-0.00047533726
207	0xb9c11031	-0.00036823892
208	0xbad5207f	-0.0016260295
209	0x394fe710	0.00019827136
210	0xb8218085	-3.8505084e-05
211	0xb9c96750	-0.0003841468
212	0xb6e75387	-6.8940603e-06
213	0xb9c36ec4	-0.00037275825
214	0xb886b5ad	-6.423458e-05
215	0xb9039589	-0.0001254884
216	0xbbdd608e	-0.006755895
217	0xb9a169d2	-0.00030787155
218	0xbacf9948	-0.0015838528
219	0xbba604b1	-0.005066477
220	0xba0bedc9	-0.0005337862
221	0xb9288055	-0.00016069536
222	0x3872e0c1	5.7906615e-05
223	0x383ca77d	4.497868e-05
224	0x37bbb131	2.2374648e-05
225	0xb8745e20	-5.8261794e-05
226	0x37857856	1.5910871e-05
227	0xb9685e36	-0.0002216034
228	0xb730664c	-1.0514235e-05
229	0xb8aff93a	-8.391072e-05
230	0xb50576b9	-4.9719125e-07
231	0xb8841e28	-6.2998675e-05
232	0x00000000	0.0
233	0x00000000	0.0
234	0x35986895	1.135532e-06
235	0x00000000	0.0
236	0x00000000	0.0
237	0x38344851	4.2982694e-05
238	0xb88893d0	-6.5125176e-05
239	0xb79de633	-1.8823053e-05
240	0x37fc1867	3.0052104e-05
241	0x36bef561	5.691007e-06
242	0xb8b5f8df	-8.6771084e-05
243	0xbdcea74b	-0.10090502
244	0xbdac5305	-0.08414272
245	0xbdac593c	-0.084154576
246	0xbc3bf3fd	-0.011471746
247	0xbc5924cf	-0.013253405
248	0xbcca9f3a	-0.024734128
249	0xbcc30416	-0.02380566
250	0xbcb90a7e	-0.02258801
251	0xbd3dff8e	-0.046386294
252	0xbabcd6c1	-0.0014407263
253	0xbd0e579c	-0.03475152
254	0xbdb4837a	-0.0881414
255	0xbd94d7a5	-0.072676934

exp_avg_sq f4 [16, 66]
0	0x35f2e4af	1.8096961e-06
1	0x31cb09a5	5.909174e-09
2	0x3482cddd	2.4364172e-07
3	0x3650aa2a	3.1093464e-06
4	0x341e5dda	1.474904e-07
5	0x335439f0	4.941279e-08
6	0x330177bc	3.014405e-08
7	0x31dcf7e1	6.4310233e-09
8	0x3298c070	1.778264e-08
9	0x331a29e4	3.589402e-08
10	0x358e78df	1.0615003e-06
11	0x33215e62	3.7571574e-08
12	0x32cea5e8	2.4057002e-08
13	0x31aa3b86	4.954418e-09
14	0x30f998f3	1.8160605e-09
15	0x32d441a9	2.4709907e-08
16	0x2f29e934	1.5453311e-10
17	0x325a9580	1.2723262e-08
18	0x36536c6e	3.1504565e-06
19	0x320089e5	7.481934e-09
20	0x34b81be1	3.4292955e-07
21	0x3632b62c	2.6630105e-06
22	0x33e0f37f	1.04751045e-07
23	0x3313e881	3.4437566e-08
24	0x330d9fd5	3.2974487e-08
25	0x322589ae	9.635569e-09
26	0x33352ff5	4.2185963e-08
27	0x3200c5b7	7.495536e-09
28	0x313c2107	2.7376375e-09
29	0x32f160fd	2.8100198e-08
30	0x2f61ff71	2.0554382e-10
31	0x3234d4e5	1.0525786e-08
32	0x2c093951	1.9500688e-12
33	0x33164192	3.4984232e-08
34	0x00000000	0.0
35	0x00000000	0.0
36	0x2e15cf68	3.406289e-11
37	0x00000000	0.0
38	0x00000000	0.0
39	0x3108e1f2	1.991904e-09
40	0x30ec82b2	1.7208406e-09
41	0x31213015	2.3455915e-09
42	0x31299aa4	2.468064e-09
43	0x31bf95dd	5.575869e-09
44	0x31b68ab5	5.3126663e-09
45	0x3a8e9fe6	0.0010881394
46	0x3a97fa49	0.0011594977
47	0x3a97cd8c	0.0011581643
48	0x396f36fd	0.00022813301
49	0x3948fb6e	0.00019167151
50	0x3a5b4816	0.00083649287
51	0x36c7127a	5.932813e-06
52	0x37a5e314	1.9775274e-05
53	0x383d3a51	4.5115423e-05
54	0x3684c963	3.957351e-06
55	0x3a6b38fa	0.0008973029
56	0x3a9382ee	0.001125423
57	0x3a9c88d6	0.0011942636
58	0x3a9ce219	0.0011969238
59	0x3b0d6fe5	0.0021581587
60	0x24962650	6.5117034e-17
61	0x257e914b	2.2080215e-16
62	0x2f5408d8	1.928443e-10
63	0x2fb0cfc7	3.2161848e-10
64	0x30861c09	9.757751e-10
65	0x3aa70df3	0.0012745246
66	0x36242a6b	2.4462595e-06
67	0x31f9b179	7.26703e-09
68	0x35449cf3	7.324408e-07
69	0x360c5a42	2.0914163e-06
70	0x33828b18	6.078898e-08
71	0x3340d3b5	4.489603e-08
72	0x330c266e	3.263124e-08
73	0x328c2d96	1.6318875e-08
74	0x32b7fd9f	2.1419337e-08
75	0x333926e6	4.3109047e-08
76	0x34ca3018	3.7660425e-07
77	0x3317f796	3.5382605e-08
78	0x3208fd5d	7.97385e-09
79	0x31c59966	5.750894e-09
80	0x309786c8	1.1025003e-09
81	0x3303e571	3.070949e-08
82	0x2f8341ad	2.3875427e-10
83	0x32771bd3	1.4383619e-08
84	0x35ff6b80	1.9030267e-06
85	0x31f0a847	7.0040502e-09
86	0x34874698	2.5197073e-07
87	0x36165b01	2.2404713e-06
88	0x3311cd03	3.39469e-08
89	0x32fd35b9	2.9477507e-08
90	0x331d8d4e	3.6682927e-08
91	0x3237cd25	1.0698646e-08
92	0x3284b183	1.5447545e-08
93	0x31c3faf2	5.703776e-09
94	0x312dfa62	2.531714e-09
95	0x32e4b688	2.6625699e-08
96	0x2f4f0528	1.8828372e-10
97	0x33148add	3.458523e-08
98	0x2c08088c	1.9331507e-12
99	0x32bc3791	2.191135e-08
100	0x00000000	0.0
101	0x00000000	0.0
102	0x2dfc32c8	2.8671635e-11
103	0x00000000	0.0
104	0x00000000	0.0
105	0x30637992	8.275488e-10
106	0x30f36760	1.7709958e-09
107	0x314db249	2.993277e-09
108	0x30f84618	1.8064297e-09
109	0x3043ae3b	7.1188183e-10
110	0x3154bb68	3.0956588e-09
111	0x39cb3762	0.0003876044
112	0x39c76ea4	0.00038038671
113	0x39c6d5c4	0.0003792477
114	0x37c901e5	2.396195e-05
115	0x37f1d9f4	2.8830931e-05
116	0x38db00e8	0.000104429026
117	0x37b3d56e	2.1437849e-05
118	0x37df151c	2.6593501e-05
119	0x38c5e556	9.436409e-05
120	0x361fbcbd	2.3802706e-06
121	0x3936ce9c	0.0001743384
122	0x39944192	0.00028277613
123	0x398f97e5	0.00027388256
124	0x398f62d7	0.00027348727
125	0x39c7d981	0.0003811829
126	0x24a7f419	7.283822e-17
127	0x250795dc	1.1760158e-16
128	0x2f495938	1.831254e-10
129	0x2f625447	2.0584522e-10
130	0x3050af1b	7.59188e-10
131	0x39d7f5e2	0.00041191193
132	0x34810c6d	2.4037163e-07
133	0x2fc562f5	3.5904404e-10
134	0x3326fad4	3.8878014e-08
135	0x3418f7a1	1.424619e-07
136	0x3228ddd7	9.829328e-09
137	0x3173d27a	3.5480796e-09
138	0x31d68da2	6.2443215e-09
139	0x302b68df	6.235847e-10
140	0x30e3b176	1.6566861e-09
141	0x311223c8	2.1266136e-09
142	0x336ba13d	5.4861847e-08
143	0x30f59ab8	1.787007e-09
144	0x2ff575c9	4.4648932e-10
145	0x302346d1	5.939969e-10
146	0x2fccba92	3.723995e-10
147	0x3111ac39	2.1198174e-09
148	0x2e1140c9	3.3026724e-11
149	0x304c00ac	7.421572e-10
150	0x3491c435	2.7151114e-07
151	0x301f51bd	5.796002e-10
152	0x333dcf95	4.4193786e-08
153	0x3435edff	1.6943521e-07
154	0x31daee40	6.371721e-09
155	0x318e18f1	4.1355794e-09
156	0x31b9d380	5.4082534e-09
157	0x2fc78759	3.629406e-10
158	0x30b4345c	1.3111605e-09
159	0x3054817c	7.730916e-10
160	0x2f2d5600	1.5764812e-10
161	0x30a71b3d	1.2158591e-09
162	0x2da0a4a7	1.8263014e-11
163	0x30ed0bd4	1.7247381e-09
164	0x29bb5c1c	8.3204467e-14
165	0x3249d937	1.1749129e-08
166	0x00000000	0.0
167	0x00000000	0.0
168	0x2bcf2406	1.4718233e-12
169	0x00000000	0.0
170	0x00000000	0.0
171	0x2df787f5	2.8141026e-11
172	0x2f2d65a7	1.5770373e-10
173	0x2f0a9a5c	1.2605866e-10
174	0x2ef6b20c	1.1218412e-10
175	0x2ef61f84	1.1192383e-10
176	0x2f2edcf6	1.5903709e-10
177	0x37088f4d	8.1395965e-06
178	0x370e0c0a	8.466663e-06
179	0x370f812c	8.553539e-06
180	0x35ae05a7	1.2965655e-06
181	0x35b26dc5	1.3293981e-06
182	0x36ae89a5	5.201628e-06
183	0x364d8c76	3.062914e-06
184	0x36504227	3.103292e-06
185	0x374d3ae2	1.2232662e-05
186	0x347c6f2c	2.3509773e-07
187	0x36c4c8c1	5.864626e-06
188	0x370ac51a	8.271332e-06
189	0x3708fcba	8.165074e-06
190	0x370781bf	8.076836e-06
191	0x380c1baa	3.3404365e-05
192	0x00000000	0.0
193	0x00000000	0.0
194	0x2cfef7a3	7.2466074e-12
195	0x2d277e3c	9.520881e-12
196	0x2e05778a	3.034687e-11
197	0x379e8283	1.8895842e-05
198	0x36755a92	3.6560564e-06
199	0x31204619	2.332291e-09
200	0x34b45ca2	3.3595012e-07
201	0x36e43c10	6.8019217e-06
202	0x33b00f5f	8.1984346e-08
203	0x3339c6b1	4.3254378e-08
204	0x332b796c	3.9924473e-08
205	0x31d2f401	6.1395444e-09
206	0x32a3453b	1.900718e-08
207	0x331fd9f7	3.721831e-08
208	0x34f82d62	4.622662e-07
209	0x32a18b74	1.8806283e-08
210	0x310a48d5	2.0123043e-09
211	0x3234eae0	1.0530783e-08
212	0x30afd166	1.279244e-09
213	0x33071722	3.1453176e-08
214	0x2fdec612	4.0522302e-10
215	0x31ccc916	5.9600422e-09
216	0x366e41ca	3.5503058e-06
217	0x317efb1e	3.7104608e-09
218	0x34b8bd99	3.441062e-07
219	0x36fbc12b	7.5028706e-06
220	0x33acbc90	8.0436735e-08
221	0x332dee36	4.0496353e-08
222	0x337cf3ca	5.8895047e-08
223	0x318d8626	4.118891e-09
224	0x3283e1b2	1.5353042e-08
225	0x31246cee	2.392706e-09
226	0x304c8eb5	7.4417567e-10
227	0x3306c410	3.1377624e-08
228	0x2eda2689	9.9203375e-11
229	0x32622aa5	1.3164628e-08
230	0x2baae4f6	1.2142776e-12
231	0x339fbba0	7.438143e-08
232	0x00000000	0.0
233	0x00000000	0.0
234	0x2e18010b	3.4561725e-11
235	0x00000000	0.0
236	0x00000000	0.0
237	0x3013988a	5.369506e-10
238	0x3160e3d4	3.2725795e-09
239	0x31069d51	1.958899e-09
240	0x3044f37a	7.1650386e-10
241	0x308031e0	9.327401e-10
242	0x3161e055	3.2869327e-09
243	0x3a9b4265	0.0011845349
244	0x3a8980e0	0.0010490678
245	0x3a896b9d	0.0010484342
246	0x3807305d	3.223155e-05
247	0x38295d81	4.0379822e-05
248	0x39167fcc	0.00014352723
249	0x38a09326	7.656803e-05
250	0x388e7074	6.792034e-05
251	0x3996e04a	0.00028777338
252	0x368bc2f2	4.1652174e-06
253	0x39b551c8	0.00034583942
254	0x3a649c0a	0.00087207614
255	0x3a461990	0.00075569097

exp_avg f4 [16]
0	0xbc1507a0	-0.009096056
1	0x3c7f6fd3	0.015590626
2	0xbac7ae99	-0.0015234529
3	0xbc519bd7	-0.012793503
4	0x3b8417d5	0.0040311613
5	0x3c30efe6	0.010799384
6	0xbc0a73a6	-0.008450424
7	0x3befe3e7	0.0073208692
8	0x3bea4051	0.0071487804
9	0x3b4ce21f	0.0031262708
10	0xbac565df	-0.0015060267
11	0xbd0e8264	-0.03479232
12	0xbc5d5db4	-0.01351111
13	0x3cb0e03c	0.021591298
14	0x3c55011b	0.013000752
15	0xbb34b6ba	-0.0027574734

exp_avg_sq f4 [16]
0	0x39539684	0.000201786
1	0x3922337a	0.000154687
2	0x3901ce3b	0.00012379226
3	0x3887fb2e	6.4840875e-05
4	0x394ceecc	0.00019543915
5	0x390b05aa	0.00013258183
6	0x3906167f	0.00012787616
7	0x3953ceca	0.00020199563
8	0x39427fc9	0.00018548885
9	0x37b556e2	2.161734e-05
10	0x390af9f9	0.00013253828
11	0x3962a727	0.00021615309
12	0x3a0607b8	0.00051128445
13	0x3a943156	0.0011306207
14	0x388b8c1c	6.654134e-05
15	0x39931a4e	0.00028057623

exp_avg f4 [16]
0	0xb989d54c	-0.00026289595
1	0x3affd474	0.0019518272
2	0x3b3223be	0.0027181949
3	0xbc17df63	-0.009269568
4	0xba8efe07	-0.0010909446
5	0xb91f77d6	-0.00015208064
6	0xbc7f7805	-0.01559258
7	0x3bdc6d1b	0.0067268736
8	0x3c1dfc17	0.009642622
9	0xbc0f57c7	-0.008748955
10	0xbb99e46d	-0.00469642
11	0x3c0d2d38	0.008616738
12	0xbc26265a	-0.01014098
13	0xbc979cba	-0.01850735
14	0x3c67835b	0.014130439
15	0xbb707019	-0.003668791

exp_avg_sq f4 [16]
0	0x396f0e52	0.00022798151
1	0x3978f8f6	0.00023743868
2	0x38957b3a	7.1278264e-05
3	0x38cc66f0	9.7466516e-05
4	0x39898e75	0.00026236815
5	0x38e5932b	0.00010946983
6	0x39948f26	0.00028335414
7	0x3909db39	0.00013147005
8	0x38dca6fe	0.00010521522
9	0x384bc031	4.8577964e-05
10	0x388c773f	6.6979315e-05
11	0x39961d96	0.00028632273
12	0x394bf44a	0.00019450593
13	0x3a55c115	0.00081540766
14	0x38c064e2	9.174064e-05
15	0x39434d72	0.000186255

exp_avg f4 [8, 16]
0	0x3a4aa3ec	0.0007730115
1	0x3b08b36e	0.0020858902
2	0xbbe583a0	-0.0070042163
3	0xb95d241a	-0.00021089651
4	0xbb016867	-0.0019746067
5	0xbc0e36ac	-0.008680027
6	0x3a478021	0.000761034
7	0xbbab7dd4	-0.0052335057
8	0xbb23d9d4	-0.0025001662
9	0xbacb4e59	-0.001551102
10	0xbc0f0f7d	-0.00873172
11	0xbc21c094	-0.009872574
12	0x39bed394	0.00036397262
13	0xbc117666	-0.008878326
14	0xbb3da2e9	-0.0028936213
15	0xb8a1c38f	-7.713504e-05
16	0x3d2d1f33	0.042266082
17	0xbc964111	-0.018341573
18	0x3c1a60ee	0.009422524
19	0x3d813721	0.06309343
20	0xbd7bcaf8	-0.061472863
21	0x3d48dbf6	0.049037896
22	0x3d572a8f	0.05253082
23	0xbca6a9cf	-0.020344643
24	0xbcdae024	-0.026718207
25	0x3d0a5d88	0.033780605
26	0x3d56be26	0.052427433
27	0x3d37c894	0.04486902
28	0x3d34314f	0.043992337
29	0x3cab94e0	0.020945013
30	0x3da26097	0.07928579
31	0x3d337ec3	0.04382206
32	0x3be50f43	0.0069903447
33	0x3c914a70	0.01773569
34	0xbc0ac8fe	-0.008470772
35	0xbb9909e5	-0.004670369
36	0xbad4a8d5	-0.0016224632
37	0xbc7dcbb5	-0.015490462
38	0x3ba9befb	0.0051802373
39	0xbb0fe2d1	-0.0021955261
40	0xba2971a0	-0.000646377
41	0x3c4111ee	0.01178406
42	0xbcb54752	-0.022128735
43	0xbc23df2d	-0.01000194
44	0x3c59e0c2	0.013298215
45	0xbc3f35ad	-0.011670512
46	0xbc8604b7	-0.01635967
47	0x3b98a07d	0.0046578036
48	0x3c33937a	0.010960454
49	0x3d1d7570	0.038442075
50	0xbc8a98f3	-0.016918635
51	0x382da013	4.1395495e-05
52	0xbb9d37a7	-0.004797894
53	0xbc9fe6cf	-0.019519238
54	0x3c378634	0.01120143
55	0xbc66aec5	-0.014079754
56	0xbc653aab	-0.013991038
57	0x3cbba004	0.02290345
58	0xbc71df30	-0.014762685
59	0xbca795c1	-0.02045715
60	0x3cac8a0b	0.021061918
61	0xbca17dc3	-0.019713288
62	0xbc7b4f50	-0.015338734
63	0x3c0196c2	0.007909479
64	0xbc31dc08	-0.010855682
65	0xbb932187	-0.0044900808
66	0xbc205dbc	-0.009787973
67	0xbc066914	-0.0082037635
68	0xbc031835	-0.008001377
69	0xbc5943de	-0.01326081
70	0xbc662753	-0.014047462
71	0xbb9fba15	-0.0048744776
72	0x3ac16610	0.0014755148
73	0xbcada752	-0.021197949
74	0xbd16ac26	-0.036785267
75	0xbc1319e9	-0.008978345
76	0xbc342ced	-0.010997039
77	0xbc711e94	-0.014716763
78	0xbc6277b2	-0.013822483
79	0xbc252763	-0.010080191
80	0x3c010386	0.007874375
81	0xbc022bce	-0.007945014
82	0x3c4b94c7	0.012425608
83	0x3c0b29ba	0.008493835
84	0xbbea55d5	-0.0071513453
85	0x3c8f208f	0.01747158
86	0x3c12a237	0.008949808
87	0x3bc03e1c	0.005866779
88	0x3b957782	0.0045613656
89	0x3c015c4e	0.007895542
90	0x3b8aa4bd	0.004231064
91	0x3c98286a	0.018573958
92	0x3c17cab5	0.009264638
93	0x3c5a90f2	0.013340222
94	0x3c0cbdb8	0.008590154
95	0x3c27f3df	0.0102510145
96	0x3c0cf773	0.008603918
97	0xbc1721b1	-0.009224341
98	0x3c211ebd	0.009833989
99	0x3c2bf6cd	0.010495854
100	0xbc058a7f	-0.008150696
101	0x3c8910de	0.016731676
102	0x3c3251f7	0.0108838
103	0x3b884c0e	0.004159457
104	0x3b8c29a5	0.0042774254
105	0x3c0dcd1a	0.008654857
106	0x3c11ac35	0.008891155
107	0x3c8d1b7f	0.017225025
108	0x3c2251af	0.00990717
109	0x3c502bc3	0.012705746
110	0x3c6e14c8	0.014531322
111	0x3c1ecdcf	0.009692623
112	0xbb86c4cf	-0.004112817
113	0x3c8557ac	0.016277157
114	0x3a1e7113	0.0006044071
115	0xbc6e246e	-0.014535053
116	0x3c163d44	0.00916988
117	0xbb8f9394	-0.0043816064
118	0xbc1325fc	-0.008981224
119	0x3b680335	0.0035402302
120	0x3b2606ba	0.00253336
121	0x3ba630d4	0.0050717387
122	0xbb4c609b	-0.003118551
123	0xbb04efbf	-0.0020284501
124	0x3a811735	0.0009848835
125	0xb9998012	-0.00029277854
126	0xbc724967	-0.014788008
127	0xbc150dee	-0.009097559

exp_avg_sq f4 [8, 16]
0	0x37019e41	7.7258455e-06
1	0x385949ca	5.1805553e-05
2	0x38ea05e4	0.00011159087
3	0x368a0ecb	4.1144426e-06
4	0x3858d65b	5.1698047e-05
5	0x39091bd9	0.00013075712
6	0x37004a95	7.6467595e-06
7	0x389a999f	7.3719064e-05
8	0x388c84a6	6.700428e-05
9	0x37d8d472	2.5848134e-05
10	0x38d57409	0.00010178245
11	0x392f7b40	0.00016735215
12	0x37a2681e	1.9360388e-05
13	0x3922f96f	0.00015542445
14	0x37a86dbb	2.0078258e-05
15	0x38ae1e02	8.302556e-05
16	0x39a57a8f	0.00031562566
17	0x3a8540b2	0.0010166375
18	0x3a39a77f	0.0007082149
19	0x399e71ca	0.00030220888
20	0x3a45887f	0.0007535293
21	0x3a1c2cc2	0.0005957597
22	0x39ca2a44	0.00038559933
23	0x3a013cd5	0.0004930024
24	0x39c0a76b	0.0003674583
25	0x3a3e0df3	0.00072500034
26	0x3a1f41ac	0.00060751545
27	0x39564390	0.000204338
28	0x3a27058c	0.0006371371
29	0x39d30f99	0.00040256677
30	0x3a52f07f	0.0008046701
31	0x3a5439f8	0.0008095796
32	0x376e8c3c	1.4218556e-05
33	0x391574c0	0.0001425324
34	0x3714fe23	8.880658e-06
35	0x378c23ac	1.6705912e-05
36	0x36e392dc	6.782224e-06
37	0x374469d5	1.1707151e-05
38	0x371208d5	8.7043345e-06
39	0x370e5789	8.48424e-06
40	0x3758fd47	1.2933574e-05
41	0x38b2ad01	8.519926e-05
42	0x37910fc6	1.7292692e-05
43	0x371914cc	9.124353e-06
44	0x38acfdd9	8.248882e-05
45	0x3730e3e2	1.0543476e-05
46	0x38a82f9d	8.019733e-05
47	0x378f8ba5	1.7111955e-05
48	0x37fa6bf3	2.985259e-05
49	0x398a37c2	0.00026362954
50	0x38d00f06	9.921011e-05
51	0x38595d3c	5.1823663e-05
52	0x38a6b2c8	7.9487974e-05
53	0x38ae175f	8.30132e-05
54	0x38b0db43	8.433175e-05
55	0x38eb70d7	0.00011226691
56	0x39998f93	0.00029289405
57	0x3949afff	0.00019234417
58	0x38993938	7.306266e-05
59	0x391848f4	0.00014523027
60	0x3973f05f	0.00023263831
61	0x38d1b2e3	9.999217e-05
62	0x38dd2b85	0.00010546207
63	0x38b98c57	8.847628e-05
64	0x3938d007	0.00017625104
65	0x38ee94c1	0.00011376432
66	0x39ad4c22	0.00033053855
67	0x39834d2e	0.0002504377
68	0x395438cb	0.00020239053
69	0x39b8fa94	0.0003528191
70	0x39330844	0.0001707385
71	0x39cdf011	0.0003927951
72	0x397fbc90	0.0002438894
73	0x39534a49	0.00020150201
74	0x39b468df	0.0003441041
75	0x39a22407	0.0003092589
76	0x391b0caa	0.0001478667
77	0x39c59dd8	0.0003769237
78	0x39a96707	0.00032310953
79	0x399a4313	0.00029423143
80	0x369a3810	4.596084e-06
81	0x3720b77e	9.579466e-06
82	0x37a5c57b	1.9761492e-05
83	0x37104b2a	8.600569e-06
84	0x3789c6b3	1.64242e-05
85	0x3803b256	3.1398922e-05
86	0x36fe40d6	7.577338e-06
87	0x37bbc245	2.2382601e-05
88	0x38a1158c	7.681092e-05
89	0x36ed4740	7.071445e-06
90	0x36a16633	4.8100715e-06
91	0x3898e9f3	7.291501e-05
92	0x36e0a9f2	6.6955045e-06
93	0x37b4cf07	2.1554077e-05
94	0x3798c8d7	1.8213335e-05
95	0x377d59a0	1.5100843e-05
96	0x38fe80fb	0.00012135688
97	0x375c8278	1.3143399e-05
98	0x3901bd3f	0.00012372898
99	0x39210492	0.00015355859
100	0x389afd07	7.390422e-05
101	0x38fb7c89	0.00011991809
102	0x38b3cc6e	8.573463e-05
103	0x39563ec6	0.00020432015
104	0x39b6ca0c	0.00034864282
105	0x3830522a	4.203819e-05
106	0x388212ab	6.20236e-05
107	0x39446834	0.00018730835
108	0x381e09c5	3.7679234e-05
109	0x38760498	5.865525e-05
110	0x39147d82	0.00014161135
111	0x38204564	3.8211598e-05
112	0x394b572f	0.00019392067
113	0x3a8ed5b4	0.0010897429
114	0x3a917f37	0.0011100535
115	0x3924922a	0.00015694709
116	0x3a65d590	0.000876748
117	0x3a9934ad	0.0011688672
118	0x39e18842	0.00043016864
119	0x3a839b73	0.0010040834
120	0x3a15d330	0.00057153683
121	0x3a3cd97e	0.000720404
122	0x3a986a58	0.0011628373
123	0x3a833fd9	0.0010013535
124	0x3a925414	0.0011163973
125	0x3aa18b33	0.001232481
126	0x3947ab17	0.00019041855
127	0x3a2555ef	0.00063070556

exp_avg f4 [8]
0	0x3b829f8c	0.0039863046
1	0xbbc66dc6	-0.0060555665
2	0xbc8e5895	-0.017376224
3	0x3bd95283	0.0066321506
4	0xbc5b1408	-0.013371475
5	0x3cc57ec6	0.024108302
6	0x3c912046	0.017715584
7	0xbc3fcd93	-0.011706728

exp_avg_sq f4 [8]
0	0x380bbbab	3.3314962e-05
1	0x39531af1	0.00020132565
2	0x38a5d5d4	7.907642e-05
3	0x3aaa48e6	0.0012991696
4	0x3854f9d9	5.0777428e-05
5	0x391275c8	0.00013967522
6	0x3a8f6536	0.0010940197
7	0x39436878	0.00018635567

exp_avg f4 [8]
0	0x3c1feafc	0.0097606145
1	0xbc98c820	-0.018650115
2	0xbcd1942d	-0.025583351
3	0x3cafb6d4	0.021449484
4	0xbc897b70	-0.016782492
5	0xbb1ff880	-0.0024409592
6	0xbbba5e36	-0.0056875004
7	0xbc3298dc	-0.010900702

exp_avg_sq f4 [8]
0	0x3832bfec	4.261725e-05
1	0x39841c3d	0.0002519804
2	0x39556b1e	0.00020353167
3	0x3a061f2e	0.00051163405
4	0x390c6a6b	0.00013391084
5	0x38331347	4.269488e-05
6	0x3a18bae2	0.00058261876
7	0x39302827	0.00016799626

exp_avg f4 [4, 8]
0	0x3bdde57f	0.006771743
1	0xbc0c8e48	-0.008578844
2	0xbc571467	-0.013127423
3	0x3c22e822	0.00994304
4	0xbceeb9d3	-0.029141342
5	0xbb226416	-0.0024778894
6	0x3b880286	0.0041506914
7	0x3c68ad52	0.014201479
8	0xbb937f24	-0.0045012403
9	0xb6b43dce	-5.371613e-06
10	0x3c3d957d	0.011571285
11	0x399ee8f9	0.00030309687
12	0xbc5a06b3	-0.013307261
13	0xbb718603	-0.003685356
14	0xbba27b88	-0.0049585737
15	0x3ce24d29	0.027624683
16	0xbb26fafe	-0.0025479193
17	0x3cb6bcc8	0.022306815
18	0x3c53f72b	0.012937347
19	0x3c431e8c	0.011909138
20	0x3c88fe75	0.016722897
21	0x3c96d554	0.01841227
22	0x3c6b77ab	0.014371793
23	0x3c525a40	0.0128389
24	0xbc8c7b08	-0.01714851
25	0xbcc317fd	-0.02381515
26	0x3c5583bf	0.013031899
27	0x3d2a7284	0.041613117
28	0x3ccab3e9	0.024743991
29	0x3cddf61d	0.027094895
30	0x3d12bd4a	0.03582505
31	0x3c0d3149	0.0086177075

exp_avg_sq f4 [4, 8]
0	0x383255b2	4.2518317e-05
1	0x39633db9	0.000216714
2	0x3a5cfbea	0.0008429872
3	0x3ab31648	0.0013663257
4	0x399bf4ec	0.00029746385
5	0x3a60bdac	0.0008573185
6	0x3a4905cb	0.0007668405
7	0x39a263b1	0.00030973324
8	0x37ad2052	2.0638257e-05
9	0x37a71d9d	1.9921741e-05
10	0x38b655bb	8.694405e-05
11	0x3717d9ae	9.050984e-06
12	0x3831bf9a	4.237853e-05
13	0x3705e5f7	7.980961e-06
14	0x36bc0313	5.6031945e-06
15	0x38f5b4d7	0.000117161944
16	0x39796506	0.00023784125
17	0x39a8f348	0.00032224716
18	0x38b3e854	8.5786596e-05
19	0x3a5eda49	0.0008501155
20	0x38d5106d	0.00010159691
21	0x3a731416	0.00092727074
22	0x3a995d76	0.0011700827
23	0x392f8a90	0.00016740919
24	0x390a7a98	0.00013206375
25	0x3917ed09	0.00014488785
26	0x37e9ad39	2.7856428e-05
27	0x39a6df9b	0.00031828586
28	0x3881adef	6.183597e-05
29	0x393d8cd6	0.0001807691
30	0x39444fbb	0.00018721719
31	0x39fee420	0.00048616622

exp_avg f4 [4]
0	0x3c3a3ce3	0.011367056
1	0xbb512994	-0.0031915652
2	0xbb91665e	-0.004437252
3	0xbbbcc1f8	-0.0057604276

exp_avg_sq f4 [4]
0	0x39ab1467	0.00032630863
1	0x3780c2ce	1.5349502e-05
2	0x38b13c1d	8.451215e-05
3	0x3928e1af	0.00016105802

exp_avg f4 [4]
0	0x3b2e39a4	0.002658465
1	0x3a8de901	0.0010826887
2	0xbd02fcc5	-0.03197934
3	0xbd167740	-0.03673482

exp_avg_sq f4 [4]
0	0x390881cc	0.00013018324
1	0x379916df	1.8249671e-05
2	0x391bda86	0.00014863358
3	0x39740990	0.00023273216

exp_avg f4 [2, 4]
0	0x3d813c82	0.06310369
1	0x3bd38624	0.0064552
2	0xbd42efaf	-0.04759186
3	0xbc860e18	-0.016364142
4	0x3c6cc56c	0.014451366
5	0xbbeb5d81	-0.0071827774
6	0x3c0f4b2a	0.008745948
7	0x3c12bc03	0.008955958

exp_avg_sq f4 [2, 4]
0	0x3a943a0d	0.0011308804
1	0x392efeaf	0.0001668881
2	0x398bbc7b	0.00026652575
3	0x3982a007	0.00024914762
4	0x380051e2	3.0593837e-05
5	0x3859a6dc	5.189223e-05
6	0x37adfd01	2.0741021e-05
7	0x388ad171	6.619364e-05

exp_avg f4 [2]
0	0xbd3588d7	-0.044319954
1	0x3da4406a	0.080200985

exp_avg_sq f4 [2]
0	0x3a9ab56c	0.0011803336
1	0x3aa5c59f	0.0012647397

exp_avg f4 [2]
0	0xbda86db3	-0.082240485
1	0x3d2dc44c	0.04242353

exp_avg_sq f4 [2]
0	0x3a36bea5	0.0006971157
1	0x3a983afc	0.0011614258

exp_avg f4 [2, 2]
0	0x3cfe4f32	0.031043623
1	0x3d398480	0.045292377
2	0xbcfe4f32	-0.031043623
3	0xbd398480	-0.045292377

exp_avg_sq f4 [2, 2]
0	0x3a163a5e	0.0005730743
1	0x39d212d1	0.0004006834
2	0x3a163a5e	0.0005730743
3	0x39d212d1	0.0004006834

exp_avg f4 [2]
0	0x3d8f91b3	0.07010212
1	0xbd8f91b3	-0.07010212

exp_avg_sq f4 [2]
0	0x3a9c54c2	0.0011927115
1	0x3a9c54c2	0.0011927115
