test/output/local3/simulatorRun/fsv_volumes_pretrained_test/fold_1/current.nn.pt (torch_old, 737310 bytes, 42 tensors)

layers.0.0.weight f4 [256, 66]
000000 ca 18 34 3d 67 a6 d3 bc ac 91 32 3e 67 d3 fd bd
       0.043968953 -0.025836183 0.17438382 -0.123938374
000010 d9 8d 0f 3e 7e 4a f5 3d 27 b9 c1 3d b8 18 44 3d
       0.14018954 0.11977099 0.09459143 0.047875136
000020 9a 6e 39 be af a3 9d 3e 9a 3f 07 bd 33 45 7d 3e
       -0.18108597 0.30788943 -0.03301964 0.24733429
000030 42 10 e6 bd 75 54 82 3d f5 50 c6 bc 28 08 37 be
       -0.1123357 0.06363765 -0.024208525 -0.17874205
000040 0b 11 d2 bb e9 76 6a 3e 5a a0 be 3d 1e 0b 1b 3e
       -0.006410723 0.22896923 0.093079284 0.1514096
000050 7e 83 59 3e 9b f6 18 be d1 e7 d5 bd a3 0b 60 bc
       0.21241567 -0.14937823 -0.10444606 -0.013674649
000060 7c 82 e2 bb 0a 67 be 3e b6 2d 88 3d 46 78 ba bd
       -0.0069125276 0.37187988 0.06649344 -0.091049716
000070 02 88 f2 bd 97 b4 33 3e 8f 9c 04 bd 8e 70 96 3e
       -0.11842348 0.17549358 -0.03237587 0.29382747
000080 28 fa fb 3d 10 38 2e 3e 75 87 4a 3e c4 e1 4d 3e
       0.12303573 0.17013574 0.19778235 0.20105654
000090 05 56 b6 be 72 8e de bc 03 b4 a2 be c1 3d 92 3e
       -0.35612503 -0.027167533 -0.31777963 0.2856274
0000a0 c2 91 19 3e 71 c9 05 be be 94 d9 bd aa 29 ed 3c
       0.14997008 -0.13065125 -0.106240734 0.028950531
0000b0 0c dd 64 3e a9 60 8b bd 27 71 81 be 86 e1 06 3e
       0.22349948 -0.06805546 -0.2528164 0.13171968
0000c0 c0 d3 9c be 46 f1 b9 3e cc 17 12 bd 15 84 f1 3e
       -0.30630302 0.3631689 -0.035667226 0.47171083
0000d0 de f0 37 bd 61 48 db 3d db c5 99 bd 00 21 9e 3e
       -0.044907443 0.107071646 -0.07508441 0.30884552
0000e0 3b 2f 13 3d 3e 37 36 3d 97 15 85 3d e6 cc 38 be
       0.035933714 0.044486277 0.064982586 -0.18046913
0000f0 08 95 6b 3e 17 63 4c bd 97 5f e9 bd cd 6f db 3c
       0.2300607 -0.049899187 -0.113951854 0.02678671
000100 a1 43 7a 3e 60 6c a0 bd 25 c6 e5 3d 31 2d fe bd
       0.24439861 -0.07833171 0.11219434 -0.12410963
000110 21 9c 8b bd 0a 2b 3a be 0d 25 03 bd 64 0b 1d 3e
       -0.068168886 -0.1818048 -0.032017756 0.15336376
000120 3f a0 01 3d 53 9e 03 bd 1e cb a7 3a 7a dd e9 bd
       0.031646963 -0.03213341 0.0012801623 -0.114191964
000130 9a 98 2a bc 0b 76 6a 3e 6a 2f b0 bd 1b 3c 26 bb
       -0.01041236 0.22896592 -0.086027935 -0.0025365415
000140 7e b4 46 bd 20 83 b2 bc 3b 72 3e 3d 39 cb 39 3e
       -0.048511975 -0.02179104 0.046495657 0.1814393
000150 dc 7c f0 bd 78 c9 8a be 79 f3 ca 3d e4 1e 0b be
       -0.11742565 -0.27106833 0.0990972 -0.13586003
000160 da 13 45 be ab af 07 3d 2e e1 8a be 26 29 ad be
       -0.19245854 0.033126514 -0.27124923 -0.33820456
000170 e7 f8 84 3d 5b 96 a4 bd bb be 0a 3d 82 e7 69 3e
       0.06492787 -0.080364905 0.0338733 0.2284222
000180 a7 22 41 be ad 01 dd 3b 53 4b 8b bd a0 55 10 bc
       -0.18860875 0.0067445845 -0.06801476 -0.008809477
000190 55 e6 02 3e c4 00 8c bd 5f 01 2d be da 70 f0 bd
       0.12783177 -0.068360835 -0.16895054 -0.11740275
0001a0 be 43 04 3e 2e e9 17 3e a1 cf cf 3d 6a 66 0b 3d
       0.12916467 0.14835045 0.10147024 0.034033217
0001b0 56 e6 42 bd b0 72 04 be 3b f6 62 3e 98 0f bf 3d
       -0.047582947 -0.12934375 0.22164242 0.09329146
0001c0 5d cd 48 3e 89 fc 5b be 1d d9 8b 3c 7d 07 72 3e
       0.1960959 -0.21483053 0.017071301 0.23635669
0001d0 d2 c1 85 3d 9b de 68 bd f5 d3 fa 3d 08 76 be bd
       0.06531109 -0.056852918 0.12247459 -0.092998564
0001e0 d4 8e 0e 3e 15 ea a7 3d 12 24 e2 bd 4d fd d3 bd
       0.13921672 0.081989445 -0.11042036 -0.10351048
0001f0 bb 05 e8 bd 99 1b c7 3d c4 c0 2a bd 68 08 2e 3e
       -0.11329218 0.09722061 -0.041687742 0.16995394
000200 d4 e2 57 be fd a4 3e 3d 14 f3 9e 3d 34 74 e7 bd
       -0.21082622 0.046544064 0.07761207 -0.11301461
000210 29 6f 70 bd a6 72 87 be 9a 5d c9 3d fb 65 39 be
       -0.05869976 -0.26454657 0.09832306 -0.18105309
000220 78 4e 5b 3e 79 56 9f be 24 0a 99 bd 59 d4 e5 3d
       0.21416652 -0.3112066 -0.07472637 0.11222143
000230 fa bc e8 3d d4 37 a2 3b c3 3e ba 3e b4 db f1 bd
       0.113641694 0.004950503 0.36376008 -0.11809483
000240 54 1b ef be 86 9b 3a 3e 62 18 8d 3b 5b 60 28 3b
       -0.46700537 0.1822339 0.004305885 0.0025692198
000250 42 55 1a 3d a8 b2 6d be f6 c8 3e 3d 78 ce 7d 3e
       0.037678964 -0.23212683 0.04657837 0.24785793
000260 8c 40 c5 3d 09 e6 a9 3d 23 52 23 be 56 1f bc bd
       0.09631452 0.08295829 -0.15949301 -0.09185664
000270 e6 85 0d be 37 7b 66 3b 10 09 b3 bd 34 6e 9e be
       -0.1382061 0.0035168657 -0.08741963 -0.30943453
000280 d5 94 66 3e 98 e5 c6 3c 1e 40 76 bd 9f 52 9b bd
       0.22517712 0.0242794 -0.06011974 -0.07584118
000290 a4 b4 e6 bc b7 80 cc bd 6c dd a6 3c 21 8e 2e bd
       -0.028162308 -0.09985488 0.020369254 -0.042616013
0002a0 d5 fc 15 3e f8 15 e9 3c f1 ac f9 bd 90 95 4e bd
       0.14647229 0.028452858 -0.12191189 -0.050435603
0002b0 45 21 17 3e ec e1 91 3d 4c 39 74 be 60 a7 97 3c
       0.14758785 0.07123169 -0.23849982 0.018512428
0002c0 b4 64 5a be 15 8e da 3d 2c 3e 25 bd 52 f4 9c bc
       -0.21327478 0.10671631 -0.040342495 -0.01915947
0002d0 52 6a 87 bd 2b 79 11 3d b8 75 03 be 75 ee 0c 3e
       -0.06612076 0.035515945 -0.12837875 0.13762839
0002e0 24 76 f5 3d 2f 32 a8 be d5 1f 10 be 6a d2 ed bc
       0.11985424 -0.32850787 -0.14074643 -0.029030997
0002f0 f0 73 04 be 8c c2 d9 3e 39 3d 22 3e 2e 07 9c 3e
       -0.12934852 0.4253124 0.15843667 0.30474228
000300 f3 ba 9a 3e 4c 25 a4 3b 8b a5 04 3e 37 53 5f 3e
       0.30220756 0.005009329 0.12953775 0.21809088
000310 1d 54 a6 3e ea 7d 4e 3d 3f 4b 11 3e 8b 2c 49 3e
       0.32486048 0.05041305 0.1418886 0.19645898
000320 8f 48 14 3e 7d ae 06 3e ec eb 8b 3d 61 45 05 be
       0.14480804 0.131525 0.06832108 -0.13014747
000330 00 f2 67 be 85 1d 23 3e 69 82 72 3d 13 4a 31 3e
       -0.2265091 0.1592923 0.0592064 0.17313413
000340 3c ab ac 3c 06 af 9d 3e 13 bd 68 3c c3 df c4 be
       0.021077745 0.30797595 0.014205235 -0.38451967
000350 ac 81 14 3e 0c 05 f2 bc be af 4b be ab 3c 77 3e
       0.14502591 -0.029543422 -0.19891259 0.24144237
000360 a3 bf 9b bc 66 a2 97 3e 59 11 a9 be 4b 0e 48 3d
       -0.019012278 0.29616088 -0.33021048 0.048841756
000370 71 e3 7f bd b0 4f 8c 3e bd b0 ce 3b 0f 8c a7 bd
       -0.062472764 0.27404547 0.00630769 -0.08181011
000380 91 16 94 be 74 2c bf 3e ad 8e da 3d da 9e 45 bd
       -0.28923467 0.37338603 0.106717445 -0.048247196
000390 41 e6 dd 3c b2 d4 7e 3e f8 90 62 3d d0 25 41 be
       0.027087333 0.24885824 0.055314034 -0.1886208
0003a0 68 a3 c1 3e f6 46 e6 bd f8 30 3f bd 98 fb 1a 3d
       0.37819982 -0.112440035 -0.04667756 0.037837595
0003b0 24 e3 f2 bd 7a 75 6a bb 8d a9 a9 bc 5b 31 b6 bd
       -0.1185973 -0.0035775588 -0.02071073 -0.088961326
0003c0 eb 9a 5e be 1c ae 70 3e 3a 09 c4 3d 7f 2f 0d 3c
       -0.21738784 0.23503917 0.09572072 0.008617281
0003d0 5b be d4 3e 84 74 cc 3d 04 9f 68 3e cc 79 96 be
       0.4155148 0.09983161 0.2271691 -0.293898
0003e0 14 83 83 3e 94 35 40 3d 25 34 9a 3d 23 29 8d bb
       0.25685942 0.046926096 0.07529477 -0.0043078824
0003f0 8f 8d 98 3e 6c 46 21 be 19 32 e0 bd 92 00 92 3d
       0.297955 -0.1574952 -0.10947055 0.07129015

layers.0.1.weight f4 [256]
000000 d2 24 80 3f 96 5f 81 3f 56 47 7f 3f dd 26 80 3f
       1.0011237 1.0107296 0.99718225 1.001186
000010 f0 60 80 3f d9 a8 7f 3f 9a 2e 7f 3f ef c9 7f 3f
       1.0029583 0.99867016 0.99680483 0.999175
000020 5c d6 7f 3f 78 c2 7e 3f c7 01 80 3f e6 e1 7f 3f
       0.9993646 0.99515486 1.0000542 0.9995407
000030 95 19 80 3f 09 23 80 3f ec 8a 7e 3f b0 b6 7f 3f
       1.0007807 1.0010692 0.9943073 0.99888134
000040 27 06 80 3f 13 f0 7e 3f 63 31 80 3f ff 12 80 3f
       1.0001878 0.99585074 1.0015072 1.0005797
000050 75 4f 7e 3f 50 e8 7f 3f f2 10 80 3f d8 5e 7e 3f
       0.9933999 0.99963856 1.0005171 0.9936347
000060 10 aa 80 3f 38 23 7e 3f fe 8a 7e 3f 5b bc 80 3f
       1.0051899 0.9927249 0.99430835 1.0057482
000070 ef 49 7f 3f 16 be 7e 3f 8d 7f 7e 3f 03 ff 7f 3f
       0.9972219 0.995088 0.9941338 0.9999849
000080 b1 35 80 3f 85 2f 80 3f c0 77 7d 3f ea 55 80 3f
       1.0016385 1.0014502 0.9901085 1.0026219
000090 21 5b 7e 3f 40 37 7f 3f df 02 80 3f e4 8b 80 3f
       0.993578 0.9969368 1.0000876 1.0042691
0000a0 25 bc 7f 3f a7 c8 80 3f 7b da 7e 3f 2d d0 80 3f
       0.9989646 1.0061234 0.99552125 1.006353
0000b0 9c 49 80 3f ff 07 7f 3f 25 39 7e 3f c5 75 80 3f
       1.0022464 0.99621576 0.99305946 1.003594
0000c0 85 5a 7f 3f 02 14 7f 3f df 42 80 3f ef 8b 80 3f
       0.99747497 0.99639904 1.0020407 1.0042704
0000d0 26 32 7f 3f 1a 08 81 3f 99 ba 80 3f 6d bd 80 3f
       0.99685895 1.0080597 1.0056945 1.0057808
0000e0 26 e9 7f 3f 9e b8 80 3f 6d 32 80 3f 67 81 7e 3f
       0.9996513 1.0056341 1.0015389 0.994162
0000f0 1e 5d 80 3f af c6 7d 3f f0 7c 7e 3f ce b9 7e 3f
       1.0028417 0.9913129 0.9940939 0.99502265
000100 0e ba 7e 3f c4 ff 7e 3f 3c 5f 7f 3f 28 09 80 3f
       0.99502647 0.9960902 0.9975469 1.0002794
000110 3f 4c 80 3f c7 20 80 3f 1e 9c 7e 3f 55 53 80 3f
       1.0023268 1.0010003 0.99456966 1.0025431
000120 ec ae 7e 3f 41 03 80 3f 30 84 7f 3f a5 ff 7e 3f
       0.9948566 1.0000993 0.9981108 0.9960883
000130 01 02 81 3f 8c f8 7f 3f 19 0a 80 3f d4 da 7e 3f
       1.0078737 0.9998863 1.0003082 0.99552655
000140 e8 a3 7e 3f c8 1d 7f 3f 37 ac 7e 3f ab 75 80 3f
       0.9946885 0.9965482 0.9948153 1.003591
000150 76 11 80 3f 7a aa 80 3f 82 aa 7f 3f e0 fc 7f 3f
       1.0005329 1.0052025 0.9986955 0.9999523
000160 f2 88 80 3f e8 a9 7e 3f 28 e0 80 3f a4 26 80 3f
       1.0041792 0.99478006 1.0068407 1.0011792
000170 ad 4e 80 3f f5 79 80 3f ef 83 7e 3f bb fb 80 3f
       1.002401 1.0037218 0.99420065 1.0076822
000180 41 3b 80 3f bb c5 7d 3f af 47 80 3f 71 ae 7f 3f
       1.0018083 0.9912984 1.0021876 0.9987555
000190 ed a0 7d 3f 21 cb 80 3f 0e 20 80 3f 20 32 7f 3f
       0.9907368 1.006199 1.0009782 0.9968586
0001a0 72 e2 7e 3f 2e 22 80 3f d2 bf 7f 3f 4f eb 80 3f
       0.9956428 1.0010431 0.9990207 1.007181
0001b0 df 25 81 3f 05 70 80 3f 4d d8 7e 3f 61 c5 80 3f
       1.0089682 1.0034186 0.995488 1.0060235
0001c0 3e c8 80 3f 01 a2 7e 3f 65 1d 80 3f d1 a9 80 3f
       1.0061109 0.9946595 1.000897 1.0051824
0001d0 61 6d 7e 3f a2 74 80 3f 19 8c 7e 3f 57 03 80 3f
       0.9938565 1.0035594 0.9943252 1.0001019
0001e0 25 4b 80 3f 3c b0 80 3f 5f 8c 7f 3f 73 1e 80 3f
       1.0022932 1.0053782 0.99823564 1.0009292
0001f0 06 dc 80 3f 91 7e 7f 3f 83 a2 7e 3f 02 46 7f 3f
       1.0067146 0.998025 0.99466723 0.997162
000200 da 51 80 3f fa 56 80 3f 3c b2 7e 3f 38 fd 7f 3f
       1.0024979 1.0026543 0.99490714 0.99995756
000210 14 3c 80 3f 61 4b 80 3f ad ae 7e 3f bb 2c 7e 3f
       1.0018334 1.0023004 0.99485284 0.99287003
000220 ab 7d 7e 3f a0 5e 7f 3f 9d 05 81 3f ab 83 80 3f
       0.99410504 0.9975376 1.0079838 1.0040182
000230 44 3c 80 3f e5 57 80 3f 39 30 7f 3f e5 b9 7e 3f
       1.0018392 1.0026823 0.99682957 0.995024
000240 33 34 7e 3f 7d 33 7f 3f e8 89 7f 3f 57 22 7e 3f
       0.992984 0.9968794 0.99819803 0.9927115
000250 a0 3a 80 3f b6 c6 80 3f 42 a6 80 3f 41 0a 80 3f
       1.0017891 1.0060642 1.0050738 1.0003129
000260 5a 7a 7e 3f 80 32 7f 3f bd 5b 7e 3f bf 61 7f 3f
       0.99405444 0.9968643 0.9935873 0.99758524
000270 a6 a1 7e 3f 2f 0a 81 3f c3 dc 7e 3f 49 13 7f 3f
       0.99465406 1.0081233 0.99555606 0.996388
000280 c3 44 80 3f 4a 79 7e 3f d8 2f 81 3f 95 ad 7e 3f
       1.0020984 0.9940382 1.0092726 0.99483615
000290 9d 61 80 3f b1 37 80 3f 7f 7c 80 3f d5 ec 7e 3f
       1.0029789 1.0016996 1.0037993 0.99580127
0002a0 86 67 80 3f 4e f1 7e 3f 3c 02 80 3f d2 a3 7f 3f
       1.0031593 0.9958695 1.0000682 0.99859345
0002b0 ff de 80 3f e9 75 80 3f 92 fd 7f 3f 1d ad 7e 3f
       1.0068053 1.0035983 0.9999629 0.994829
0002c0 0f a1 80 3f 07 4e 7e 3f d8 17 7e 3f fc 57 7e 3f
       1.0049151 0.9933781 0.9925513 0.99353004
0002d0 32 12 7f 3f 15 c5 7f 3f 7b 29 80 3f d1 58 80 3f
       0.9963714 0.999101 1.0012659 1.0027105
0002e0 f3 07 81 3f e3 08 80 3f 32 34 80 3f 9f 45 80 3f
       1.0080551 1.0002712 1.0015929 1.0021247
0002f0 d6 73 80 3f b8 3d 80 3f f0 da 7e 3f 19 cc 7f 3f
       1.003535 1.0018835 0.9955282 0.99920803
000300 10 8e 80 3f f2 22 80 3f 3a 16 7f 3f ac 2a 80 3f
       1.0043354 1.0010664 0.9964329 1.0013022
000310 be c1 80 3f 99 12 80 3f eb b5 7f 3f 9d b3 80 3f
       1.0059125 1.0005676 0.9988696 1.0054814
000320 c8 9b 7e 3f 7f d0 7e 3f c0 58 80 3f 2c b8 80 3f
       0.99456453 0.9953689 1.0027084 1.0056205
000330 70 a8 7e 3f 18 b4 80 3f 89 57 7e 3f ce 55 7e 3f
       0.99475765 1.005496 0.9935232 0.9934968
000340 3f a2 7f 3f 3d 85 80 3f 15 32 80 3f dd fb 7f 3f
       0.9985694 1.0040661 1.0015284 0.9999369
000350 3d a6 7f 3f f7 a8 80 3f 9d 2b 80 3f 96 88 80 3f
       0.99863034 1.0051564 1.001331 1.0041683
000360 b1 75 7f 3f 05 bd 80 3f 39 a5 7e 3f b6 3c 80 3f
       0.9978896 1.0057684 0.9947086 1.0018528
000370 15 01 80 3f 92 f3 7e 3f 1f b5 80 3f b5 41 7f 3f
       1.000033 0.9959041 1.0055274 0.99709636
000380 3f 54 80 3f 5e 29 7e 3f 03 7e 7e 3f 65 ae 80 3f
       1.002571 0.9928187 0.9941103 1.0053221
000390 d9 25 7f 3f d4 04 81 3f 07 ed 7f 3f 81 00 80 3f
       0.99667126 1.0079598 0.9997105 1.0000154
0003a0 11 d8 7f 3f 2e 53 7e 3f 8c 8b 80 3f 5f 0a 81 3f
       0.99939066 0.9934567 1.0042586 1.008129
0003b0 f7 85 80 3f 3e d8 7e 3f be cd 7e 3f fd 61 7f 3f
       1.0040883 0.9954871 0.9953269 0.99758893
0003c0 1d 6b 7f 3f fe be 7f 3f 39 fc 7e 3f b6 fe 7e 3f
       0.99772817 0.99900806 0.9960361 0.9960741
0003d0 61 d6 80 3f 77 4e 7f 3f 3b 55 80 3f 84 73 7f 3f
       1.0065423 0.997291 1.002601 0.9978564
0003e0 d3 5e 80 3f a7 34 80 3f f7 ab 7f 3f d5 f2 7e 3f
       1.0028938 1.0016068 0.9987177 0.9958928
0003f0 32 7f 80 3f 7b fe 7e 3f bf 1e 80 3f 85 24 80 3f
       1.0038817 0.99607056 1.0009383 1.0011145

layers.0.1.bias f4 [256]
000000 09 69 06 3b 9d 8d dc 3b af df 80 bb 2b 48 85 3b
       0.0020509383 0.006730749 -0.003932915 0.004067441
000010 d4 80 62 3b ee 8e a0 bb f5 6b 6b bb 78 1d 91 3b
       0.003456165 -0.004899851 -0.0035922502 0.004428562
000020 f6 2a a0 3b 8f 80 5c bb 10 5a 0f bb 4a ae b6 3a
       0.004887934 -0.0033645963 -0.002187375 0.001393744
000030 a8 84 a6 3b ce d5 9c b8 96 7b 0a bb 24 41 e5 3b
       0.005081732 -7.478484e-05 -0.0021130792 0.0069962908
000040 48 8f 4d 3b e0 9d ba bb 32 2d 25 3b cc 38 a6 3a
       0.003136592 -0.0056950897 0.002520394 0.0012681722
000050 61 7c e9 bb 64 a0 57 ba 0b c2 c5 3b a4 d3 43 bb
       -0.007125423 -0.0008225499 0.0060350946 -0.0029880786
000060 13 2a 45 3b ff 71 06 bc 83 9d 8f bb 5d 27 d2 3b
       0.0030084893 -0.00820589 -0.0043827905 0.006413384
000070 20 ae 14 bc 74 73 fa bb 58 01 e0 bb 18 8f 9c 3b
       -0.009074718 -0.0076431576 -0.0068360977 0.0047778003
000080 41 f6 a2 bb 8c 5f be 38 2b 47 d7 bb c4 b4 ad 3b
       -0.0049732034 9.077703e-05 -0.006569763 0.00530109
000090 5d 43 b6 bb 0f 84 b8 bb c3 34 9f ba df cf f2 3a
       -0.0055622295 -0.005630977 -0.0012146462 0.0018525085
0000a0 e4 7e 91 3b 8a a9 1b 3c 93 03 a1 bb 0e fe 9c 3b
       0.0044401754 0.0095008705 -0.004913756 0.004791028
0000b0 d8 7e b6 bb ed 45 dc bb 51 16 31 ba 8b d2 56 3b
       -0.00556932 -0.006722203 -0.00067553396 0.0032779302
0000c0 97 16 64 ba c2 68 09 3c b5 80 ae bb b7 3e a0 3b
       -0.0008700876 0.008386793 -0.0053254017 0.0048902887
0000d0 da de 7b bb 75 17 09 3c 49 fe 95 3b 47 3b bb 3b
       -0.003843239 0.008367409 0.0045774323 0.0057138535
0000e0 88 2c 7d 3a f7 c6 a3 3b d6 b8 f8 3b 3c 76 a2 bb
       0.000965782 0.0049980837 0.0075903935 -0.0049579423
0000f0 88 cf fa 39 0c 3b 0c bc 8b 19 09 bc 73 cf a9 bb
       0.0004783834 -0.008559 -0.008367906 -0.0051822006
000100 49 75 d2 ba cb 12 5d bb 79 4c 37 bb e8 70 b7 bb
       -0.0016056682 -0.0033733125 -0.0027969165 -0.0055981763
000110 c5 2d c0 bb 24 be f3 ba dc c4 2e b8 71 2b d8 bb
       -0.005864831 -0.0018596095 -4.1668172e-05 -0.0065969755
000120 b3 ba af 3a b4 65 42 39 e3 6c 66 bb aa 6a 88 bb
       0.0013407081 0.00018539169 -0.0035160116 -0.004163106
000130 db 69 6e 3b 8b 8a a5 3b 46 fb 88 bb 1a 2f 7e bb
       0.0036379013 0.005051916 -0.0041803448 -0.00387854
000140 4f 6f b7 bb ed 53 5c bb b3 75 e5 bb c4 4e b3 b8
       -0.005597986 -0.003361936 -0.007002556 -8.5500564e-05
000150 85 1d f3 3a 25 64 b5 3b b5 eb 71 bb 48 b0 32 ba
       0.0018548226 0.00553562 -0.0036914174 -0.0006816429
000160 67 41 14 3b 1d 47 3b bb 7a 4c c7 3b ce dd 8b b9
       0.002262199 -0.0028576322 0.0060821148 -0.00026677403
000170 68 95 14 ba 7a 85 a0 3b 27 6f c3 bb a1 64 d6 3b
       -0.0005668015 0.004898724 -0.005964178 0.0065427576
000180 ee 53 d6 ba 93 84 b6 bb eb 8b 94 3b 96 9e e9 bb
       -0.0016351917 -0.0055700033 0.004533281 -0.0071295006
000190 89 7c 17 bc 3e 95 c6 3b 86 6a 86 bb 16 28 86 bb
       -0.009246 0.0060602715 -0.004102054 -0.004094134
0001a0 90 e7 32 bb 80 8f 11 3b cf 9d a8 3a b8 8c 63 3b
       -0.0027298667 0.0022210777 0.0012864413 0.0034721326
0001b0 7a ff e0 3b 78 de 0f 3c 81 34 c1 bb 23 79 72 bb
       0.0068663927 0.008781068 -0.0058961515 -0.0036998473
0001c0 ae 55 d6 3b 2d f3 19 ba a2 4f 9d bb 13 80 9e 3b
       0.0065409755 -0.0005872723 -0.0048007527 0.004837045
0001d0 11 b4 3d bb ff ff 25 3b f7 71 40 bb ca db 07 bc
       -0.002894644 0.0025329588 -0.0029364803 -0.008292148
0001e0 2a c7 f3 3a 4a e9 a0 3b 4e 85 89 3a 83 ab 1a bb
       0.0018598784 0.0049106227 0.0010491998 -0.0023600764
0001f0 cd 51 39 3b 38 6c b9 bb 26 fa 5e bb bb 26 2b 3a
       0.0028277517 -0.0056586526 -0.0034023612 0.00065289036
000200 00 7f 31 3b 80 6e 4f 3b b3 74 89 3b dc a8 18 3b
       0.0027083755 0.0031651556 0.00419482 0.0023294007
000210 94 fd b7 ba a8 c7 6f 3b 3e 09 88 bb 83 bb 2e bb
       -0.0014037364 0.003658751 -0.0041514924 -0.0026662059
000220 dd 07 ba 38 0c 57 80 b9 b7 13 06 3c 7a 7f a5 3b
       8.870636e-05 -0.00024478917 0.008183411 0.005050597
000230 28 be 93 3b 07 86 72 3b f6 28 3f bb 19 1a 00 bb
       0.0045087524 0.0037006156 -0.0029168702 -0.0019546805
000240 f5 c0 14 bc fc d0 73 ba 46 22 6a ba 07 0a 85 ba
       -0.009079208 -0.00093008555 -0.0008931499 -0.0010150083
000250 38 63 53 bb fd 43 f7 3b c1 f5 d5 3b a1 58 0b ba
       -0.0032255184 0.0075459466 0.0065295403 -0.0005315636
000260 b0 6e 02 bb 48 0c 8e bb b3 4a 15 bc d8 77 ab 3a
       -0.00199024 -0.00433496 -0.009112048 0.0013081981
000270 b2 22 91 bb aa c2 cf 3b da 05 6a bb f2 7b 92 bb
       -0.004429185 0.0063403444 -0.0035709054 -0.004470342
000280 cf a2 85 3a bf 2f 42 bb 56 a2 75 3b ec fc 50 3a
       0.0010195615 -0.002963051 0.0037480793 0.00079722586
000290 83 b2 bc bb 9c 94 11 bb 7f 31 84 3b f3 b3 e6 bb
       -0.005758585 -0.0022213822 0.0040342207 -0.0070404946
0002a0 a6 e3 55 3b 7e 05 81 ba 93 07 9a 3b 72 e7 01 bc
       0.003263691 -0.0009843556 0.00470061 -0.007928716
0002b0 90 6c 9d 3b 4b 45 b7 3b 37 c1 3f 3a 4b cc c3 bb
       0.0048042014 0.005592977 0.0007314863 -0.0059752814
0002c0 56 dd fb 3a 97 39 e1 bb c2 25 83 bb 1a 85 8b 3a
       0.0019215744 -0.0068733203 -0.004002304 0.0010644526
0002d0 86 4c a4 bb f1 15 ff 3b e2 2f 3e bb c5 6d 77 3b
       -0.005014005 0.007784598 -0.002902024 0.0037754637
0002e0 4b 64 93 3b ec 64 81 3a ea 85 b1 bb f4 db 4e bb
       0.00449804 0.0009871996 -0.005417575 -0.0031564208
0002f0 7d c6 31 3b 4c 9a f2 b9 e7 9a 62 ba a8 a0 d3 3b
       0.0027126365 -0.00046272797 -0.0008644298 0.0064583607
000300 89 23 58 3b 7b 58 d2 3b bd d0 5c bb 49 d1 5a 3a
       0.0032980165 0.006419239 -0.0033693754 0.0008347226
000310 9c 16 37 ba db 38 9e 3b 47 9b 46 bb 29 f8 81 3b
       -0.0006984265 0.004828555 -0.0030304955 0.0039663506
000320 3c 7c 45 3b b9 1d 4d 3a 91 15 11 3b d3 c1 06 3c
       0.0030133864 0.00078245584 0.0022138099 0.008224922
000330 0e 21 8c bb cc c1 c6 3b c2 bb 8d bb 18 6a e7 ba
       -0.0042764014 0.006065583 -0.004325361 -0.001765552
000340 23 05 57 ba a0 80 aa b7 5a f6 99 3b b4 06 db ba
       -0.00082023646 -2.0325475e-05 0.004698557 -0.0016710372
000350 9b f4 f9 bb bc 47 57 3b ac 95 09 3c d0 9c d1 3b
       -0.007628036 0.0032849154 0.008397501 0.0063968673
000360 f1 bf 5a bb 68 84 a1 3b 75 22 3b 3b 90 f0 9b 39
       -0.0033378566 0.004929114 0.0028554474 0.00029743137
000370 ee bf f6 3a 0f 8b c7 3a 9a 0f ad 3b a1 c8 4a bb
       0.001882551 0.0015223938 0.005281401 -0.0030942338
000380 6c 4d 50 3b 20 82 ae bb f2 fa fb b8 6c 51 d4 3b
       0.0031784428 -0.0053255707 -0.00012015355 0.006479433
000390 15 58 b8 bb eb ce 81 3b 9d 2e 45 bb c8 51 48 38
       -0.0056257346 0.003961434 -0.0030087598 4.775988e-05
0003a0 ee 96 c0 3a 51 cf 82 bb 26 5b d1 39 d8 b6 11 3c
       0.0014693418 -0.003991999 0.00039931497 0.008893691
0003b0 bd 81 ad 3b 2e 91 13 3a 34 31 cc bb 43 9a ac 39
       0.005295007 0.00056292384 -0.0062314514 0.0003292133
0003c0 e2 08 4d bb 39 56 ed ba 3c ea f3 ba fe 9e cd 3b
       -0.0031285812 -0.0018107361 -0.0018609236 0.006275057
0003d0 cb 56 ba 3b 49 02 f7 3a b6 ab 99 bb a3 52 be ba
       0.005686616 0.0018845286 -0.004689659 -0.0014520477
0003e0 96 66 3f 3b 97 67 db 3b 1c f3 c0 3b ab 8c 94 ba
       0.0029205433 0.0066956985 0.005888356 -0.0011333426
0003f0 7b 18 97 3b 14 9e 9f bb 94 7a 35 b9 3c eb 55 bb
       0.0046110726 -0.0048711393 -0.00017307169 -0.0032641431

layers.1.0.weight f4 [128, 256]
000000 79 c4 b4 bd 92 d5 1c bd 2f 98 df bd 99 36 bb 3d
       -0.08826537 -0.038289614 -0.109176986 0.09141273
000010 29 d8 d6 3a 52 90 a4 3c 0e 50 19 3d b3 6f 81 bd
       0.0016391325 0.020088349 0.03742986 -0.06320133
000020 52 a7 ff 3c 85 17 3c 3d 13 89 91 bc d5 28 93 bd
       0.031207714 0.045920867 -0.017765557 -0.071855225
000030 8c 50 a4 bd aa 3f f3 bb 1a c0 fc 3d 30 76 c2 bd
       -0.080231756 -0.007423361 0.12341328 -0.09495199
000040 7d d4 7b 3d 5c 2e 58 3d 4a eb 11 bc 79 b0 34 3c
       0.06148194 0.052778587 -0.008906195 0.0110284025
000050 0e 58 49 3e c8 f9 5f 3c bf 1b ba 3d 47 76 0f bd
       0.19662496 0.013670392 0.090873234 -0.035024907
000060 52 40 12 3d 9c fc 47 bd 8d 35 ac 3d 06 c0 68 3d
       0.035705872 -0.04882489 0.084086515 0.056823753
000070 80 6f 3c bd 78 37 8a bd e4 c3 65 bc 20 fd a7 3c
       -0.046004772 -0.06748861 -0.014023755 0.020506442
000080 f6 5b a7 3b df aa 2b 3e f1 a0 08 3d 1d 9e b4 3c
       0.005107398 0.16764401 0.03335661 0.02204805
000090 80 37 69 3d c8 36 b0 3c 33 04 0e 3e 9d 33 d4 3d
       0.056937695 0.021510497 0.1386879 0.10361407
0000a0 49 71 b5 3d 6c e6 8d 3d 3b 82 4f bc 27 1a 1f 3e
       0.08859498 0.06928715 -0.012665327 0.1553732
0000b0 e8 60 c7 3d 8a 9f d6 bd e5 66 c8 bd 65 73 2c bd
       0.0973528 -0.104796484 -0.097852506 -0.042102236
0000c0 96 a6 23 be 75 18 21 3d 47 fd 0c be 90 b4 00 be
       -0.15981516 0.039329965 -0.13768493 -0.12568879
0000d0 2b 2a d2 3d b4 21 1c 3e 3d 6c 22 bd c5 63 62 bd
       0.10261949 0.15247232 -0.039654005 -0.05527093
0000e0 b1 a0 11 bd c3 87 57 3e cf 9f c6 3d fe b8 e5 3d
       -0.035553638 0.21047883 0.0969845 0.11216925
0000f0 e9 f4 53 bc fe 62 f8 3d d5 f4 6f bd d5 b4 49 bc
       -0.012936809 0.12128256 -0.0585831 -0.01231118
000100 24 78 27 be ee f0 4a 3d 77 f7 ad 3d cd 99 b5 ba
       -0.16354424 0.049546175 0.08494466 -0.001385504
000110 a3 82 ca 3d f4 33 2b bd 20 47 c2 bd 9e 61 33 3e
       0.09888198 -0.041797593 -0.09486222 0.17517707
000120 aa 19 8b 3c 9c 58 3b 3d 6d 12 07 be 30 52 19 b8
       0.016980011 0.0457388 -0.13190623 -3.6554586e-05
000130 2e 0b 80 be 33 a1 4e 3c 7a 98 e1 3d 1b 4f b4 3b
       -0.2500853 0.012611675 0.11015411 0.005502594
000140 4d 66 f3 bd 4b 23 ae bd 11 5b 8f 3c 7d 26 be bc
       -0.11884747 -0.08502825 0.017499479 -0.023211712
000150 5d dd a3 bd 79 5e 56 3d 6d 05 ba 3d ec 36 95 bd
       -0.08001206 0.05233619 0.09083066 -0.07285866
000160 29 39 ab 3d 79 20 33 bc 00 c6 89 bd 16 b1 71 bd
       0.08360512 -0.010933035 -0.06727219 -0.059006773
000170 92 65 f2 bd 88 8e 17 be 46 10 c8 3d 4b 73 0d 3e
       -0.11835779 -0.14800465 0.09768729 0.13813512
000180 7c c4 85 3d 7c b6 3d 3c ea 8f b9 3d 0f e4 63 bd
       0.06531617 0.011579152 0.090606526 -0.055637415
000190 f0 35 b7 3c 4c 79 22 be 9e 62 30 3c 5e f6 1a 3d
       0.022364587 -0.15866584 0.0107657 0.03783261
0001a0 7c 4f 12 3e 68 01 6b 3e d7 62 95 bc aa 42 4b 3b
       0.14288133 0.22949755 -0.018235607 0.0031015077
0001b0 52 1b e4 3c 0e 25 5f 3d 45 e9 32 3e 30 dd 30 3d
       0.027845059 0.054478697 0.17471798 0.04317969
0001c0 19 b4 24 be e1 9e c1 3d b1 7e de bc 2e 25 6c 3e
       -0.16084327 0.09454132 -0.02716002 0.23061058
0001d0 7b 43 aa 3d 2a 01 71 bd f5 bd 92 3d 72 bd 84 3d
       0.08313652 -0.058839 0.07165138 0.06481446
0001e0 fe 9c c4 3d d5 ad 20 bd e3 98 e5 3c b4 f5 8f bb
       0.096002564 -0.03922828 0.028027004 -0.0043933038
0001f0 cc 4f 44 bc 46 d8 94 bc 9d 92 04 3e c9 da 13 3e
       -0.011981916 -0.018169533 0.12946554 0.14438929
000200 2c 2b e0 3b 1f 7e 50 3e f8 a8 9f bc 6a 02 0a be
       0.006841084 0.20360611 -0.01948975 -0.13477483
000210 57 1f f9 3d 3f 25 67 bd d8 fb 28 ba b5 25 da 3d
       0.12164181 -0.056432005 -0.0006446219 0.10651723
000220 bf 3b 0a 3d 26 e5 70 bc 45 4c 9c bc c6 98 16 3d
       0.033748385 -0.014703071 -0.019079337 0.03676679
000230 32 00 c5 3d 15 01 79 bd 2e 3b a1 3d 96 be 77 3d
       0.09619178 -0.060792048 0.07872616 0.06048449
000240 86 bb 36 3c 44 95 76 bc e5 f6 e7 3b f7 63 33 be
       0.0111531075 -0.015050236 0.0070789927 -0.17518602
000250 33 0a f2 3d 22 fb ce bb 76 96 92 3c a2 9d 9d bd
       0.118183516 -0.0063165585 0.017894011 -0.07696082
000260 4a b5 56 3d 13 eb ef bc b7 89 89 3c d7 8e f9 3d
       0.052418984 -0.029286897 0.0167893 0.12185448
000270 75 96 0b bd 9c ab 55 3c d8 fd fa bd 6c 91 ab 3d
       -0.034079034 0.013041403 -0.12255448 0.083773464
000280 a2 4c 12 bd 5e ac a0 bd 9b d5 3f be 9e ad 98 bd
       -0.035717614 -0.078453764 -0.18733828 -0.0745499
000290 fb 4c 99 bd 50 f4 12 3d e8 2e 9f bd 02 19 1d be
       -0.07485386 0.035877526 -0.077726185 -0.15341571
0002a0 c9 fc 39 3c 3a f6 0b bd 6a 5b 65 3d a5 e9 34 bd
       0.011351773 -0.034170367 0.055995382 -0.044168133
0002b0 af b1 34 3c 6d 34 c3 bc d2 be 50 3d fd 85 6e bd
       0.011028691 -0.02382871 0.05096323 -0.05823325
0002c0 fa 5f 98 bd a3 d1 52 bc 9a 63 47 be 24 94 06 bd
       -0.07440181 -0.012867364 -0.19471589 -0.03285612
0002d0 39 2c 7a 3c 79 7b b2 bd 30 b6 bf bc 4a d8 7e bd
       0.015269333 -0.08714957 -0.023402303 -0.062217988
0002e0 ae 51 b6 bd b4 b0 09 be 03 ed 31 3d d0 c8 06 be
       -0.08902298 -0.13446313 0.043438923 -0.13162541
0002f0 2e 09 87 3d 8f ab 8d 3c 89 97 1c be b1 67 b6 3d
       0.06593548 0.01729372 -0.15292181 0.08906496
000300 3a 77 07 3e 24 01 a2 bd 3f 16 c8 bd 49 dc 83 bd
       0.13229075 -0.07910374 -0.09769868 -0.064385004
000310 2a bd a4 bd e4 35 07 be 25 c3 c5 3d 20 61 44 3d
       -0.08043893 -0.13204151 0.096563615 0.047944188
000320 7b c1 d1 bd 63 55 1c 3e ba d8 27 3d 16 0e e8 3c
       -0.102419816 0.15266947 0.04097817 0.02832703
000330 43 29 1b be 24 33 2f bd 45 c4 46 3b cb c1 bd bd
       -0.15152459 -0.04277338 0.0030329388 -0.09265479
000340 fd 40 e1 3d 91 bb 8e bd 25 4b 89 3d 91 20 3b 3c
       0.10998724 -0.06969369 0.06703786 0.011421339
000350 5d c5 31 bc f5 bd 33 3d b4 3d e9 3c 94 db c9 b9
       -0.010850278 0.04388233 0.028471805 -0.00038501306
000360 f1 5c 68 3c a7 f9 d8 3c dc 53 52 be 3c 70 4c be
       0.014182315 0.026486231 -0.20539802 -0.19964689
000370 4a 24 4c 3d 95 c3 a5 bc 92 71 77 bc 28 44 0d 3e
       0.049839295 -0.020234862 -0.015102761 0.13795531
000380 b3 25 1c 3d 1c a6 07 be b6 2f 5e 3d 8b 66 46 bc
       0.03812189 -0.1324696 0.05424472 -0.012109409
000390 45 9c 95 bd e1 9e 15 bd 69 53 dd bc 4f df c9 bb
       -0.07305197 -0.03652847 -0.027017312 -0.0061606537
0003a0 30 ed c1 bd bc f3 08 be 6e 76 24 3e 5b d0 62 3c
       -0.09469068 -0.13374227 0.16060802 0.013843621
0003b0 f8 ae b3 3d 79 92 26 bd 53 43 4e 3d 1c 7f 4f 3d
       0.08773607 -0.04066703 0.050357174 0.05065833
0003c0 f0 bd 46 3d dd 69 bb bd d0 54 39 3d 8a 17 b9 3d
       0.048520982 -0.09151051 0.0452469 0.09037693
0003d0 b8 c7 9f 3c 1b f0 2d bd ef b2 d8 bc 86 be de 3d
       0.019504413 -0.04246531 -0.02645251 0.10876183
0003e0 4e 32 c5 3d c9 28 8a 3d 9e 2d cc 3d 7a 03 c2 3b
       0.096287355 0.067460604 0.09969638 0.0059208246
0003f0 b4 63 43 3d f8 14 6f 3e 4c ea 0a bd 62 5a 0f 3e
       0.047702506 0.23347843 -0.03391485 0.13999322

layers.1.1.weight f4 [128]
000000 3c 1e 81 3f 3b 9a 7e 3f 83 08 7e 3f 06 79 7f 3f
       1.0087352 0.99454087 0.9923174 0.9979404
000010 18 9e 7e 3f 9f 30 80 3f 7d 5b 80 3f d8 48 7f 3f
       0.9945998 1.0014838 1.002792 0.99720526
000020 4a ad 80 3f b4 1f 7f 3f 6f de 7f 3f 0f f2 7e 3f
       1.0052884 0.9965775 0.9994878 0.995881
000030 ac 98 80 3f 2e e3 7e 3f e0 44 7f 3f 89 ff 7e 3f
       1.0046592 0.995654 0.9971447 0.99608666
000040 65 97 7e 3f 55 c1 7e 3f 87 23 7e 3f 58 50 80 3f
       0.9944976 0.9951375 0.9927296 1.0024519
000050 5a e8 80 3f 14 ad 80 3f 4d 3c 80 3f e6 19 80 3f
       1.0070908 1.0052819 1.0018402 1.0007904
000060 ef f2 7f 3f 59 67 7f 3f ad 0a 80 3f e7 53 80 3f
       0.9998006 0.9976707 1.0003258 1.0025605
000070 b2 0b 80 3f 87 32 7e 3f ca fe 7e 3f b9 e2 7d 3f
       1.0003569 0.9929585 0.9960753 0.99174076
000080 21 8d 7e 3f 59 80 7f 3f 2b 31 7f 3f 67 ef 80 3f
       0.99434096 0.9980522 0.996844 1.007306
000090 9d be 80 3f e2 c3 80 3f c2 9b 7f 3f 71 2a 80 3f
       1.005817 1.0059779 0.9984704 1.0012952
0000a0 07 c6 7e 3f 70 a9 7f 3f 66 c1 80 3f 44 68 80 3f
       0.99520916 0.99867916 1.005902 1.0031819
0000b0 85 20 80 3f c2 9b 80 3f 6a 4e 7f 3f 16 1e 7f 3f
       1.0009924 1.0047534 0.99729025 0.9965528
0000c0 fe b9 7f 3f 3f 00 80 3f af c2 80 3f 2f 25 80 3f
       0.99893177 1.0000075 1.0059413 1.0011348
0000d0 e4 1a 7f 3f 77 bd 7f 3f 34 4a 80 3f 92 44 80 3f
       0.99650407 0.99898475 1.0022645 1.0020926
0000e0 96 9e 7f 3f 77 df 7f 3f f6 e2 7e 3f 56 2a 80 3f
       0.9985136 0.99950355 0.99565065 1.001292
0000f0 00 23 80 3f 11 ab 80 3f 2c 63 80 3f ea cd 7e 3f
       1.0010681 1.0052205 1.0030265 0.9953295
000100 03 23 80 3f fc ca 80 3f da 0e 80 3f d7 7a 7f 3f
       1.0010685 1.0061946 1.0004532 0.99796814
000110 b9 05 7f 3f 7a ec 7e 3f af d9 80 3f 5d 95 7f 3f
       0.9961811 0.99579585 1.0066432 0.99837285
000120 7b 50 80 3f f0 7f 80 3f 07 88 80 3f c7 6e 7f 3f
       1.0024561 1.0039043 1.0041512 0.9977841
000130 7d 9b 80 3f d4 23 7f 3f 44 74 80 3f ba 3d 80 3f
       1.0047451 0.99664044 1.0035481 1.0018837
000140 c1 db 80 3f 6c be 7e 3f db 43 80 3f a0 9b 80 3f
       1.0067064 0.9950931 1.0020708 1.0047493
000150 a3 cf 7e 3f ad d9 7f 3f a4 a3 80 3f 32 04 80 3f
       0.9953558 0.9994152 1.0049939 1.000128
000160 59 7e 7f 3f e1 01 80 3f 75 7f 7f 3f 3b d2 80 3f
       0.99802166 1.0000573 0.9980386 1.0064157
000170 ea c5 80 3f 9b 07 7e 3f 09 c9 80 3f d8 f2 7f 3f
       1.0060399 0.99230355 1.0061351 0.99979925
000180 8c 96 7f 3f 93 41 80 3f 0c 3f 80 3f 60 75 80 3f
       0.9983909 1.0020012 1.001924 1.003582
000190 b9 87 80 3f 7e c4 7f 3f fb 30 7f 3f 2c c2 80 3f
       1.0041419 0.999092 0.99684113 1.0059257
0001a0 31 03 80 3f 71 05 80 3f 8c d4 7d 3f 5f 31 7f 3f
       1.0000974 1.000166 0.99152446 0.9968471
0001b0 0e 3c 80 3f dd bb 7f 3f 44 4d 80 3f 96 69 7f 3f
       1.0018327 0.9989603 1.002358 0.99770486
0001c0 c3 c6 7e 3f 26 23 80 3f a1 eb 7f 3f c3 78 80 3f
       0.99522036 1.0010726 0.99968916 1.0036854
0001d0 e1 27 7f 3f 9e b4 80 3f 91 62 7e 3f 0a ea 80 3f
       0.99670225 1.005512 0.9936915 1.0071423
0001e0 19 72 80 3f d9 83 7f 3f 57 49 7f 3f 3f 95 80 3f
       1.003482 0.9981056 0.9972128 1.0045546
0001f0 7a 6a 7f 3f 7e 87 80 3f c5 4f 7e 3f 02 6c 7f 3f
       0.99771845 1.0041349 0.9934047 0.9977418

layers.1.1.bias f4 [128]
000000 01 b5 9c 3b c0 0c ce bb 16 5a ed ba f2 fd e1 ba
       0.0047823195 -0.006288141 -0.0018108513 -0.0017241819
000010 83 83 8a bb d3 8f af 3b 26 c6 f9 3a fd ae c6 3a
       -0.004227103 0.0053577214 0.0019056245 0.0015158352
000020 e7 76 ad 3b 7d 6a 15 bb c7 ad 87 bb ec cc b5 b8
       0.0052937153 -0.0022799068 -0.004140589 -8.668922e-05
000030 58 42 92 3b cf 85 11 3b 6c 81 ad 3b d8 8b ad bb
       0.004463475 0.0022205 0.0052949693 -0.0052962117
000040 0f 87 1f bc 71 09 82 39 7c cb 9b bb 3a 46 9d ba
       -0.00973679 0.00024802567 -0.004754482 -0.0011999079
000050 7e 12 bf 3b b8 1b 02 3b ab f8 6c 3b 18 45 ab ba
       0.005831062 0.0019852947 0.003615896 -0.0013066856
000060 1c 90 70 3b a5 3d bb bb 18 6e 32 38 2a 7a 1a 3b
       0.003670699 -0.0057141357 4.254104e-05 0.002357135
000070 7b c2 87 3b 5e 04 34 bb ee 5b aa bb 21 a5 1b bc
       0.004143057 -0.0027468423 -0.005198947 -0.009499819
000080 72 c3 b6 b9 eb ef 63 bb 28 86 ed bb 21 ef f8 3b
       -0.00034859363 -0.0034780453 -0.0072486587 0.0075968658
000090 77 7e bd 39 3a f9 b3 3b ec 6d ab bb d2 e5 04 3b
       0.00036143113 0.0054923566 -0.0052316096 0.0020278585
0000a0 a2 8f d6 bb da 9d 46 3b 99 fe 95 3a 0b e0 da 3b
       -0.006547884 0.003030649 0.0011443674 0.00667954
0000b0 77 a7 17 bb 35 e6 67 3b 7b 06 38 bb 99 5b 81 bb
       -0.0023140588 0.0035385017 -0.0028080035 -0.003947687
0000c0 bc c3 91 3a d6 97 27 3a de 01 76 3b 76 e2 c6 3a
       0.0011120955 0.000639317 0.0037537734 0.0015173692
0000d0 b0 28 5b 3b f9 a6 6e 3b 05 72 56 bb 7e f1 e9 bb
       0.0033441 0.0036415441 -0.003272177 -0.007139384
0000e0 a8 c5 59 bb 5d 76 49 ba ba d7 4a bb 39 7d b2 3b
       -0.0033229385 -0.0007685179 -0.0030951337 0.0054470566
0000f0 bb ed 50 3b 32 05 a6 3b 39 75 98 3b 0e 73 0b ba
       0.003187998 0.0050665373 0.004652646 -0.00053195737
000100 82 69 ef bb 4e 34 d2 3b 3f 68 bf 3a 68 41 12 bb
       -0.0073062787 0.0064149266 0.0014603211 -0.0022316817
000110 4c 81 71 bb 8d 81 17 bb 9a 4c 03 3c 6a ee 44 3b
       -0.0036850749 -0.002311799 0.008013869 0.0030049332
000120 b6 c8 33 3b 6d b1 02 3b bd 0f c1 ba 26 ba d2 ba
       0.0027432865 0.001994218 -0.0014729422 -0.0016077205
000130 d8 68 80 3b 9e 11 c7 bb ab c0 d8 3b 35 2d 94 3b
       0.0039187483 -0.006075098 0.0066147647 0.0045219907
000140 3b e7 a3 3b 8b aa 02 bc 24 50 7a 3b 04 d6 93 3b
       0.00500193 -0.007975231 0.003819474 0.0045115966
000150 9a 54 a9 bb 32 ec c4 bb a5 c7 e1 3a 95 5a ac 3b
       -0.005167556 -0.006009602 0.0017225636 0.0052598217
000160 df 1c 8f b9 e5 54 0a 3b 50 85 be b9 91 4f de ba
       -0.00027296596 0.002110773 -0.0003633895 -0.0016960968
000170 90 01 2c 3b 49 dd b8 bb 60 4a dd 3a c7 e9 b3 3a
       0.0026246049 -0.0056416136 0.0016883127 0.0013726287
000180 3d c9 1c bb 4f 1d 25 39 4b b9 59 bb de ca 46 3b
       -0.0023923658 0.00015746545 -0.0033222015 0.003033332
000190 46 16 84 3b b8 77 a4 b9 ef 04 a2 3a 77 13 00 3b
       0.0040309755 -0.00031369715 0.001236109 0.0019542852
0001a0 78 56 00 3c c8 d1 fe b9 11 05 09 bc f4 6d 7a bb
       0.007833116 -0.00048602954 -0.008363024 -0.003821251
0001b0 bf 35 a4 3a 9c c6 ee 3a d7 77 47 3b 85 72 6d ba
       0.0012528225 0.0018217149 0.003043642 -0.0009057897
0001c0 88 b7 9a bb 1f d6 18 3b d9 9e 1b ba 05 00 a6 3b
       -0.0047215857 0.0023320985 -0.0005936451 0.0050659203
0001d0 da 0a ba ba 8c c1 76 b9 1c 2a a9 ba 43 aa fa 3b
       -0.0014193908 -0.0002353249 -0.0012906226 0.0076496913
0001e0 34 e8 48 bb 3c 71 a9 ba 6e ac 9b 3a c2 19 9e 3b
       -0.0030655982 -0.0012927423 0.001187695 0.004824848
0001f0 8d 32 4b bb e6 d9 27 3b e8 ca f8 bb 38 83 3f 3a
       -0.0031005472 0.0025612055 -0.0075925477 0.0007305625

layers.2.0.weight f4 [64, 128]
000000 c4 e4 42 3e 2d 30 1d bd 0a ec 01 bd 07 76 d8 bd
       0.1903258 -0.038376022 -0.031719245 -0.10569387
000010 bd 93 7d bc fa 94 bc 3d 9b e4 b0 3d 8b 0f 10 be
       -0.015477118 0.092081025 0.08637353 -0.14068429
000020 02 6a 59 be 30 28 22 3e d8 42 05 3e 77 1c 66 be
       -0.21231845 0.15835643 0.1301378 -0.22471796
000030 6d 93 40 bd cd b9 2c bc e7 56 7a bd 73 b9 0c be
       -0.047015596 -0.010542345 -0.061118033 -0.13742618
000040 b2 cd a7 bc b3 d0 1e be dc 39 71 3c 80 fd a6 ba
       -0.020483825 -0.155093 0.014723267 -0.0012740344
000050 b6 8c 9e 3d 4d 2f 6c be eb 39 02 3d a6 1f 45 3e
       0.07741682 -0.23064919 0.031793516 0.19250354
000060 4c 6a 6f bd 60 af f6 3d 09 1b cc bd fe 6e b4 bd
       -0.058450982 0.12045169 -0.09966094 -0.088102326
000070 a4 bd 1f bd 12 46 96 3d b7 54 06 3e ba 81 2a 3e
       -0.038999215 0.073375836 0.13118254 0.1665105
000080 48 42 9c be a0 bc 9c bb 16 b6 83 3e 4f 3f 0d 3d
       -0.3051932 -0.004783228 0.25724858 0.034484204
000090 37 83 8d 3e a2 e4 9d 3d f5 a9 ea bc ad 6b d8 3b
       0.2763917 0.07709624 -0.028645495 0.006604633
0000a0 fb c1 1e 3e ef f2 e1 bd 5b f3 18 3d 93 89 d4 bd
       0.15503685 -0.11032664 0.037341457 -0.10377803
0000b0 61 95 0a 3e 9d ff 43 be 23 c4 e7 3d e6 58 e7 3d
       0.13533546 -0.19140477 0.11316707 0.11296253
0000c0 69 e9 55 be 4a 8e f7 3d b3 83 14 bd 3e 83 15 be
       -0.2088982 0.12087686 -0.03625841 -0.14600846
0000d0 74 62 0b be 33 48 e1 3d 11 26 22 bc 71 1f aa 3e
       -0.13611776 0.11000099 -0.009896771 0.33227113
0000e0 aa 1e 35 be fd 16 1e bc f6 ee a2 3c ed 27 00 bd
       -0.17687479 -0.0096490355 0.019889336 -0.031288076
0000f0 f9 c5 48 3d 9e eb c6 3d f9 40 19 3d a6 1c 77 39
       0.049016926 0.09712909 0.03741548 0.00023566428
000100 57 7c ef 3d 3a f6 86 be 1c 14 f9 bd 46 b7 fe bc
       0.11693638 -0.2635973 -0.12162039 -0.031093251
000110 60 e9 3b bd 37 f5 8e 3d 8d 60 18 be 19 70 b7 3c
       -0.04587686 0.06980365 -0.14880581 0.02239232
000120 7c cb 0f be 76 03 86 be 22 6a d1 3c f3 fe 5a bd
       -0.14042467 -0.26174515 0.025563303 -0.053465795
000130 55 3f cb 3c da 60 8e 3b c3 fc 58 3e 55 73 a4 be
       0.024810473 0.0043450417 0.21190171 -0.3211924
000140 34 7c a1 3e 0a f1 12 3e e0 db 9f 3d 5a 4a a4 3b
       0.31540072 0.14349762 0.0780561 0.005013746
000150 d0 2e 23 3e 00 0f 70 be 08 20 ce 3b 95 a9 09 bc
       0.15935826 -0.23443222 0.0062904395 -0.008402248
000160 17 a7 cd 3c 09 6e f9 3d 31 a3 03 be bb e9 5e 3e
       0.025104089 0.12179191 -0.12855221 0.21768849
000170 75 b1 0f be 57 5c 9a 3c 5a f8 36 be 47 e8 d7 3d
       -0.14032538 0.01884286 -0.17868176 0.1054235
000180 fa 15 6b 3d 87 cb d8 bd 9a cd 61 be 0f 94 16 be
       0.057394005 -0.10585695 -0.22051087 -0.14704917
000190 e5 45 fc bd 04 2d 8f 3e 05 b1 99 bd da 0a 10 3e
       -0.12318019 0.27964032 -0.07504467 0.1406664
0001a0 cf 90 d7 3b a1 a6 ac bd d6 11 13 bc f3 9a 8e 3e
       0.006578542 -0.084302194 -0.00897642 0.27852592
0001b0 ab c8 b0 3e 50 f9 f9 3d 6a fa da bd 8f d9 4b bd
       0.34528098 0.12205756 -0.10692294 -0.049768027
0001c0 86 ad 7a 3e 85 67 33 be ce 69 a2 3d 52 68 2d 3e
       0.24480256 -0.17519958 0.07930337 0.16934326
0001d0 1f 25 2f bd 27 75 3a bd 87 da 85 3c 48 e6 97 3b
       -0.04276001 -0.04552188 0.016339554 0.004635606
0001e0 87 f9 df 3d c0 97 ec bd 4c 9e 81 3d 75 10 49 3e
       0.109362654 -0.115523815 0.06329021 0.19635184
0001f0 d4 5e af bc 31 fd af be 68 86 62 be 24 ab 74 bd
       -0.021407522 -0.34372857 -0.22121584 -0.059733525
000200 98 11 80 bd 48 3e d4 3d 79 26 77 3d 5c 7a c4 bd
       -0.06253356 0.10363442 0.060339425 -0.09593651
000210 4a 7c b4 bd 87 dd 98 bd 30 58 54 bd b3 cd fd 3d
       -0.08812769 -0.07464128 -0.051841915 0.1239275
000220 c5 b2 77 3e e8 1f 58 3d 08 f5 ee bd 23 d6 3d bc
       0.24189289 0.052764803 -0.1166783 -0.011586699
000230 fa bf 3f 3e 2d fb 3e 3e a0 be 98 bd 0c db 1f 3d
       0.18725577 0.18650503 -0.07458234 0.03902726
000240 c9 b7 c4 3c 28 35 4a 3d b6 d8 6a 3e 29 62 5e 3e
       0.024013417 0.0493671 0.22934231 0.21717133
000250 6d 9c 84 be 15 fa 12 be 95 8b 09 3c 29 c2 b8 3c
       -0.25900593 -0.14353211 0.008395095 0.02255352
000260 9e 2f bc bc a3 2f 5c be 59 d0 30 3d 2e 52 a2 be
       -0.022971924 -0.21502547 0.043167446 -0.31703323
000270 45 ee 76 3e fc 11 cb 3d 64 4f d1 3d cf 86 e9 bd
       0.2411433 0.099155396 0.10220221 -0.11402666
000280 bf 76 ee 3d 55 63 b5 bd 54 92 f1 bd 3a 8d 8d bd
       0.11643743 -0.08856837 -0.11795488 -0.069117025
000290 8c c5 c1 bc 46 0d 8e bd df 88 18 3e e5 f1 00 be
       -0.023653768 -0.069361255 0.14895962 -0.12592275
0002a0 81 ae 06 3b 28 4e a3 3c 08 39 00 be 8f 50 28 3e
       0.002055079 0.019934729 -0.12521756 0.1643698
0002b0 69 8e f2 bb 86 0b e5 3d 6e cf a2 3d b6 14 2f bc
       -0.0074022305 0.111838385 0.0794972 -0.01068609
0002c0 bd 12 a1 3d 04 7b a8 3d 4b 89 56 3e 59 5e 40 be
       0.07864902 0.08226588 0.2095081 -0.18785991
0002d0 b5 fb 97 3d 00 8c 09 bd 14 e4 c7 3d f5 aa 1e 3d
       0.07421056 -0.03358078 0.09760299 0.038737256
0002e0 e2 c5 25 3e 3d e2 55 bc 5b f9 dc 3d 20 bb bc 3c
       0.16188768 -0.013054428 0.10789748 0.023038447
0002f0 88 b0 2e 3d 77 f2 c1 bd 8d 70 0d 3e 32 ac 58 bd
       0.042648822 -0.094700746 0.13812466 -0.052898593
000300 35 97 3a bd a2 d2 6b 3e 0e 15 ae 3d d0 24 55 3d
       -0.04555436 0.23029569 0.085001096 0.05203706
000310 5b 21 be bd 9a 53 a9 bd 0c c2 0b 3e af e9 30 be
       -0.09283706 -0.08267899 0.13648242 -0.17276643
000320 75 b9 f1 bc bc 54 81 bd 6f 9b e0 3d 6d 0c 11 3e
       -0.029507378 -0.0631499 0.109671466 0.14164896
000330 d6 f3 04 be aa 77 f0 3d f2 5f 2c be 03 26 1b 3d
       -0.12983641 0.11741574 -0.16833475 0.037878048
000340 7f d6 62 bd 58 40 47 be 89 f1 52 3d bb 30 f4 3c
       -0.05538034 -0.19458139 0.051499877 0.029808393
000350 5c e4 93 bc 84 89 be 3c 24 34 98 3d 2e 9a 07 bc
       -0.018053226 0.023258932 0.0743182 -0.008276505
000360 e7 10 01 3b bb a3 26 be 82 db cc 3d e6 95 55 3e
       0.0019693912 -0.16273396 0.10002805 0.20857963
000370 5e 4c 29 3e dc 2d 05 3e 04 03 26 be c6 1b 46 3e
       0.16533038 0.13005775 -0.16212088 0.19346532
000380 1c 2e 9f bd 24 d4 35 bd 41 73 a2 3c 14 00 06 bd
       -0.077724665 -0.044391766 0.019830348 -0.03271492
000390 e2 7f 54 be a7 bc 5b be 1d 06 38 3d 28 11 1c be
       -0.20751908 -0.21458684 0.044927705 -0.1524092
0003a0 fc b7 50 bd e4 79 b8 3c 20 a7 22 bc e3 71 ff 3d
       -0.05095671 0.02251906 -0.009927541 0.12472894
0003b0 4a 89 1a 3d 03 4c f1 3d a8 78 17 bd f9 a0 a8 3d
       0.037728585 0.11782076 -0.0369803 0.08233828
0003c0 79 27 d2 3d 0d fa 3c 3e 3b c8 6d be a4 5e 24 3e
       0.10261435 0.18454762 -0.23220913 0.16051728
0003d0 70 fa b6 3d e1 31 22 3c 64 20 a3 3e 85 97 77 be
       0.08934486 0.009899587 0.3186065 -0.24178894
0003e0 5f 35 a2 3d d3 48 6b bd 5d fe f8 bc a4 c9 c9 3d
       0.07920336 -0.057442497 -0.030394727 0.09852913
0003f0 d9 85 1f 3e 99 17 f8 bd 3e bd e9 3c 74 50 10 3d
       0.15578403 -0.12113876 0.02853262 0.035232976

layers.2.1.weight f4 [64]
000000 8b f6 80 3f 8c ed 80 3f 9e 14 7e 3f d0 94 7f 3f
       1.0075239 1.0072494 0.9925021 0.99836445
000010 1a 9f 80 3f cb 75 7f 3f 47 c2 7f 3f 66 8d 80 3f
       1.0048554 0.9978911 0.9990582 1.0043151
000020 24 d7 7e 3f 3e ca 7e 3f a3 45 80 3f fb 3d 80 3f
       0.9954703 0.9952735 1.0021251 1.0018915
000030 11 9e 7e 3f 35 76 80 3f f5 a6 7f 3f 78 1d 7f 3f
       0.9945994 1.0036074 0.9986413 0.9965434
000040 bc 1b 7e 3f 0f 5d 80 3f 7b 15 80 3f 83 73 80 3f
       0.9926107 1.0028399 1.0006555 1.0035251
000050 38 b9 7f 3f 72 9d 80 3f f4 eb 7f 3f 5d 41 7f 3f
       0.99891996 1.0048048 0.9996941 0.9970911
000060 06 2d 80 3f a0 9d 80 3f 1f 0d 80 3f 95 95 80 3f
       1.001374 1.0048103 1.0004004 1.0045649
000070 e5 6c 80 3f ce bf 80 3f 86 bc 80 3f e9 aa 7f 3f
       1.0033232 1.0058534 1.0057533 0.99870163
000080 30 00 80 3f 8c fb 7e 3f 38 06 80 3f 70 9a 7f 3f
       1.0000057 0.9960258 1.0001898 0.9984503
000090 3f 78 80 3f 14 8f 80 3f 99 10 80 3f 99 53 80 3f
       1.0036696 1.0043664 1.0005065 1.0025512
0000a0 37 c0 7f 3f 61 c1 7d 3f 0f e1 7f 3f 54 2b 80 3f
       0.9990267 0.991232 0.9995279 1.0013223
0000b0 d5 fc 80 3f ca 3e 7f 3f d4 0f 7f 3f 29 06 80 3f
       1.0077158 0.99705184 0.99633527 1.000188
0000c0 8e 7d 80 3f 48 3a 7e 3f da 67 80 3f a9 8f 7f 3f
       1.0038316 0.9930768 1.0031693 0.99828583
0000d0 be e5 7e 3f 44 dd 7f 3f a9 61 7e 3f 02 4b 80 3f
       0.9956931 0.99947 0.9936777 1.002289
0000e0 b5 f4 7f 3f 81 33 7e 3f 05 01 7f 3f 2a ad 7e 3f
       0.9998277 0.9929734 0.9961093 0.9948298
0000f0 55 b9 80 3f eb d4 7e 3f 9e 85 7f 3f 4c 22 7f 3f
       1.0056559 0.9954364 0.9981326 0.9966171

layers.2.1.bias f4 [64]
000000 10 c5 20 3c 8c 3b c0 3b 72 08 a3 bb 2d 64 94 bb
       0.009812608 0.0058664735 -0.004975372 -0.0045285434
000010 a6 c4 35 b9 22 73 ea ba 6a ec fa ba 70 bd db 3a
       -0.00017334762 -0.0017887095 -0.0019143943 0.0016764831
000020 f8 e1 a2 3a ec 96 0b bb 22 0c 85 ba 30 55 1b bb
       0.0012426963 -0.0021299673 -0.0010150711 -0.0023701899
000030 87 4b 42 bb 36 98 80 3a 7c 23 a6 bb 2d ba 21 bb
       -0.0029647069 0.0009810987 -0.005070148 -0.002467762
000040 2b 1a 8b bb 8c 40 97 3b b0 4e ff 38 94 3e 97 3b
       -0.004245063 0.004615849 0.00012174004 0.004615614
000050 c5 a3 93 3b ff 89 95 3b 08 da 95 39 17 4e f3 bb
       0.004505607 0.0045635696 0.0002858194 -0.0074250805
000060 9a 19 e9 3b 07 b4 aa 3b 65 3c 5e 39 36 e8 37 3b
       0.0071136476 0.005209449 0.00021194069 0.0028061992
000070 87 81 d9 3a 47 70 01 3c 0b e9 a7 3b 65 3b bc bb
       0.0016594388 0.007900304 0.0051242164 -0.005744385
000080 76 46 05 bb 42 60 cd 3b e6 8b 6c ba 5f 23 41 ba
       -0.0020336187 0.0062675783 -0.0009023532 -0.00073676364
000090 e1 8f 99 3b f3 5f 7f 3b 33 c4 24 3b 8a 0c 2f 3b
       0.004686341 0.0038967102 0.0025141358 0.0026710355
0000a0 87 70 97 3b 7b 64 28 bb fd 52 c3 bb e0 15 e3 ba
       0.0046215686 -0.0025694657 -0.0059608207 -0.0017325245
0000b0 b3 fa 03 3c ef 4e a3 3a 1b c1 a5 bb d8 bc 68 3b
       0.008055377 0.0012459437 -0.0050584204 0.003551295
0000c0 3f aa 8a 3b 8b eb b8 bb 35 21 68 3b e6 ef f7 ba
       0.0042317207 -0.0056433133 0.0035420184 -0.00189161
0000d0 73 fb a4 bb ce 50 bd 3a 56 e2 13 ba ae 42 1d 3c
       -0.005034858 0.0014443637 -0.00056413317 0.009598417
0000e0 80 c9 6d bb 0a 9a fe bb d6 12 c8 bb 47 67 1c bb
       -0.0036283433 -0.0077698277 -0.006105761 -0.002386527
0000f0 09 eb 08 3c f1 a2 56 bb 6a 86 9d ba 32 e0 28 bb
       0.008356818 -0.003275093 -0.0012018208 -0.0025768396
