test/output/local0/simulatorRun/freesurfer_volumetric/1/current.nn.pt (torch_old, 23025 bytes, 50 tensors)

layers.0.0.weight f4 [16, 66]
-0.10176934 -0.2103648 0.2551107 0.011816539 -0.088598035 0.3262144 0.12420824 0.07798243
-0.19506536 0.06862251 -0.029455664 -0.21402699 -0.031836677 -0.07089864 0.26151377 0.15643515
0.18998069 -0.21333332 -0.21617164 0.3600391 0.17803405 -0.11044773 -0.031483553 -0.26901168
0.25978467 -0.12126858 0.060250998 -0.21357092 -0.102151684 -0.15484293 -0.011627694 0.18019313
-0.120077744 0.22084428 -0.04629907 0.027691161 0.30211678 0.008682437 0.18563625 0.21065857
0.02980107 -0.020106522 -0.003990116 0.0784258 -0.047490243 -0.08763974 -0.16734038 0.12083681
0.24836189 -0.14281246 0.0783614 0.02471362 0.09645508 -0.26811624 0.017683849 0.115453035
0.098855466 -0.22587109 -0.020156264 -0.023334853 0.0025208346 0.11762686 -0.0056875534 -0.011641936
0.009877319 0.12637131 0.18633007 -0.056304093 -0.14638662 0.34907472 0.19007851 0.41902602
-0.09389172 -0.1500355 0.14330247 -0.07454465 -0.06890029 0.08675298 0.1765871 0.04899484
-0.080011435 0.07352061 -0.088681236 0.22556081 -0.016979774 -0.002671594 -0.14961877 0.17785154
-0.25778106 0.122622125 0.10680046 -0.30645818 0.36067873 0.29115474 -0.05354668 0.29481074
0.23615831 -0.045989953 0.09896943 0.16461197 0.04080677 -0.005700123 -0.25023058 -0.15141088
-0.14757016 -0.11558657 -0.10302435 0.17651042 0.05391829 -0.06583003 0.04624278 -0.29624933
-0.3413226 0.2542366 -0.0944533 0.08593034 0.1923556 -0.11737661 -0.18722036 -0.07442742
-0.26112813 0.30754185 0.03088152 0.18227758 0.08420572 -0.3152738 -0.21363468 -0.008436054
0.109249614 -0.025558453 -0.103033744 -0.13112472 0.34378836 -0.27897048 0.019722885 0.025591984
-0.13966177 0.1919492 0.32540888 0.41427803 0.31171295 0.009462756 -0.06705762 0.09085097
-0.13703412 0.06705226 -0.30738804 0.28370157 -0.16171408 0.24648406 0.3218045 0.0060362415
0.108508244 0.085772775 0.38745928 0.29347524 0.071453646 -0.1040174 0.18510714 -0.1725432
-0.01464492 0.071520746 -0.07565622 -0.13481553 -0.040637117 -0.055840887 0.36966938 -0.45363706
-0.13313963 0.038687598 -0.041925117 0.08910952 -0.19381984 0.09973939 0.048205685 -0.06606481
0.16688378 0.21090615 0.20750007 0.18776368 -0.047717415 0.22843154 -0.030528974 0.069675684
-0.11240936 -0.14955649 -0.07755348 0.12871511 0.029213803 0.07438532 0.014797329 -0.009893139
0.14839567 0.13077697 -0.19709235 -0.38612825 0.21151409 0.3032526 -0.1014535 -0.17893893
-0.0065754713 -0.09555072 0.03720011 0.11647855 0.038198017 0.105233915 -0.042207904 -0.09667296
-0.05891954 -0.021740232 0.039884627 0.042992897 -0.24817011 0.13415703 -0.0724185 -0.10590822
-0.07723969 -0.20441072 -0.05140064 -0.12812 -0.03706938 -0.35874233 -0.017152214 -0.18060322
0.29751387 0.07778292 0.17657784 -0.16717741 0.13232234 0.2033308 -0.018735195 -0.0897014
0.077636234 -0.06861705 0.27953938 0.06521969 -0.06781083 0.07678204 0.18836063 -0.275086
0.03660214 -0.22630192 0.036508236 -0.013311275 -0.11926628 0.19147159 -0.13292524 0.20792195
-0.0035001591 -0.046356875 -0.032249928 -0.00042753574 -0.056014832 -0.23375997 -0.31039554 -0.0014002465
00000000: 726c d0bd df69 57be df9d 823e 289a 413c
00000010: e372 b5bd 9305 a73e e460 fe3d 41b5 9f3d
00000020: 37bf 47be f589 8c3d 014d f1bc e429 5bbe
00000030: 2d67 02bd 4e33 91bd 22e5 853e 8930 203e
00000040: 4c8a 423e 0d74 5abe 195c 5dbe 0b57 b83e
00000050: 8f4e 363e 6b32 e2bd e6f4 00bd e6bb 89be
00000060: 7f02 853e a95b f8bd c0c9 763d 56b2 5abe
00000070: e734 d1bd 258f 1ebe 1582 3ebc 8c84 383e
00000080: 52eb f5bd 0125 623e 18a4 3dbd 93d8 e23c
00000090: 0daf 9a3e c840 0e3c 6e17 3e3e e1b6 573e
000000a0: 6021 f43c 6fb6 a4bc 85bf 82bb b59d a03d
000000b0: 2185 42bd 777c b3bd 475b 2bbe 4a79 f73d
000000c0: 9452 7e3e 6e3d 12be f17b a03d 3874 ca3c
000000d0: 3e8a c53d 8846 89be b8dd 903c a472 ec3d
000000e0: bc74 ca3d c04a 67be c01e a5bc bc28 bfbc
000000f0: 9634 253b 5ae6 f03d a85e babb d2bd 3ebc
00000100: 7bd4 213c 7b67 013e 4fcd 3e3e 1f9f 66bd
00000110: 60e6 15be ecb9 b23e f1a3 423e 948a d63e
00000120: 4d4a c0bd e8a2 19be e2bd 123e deaa 98bd
00000130: 981b 8dbd 8cab b13d 40d3 343e d0ae 483d
00000140: 09dd a3bd f991 963d 829e b5bd 6af9 663e
00000150: 2b19 8bbc e915 2fbb aa35 19be b71e 363e
00000160: e1fb 83be 4f21 fb3d 33ba da3d 16e8 9cbe
00000170: e2aa b83e 3c12 953e c353 5bbd 6ff1 963e
00000180: 7cd3 713e f65f 3cbd 7cb0 ca3d 0a90 283e
00000190: 0025 273d 19c8 babb 391e 80be 740b 1bbe
000001a0: a21c 17be a7b8 ecbd 6efe d2bd 26bf 343e
000001b0: 6dd9 5c3d e5d1 86bd 1269 3d3d fead 97be
000001c0: d6c1 aebe 4d2b 823e bb70 c1bd 3ffc af3d
000001d0: def8 443e 2663 f0bd b2b6 3fbe 676d 98bd
000001e0: 96b2 85be 2076 9d3e 3efb fc3c f9a6 3a3e
000001f0: 0c74 ac3d 916b a1be 0dc3 5abe 6037 0abc
00000200: 43be df3d f65f d1bc 5b03 d3bd 8f45 06be
00000210: 0705 b03e 38d5 8ebe e391 a13c 48a6 d13c
00000220: 7f03 0fbe 558e 443e fe9b a63e 401c d43e
00000230: d798 9f3e ad09 1b3c 8155 89bd 1310 ba3d
00000240: ac52 0cbe b252 893d f761 9dbe 5541 913e
00000250: 6098 25be 5166 7c3e 8fc3 a43e aacb c53b
00000260: 9239 de3d a3a9 af3d 1061 c63e 6342 963e
00000270: 4a56 923d 1307 d5bd ba8c 3d3e 2aaf 30be
00000280: 3ff1 6fbc 7879 923d a6f1 9abd 150d 0abe
00000290: 1b73 26bd 6ab9 64bd 4e45 bd3e 1e43 e8be
000002a0: c155 08be e376 1e3d acb9 2bbd 0d7f b63d
000002b0: b578 46be 2a44 cc3d 5373 453d fd4c 87bd
000002c0: 95e3 2a3e c8f7 573e e67a 543e 1f45 403e
000002d0: 5673 43bd f5e9 693e e617 fabc 20b2 8e3d
000002e0: e136 e6bd 5625 19be 5cd4 9ebd e5cd 033e
000002f0: c951 ef3c 5557 983d 7f70 723c d516 22bc
00000300: 09f5 173e 66ea 053e 94d2 49be 9ab2 c5be
00000310: 2697 583e ed43 9b3e dac6 cfbd c43b 37be
00000320: 0d77 d7bb 19b0 c3bd 245f 183d 4e8c ee3d
00000330: 8675 1c3d e184 d73d 32e2 2cbd 79fc c5bd
00000340: 9e55 71bd 9218 b2bc 105e 233d 5219 303d
00000350: 4e20 7ebe 7660 093e 2750 94bd 69e6 d8bd
00000360: d82f 9ebd 0b51 51be 7a89 52bd e431 03be
00000370: 10d6 17bd 13ad b7be cd82 8cbc 0df0 38be
00000380: bd53 983e a74c 9f3d d2d0 343e 8e30 2bbe
00000390: 827f 073e f335 503e 8d7a 99bc 5eb5 b7bd
000003a0: bfff 9e3d 1987 8cbd c91f 8f3e e791 853d
000003b0: 68e0 8abd e73f 9d3d 9ce1 403e 12d8 8cbe
000003c0: 20ec 153d b1bb 67be a989 153d 8917 5abc
000003d0: e141 f4bd 2111 443e 8e1d 08be 7ee9 543e
000003e0: ed62 65bb b5e0 3dbd 8018 04bd e026 e0b9
000003f0: cf6f 65bd c65e 6fbe 2aec 9ebe 7a88 b7ba

layers.0.1.weight f4 [16]
0.9695321 1.0094721 0.9994585 1.0231485 1.0279868 0.9522017 1.0379889 0.98363817
0.9963038 0.9823581 1.0055499 1.0001851 1.0176393 1.0318643 0.99390537 0.97402126
00000000: 4133 783f 6236 813f 83dc 7f3f 88f6 823f
00000010: 1295 833f 7ec3 733f d2dc 843f b6cf 7b3f
00000020: c40d 7f3f d27b 7b3f dcb5 803f 1106 803f
00000030: 0142 823f 2114 843f 9570 7e3f 7559 793f

layers.0.1.bias f4 [16]
0.00029930635 0.018362539 0.0029627795 -0.041840304 0.013024683 -0.027256606 -0.0028879605 -0.026076417
0.008800332 -0.059747275 0.018169394 0.025872193 -0.0007700443 0.023147944 0.017413149 -0.0077609364
00000000: 38ec 9c39 096d 963c 312b 423b bd60 2bbd
00000010: 7b65 553c 3f49 dfbc f043 3dbb 369e d5bc
00000020: 452f 103c 8fb9 74bd fbd7 943c ecf1 d33c
00000030: ccdc 49ba c2a0 bd3c 05a6 8e3c 744f febb

layers.0.1.running_mean f4 [16]
-99787.59 -669280.9 1.3277481e+06 -297976.1 699916.94 525297.44 -370850.06 -394110.78
-352665.3 -281936.16 385643.9 236488.23 -808482.8 622976.4 -347371.97 488101.88
00000000: cce5 c2c7 0e66 23c9 2114 a249 037f 91c8
00000010: cfe0 2a49 173f 0049 4214 b5c8 d96f c0c8
00000020: 2a33 acc8 05aa 89c8 7d4d bc48 0ff2 6648
00000030: 2d62 45c9 0618 1849 7f9d a9c8 bc54 ee48

layers.0.1.running_var f4 [16]
2.5791331e+08 3.9524419e+09 1.6932038e+10 1.3474058e+09 5.5920727e+09 2.598982e+09 1.6751508e+09 1.3073197e+09
1.0733362e+09 6.4485286e+08 1.5916635e+09 5.3083213e+08 5.636236e+09 3.8284196e+09 1.5914483e+09 2.5510246e+09
00000000: 1ef7 754d 7a95 6b4f 994e 7c50 909f a04e
00000010: 21a8 a64f 51e9 1a4f 8cb1 c74e 3bd8 9b4e
00000020: 3ee7 7f4e b2be 194e b7bd bd4e d81e fd4d
00000030: 11f9 a74f 0c31 644f 26b7 bd4e 8c0d 184f

layers.1.0.weight f4 [8, 16]
0.3192247 0.44423074 -0.33287615 -0.05097035 -0.21203302 0.09820544 -0.83986616 -0.15056317
-0.2571322 -0.22027229 0.10733662 0.2600492 -0.7454453 0.09909667 -0.5304102 -0.4418022
-0.062505856 0.2963195 -0.28271154 -0.15601546 0.089124985 0.34805486 -0.021589665 -0.3095018
-0.30531812 0.09451784 0.33233783 -0.78913397 -0.39351934 0.33597842 0.08554846 0.13830058
0.59100294 -0.31902012 0.46703258 0.80819595 -0.26190332 -0.7670546 -0.09621086 -0.17092432
-0.452847 -0.031857688 0.66401666 0.17717823 0.63162434 -0.20990166 0.18007338 0.13369167
-0.6082264 0.3904033 0.20412327 0.14327814 -0.1254064 0.17775528 -0.05629077 0.31114182
0.28002453 0.19711941 0.2389983 -0.08342508 0.12817582 0.35950986 -0.5866323 0.11033758
0.31325898 -0.59481335 -0.032937285 -0.24927914 -0.8330068 0.3582127 -0.4074006 0.13921165
-0.1797747 0.3816205 0.022084378 -0.07467282 -0.26616013 -0.25670928 0.1297347 0.15463772
-0.83612686 -0.05840104 0.42530718 -0.16313334 0.39431956 -0.20153418 0.025159158 0.54275966
0.0038362024 0.31750417 0.3657721 -0.21277738 -0.72947776 0.759792 0.100086965 0.03981387
0.83859617 -0.049151286 0.19260861 0.2174454 0.2793295 -0.19565521 -0.8002231 0.086100616
-0.076071754 -0.04782101 0.21418239 0.46833882 -0.6465433 0.5337985 -0.3635186 -0.24774449
0.096745886 0.31456104 0.11927292 0.27234715 0.46206903 -0.01637579 0.36563653 0.14999144
0.3852176 -0.075854994 0.14380537 0.1580197 0.34810346 -0.76595056 -0.11835096 0.45848265
00000000: 6b71 a33e 3672 e33e be6e aabe 49c6 50bd
00000010: 2f1f 59be ef1f c93d 7801 57bf 3b2d 1abe
00000020: d5a6 83be 0f8f 61be 4dd3 db3d 2b25 853e
00000030: 81d5 3ebf 32f3 ca3d f6c8 07bf e633 e2be
00000040: 1203 80bd 31b7 973e 91bf 90be 84c2 1fbe
00000050: 2987 b63d 3f34 b23e cfdc b0bc 0577 9ebe
00000060: a852 9cbe 9292 c13d 2f28 aa3e af04 4abf
00000070: 5e7b c9be 5d05 ac3e 0834 af3d ab9e 0d3e
00000080: f84b 173f 9b56 a3be e51e ef3e eee5 4e3f
00000090: 3118 86be b15d 44bf 330a c5bd c906 2fbe
000000a0: 90db e7be 357d 02bd fffc 293f 366e 353e
000000b0: 22b2 213f 76f0 56be 2865 383e 78e6 083e
000000c0: bab4 1bbf f1e2 c73e b105 513e 81b7 123e
000000d0: 896a 00be 7b05 363e 2791 66bd fb4d 9f3e
000000e0: 605f 8f3e acd9 493e f8bb 743e c5da aabd
000000f0: 8640 033e ad11 b83e 892d 16bf abf8 e13d
00000100: 7b63 a03e b045 18bf 3fe9 06bd 0843 7fbe
00000110: ef3f 55bf a867 b73e d096 d0be 808d 0e3e
00000120: dc16 38be c363 c33e 4cea b43c 10ee 98bd
00000130: 2446 88be 666f 83be 2cd9 043e 5a59 1e3e
00000140: 690c 56bf ee35 6fbd ddc1 d93e 6d0c 27be
00000150: 41e4 c93e fa5e 4ebe 941a ce3c 4cf2 0a3f
00000160: cc68 7b3b e88f a23e 7b46 bb3e 50e2 59be
00000170: 0ebf 3abf ba81 423f 65fa cc3d de13 233d
00000180: 3dae 563f dc52 49bd 313b 453e 02aa 5e3e
00000190: 4704 8f3e d759 48be 6cdb 4cbf 8555 b03d
000001a0: 82cb 9bbd f7df 43bd a152 5b3e 1bca ef3e
000001b0: dd83 25bf 05a7 083f 1c1f babe bbb0 7dbe
000001c0: b522 c63d 250e a13e 5c45 f43d 1671 8b3e
000001d0: 5094 ec3e 8526 86bc b634 bb3e 5b97 193e
000001e0: 3e3b c53e dd59 9bbd b741 133e ebcf 213e
000001f0: 9e3a b23e 5615 44bf fd61 f2bd 3dbe ea3e

layers.1.1.weight f4 [8]
0.9813129 1.0119998 1.0745139 0.95941037 1.0005615 0.97199965 1.0222487 1.0350993
00000000: 5237 7b3f 3689 813f ac89 893f eb9b 753f
00000010: 6612 803f f8d4 783f 0cd9 823f 227e 843f

layers.1.1.bias f4 [8]
0.032365344 -0.008413102 -0.0004759751 -0.05261434 0.048954908 -0.024315136 0.017943155 -0.06803455
00000000: 8691 043d 1bd7 09bc 4c8c f9b9 2282 57bd
00000010: f184 483d 8930 c7bc 86fd 923c b355 8bbd

layers.1.1.running_mean f4 [8]
-1.0163981 -0.23235518 0.5739976 0.4271485 -0.63973206 0.34440738 0.18019994 0.939075
00000000: 5519 82bf 84ee 6dbe 82f1 123f 35b3 da3e
00000010: 7bc5 23bf 2a56 b03e 5586 383e 3867 703f

layers.1.1.running_var f4 [8]
1.6985308 0.44084942 0.6089923 0.29521596 0.24973325 1.4634899 1.6624006 0.9868053
00000000: 7569 d93f 04b7 e13e ebe6 1b3f 8c26 973e
00000010: 13ba 7f3e a353 bb3f 8bc9 d43f 469f 7c3f

layers.2.0.weight f4 [4, 8]
-0.1354962 -0.020459855 0.33444074 0.8990053 0.085847616 0.1722972 -1.1779034 0.43773016
-0.46987578 0.18291952 -0.09043035 -0.056076154 -0.16361204 -0.3622763 -0.5787689 -0.31320074
-0.32129377 0.6035114 -0.546183 -0.11041499 -0.5818903 0.21883167 0.26105884 -0.3795423
-0.12769312 0.79251903 -0.69067365 -0.038314097 -0.055069577 0.6890918 0.48126373 -0.49869856
00000000: 84bf 0abe 6d9b a7bc d13b ab3e 3625 663f
00000010: e0d0 af3d ad6e 303e 8ac5 96bf 2b1e e03e
00000020: 8f93 f0be 414f 3b3e 8c33 b9bd 1cb0 65bd
00000030: ea89 27be 477c b9be 332a 14bf d95b a0be
00000040: 9e80 a4be b97f 1a3f a6d2 0bbf 4121 e2bd
00000050: c3f6 14bf 6915 603e 81a9 853e 5e53 c2be
00000060: fcc1 02be 87e2 4a3f fdcf 30bf 3eef 1cbd
00000070: a390 61bd 5268 303f 3368 f63e 6b55 ffbe

layers.2.1.weight f4 [4]
1.0051587 1.0043567 0.9904975 0.9943822
00000000: 0aa9 803f c38e 803f 3f91 7d3f d58f 7e3f

layers.2.1.bias f4 [4]
-0.008948943 -0.00021904672 0.034249574 -0.0053459187
00000000: 969e 12bc e8af 65b9 4849 0c3d d12c afbb

layers.2.1.running_mean f4 [4]
0.16996142 -0.7575645 -0.35095936 0.22666626
00000000: 5e0a 2e3e bfef 41bf f2b0 b3be 331b 683e

layers.2.1.running_var f4 [4]
0.8471353 0.22941428 0.97495157 2.4871943
00000000: dcdd 583f 94eb 6a3e 6d96 793f 312e 1f40

layers.3.0.weight f4 [2, 4]
0.532594 0.116817586 0.45178068 0.8757747 -1.6358356 0.6300341 2.0633202 1.0410548
00000000: 1558 083f 0f3e ef3d cc4f e73e c532 603f
00000010: 1063 d1bf ea49 213f 700d 0440 4941 853f

layers.3.1.weight f4 [2]
1.0030018 0.9880731
00000000: 5d62 803f 5cf2 7c3f

layers.3.1.bias f4 [2]
0.0136835845 0.021386307
00000000: 1d31 603c 5632 af3c

layers.3.1.running_mean f4 [2]
0.7663691 0.8499985
00000000: c430 443f 8099 593f

layers.3.1.running_var f4 [2]
0.46986803 6.086735
00000000: 8b92 f03e 88c6 c240

fc_out.weight f4 [2, 2]
-1.766449 0.72135437 -0.2978203 -1.0370375
00000000: 001b e2bf aeaa 383f e77b 98be a5bd 84bf

fc_out.bias f4 [2]
-0.026466982 0.026466982
00000000: 49d1 d8bc 49d1 d83c

exp_avg f4 [16, 66]
0.009999798 0.00021373387 0.006916106 0.016768774 0.0016434813 0.0009967934 0.0003911825 -0.00012613939
0.0011984587 0.0007857961 0.010374874 -0.0003772623 8.812059e-05 0.0002333202 0.00012756743 0.0007309671
-1.2830982e-05 0.00070398644 0.00025295847 2.8059636e-05 0.010878073 0.02249974 0.0007379752 0.0008341334
0.0011344098 -0.000971909 0.0006145834 -0.00032465195 0.00028459533 0.000841878 0.00010219997 0.00016991652
-3.4108305e-06 -0.00015080212 0.0 0.0 2.2927474e-05 0.0 0.0 0.00017404565
0.00035398238 -6.934316e-05 0.00017113402 0.0002427636 0.0001885812 0.07260894 0.059384633 0.05912558
-0.04178122 -0.041755863 -0.08355629 0.03709748 0.0419121 0.07903429 0.0058590956 -0.038198557
0.011804265 0.00074267265 0.0015882123 0.24194548 -9.7442125e-08 -4.941537e-08 -0.00021870287 -0.00019592371
-0.00041474664 0.33799845 0.00030752286 1.8213159e-05 -0.00032284023 -0.00074188615 2.991222e-05 -2.502671e-06
6.5521686e-05 8.424833e-05 2.0273012e-05 -5.0224564e-05 -0.00027918062 0.00018578777 7.852323e-05 1.702337e-05
-1.4383538e-06 2.6815149e-05 4.3109826e-06 -3.2592485e-05 -0.00014335415 2.7761189e-05 -0.0004942738 -0.0019613658
0.00010881311 2.2998414e-05 2.9422386e-06 0.00013221744 0.000110454515 0.00013870774 2.213502e-05 6.481525e-05
-2.727586e-06 4.5835273e-05 1.2147309e-06 0.00010766654 0.0 0.0 -1.7087689e-06 0.0
0.0 4.2287658e-07 -3.715578e-05 1.9667568e-06 -2.292813e-05 -3.3863787e-05 -4.521956e-05 0.022706846
0.022450479 0.022539407 0.008684986 0.008221641 0.01689106 0.004549089 0.0036802443 0.008229231
0.0011148365 0.015176206 0.026635764 0.02637506 0.026153347 0.0130679095 0.0 0.0
2.6016514e-05 2.6102301e-05 5.2131705e-05 0.0146066565 -0.0001040649 -7.3123488e-06 1.9574098e-05 0.00014851829
8.723635e-06 9.308115e-06 -9.626704e-07 -4.518958e-06 -1.2930186e-05 -3.1587802e-05 -3.815331e-05 -6.9385587e-06
-1.8437293e-06 -4.6523946e-06 5.8766346e-07 -3.2396956e-06 1.3213921e-06 9.362516e-06 -0.0001897637 -2.8925351e-06
-1.3958654e-05 0.00017358114 1.2602985e-05 -4.1950378e-07 1.87885e-05 -2.7583078e-06 -6.36533e-06 9.107728e-09
4.6145683e-06 1.4233681e-06 -3.7324557e-07 -1.2052425e-05 -2.2307796e-07 1.8836194e-05 0.0 0.0
-2.4630265e-07 0.0 0.0 8.202617e-07 -1.6328586e-06 1.5857086e-06 1.761429e-08 2.8445938e-06
-3.4137945e-06 0.00011739229 0.00048333663 0.00048476682 0.0005380497 0.0006566227 0.0011942324 -0.00053870084
-0.0005564154 -0.0010951413 4.2687945e-05 0.0015715616 -0.00017363901 0.0001381393 0.00014135969 -0.0015473159
0.0 0.0 4.0862128e-07 1.1305548e-06 1.539177e-06 -0.0022868898 -0.0009288228 -4.813593e-05
0.00043975541 0.00066836993 3.5289824e-05 -0.0001336034 2.7678661e-06 3.3691686e-05 -0.000108198044 -0.00017485302
0.0007612698 5.8064387e-07 3.2177846e-05 -4.6550285e-05 -1.3110221e-05 0.00015070378 4.7148255e-06 9.066969e-06
-0.0011416388 -5.6628418e-05 0.0006215166 0.00074451015 -0.00014630305 -0.00017432419 4.4095574e-05 6.084584e-06
1.5855747e-05 3.626445e-05 -1.0188911e-05 0.00014638937 -5.136221e-06 1.0947541e-05 3.9328393e-07 1.024411e-05
0.0 0.0 -2.0900454e-07 0.0 0.0 1.3901241e-05 -9.340718e-06 1.920048e-05
-6.1950077e-06 9.685238e-07 -6.753823e-05 -0.0064129313 -0.0038203555 -0.0037576703 -0.0014198924 -0.000852525
-0.0022715156 -0.0024709718 -0.0016265904 -0.0040999353 0.000112622176 -0.00092071865 -0.008483997 -0.0062701376
00000000: 31d6 233c c01d 6039 81a0 e23b ab5e 893c
00000010: 156a d73a d6a6 823a a017 cd39 4944 04b9
00000020: 9a15 9d3a e2fd 4d3a 60fb 293c 4acb c5b9
00000030: 62cd b838 6aa7 7439 9fc3 0539 5f9e 3f3a
00000040: a644 57b7 bb8b 383a 839f 8439 9c61 eb37
00000050: f239 323c 6051 b83c ad74 413a bfa9 5a3a
00000060: 7ab0 943a b5c7 7eba fe1b 213a 0c36 aab9
00000070: bd35 9539 7ab1 5c3a 3154 d638 9e2b 3239
00000080: 9fe5 64b6 a320 1eb9 0000 0000 0000 0000
00000090: 6054 c037 0000 0000 0000 0000 0680 3639
000000a0: b696 b939 536c 91b8 7072 3339 5c8e 7e39
000000b0: e1bd 4539 ffb3 943d 4d3d 733d aa2d 723d
000000c0: c922 2bbd 3208 2bbd 8f1f abbd 87f3 173d
000000d0: 06ac 2b3d bbdc a13d a8fd bf3b 1776 1cbd
000000e0: ad66 413c ebaf 423a 902b d03a 8ec0 773e
000000f0: 6041 d1b3 c63c 54b3 9b53 65b9 df70 4db9
00000100: 5a72 d9b9 220e ad3e 053b a139 76c8 9837
00000110: e242 a9b9 237b 42ba 01ec fa37 8ff3 27b6
00000120: b068 8938 7aae b038 f60f aa37 37a8 52b8
00000130: fd5e 92b9 06d0 4239 d7ac a438 69cd 8e37
00000140: 760d c1b5 18f1 e037 0fa7 9036 eab3 08b8
00000150: 5651 16b9 b3e0 e837 2792 01ba 428a 00bb
00000160: 9832 e438 b8ec c037 4673 4536 d9a3 0a39
00000170: d1a3 e738 1372 1139 98ae b937 6ced 8738
00000180: 920b 37b6 403f 4038 d609 a335 09cb e138
00000190: 0000 0000 0000 0000 da58 e5b5 0000 0000
000001a0: 0000 0000 b707 e334 b7d7 1bb8 a0fc 0336
000001b0: c955 c0b7 f708 0eb8 22aa 3db8 b503 ba3c
000001c0: 11ea b73c 90a4 b83c 794b 0e3c 10b4 063c
000001d0: 1f5f 8a3c 8610 953b 4130 713b e6d3 063c
000001e0: b51f 923a 9fa5 783c 3f33 da3c 8310 d83c
000001f0: 8b3f d63c c91a 563c 0000 0000 0000 0000
00000200: 0a3e da37 44f6 da37 fea7 5a38 c250 6f3c
00000210: 6b3d dab8 995c f5b6 0e33 a437 93bb 1b39
00000220: ba5b 1237 0d2a 1c37 1a35 81b5 8ea1 97b6
00000230: baee 58b7 257d 04b8 ce06 20b8 c4d1 e8b6
00000240: 0e76 f7b5 c41b 9cb6 edbf 1d35 8c69 59b6
00000250: b05a b135 b313 1d37 4efb 46b9 601d 42b6
00000260: f62f 6ab7 5503 3639 6971 5337 2938 e1b4
00000270: ff9b 9d37 5e1b 39b6 c595 d5b6 3678 1c32
00000280: d7d6 9a36 8e0a bf35 7b62 c8b4 c534 4ab7
00000290: 3487 6fb4 6b02 9e37 0000 0000 0000 0000
000002a0: 943b 84b4 0000 0000 0000 0000 f42f 5c35
000002b0: 9828 dbb5 88d4 d435 3c4e 9732 c0e5 3e36
000002c0: 8b18 65b6 8130 f638 5868 fd39 4d28 fe39
000002d0: e70b 0d3a 3421 2c3a ca87 9c3a 9a37 0dba
000002e0: 68dc 11ba d88a 8fba d50b 3338 dbfc cd3a
000002f0: de12 36b9 7cd9 1039 f439 1439 4ecf caba
00000300: 0000 0000 0000 0000 7b60 db34 91bd 9735
00000310: b895 ce35 a5df 15bb 3e7c 73ba 90e5 49b8
00000320: f98e e639 8c35 2f3a 2904 1438 e417 0cb9
00000330: 94bf 3936 2c50 0d38 62e8 e2b8 c058 37b9
00000340: f48f 473a 8bdd 1b35 b3f6 0638 fd3e 43b8
00000350: f8f3 5bb7 3d06 1e39 0b34 9e36 561e 1837
00000360: 0ba3 95ba 4d84 6db8 46ed 223a 3b2b 433a
00000370: ed68 19b9 cbca 36b9 43f3 3838 2e2a cc36
00000380: f501 8537 a81a 1838 0af1 2ab7 1980 1939
00000390: cd57 acb6 55ab 3737 8824 d334 1ede 2b37
000003a0: 0000 0000 0000 0000 bb6a 60b4 0000 0000
000003b0: 0000 0000 6039 6937 14b6 1cb7 b810 a137
000003c0: b6de cfb6 39fe 8135 50a3 8db8 9123 d2bb
000003d0: ee5e 7abb 3f43 76bb af1b baba fc7b 5fba
000003e0: b5dd 14bb 07f0 21bb 5133 d5ba c058 86bb
000003f0: 922f ec38 625c 71ba 7600 0bbc ba75 cdbb

exp_avg_sq f4 [16, 66]
1.2553154e-05 2.3232714e-08 1.6251048e-05 0.0001012456 4.5133775e-06 3.1263755e-07 2.8036726e-07 5.2480747e-08
1.08722695e-07 1.1953199e-07 1.7655428e-05 1.5199268e-07 4.737973e-08 4.695758e-08 6.925538e-08 5.778257e-07
9.708089e-10 6.5421695e-08 7.906204e-06 2.622361e-08 2.2503025e-05 9.5643176e-05 2.0156451e-06 4.683594e-07
2.4303884e-07 7.272711e-08 2.7177762e-07 3.2791945e-08 1.7776797e-08 5.462304e-07 1.6171294e-09 9.316127e-08
3.7875494e-10 1.6963494e-07 0.0 0.0 1.4203787e-10 0.0 0.0 2.7603122e-09
3.2930522e-08 2.1820544e-08 9.984584e-08 8.7953644e-08 6.756552e-08 0.04749133 0.04628504 0.04610028
0.0027178326 0.0028332595 0.011097845 0.00178605 0.0015750336 0.0067055793 6.357342e-05 0.016477486
0.03773784 0.03668307 0.03668338 0.07184816 1.2161145e-15 5.4585995e-16 1.4485803e-09 1.3309642e-09
5.3141394e-09 0.06430583 8.473223e-08 2.8236533e-10 2.0057909e-08 2.0929295e-07 6.4358527e-09 2.0090392e-09
4.407602e-09 7.6218937e-10 8.345959e-10 2.5485063e-09 1.7626038e-08 1.3986649e-09 3.8053752e-10 2.7392977e-10
1.4256334e-10 8.8891133e-10 1.0150008e-11 3.4974237e-10 1.3769913e-07 2.1337407e-10 2.2041853e-08 2.4512826e-07
3.307389e-09 1.7442976e-09 3.0274085e-09 7.237669e-10 1.3034419e-09 9.02638e-10 1.10497694e-10 1.3263407e-09
2.1193856e-11 6.579276e-10 4.1647154e-13 3.142497e-09 0.0 0.0 3.1836393e-12 0.0
0.0 1.8558302e-11 1.9502613e-10 8.127958e-11 1.07029684e-10 1.13413244e-10 1.7336324e-10 3.5388595e-05
3.748566e-05 3.7663613e-05 6.233112e-06 6.6569855e-06 2.565879e-05 1.5494678e-06 1.4768464e-06 5.907783e-06
1.9213773e-07 3.1245516e-05 3.579504e-05 3.788241e-05 3.7526388e-05 1.7803302e-05 0.0 0.0
2.1005718e-11 2.8211187e-11 9.62011e-11 3.1593674e-05 5.4072895e-08 2.1619227e-11 3.0609706e-09 3.0245523e-08
1.3724913e-09 5.797267e-10 7.6489687e-10 9.976932e-11 1.2997455e-10 3.5164777e-10 1.1400058e-08 6.4340616e-10
9.4113696e-11 9.3455015e-11 3.7812854e-11 4.7185594e-10 2.3202618e-12 9.9179116e-11 5.122362e-08 7.679456e-11
3.3153877e-09 2.4497426e-08 1.3993599e-09 5.1672916e-10 9.458098e-10 7.6413e-11 5.896453e-10 4.7219867e-11
2.8418719e-11 3.3286365e-10 7.1184573e-12 1.5044352e-10 1.8048823e-13 5.402789e-10 0.0 0.0
2.143419e-13 0.0 0.0 2.5745227e-11 1.4657078e-10 1.2917355e-11 8.231778e-11 1.0516661e-10
8.099327e-11 6.071897e-07 7.533923e-07 7.573216e-07 1.7900453e-07 2.2008379e-07 7.8258984e-07 4.7537807e-07
5.1444846e-07 1.9644206e-06 3.9259746e-08 8.91014e-07 8.939603e-07 8.966123e-07 8.907401e-07 2.7984847e-06
0.0 0.0 1.7292316e-12 1.0088017e-12 4.1263837e-12 1.7457709e-06 1.4121504e-06 4.5815756e-09
2.2127264e-07 6.1012056e-06 9.764703e-08 3.953737e-08 7.078178e-08 1.0002159e-08 1.6137642e-08 1.2982835e-08
1.1808826e-06 3.6075267e-08 5.4629585e-09 4.8554925e-09 1.948894e-09 4.4751268e-08 1.1611847e-10 1.1977911e-08
1.3138982e-06 4.225375e-09 2.0560675e-07 5.4062557e-06 9.5202005e-08 3.435969e-08 6.401637e-08 5.166356e-09
2.9100217e-08 8.608851e-09 6.080682e-10 4.0868564e-08 1.4482558e-10 2.6380702e-08 7.2067065e-13 2.9588938e-08
0.0 0.0 8.939529e-12 0.0 0.0 5.9579314e-10 3.4051746e-09 1.3927558e-09
1.2303313e-09 6.23096e-10 2.1471018e-09 0.0013143965 0.0012546896 0.0012562667 4.618859e-05 4.7363155e-05
0.00018614027 8.177476e-05 6.869682e-05 0.00029989882 5.6066383e-06 0.00035179828 0.0010220764 0.00097277586
00000000: 639b 5237 4791 c732 dc52 8837 d153 d438
00000010: 9e71 9736 94d8 a734 6285 9634 3167 6133
00000020: ef7a e933 b458 0034 be1a 9437 6e33 2334
00000030: 907e 4b33 68ae 4933 8cb9 9433 e11b 1b35
00000040: 4d6d 8530 f57d 8c33 e3a4 0437 5442 e132
00000050: e1c4 bc37 0a94 c838 8544 0736 d372 fb34
00000060: 017b 8234 272e 9c33 d5e8 9134 20d7 0c33
00000070: 97b3 9832 aba0 1235 af41 de30 f30f c833
00000080: 0539 d02f e624 3634 0000 0000 0000 0000
00000090: 1b2c 1c2f 0000 0000 0000 0000 edaf 3d31
000000a0: 7e6f 0d33 e26f bb32 d56a d633 07e1 bc33
000000b0: 8a18 9133 4586 423d 6295 3d3d a6d3 3c3d
000000c0: aa1d 323b 35ae 393b bcd3 353c e519 ea3a
000000d0: 5c71 ce3a 7aba db3b b852 8538 cbfb 863c
000000e0: fe92 1a3d fd40 163d 5041 163d 2125 933d
000000f0: b542 af26 5b55 1d26 6317 c730 24ed b630
00000100: aa97 b631 c6b2 833d 09f6 b533 633b 9b2f
00000110: cf4b ac32 02ba 6034 5c22 dd31 640f 0a31
00000120: ad71 9731 4f82 5130 7769 6530 cc21 2f31
00000130: 1168 9732 253b c030 e533 d12f 3098 962f
00000140: 03c0 1c2f 9357 7430 928f 322d dd45 c02f
00000150: 73da 1334 769b 6a2f 8c56 bd32 2c9a 8334
00000160: 3448 6331 04bc ef30 bc0a 5031 91f2 4630
00000170: c924 b330 811d 7830 acfc f22e 774a b630
00000180: 526c ba2d 8ad9 3430 e073 ea2a 64f3 5731
00000190: 0000 0000 0000 0000 5907 602c 0000 0000
000001a0: 0000 0000 953d a32d fa6e 562f 56bc b22e
000001b0: 5b5c eb2e fb65 f92e 6a9d 3e2f 376e 1438
000001c0: ec39 1d38 fff8 1d38 0626 d136 125f df36
000001d0: d53d d737 4ff7 cf35 0e38 c635 783b c636
000001e0: 6b4e 4e34 9e0d 0338 a222 1638 eee3 1e38
000001f0: a765 1d38 4d58 9537 0000 0000 0000 0000
00000200: acc4 b82d f225 f82d 688c d32e 7383 0438
00000210: c73d 6833 2c2a be2d 2a59 5231 4ee7 0133
00000220: 3fa2 bc30 a45a 1f30 d540 5230 2265 db2e
00000230: 95e8 0e2f 0652 c12f fcd9 4332 afdb 3030
00000240: 4df5 ce2e 7f82 cd2e 7d4d 262e e9b3 0130
00000250: 1f46 232c e118 da2e f700 5c33 7edf a82e
00000260: ebd4 6331 696e d232 9953 c030 9509 0e30
00000270: b9fd 8130 b208 a82e 9914 2230 d8ac 4f2e
00000280: 44f9 f92d 65fe b62f 5d75 fa2c 166a 252f
00000290: 3136 4b2a bf82 1430 0000 0000 0000 0000
000002a0: d953 712a 0000 0000 0000 0000 1975 e22d
000002b0: 0228 212f 983e 632d ca04 b52e 8a43 e72e
000002c0: 281b b22e c2fd 2235 ba3c 4a35 be4a 4b35
000002d0: 6434 4034 2c50 6c34 2a13 5235 7737 ff34
000002e0: a118 0a35 7dd4 0336 8c9e 2833 042e 6f35
000002f0: 7cf8 6f35 baae 7035 321b 6f35 9acd 3b36
00000300: 0000 0000 0000 0000 225e f32b e9f9 8d2b
00000310: 292f 912c 3b50 ea35 1e89 bd35 f76b 9d31
00000320: f696 6d34 f5b8 cc36 06b2 d133 cccf 2933
00000330: b200 9833 f6d5 2b32 0d9f 8a32 1d0b 5f32
00000340: d17e 9e35 2df1 1a33 b1b4 bb31 5dd5 a631
00000350: 4eed 0531 8a34 4033 e358 ff2e 69c7 4d32
00000360: 3359 b035 cb2e 9131 c1c4 5c34 6267 b536
00000370: db71 cc33 e192 1333 5f79 8933 bf83 b131
00000380: 0ef8 f932 21e6 1332 ff24 2730 7687 2f33
00000390: c73c 1f2f c79b e232 cbd9 4a2b c32a fe32
000003a0: 0000 0000 0000 0000 0f44 1d2d 0000 0000
000003b0: 0000 0000 37c5 2330 7700 6a31 3d6b bf30
000003c0: 6f18 a930 7c46 2b30 378c 1331 d447 ac3a
000003d0: 6674 a43a 51a9 a43a 9fba 4138 cda7 4638
000003e0: a62e 4339 7d7e ab38 5311 9038 bd3b 9d39
000003f0: a820 bc36 9171 b839 31f7 853a e201 7f3a

exp_avg f4 [16]
0.010126306 0.012889623 -0.00910167 -0.00025332195 -0.0003346513 0.0007474151 -0.0121285375 0.0059358072
-0.0037204686 0.0034471028 0.0048084003 -0.008568735 -0.003918241 0.0037521995 -0.0010184612 -0.0017942158
00000000: cee8 253c ff2e 533c 2c1f 15bc 4cd0 84b9
00000010: 2374 afb9 2eee 433a c6b6 46bc 2981 c23b
00000020: 1bd3 73bb cae8 613b c98f 9d3b e163 0cbc
00000030: 9664 80bb 76e7 753b e37d 85ba e42b ebba

exp_avg_sq f4 [16]
8.469545e-05 2.7930751e-05 1.3968481e-05 1.0221352e-05 8.385089e-05 3.581211e-05 2.624212e-05 8.9600326e-05
4.2840045e-05 1.7295728e-05 1.7837421e-05 6.174934e-05 7.550463e-05 0.00029882672 1.5290987e-05 0.00014430289
00000000: 869e b138 d54c ea37 2b5a 6a37 5f7c 2b37
00000010: 1bd9 af38 f634 1638 8622 dc37 cfe7 bb38
00000020: 26af 3338 4b16 9137 92a1 9537 6d7f 8138
00000030: 3d58 9e38 d8ab 9c39 2545 8037 0350 1739

exp_avg f4 [16]
-0.00947691 0.005029184 -0.0061140005 -2.867712e-05 -0.0021088657 0.0061040814 -0.011319659 0.012459586
-0.0040095467 0.007517622 0.00031544236 0.0011083636 0.0020942404 -0.0072637666 0.0010533466 0.008074461
00000000: 0b45 1bbc dacb a43b f457 c8bb a58f f0b7
00000010: e534 0abb bf04 c83b 1776 39bc 4b23 4c3c
00000020: 8462 83bb 6256 f63b f561 a539 8346 913a
00000030: 863f 093b e404 eebb 7210 8a3a be4a 043c

exp_avg_sq f4 [16]
0.00027330185 5.75117e-05 2.2347693e-05 2.051366e-05 0.00013645599 2.7632852e-05 6.201482e-05 3.472979e-05
4.4624176e-05 4.150265e-05 1.7103946e-05 6.8455716e-05 7.41572e-05 0.00013474227 1.3207371e-05 3.4400513e-05
00000000: f449 8f39 b838 7138 4e77 bb37 c014 ac37
00000010: a015 0f39 19cd e737 f40d 8238 d4aa 1138
00000020: d82a 3b38 2213 2e38 727a 8f37 e28f 8f38
00000030: d884 9b38 9a49 0d39 3a95 5d37 4549 1038

exp_avg f4 [8, 16]
0.002450468 0.0012739468 9.2089285e-05 0.0017600072 0.0023937034 0.0009920369 0.0012685006 -0.0005257736
-0.0004024243 -0.0004127831 -0.0003603755 0.00032223822 -0.00051783916 -0.0014757115 0.0015161497 -0.000883842
-0.006886943 -0.0030019495 0.011873961 -0.0010776208 0.0048417044 0.0100883525 -0.0014290948 -0.0013024852
-0.0013428322 -0.00046925602 0.009702701 0.016414674 -0.00049241254 0.01684673 -0.0004932464 0.014197143
0.00039560292 0.0030329884 0.00029657822 0.0019482159 0.0005997754 0.00034007084 0.002871278 0.0031779965
0.0043931804 0.0018151328 0.0007093346 -0.0023202724 0.0027737874 -6.12129e-05 -0.00044898575 0.00031974274
-0.0058586895 0.02080811 -0.028442573 -0.0034593192 0.00515331 -0.024118695 -0.0045377375 0.012085238
-0.0038447352 0.022720087 0.0009636455 -0.026154427 0.0017806938 -0.026576342 -0.00050127174 -0.019660503
-0.0048664333 -0.0069431188 0.008257544 6.38605e-06 0.004859279 0.0082708355 -0.002760196 -0.008000179
-0.0088895615 -0.009525726 -0.0022844535 0.011942503 -0.006186787 0.0020959717 5.249994e-05 0.0020421776
0.00030972384 0.0068981107 -0.0043239146 0.0011086067 0.0016566857 -0.0036850288 0.001168651 0.0041863057
0.0014065967 0.006351189 0.00075295137 -0.0015885422 0.0021602004 -0.0030359237 0.0014911926 -0.0025450126
0.009007364 -0.0060632033 0.012665213 0.006856528 -0.004912521 0.012603049 0.01077801 0.0003238638
0.01165297 -0.008263323 -0.0038379666 0.008429683 0.008155575 0.012253302 0.0041841716 0.00864524
-0.011448044 0.006836589 -0.0051250774 -0.0103245415 0.011202905 -0.003992193 -0.011319285 0.003938858
-0.005475287 0.005955755 0.009975324 -0.007574669 -0.004284483 -0.004754087 -0.007897345 -0.0007230774
00000000: 0898 203b 90fa a63a 0f20 c138 0bb0 e63a
00000010: aedf 1c3b 3c07 823a d143 a63a 12d4 09ba
00000020: 7afc d2b9 cf6a d8b9 c8f0 bcb9 15f2 a839
00000030: 99bf 07ba a96c c1ba 8bb9 c63a a2b1 67ba
00000040: ddab e1bb 5bbc 44bb 018b 423c f43e 8dba
00000050: 29a7 9e3b 9e49 253c 7750 bbba 27b8 aaba
00000060: f901 b0ba 7a06 f6b9 14f8 1e3c 1178 863c
00000070: 3f15 01ba 2702 8a3c 354d 01ba 229b 683c
00000080: ed68 cf39 1ac5 463b 0e7e 9b39 475b ff3a
00000090: 3f3a 1d3a 894b b239 0d2c 3c3b ef45 503b
000000a0: abf4 8f3b c0e9 ed3a a4f2 393a b60f 18bb
000000b0: 6ec8 353b 6d5f 80b8 d965 ebb9 25a3 a739
000000c0: 40fa bfbb c575 aa3c 6600 e9bc bfb5 62bb
000000d0: 19dd a83b 9294 c5bc 4db1 94bb 2901 463c
000000e0: f4f7 7bbb 7a1f ba3c 289d 7c3a cf41 d6bc
000000f0: 2b66 e93a a1b6 d9bc c767 03ba 100f a1bc
00000100: 9a76 9fbb 1a83 e3bb a64a 073c c047 d636
00000110: 963a 9f3b 6682 073c 68e4 34bb 2f13 03bc
00000120: 86a5 11bc ca11 1cbc c5b6 15bb 7daa 433c
00000130: 88ba cabb 925c 093b 6233 5c38 0ed6 053b
00000140: 6e62 a239 8c09 e23b a0af 8dbb ab4e 913a
00000150: 2625 d93a 8680 71bb 6c2d 993a 472d 893b
00000160: 8e5d b83a a31d d03b b661 453a a236 d0ba
00000170: 2692 0d3b 59f6 46bb 1f74 c33a 3aca 26bb
00000180: 9f93 133c d6ad c6bb c181 4f3c baac e03b
00000190: 37f9 a0bb 057d 4e3c 4096 303c 43cc a939
000001a0: 19ec 3e3c e462 07bc 6586 7bbb a71c 0a3c
000001b0: f69e 053c 13c2 483c 601b 893b c4a4 0d3c
000001c0: 9490 3bbc 7705 e03b 44f0 a7bb 4428 29bc
000001d0: 648c 373c f1d0 82bb 8674 39bc 8911 813b
000001e0: 096a b3bb 7e28 c33b 8b6f 233c ee34 f8bb
000001f0: d964 8cbb 2cc8 9bbb de63 01bc e78c 3dba

exp_avg_sq f4 [8, 16]
1.1432209e-05 1.4332804e-05 1.6866235e-05 5.7290176e-06 1.6468746e-05 1.4673115e-05 1.6014719e-06 2.1533238e-05
1.8245393e-05 1.2060169e-05 2.1610686e-05 1.2850295e-05 6.8402455e-06 1.9692785e-05 1.1688543e-06 1.760163e-05
8.281872e-05 0.00013886936 9.410122e-05 2.0352785e-05 8.660885e-05 8.5815045e-05 0.00021019504 0.00013452067
5.3303957e-05 6.5486405e-05 9.495057e-05 9.996613e-05 0.0001484654 0.00012927243 0.00035584765 8.626413e-05
6.0424827e-06 1.4689284e-05 4.6458654e-06 4.997376e-06 4.491132e-06 4.6524387e-06 8.916394e-06 1.1638238e-05
1.19925135e-05 8.08483e-06 5.73472e-06 7.695063e-06 1.4610489e-05 5.297243e-06 8.955029e-06 4.7452995e-06
1.6253694e-05 0.000109136025 9.9806355e-05 4.5772078e-05 5.9723607e-05 6.9796755e-05 5.513353e-05 7.86001e-05
0.00011154601 0.00012805393 8.142476e-05 0.00013581173 8.198237e-05 5.764159e-05 4.6536417e-05 0.00010220758
5.415621e-05 3.1162814e-05 0.00012520509 2.273012e-05 0.00011737588 0.00011213524 1.6298234e-05 0.00040636308
7.2532705e-05 7.3415045e-05 0.00013120237 8.783681e-05 4.018377e-05 0.00015772354 2.97938e-05 0.00013950326
1.0668839e-06 2.6418122e-06 1.5760926e-06 1.5640641e-06 1.6087866e-06 1.307395e-06 1.4603257e-06 3.0146898e-06
9.850073e-07 2.4329008e-06 1.0848884e-06 3.2047385e-06 1.4239603e-06 1.5283957e-06 1.3744608e-06 1.2231775e-06
5.0454943e-05 9.921455e-06 0.00012141933 2.4359917e-05 5.8130798e-05 7.00237e-05 1.3808187e-05 0.0001251087
2.2266397e-05 4.538304e-05 6.9376125e-05 0.0001324699 8.27974e-06 8.399806e-05 1.8518438e-05 0.00014045154
0.00010564868 7.176034e-05 0.00019777077 7.440173e-05 0.00014854518 0.00015177294 9.6619544e-05 0.00022285763
0.00010528461 6.907563e-05 0.00013913093 0.00016414844 7.514501e-05 0.00020027917 9.277013e-05 0.00019304703
00000000: f7cc 3f37 ed76 7037 f77b 8d37 e33b c036
00000010: 5d26 8a37 8d2c 7637 28f2 d635 47a2 b437
00000020: af0d 9937 0856 4a37 9848 b537 9997 5737
00000030: 4385 e536 ef31 a537 87e1 9c35 36a7 9337
00000040: f6ae ad38 769d 1139 3558 c538 46bb aa37
00000050: c6a1 b538 9af7 b338 cd67 5c39 1e0e 0d39
00000060: b092 5f38 bf55 8938 3320 c738 e8a4 d138
00000070: 61ad 1b39 4e8d 0739 1091 ba39 b4e8 b438
00000080: 88c0 ca36 ff71 7637 aee3 9b36 22af a736
00000090: 88b2 9636 251c 9c36 9f97 1537 da41 4337
000000a0: 7433 4937 15a4 0737 df6c c036 0b1a 0137
000000b0: 931f 7537 f9be b136 8f3d 1637 d039 9f36
000000c0: 8b58 8837 f5df e438 214f d138 65fb 3f38
000000d0: bc7f 7a38 d95f 9238 2d3f 6738 1bd6 a438
000000e0: cfed e938 3746 0639 96c2 aa38 af68 0e39
000000f0: f3ed ab38 30c4 7138 1930 4338 4758 d638
00000100: ca25 6338 d1b4 0238 7c49 0339 90ac be37
00000110: b227 f638 262a eb38 31b8 8837 210d d539
00000120: b31c 9838 67f6 9938 5e93 0939 0735 b838
00000130: ff8a 2838 9762 2539 b3ed f937 9f47 1239
00000140: da31 8f35 fd49 3136 218a d335 d5ec d135
00000150: 7ded d735 c079 af35 6900 c435 fa4f 4a36
00000160: 9834 8435 eb44 2336 7b9c 9135 fd10 5736
00000170: e71e bf35 4723 cd35 1d7a b835 0f2c a435
00000180: 959f 5338 5374 2637 82a2 fe38 8658 cc37
00000190: 78d1 7338 b0d9 9238 b6a9 6737 9c2f 0339
000001a0: b9c8 ba37 ab59 3e38 067e 9138 9ee7 0a39
000001b0: 36e9 0a37 1d28 b038 0b58 9b37 2c46 1339
000001c0: b48f dd38 0a7e 9638 b060 4f39 2008 9c38
000001d0: cbc2 1b39 3d25 1f39 39a0 ca38 e4ae 6939
000001e0: 3fcc dc38 b2dc 9038 ade3 1139 431f 2c39
000001f0: 2c97 9d38 0802 5239 968d c238 ab6c 4a39

exp_avg f4 [8]
-0.0020512936 0.002947995 -0.011456516 0.011829666 -0.0063710944 0.009081873 0.0038670204 -0.0046959757
00000000: ff6e 06bb 2633 413b 1cb4 3bbc 37d1 413c
00000010: 9dc4 d0bb 23cc 143c d66d 7d3b b3e0 99bb

exp_avg_sq f4 [8]
1.348168e-05 3.719184e-05 1.9898109e-05 0.0003307755 2.709835e-05 2.5509633e-05 0.0001971939 3.7929956e-05
00000000: 602f 6237 6ffe 1b38 ddea a637 f06b ad39
00000010: 4351 e337 85fd d537 d6c5 4e39 fb16 1f38

exp_avg f4 [8]
-0.007036401 0.0075844703 -0.004169328 0.013673468 0.0008649315 0.0046286536 -0.019604044 0.009023896
00000000: 9c91 e6bb 2687 f83b dc9e 88bb ae06 603c
00000010: 92bc 623a f6ab 973b a998 a0bc f7d8 133c

exp_avg_sq f4 [8]
2.4306599e-05 3.4799003e-05 3.9980663e-05 8.26689e-05 3.427175e-05 1.0886607e-05 0.00021104819 4.6698777e-05
00000000: 06e6 cb37 25f5 1138 e9b0 2738 875e ad38
00000010: 03bf 0f38 9fa5 3637 d14c 5d39 6ede 4338

exp_avg f4 [4, 8]
0.012973754 0.025404159 -0.020918913 0.012457797 -0.0019083407 0.008105633 3.3305645e-05 -0.007886376
-9.489205e-05 -0.0071461964 0.012034218 -0.009591454 0.008265686 -0.0065746857 -0.0027600306 0.0036500893
0.0021167097 0.008221368 0.0069585033 0.008511288 0.00878773 0.012929998 0.011298973 0.0014116762
-0.00081234064 -0.0003886084 0.00078635226 0.0061209803 -0.0036207717 0.0029799426 -0.0019925935 0.00070491
00000000: de8f 543c 621c d03c 245e abbc ca1b 4c3c
00000010: 4a21 faba 7dcd 043c aab1 0b38 dc35 01bc
00000020: c800 c7b8 a42a eabb 2b2b 453c 7925 1dbc
00000030: cd6c 073c 7670 d7bb a1e1 34bb 5636 6f3b
00000040: 7fb8 0a3b ebb2 063c 2804 e43b ee72 0b3c
00000050: 69fa 0f3c 58d8 533c 541f 393c fe07 b93a
00000060: 42f3 54ba 23be cbb9 3523 4e3a 8192 c83b
00000070: 784a 6dbb 244b 433b 2c96 02bb b6c9 383a

exp_avg_sq f4 [4, 8]
1.9459241e-05 0.0002842186 0.00028424273 0.00032443335 0.00012311913 0.00031043883 0.00010131077 0.00026576984
7.293738e-06 1.0286525e-05 4.3813958e-05 3.4765628e-05 1.27970725e-05 8.723983e-06 5.925157e-06 3.0517946e-05
6.4399734e-05 0.00013151662 2.3452174e-05 0.00017797144 6.577464e-05 0.00020315581 0.00014988106 3.5157278e-05
5.1248244e-06 1.9602441e-05 1.6661274e-06 1.7966948e-05 2.1049887e-05 1.4993426e-05 1.06020525e-05 4.3305113e-06
00000000: 673c a337 2d03 9539 6a06 9539 b518 aa39
00000010: 8a19 0139 65c2 a239 ce76 d438 0657 8b39
00000020: bbbc f436 4a94 2c37 e1c4 3738 4fd1 1138
00000030: 02b3 5637 395d 1237 b6d0 c636 6500 0038
00000040: 580e 8738 b9e7 0939 29bb c437 d89d 3a39
00000050: 7ef0 8938 3906 5539 6429 1d39 d775 1338
00000060: e8f5 ab36 ec6f a437 b49f df35 bab7 9637
00000070: 4a94 b037 468c 7b37 78df 3137 cf4e 9136

exp_avg f4 [4]
0.023243606 -0.00967602 0.00065700954 -0.014130754
00000000: 6069 be3c 2b88 1ebc 2a3b 2c3a ae84 67bc

exp_avg_sq f4 [4]
0.00019136342 2.6507323e-05 4.5544482e-05 8.042503e-05
00000000: baa8 4839 0b5c de37 0407 3f38 dca9 a838

exp_avg f4 [4]
0.02657096 -0.007069091 -0.018095776 -0.018953107
00000000: 58ab d93c d5a3 e7bb 983d 94bc 8c43 9bbc

exp_avg_sq f4 [4]
0.0001480194 9.051245e-06 6.6449385e-05 0.0001181317
00000000: a835 1b39 cdda 1737 be5a 8b38 79bd f738

exp_avg f4 [2, 4]
0.06582027 -0.0018815955 -0.027968256 -0.025958477 0.007367133 -0.015063597 0.006115883 0.008409426
00000000: c7cc 863d de9f f6ba af1d e5bc dfa6 d4bc
00000010: fe67 f13b 4ecd 76bc bf67 c83b b0c7 093c

exp_avg_sq f4 [2, 4]
0.0006199905 0.00018578948 0.00012175691 0.00010204355 1.5547981e-05 7.933021e-05 6.5307245e-06 1.9693342e-05
00000000: dc86 223a 7cd0 4239 be57 ff38 3700 d638
00000010: 096d 8237 155e a638 7f22 db36 2133 a537

exp_avg f4 [2]
-0.073285796 0.10422351
00000000: dd16 96bd 2373 d53d

exp_avg_sq f4 [2]
0.00047537667 0.0009741179
00000000: fa3b f939 f25b 7f3a

exp_avg f4 [2]
-0.038391847 0.028406577
00000000: c540 1dbd e9b4 e83c

exp_avg_sq f4 [2]
0.0005447334 0.00065215887
00000000: 71cc 0e3a a4f5 2a3a

exp_avg f4 [2, 2]
0.050389312 0.058895893 -0.050389312 -0.058895893
00000000: 0665 4e3d d23c 713d 0665 4ebd d23c 71bd

exp_avg_sq f4 [2, 2]
0.00022477414 0.00030711578 0.00022477414 0.00030711578
00000000: 59b1 6b39 6204 a139 59b1 6b39 6204 a139

exp_avg f4 [2]
-0.038126983 0.038126983
00000000: 0a2b 1cbd 0a2b 1c3d

exp_avg_sq f4 [2]
0.00030505974 0.00030505974
00000000: 6df0 9f39 6df0 9f39
