pooled_log/best_2.pt (torch, 13693 bytes, 22 tensors)

module.layers.0.0.weight f4 [16, 66]
0	0xbd9e3262	-0.077244535
1	0xbe5cb547	-0.21553527
2	0x3e612340	0.21986103
3	0xbca81031	-0.020515533
4	0xbdbd9e82	-0.092587486
5	0x3ea8fdc7	0.33006117
6	0x3dd78d2d	0.10524974
7	0x3ae8669a	0.0017730773
8	0xbe5688ce	-0.20950624
9	0x3dc37eba	0.095456555
10	0xbd076180	-0.033051968
11	0xbe69f89e	-0.22848746
12	0xbc4dfc87	-0.012572414
13	0xbd5ec5a4	-0.054387704
14	0x3e72543c	0.23664945
15	0x3dfc583d	0.123215176
16	0x3e0f4b06	0.13993463
17	0xbe5bdc8e	-0.21470854
18	0xbe46a031	-0.19397046
19	0x3eb77a24	0.35835373
20	0x3e0d1e0a	0.1378099
21	0xbe170965	-0.14749677
22	0xbd38449e	-0.044987313
23	0xbe8e4f95	-0.2779509
24	0x3e675dfa	0.22594443
25	0xbe4011be	-0.18756768
26	0x3d2e4c05	0.042552967
27	0xbe675a21	-0.22592975
28	0xbdbb23c5	-0.09137682
29	0xbe3d677e	-0.1849651
30	0xbccbf07f	-0.02489495
31	0x3e1f362f	0.15548013
32	0xbde295e7	-0.11063748
33	0x3e4c3c82	0.19944957
34	0xbd3da418	-0.04629907
35	0x3ce2d893	0.027691161
36	0x3e8e16d7	0.277518
37	0x3c0e40c8	0.008682437
38	0x3e3e176e	0.18563625
39	0x3e2ed0bd	0.17071815
40	0x3d1ce3fe	0.038303368
41	0x3be251a7	0.0069067064
42	0x3d0eafa3	0.03483547
43	0x3deb9d75	0.11504642
44	0xbd705d26	-0.058682583
45	0xbdc22577	-0.09479802
46	0xbe332ff8	-0.17498767
47	0x3de7d947	0.11320739
48	0x3e8429f7	0.25813267
49	0xbe06e56b	-0.13173454
50	0x3db61237	0.08890193
51	0x3cd8b864	0.026455112
52	0x3dc83c1c	0.0977709
53	0xbe8898dd	-0.26679125
54	0xbb98b92f	-0.0046607475
55	0x3dd948c5	0.10609583
56	0x3dc83f2e	0.097776756
57	0xbe68a6b9	-0.2271985
58	0xbcaff0f2	-0.021477196
59	0xbcd62451	-0.026140364
60	0x3bdf461a	0.0068137767
61	0x3e202f00	0.15642929
62	0xbd20a38d	-0.039218474
63	0xbcf115e0	-0.029429376
64	0xbc939a55	-0.018017927
65	0x3df0b4d0	0.11753237
66	0x3e1ca932	0.15298918
67	0xbd563f97	-0.052306738
68	0xbdcf14d0	-0.101113915
69	0x3ebc4908	0.36774468
70	0x3e4bf157	0.19916283
71	0x3eb776bc	0.35832775
72	0xbe1be17d	-0.15222736
73	0xbe1c52ad	-0.15265913
74	0x3ddb818b	0.10718068
75	0xbdaaf59a	-0.08347626
76	0xbd0bcef6	-0.03413292
77	0x3d9a59b0	0.07536638
78	0x3e090881	0.1338215
79	0xbc1dad6f	-0.009623869
80	0xbdc85abd	-0.09782932
81	0x3dab89a9	0.08375866
82	0xbdc3489f	-0.09535336
83	0x3e248f61	0.1607032
84	0xbd46465f	-0.048406955
85	0x3c8932b0	0.016747802
86	0xbdc43165	-0.09579734
87	0x3e2985cc	0.16554946
88	0xbe794486	-0.24342546
89	0x3da2d922	0.07951571
90	0x3d75fba7	0.060054448
91	0xbe95818c	-0.292004
92	0x3ec3a9ab	0.38215384
93	0x3e950493	0.29105052
94	0xbda8d62b	-0.08243974
95	0x3e961654	0.2931391
96	0x3e84e0e6	0.25952834
97	0xbdb88c2d	-0.090111114
98	0x3de71a30	0.11284292
99	0x3dfa324f	0.12216627
100	0x3d272500	0.04080677
101	0xbbbac819	-0.005700123
102	0xbe9703e5	-0.2949516
103	0xbe1b0b74	-0.15141088
104	0xbe171ca2	-0.14757016
105	0xbe1ee651	-0.15517546
106	0xbd83d440	-0.06436968
107	0x3e80d52c	0.25162637
108	0x3dbd6db1	0.092494376
109	0xbd382520	-0.04495728
110	0x3da88c73	0.082299136
111	0xbe953b80	-0.29146957
112	0xbeaa33d7	-0.33242676
113	0x3e869bf7	0.26290867
114	0xbdfc5ce1	-0.12322403
115	0x3d87067a	0.06593032
116	0x3e2c4433	0.16822891
117	0xbd0fb599	-0.035085294
118	0xbe02ba93	-0.12766485
119	0xbbfb4c53	-0.0076690107
120	0xbe942ba2	-0.2893954
121	0x3e925303	0.28578958
122	0x3d0324eb	0.03201763
123	0x3e404e62	0.187799
124	0x3db7d374	0.08975878
125	0xbea20f42	-0.31652266
126	0xbe4ae0a6	-0.19812259
127	0xbb55ee04	-0.003264309
128	0x3dfc8405	0.12329868
129	0xbd01747c	-0.03160523
130	0xbdcd10ff	-0.100130074
131	0xbe4833cc	-0.19551009
132	0x3ebc143d	0.3673419
133	0xbe915051	-0.2838159
134	0x3c9f850f	0.019472627
135	0x3d63df52	0.055632897
136	0xbe288090	-0.16455293
137	0x3e74d2c6	0.23908529
138	0x3eb72d40	0.3577671
139	0x3ec568d9	0.38556555
140	0x3eabae08	0.33531213
141	0x3d2f1c21	0.042751435
142	0xbdbfe30a	-0.09369476
143	0x3d9ce0c8	0.07660061
144	0xbdd1c74c	-0.10243091
145	0x3d705702	0.058676727
146	0xbea3f185	-0.32020202
147	0x3e9b4dff	0.30332944
148	0xbdf4ec62	-0.11959149
149	0x3ea36e09	0.31919888
150	0x3eb620e0	0.35571957
151	0x3c580bb2	0.013186382
152	0x3de08fee	0.109649524
153	0x3dfce19c	0.12347719
154	0x3ec3da41	0.38252452
155	0x3e90229b	0.28151402
156	0x3dca7d17	0.0988714
157	0xbda717ef	-0.08158862
158	0x3e3fbcc6	0.18724355
159	0xbe196a0a	-0.14981857
160	0xbd3b3ecc	-0.045714185
161	0x3d8030c6	0.06259303
162	0xbdb05990	-0.08610833
163	0xbd7116f1	-0.05885977
164	0xbd76ae21	-0.060224656
165	0xbd1b7258	-0.037950844
166	0x3ebd454e	0.36966938
167	0xbee8431e	-0.45363706
168	0xbdabfcef	-0.08397853
169	0x3d1e76e3	0.038687598
170	0xbd2bb9ac	-0.041925117
171	0x3da2c136	0.07947008
172	0xbe88cd65	-0.26719204
173	0x3c650958	0.0139792785
174	0xbcfe0dcd	-0.03101244
175	0xbe297c5a	-0.16551343
176	0x3df79989	0.120898314
177	0x3e6d8286	0.23194322
178	0x3e4ab102	0.19794086
179	0x3e3829eb	0.1798474
180	0xbdae99b9	-0.08525414
181	0x3e46b670	0.19405532
182	0xbd88cee1	-0.06680084
183	0x3da3cfc2	0.07998611
184	0xbdc82ac9	-0.097737856
185	0xbe0c5caf	-0.13707231
186	0xbd7a7991	-0.06115109
187	0x3df1a968	0.1179989
188	0x3d17e8f6	0.037087403
189	0x3d92f59d	0.07175753
190	0x3c26cd56	0.010180792
191	0xbbe827bf	-0.007084816
192	0x3e19879d	0.14993139
193	0x3e0ece73	0.13945942
194	0xbe27e351	-0.16395308
195	0xbebd5959	-0.3698223
196	0x3e73de3d	0.23815246
197	0x3e8d74d7	0.27628204
198	0xbdf830a0	-0.121186495
199	0xbe3246ab	-0.1740977
200	0x3c4e15ae	0.012578411
201	0xbd5369d8	-0.051614612
202	0x3d896d4b	0.06710299
203	0x3e0e50f7	0.13898073
204	0x3d35657c	0.044286236
205	0x3e08c420	0.13356066
206	0xbbd7134f	-0.006563581
207	0xbdd9c215	-0.10632721
208	0xbc2ef80a	-0.010679254
209	0xbbbdd65a	-0.005793375
210	0x3d8bd698	0.0682804
211	0x3d01ea53	0.03171761
212	0xbe4cc778	-0.19997966
213	0x3e3103e7	0.17286645
214	0xbdd7e1ff	-0.10541152
215	0xbd774cd6	-0.06037601
216	0xbddf06df	-0.108899824
217	0xbe3e9f1d	-0.18615384
218	0xbc9b1317	-0.018930001
219	0xbdc2c4d7	-0.095102005
220	0xbc790735	-0.015199472
221	0xbeb0718a	-0.34461623
222	0xbb29f5a4	-0.0025933767
223	0xbe41d352	-0.18928269
224	0x3e9acd6d	0.30234852
225	0x3e024fa8	0.12725699
226	0x3e499ddd	0.19689126
227	0xbe064bba	-0.13114825
228	0x3dffe1b5	0.12494222
229	0x3e74bfa8	0.23901236
230	0xbd5b3369	-0.053515825
231	0xbdace3e2	-0.08441903
232	0x3d9effbf	0.077636234
233	0xbd8c8719	-0.06861705
234	0x3e5d0dd3	0.21587305
235	0x3d8591e7	0.06521969
236	0xbd8ae068	-0.06781083
237	0x3df28edd	0.11843655
238	0x3e34a116	0.17639574
239	0xbe89b46e	-0.2689547
240	0x3d672d39	0.056439612
241	0xbe6a3c2b	-0.22874515
242	0x3c573813	0.013135928
243	0x3be4b883	0.0069800033
244	0xbdcab204	-0.09897235
245	0x3e59000e	0.21191427
246	0xbe122315	-0.14271195
247	0x3e51fad5	0.20505841
248	0xbc246bb6	-0.010035446
249	0xbc6b2ba6	-0.014353668
250	0xbb72204b	-0.0036945518
251	0x3cf597ce	0.029979613
252	0xbd00d9d0	-0.031457722
253	0xbe67ed50	-0.22649121
254	0xbe96a20b	-0.29420504
255	0x3c74a503	0.01493192

module.layers.0.1.weight f4 [16]
0	0x3f817f1d	1.0116917
1	0x3f839928	1.0281115
2	0x3f800bc1	1.0003587
3	0x3f83c6c2	1.0295031
4	0x3f7c4207	0.9853825
5	0x3f7dddb3	0.9916641
6	0x3f7fadea	0.99874747
7	0x3f7b703f	0.9821815
8	0x3f7f3728	0.99693537
9	0x3f7f11a7	0.9963631
10	0x3f7e6624	0.99374604
11	0x3f811e54	1.008738
12	0x3f7a1432	0.97687066
13	0x3f830555	1.0236002
14	0x3f813521	1.0094339
15	0x3f796659	0.97421795

module.layers.0.1.bias f4 [16]
0	0x3c2f259c	0.010690119
1	0x3d3e4237	0.046449866
2	0x3cc4be3b	0.02401649
3	0xbc8983df	-0.016786514
4	0xbcf6c6ec	-0.03012415
5	0x3cae829d	0.021302516
6	0x3c86e4db	0.016466549
7	0x3b008549	0.0019610694
8	0x3b9790ab	0.0046254
9	0x3ce89e0d	0.028395677
10	0xbca1c449	-0.019746916
11	0x3c93eca5	0.018057177
12	0x3c1c79c2	0.009550514
13	0x3a10ef7b	0.00055288494
14	0x3c19f21c	0.009396102
15	0xbc7d91f5	-0.015476693

module.layers.0.1.running_mean f4 [16]
0	0xc8104d3f	-147764.98
1	0xc9318b0a	-727216.6
2	0x499ba70d	1.2751056e+06
3	0xc7a76dff	-85723.99
4	0x48ea5136	479881.7
5	0x49045eee	542190.9
6	0xc88dd238	-290449.75
7	0x48a7b339	343449.78
8	0xc7ffe1ee	-131011.86
9	0xc74f7bf7	-53115.965
10	0x48de6e00	455536.0
11	0x47eb46f2	120461.89
12	0xc91a20fc	-631311.75
13	0x49031671	536935.06
14	0xc80dd2fc	-145227.94
15	0x49052e9e	545513.9

module.layers.0.1.running_var f4 [16]
0	0x4df66be8	5.1678336e+08
1	0x4f97bf04	5.091756e+09
2	0x50730b04	1.6310342e+10
3	0x4e0badee	5.858579e+08
4	0x4f4b492a	3.4105697e+09
5	0x4f206f03	2.6916298e+09
6	0x4e860bef	1.1244645e+09
7	0x4ed772d1	1.807313e+09
8	0x4d521e3d	2.2032482e+08
9	0x4d3663c7	1.9124952e+08
10	0x4f0ca091	2.359333e+09
11	0x4d7334bf	2.5502002e+08
12	0x4f4ec5e4	3.4690755e+09
13	0x4f3cd699	3.1681805e+09
14	0x4e0cb8a0	5.9022746e+08
15	0x4f4424c7	3.2907446e+09

module.layers.1.0.weight f4 [8, 16]
0	0x3eb6823f	0.35646245
1	0x3ee94520	0.4556055
2	0xbe9727d7	-0.29522583
3	0xbd10dbf0	-0.035366
4	0xbe1c544e	-0.15266535
5	0x3e14453d	0.14479537
6	0xbf44a8bb	-0.7681996
7	0xbe127b14	-0.14304763
8	0xbe983d3d	-0.2973422
9	0xbe898673	-0.2686039
10	0x3e1980ed	0.14990588
11	0x3e800261	0.25001815
12	0xbf3f935e	-0.7483424
13	0x3e1549c6	0.14578924
14	0xbf09b10a	-0.53785765
15	0xbed12ebe	-0.40855974
16	0xbdc7226c	-0.09723362
17	0x3eb9357c	0.36173618
18	0xbea1441e	-0.31497282
19	0xbde2ec90	-0.11080277
20	0x3d8af5f9	0.06785197
21	0x3e9e26c3	0.30888948
22	0x3b3e37aa	0.0029024878
23	0xbea312e1	-0.3185034
24	0xbe6856dc	-0.22689384
25	0x3e2f8ce1	0.17143585
26	0x3e9881a2	0.29786402
27	0xbf4caefe	-0.79954517
28	0xbe9af577	-0.302654
29	0x3e9ea40e	0.3098454
30	0x3e1e25b7	0.15444075
31	0x3de5cb3b	0.11220404
32	0x3f0ede53	0.5580799
33	0xbea0c233	-0.31398162
34	0x3ee21c3e	0.44162172
35	0x3f51ed5e	0.8200282
36	0xbe909c4b	-0.28244242
37	0xbf4aa182	-0.7915269
38	0xbd5f09a6	-0.05445256
39	0xbe364500	-0.17799759
40	0xbef1f1ae	-0.472547
41	0xbd8b8e45	-0.06814245
42	0x3f2854a9	0.6575418
43	0x3e06992f	0.13144372
44	0x3f1fd89d	0.624399
45	0xbe743f91	-0.23852374
46	0x3e5ff641	0.21871282
47	0x3dee7931	0.11644209
48	0xbf24e022	-0.644045
49	0x3ec26024	0.37963974
50	0x3e647fa5	0.22314318
51	0x3e15d57a	0.14632216
52	0xbdda254c	-0.10651645
53	0x3e4cfdea	0.20018736
54	0xbd7e3840	-0.062065363
55	0x3e9c5bbb	0.30538735
56	0x3e890d0f	0.26767775
57	0x3e215aa8	0.15757239
58	0x3e804fdb	0.25060925
59	0xbd8ee179	-0.06976599
60	0x3df04e7a	0.11733718
61	0x3eb7b414	0.35879576
62	0xbf133db9	-0.57516056
63	0x3dfb6eac	0.12276968
64	0x3ebf4fbf	0.3736553
65	0xbf1ada9c	-0.6048982
66	0x3b61e1bc	0.0034466824
67	0xbe755881	-0.23959543
68	0xbf4e5370	-0.80596066
69	0x3ece087e	0.40240854
70	0xbebd52fa	-0.3697737
71	0x3e0a9517	0.13533436
72	0xbe61a2cb	-0.22034757
73	0x3eb5af07	0.35485098
74	0x3d7695c4	0.06020142
75	0xbd9ad609	-0.07560355
76	0xbe973f49	-0.2954047
77	0xbe6a7f31	-0.22900082
78	0x3e07d9a8	0.13266623
79	0x3e439aa3	0.19101958
80	0xbf626e00	-0.88449097
81	0xbd355429	-0.044269715
82	0x3ed9fd9d	0.42576304
83	0xbe113f49	-0.14184298
84	0x3ec48370	0.3838153
85	0xbe4198c0	-0.18905926
86	0x3d36fd9e	0.044675462
87	0x3f0cba9f	0.5497226
88	0x3d50b0c1	0.050949816
89	0x3e86bac2	0.2631436
90	0x3eb1e660	0.34746075
91	0xbe3cda24	-0.18442589
92	0xbf32f3bd	-0.69903165
93	0x3f4a8ae6	0.7911819
94	0x3e113d08	0.14183438
95	0x3cd5a59f	0.02607995
96	0x3f5b2ea9	0.8561807
97	0xbd8d460b	-0.06898125
98	0x3e381d25	0.17979868
99	0x3e640457	0.2226728
100	0x3e828e89	0.2549937
101	0xbe5defb3	-0.21673469
102	0xbf4b9f99	-0.795404
103	0x3db0b62c	0.086284965
104	0xbdbad6f2	-0.09123029
105	0xbcceac94	-0.025228776
106	0x3e595528	0.21223891
107	0x3ee798bc	0.45233715
108	0xbf2b13b4	-0.6682694
109	0x3f074fb4	0.5285599
110	0xbebc42ce	-0.36769718
111	0xbe802b57	-0.25033066
112	0x3d80f83d	0.06297348
113	0x3e9307c7	0.2871687
114	0x3dff11d5	0.12454573
115	0x3e88ac50	0.26693964
116	0x3eef0926	0.46686667
117	0xbc15dafd	-0.009146449
118	0x3ebe4985	0.37165466
119	0x3e109761	0.14120246
120	0x3ec8cde9	0.39219597
121	0xbe261201	-0.16217805
122	0x3e13081a	0.14358559
123	0x3e537c9e	0.20653006
124	0x3eace35d	0.33767214
125	0xbf42f403	-0.7615358
126	0xbddcdf7c	-0.10784814
127	0x3eeb4691	0.45952275

module.layers.1.1.weight f4 [8]
0	0x3f8410cb	1.0317625
1	0x3f80ff19	1.007785
2	0x3f85f58d	1.0465561
3	0x3f761c94	0.96137357
4	0x3f7d8560	0.9903164
5	0x3f78283a	0.9693638
6	0x3f826028	1.0185595
7	0x3f80efdd	1.00732

module.layers.1.1.bias f4 [8]
0	0x3ca2c228	0.019867972
1	0xbba074c5	-0.0048967325
2	0x3d303d4a	0.0430272
3	0xbd2a043c	-0.041507944
4	0xbcc7baee	-0.024381127
5	0xbd2bdfa4	-0.041961327
6	0x3c972f71	0.018455239
7	0xbb210d37	-0.0024574527

module.layers.1.1.running_mean f4 [8]
0	0xbf5b7725	-0.85728675
1	0xbe220e43	-0.15825753
2	0x3eeafb5e	0.45894903
3	0x3ee09aaf	0.43868014
4	0xbef5ee0b	-0.48033175
5	0x3eb7be70	0.3588748
6	0x3dd60e46	0.10451941
7	0x3f612b85	0.8795703

module.layers.1.1.running_var f4 [8]
0	0x3f4667ee	0.77502334
1	0x3ea33e73	0.31883582
2	0x3f8bf4cf	1.0934085
3	0x3f83607a	1.0263817
4	0x3ed7b931	0.42133477
5	0x405a8521	3.4143755
6	0x3faa0e75	1.3285662
7	0x3ef5c490	0.48001528

module.layers.2.0.weight f4 [4, 8]
0	0xbe1ff073	-0.15619068
1	0xbd4b50a2	-0.049637444
2	0x3eac56f8	0.33660102
3	0x3f668fc2	0.90063107
4	0x3d809569	0.06278498
5	0x3e328f9e	0.17437598
6	0xbf96a6ad	-1.1769615
7	0x3ed7d2b9	0.42152956
8	0xbf00d5c3	-0.50326174
9	0x3e4a3ee5	0.19750555
10	0xbdb13613	-0.08652892
11	0xbc83c4f0	-0.016085118
12	0xbe03bfc9	-0.12866129
13	0xbeb1ac5f	-0.3470182
14	0xbf0d3009	-0.5515142
15	0xbea200d6	-0.31641263
16	0xbebd25eb	-0.36942992
17	0x3f1ac4a5	0.60456306
18	0xbf0a28b8	-0.5396838
19	0xbdfdc747	-0.12391525
20	0xbf120802	-0.5704347
21	0x3e4ff3ca	0.20307842
22	0x3e6c53d4	0.23078853
23	0xbec5bf22	-0.38622385
24	0xbe1cad78	-0.15300548
25	0x3f489230	0.78348064
26	0xbf2f770c	-0.68541026
27	0xbc721ada	-0.01477691
28	0xbdafa468	-0.0857628
29	0x3f3604ac	0.7110088
30	0x3efb8350	0.4912362
31	0xbefd0a04	-0.49421704

module.layers.2.1.weight f4 [4]
0	0x3f7c129c	0.98465896
1	0x3f83c824	1.0295453
2	0x3f81e216	1.0147121
3	0x3f801cb5	1.0008761

module.layers.2.1.bias f4 [4]
0	0xbbce4e59	-0.006295961
1	0x3c3098e9	0.010778644
2	0x3d045151	0.032304112
3	0xbc9dabb5	-0.019246915

module.layers.2.1.running_mean f4 [4]
0	0x3df6e8ab	0.12056097
1	0xbf3528b5	-0.7076524
2	0xbebbcc21	-0.36679175
3	0x3e58de93	0.21178655

module.layers.2.1.running_var f4 [4]
0	0x3eeb6666	0.4597656
1	0x3e920da9	0.28526047
2	0x3f211b98	0.6293273
3	0x3ffbfc00	1.9686279

module.layers.3.0.weight f4 [2, 4]
0	0x3f07796d	0.52919656
1	0x3dd64c18	0.104637325
2	0x3eed0bff	0.46298215
3	0x3f5e42fa	0.8682095
4	0xbfcf6c5d	-1.6204945
5	0x3f27a6ea	0.65489066
6	0x400583f7	2.0861795
7	0x3f860411	1.0469991

module.layers.3.1.weight f4 [2]
0	0x3f77b601	0.9676209
1	0x3f81feb1	1.0155851

module.layers.3.1.bias f4 [2]
0	0xbc4c0d80	-0.0124543905
1	0x3d2a61d5	0.041597206

module.layers.3.1.running_mean f4 [2]
0	0x3f3c1b1e	0.7347888
1	0x3f58a85e	0.8463191

module.layers.3.1.running_var f4 [2]
0	0x3f04fb38	0.5194583
1	0x40a11caf	5.0347514

module.fc_out.weight f4 [2, 2]
0	0xbfdd94cb	-1.7311033
1	0x3f3fdb0f	0.7494363
2	0xbeaa949f	-0.33316514
3	0xbf8855dc	-1.0651202

module.fc_out.bias f4 [2]
0	0xbc0baf68	-0.008525707
1	0x3c0baf6c	0.008525711
