pooled_log/best_0.pt (torch, 13693 bytes, 22 tensors)

module.layers.0.0.weight f4 [16, 66]
0	0xbd358f93	-0.044326376
1	0xbdc3c464	-0.09558943
2	0x3e1a3a43	0.15061288
3	0xbd143b25	-0.036189217
4	0xbd9bece6	-0.07613544
5	0x3eda490a	0.4263385
6	0x3e627361	0.22114326
7	0x3e06c225	0.13159998
8	0xbe459005	-0.1929322
9	0x3cf42c52	0.02980629
10	0xbd2d7c76	-0.042355023
11	0xbe9ee1c9	-0.31031635
12	0x3dd68f1a	0.10476513
13	0xbde2efcd	-0.110808946
14	0x3eb7a54a	0.35868293
15	0x3e198345	0.14991482
16	0x3c92d0ee	0.017921891
17	0xbe05d9a8	-0.1307131
18	0xbe531b1c	-0.2061581
19	0x3ed4018c	0.4140743
20	0x3dd29f33	0.10284271
21	0xbe207e63	-0.15673213
22	0xbd391937	-0.045190062
23	0xbe4fec9d	-0.20305105
24	0x3eb29864	0.3488189
25	0xbdec163a	-0.11527677
26	0xbd250c47	-0.04029491
27	0xbe525564	-0.20540386
28	0xbca42d63	-0.020041173
29	0xbe3f6edc	-0.18694633
30	0xbd137b4c	-0.036006257
31	0x3e4899a8	0.19589865
32	0xbe299d39	-0.16563882
33	0x3d9e8596	0.07740323
34	0xbd3da418	-0.04629907
35	0x3ce2d893	0.027691161
36	0x3e2d1632	0.16902998
37	0x3c0e40c8	0.008682437
38	0x3e3e176e	0.18563625
39	0x3e9e4f22	0.3091975
40	0xbd21b1c7	-0.039476182
41	0xbe1c95c9	-0.15291514
42	0xbdbe5e7f	-0.092953674
43	0x3d92aee9	0.07162268
44	0xbd8b9de6	-0.06817226
45	0xbde3ae29	-0.11117203
46	0xbe474381	-0.19459344
47	0x3dbfe4ac	0.093697876
48	0x3e6cd84e	0.23129389
49	0xbe2803b7	-0.16407667
50	0x3d72c03d	0.059265364
51	0x3c89c106	0.016815674
52	0x3dbb15ea	0.09135039
53	0xbe8cb726	-0.2748348
54	0x3d80b8cc	0.06285247
55	0x3dafd1db	0.08584949
56	0x3da909a0	0.08253789
57	0xbe7c791c	-0.24655575
58	0xbd288a1c	-0.041147336
59	0xbd749309	-0.059710536
60	0x3dafaf42	0.0857835
61	0x3e3ec8cf	0.1863129
62	0xbcdcb654	-0.02694241
63	0xbc047302	-0.008084061
64	0xbab9e078	-0.0014181277
65	0x3d9fcfea	0.07803328
66	0x3ccb9a61	0.024853887
67	0xbe3bb997	-0.18332516
68	0x3d790161	0.06079233
69	0x3ec9dffa	0.39428693
70	0x3df2b463	0.11850812
71	0x3e553f33	0.2082489
72	0xbe3a84f5	-0.18214782
73	0xbe2fbe1e	-0.17162368
74	0xbce31565	-0.027720163
75	0xbdabd6e8	-0.083905995
76	0x3d1ba356	0.037997566
77	0x3e150359	0.14552058
78	0x3df65ffb	0.120300256
79	0x3cbe4400	0.023225784
80	0xbdea3e97	-0.11437719
81	0x3e1b0766	0.15139541
82	0xbe0e33be	-0.13886926
83	0x3c7778d7	0.015104494
84	0xbd789669	-0.060690317
85	0xbd017dc4	-0.03161408
86	0x3df30e24	0.118679315
87	0x3e3abf73	0.18237095
88	0xbe7e243f	-0.24818514
89	0x3b117d83	0.0022200055
90	0x3c0f41eb	0.008743743
91	0xbe9b71c2	-0.30360228
92	0x3ef7c730	0.48394156
93	0x3e9982e1	0.29982665
94	0x3c98e32b	0.01866301
95	0x3ea1cbc1	0.31600764
96	0x3eab2d8d	0.3343319
97	0xbe736764	-0.23769909
98	0x3e830a29	0.2559369
99	0xbcde9475	-0.0271704
100	0x3d272500	0.04080677
101	0xbbbac819	-0.005700123
102	0xbefff50d	-0.49991646
103	0xbe1b0b74	-0.15141088
104	0xbe171ca2	-0.14757016
105	0xbe9eee8d	-0.31041375
106	0x3dae2d26	0.08504705
107	0x3ecfe993	0.4060789
108	0x3e32462d	0.17409582
109	0xbd7b64fa	-0.061375596
110	0x3dcf2d16	0.10116021
111	0xbe8d0aea	-0.2754739
112	0xbe9aeac1	-0.30257228
113	0x3e962496	0.29324788
114	0xbdbc1857	-0.0918433
115	0x3e017bfe	0.12644956
116	0x3e5af92d	0.21384116
117	0xbdba4588	-0.09095293
118	0xbe2fff1a	-0.17187157
119	0xbd72592b	-0.05916707
120	0xbeaba848	-0.33526826
121	0x3ea783a6	0.32717627
122	0x3cde50a4	0.027138062
123	0x3e4ca0c1	0.19983198
124	0x3dd14fc7	0.102202944
125	0xbe7b3efd	-0.24535747
126	0xbe4d9c02	-0.20079044
127	0x3c8aa34d	0.016923571
128	0xba1f10ce	-0.0006067873
129	0xbe2fe9c7	-0.17179023
130	0xbe736bfe	-0.23771665
131	0xbe5617bb	-0.2090749
132	0x3eee2c6a	0.4651826
133	0xbe10c15a	-0.14136258
134	0xbdde28cb	-0.108476244
135	0x3ba39252	0.004991808
136	0xbe63109f	-0.22174309
137	0x3e99fe73	0.30076942
138	0x3ed1636f	0.40896174
139	0x3ee1bb2c	0.44088113
140	0x3ef7f66c	0.48430192
141	0x3e102f6a	0.14080587
142	0xbe729575	-0.23689826
143	0xbd13a197	-0.036042776
144	0xbdff7032	-0.124725714
145	0x3ddb15fb	0.10697552
146	0xbecc8024	-0.39941514
147	0x3e90045a	0.2812832
148	0xbe1f44bb	-0.15553562
149	0x3eac3bac	0.33639276
150	0x3ec056c1	0.37566188
151	0x3d4612b6	0.048357688
152	0x3b9b5cfb	0.0047413087
153	0x3d36e52d	0.044652153
154	0x3ea885bc	0.3291453
155	0x3eba4059	0.36377218
156	0x3ddd9fa9	0.108214684
157	0xbdac7afb	-0.08421894
158	0x3d15bee9	0.03655902
159	0xbe6a6e40	-0.2289362
160	0xbe2f2557	-0.17104088
161	0x3d5ca5d0	0.05386907
162	0xbe8c47d1	-0.27398542
163	0xb9a483e2	-0.00031378778
164	0x3c1ae9b9	0.009455138
165	0xbde439f5	-0.11143867
166	0x3ebd454e	0.36966938
167	0xbee8431e	-0.45363706
168	0xbd2ed960	-0.042687774
169	0x3d1e76e3	0.038687598
170	0xbd2bb9ac	-0.041925117
171	0xbd811e25	-0.06304578
172	0xbe8fddc7	-0.2809889
173	0x3cb8a35d	0.022538835
174	0x3cea9149	0.02863373
175	0xbe4b4997	-0.19852291
176	0x3dce882c	0.100845665
177	0x3e4ad107	0.198063
178	0x3e11c109	0.14233793
179	0x3dfc8639	0.123302884
180	0xbd8fc6be	-0.07020329
181	0x3e5085f7	0.20363604
182	0xbd5eeafc	-0.054423317
183	0x3d8943f0	0.06702411
184	0xbde39b21	-0.11113573
185	0xbe19b70e	-0.15011236
186	0xbdd192c4	-0.102330714
187	0x3dccbd0f	0.099969976
188	0x3d383b27	0.044978287
189	0x3d82856e	0.06373106
190	0x3b347495	0.0027535309
191	0x3c852b78	0.01625608
192	0x3e141ee7	0.14464913
193	0x3e0e2659	0.13881816
194	0xbe0a9e1d	-0.13536878
195	0xbeba1b57	-0.36348984
196	0x3e81dc1d	0.25363246
197	0x3e9d364c	0.30705488
198	0xbcf85b91	-0.0303171
199	0xbdd46e38	-0.10372585
200	0x3c02abb0	0.007975504
201	0xbd9c5905	-0.07634167
202	0x3e17d01f	0.14825486
203	0x3e9f9198	0.31165767
204	0x3dc3343f	0.095314495
205	0x3e9f0901	0.31061557
206	0x3d80c2e1	0.0628717
207	0xbd6ffb77	-0.058589425
208	0x3c3b2b9c	0.0114239715
209	0xbdf03054	-0.11727968
210	0x3e30f9a7	0.17282735
211	0x3d94e433	0.07270088
212	0xbe209a15	-0.15683778
213	0x3e92d84e	0.28680652
214	0xbe96a71e	-0.29424375
215	0x3d3080bf	0.04309153
216	0xbdbb2867	-0.091385655
217	0xbd3bd712	-0.045859404
218	0xbde8c8bb	-0.11366411
219	0xbd89b805	-0.06724552
220	0x3d000b0f	0.031260546
221	0xbe576df6	-0.2103804
222	0x3d91815a	0.0710475
223	0xbd37a354	-0.044833496
224	0x3e853bed	0.26022282
225	0x3da5c02d	0.08093295
226	0x3e4634de	0.19356105
227	0xbd408650	-0.04700309
228	0xbd49aaa1	-0.04923499
229	0x3e987603	0.29777536
230	0xbd9c0fc0	-0.076201916
231	0xbe6325cc	-0.22182387
232	0x3d9effbf	0.077636234
233	0xbd8c8719	-0.06861705
234	0xbd33909d	-0.043839086
235	0x3d8591e7	0.06521969
236	0xbd8ae068	-0.06781083
237	0x3e683a63	0.22678523
238	0x3d5f984f	0.054588612
239	0xbe854db7	-0.26035854
240	0x3da4bbd9	0.080436416
241	0xbe8bd763	-0.27312765
242	0xbd902ccf	-0.070397966
243	0x3cdf8ed9	0.027289795
244	0xbdac33cf	-0.08408319
245	0x3e68a90f	0.2272074
246	0xbe398134	-0.18115693
247	0x3e4b1384	0.19831663
248	0xbd0667c0	-0.032813787
249	0x3c89fdfc	0.016844742
250	0x3d16a1a8	0.03677526
251	0x3d87055f	0.06592821
252	0x3d7dd70b	0.06197266
253	0xbe6d598a	-0.23178688
254	0xbe8979a4	-0.26850617
255	0x3d1178f4	0.03551574

module.layers.0.1.weight f4 [16]
0	0x3f7eeada	0.99577105
1	0x3f7c9e9d	0.98679525
2	0x3f84f33f	1.0386733
3	0x3f79b357	0.97539276
4	0x3f6dcfe1	0.92895323
5	0x3f81401a	1.0097687
6	0x3f7df5c5	0.9920314
7	0x3f838aff	1.0276793
8	0x3f778d89	0.9670034
9	0x3f85605f	1.0420035
10	0x3f814415	1.0098902
11	0x3f809571	1.0045606
12	0x3f7676bc	0.96274924
13	0x3f8302ae	1.0235193
14	0x3f8b7c6b	1.0897344
15	0x3f7b4b6c	0.9816196

module.layers.0.1.bias f4 [16]
0	0xbcaf61af	-0.021408884
1	0x3dffd8c5	0.124925174
2	0x3d722308	0.05911544
3	0xbd066b38	-0.032817096
4	0xbd2eb473	-0.04265256
5	0x3cbb74f2	0.022882912
6	0x3d8698be	0.06572102
7	0x3d968ab3	0.073506735
8	0xbce60bb1	-0.028081747
9	0x3d674eae	0.05647152
10	0xbb68a457	-0.0035498345
11	0xbd047bf2	-0.032344766
12	0x3d314811	0.04328162
13	0x3b72106a	0.0036936053
14	0xbce329fe	-0.027729984
15	0xbc61af31	-0.013774679

module.layers.0.1.running_mean f4 [16]
0	0xc8d3d402	-433824.06
1	0xc8f3d6c4	-499382.12
2	0x498c3b10	1.14877e+06
3	0x47dfd918	114610.19
4	0x4935177c	741751.75
5	0x4891ea64	298835.12
6	0xc75356ff	-54102.996
7	0x48b31661	366771.03
8	0xc7d1e50e	-107466.11
9	0xc759f431	-55796.19
10	0x481d4a80	161066.0
11	0xc6973d7a	-19358.738
12	0xc93ecdfc	-781535.75
13	0x48f1d026	495233.2
14	0xc7ec5f1a	-121022.2
15	0x48082878	139425.88

module.layers.0.1.running_var f4 [16]
0	0x4f18caf1	2.5634368e+09
1	0x4f4745d2	3.3432417e+09
2	0x50590777	1.456458e+10
3	0x4dcb74a1	4.2667728e+08
4	0x4fd194c4	7.0323753e+09
5	0x4e4f2628	8.688461e+08
6	0x4d1e6f24	1.6613024e+08
7	0x4ef35120	2.04109e+09
8	0x4d32e0e0	1.8756762e+08
9	0x4d3ca454	1.9780538e+08
10	0x4df3c4e3	5.1122083e+08
11	0x4d2e818e	1.8298288e+08
12	0x4fb303cc	6.006741e+09
13	0x4f34d43d	3.0338081e+09
14	0x4dca33e6	4.2404986e+08
15	0x4da83281	3.5273526e+08

module.layers.1.0.weight f4 [8, 16]
0	0x3ec550fc	0.3853835
1	0x3edcf818	0.4315803
2	0xbea0ad06	-0.31382006
3	0xbd8db1fc	-0.069187135
4	0xbe28d671	-0.16488053
5	0x3e132eb8	0.1437329
6	0xbf3bc005	-0.73339874
7	0xbda7eb6b	-0.08199199
8	0xbe26498c	-0.16238993
9	0xbeb7408e	-0.3579144
10	0x3e54d8ef	0.20785879
11	0x3e9fc8e0	0.31207943
12	0xbf34a322	-0.7056142
13	0x3e3511c7	0.17682563
14	0xbf0925ac	-0.5357311
15	0xbed5f526	-0.41788596
16	0xbe0e94a6	-0.13923892
17	0x3ea8c9dd	0.3296651
18	0xbeb522ba	-0.35378057
19	0xbd0dc964	-0.03461589
20	0x3c747d89	0.014922508
21	0x3e83ec52	0.25766236
22	0xbd40d0c5	-0.0470741
23	0xbec33728	-0.38128018
24	0xbea8b4f1	-0.32950547
25	0x3e488d9e	0.19585273
26	0x3e5aed61	0.21379615
27	0xbf4b52af	-0.7942304
28	0xbeb9501e	-0.36193937
29	0x3e7f8382	0.2495251
30	0x3e130547	0.14357482
31	0x3dbaa518	0.091135204
32	0x3f0af0a7	0.54273456
33	0xbea540eb	-0.3227609
34	0x3edbb062	0.42908007
35	0x3f591b18	0.84806967
36	0xbea22a80	-0.3167305
37	0xbf4c3ae3	-0.79777354
38	0xbc99c969	-0.018772798
39	0xbe46a2f1	-0.19398095
40	0xbec4adda	-0.38413888
41	0xbe2e3352	-0.17011765
42	0x3f2bce66	0.67111814
43	0x3e37049f	0.17872857
44	0x3f20cd34	0.62813115
45	0xbe806682	-0.25078207
46	0x3e4bd9b1	0.19907261
47	0x3e006017	0.12536655
48	0xbf2ff6e7	-0.6873612
49	0x3e9a348e	0.3011822
50	0x3e86a2e6	0.26296157
51	0x3e012fb6	0.12615857
52	0xbd902839	-0.07038922
53	0x3e726c12	0.23674038
54	0xbdbd99cc	-0.0925785
55	0x3ea37d52	0.3193155
56	0x3e53c96b	0.20682304
57	0x3dd1b2de	0.10239194
58	0x3e8131f2	0.25233418
59	0xbd9c0066	-0.076172635
60	0x3d7050a3	0.05867065
61	0x3ec4aab8	0.38411498
62	0xbf160459	-0.58600384
63	0x3e186335	0.14881594
64	0x3ead2ca3	0.33823118
65	0xbf2b8ca6	-0.6701149
66	0x3cb9928f	0.022652892
67	0xbea76d93	-0.32700786
68	0xbf411c61	-0.7543393
69	0x3eddf6a3	0.4335223
70	0xbec70181	-0.38868335
71	0x3e506717	0.20351826
72	0xbe1a5852	-0.15072754
73	0x3eaad77a	0.3336752
74	0x3e120b46	0.14262113
75	0xbdc56d4e	-0.09639989
76	0xbe9b38f2	-0.30316883
77	0xbe37ff86	-0.17968568
78	0x3dc5e70b	0.096632086
79	0x3e4c43db	0.1994776
80	0xbf707daf	-0.9394178
81	0xbdec347c	-0.11533448
82	0x3ef88bc1	0.48544124
83	0xbe048051	-0.12939574
84	0x3eba626a	0.3640321
85	0xbe32d663	-0.17464595
86	0xbccf28eb	-0.025288066
87	0x3ef4d166	0.47816008
88	0xbca823e6	-0.02052493
89	0x3e8281f5	0.25489774
90	0x3e9624a2	0.29324824
91	0xbe6a7779	-0.22897138
92	0xbf42989e	-0.76014125
93	0x3f3eaed7	0.74485534
94	0x3dbdc69a	0.09266396
95	0x3df5023c	0.11963317
96	0x3f5253cd	0.8215912
97	0xbd3d0a61	-0.046152476
98	0x3e369305	0.17829521
99	0x3e2812de	0.16413447
100	0x3e87b3c4	0.26504338
101	0xbe634060	-0.22192526
102	0xbf503d20	-0.8134327
103	0x3de488f5	0.11158935
104	0xbd6ecd24	-0.058301106
105	0x3ce58dfc	0.028021805
106	0x3e6e4621	0.2326894
107	0x3ed26569	0.41092995
108	0xbf2a8d96	-0.66622293
109	0x3f0b66b3	0.5445358
110	0xbed35222	-0.412736
111	0xbe8099e3	-0.25117406
112	0x3cf33b46	0.02969135
113	0x3e8235c2	0.2543164
114	0x3df03484	0.117287666
115	0x3e5ac6b1	0.21364857
116	0x3ee6794b	0.45014414
117	0xbca17274	-0.019707896
118	0x3eaab8fa	0.3334425
119	0x3e063cb5	0.13109095
120	0x3ee15178	0.44007468
121	0xbe6c2dcd	-0.23064347
122	0x3e0ade09	0.13561262
123	0x3e5c4c3d	0.21513458
124	0x3e9fb037	0.3118913
125	0xbf4622a3	-0.773966
126	0xbe28fcdd	-0.1650271
127	0x3eef0893	0.4668623

module.layers.1.1.weight f4 [8]
0	0x3f869778	1.0514975
1	0x3f800e80	1.0004425
2	0x3f871064	1.0551877
3	0x3f73223f	0.9497413
4	0x3f7d4e78	0.9894786
5	0x3f6f0c0b	0.9337775
6	0x3f8345e9	1.025571
7	0x3f885bd3	1.0653023

module.layers.1.1.bias f4 [8]
0	0x3d63d3a0	0.055621743
1	0xbc3ca1b6	-0.011513164
2	0x3a813385	0.0009857273
3	0xbd922ff0	-0.071380496
4	0xbce7fb69	-0.028318124
5	0xbd37e69d	-0.044897664
6	0x3cf5bd3a	0.029997457
7	0x3d70dd9b	0.05880509

module.layers.1.1.running_mean f4 [8]
0	0xbf4b1aad	-0.7933758
1	0xbeb91994	-0.36152327
2	0x3ee3149c	0.4435166
3	0x3ecbc21e	0.39796537
4	0xbed5bf87	-0.41747686
5	0x3e746545	0.23866756
6	0x3d93cb8b	0.07216557
7	0x3f3b7266	0.73221433

module.layers.1.1.running_var f4 [8]
0	0x3f0b7900	0.54481506
1	0x3ef2629e	0.47340864
2	0x3f69ec93	0.9137661
3	0x3fcf7aa7	1.6209306
4	0x3ead106c	0.3380159
5	0x40875344	4.2289143
6	0x3f65b4bd	0.8972891
7	0x3eb216d3	0.34783038

module.layers.2.0.weight f4 [4, 8]
0	0xbe1da74f	-0.15395854
1	0xbd985ace	-0.074391946
2	0x3ea3c9c5	0.31989875
3	0x3f62dfb1	0.88622576
4	0x3d8d5010	0.06900036
5	0x3e213517	0.15742908
6	0xbf984b5e	-1.1898
7	0x3eef013c	0.4668063
8	0xbf0e89f1	-0.5567923
9	0x3e4945a6	0.19655475
10	0x3c33cf82	0.010974767
11	0xbd86d97a	-0.06584449
12	0xbe1ff3e4	-0.1562038
13	0xbec46f80	-0.38366318
14	0xbf08979f	-0.53356355
15	0xbe81f2ea	-0.2538064
16	0xbeb76378	-0.35818076
17	0x3f187409	0.59552056
18	0xbf06efcd	-0.52709657
19	0xbe1fdea7	-0.15612279
20	0xbf122738	-0.57091093
21	0x3e249c53	0.16075258
22	0x3e773408	0.24140942
23	0xbed9d747	-0.42547056
24	0xbe4397c6	-0.19100866
25	0x3f4a0528	0.7891412
26	0xbf45c4d7	-0.7725348
27	0xbdafa88c	-0.0857707
28	0x3c3c0a78	0.011477105
29	0x3f251503	0.64485186
30	0x3ec7ab6a	0.38997966
31	0xbf08307b	-0.53198975

module.layers.2.1.weight f4 [4]
0	0x3f88c560	1.0685234
1	0x3f8aa4d0	1.0831547
2	0x3f6e7d83	0.93160266
3	0x3f66970b	0.90074223

module.layers.2.1.bias f4 [4]
0	0x3d95a363	0.07306554
1	0x3dc38a1d	0.095478274
2	0xbd5036cd	-0.050833512
3	0xbdc95244	-0.09830144

module.layers.2.1.running_mean f4 [4]
0	0x3e0ac0ba	0.13550082
1	0xbf3a50f3	-0.7277977
2	0xbee7da27	-0.45283625
3	0x3cd3b880	0.025844812

module.layers.2.1.running_var f4 [4]
0	0x3f03468f	0.5127954
1	0x3ea85b3e	0.32882112
2	0x3ede8fd0	0.43469095
3	0x3fefc3da	1.8731644

module.layers.3.0.weight f4 [2, 4]
0	0x3f201569	0.6253267
1	0x3e0d7863	0.13815455
2	0x3eadbeab	0.3393453
3	0x3f47c5cc	0.7803619
4	0xbfcd7a26	-1.6052902
5	0x3f333e9c	0.7001741
6	0x4005f5f9	2.093138
7	0x3f829c78	1.0204

module.layers.3.1.weight f4 [2]
0	0x3f7a4d3b	0.97774094
1	0x3f849d0a	1.0360425

module.layers.3.1.bias f4 [2]
0	0x3ded400a	0.1158448
1	0x3d14601c	0.03622447

module.layers.3.1.running_mean f4 [2]
0	0x3f324d29	0.6964899
1	0x3f1b38bf	0.6063346

module.layers.3.1.running_var f4 [2]
0	0x3e7dbba6	0.24778613
1	0x408023ba	4.004361

module.fc_out.weight f4 [2, 2]
0	0xbfdf9a43	-1.7468952
1	0x3f4506ed	0.7696369
2	0xbea27eee	-0.31737465
3	0xbf8aebbe	-1.0853193

module.fc_out.bias f4 [2]
0	0x3cc01a0f	0.023449926
1	0xbcc01a0f	-0.023449926
