test/output/local0/simulatorRun/freesurfer_volumetric/5/best.nn.pt (torch_old, 23025 bytes, 50 tensors)

layers.0.0.weight f4 [16, 66]
0	0xbd8acd97	-0.067774944
1	0xbe3e7562	-0.18599465
2	0x3e87b8a0	0.26508045
3	0x3c363e66	0.011123275
4	0xbdec7761	-0.11546207
5	0x3e9f4923	0.31110486
6	0x3d96dd62	0.07366444
7	0x3d7ea82e	0.062172107
8	0xbe4eb61f	-0.20186661
9	0x3dba0195	0.09082333
10	0xbc83a81e	-0.016071375
11	0xbe737265	-0.23774107
12	0xbccaac7f	-0.024740456
13	0xbdd092ee	-0.101842746
14	0x3e88ba94	0.26704848
15	0x3dffdce4	0.124933034
16	0x3e087a6a	0.13327947
17	0xbe5446e2	-0.20730165
18	0xbe3c3981	-0.18381311
19	0x3ec50cf3	0.38486442
20	0x3e37fa54	0.17966586
21	0xbdca885c	-0.0988929
22	0xbd456b63	-0.048198115
23	0xbe8a8eb9	-0.27062014
24	0x3e65d60a	0.2244493
25	0xbe47f612	-0.19527462
26	0x3d12e812	0.03586585
27	0xbe720d16	-0.23637804
28	0xbddc09b5	-0.10744039
29	0xbe3e86b8	-0.18606079
30	0xbd66b3cd	-0.056323815
31	0x3e5221c0	0.20520687
32	0xbdd23e3a	-0.10265775
33	0x3e31755d	0.17329927
34	0xbd3da418	-0.04629907
35	0x3ce2d893	0.027691161
36	0x3e9dc489	0.30814007
37	0x3c0e40c8	0.008682437
38	0x3e3e176e	0.18563625
39	0x3e58036d	0.21095057
40	0x3d2ce928	0.042214543
41	0x3c9db452	0.019251022
42	0x3c81fed5	0.015868584
43	0x3dddf54a	0.10837801
44	0xbd2628af	-0.040566143
45	0xbded2262	-0.115788236
46	0xbe498c54	-0.19682437
47	0x3dbb0b1e	0.0913298
48	0x3e6ff42a	0.23432985
49	0xbe20e4c0	-0.15712261
50	0x3d83baa6	0.06432085
51	0x3ab71218	0.0013967184
52	0x3da5ad88	0.08089739
53	0xbe928f2a	-0.2862485
54	0xbc6f0199	-0.014587783
55	0x3dac5491	0.08414567
56	0x3d97942a	0.07401307
57	0xbe80d502	-0.25162512
58	0xbd3c0827	-0.045906212
59	0xbd50266a	-0.050817885
60	0x3c74e955	0.014948209
61	0x3e2080ed	0.15674181
62	0xbdc03859	-0.093857475
63	0xbd7dac55	-0.061931927
64	0xbd5ecda4	-0.054395333
65	0x3da73a51	0.0816542
66	0x3e2984c2	0.1655455
67	0xbe0a8ba0	-0.13529825
68	0xbe6cadb5	-0.23113139
69	0x3e9d6056	0.3073756
70	0x3e35fc0e	0.17771932
71	0x3ec1fcf4	0.378883
72	0xbdde6cd6	-0.108606026
73	0xbe4f4a31	-0.20243146
74	0x3d90c08f	0.07067978
75	0xbda9ae50	-0.082852006
76	0xbdfa48ca	-0.12220915
77	0x3db94122	0.09045626
78	0x3e1f74b5	0.15571864
79	0x3cd88f16	0.026435416
80	0xbc447611	-0.01199104
81	0x3cd64bd5	0.026159206
82	0xbd9ace7a	-0.075589135
83	0x3dfc45c6	0.12317996
84	0xbdbc84eb	-0.092050396
85	0xbd846da7	-0.06466227
86	0xbe5b91a4	-0.21442276
87	0x3de37457	0.111061744
88	0xbe842ea2	-0.25816828
89	0x3d811f3a	0.06304784
90	0x3dcddb85	0.10051636
91	0xbeb032d2	-0.34413773
92	0x3eccaace	0.39974064
93	0x3e927875	0.28607526
94	0xbcf2c506	-0.029634964
95	0x3e6a4f33	0.22881775
96	0x3e86e964	0.26349938
97	0xbe20afc0	-0.15692043
98	0x3de12bcc	0.10994682
99	0x3dd35a2d	0.10319934
100	0x3d272500	0.04080677
101	0xbbbac819	-0.005700123
102	0xbe8e4517	-0.27787086
103	0xbe1b0b74	-0.15141088
104	0xbe171ca2	-0.14757016
105	0xbe033b23	-0.12815528
106	0xbdc72ac8	-0.09724957
107	0x3e83e521	0.2576075
108	0x3dcebe8f	0.1009494
109	0xbd5cdecf	-0.053923424
110	0x3da7906f	0.081818454
111	0xbe8faad9	-0.28060034
112	0xbe9d2148	-0.30689454
113	0x3e93a660	0.28837872
114	0xbd98759c	-0.07444307
115	0x3ddbd6bf	0.10734319
116	0x3e5a8845	0.21341045
117	0xbd09d01f	-0.033645745
118	0xbdf79d61	-0.120905645
119	0xbb981814	-0.004641542
120	0xbe989d97	-0.29807732
121	0x3e9bce03	0.30430612
122	0x3d8ff43c	0.07029006
123	0x3e72dbeb	0.23716705
124	0x3e0ed412	0.13948086
125	0xbe8abab6	-0.27095574
126	0xbe6b7007	-0.22991954
127	0x3a5000e8	0.00079347054
128	0x3dc9be6c	0.09850773
129	0xbd786a0c	-0.06064801
130	0xbdf72344	-0.12067273
131	0xbe35e2b4	-0.17762262
132	0x3e97d9d9	0.29658392
133	0xbe959950	-0.2921853
134	0x3d864b3d	0.06557319
135	0x3db747e5	0.0894926
136	0xbe250ce6	-0.16118202
137	0x3e539730	0.20663142
138	0x3ec4d972	0.38447148
139	0x3ee6292a	0.4495328
140	0x3eaa11ba	0.3321665
141	0x3cd74fbf	0.026283143
142	0xbdd39d32	-0.10332717
143	0x3e016ec6	0.12639913
144	0xbdaff1f3	-0.0859107
145	0x3d5833fe	0.05278396
146	0xbe9c43b9	-0.30520418
147	0x3e83791e	0.25678343
148	0xbdf054bd	-0.117349125
149	0x3e906240	0.2819996
150	0x3e8d1947	0.27558348
151	0xbc6641cd	-0.014053774
152	0x3e023a00	0.12717438
153	0x3e22adc4	0.15886599
154	0x3eb1fa99	0.34761503
155	0x3e933454	0.2875086
156	0x3e126ff5	0.1430052
157	0xbd6baae3	-0.057536017
158	0x3e5d3fed	0.21606417
159	0xbe2281f7	-0.1586989
160	0x3c0efd16	0.008727333
161	0x3d80665c	0.062695235
162	0xbcf54e46	-0.02994455
163	0xbdecf136	-0.11569445
164	0xbda8f0fd	-0.0824909
165	0xbccf3f1b	-0.025298646
166	0x3ebd454e	0.36966938
167	0xbee8431e	-0.45363706
168	0xbdd26df6	-0.1027488
169	0x3d1e76e3	0.038687598
170	0xbd2bb9ac	-0.041925117
171	0x3da19cf3	0.07891264
172	0xbe5b6bfe	-0.21427915
173	0x3db3cc9d	0.08779261
174	0x3d5bcd2e	0.05366247
175	0xbdcd9409	-0.10038001
176	0x3e3c3af5	0.18381865
177	0x3e23e732	0.16006163
178	0x3e30e312	0.1727412
179	0x3e1ca86c	0.15298623
180	0xbce8620c	-0.028367065
181	0x3e7b8f59	0.24566402
182	0xbc4ae234	-0.012383033
183	0x3cc3519c	0.023842625
184	0xbe282a15	-0.16422303
185	0xbe4b5c00	-0.19859314
186	0xbd5a76b7	-0.05333587
187	0x3e3eda92	0.18638065
188	0xbcfc726a	-0.030816276
189	0x3d337a19	0.043817613
190	0xbc836a71	-0.016041966
191	0xbd3daa6b	-0.0463051
192	0x3e17f509	0.14839567
193	0x3e05ea66	0.13077697
194	0xbe548b75	-0.20756324
195	0xbecb4015	-0.39697328
196	0x3e4cb6f4	0.19991666
197	0x3e89362b	0.2679914
198	0xbe048c79	-0.12944211
199	0xbe382ccf	-0.17985843
200	0xbcdf7170	-0.02727577
201	0xbdb5446c	-0.08850941
202	0x3d5a6837	0.053322043
203	0x3e17b48c	0.14814967
204	0x3d4df254	0.05027993
205	0x3e0263f2	0.12733439
206	0xbd17f479	-0.03709838
207	0xbd607df6	-0.054807626
208	0xbd6e41d8	-0.058168262
209	0xbcba504a	-0.022743363
210	0x3da474f3	0.08030119
211	0x3c6e4878	0.014543645
212	0xbe76c79b	-0.24099581
213	0x3e119101	0.14215471
214	0xbe1ea558	-0.15492761
215	0xbdb5ff20	-0.08886552
216	0xbdff1dbe	-0.12456845
217	0xbe212ca9	-0.15739693
218	0xbd04189a	-0.032250024
219	0xbe0035aa	-0.12520471
220	0xbd15b124	-0.036545888
221	0xbea8b0b6	-0.3294732
222	0x39826912	0.00024873816
223	0xbe3ba5f4	-0.18325025
224	0x3ea04d5b	0.31309018
225	0x3dd71263	0.10501554
226	0x3e6b651a	0.22987786
227	0xbe25d504	-0.1619454
228	0x3dd07ce7	0.10180073
229	0x3e610365	0.21973951
230	0xbcdead18	-0.027182147
231	0xbdc82474	-0.09772578
232	0x3d9effbf	0.077636234
233	0xbd8c8719	-0.06861705
234	0x3e7aa417	0.24476658
235	0x3d8591e7	0.06521969
236	0xbd8ae068	-0.06781083
237	0x3d94493a	0.07240529
238	0x3e3f47c7	0.18679725
239	0xbe8713ce	-0.26382297
240	0x3d01bd70	0.031674802
241	0xbe5be155	-0.21472676
242	0x3d0c0523	0.034184586
243	0xbc44a6ac	-0.012002628
244	0xbdef7da6	-0.116938874
245	0x3e466cb0	0.19377398
246	0xbe058867	-0.13040315
247	0x3e5d6974	0.21622258
248	0x3b0d029e	0.0021516453
249	0xbd52a23d	-0.051424254
250	0xbd19c569	-0.03754178
251	0xbbb70dfe	-0.005586385
252	0xbd1b66db	-0.037939887
253	0xbe677908	-0.22604764
254	0xbe9f00d4	-0.3105532
255	0xb978a428	-0.00023712276

layers.0.1.weight f4 [16]
0	0x3f761b20	0.9613514
1	0x3f878dcc	1.0590148
2	0x3f7ed970	0.99550533
3	0x3f7a4051	0.9775439
4	0x3f77dc18	0.9682021
5	0x3f7b6961	0.9820767
6	0x3f862599	1.0480224
7	0x3f7ab173	0.97927016
8	0x3f7556fc	0.9583585
9	0x3f7bf16f	0.98415273
10	0x3f7b71a1	0.9822026
11	0x3f75ea62	0.96060765
12	0x3f83f939	1.0310432
13	0x3f85b4d6	1.0445812
14	0x3f856167	1.042035
15	0x3f7a3061	0.9773007

layers.0.1.bias f4 [16]
0	0xbd7ba19a	-0.061433412
1	0x3d230735	0.039801795
2	0x3bd0cd4b	0.006372129
3	0xbcbca2e7	-0.023026897
4	0xbccea7c7	-0.025226487
5	0x3c6b54f2	0.014363514
6	0x3d24a971	0.040200654
7	0xbca29325	-0.019845555
8	0xbcf4899d	-0.029850775
9	0xbd45ff5d	-0.048339237
10	0x3cbc0aba	0.022954334
11	0xbb47658c	-0.0030425517
12	0x3d00a2e6	0.031405352
13	0x3d07c79e	0.033149354
14	0x3c35a880	0.011087537
15	0xbc6da39d	-0.0145043405

layers.0.1.running_mean f4 [16]
0	0xc8d5341b	-436640.84
1	0xc89a0a6b	-315475.34
2	0x4969439f	955449.94
3	0xc887f324	-278425.12
4	0x490b0e0d	569568.8
5	0x48c20aaf	397397.47
6	0xc9028dec	-534750.75
7	0x48f17a47	494546.22
8	0x48471cf3	203891.8
9	0xc81eee64	-162745.56
10	0x4832d53c	183124.94
11	0x48c22c9e	397668.94
12	0xc966a265	-944678.3
13	0x48c4add8	402798.75
14	0xc6bb95b3	-24010.85
15	0xc82dde3a	-178040.9

layers.0.1.running_var f4 [16]
0	0x4f17b7a2	2.5453942e+09
1	0x4e980d17	1.2754973e+09
2	0x501cd0f8	1.0523763e+10
3	0x4e9c63ae	1.3118892e+09
4	0x4f83c4f8	4.4214477e+09
5	0x4ec6c984	1.6675476e+09
6	0x4f61d22c	3.7886474e+09
7	0x4f470e3b	3.3395986e+09
8	0x4e276c7b	7.022261e+08
9	0x4d6ffb62	2.5163933e+08
10	0x4e020bb6	5.454514e+08
11	0x4ed129b9	1.7545862e+09
12	0x500c5226	9.416776e+09
13	0x4ee9b4c0	1.9604685e+09
14	0x4d4bebe0	2.1382707e+08
15	0x4dd44ee4	4.452425e+08

layers.1.0.weight f4 [8, 16]
0	0x3e89c8a6	0.26910895
1	0x3ee41475	0.44546857
2	0xbe979403	-0.2960511
3	0xbdc85764	-0.097822934
4	0xbe1b2aa1	-0.1515298
5	0x3e08ee95	0.13372262
6	0xbf5ae881	-0.8551102
7	0xbdcbeec3	-0.099576496
8	0xbe843049	-0.2581809
9	0xbe80c8bf	-0.25153157
10	0x3e0406bf	0.12893198
11	0x3e802283	0.2502633
12	0xbf41350f	-0.75471586
13	0x3e00be36	0.1257256
14	0xbf121880	-0.57068634
15	0xbed9c5cc	-0.4253372
16	0xbd806cbd	-0.0627074
17	0x3e998556	0.2998454
18	0xbeadbda8	-0.3393376
19	0xbddd5f5a	-0.108092025
20	0x3d412aa0	0.04715979
21	0x3e9c5a39	0.30537584
22	0xbcb35785	-0.021892319
23	0xbeae154c	-0.34000623
24	0xbea43a72	-0.3207584
25	0x3dffbfe9	0.12487776
26	0x3e9ada34	0.302446
27	0xbf475036	-0.7785677
28	0xbeb7e2bc	-0.35915172
29	0x3eaee400	0.34158325
30	0x3e1ee009	0.1551515
31	0x3db99d4d	0.09063206
32	0x3f1ba48e	0.60797966
33	0xbe827f10	-0.25487566
34	0x3ed98326	0.4248287
35	0x3f4a4fcf	0.7902803
36	0xbea7a4c2	-0.32742888
37	0xbf4e39c4	-0.80556893
38	0xbd2da163	-0.04239024
39	0xbe5b9ba4	-0.21446091
40	0xbee728af	-0.45148227
41	0x3c529031	0.012851761
42	0x3f1ec18a	0.6201407
43	0x3dd9ba9d	0.10631297
44	0x3f2c4cce	0.67304695
45	0xbe844008	-0.25830102
46	0x3e468492	0.19386509
47	0x3dd7903b	0.10525557
48	0xbf1d30ab	-0.61402386
49	0x3ed3643b	0.41287407
50	0x3e5c1801	0.21493532
51	0x3e287e66	0.16454467
52	0xbdda03c1	-0.10645247
53	0x3e3fef1c	0.18743557
54	0xbd443936	-0.047906123
55	0x3e9551c0	0.29163933
56	0x3e6f051f	0.23341797
57	0x3e576005	0.21032722
58	0x3e879a01	0.26484683
59	0xbd56426b	-0.052309435
60	0x3dffdfb7	0.12493842
61	0x3ec4bc7c	0.38425052
62	0xbf0af66a	-0.5428225
63	0x3e073cee	0.13206837
64	0x3eacbcfb	0.3373793
65	0xbf1d7e32	-0.61520684
66	0x3cde6a17	0.027150197
67	0xbe71efee	-0.23626682
68	0xbf4e32a9	-0.8054605
69	0x3ecbe29c	0.39821327
70	0xbec1deb8	-0.37865233
71	0x3e0b01c4	0.13574892
72	0xbe44fb67	-0.19236527
73	0x3eb73f3f	0.3579044
74	0x3d419521	0.04726136
75	0xbd87f03e	-0.066376194
76	0xbe9d2b1a	-0.30696946
77	0xbe728219	-0.23682441
78	0x3e308935	0.1723984
79	0x3e4b3f15	0.19848283
80	0xbf5df230	-0.86697674
81	0xbd5d5331	-0.054034416
82	0x3ece58e9	0.40302208
83	0xbe1cb35d	-0.15302797
84	0x3ec58f1d	0.3858575
85	0xbe572fb7	-0.21014296
86	0x3d38dd11	0.0451327
87	0x3f04410f	0.5166177
88	0xbc5d2ae6	-0.013498997
89	0x3e9f2ab5	0.3108727
90	0x3ebe2263	0.3713561
91	0xbe51e12e	-0.20496055
92	0xbf33a6db	-0.70176476
93	0x3f474fd3	0.7785618
94	0x3e1857ff	0.14877318
95	0x3d299e69	0.041410837
96	0x3f55c1c4	0.8349879
97	0xbe062438	-0.13099754
98	0x3e610c06	0.21977243
99	0x3e45fe8f	0.19335388
100	0x3e8d5d80	0.27610397
101	0xbe3009bd	-0.17191215
102	0xbf53d1ba	-0.8274189
103	0x3dddd258	0.108311355
104	0xbd1ff0be	-0.03904795
105	0xbd3cef74	-0.046126798
106	0x3e7211f0	0.23639655
107	0x3ee3e600	0.44511414
108	0xbf2bfcd8	-0.67182684
109	0x3f070025	0.52734596
110	0xbecf3102	-0.40467077
111	0xbe6fd6d3	-0.23421793
112	0x3db3b834	0.08775368
113	0x3eab30dc	0.33435714
114	0x3dd60d61	0.104517706
115	0x3e8c9074	0.2745396
116	0x3ee2831e	0.4424066
117	0xbd066285	-0.0328088
118	0x3ec36b08	0.38167596
119	0x3dfec83a	0.12440534
120	0x3ea950dd	0.33069506
121	0xbda392c5	-0.079869784
122	0x3df49021	0.11941553
123	0x3dfca826	0.12336759
124	0x3eb77f9c	0.35839546
125	0xbf481f62	-0.78172886
126	0xbdd2f84b	-0.103012644
127	0x3eeeb5aa	0.46622974

layers.1.1.weight f4 [8]
0	0x3f72f68d	0.94907457
1	0x3f8024a0	1.0011177
2	0x3f897034	1.0737367
3	0x3f6fb8e2	0.93641484
4	0x3f796310	0.9741678
5	0x3f7a3954	0.97743726
6	0x3f86bd4f	1.0526522
7	0x3f850bdf	1.0394248

layers.1.1.bias f4 [8]
0	0xbb83cc6c	-0.0040221717
1	0xbce35edd	-0.027755195
2	0x3d683e37	0.056699958
3	0xbd51c8b3	-0.051216792
4	0xbcd2f10b	-0.025749704
5	0xbd25e0ce	-0.040497594
6	0x3d73e844	0.059547678
7	0x3d317326	0.043322705

layers.1.1.running_mean f4 [8]
0	0xbf84d923	-1.0378765
1	0xbe5f7c96	-0.2182487
2	0x3ef1b14d	0.47205582
3	0x3f080415	0.5313123
4	0xbf0b044a	-0.5430342
5	0x3ebdf8ee	0.3710398
6	0x3d177807	0.0369797
7	0x3f58a3f7	0.8462519

layers.1.1.running_var f4 [8]
0	0x3fe2e956	1.7727458
1	0x3e92c630	0.2866683
2	0x402cd311	2.7003825
3	0x3f3c82dc	0.73637176
4	0x3e808072	0.25097996
5	0x40401505	3.001283
6	0x4002d379	2.0441573
7	0x3f89a28b	1.0752729

layers.2.0.weight f4 [4, 8]
0	0xbe2c1357	-0.16804253
1	0x3bac9d75	0.005267794
2	0x3ea64745	0.3247625
3	0x3f60b856	0.87781274
4	0x3e0131a0	0.12616587
5	0x3e1a0fc8	0.15045083
6	0xbf9a11b9	-1.2036659
7	0x3ecb19d1	0.39668134
8	0xbeffaef4	-0.49938166
9	0x3e1c9fbf	0.15295313
10	0x3bc452a5	0.0059912973
11	0xbd94ea54	-0.07271257
12	0xbdbe64ba	-0.09296556
13	0xbed37006	-0.41296405
14	0xbf1e4cde	-0.6183604
15	0xbe99f7c8	-0.30071855
16	0xbe813130	-0.2523284
17	0x3f176da7	0.5915169
18	0xbf0d1edf	-0.5512523
19	0xbdc77529	-0.097391434
20	0xbf0a3d67	-0.5399994
21	0x3e76a48f	0.24086212
22	0x3e967c75	0.29391828
23	0xbed81427	-0.42202875
24	0xbde6b790	-0.112654805
25	0x3f481fa1	0.7817326
26	0xbf2de103	-0.67921466
27	0xbd6081fc	-0.054811463
28	0xbd277adf	-0.040888663
29	0x3f2ab812	0.6668712
30	0x3ee6b5b6	0.4506051
31	0xbf0b988d	-0.5452965

layers.2.1.weight f4 [4]
0	0x3f80635d	1.0030323
1	0x3f7c9d6a	0.98677695
2	0x3f7b9ed5	0.98289233
3	0x3f7e8c34	0.99432683

layers.2.1.bias f4 [4]
0	0xb9e35da2	-0.00043366576
1	0xbc500418	-0.0126962885
2	0xbc3900ba	-0.011291677
3	0xbd21a56d	-0.039464403

layers.2.1.running_mean f4 [4]
0	0x3db11535	0.08646623
1	0xbf4782c4	-0.7793391
2	0xbea019f4	-0.312698
3	0x3e22832d	0.15870352

layers.2.1.running_var f4 [4]
0	0x3f31037c	0.6914594
1	0x3ef94d63	0.48691854
2	0x3f5e86c8	0.8692441
3	0x3fefb6d3	1.8727669

layers.3.0.weight f4 [2, 4]
0	0x3f0c81c6	0.5488552
1	0x3e14bb7b	0.14524643
2	0x3eecad7a	0.46226102
3	0x3f5c3196	0.8601316
4	0xbfce8d50	-1.6136875
5	0x3f1a5bf7	0.6029658
6	0x40039d6d	2.0564835
7	0x3f894035	1.072272

layers.3.1.weight f4 [2]
0	0x3f711e95	0.9418729
1	0x3f7afdb3	0.98043364

layers.3.1.bias f4 [2]
0	0xbbde1568	-0.006777454
1	0xbb3d56a6	-0.0028890758

layers.3.1.running_mean f4 [2]
0	0x3f404d7e	0.75118244
1	0x3f3ae3c6	0.73003805

layers.3.1.running_var f4 [2]
0	0x3e8455ce	0.25846714
1	0x4095af64	4.67766

fc_out.weight f4 [2, 2]
0	0xbfda4a33	-1.7053894
1	0x3f369df8	0.7133479
2	0xbeb7bf08	-0.35887933
3	0xbf83b74b	-1.0290312

fc_out.bias f4 [2]
0	0xbd850d7e	-0.06496714
1	0x3d850d7e	0.06496714

exp_avg f4 [16, 66]
0	0xbb8a2255	-0.0042155185
1	0xb91bbd8f	-0.00014852568
2	0x39e87c85	0.00044343263
3	0x3b42abe4	0.0029704506
4	0x3a7ca006	0.00096368825
5	0x3a2df78b	0.0006636313
6	0x37b52280	2.1592947e-05
7	0xb87cbec8	-6.025916e-05
8	0xb9b66e0d	-0.0003479574
9	0xb90653b7	-0.00012810422
10	0x3a3c49be	0.00071826193
11	0x3a1e85ee	0.0006047179
12	0x38bb194a	8.921565e-05
13	0xb8c25508	-9.266479e-05
14	0x387ea148	6.0708524e-05
15	0x39a84c5b	0.00032100346
16	0xb83d5a2c	-4.514509e-05
17	0xb9a35201	-0.0003115088
18	0xbb8bd6d4	-0.004267553
19	0xb9351a51	-0.00017271309
20	0x3a213b4b	0.0006150498
21	0x3b50e887	0.0031876878
22	0x39fd3df3	0.00048302076
23	0x39df3c66	0.00042578875
24	0x3898f2d9	7.293159e-05
25	0x385700c3	5.1260704e-05
26	0x3a19efaf	0.00058722025
27	0x38b526f0	8.638005e-05
28	0x38969212	7.179765e-05
29	0x3988c114	0.00026083796
30	0xb749f754	-1.2038119e-05
31	0xb9c8caaa	-0.0003829797
32	0xb68019ec	-3.817715e-06
33	0xba056c99	-0.00050897297
34	0x00000000	0.0
35	0x00000000	0.0
36	0xb720eed1	-9.592347e-06
37	0x00000000	0.0
38	0x00000000	0.0
39	0x31d28f94	6.1281273e-09
40	0x3896bbb5	7.1875205e-05
41	0x38c381ec	9.3225244e-05
42	0x386db6fa	5.6675613e-05
43	0x37d47bca	2.5330013e-05
44	0x38b3a049	8.5652406e-05
45	0x3cfc82bb	0.030824056
46	0x3d281f88	0.041045696
47	0x3d27dc7f	0.040981766
48	0x3ca851a7	0.020546747
49	0x3c965b65	0.018354127
50	0x3d1f677e	0.038917057
51	0xbba4f53f	-0.0050341184
52	0xbb9e1771	-0.004824572
53	0xbc217744	-0.009855095
54	0x3b99ada5	0.0046898895
55	0x3d4ba341	0.049716238
56	0x3cc5c501	0.02414179
57	0x3d0a61a3	0.03378452
58	0x3d0a5c92	0.03377969
59	0x3cd28408	0.025697723
60	0xaa20db1f	-1.4286878e-13
61	0xafc91e79	-3.658334e-10
62	0xb7874185	-1.6123764e-05
63	0xb76a9c9c	-1.398395e-05
64	0xb7fc7008	-3.009291e-05
65	0x3d67c7ac	0.056586906
66	0x3b5be761	0.003355466
67	0x39946d07	0.00028309991
68	0xb988f749	-0.00026124183
69	0x3aa4d899	0.0012576758
70	0xba05bd6f	-0.0005101775
71	0xba516113	-0.00079871825
72	0x3a095493	0.0005238738
73	0x39a81ee2	0.00032066467
74	0x3a18fceb	0.00058360276
75	0x39689f4b	0.00022184585
76	0xba8e3c83	-0.0010851774
77	0xb9d23bdd	-0.00040098923
78	0xb761befe	-1.3455514e-05
79	0x393bee20	0.00017922418
80	0xb887a996	-6.4688895e-05
81	0x3758d606	1.29244345e-05
82	0x389f018c	7.581999e-05
83	0x39329763	0.00017031799
84	0x3b205f52	0.0024470878
85	0x38a442b0	7.832551e-05
86	0xb9a44e04	-0.00031338644
87	0xba78943e	-0.0009482539
88	0xb87f0547	-6.0801653e-05
89	0xba2e5e41	-0.0006651618
90	0x38bf1975	9.1123315e-05
91	0x37faea32	2.9911378e-05
92	0xba01c1c9	-0.0004949836
93	0xb89086a7	-6.891536e-05
94	0xb8d5bed0	-0.00010192173
95	0x381f2a91	3.7948197e-05
96	0x385405a9	5.055001e-05
97	0x39ecbefa	0.00045155716
98	0x364f6f20	3.0910087e-06
99	0x3a3eb52a	0.00072749204
100	0x00000000	0.0
101	0x00000000	0.0
102	0x36f7f847	7.390077e-06
103	0x00000000	0.0
104	0x00000000	0.0
105	0xb7e864f7	-2.770357e-05
106	0xb8b9ddd8	-8.862809e-05
107	0xb8b16e2a	-8.460537e-05
108	0x375522d9	1.2703903e-05
109	0x3580fa7e	9.609646e-07
110	0xb96627f2	-0.0002194939
111	0x3c5f7f60	0.013641208
112	0x3bbcee08	0.00576568
113	0x3bc49982	0.005999745
114	0xbc1f602e	-0.009727521
115	0xbc046117	-0.008079789
116	0xbc920453	-0.017824328
117	0x3c4db675	0.012555708
118	0x3c618337	0.013764194
119	0x3cd7a21d	0.026322419
120	0xbb084efe	-0.0020799036
121	0xbca3422a	-0.01992901
122	0x3c5910ae	0.013248606
123	0x3bd18a7b	0.006394682
124	0x3bcf876f	0.0063332836
125	0xbbfea12b	-0.0077706776
126	0x33456f77	4.5969013e-08
127	0x33043d36	3.0789316e-08
128	0x37f4d540	2.9186369e-05
129	0x381a9adc	3.6860685e-05
130	0x388a71d5	6.601556e-05
131	0xbd384ef7	-0.04499718
132	0xba8cda48	-0.0010746205
133	0xb816b2e2	-3.5929384e-05
134	0xb989129d	-0.00026144544
135	0x3942e59f	0.00018586822
136	0x3940dd35	0.00018392953
137	0x3880e469	6.14606e-05
138	0xb7fed404	-3.0377887e-05
139	0xb89281be	-6.985989e-05
140	0xb869154c	-5.5571363e-05
141	0x375b79ba	1.3081759e-05
142	0xb9cf617d	-0.0003955475
143	0x37d1f079	2.502672e-05
144	0xb8139678	-3.5187666e-05
145	0x36e82a98	6.9190974e-06
146	0xb823a8d6	-3.901947e-05
147	0xb864a8fa	-5.4516808e-05
148	0xb78ee8e1	-1.7036162e-05
149	0xb7df4d21	-2.6619588e-05
150	0xba197160	-0.0005853381
151	0xb6b816ad	-5.486267e-06
152	0xb90df441	-0.000135378
153	0x39a6e578	0.00031832955
154	0x393d6970	0.00018063723
155	0x3891ba38	6.948825e-05
156	0x36cdb40a	6.1304354e-06
157	0xb7af26ec	-2.087975e-05
158	0xb6b1d05a	-5.2992664e-06
159	0xb8779996	-5.9032427e-05
160	0xb7c8fe39	-2.396024e-05
161	0x37cec239	2.4647556e-05
162	0xb7650668	-1.3650955e-05
163	0xb7ea176e	-2.7905884e-05
164	0x34c622c5	3.6905672e-07
165	0xb95da857	-0.00021138914
166	0x00000000	0.0
167	0x00000000	0.0
168	0xb6327059	-2.6589462e-06
169	0x00000000	0.0
170	0x00000000	0.0
171	0x375c1f4a	1.3120307e-05
172	0xb7895caa	-1.6374823e-05
173	0xb7f030c8	-2.8632945e-05
174	0xb74132e9	-1.151555e-05
175	0xb7d120cf	-2.493002e-05
176	0x36b321f3	5.338568e-06
177	0xbc334051	-0.010940627
178	0xbc157feb	-0.009124736
179	0xbc166b93	-0.009180921
180	0x3a799a77	0.0009521613
181	0x3ace0067	0.0015716673
182	0x3b255847	0.002522962
183	0xbbc5b33b	-0.006033329
184	0xbbbc7f05	-0.0057524466
185	0xbc4129b2	-0.011789726
186	0x39407aad	0.00018356247
187	0x3b4644a0	0.0030253306
188	0xbc32a44f	-0.010903432
189	0xbc15796d	-0.009123188
190	0xbc1499d8	-0.009069882
191	0xbccb8f91	-0.024848731
192	0x00000000	0.0
193	0x00000000	0.0
194	0x32cabeb5	2.3602619e-08
195	0xb65f418c	-3.3267743e-06
196	0xb65b8b72	-3.271471e-06
197	0xbb4f6d37	-0.003165079
198	0xbb068fc1	-0.0020532461
199	0xb81e30ba	-3.7715516e-05
200	0xb96c1323	-0.00022513843
201	0x3ac77143	0.001521625
202	0x39f79577	0.0004722287
203	0x39980556	0.00028995675
204	0x36bd199a	5.6356193e-06
205	0xb88deec6	-6.767879e-05
206	0xb8fdd3ec	-0.000121034536
207	0xb9103c70	-0.00013755425
208	0xb985096c	-0.00025374757
209	0x39b8cc00	0.00035247207
210	0x3832ea88	4.265693e-05
211	0x379ec7e4	1.8928149e-05
212	0xb70fbe65	-8.567794e-06
213	0x38cd288c	9.782714e-05
214	0xb7a5bae2	-1.9756557e-05
215	0xb9050a3e	-0.00012687684
216	0xbb0a70fc	-0.0021124473
217	0xb828ab4e	-4.021386e-05
218	0xba02802b	-0.0004978205
219	0x3a074411	0.0005159984
220	0x399c2a66	0.00029786228
221	0x38ba4163	8.8813504e-05
222	0xb9371dd0	-0.00017463346
223	0x366e01c9	3.5465803e-06
224	0x39822ca3	0.0002482879
225	0xb6cf0870	-6.170063e-06
226	0x36836752	3.9161323e-06
227	0x389bfb34	7.437766e-05
228	0xb5c9b0fe	-1.5027179e-06
229	0xb9052b22	-0.00012699937
230	0xb628aafc	-2.5133477e-06
231	0xb908f859	-0.00013062487
232	0x00000000	0.0
233	0x00000000	0.0
234	0xb6ba99ac	-5.5611217e-06
235	0x00000000	0.0
236	0x00000000	0.0
237	0xb6486ef1	-2.9866899e-06
238	0xb7b33677	-2.1363825e-05
239	0xb81b0021	-3.6955e-05
240	0x361f898e	2.3772914e-06
241	0xb88aa0bf	-6.610294e-05
242	0xb8341021	-4.2930365e-05
243	0xbbaf6c54	-0.00535349
244	0xba108578	-0.00055130525
245	0xba2aa9d3	-0.0006510291
246	0x3c1dc9f1	0.009630666
247	0x3bfff959	0.007811707
248	0x3c8ef770	0.017451972
249	0xbc356c8b	-0.011073242
250	0xbc1f4899	-0.0097218985
251	0xbcaa61b9	-0.02079855
252	0x3add847e	0.0016900448
253	0x3cab0662	0.020877067
254	0xbbceb806	-0.0063085584
255	0xbae43a72	-0.0017412438

exp_avg_sq f4 [16, 66]
0	0x35e4436c	1.7006946e-06
1	0x31c8f38b	5.8484537e-09
2	0x34667239	2.1461973e-07
3	0x36515ad1	3.119629e-06
4	0x341fbddc	1.48771e-07
5	0x3358125a	5.030811e-08
6	0x32ff80e9	2.9744529e-08
7	0x31da92f7	6.361343e-09
8	0x3295f3a4	1.7456678e-08
9	0x331c2330	3.6353583e-08
10	0x35914dd0	1.0825988e-06
11	0x33245aca	3.8266798e-08
12	0x32cfda96	2.4197373e-08
13	0x31ada2ad	5.0534568e-09
14	0x30ee399f	1.7333156e-09
15	0x32d7b670	2.5112257e-08
16	0x2f285e3e	1.5312993e-10
17	0x325aec89	1.2743052e-08
18	0x36483597	2.9833516e-06
19	0x3202b245	7.60753e-09
20	0x34b9f6a4	3.463839e-07
21	0x3630f77a	2.6370094e-06
22	0x33e4a95e	1.0647885e-07
23	0x33165274	3.4999587e-08
24	0x330da4f7	3.2979155e-08
25	0x32246f3a	9.571346e-09
26	0x3338cef2	4.3029054e-08
27	0x31fa7913	7.289722e-09
28	0x312b6764	2.4942546e-09
29	0x32ef1840	2.783429e-08
30	0x2f64e30f	2.0817147e-10
31	0x32369834	1.0628401e-08
32	0x2c0aab0f	1.9705936e-12
33	0x33153ceb	3.474717e-08
34	0x00000000	0.0
35	0x00000000	0.0
36	0x2e11b324	3.3128292e-11
37	0x00000000	0.0
38	0x00000000	0.0
39	0x310b370d	2.0258455e-09
40	0x30e49369	1.663108e-09
41	0x3123c77d	2.3833018e-09
42	0x312c0694	2.5033033e-09
43	0x31c33335	5.6810685e-09
44	0x31b9ac26	5.4037796e-09
45	0x3a915afb	0.0011089736
46	0x3a9b0e7a	0.0011829876
47	0x3a9ae17b	0.0011816466
48	0x3973bcc8	0.00023244612
49	0x394c9f0b	0.00019514204
50	0x3a5f5bcf	0.00085204554
51	0x36c2b395	5.8025566e-06
52	0x37a72083	1.992309e-05
53	0x383cd560	4.5021414e-05
54	0x3686b46e	4.014516e-06
55	0x3a6f4f2c	0.0009128924
56	0x3a968965	0.0011485039
57	0x3a9fc1ef	0.0012188534
58	0x3aa01cf8	0.0012215665
59	0x3b102be5	0.002199882
60	0x24995675	6.649964e-17
61	0x2581fc81	2.2549036e-16
62	0x2f4ea171	1.8792946e-10
63	0x2fb1be28	3.2331227e-10
64	0x30852745	9.688185e-10
65	0x3aaa68d2	0.001300121
66	0x36103c47	2.1492758e-06
67	0x31ec7c23	6.8826167e-09
68	0x3513f102	5.511248e-07
69	0x35de6543	1.656976e-06
70	0x33800eac	5.963133e-08
71	0x3344d3c8	4.582742e-08
72	0x33034a2a	3.0568266e-08
73	0x3280b09a	1.498147e-08
74	0x32a70d7d	1.9447493e-08
75	0x3336b2ba	4.2537728e-08
76	0x34c21b3a	3.6155126e-07
77	0x330f4a0a	3.336212e-08
78	0x31f9a0f6	7.265153e-09
79	0x31bb40bd	5.449776e-09
80	0x3089e18e	1.0032168e-09
81	0x32f69390	2.8705273e-08
82	0x2f74cdb0	2.2264746e-10
83	0x32752ba1	1.4270797e-08
84	0x35a199a5	1.2040151e-06
85	0x31f2ef25	7.0703146e-09
86	0x348290ad	2.4319652e-07
87	0x35d83781	1.6109408e-06
88	0x3303dbf5	3.0700864e-08
89	0x33000e27	2.9815194e-08
90	0x33203fc4	3.7310897e-08
91	0x3227677b	9.744208e-09
92	0x3270e3c9	1.4021631e-08
93	0x31ae3ab1	5.070739e-09
94	0x30e51783	1.6668625e-09
95	0x32c117de	2.247901e-08
96	0x2f513de8	1.9030433e-10
97	0x33120324	3.399613e-08
98	0x2c03fa8a	1.8755297e-12
99	0x32ab7168	1.9958591e-08
100	0x00000000	0.0
101	0x00000000	0.0
102	0x2de51e2b	2.6047683e-11
103	0x00000000	0.0
104	0x00000000	0.0
105	0x3058841f	7.87681e-10
106	0x30cc62a6	1.4870991e-09
107	0x314b3095	2.9568004e-09
108	0x30e32d73	1.6529341e-09
109	0x302b229a	6.225861e-10
110	0x3156199e	3.115566e-09
111	0x398db941	0.0002703164
112	0x3993866a	0.0002813817
113	0x399346c8	0.0002809076
114	0x3795de9a	1.7865841e-05
115	0x37a98012	2.0206007e-05
116	0x389db8cc	7.5207645e-05
117	0x37a12176	1.9208277e-05
118	0x37d3c428	2.5244502e-05
119	0x38b7088e	8.7277134e-05
120	0x361da7f5	2.3492587e-06
121	0x3901dff7	0.00012385832
122	0x39539c38	0.00020180724
123	0x395a0135	0.0002079055
124	0x39595672	0.00020726936
125	0x3981d288	0.00024761655
126	0x2463e41c	4.9415995e-17
127	0x24db5ab5	9.5129774e-17
128	0x2f28519a	1.5308502e-10
129	0x2f475f0b	1.813271e-10
130	0x303368ef	6.526894e-10
131	0x39bea1f8	0.000363603
132	0x34375b45	1.7076407e-07
133	0x2fc22a99	3.5318662e-10
134	0x33265ae3	3.8732548e-08
135	0x341178b1	1.3548085e-07
136	0x3225e012	9.655212e-09
137	0x3154857c	3.0925937e-09
138	0x31ce6bd8	6.0076495e-09
139	0x301ba74b	5.662641e-10
140	0x30b34216	1.3042747e-09
141	0x310f8c2e	2.0888922e-09
142	0x336816e4	5.403753e-08
143	0x30b1c940	1.2935644e-09
144	0x2fabe7de	3.126947e-10
145	0x2ffc06cb	4.584336e-10
146	0x2fa06b96	2.9180275e-10
147	0x31038825	1.9140398e-09
148	0x2e073d7e	3.0750062e-11
149	0x30479610	7.260903e-10
150	0x346f591e	2.229103e-07
151	0x3008693c	4.962606e-10
152	0x333edded	4.4439663e-08
153	0x3437ab6e	1.7105569e-07
154	0x31dbc735	6.396386e-09
155	0x31881272	3.960218e-09
156	0x31b6142c	5.2991904e-09
157	0x2fbb592d	3.4078465e-10
158	0x30a25a60	1.1812737e-09
159	0x301579e4	5.43791e-10
160	0x2eec7a08	1.07537146e-10
161	0x3095471a	1.0861385e-09
162	0x2d9daf37	1.7926645e-11
163	0x30e7577c	1.6832327e-09
164	0x29bc81c4	8.371388e-14
165	0x3242041c	1.1293221e-08
166	0x00000000	0.0
167	0x00000000	0.0
168	0x2bd1cb8e	1.4906841e-12
169	0x00000000	0.0
170	0x00000000	0.0
171	0x2dbf144b	2.1723198e-11
172	0x2edf39db	1.0151143e-10
173	0x2ef45c90	1.1112278e-10
174	0x2ecdb5c0	9.354606e-11
175	0x2eb4a4f7	8.214756e-11
176	0x2f276f87	1.5228184e-10
177	0x3704e8c0	7.922004e-06
178	0x36f84b82	7.399766e-06
179	0x36fb84cd	7.495843e-06
180	0x359d42b0	1.171682e-06
181	0x35a1fa24	1.2068235e-06
182	0x369df502	4.7074873e-06
183	0x3650f003	3.113412e-06
184	0x365470af	3.1656052e-06
185	0x375118d6	1.2463153e-05
186	0x344fe9aa	1.9363384e-07
187	0x36a590e9	4.934253e-06
188	0x3708dca8	8.157607e-06
189	0x36f45535	7.281686e-06
190	0x36f1a7f6	7.201913e-06
191	0x37fe812d	3.0339312e-05
192	0x00000000	0.0
193	0x00000000	0.0
194	0x2cd47eef	6.039495e-12
195	0x2d112294	8.249974e-12
196	0x2de02633	2.5482816e-11
197	0x375eab79	1.3272155e-05
198	0x35f607e0	1.833072e-06
199	0x3114e2a4	2.1665665e-09
200	0x34892ec1	2.5552256e-07
201	0x36de164f	6.6187126e-06
202	0x33a9bd6d	7.904132e-08
203	0x333cf9fe	4.3999528e-08
204	0x332ae96d	3.979351e-08
205	0x31d1e3b0	6.1085856e-09
206	0x32502dcc	1.21176065e-08
207	0x33181658	3.541058e-08
208	0x34dcaba8	4.110309e-07
209	0x329dcf2d	1.8371418e-08
210	0x30fb38df	1.8278817e-09
211	0x31d8009d	6.286497e-09
212	0x309d8945	1.1462268e-09
213	0x32e5fd6f	2.6774357e-08
214	0x2fb0d436	3.2164998e-10
215	0x31baf720	5.4414073e-09
216	0x360a9126	2.064809e-06
217	0x30e4dcd5	1.6651948e-09
218	0x349b5896	2.8935455e-07
219	0x36ea71ca	6.9869902e-06
220	0x33a0240a	7.457136e-08
221	0x332ee766	4.0722988e-08
222	0x337f6ac8	5.946893e-08
223	0x318ee5e9	4.1588817e-09
224	0x32843e75	1.5395225e-08
225	0x30a460fd	1.1960136e-09
226	0x302c30cc	6.264258e-10
227	0x32ff56ad	2.9725323e-08
228	0x2ed95ae6	9.884164e-11
229	0x3263b6e6	1.3254725e-08
230	0x2ba0f986	1.143794e-12
231	0x339fe570	7.445749e-08
232	0x00000000	0.0
233	0x00000000	0.0
234	0x2e16c9b8	3.4285214e-11
235	0x00000000	0.0
236	0x00000000	0.0
237	0x300ab19e	5.0456517e-10
238	0x315aa7fe	3.1818668e-09
239	0x3108dea3	1.991716e-09
240	0x30338ff3	6.5324385e-10
241	0x30630430	8.258807e-10
242	0x315bdaa0	3.1992968e-09
243	0x3a7a2264	0.0009541868
244	0x3a6ba9ad	0.0008989822
245	0x3a6b8484	0.0008984285
246	0x37f835a7	2.9588888e-05
247	0x381a21f9	3.67481e-05
248	0x3909738a	0.0001310838
249	0x3884eda6	6.338516e-05
250	0x386c55e0	5.6346762e-05
251	0x3979e980	0.00023833476
252	0x368b749d	4.1560984e-06
253	0x39a9dc83	0.00032398486
254	0x3a343662	0.0006874559
255	0x3a271cf0	0.00063748565

exp_avg f4 [16]
0	0x3a1c100b	0.00059533183
1	0x3caa9f72	0.020827983
2	0xba1304a5	-0.0005608297
3	0xbc41119e	-0.011783985
4	0x3cb27fc4	0.021789439
5	0xbc1f8d4a	-0.009738276
6	0xbb82584f	-0.0039778124
7	0xbc2c1fea	-0.010505656
8	0x3bc4aa3f	0.00600174
9	0x3c08cf74	0.008350242
10	0xbb3f24b2	-0.002916616
11	0xbc469395	-0.012120147
12	0xbc38396d	-0.01124416
13	0x3bf00e47	0.0073259207
14	0x3bcd249d	0.006260468
15	0xbbe7e4f2	-0.007076853

exp_avg_sq f4 [16]
0	0x3952df88	0.00020110433
1	0x39216975	0.00015393442
2	0x39044e1d	0.000126176
3	0x38834683	6.2597006e-05
4	0x394e40ee	0.00019669879
5	0x39096c6c	0.00013105728
6	0x3904aefc	0.00012653688
7	0x39542d2e	0.00020234726
8	0x39436d62	0.00018637397
9	0x37af4eeb	2.0898375e-05
10	0x390b9a78	0.00013313617
11	0x394a52e2	0.00019295097
12	0x3a012fc5	0.00049280777
13	0x3a95a875	0.0011418002
14	0x38850cd4	6.3443236e-05
15	0x3995c719	0.00028567834

exp_avg f4 [16]
0	0x3cf19753	0.029491102
1	0xbc8ef21b	-0.01744943
2	0x3c6eaabe	0.014567075
3	0xba991191	-0.0011678209
4	0xb70b339f	-8.297065e-06
5	0xbc9c45eb	-0.019076308
6	0xbd158fa6	-0.036513947
7	0xbb687b61	-0.003547393
8	0x3b6afbcc	0.003585565
9	0x3c10a7d7	0.008829079
10	0x3ab3fceb	0.0013731992
11	0xbc9709d2	-0.0184373
12	0xbc8b0054	-0.01696793
13	0x3cfe3935	0.031033138
14	0x3bed9978	0.007250961
15	0xbb170ed5	-0.0023049612

exp_avg_sq f4 [16]
0	0x396ee439	0.00022782468
1	0x397dd3a0	0.00024206797
2	0x3897b290	7.233501e-05
3	0x38c2315c	9.259835e-05
4	0x39891351	0.00026145068
5	0x38d7bd54	0.00010287264
6	0x39937b08	0.0002812969
7	0x39097eb6	0.00013112542
8	0x38d3333e	0.00010070809
9	0x3846f009	4.743043e-05
10	0x388cc55d	6.712482e-05
11	0x3990a73e	0.00027590425
12	0x3941bb72	0.00018475743
13	0x3a57a158	0.0008225641
14	0x38bc4d46	8.978932e-05
15	0x3946a7a4	0.00018945202

exp_avg f4 [8, 16]
0	0x3be8adb8	0.007100787
1	0x3ae29464	0.0017286655
2	0xbc87b60a	-0.016566295
3	0x3a5ffd66	0.0008544534
4	0xbc3e7f45	-0.011627023
5	0xbc8cc8c8	-0.017185584
6	0x3b60062e	0.003418337
7	0xbc90f98f	-0.017697124
8	0xbc847d0d	-0.01617291
9	0x3bdcbf32	0.0067366594
10	0xbc0dd29b	-0.008656169
11	0xbc8d2bc0	-0.017232776
12	0x3a196f27	0.000585305
13	0xbc966b1a	-0.018361617
14	0xbbd3d497	-0.0064645517
15	0x3c2878ef	0.010282739
16	0x3bdb1308	0.0066856183
17	0x3d519df3	0.051176023
18	0xbb9990fc	-0.004686473
19	0x3ceb5d05	0.028730879
20	0x3c02531e	0.007954387
21	0x3c90fbec	0.01769825
22	0x3d01d4f5	0.031697232
23	0x3c8ecf81	0.01743293
24	0x3c6a5e40	0.0143046975
25	0x3c62833a	0.013825232
26	0x3bcc7a88	0.006240193
27	0x3c3dffe5	0.011596655
28	0x3d127a0f	0.035760935
29	0x3c9a2e8b	0.018821022
30	0x3cb45ab1	0.022015901
31	0xbbb39c7a	-0.0054813
32	0x3a83c299	0.0010052501
33	0x3c5854a6	0.0132037755
34	0xbb92054b	-0.0044561974
35	0xbc2d4c50	-0.010577276
36	0xba6d4ea2	-0.000905255
37	0xbc245c24	-0.010031734
38	0xbc045c0f	-0.008078589
39	0xbbeb0b69	-0.007172991
40	0xbc061bea	-0.008185366
41	0x3c4f54a1	0.012654454
42	0xb9a21ca6	-0.00030920393
43	0xbc0f99fa	-0.008764738
44	0xba13e7c0	-0.00056421384
45	0xbc1fb69b	-0.009748126
46	0xbc8fa183	-0.01753307
47	0x3b9e6993	0.004834363
48	0x3963404b	0.00021672358
49	0x3d32154a	0.043477334
50	0xbcdb29cd	-0.02675333
51	0x3993cd8f	0.00028191178
52	0xbc4d6e89	-0.012538561
53	0xbcc0c402	-0.023530964
54	0x3a7e8519	0.0009709164
55	0xbc7b019b	-0.015320207
56	0xbc5c97aa	-0.013463894
57	0x3cd1129e	0.025521573
58	0xbca2722a	-0.019829828
59	0xbcceeca8	-0.02525933
60	0x3ca9d913	0.020733392
61	0xbceb89a7	-0.028752161
62	0xbbf9f4f2	-0.0076280767
63	0xbacde193	-0.0015707485
64	0xbc0c54b8	-0.00856512
65	0x3cca5708	0.024699703
66	0xbcf7c550	-0.030245453
67	0xbceef7ec	-0.029170953
68	0xbc7342c2	-0.014847459
69	0xbd2990f4	-0.041398004
70	0xbcbcf1a0	-0.023064435
71	0xbcd2508c	-0.025673173
72	0xbc9fe387	-0.019517673
73	0x3c031ecd	0.008002949
74	0xbc88c8e0	-0.016697347
75	0xbd13edef	-0.036115583
76	0xbbc09abd	-0.0058778212
77	0xbd1880f5	-0.037232358
78	0xbd424d22	-0.04743684
79	0xbb8f0360	-0.004364416
80	0xb882ce0a	-6.237261e-05
81	0xbb5e94f6	-0.00339633
82	0x397d8182	0.00024176206
83	0xb9dc79df	-0.0004205247
84	0xbb37b424	-0.0028030956
85	0x3b5bc80b	0.0033535983
86	0xb99b71cb	-0.00029648686
87	0xb997dd83	-0.00028966003
88	0x39f3f9b7	0.00046534624
89	0xb9d7c11b	-0.0004115187
90	0x3b312775	0.0027031575
91	0x39b3c288	0.00034286478
92	0xb83c94fa	-4.4961438e-05
93	0x3a9fdb8d	0.0012196169
94	0xbb06f89a	-0.0020594955
95	0xba04ea5f	-0.00050703244
96	0x39cb4582	0.00038770965
97	0xbb38efe3	-0.0028219156
98	0xba3bc8b4	-0.0007163391
99	0x39468181	0.00018930995
100	0xbb01138b	-0.0019695486
101	0x39503446	0.00019855899
102	0x3aa1e2e9	0.001235095
103	0xba8c3025	-0.00106955
104	0xba86b920	-0.001027856
105	0x386fb783	5.715295e-05
106	0x3a952f42	0.0011381882
107	0xbb05cf2f	-0.002041768
108	0x3ab4dfea	0.0013799642
109	0x3a39b7ab	0.00070845586
110	0xbbb43bf4	-0.005500311
111	0x39ed4567	0.0004525587
112	0xbc0b5218	-0.008503459
113	0x3c631866	0.0138607975
114	0x3c3bb94d	0.011457753
115	0xbce08646	-0.027407777
116	0x3c7eaddc	0.015544381
117	0xbb93dadf	-0.0045121755
118	0xbcdc62ad	-0.026902521
119	0x3b37f9ac	0.00280724
120	0x3b90b957	0.0044166255
121	0x3c3feb0b	0.011713753
122	0x3c155ebb	0.009116824
123	0xbb6e8023	-0.0036392293
124	0xbbc62127	-0.0060464325
125	0xbb501097	-0.003174817
126	0xbd218280	-0.039431095
127	0xbb41a79c	-0.0029549366

exp_avg_sq f4 [8, 16]
0	0x370308c4	7.810249e-06
1	0x3858f4d6	5.1726434e-05
2	0x38e6e35d	0.00011009604
3	0x3683f869	3.933023e-06
4	0x385ab5e8	5.2144664e-05
5	0x3907626e	0.00012911271
6	0x3701ffa1	7.748517e-06
7	0x389a1929	7.347979e-05
8	0x388cd3bc	6.715159e-05
9	0x37da365e	2.6012942e-05
10	0x38d247c7	0.0001002695
11	0x392efd88	0.00016688381
12	0x37a09d35	1.9146692e-05
13	0x392240e4	0.00015473698
14	0x37a3d9ae	1.953248e-05
15	0x38b19cfa	8.469257e-05
16	0x398bfb22	0.00026699255
17	0x3a84c464	0.001012933
18	0x3a3bd777	0.00071655907
19	0x395f74f8	0.00021310512
20	0x3a30d062	0.00067449186
21	0x3a10c5c2	0.0005522632
22	0x39a78673	0.00031952895
23	0x3a0031f8	0.00048902584
24	0x39ba1b5d	0.00035497072
25	0x3a351ed5	0.00069091964
26	0x3a1067fc	0.0005508659
27	0x3929d0eb	0.00016194924
28	0x3a19e35a	0.0005870365
29	0x39cff17d	0.0003966204
30	0x3a2a4edd	0.0006496737
31	0x3a47573e	0.00076042477
32	0x37362b21	1.0858087e-05
33	0x39091e5f	0.00013076652
34	0x36e66068	6.8657573e-06
35	0x3789488f	1.636546e-05
36	0x36c65c81	5.9116287e-06
37	0x37015998	7.709859e-06
38	0x36e4d979	6.8202467e-06
39	0x36e8be97	6.9363264e-06
40	0x37463918	1.1815013e-05
41	0x38a22820	7.732236e-05
42	0x36d73423	6.413569e-06
43	0x36ec78ff	7.047434e-06
44	0x389a4447	7.35601e-05
45	0x37070c2f	8.049464e-06
46	0x388b1b9b	6.6331784e-05
47	0x3762b399	1.3512466e-05
48	0x37badf41	2.2276889e-05
49	0x397866cb	0.00023689416
50	0x38c7dadf	9.5298274e-05
51	0x385152a8	4.9906463e-05
52	0x38a84b1a	8.024853e-05
53	0x38a041cd	7.641651e-05
54	0x389f7bbe	7.6047596e-05
55	0x38e46854	0.0001089132
56	0x39997b2f	0.00029274213
57	0x393654bf	0.00017388443
58	0x38924e49	6.976404e-05
59	0x391196e4	0.00013884489
60	0x3960b039	0.00021427953
61	0x38c34963	9.311994e-05
62	0x38d38b47	0.000100872065
63	0x38ae7f77	8.320709e-05
64	0x39329802	0.0001703203
65	0x38ef5422	0.00011412079
66	0x39a64e43	0.00031720297
67	0x397391b8	0.0002322857
68	0x394ed851	0.00019726275
69	0x39b58fbe	0.00034630107
70	0x3929e7dd	0.00016203472
71	0x39ce700e	0.0003937487
72	0x397d8c7b	0.00024180293
73	0x394968e3	0.00019207927
74	0x39a86835	0.00032121097
75	0x399f6911	0.00030405124
76	0x390e008c	0.00013542379
77	0x39c36179	0.0003726592
78	0x39a71c50	0.00031873817
79	0x39933b8d	0.00028082394
80	0x36647ec9	3.4048446e-06
81	0x37016091	7.711483e-06
82	0x378d5a55	1.6850574e-05
83	0x36eade3a	6.999614e-06
84	0x377aa009	1.4938422e-05
85	0x37cc6441	2.436538e-05
86	0x36c9e1eb	6.016567e-06
87	0x37b94681	2.208655e-05
88	0x38a22b68	7.732847e-05
89	0x36c2dee8	5.8076002e-06
90	0x36906fa7	4.3045325e-06
91	0x3889cc60	6.570737e-05
92	0x36aa17c8	5.0691633e-06
93	0x3798f010	1.82316e-05
94	0x3754021f	1.2636679e-05
95	0x375e528f	1.3251453e-05
96	0x38fff674	0.00012205253
97	0x373f10c5	1.1388392e-05
98	0x3900c7f8	0.00012281525
99	0x3921c9c4	0.0001542932
100	0x389adc62	7.384342e-05
101	0x38f0d82e	0.000114843584
102	0x38b1d67d	8.479969e-05
103	0x39599de1	0.00020753547
104	0x39b9ef0b	0.0003546405
105	0x3829a049	4.0442017e-05
106	0x38803c69	6.114768e-05
107	0x393f8055	0.00018262987
108	0x38164ed1	3.583619e-05
109	0x386c5e62	5.6354686e-05
110	0x39116367	0.00013865308
111	0x381a6972	3.6814665e-05
112	0x394f45ee	0.00019767109
113	0x3a90c9dc	0.0011046487
114	0x3a9492cc	0.0011335253
115	0x3921d5c6	0.00015433793
116	0x3a69f940	0.0008925386
117	0x3a9c66a9	0.001193245
118	0x39e569cf	0.00043757117
119	0x3a864281	0.0010243208
120	0x3a18e4ec	0.0005832452
121	0x3a3ff29c	0.00073222234
122	0x3a9b928a	0.0011869234
123	0x3a860251	0.0010224079
124	0x3a956bf6	0.0011399973
125	0x3aa4ef5d	0.0012583543
126	0x39448eb3	0.00018745176
127	0x3a2840ae	0.00064183294

exp_avg f4 [8]
0	0x3b190ef6	0.0023354865
1	0xbcab246d	-0.020891393
2	0xbcac4af3	-0.021031832
3	0x3c387923	0.01125935
4	0x3b7ffcba	0.003906055
5	0x3c3a3248	0.011364527
6	0x3ccb2a70	0.02480051
7	0xbc31ccc5	-0.0108520435

exp_avg_sq f4 [8]
0	0x380a719d	3.3007575e-05
1	0x3952d030	0.00020104717
2	0x389b1ab7	7.395952e-05
3	0x3aaae73b	0.0013038883
4	0x38135f00	3.5136007e-05
5	0x3908b7dc	0.00013038464
6	0x3a8c0a3a	0.00106842
7	0x39371e26	0.00017463471

exp_avg f4 [8]
0	0x3beab9d4	0.0071632657
1	0xbcb30b16	-0.021855872
2	0x3b283eac	0.002567212
3	0x3cf21549	0.029551165
4	0x3cad9d33	0.021193122
5	0x3c45c949	0.012071916
6	0x3c92fbef	0.017942397
7	0x3c37c11d	0.011215475

exp_avg_sq f4 [8]
0	0x382a9f3d	4.067946e-05
1	0x39786a3e	0.00023690701
2	0x3946b365	0.00018949581
3	0x39feb218	0.00048579345
4	0x39037b76	0.00012539126
5	0x38311fbb	4.222964e-05
6	0x3a129b69	0.0005592616
7	0x3929037f	0.00016118398

exp_avg f4 [4, 8]
0	0x3c45f415	0.0120821195
1	0x3c15285a	0.009103859
2	0xbd382bfd	-0.044963825
3	0x3c7b117f	0.015323996
4	0xbcff9b70	-0.031202048
5	0xbbf3bc4e	-0.007438219
6	0xbc27ea67	-0.010248757
7	0xbc4c3dd3	-0.012465912
8	0xbbadd420	-0.0053048283
9	0xbbf51fb0	-0.007480584
10	0x39ddcc57	0.0004230465
11	0x3b6f8972	0.003655043
12	0xbbf4d449	-0.0074715954
13	0x3b1549c2	0.0022779559
14	0x396fe210	0.00022877031
15	0x3b6678cc	0.0035167215
16	0xbc0973a8	-0.008389391
17	0xbcc4ce81	-0.02402425
18	0x3c64cfee	0.01396559
19	0x3d16f710	0.03685671
20	0xbc3696fe	-0.011144398
21	0x3d2077cd	0.03917675
22	0x3d36efc9	0.04466227
23	0x3c642248	0.013924189
24	0x3bb012f5	0.0053733536
25	0xbbd873c0	-0.0066055954
26	0x39be6547	0.00036315082
27	0x3c01dcd2	0.007926183
28	0xbba48430	-0.005020641
29	0x3b9b2505	0.0047346377
30	0x3b804677	0.00391465
31	0xbafd933d	-0.0019346249

exp_avg_sq f4 [4, 8]
0	0x38252aab	3.9378803e-05
1	0x3939d2ac	0.00017721456
2	0x3a612698	0.000858882
3	0x3ab424a0	0.0013743825
4	0x39635526	0.00021680127
5	0x3a634460	0.00086695515
6	0x3a45ca8c	0.00075451354
7	0x398020ca	0.00024438492
8	0x37a4269d	1.9568304e-05
9	0x37a5d683	1.9769423e-05
10	0x389d7b76	7.50934e-05
11	0x3715c161	8.926117e-06
12	0x381268e0	3.4906785e-05
13	0x36f116ef	7.1850295e-06
14	0x36940530	4.4113476e-06
15	0x38b816f0	8.778076e-05
16	0x397a6f85	0.00023883402
17	0x399d4322	0.0002999539
18	0x38ae9c31	8.3260595e-05
19	0x3a572aa7	0.0008207955
20	0x38a2be6e	7.760232e-05
21	0x3a679f82	0.0008835719
22	0x3a928801	0.0011179448
23	0x392e1a08	0.0001660363
24	0x38f880e2	0.00011849568
25	0x38f09ced	0.000114733215
26	0x37cc9d7b	2.4392028e-05
27	0x399530b9	0.00028455796
28	0x384751b5	4.7521393e-05
29	0x3920e50e	0.00015344119
30	0x391dc0ac	0.00015044463
31	0x3a016208	0.0004935567

exp_avg f4 [4]
0	0xbb07fe5b	-0.0020750973
1	0xbbc9696b	-0.0061466
2	0x3bd5006e	0.0065002954
3	0x398bfde6	0.00026701315

exp_avg_sq f4 [4]
0	0x396b1ddd	0.00022422471
1	0x376b46c0	1.4023564e-05
2	0x388dddcf	6.764719e-05
3	0x3904d982	0.00012669529

exp_avg f4 [4]
0	0x3c6596b4	0.014012981
1	0xbc64b6ac	-0.013959568
2	0xbcb68de9	-0.022284465
3	0xbc7a9d19	-0.015296244

exp_avg_sq f4 [4]
0	0x390185c7	0.00012352235
1	0x37979bc3	1.8073135e-05
2	0x3900cc5c	0.00012283161
3	0x394178d7	0.0001845093

exp_avg f4 [2, 4]
0	0x3cf0657e	0.02934527
1	0xbb6547f9	-0.0034985526
2	0xbc0d0426	-0.008606946
3	0xbc61edef	-0.013789638
4	0x3c391788	0.011297114
5	0xbc12d060	-0.008960813
6	0x3baa21be	0.0051920107
7	0x3c43b2b6	0.0119444635

exp_avg_sq f4 [2, 4]
0	0x3a4cfdff	0.0007819831
1	0x390c888c	0.00013402308
2	0x395c0c1a	0.00020985343
3	0x392e56fc	0.00016626337
4	0x37cc440b	2.435038e-05
5	0x382a2c8d	4.057265e-05
6	0x37972fc8	1.8022853e-05
7	0x386ebabe	5.691754e-05

exp_avg f4 [2]
0	0xbbbe26a5	-0.0058029466
1	0x3d07b6ad	0.033133198

exp_avg_sq f4 [2]
0	0x3a4b2b5c	0.00077502965
1	0x3a4f9c17	0.00079196825

exp_avg f4 [2]
0	0xbc4e8735	-0.012605478
1	0xbcd9413a	-0.02652036

exp_avg_sq f4 [2]
0	0x39be38cd	0.00036281944
1	0x3a7532af	0.0009353561

exp_avg f4 [2, 2]
0	0x3b7d738a	0.0038673603
1	0x3c9ada69	0.018902974
2	0xbb7d738a	-0.0038673603
3	0xbc9ada69	-0.018902974

exp_avg_sq f4 [2, 2]
0	0x39c43b1c	0.00037428073
1	0x39838a6d	0.00025089402
2	0x39c43b1c	0.00037428073
3	0x39838a6d	0.00025089402

exp_avg f4 [2]
0	0xbd41d3a6	-0.047320984
1	0x3d41d3a6	0.047320984

exp_avg_sq f4 [2]
0	0x3a72833b	0.0009251122
1	0x3a72833b	0.0009251122
