test/output/local1/simulatorRun/freesurfer_volumetric/4/current.nn.pt (torch_old, 23025 bytes, 50 tensors)

layers.0.0.weight f4 [16, 66]
000000 f3 b4 4d bd 9c ed 48 be d9 e2 84 3e ef b2 c4 3c
       -0.050221395 -0.19621891 0.2595432 0.024011103
000010 3a f3 bf bd 94 81 a1 3e ef 41 0c 3e 09 ba 6e 3d
       -0.09372564 0.31544173 0.13697027 0.058282886
000020 07 86 4f be b7 18 a1 3d 00 d8 8d bc b9 e9 6d be
       -0.20265971 0.07866042 -0.01731491 -0.2323369
000030 34 ff d0 bc 45 a8 82 bd cf bc 88 3e 74 96 25 3e
       -0.025512315 -0.06379751 0.2670655 0.16170675
000040 9d 9f 3b 3e 5d df 69 be 4d ea 34 be da 95 be 3e
       0.18322606 -0.22839113 -0.17667504 0.37223703
000050 6a 5c 1f 3e 3a 01 cf bd 07 e1 1f 3c ea 1a 96 be
       0.15562597 -0.10107656 0.009758241 -0.2931741
000060 c5 58 8b 3e 80 cd 14 be a2 2a ce 3c 90 4b 7f be
       0.27216163 -0.14531517 0.025166813 -0.24931169
000070 28 ac f8 bd fc af 1a be 08 4e 98 3c 2e 22 1a 3e
       -0.12142211 -0.15106195 0.018591896 0.15052101
000080 32 b4 f5 bd a0 3b 5e 3e 18 a4 3d bd 93 d8 e2 3c
       -0.1199726 0.21702433 -0.04629907 0.027691161
000090 e1 f5 87 3e c8 40 0e 3c 6e 17 3e 3e ac 87 50 3e
       0.26554778 0.008682437 0.18563625 0.20364255
0000a0 7f 47 5b 3d 3a cf cb bc e8 63 42 3b a9 4b df 3d
       0.05353498 -0.024879087 0.00296616 0.10903103
0000b0 7b 00 a8 bd ec 5d c5 bd 86 69 38 be 8f 9a dd 3d
       -0.08203217 -0.09637055 -0.18009004 0.10820495
0000c0 60 cc 7e 3e 6d b5 12 be 59 d5 a0 3d b5 19 9f 3c
       0.2488265 -0.14327021 0.07853193 0.019421438
0000d0 20 9b c3 3d 29 8a 8a be f8 b8 32 3c 72 c4 cd 3d
       0.09551072 -0.27058533 0.010908358 0.100472346
0000e0 24 be bd 3d 0f 3c 71 be 0c 61 f5 bc 2e 4d f8 bc
       0.09264782 -0.23558067 -0.029953502 -0.03031024
0000f0 b8 c3 07 3c 36 65 06 3e 56 db 87 bd f8 58 e7 bc
       0.008286409 0.13124546 -0.06633632 -0.028240666
000100 04 1b d5 bc ff 7d fd 3d 87 94 f3 3d a1 53 ed bd
       -0.026013859 0.123775475 0.11893564 -0.115882166
000110 d3 53 e6 bd 34 4d aa 3e 79 f8 5d 3e ec 6e d5 3e
       -0.11246457 0.33262026 0.21676816 0.4168619
000120 f6 c9 0a be f1 1f 3f be 94 bc c2 3d 32 b4 9f bd
       -0.13553604 -0.18664528 0.09508625 -0.077980414
000130 f6 c4 4c bd 11 34 05 3e 22 12 77 3e 6f 69 10 bd
       -0.049992524 0.13008143 0.24128011 -0.0352568
000140 c2 60 5b bd 80 9b 80 3d d3 bb 0c be 70 68 34 3e
       -0.053559072 0.06279659 -0.13743524 0.17617965
000150 e5 c5 fa bd 44 28 64 bd 0d f3 ca bd b0 a4 0b 3e
       -0.12244777 -0.055702463 -0.099096395 0.13637042
000160 34 ad 80 be 62 eb fa 3d c5 e0 c9 3d 6a 18 9d be
       -0.25132143 0.12251927 0.098573245 -0.3068269
000170 4d 09 dc 3e a3 a8 b7 3e b3 23 15 bc 7c 6c 99 3e
       0.42975846 0.35870847 -0.00910275 0.2996558
000180 07 27 5d 3e 32 cd a3 bd 16 a8 f7 3d c1 72 ca 3d
       0.21596919 -0.07998122 0.12092607 0.09885169
000190 00 25 27 3d 19 c8 ba bb fd 63 5d be 74 0b 1b be
       0.04080677 -0.005700123 -0.21620174 -0.15141088
0001a0 a2 1c 17 be f4 17 13 be b8 c0 a4 bd 06 9f 8b 3e
       -0.14757016 -0.14364606 -0.08044571 0.27269763
0001b0 c1 6a de 3d 37 e5 a0 bd 86 a2 e6 3d ae 85 98 be
       0.108602054 -0.07856219 0.11261468 -0.2978949
0001c0 15 33 a7 be 21 70 89 3e 3f 53 eb bd f5 5c 92 3d
       -0.3265616 0.2684336 -0.11490487 0.071466364
0001d0 af 54 33 3e ae fd c3 bc b4 d6 e3 bd 9c 36 b7 3b
       0.17512773 -0.023924675 -0.11124936 0.0055912267
0001e0 09 97 80 be 75 77 94 3e bb 71 fd 3c e2 b8 4a 3e
       -0.2511523 0.28997388 0.03093802 0.1979709
0001f0 ab df cd 3d 66 d6 95 be 10 39 4e be da 46 24 3b
       0.10052427 -0.29265136 -0.20138955 0.0025066645
000200 f3 7f c4 3d ce c2 9d bd 74 36 0f be d6 54 58 be
       0.09594717 -0.07703172 -0.13985616 -0.21126112
000210 dc f7 b5 3e e6 4f 98 be 7b fb e2 3c 36 6a b5 3d
       0.35540664 -0.29748458 0.027707806 0.08858149
000220 8e d1 19 be 74 ea 11 3e 96 29 ab 3e 1f 30 d0 3e
       -0.15021345 0.14249593 0.33430165 0.40661713
000230 41 8b 99 3e fe 03 ea bc 1f f1 ed bd 87 86 be 3d
       0.29989055 -0.028566357 -0.11618256 0.09303003
000240 bd 69 b4 bd 8a 3f 97 3d f9 ee 98 be 7d 62 89 3e
       -0.088092305 0.07385166 -0.29869822 0.26832953
000250 cb 7a ed bd 75 18 a5 3e 4d 89 b4 3e c8 ad 22 bd
       -0.115956865 0.32245222 0.35261002 -0.039716512
000260 58 3b ea 3d 04 b2 20 3e ad bd bd 3e 3a 73 71 3e
       0.114371 0.15692908 0.37058774 0.23579112
000270 a8 7a bf 3d 79 81 a2 bd be 79 1f 3e f9 73 4a be
       0.09349567 -0.07934851 0.15573785 -0.19770803
000280 e3 ae 9b bc 3d b5 b8 3c cb 60 8f bd 2d d7 cf bd
       -0.01900429 0.022547359 -0.07000884 -0.101484634
000290 23 a5 16 bd 5a 2c 6f bb 4e 45 bd 3e 1e 43 e8 be
       -0.03677858 -0.0036494941 0.36966938 -0.45363706
0002a0 54 17 ef bd e3 76 1e 3d ac b9 2b bd 80 d2 45 3d
       -0.11674371 0.038687598 -0.041925117 0.04829645
0002b0 4a 05 6f be fe ac 13 3d 80 4b ef 39 8e c3 e8 bd
       -0.23341861 0.03605365 0.00045641884 -0.11365424
0002c0 d8 ab 05 3e 3e 8a 41 3e 6c 88 2a 3e 7e 5f 17 3e
       0.13053834 0.18900391 0.16653603 0.14782521
0002d0 58 a4 9e bd 61 1e 3c 3e 8f 19 93 bd 4f 5d 34 3d
       -0.0774619 0.18370964 -0.07182609 0.0440343
0002e0 c4 7a 07 be a5 a1 30 be 63 6e d4 bd 5e 34 14 3e
       -0.13230425 -0.17249162 -0.10372617 0.14473101
0002f0 71 0d 26 bc 41 ca f8 3c e9 4e f2 bc 8c be 2c bd
       -0.010135041 0.03036988 -0.029578643 -0.042173907
000300 09 f5 17 3e 66 ea 05 3e 82 d7 2b be 77 bb aa be
       0.14839567 0.13077697 -0.16781428 -0.3334615
000310 2e c3 82 3e 02 4f a9 3e ec 07 3b be 8f 7e 79 be
       0.25539535 0.3306809 -0.1826474 -0.24364685
000320 67 c4 f2 ba 8c 01 c3 bd 3d 92 21 3d 6d 09 04 3e
       -0.0018521667 -0.095217794 0.039446104 0.1289422
000330 87 64 b2 3c 97 a4 e0 3d fa 6f b2 bd 1c d5 c4 bd
       0.02177645 0.10968893 -0.08712764 -0.0961096
000340 dc bc 80 bd 5f 77 f5 bb 2a 0c 1f 3d 22 62 04 bd
       -0.06286022 -0.007491037 0.03882996 -0.03232015
000350 19 4d 82 be 8f 9a 09 3e 82 99 0c be 9c ea 0e be
       -0.25449446 0.13437866 -0.13730434 -0.13956684
000360 40 10 27 be da a0 84 be 34 a4 41 bd 29 ad 0a be
       -0.16314793 -0.2590397 -0.047275737 -0.13542618
000370 fa a7 45 bd ff 2d b3 be a7 66 c0 bc 29 ad 3a be
       -0.048255898 -0.3499603 -0.023486448 -0.18230118
000380 81 c8 9a 3e ee 63 9c 3d 72 c6 34 3e ff 5f 25 be
       0.30231097 0.076362476 0.17653826 -0.16149901
000390 f1 ee b8 3d cf 8a 35 3e 24 31 51 bd b9 ab e5 bd
       0.090299495 0.17728733 -0.051072255 -0.11214394
0003a0 bf ff 9e 3d 19 87 8c bd 26 de 60 3e e7 91 85 3d
       0.077636234 -0.06861705 0.21959743 0.06521969
0003b0 68 e0 8a bd 0c 2e a4 3d c9 6b 56 3e 9f 1e 80 be
       -0.06781083 0.08016595 0.20939554 -0.25023362
0003c0 c6 24 82 3d 53 b8 2b be e4 82 57 3d 12 67 bb bc
       0.0635467 -0.16769533 0.05261506 -0.022876296
0003d0 02 c1 ff bd b3 36 3e 3e 57 3e 08 be 18 42 54 3e
       -0.12487985 0.18575554 -0.13305031 0.20728338
0003e0 43 d8 79 bb cf 39 68 bd 48 6b 3e bd 9e 44 50 bc
       -0.0038123287 -0.056695756 -0.04648903 -0.012711672
0003f0 ca eb 5f bd a4 aa 6f be 85 b3 a4 be d5 f2 08 bc
       -0.054668225 -0.23404938 -0.32168213 -0.008358677

layers.0.1.weight f4 [16]
000000 d1 e9 82 3f 00 62 7c 3f 7b cc 78 3f b5 d4 7c 3f
       1.0227605 0.98587036 0.9718701 0.98762065
000010 79 3f 82 3f ad fc 7b 3f e1 28 80 3f 39 33 76 3f
       1.017562 0.9843243 1.0012475 0.9617191
000020 c2 e9 84 3f 84 9e 81 3f 23 63 81 3f b3 5f 77 3f
       1.0383837 1.01265 1.0108379 0.966304
000030 34 09 84 3f 70 6d 84 3f b7 8f 81 3f 12 97 79 3f
       1.0315309 1.0345898 1.0121983 0.9749614

layers.0.1.bias f4 [16]
000000 d5 e1 8d 3c 9b 3f 94 bc 36 0e c9 bc d2 2a ab bb
       0.0173196 -0.018096736 -0.02454291 -0.0052236104
000010 55 b8 4d bb 36 61 53 bb b6 c4 f5 38 6f f4 f6 bc
       -0.0031390388 -0.0032253987 0.00011719151 -0.030145852
000020 93 6f f5 3c 2d 6d 3a bb 8c 45 35 3d c2 76 aa bc
       0.02996043 -0.0028446421 0.04425578 -0.020808581
000030 30 10 e1 3c 10 af 0c 3d 78 33 0e 3c ea 90 03 bd
       0.02747354 0.03434664 0.008679263 -0.032120623

layers.0.1.running_mean f4 [16]
000000 f3 e5 4b c8 25 e3 1d c9 6e ed 7e 49 e8 a8 bd c8
       -208791.8 -646706.3 1.0441829e+06 -388423.25
000010 0b ff 2c 49 1c d0 23 49 72 71 27 c9 6c 4f b1 48
       708592.7 670977.75 -685847.1 363131.38
000020 ae 85 a7 c8 50 6b 0c c8 5d bb 17 49 61 df e3 47
       -343085.44 -143789.25 621493.8 116670.76
000030 55 df e1 c8 1a 4b f2 48 d3 3a 91 c8 6a 91 7d 48
       -462586.66 496216.8 -297430.6 259653.66

layers.0.1.running_var f4 [16]
000000 77 5e 87 4e 9e 55 ae 4f 67 e2 55 50 77 ba 31 4f
       1.1355575e+09 5.849693e+09 1.4353538e+10 2.9817874e+09
000010 f8 33 d2 4f 14 e6 b2 4f 3f ce dd 4f 4b 5d 19 4f
       7.0532424e+09 6.0028457e+09 7.4425626e+09 2.573028e+09
000020 01 ee a4 4e 92 60 9d 4d 3b c3 a7 4f 69 a2 89 4d
       1.3835306e+09 3.3004397e+08 5.6291794e+09 2.886403e+08
000030 ca 45 08 4f 74 6a 6b 4f 08 6d b2 4e ce 40 87 4e
       2.286275e+09 3.9496223e+09 1.496745e+09 1.1345856e+09

layers.1.0.weight f4 [8, 16]
000000 b5 02 a2 3e 05 03 e4 3e 38 aa 9a be 4c c0 d0 bd
       0.3164269 0.44533554 -0.30207992 -0.10192928
000010 44 0a 14 be 27 1c 0c 3e 79 94 59 bf f4 45 e8 bd
       -0.14457041 0.13682614 -0.84992176 -0.113414675
000020 cb 93 89 be 73 28 63 be df b0 07 3e 7f 6a 75 3e
       -0.2687057 -0.22183399 0.13251065 0.23966406
000030 71 c7 41 bf bf e3 09 3e e5 3d 0e bf 3c 47 d6 be
       -0.7569495 0.13465784 -0.55563194 -0.41851223
000040 78 8a 00 be a0 48 90 3e 65 20 95 be 7d 02 24 be
       -0.12552822 0.28180408 -0.29126278 -0.16016574
000050 cb 27 9b 3d fc 09 b1 3e 4b 71 2d bd 56 6a 97 be
       0.07575949 0.3457793 -0.042344373 -0.29573315
000060 f7 9a a1 be e4 dc 99 3d 02 cc ab 3e 37 19 45 bf
       -0.3156354 0.07512835 0.33554083 -0.769916
000070 c8 e6 c9 be d5 e1 b3 3e d3 c0 9e 3d 40 c1 05 3e
       -0.39433885 0.35133234 0.07751622 0.13062
000080 2b 7e 1a 3f 78 c4 86 be f2 c8 d6 3e a1 39 45 3f
       0.6034877 -0.2632177 0.41950184 0.7704106
000090 22 d1 9c be c8 aa 50 bf c5 69 41 bd de 20 56 be
       -0.30628306 -0.8151059 -0.04722001 -0.20910975
0000a0 7f 57 ec be 64 99 00 3c 3a 6e 22 3f 74 43 ad 3d
       -0.46160504 0.007849071 0.6344944 0.08460131
0000b0 64 96 28 3f 72 72 87 be 0d 61 54 3e 68 14 cc 3d
       0.6585448 -0.26454502 0.20740147 0.0996483
0000c0 2e 0d 1b bf 81 fc ca 3e 8f d6 59 3e b4 10 2d 3e
       -0.60566986 0.3964577 0.21273254 0.16900903
0000d0 c3 f9 0b be d0 33 2f 3e cc 5b 25 bd ca c6 8d 3e
       -0.13669495 0.17109609 -0.040370747 0.27690727
0000e0 2d 43 8a 3e 9c bb 52 3e 8a c3 71 3e 51 93 9a bd
       0.27004376 0.2057938 0.23609748 -0.075476296
0000f0 8c 76 04 3e f8 cf ad 3e 36 51 0d bf b1 e9 0a 3e
       0.12935847 0.3394773 -0.55202043 0.13565709
000100 7b 69 c4 3e 83 df 0d bf 7b 31 84 bb 4e 61 78 be
       0.38361725 -0.55419177 -0.004034219 -0.24255869
000110 32 c4 52 bf 47 4b c1 3e ea ea b2 be 7a 46 04 3e
       -0.8233062 0.37752745 -0.3494485 0.1291751
000120 6b f7 3e be d7 62 d3 3e a0 20 03 3d 8c 63 aa bd
       -0.1864907 0.41286346 0.032013535 -0.08319768
000130 f6 81 82 be 36 39 81 be 93 89 25 3e e2 44 2c 3e
       -0.25489777 -0.2523896 0.16165762 0.16823152
000140 d7 94 65 bf 04 79 94 bd cd a4 d7 3e d4 6e 2b be
       -0.89680237 -0.072496444 0.4211792 -0.16741496
000150 b6 26 ae 3e b0 0b 5e be 1b 91 df 3c d7 48 08 3f
       0.3401391 -0.21684146 0.027290871 0.53236145
000160 30 f6 84 3c f6 2b 82 3e 22 5e b5 3e 03 93 3e be
       0.016230673 0.25424165 0.3542338 -0.18610768
000170 3d b3 3a bf 8e 28 44 3f c9 58 ec 3d 6c d0 60 3d
       -0.72929746 0.7662438 0.11540372 0.054886267
000180 5f 09 5b 3f 15 f0 c7 bd 9d cf 3e 3e bc 4f 60 3e
       0.85561174 -0.09762589 0.18633886 0.21905416
000190 90 26 87 3e c2 b2 4f be 42 05 4f bf 61 81 d7 3d
       0.26396608 -0.20283034 -0.808674 0.10522724
0001a0 0b 13 7c bd d4 ae 20 bd e4 bd 5c 3e cd 56 e8 3e
       -0.0615416 -0.03922923 0.21556813 0.45378724
0001b0 88 18 2f bf 8e 92 0b 3f 0e ce c0 be f8 a8 89 be
       -0.68396807 0.545205 -0.37657207 -0.26886725
0001c0 76 ca 65 3d a9 ed a8 3e 02 20 02 3e 15 ed 66 3e
       0.056101285 0.3299382 0.12707523 0.22551377
0001d0 b4 3c ed 3e 9b 42 1a bc 2b 19 be 3e f6 0e 0f 3e
       0.46335375 -0.009415294 0.37128577 0.13970551
0001e0 91 15 cd 3e 91 bc aa bd c6 67 13 3e 6b f5 16 3e
       0.40055516 -0.083367474 0.14395055 0.14742057
0001f0 c3 2a b4 3e 80 8e 42 bf f5 eb 18 be cc c9 ed 3e
       0.35188875 -0.7599869 -0.1493376 0.4644302

layers.1.1.weight f4 [8]
000000 04 14 77 3f 89 7f 80 3f 01 2e 85 3f 3c bd 75 3f
       0.96514916 1.0038921 1.0404664 0.95991874
000010 36 4c 7e 3f bd da 7e 3f 47 fa 83 3f d9 41 82 3f
       0.9933504 0.9955252 1.0310754 1.0176345

layers.1.1.bias f4 [8]
000000 9d 93 aa bc 29 55 0a 3c 0a de 4d 3d cd 5f 22 bc
       -0.02082234 0.008443155 0.05026058 -0.009910536
000010 79 78 f8 bc 70 b3 02 3d b8 e3 ef 3c 10 39 ca 3b
       -0.030330883 0.031909406 0.02928339 0.006171353

layers.1.1.running_mean f4 [8]
000000 b9 a9 7c bf 60 cf 8d be 70 47 f8 3e 49 d2 f0 3e
       -0.98696476 -0.27697277 0.48492002 0.47035435
000010 41 59 f0 be 4d 55 7e 3e 52 1d 08 3e c4 49 69 3f
       -0.46943095 0.24837227 0.13292435 0.9112818

layers.1.1.running_var f4 [8]
000000 7e 8b 76 3f ba b0 8e 3e ac e4 6b 3f f5 7f 3c 3f
       0.963066 0.27869207 0.921458 0.73632747
000010 4f a0 2f 3e bb dd 78 40 5b fc c9 3f 44 4a fa 3e
       0.17150997 3.8885334 1.5780138 0.48884785

layers.2.0.weight f4 [4, 8]
000000 e6 21 19 be a7 38 77 bc 62 d7 9c 3e b7 58 66 3f
       -0.14954337 -0.015089191 0.30633074 0.8997912
000010 eb a4 a0 3d 8d 8c 2d 3e 3a a9 97 bf 95 11 d5 3e
       0.078439556 0.16948147 -1.1848519 0.41614977
000020 9e 80 ec be e4 4f 20 3e fa 5b 67 bd 9e 5d 8e bd
       -0.46191877 0.15655476 -0.0564842 -0.0695145
000030 fd f6 d5 bd 8c d1 ca be b4 b4 11 bf f3 ac ac be
       -0.104475 -0.39612997 -0.56916356 -0.337257
000040 b4 b8 97 be 59 c0 1d 3f b1 13 0c bf 29 c5 e6 bd
       -0.29633105 0.61621624 -0.54717547 -0.11268074
000050 2c 38 12 bf d8 52 6d 3e 5c da 8c 3e cd 33 c3 be
       -0.5711696 0.23176134 0.27510345 -0.38125458
000060 70 45 00 be 24 f9 41 3f 6b de 34 bf ea de 22 bd
       -0.12526488 0.75770783 -0.7065188 -0.03976337
000070 ee 03 47 bd 85 30 31 3f de c7 ee 3e 68 ac 07 bf
       -0.048587732 0.6921466 0.46636862 -0.52997446

layers.2.1.weight f4 [4]
000000 c4 bd 79 3f 7b 59 7c 3f 19 12 82 3f 75 6e 81 3f
       0.97555184 0.98574036 1.0161773 1.0111834

layers.2.1.bias f4 [4]
000000 62 c7 8b ba 45 59 35 bd 33 52 e2 3c 1a f3 15 3c
       -0.0010664279 -0.044274587 0.027627086 0.009152198

layers.2.1.running_mean f4 [4]
000000 1f b1 2a 3e 8d e3 45 bf 3d c6 a1 be f0 dc 4e 3e
       0.16669129 -0.7730034 -0.31596556 0.20201468

layers.2.1.running_var f4 [4]
000000 3a ed f9 3e da 6d d3 3e 45 e2 8a 3f 7e ce 36 40
       0.48813802 0.41294748 1.0850302 2.8563533

layers.3.0.weight f4 [2, 4]
000000 e2 a7 05 3f 21 bd b6 3d 83 30 f2 3e ea 15 67 3f
       0.52209294 0.08922792 0.47302637 0.90267813
000010 e1 6d cd bf 86 37 1d 3f 21 2d 05 40 8a 9b 86 3f
       -1.6049157 0.6141285 2.0808794 1.0516217

layers.3.1.weight f4 [2]
000000 cc b9 7a 3f 0a 6c 80 3f
       0.97939754 1.0032971

layers.3.1.bias f4 [2]
000000 6f 0a 10 3b 33 5a b9 3c
       0.0021978875 0.022626018

layers.3.1.running_mean f4 [2]
000000 22 2f 4f 3f d3 2a 69 3f
       0.80931294 0.9108097

layers.3.1.running_var f4 [2]
000000 ac 06 2b 3f c9 4f dc 40
       0.66807055 6.8847394

fc_out.weight f4 [2, 2]
000000 79 18 df bf ee 88 3c 3f f5 85 a4 be c0 ac 86 bf
       -1.7429343 0.7364644 -0.3213345 -1.0521469

fc_out.bias f4 [2]
000000 66 a7 76 ba 66 a7 76 3a
       -0.00094090996 0.00094090996

exp_avg f4 [16, 66]
000000 7f bd cc 3a fe 0e 66 39 c6 ba 77 b9 3c 8b 08 bc
       0.0015620439 0.00021940094 -0.00023625334 -0.008333977
000010 ed 9b 5e ba 72 b0 a8 b9 2a b6 8a ba 34 a7 8f b7
       -0.00084918627 -0.0003217492 -0.0010582854 -1.7124788e-05
000020 fc 7a 5e 39 fc fd 4a 39 9c 76 86 ba a1 b7 d4 b9
       0.00021217385 0.00019358838 -0.0010258737 -0.00040572605
000030 cd 88 26 38 8d 3a 11 38 7c a8 7e 38 f0 95 1f 39
       3.970489e-05 3.4625224e-05 6.0715232e-05 0.00015219278
000040 69 a9 60 36 f4 49 96 39 43 af bf 3a a6 96 43 39
       3.347721e-06 0.0002866533 0.0014624376 0.0001865277
000050 ac 8b 8a ba d4 6e f0 bb b7 0f 9c ba d5 7c 69 b8
       -0.001057019 -0.0073374305 -0.0011906539 -5.5667788e-05
000060 83 16 13 ba 1a d1 d3 37 40 de 02 b8 01 41 26 38
       -0.00056109595 2.525053e-05 -3.12014e-05 3.9638024e-05
000070 15 6c 8c 38 a2 f2 04 b7 36 ba fd b6 2d b8 08 3a
       6.695852e-05 -7.9243055e-06 -7.5616654e-06 0.00052154326
000080 1c b6 97 b5 98 0c 80 b8 00 00 00 00 00 00 00 00
       -1.1303378e-06 -6.1058614e-05 0.0 0.0
000090 d0 32 17 37 00 00 00 00 00 00 00 00 0e 5c 6b 38
       9.012132e-06 0.0 0.0 5.61141e-05
0000a0 60 14 42 b9 ae 63 1c b8 e1 04 df b8 da 93 6d b8
       -0.00018508872 -3.7286132e-05 -0.000106343774 -5.66429e-05
0000b0 a1 d9 72 b7 65 0f 20 bd 6c 96 33 bd d6 d5 33 bd
       -1.4474995e-05 -0.03907718 -0.043844625 -0.0439051
0000c0 18 7c ec bb a2 40 a1 bb 3a d5 46 bc 12 57 d2 bb
       -0.0072169416 -0.004921035 -0.012135798 -0.006419071
0000d0 1b 53 94 bb db 34 33 bc a3 20 8c bb 79 1e 01 bd
       -0.0045265085 -0.010937895 -0.0042763515 -0.0315232
0000e0 23 59 bb bc 57 7e de bc bc 52 e0 bc 2d be 8e bc
       -0.022869652 -0.027159853 -0.0273832 -0.017424667
0000f0 c1 d1 41 ae be c0 85 33 2b 20 ca b6 27 93 93 b7
       -4.4069418e-11 6.228355e-08 -6.023814e-06 -1.7592289e-05
000100 22 2f c6 b7 30 c0 a9 bd c6 db a0 b7 b2 26 4b 37
       -2.3625387e-05 -0.0828861 -1.9175826e-05 1.2108752e-05
000110 3a 08 11 39 2b 45 8d 3a 35 6f 5f 39 24 22 e1 38
       0.00013831342 0.001077806 0.00021308365 0.00010735195
000120 f0 e1 9e 39 f3 7b 74 38 2b 93 2c b8 54 9d a8 b8
       0.00030304445 5.828957e-05 -4.1145056e-05 -8.040169e-05
000130 8f aa 89 39 50 cf ae 38 31 43 98 b8 b8 4d 8b 37
       0.00026257752 8.3355815e-05 -7.26044e-05 1.6606282e-05
000140 18 2f 85 37 f3 b9 60 38 7b ea 2a 35 e2 31 1f 37
       1.5876765e-05 5.357894e-05 6.367115e-07 9.488753e-06
000150 fc a9 6b b8 0d c8 02 b8 45 7a 66 39 db 5c 8c 3a
       -5.6186676e-05 -3.1180727e-05 0.00021980058 0.0010708825
000160 35 51 c5 39 c9 eb b7 38 13 e5 58 39 a5 4a 8c 38
       0.00037635272 8.7700384e-05 0.00020684702 6.689624e-05
000170 4f 69 8a b7 ac 53 1b b8 fb 7f 3e b6 27 43 47 38
       -1.649992e-05 -3.7032805e-05 -2.83867e-06 4.7507838e-05
000180 1b 6e 3a 37 83 c5 32 b7 34 21 02 35 da 53 a0 38
       1.11121e-05 -1.0655614e-05 4.847709e-07 7.645013e-05
000190 00 00 00 00 00 00 00 00 37 9b 55 b6 00 00 00 00
       0.0 0.0 -3.182982e-06 0.0
0001a0 00 00 00 00 5e 41 89 b5 e5 f4 4c 38 8c dc 69 37
       0.0 -1.022632e-06 4.8865466e-05 1.3939232e-05
0001b0 4c b9 f4 37 2e 61 84 35 cb ad e5 37 f5 e2 d5 3a
       2.9173352e-05 9.863049e-07 2.7379856e-05 0.0016318249
0001c0 7c f8 f0 3a 76 29 f0 3a 2e 5d 64 39 e1 86 88 ba
       0.0018384601 0.0018322903 0.00021778487 -0.0010416174
0001d0 81 99 57 ba 78 ed e8 b9 27 0b 77 ba 72 a5 b5 ba
       -0.0008224473 -0.00044427416 -0.0009423964 -0.0013858511
0001e0 ee 6c c7 3a 02 00 38 3b 30 02 51 ba 85 48 3b ba
       0.0015214959 0.0028076177 -0.0007973043 -0.000714429
0001f0 b0 60 2e ba 3a fe f6 bb 1a 62 ab ad 51 a4 86 2e
       -0.0006651981 -0.0075376304 -1.9484015e-11 6.122803e-11
000200 90 39 1e 37 43 9d 8d 37 0b a3 dc 37 bb a0 35 3c
       9.430936e-06 1.688174e-05 2.6301966e-05 0.011085684
000210 85 f1 e6 b9 d0 18 bc b7 97 20 b5 b8 8b 32 0e 3a
       -0.00044048965 -2.24229e-05 -8.636823e-05 0.00054244016
000220 67 7a 88 38 46 2a c7 b6 99 e8 7f 38 4f 45 62 37
       6.5077846e-05 -5.9355834e-06 6.101336e-05 1.3486787e-05
000230 d6 28 e6 b7 98 e8 d7 36 4a e3 d0 37 be 9d af 37
       -2.7437152e-05 6.434577e-06 2.4901372e-05 2.093508e-05
000240 f5 4f b9 b7 5e 50 4b b7 bb 61 af b7 7c ed 8f 37
       -2.2090951e-05 -1.2118455e-05 -2.0907135e-05 1.7157516e-05
000250 13 0c 86 36 38 67 76 b8 42 cf e4 b9 e8 03 b5 b7
       3.994917e-06 -5.87471e-05 -0.00043641968 -2.15787e-05
000260 88 51 b6 b8 e1 c2 cc 39 7c 49 1f 39 1b 70 00 38
       -8.693623e-05 0.00039055108 0.00015190797 3.0621984e-05
000270 90 45 16 38 4d 16 03 b7 9d da 0f 37 fc fe 52 b7
       3.5827572e-05 -7.813401e-06 8.574364e-06 -1.2576344e-05
000280 eb dd 07 b7 e8 0f 28 38 dd a2 73 35 c1 16 6b b8
       -8.098296e-06 4.0069135e-05 9.076155e-07 -5.6049557e-05
000290 5d 83 0e 34 07 6f 88 b8 00 00 00 00 00 00 00 00
       1.327257e-07 -6.505666e-05 0.0 0.0
0002a0 00 28 1c 34 00 00 00 00 00 00 00 00 cd 89 3e b7
       1.4543184e-07 0.0 0.0 -1.1356967e-05
0002b0 b3 a8 ed 36 0c de 01 b6 1d 3f 6d b6 13 56 a1 b7
       7.0827896e-06 -1.9351746e-06 -3.5352489e-06 -1.9232777e-05
0002c0 c4 6f 41 b7 24 ca 21 bb 02 0c b6 ba ce 22 b4 ba
       -1.1529719e-05 -0.0024687136 -0.0013889077 -0.0013743283
0002d0 a2 05 9f 3a 50 3b 4f 3a ae 4d 03 3b ae 91 ff ba
       0.0012132416 0.00079052616 0.0020035314 -0.0019498372
0002e0 7a 24 25 bb dc 5f 92 bb dd e9 cd 39 66 ec 55 3b
       -0.0025198744 -0.0044669937 0.0003927489 0.0032642125
0002f0 5f 46 4e bb 19 6b 0a bb 5d df 07 bb 8f 6d ad bb
       -0.003147505 -0.0021120964 -0.00207325 -0.0052926014
000300 00 00 00 00 00 00 00 00 08 d5 7c b6 4b 59 4c b6
       0.0 0.0 -3.7674927e-06 -3.0450344e-06
000310 1e 10 e4 b6 20 f0 11 bb cd 0f 1a b8 36 b3 03 b7
       -6.796806e-06 -0.002226837 -3.6731177e-05 -7.849934e-06
000320 e0 2e 0e 39 b4 d3 11 bb c8 62 1f 38 7c 53 77 37
       0.00013559638 -0.002225143 3.800055e-05 1.4741785e-05
000330 7b f1 e7 38 e1 12 b2 35 a0 49 5b 38 da 88 bb b9
       0.000110599176 1.3267528e-06 5.2282237e-05 -0.00035769382
000340 46 eb 46 3a cc cb c2 b6 30 d0 a5 36 d0 8b 5b 38
       0.0007588159 -5.8053756e-06 4.9416194e-06 5.234388e-05
000350 d4 59 05 37 fb 8f 0d 39 7f f8 dd b4 39 bf ea 37
       7.9483325e-06 0.00013500445 -4.1345263e-07 2.7984019e-05
000360 a9 3b c0 b6 e2 60 85 b8 4b 73 ac b8 da 0e 18 bb
       -5.7289913e-06 -6.35998e-05 -8.223074e-05 -0.0023202212
000370 32 e0 f1 37 0f 40 7d b7 a6 e6 59 37 c7 93 54 38
       2.8833838e-05 -1.509489e-05 1.298791e-05 5.0682367e-05
000380 5f 20 02 36 b3 47 6e b8 7b e9 17 b7 1d 46 c7 38
       1.9390352e-06 -5.6810397e-05 -9.054663e-06 9.502119e-05
000390 e2 f9 0d b7 5a 43 be 37 f1 88 2c b3 91 7e 34 37
       -8.462435e-06 2.2681128e-05 -4.0171418e-08 1.0758305e-05
0003a0 00 00 00 00 00 00 00 00 a8 8f b0 b4 00 00 00 00
       0.0 0.0 -3.2887078e-07 0.0
0003b0 00 00 00 00 25 dc c3 37 b5 38 4c b8 bf 02 f5 b7
       0.0 2.3348324e-05 -4.8690203e-05 -2.9207555e-05
0003c0 89 5c e9 b7 7a 6a ab b7 23 4d 19 b8 2d ea 43 bb
       -2.7818855e-05 -2.043437e-05 -3.654988e-05 -0.0029894218
0003d0 b1 41 2f bb bc 3e 35 bb a9 11 ea ba 0b b4 dc ba
       -0.0026742036 -0.00276558 -0.0017858046 -0.0016838325
0003e0 da af 63 bb 3d 70 02 3b 04 f9 2c 3b 85 bc 97 3b
       -0.0034742267 0.0019903325 0.0026393542 0.0046306276
0003f0 cd a7 d7 39 d5 9d f6 bb 02 86 bb 3a be e1 c3 3a
       0.00041133017 -0.0075261393 0.0014306905 0.0014944596

exp_avg_sq f4 [16, 66]
000000 01 ee a2 36 4c 06 a6 32 99 f4 3b 35 cd 47 1e 37
       4.8556835e-06 1.9327807e-08 7.0018865e-07 9.434251e-06
000010 0e d6 12 34 48 a8 57 33 c0 d8 36 34 0d f3 9d 32
       1.3675182e-07 5.021164e-08 1.7028924e-07 1.8387732e-08
000020 0a 04 47 33 e9 7d 0d 33 e6 b9 b9 35 1c b6 64 33
       4.633697e-08 3.2943635e-08 1.3837678e-06 5.3251014e-08
000030 43 2d b4 32 85 48 09 32 11 e2 14 31 4b 8f 59 33
       2.097534e-08 7.990939e-09 2.1665338e-09 5.0654574e-08
000040 6a b8 ee 2f 6d 71 e8 32 3a 79 8f 36 00 86 4e 32
       4.3422982e-10 2.7059935e-08 4.2758447e-06 1.2021246e-08
000050 4a f5 37 35 39 12 31 37 9b 69 03 34 01 cb 45 33
       6.8529755e-07 1.0554265e-05 1.2238745e-07 4.6052268e-08
000060 bb 4a f1 33 f2 b2 38 32 d9 0a e4 32 85 5a 51 32
       1.12360304e-07 1.0750897e-08 2.6547626e-08 1.2185983e-08
000070 9f e2 66 31 1d 14 08 33 cd a9 d9 2f 78 ae 50 33
       3.3598224e-09 3.168326e-08 3.959272e-10 4.8587452e-08
000080 0d 0a 6f 2c 9e 64 a1 33 00 00 00 00 00 00 00 00
       3.3969522e-12 7.515449e-08 0.0 0.0
000090 27 ed 23 2e 00 00 00 00 00 00 00 00 82 88 0e 31
       3.7272543e-11 0.0 0.0 2.0741315e-09
0000a0 31 1c b0 31 d9 66 5c 31 17 09 99 31 1f 4a fe 31
       5.125479e-09 3.2072676e-09 4.4539195e-09 7.4007995e-09
0000b0 0d 9c 6c 31 2f 4c b5 3a 45 64 b9 3a fe e2 b8 3a
       3.4431225e-09 0.0013831909 0.0014144263 0.0014105735
0000c0 14 6d 6c 39 16 d8 3e 39 49 b8 54 3a d3 3a f3 36
       0.00022547349 0.0001820031 0.0008114619 7.2488124e-06
0000d0 b6 af b6 37 50 29 4f 38 12 92 9a 36 03 35 84 3a
       2.1777912e-05 4.939112e-05 4.6065625e-06 0.00100866
0000e0 c1 37 a0 3a fc a8 a5 3a 53 8c a6 3a 00 e6 18 3b
       0.0012223647 0.0012638862 0.0012706615 0.002333045
0000f0 cf bc 1f 25 c8 c2 f3 25 2f a4 83 30 34 d7 ac 30
       1.3855022e-16 4.228577e-16 9.578168e-10 1.2575812e-09
000100 0e 11 93 31 63 4e 27 3b f3 d7 31 36 04 f3 b8 31
       4.280202e-09 0.00255289 2.6500754e-06 5.3827325e-09
000110 d7 93 1f 34 97 14 e2 34 84 94 40 33 43 2a e2 31
       1.4861813e-07 4.2110761e-07 4.4838558e-08 6.5822703e-09
000120 7d 81 20 33 3b af 40 31 08 c5 fd 31 44 1a 57 31
       3.7370672e-08 2.8039284e-09 7.385669e-09 3.1301548e-09
000130 3d 69 cd 33 9a f5 38 32 1f 04 ff 30 fc 63 db 30
       9.565199e-08 1.0766053e-08 1.8554863e-09 1.5962764e-09
000140 0b 25 71 2f c5 f6 91 31 4c 53 28 2f a9 ec 8b 31
       2.1931983e-10 4.24811e-09 1.5309104e-10 4.0723376e-09
000150 97 02 df 35 33 d1 4d 31 e4 b0 21 34 a8 85 ed 34
       1.6615548e-06 2.9950342e-09 1.5058646e-07 4.4241938e-07
000160 ce 39 17 33 97 4c 9b 31 e1 d3 b4 32 1f 7d 0f 31
       3.521e-08 4.519801e-09 2.105111e-08 2.0880362e-09
000170 cd de 01 32 cf 53 45 30 2e 3d 11 30 c2 45 7e 31
       7.559447e-09 7.178728e-10 5.2837634e-10 3.7001517e-09
000180 a3 4b 62 2e fe 5a 06 32 6b 85 e2 2a c9 f6 5b 32
       5.145363e-11 7.820516e-09 4.0238242e-13 1.280359e-08
000190 00 00 00 00 00 00 00 00 36 13 bf 2c 00 00 00 00
       0.0 0.0 5.4306793e-12 0.0
0001a0 00 00 00 00 09 00 e1 2e 37 ef 98 30 3a cf 84 30
       0.0 1.02318216e-10 1.1127445e-09 9.663161e-10
0001b0 20 47 8c 30 29 c5 ca 2f 5e c9 56 30 0b b7 3e 38
       1.0206556e-09 3.6883677e-10 7.8138906e-10 4.5470002e-05
0001c0 1f 46 b6 38 21 b7 b6 38 a7 1c b5 36 e7 b6 9d 36
       8.691497e-05 8.712547e-05 5.397556e-06 4.7002573e-06
0001d0 3f 40 a7 37 c3 72 01 37 13 6f b2 36 40 c6 d3 37
       1.9937868e-05 7.715719e-06 5.317744e-06 2.5245477e-05
0001e0 ae 5c 4e 35 aa 8e 08 38 ff ab 2d 38 19 6d aa 38
       7.6875847e-07 3.2557793e-05 4.1406598e-05 8.126553e-05
0001f0 46 00 a9 38 4a 03 f6 37 93 38 d5 23 1d ed 9f 24
       8.058599e-05 2.9327017e-05 2.3117466e-17 6.9356944e-17
000200 e4 74 81 2f 7c 28 9e 2f 3e 89 8c 30 60 30 6d 38
       2.354802e-10 2.8768798e-10 1.0225347e-09 5.6550256e-05
000210 52 fe c3 33 9a 37 3e 2f 25 6a b4 31 20 1c 78 34
       9.126656e-08 1.7300153e-10 5.2507567e-09 2.3107032e-07
000220 86 0c e2 31 fa 85 13 31 55 e0 80 32 9d 7d 44 30
       6.5788894e-09 2.1467472e-09 1.5003176e-08 7.148289e-10
000230 28 2d e6 2f 99 86 c6 30 f3 97 0f 33 b1 e1 9f 30
       4.1868842e-10 1.4444651e-09 3.343298e-08 1.1632918e-09
000240 d2 1b 84 2f 65 31 a4 2f af 91 a9 2e 0d 3f 35 31
       2.4030428e-10 2.9866523e-10 7.711109e-11 2.6374807e-09
000250 25 dd a3 2c c7 50 8e 2f aa 00 16 34 bc 0b 9d 2f
       4.6572906e-12 2.5887045e-10 1.397008e-07 2.8566471e-10
000260 50 db 37 32 90 b1 80 34 a7 44 13 32 ab 49 4b 31
       1.0701868e-08 2.3971052e-07 8.572136e-09 2.9582263e-09
000270 a7 a4 4b 32 08 92 0b 30 95 b8 3a 30 8e e6 a2 2f
       1.1853593e-08 5.077543e-10 6.792871e-10 2.9631447e-10
000280 a0 f2 2d 2e 36 1d 2c 31 d4 80 43 2d d2 81 d0 2f
       3.955114e-11 2.5045899e-09 1.1113072e-11 3.7927222e-10
000290 79 3c 0a 2a 89 c4 dd 30 00 00 00 00 00 00 00 00
       1.2277843e-13 1.6135725e-09 0.0 0.0
0002a0 01 f5 e0 2b 00 00 00 00 00 00 00 00 13 a9 8e 2d
       1.598416e-12 0.0 0.0 1.6218615e-11
0002b0 88 3f a2 2f a7 2b d0 2e 1f 45 db 2e ba ac 1e 2f
       2.951277e-10 9.466499e-11 9.9712454e-11 1.4431381e-10
0002c0 b9 70 a5 2f 7b 00 b1 36 50 2d b5 36 40 61 b5 36
       3.009342e-10 5.275067e-06 5.3994954e-06 5.4055417e-06
0002d0 79 6f fe 34 99 78 b3 34 7b e8 d0 35 5a 72 65 36
       4.7392294e-07 3.3429095e-07 1.5564868e-06 3.419022e-06
0002e0 3e 44 7f 36 83 0b 71 37 f9 de eb 34 84 be 2c 36
       3.8037683e-06 1.43674e-05 4.3934395e-07 2.5740892e-06
0002f0 0c 72 28 37 da d6 25 37 60 73 24 37 76 9f f8 37
       1.0040134e-05 9.88479e-06 9.802025e-06 2.9638159e-05
000300 00 00 00 00 00 00 00 00 f1 4f de 2c 43 02 55 2d
       0.0 0.0 6.3184948e-12 1.210815e-11
000310 56 e6 0a 2e fb 62 4f 36 ab a6 3c 35 b9 49 8a 30
       3.1582147e-11 3.0903018e-06 7.027799e-07 1.0061775e-09
000320 a0 23 56 34 e9 f4 e4 36 d5 e7 8e 33 d9 a6 95 32
       1.9943263e-07 6.823441e-06 6.65456e-08 1.7421756e-08
000330 eb 5e 2e 33 af 70 cb 31 fb bb cd 31 e7 aa 91 32
       4.059886e-08 5.9208882e-09 5.987656e-09 1.6957939e-08
000340 49 04 07 35 eb f5 95 32 5b 63 e6 30 f9 c2 03 31
       5.0297655e-07 1.7457713e-08 1.6762941e-09 1.9173838e-09
000350 10 45 63 30 f6 a3 30 33 9b 7d d1 2e b2 0d 78 31
       8.268026e-10 4.1127315e-08 9.5265316e-11 3.6096535e-09
000360 bf 8f 37 35 47 b6 e8 30 cd 4d 94 34 e2 ec e8 36
       6.838199e-07 1.6932028e-09 2.7623756e-07 6.9417156e-06
000370 d9 19 aa 33 ef 56 67 32 a7 80 45 33 f8 bb 89 31
       7.9209435e-08 1.3465736e-08 4.5984645e-08 4.0085943e-09
000380 3a 84 fd 31 f3 aa 38 31 ef 16 67 2f 85 83 13 33
       7.3783015e-09 2.6872697e-09 2.1017475e-10 3.434572e-08
000390 53 80 00 2f 24 d3 fc 31 3f 76 db 2b c2 8c b9 32
       1.1687122e-10 7.358169e-09 1.5593706e-12 2.1600844e-08
0003a0 00 00 00 00 00 00 00 00 49 ab 8d 2c 00 00 00 00
       0.0 0.0 4.0264775e-12 0.0
0003b0 00 00 00 00 2b d0 0e 2f d7 52 ca 30 59 64 12 30
       0.0 1.2988781e-10 1.4720979e-09 5.3257093e-10
0003c0 a5 8a fa 2f d3 2c 05 30 a3 59 94 30 3e 38 6a 3a
       4.5573248e-10 4.8448817e-10 1.0793894e-09 0.00089347723
0003d0 8b 19 5e 3a be 1c 5e 3a 2b 2e f3 37 59 14 08 38
       0.0008472434 0.0008472911 2.8989356e-05 3.2443877e-05
0003e0 3d 24 00 39 aa 13 35 38 2c e2 39 38 ad 91 36 39
       0.00012220531 4.3172076e-05 4.4318076e-05 0.00017411141
0003f0 54 0c 79 36 7e b0 a1 39 9a 5a 1f 3a 84 bc 14 3a
       3.7111067e-06 0.0003083981 0.00060788693 0.0005673843

exp_avg f4 [16]
000000 26 af ac b9 80 5e f7 bb 7a 59 04 bc fd 26 45 bb
       -0.00032936892 -0.007549107 -0.0080779735 -0.0030083053
000010 c5 32 99 3b e7 12 fd 3a 77 99 50 bc 0c b6 a4 bb
       0.0046752417 0.0019308002 -0.012731901 -0.0050265845
000020 c4 de c4 ba 2d bf 77 3c db 46 08 3c a7 50 7a bc
       -0.0015020003 0.015121263 0.0083176745 -0.015278018
000030 95 c1 05 bc b6 ab a4 3c 82 fe 96 b9 5e 4a 09 3c
       -0.008163829 0.02010141 -0.00028799853 0.008379547

exp_avg_sq f4 [16]
000000 29 bc 1c 39 6e 04 27 39 07 ab c9 38 86 a8 94 38
       0.00014947414 0.00015928011 9.616283e-05 7.08858e-05
000010 57 aa 1b 3a b3 e3 11 39 04 81 39 38 5d fe 49 39
       0.00059381634 0.00013913102 4.4227592e-05 0.00019263611
000020 94 e9 d3 38 04 4e 39 38 75 7d 65 38 be e5 13 3a
       0.00010104771 4.4180095e-05 5.4714696e-05 0.0005641839
000030 94 17 e5 38 cc 8e 38 3a c6 8b ef 37 b6 d1 8d 39
       0.00010923963 0.00070403214 2.8556107e-05 0.00027049863

exp_avg f4 [16]
000000 5d 94 9e bb 64 17 d8 bb 50 46 99 bb 34 5c ae bb
       -0.0048394636 -0.0065945853 -0.0046775714 -0.00532105
000010 ab 40 6f bb 12 4c 99 3b fc 7d af b8 21 0d c9 3b
       -0.003650705 0.0046782577 -8.368117e-05 0.0061355983
000020 73 c5 45 3c f4 b4 19 3c 08 00 6b 3a d0 91 d1 bc
       0.012071001 0.0093815215 0.0008964543 -0.025582224
000030 46 40 a4 3c c1 9b 03 bb 09 1c 0d 3c 8f 4d 3a 3c
       0.02005018 -0.002008185 0.008612641 0.0113710305

exp_avg_sq f4 [16]
000000 60 b3 80 39 9e a9 a7 39 bc 98 0b 39 a4 10 f0 38
       0.00024547707 0.00031979097 0.00013312971 0.00011447191
000010 ea 00 35 3a 6d 47 14 39 08 62 2b 39 79 c1 0c 39
       0.0006904738 0.00014140988 0.0001634435 0.00013423515
000020 83 7c a5 38 d7 02 79 38 2d 19 6f 38 fd 09 8c 3a
       7.891005e-05 5.936887e-05 5.7005487e-05 0.0010684129
000030 84 3f 81 39 66 56 26 3a 2e 7a b2 37 2b 7b 0e 38
       0.0002465212 0.0006345272 2.1276148e-05 3.3970147e-05

exp_avg f4 [8, 16]
000000 7c cc be 3a 91 8b 67 3b 6e 55 bd ba 2e ac c8 39
       0.0014556791 0.003533099 -0.0014445016 0.00038275257
000010 95 17 b6 3a 45 a4 30 bb 53 5c b6 39 30 b7 a7 3b
       0.0013892526 -0.002695338 0.00034782532 0.005118273
000020 6d e0 8a ba e4 7d ef 3a f4 42 2e bb 84 4b d7 bb
       -0.0010595449 0.0018271771 -0.00265902 -0.0065702815
000030 4e d3 08 3a 15 de f7 ba 9f 17 0d bb 35 63 23 ba
       0.0005219475 -0.001891079 -0.0021528972 -0.00062327395
000040 94 12 c7 b9 38 b4 31 bc b9 73 dc 3c d2 45 f0 3b
       -0.0003797008 -0.01084619 0.02691065 0.007332542
000050 c2 ca a7 3c cc 6b 05 3d 43 2f 27 3b e0 07 ae 3c
       0.020482425 0.032573506 0.0025510348 0.02124399
000060 33 f6 3c 39 74 69 83 bc 2b 76 f5 3c 9b 1a fa 3c
       0.00018020794 -0.016041495 0.029963573 0.030530265
000070 d2 b2 be bb b4 07 1e 3d 27 ea 18 3c 89 41 c0 3c
       -0.005819657 0.038581565 0.00933317 0.02346875
000080 87 f4 48 ba fc 86 51 3b c0 6b 9a ba c6 77 fa ba
       -0.0007665832 0.0031971326 -0.001178138 -0.0019109182
000090 84 15 96 ba 19 9b c4 ba 8a f1 24 3a 7e 3f 1a ba
       -0.0011450504 -0.0014999836 0.00062920956 -0.0005884095
0000a0 50 f5 d2 b9 a5 a7 22 3b e9 3b 8a ba 71 1d 1d ba
       -0.00040237093 0.0024819162 -0.0010546419 -0.0005993462
0000b0 0b 08 29 3b bb ca be ba 2b 14 00 b9 b9 af 41 b9
       0.0025792147 -0.0014556268 -0.00012214544 -0.00018471376
0000c0 de c2 2a 3b cf 87 6a 3c 8a 75 5b bc 95 3c 16 3a
       0.0026056091 0.014314606 -0.013394723 0.00057310733
0000d0 2e fd 9e b9 2e 6f 93 bc 5a 2f 91 3b 73 fb 13 bb
       -0.00030324742 -0.01799735 0.0044306936 -0.0022580295
0000e0 77 90 30 3c 56 7b c7 3c 89 c5 2f bc c8 a4 bb bc
       0.010776631 0.024350803 -0.010728248 -0.022905722
0000f0 43 6e 4d 3c c3 cc a4 bc 06 5b 3f b9 65 06 dd bb
       0.0125384955 -0.02011717 -0.00018249088 -0.006745147
000100 c6 58 26 3c e6 26 5d 3c f7 9f 32 bc 76 fd a1 39
       0.010153001 0.013498044 -0.010902396 0.00030897156
000110 b0 16 7e 3a 15 dd 52 bc c2 77 04 3c e3 58 f2 3b
       0.0009692712 -0.012870093 0.008085193 0.00739585
000120 5e cc b7 3b b4 3a d6 3c 79 d0 21 bc 02 17 05 bd
       0.0056090793 0.026151039 -0.009876364 -0.032492645
000130 1b 52 5d 3c 4d 38 51 bc ef 56 37 bb 76 20 8a bb
       0.013508345 -0.012769771 -0.00279754 -0.0042152954
000140 e2 2b 70 3a f7 96 ee 39 34 f7 0d 3b 91 b6 92 3a
       0.00091618125 0.00045507375 0.0021662237 0.0011193325
000150 46 17 bd 3a 8f b2 eb 3a 9e e9 a3 3a 14 08 91 b9
       0.0014426492 0.0017982292 0.0012505536 -0.00027662574
000160 73 d7 cf 3a a5 39 eb 39 5c 60 b2 3a e5 db 00 3b
       0.0015857056 0.0004486564 0.001360904 0.0019662317
000170 68 ad bb 3a 78 d5 75 3a ef 03 64 3a e5 65 35 3a
       0.0014318647 0.00093778176 0.0008698096 0.00069197855
000180 1e d3 03 bb 50 a0 ea 3b eb 95 b4 3b a3 12 e3 3b
       -0.002011485 0.007160224 0.0055110357 0.006929712
000190 78 47 06 bb 93 11 2e 3c b0 11 de 3b 66 1b 75 b9
       -0.0020489376 0.010624307 0.006777011 -0.00023375227
0001a0 2d eb 12 3c 4e 57 37 bc 5d ae a5 3b 55 fc 7b 3c
       0.008967203 -0.011190249 0.005056186 0.015379985
0001b0 8f 96 04 3c df 66 68 3c 42 80 ec 3b 3b 87 f0 b9
       0.008092537 0.014184683 0.007217438 -0.00045877122
0001c0 8e 8d ad bb 93 f9 05 bc 0f 9b cf 3b 41 41 fd bb
       -0.0052964156 -0.008177179 0.006335623 -0.007728726
0001d0 a4 cf 05 3c c9 62 90 3a df f7 2c bc e0 67 27 3c
       0.008167181 0.0011015768 -0.010557144 0.010217637
0001e0 7a db fd bb ba 90 94 ba de cd 74 3b 3f 76 27 bb
       -0.007747111 -0.0011334636 0.0037354152 -0.0025552658
0001f0 b4 5a 14 bc 67 70 23 bb cd eb ba bb ab 1b 4c 3c
       -0.009054828 -0.0024938823 -0.005704379 0.012457768

exp_avg_sq f4 [8, 16]
000000 5b 2b 57 37 9f 26 41 37 cf 8e 64 38 10 fc 9d 36
       1.2825093e-05 1.1512689e-05 5.4492437e-05 4.7083086e-06
000010 8e 91 22 38 5f dd 62 38 ed 0b 99 36 d3 0c 11 38
       3.8759368e-05 5.4088767e-05 4.5611437e-06 3.4582637e-05
000020 7a f9 42 38 59 9a 22 37 63 00 65 38 2e 9c 3d 38
       4.6485548e-05 9.691889e-06 5.4598215e-05 4.5206565e-05
000030 e6 dd fe 36 29 4c 69 38 2a f5 ac 36 65 ec 44 38
       7.5956223e-06 5.562246e-05 5.1545403e-06 4.69502e-05
000040 44 4f 23 3a 72 e1 29 3a 1c 4b 1f 3a 82 ba 83 39
       0.0006229768 0.00064804323 0.0006076561 0.00025125226
000050 2a fa 2b 3a e4 77 41 3a 8b 5b db 39 97 76 3c 3a
       0.00065604097 0.0007380231 0.0004183914 0.0007189302
000060 8b 6b 8c 3a fb fe a6 39 2f d2 6e 3a 18 be 70 3a
       0.0010713203 0.00031851963 0.0009110299 0.00091835996
000070 23 df cd 39 2d 8d 7c 3a 12 62 15 3a 4b 39 00 3a
       0.00039266897 0.0009634074 0.00056985125 0.000489135
000080 a8 83 91 36 e7 17 ce 36 7f 28 82 36 ec 62 2c 36
       4.3366636e-06 6.142061e-06 3.8790163e-06 2.5687577e-06
000090 bd 88 c3 36 4e 9c ba 36 2b 3f a0 36 9d 8b c9 36
       5.8273713e-06 5.561428e-06 4.7757253e-06 6.00652e-06
0000a0 a8 52 d0 36 e6 69 00 37 be d2 d6 36 a5 59 fc 36
       6.2085055e-06 7.654051e-06 6.4022306e-06 7.5206212e-06
0000b0 62 8e 14 37 5a 26 03 37 33 29 9b 37 76 8e 5f 36
       8.8546385e-06 7.817138e-06 1.8496625e-05 3.3312513e-06
0000c0 61 b5 df 37 7c 60 af 38 39 02 f5 38 03 e1 a3 37
       2.6668133e-05 8.362622e-05 0.000116829244 1.9535893e-05
0000d0 33 39 70 38 8a 6c ec 38 e8 59 10 38 bf 64 55 38
       5.727373e-05 0.00011273574 3.4416007e-05 5.0876984e-05
0000e0 f4 d6 98 38 39 ae 9f 38 5a 15 3b 38 91 9b 39 39
       7.287963e-05 7.614162e-05 4.460416e-05 0.00017700928
0000f0 04 71 9b 38 d1 3e 74 38 4d f6 b9 38 be 41 de 38
       7.412027e-05 5.8232636e-05 8.8673645e-05 0.0001059803
000100 fb 5e a1 39 bb 7d 5c 39 8e 28 6e 3a 0e 38 08 3a
       0.0003077908 0.00021027673 0.00090850226 0.0005196341
000110 e5 f4 56 3a d9 79 8f 3a 5f e8 ba 39 d0 03 92 3a
       0.0008199944 0.0010946348 0.00035649815 0.0011140052
000120 f9 a6 a2 38 7e 7f a3 39 a8 78 94 3a 6c 3c 16 3a
       7.755863e-05 0.00031184772 0.0011327462 0.00057310495
000130 d4 fe 8f 39 7a 77 a8 3a 5b 66 14 3a ba 0a 47 3a
       0.00027464947 0.001285299 0.0005661004 0.0007592846
000140 d0 43 db 35 45 3c a2 35 97 7a 30 36 8a a1 a0 35
       1.6336508e-06 1.2087481e-06 2.62974e-06 1.1967943e-06
000150 70 0b 71 35 01 93 17 36 fc 6e e4 35 39 42 50 36
       8.979614e-07 2.258632e-06 1.7019624e-06 3.1032962e-06
000160 5a bc 07 37 40 47 39 35 02 09 66 35 a4 17 8b 36
       8.090481e-06 6.9021553e-07 8.5694785e-07 4.145275e-06
000170 c5 d9 91 35 76 3c 7c 35 8d eb da 35 05 07 21 36
       1.0866721e-06 9.39653e-07 1.631082e-06 2.3994955e-06
000180 dc 97 39 38 29 3c d1 37 36 d2 ef 38 0b 42 82 38
       4.4248867e-05 2.4942756e-05 0.00011435563 6.2111845e-05
000190 9b c3 c2 38 ba ad f5 38 ab 19 69 38 60 24 e8 38
       9.287075e-05 0.000117148695 5.5575434e-05 0.000110693974
0001a0 74 c6 f7 37 57 96 b5 38 c0 64 88 38 2b c1 30 39
       2.9537106e-05 8.6587555e-05 6.5037515e-05 0.00016856629
0001b0 79 26 f5 37 c8 36 86 38 fc 51 d9 38 a5 1c ee 38
       2.9224191e-05 6.399822e-05 0.00010362637 0.0001135406
0001c0 a6 f6 0c 39 d7 ed 17 39 6a 3c ed 39 1e c0 23 39
       0.00013443324 0.00014489084 0.00045249175 0.0001561646
0001d0 9c a9 d2 39 6b 0a e0 39 d3 80 53 39 c6 f9 c0 39
       0.0004018069 0.0004273237 0.00020170519 0.0003680719
0001e0 e2 bd 2d 39 84 0f 1e 39 d9 0d da 39 03 d9 e8 39
       0.00016569303 0.00015073834 0.00041590518 0.00044412175
0001f0 32 73 1a 39 6d 43 e4 39 be a3 20 39 38 cd ed 39
       0.00014729498 0.00043537785 0.00015319788 0.00045357062

exp_avg f4 [8]
000000 34 a0 a6 bb 01 03 29 bc 8c b3 21 bc 00 a2 11 3b
       -0.0050850157 -0.010315658 -0.0098694675 0.0022221804
000010 80 22 d3 3b 97 7e 1a 3c 9e 1d 56 3c 9c 57 b8 bb
       0.0064433217 0.009429595 0.013068585 -0.005625678

exp_avg_sq f4 [8]
000000 4b 34 a3 37 33 ae a0 38 fb dc 1b 38 e6 89 5d 3a
       1.9455465e-05 7.661842e-05 3.7160684e-05 0.00084510294
000010 5d c1 b7 38 ec 7c 81 38 53 ce 9a 3a eb b1 ad 38
       8.762137e-05 6.174468e-05 0.0011810757 8.282423e-05

exp_avg f4 [8]
000000 f5 2a af bb 14 48 9a bc b6 08 a6 bb 78 39 7b 3c
       -0.005345697 -0.018833198 -0.0050669564 0.015333526
000010 21 42 ab 3a 5a a4 f8 3b 24 3f 25 bc 0d 3c b2 3b
       0.0013065973 0.0075879516 -0.010085855 0.0054392875

exp_avg_sq f4 [8]
000000 40 2a 81 37 de 3e 88 38 a1 db 42 38 91 af 43 39
       1.5397673e-05 6.496695e-05 4.645775e-05 0.00018662053
000010 73 82 cb 38 2c 6a 9e 37 7b 11 68 39 5b f9 1d 38
       9.7040924e-05 1.8884508e-05 0.00022131756 3.7663947e-05

exp_avg f4 [4, 8]
000000 5b 5a 87 3b 36 93 7a 3c 8d e3 7d bc c1 37 6f 3b
       0.0041306443 0.015293887 -0.015496147 0.0036501738
000010 6d c3 78 3c e0 61 72 3a c2 c6 b6 ba 25 10 11 bb
       0.015183312 0.0009246152 -0.0013944732 -0.0022134867
000020 cc 20 f9 3a 19 6c d3 bb d2 2d 83 3b ba 33 94 bb
       0.0019006967 -0.006452095 0.004003265 -0.004522768
000030 ac d0 45 bb d6 3a d0 bb e5 a9 a5 ba d8 f0 b4 3b
       -0.0030184193 -0.00635467 -0.0012639133 0.005521875
000040 54 e6 3d 3c c6 11 55 bc 91 39 80 3b ad 28 4b 3c
       0.011590559 -0.013004726 0.0039131125 0.012399835
000050 45 e9 08 bc be 2f 4c 3c 49 8a e9 3c ec 89 13 3b
       -0.008356397 0.0124625545 0.028508322 0.0022512628
000060 55 41 5f ba f9 a6 e6 ba bd 40 a0 3b a6 48 d2 3b
       -0.000851651 -0.0017597369 0.00489053 0.006417352
000070 d9 8b aa b9 38 d0 be 3b ce d7 c9 3b 76 d0 7f 3b
       -0.0003252912 0.0058231615 0.006159759 0.0039034165

exp_avg_sq f4 [4, 8]
000000 03 06 b3 37 35 09 b8 39 d6 1e 94 39 77 fb 6e 3a
       2.1341262e-05 0.00035102075 0.00028251734 0.00091164507
000010 99 f9 ce 38 75 d9 70 3a eb 4b 5a 3a 80 66 9c 39
       9.869337e-05 0.0009187677 0.00083273527 0.00029831007
000020 05 15 3b 37 20 d5 6c 37 6c 15 fc 37 a5 cd 4c 37
       1.1150963e-05 1.4116318e-05 3.0050716e-05 1.2207228e-05
000030 09 fd ba 37 68 13 15 37 73 2b 11 36 1a 5d c3 37
       2.2290757e-05 8.88561e-06 2.1631975e-06 2.3289165e-05
000040 7c 9e ae 38 16 5f df 38 1c df ef 37 89 87 20 39
       8.3264866e-05 0.0001065118 2.8594914e-05 0.0001530928
000050 de 13 69 39 a4 9e 74 39 99 56 9d 39 25 4e 59 38
       0.00022228013 0.00023328752 0.00030009894 5.180961e-05
000060 af ac 1c 37 1a df 9b 37 95 ff c1 36 86 f6 88 38
       9.338531e-06 1.858133e-05 5.781602e-06 6.530904e-05
000070 9d 44 d1 37 73 a2 29 38 fa bf bd 37 19 13 80 38
       2.4946692e-05 4.0444032e-05 2.2619952e-05 6.107073e-05

exp_avg f4 [4]
000000 c4 75 90 3c 96 42 a5 bb 94 99 a3 bb da ac e8 bb
       0.01763428 -0.005043338 -0.004992673 -0.0071006836

exp_avg_sq f4 [4]
000000 1c af 67 39 50 f9 b2 37 d1 91 62 38 4d be b0 38
       0.0002209511 2.1335349e-05 5.40184e-05 8.42778e-05

exp_avg f4 [4]
000000 7c 78 a4 3c a6 9c 9a bb 24 e2 51 bc ff fd 90 bc
       0.020076983 -0.004718381 -0.012810264 -0.01769924

exp_avg_sq f4 [4]
000000 85 e0 0e 39 98 cf 94 37 d7 0e 89 38 87 57 ca 38
       0.00013625815 1.7739643e-05 6.535433e-05 9.648414e-05

exp_avg f4 [2, 4]
000000 e5 5e d8 3c 20 fa 66 3c d1 ce 50 bc 82 f9 27 bc
       0.026412437 0.01409772 -0.012744621 -0.010252358
000010 33 0c 0c bb a7 45 23 bc 22 48 9c 39 ad 14 f7 3a
       -0.0021369576 -0.009965337 0.00029808382 0.0018850766

exp_avg_sq f4 [2, 4]
000000 43 29 26 3a 20 dd 6c 38 01 b6 b1 38 cf 38 d0 38
       0.0006338546 5.6472723e-05 8.4739186e-05 9.928794e-05
000010 af 81 a4 37 dd b5 6f 38 f3 f6 0f 37 6e dc 15 38
       1.9610712e-05 5.7151414e-05 8.580962e-06 3.572966e-05

exp_avg f4 [2]
000000 5c 65 ef 3c af e5 f3 bc
       0.029223137 -0.029772608

exp_avg_sq f4 [2]
000000 4a 9a 67 3a 88 d3 3d 3a
       0.00088349415 0.00072412984

exp_avg f4 [2]
000000 22 35 1c 3c 4a de 97 bc
       0.009534152 -0.018538613

exp_avg_sq f4 [2]
000000 0f ef 01 3a 52 2b f9 39
       0.0004956582 0.00047525257

exp_avg f4 [2, 2]
000000 9c c2 a4 bc 75 8e 8a bc 9c c2 a4 3c 75 8e 8a 3c
       -0.020112328 -0.016913632 0.020112328 0.016913632

exp_avg_sq f4 [2, 2]
000000 20 8d d9 39 58 e3 75 39 20 8d d9 39 58 e3 75 39
       0.00041494612 0.00023449713 0.00041494612 0.00023449713

exp_avg f4 [2]
000000 e9 66 24 3c e9 66 24 bc
       0.010034301 -0.010034301

exp_avg_sq f4 [2]
000000 db 6c 0e 3a db 6c 0e 3a
       0.0005433091 0.0005433091
