test/output/local1/simulatorRun/fsv_volumes_from_scratch/fold_8/current.nn.pt (torch_old, 737310 bytes, 42 tensors)

layers.0.0.weight f4 [256, 66]
0	0xbd9dda92	-0.077077046
1	0xbe1374da	-0.14400044
2	0xbc5ef576	-0.013608327
3	0xbe1d2937	-0.15347753
4	0xbd870f4a	-0.06594713
5	0xbe42ddc6	-0.19029912
6	0x3e28a92f	0.16470788
7	0xbe0c8c10	-0.13725305
8	0x3d641b16	0.055689894
9	0x3dbc08b9	0.09181351
10	0xbdb9b4f4	-0.09067717
11	0x3e6de131	0.23230435
12	0x3e1ca01c	0.15295452
13	0x3db30f6f	0.08743178
14	0x3e812c25	0.25228992
15	0xbe56a8dc	-0.20962852
16	0x3ee3c840	0.44488716
17	0xbe6deb7e	-0.23234364
18	0xbd136408	-0.03598407
19	0x3c8d140d	0.017221475
20	0x3caef84b	0.02135863
21	0x3e5d85b0	0.21633029
22	0x3dd7f55d	0.10544846
23	0x3f032465	0.5122741
24	0xbd1075b6	-0.035268508
25	0x3d6a3e96	0.057188593
26	0xbe03cfe4	-0.12872273
27	0x3e841260	0.2579527
28	0xbd960a5a	-0.07326193
29	0x3d71e8d5	0.059059937
30	0x3e479b87	0.19492923
31	0x3dd2be44	0.102901965
32	0xbdcd14a8	-0.100137055
33	0xbe8ffc4d	-0.28122178
34	0xbd653d92	-0.05596692
35	0x3e50a8c3	0.20376877
36	0x3d3602ec	0.04443638
37	0x3e208ce4	0.15678746
38	0x3e0bc544	0.1364947
39	0xbd95b348	-0.07309586
40	0xbe20eb88	-0.15714848
41	0x3e46b22f	0.19403909
42	0xbe2cd28b	-0.16877191
43	0x3ce0912e	0.027412977
44	0x3eba7d19	0.36423567
45	0x3e5b26f8	0.21401584
46	0x3e023daf	0.12718843
47	0x3d975eba	0.073911145
48	0x3cbdf7cc	0.023189448
49	0xbd863ebd	-0.06554935
50	0xbe44861a	-0.1919178
51	0xbe95b886	-0.29242343
52	0xbda13dde	-0.07873128
53	0xbc8db5bd	-0.017298574
54	0xbd2d8922	-0.04236711
55	0x3e2db362	0.1696296
56	0xbd497f42	-0.049193628
57	0x3e31c0d7	0.17358719
58	0x3e545186	0.20734224
59	0x3e91f221	0.28505042
60	0x3ab39721	0.0013701656
61	0xbeac83ee	-0.33694404
62	0x3e8273ba	0.25478917
63	0x3d0e84da	0.034794666
64	0xbe32e83b	-0.17471401
65	0x3dbdfd5b	0.09276839
66	0xbe5fff43	-0.21874718
67	0xbcf04fe6	-0.029334974
68	0xbe7f8f1d	-0.24956937
69	0xbe211bd0	-0.15733266
70	0x3eae5c45	0.3405477
71	0xbdef4ab8	-0.11684173
72	0xbd3ceb20	-0.04612267
73	0x3d518bee	0.051158838
74	0xbde5ac6f	-0.1121453
75	0xbd803208	-0.06259543
76	0x3e4c0d8f	0.19927047
77	0x3d5b7a59	0.053583477
78	0xbcad0eed	-0.021125281
79	0x3cd5a2d5	0.02607862
80	0xbe3f5913	-0.18686323
81	0xbdca6093	-0.09881701
82	0x3dcc0e06	0.09963612
83	0x3dd88c49	0.10573632
84	0xbd7fd668	-0.062460333
85	0xbdce2946	-0.10066466
86	0x3dafeeae	0.085904464
87	0x3e1e5b4a	0.15464512
88	0x3e14a3ce	0.14515612
89	0x3e5809df	0.21097516
90	0x3e755913	0.2395976
91	0x3e726943	0.23672967
92	0x3d870498	0.06592673
93	0xbe70012b	-0.23437946
94	0x3c5c8f17	0.01346185
95	0x3e464130	0.19360805
96	0xbd278100	-0.04089451
97	0x3dd95500	0.106119156
98	0xbc38a768	-0.0112703815
99	0xbe1e1133	-0.15436248
100	0x3d82b098	0.06381339
101	0x3e223d50	0.15843701
102	0xbd6d92bf	-0.058001276
103	0xbe86882d	-0.2627577
104	0x3b70fdd8	0.0036772396
105	0xbe6645f2	-0.2248762
106	0x3ca92388	0.020646825
107	0x3e2a5572	0.16634157
108	0x3d1ac1b1	0.037782375
109	0xbe6cebe8	-0.23136866
110	0xbdb70581	-0.08936597
111	0xbe18d53b	-0.14925091
112	0xbe43e364	-0.19129711
113	0x3ea5a7e2	0.32354647
114	0x3d292b82	0.041301258
115	0x3c6c40e2	0.014419766
116	0xbe1f29ed	-0.15543337
117	0xbdc9732c	-0.098364204
118	0xbf0a45e8	-0.5401292
119	0x3e88c4dc	0.26712692
120	0xbc9f67b5	-0.019458631
121	0xbed0ee55	-0.40806833
122	0xbe35b339	-0.1774415
123	0xbd313e17	-0.043272104
124	0xbd3e0aaa	-0.04639689
125	0xbe2aec85	-0.16691788
126	0x3e5fd6b9	0.21859254
127	0xbdb1892c	-0.086687416
128	0xbde81de5	-0.11333827
129	0x3e92f141	0.28699687
130	0xbe4820a5	-0.19543703
131	0xbd1ced83	-0.038312446
132	0xbd29032e	-0.041262798
133	0x3e34ef13	0.17669325
134	0x3bacff4c	0.005279457
135	0xbe808747	-0.25103208
136	0x3e095910	0.13412881
137	0x3e7206b3	0.23635368
138	0xbd33cb57	-0.04389509
139	0xbd0b7a9f	-0.034052487
140	0xbd38c5a1	-0.04511035
141	0x3cccf5c1	0.025019528
142	0x3db8ba3b	0.09019896
143	0xbdccc19d	-0.09997866
144	0x3e69bb10	0.22825265
145	0x3d049400	0.032367706
146	0xbe82aec9	-0.25523975
147	0x3d1dc854	0.038521126
148	0xbe86d901	-0.26337436
149	0x3c848ee9	0.016181426
150	0xbdf711e7	-0.120639615
151	0xbe71c4fc	-0.236103
152	0xbd320702	-0.043463714
153	0xbe91cf68	-0.2847855
154	0x3dda950c	0.1067296
155	0xbe262786	-0.16226014
156	0xbc5be73e	-0.013421832
157	0xbe064919	-0.13113822
158	0xbda5bce9	-0.080926724
159	0x3da26611	0.07929624
160	0xbe6f2f11	-0.23357798
161	0x3e9082ac	0.28224695
162	0xbdeb4da8	-0.11489421
163	0xbdda64d9	-0.106637664
164	0x3e058c46	0.13041791
165	0x3d0bcd9d	0.034131635
166	0xbb838624	-0.0040137935
167	0x3e4503b1	0.1923969
168	0xbccabd9e	-0.02474862
169	0xbd6d1db5	-0.05788966
170	0xbce87fe2	-0.028381292
171	0x3e00a3bf	0.12562464
172	0x3d3ea71e	0.046546094
173	0xbea6fa90	-0.3261304
174	0x3dfae4df	0.12250685
175	0x3bdb0b43	0.006684692
176	0xbe29755c	-0.16548675
177	0x3ec63042	0.38708693
178	0x3ddeabe6	0.10872631
179	0xbe23d56c	-0.15999383
180	0x3bf1ddbc	0.007381169
181	0xbddd104c	-0.10794124
182	0xbe42efa6	-0.19036731
183	0x3d0541f3	0.032533597
184	0x3da07b77	0.07836049
185	0x3da6a916	0.08137719
186	0x3af01e4c	0.0018319576
187	0x3ead11d1	0.33802655
188	0x3d2303ac	0.039798424
189	0x3c884ebb	0.016639104
190	0xbdc92fff	-0.09823608
191	0xbc7abbfd	-0.015303609
192	0xbe5534b5	-0.20820887
193	0x3e98a554	0.29813635
194	0x3e8b65fd	0.27226248
195	0x3e0d5efd	0.13805766
196	0xbe528762	-0.20559457
197	0xbc8e9be2	-0.017408315
198	0x3d2aafa1	0.0416714
199	0x3dd0ee3d	0.1020169
200	0xbe31442d	-0.17311163
201	0xbebf3eee	-0.373527
202	0x3dab8b3b	0.083761655
203	0x3d08bcc9	0.033383165
204	0x3e408008	0.1879884
205	0x3e47fcce	0.19530031
206	0x3d3fd982	0.04683829
207	0xbe804a3e	-0.25056642
208	0x3dafb0d3	0.085786484
209	0xbd1d24d6	-0.038365208
210	0x3eb3e55f	0.35135934
211	0xbd13b109	-0.036057506
212	0xbeb6a51f	-0.35672852
213	0x3ea8f94e	0.33002704
214	0xbe2f9fd5	-0.17150815
215	0x3e063a86	0.13108262
216	0xbd7f577e	-0.0623393
217	0x3ec2daa8	0.38057446
218	0xbd29a632	-0.04141826
219	0x3e4e4241	0.20142461
220	0xbda191ca	-0.07889135
221	0xbe46a18d	-0.19397564
222	0x3e995121	0.2994471
223	0x3ea5a16c	0.32349718
224	0x3e4f5848	0.2024852
225	0xbd54d3a3	-0.051959645
226	0xbe25966f	-0.16170667
227	0x3d80cffd	0.062896706
228	0x3e90ec5a	0.28305322
229	0x3e77546c	0.24153298
230	0xbd95461d	-0.07288764
231	0xbe21be25	-0.1579519
232	0xbe7a15fe	-0.24422452
233	0xbe18f3cb	-0.1493675
234	0x3ce027d2	0.027362738
235	0xbde522db	-0.11188289
236	0xbe98a3c5	-0.29812446
237	0xbeb287d5	-0.34869257
238	0xbcd47cbc	-0.025938384
239	0xbe858201	-0.26075748
240	0x3e75e565	0.24013288
241	0xbe4e7658	-0.20162332
242	0x3e078b8f	0.13236831
243	0xbd328481	-0.043583397
244	0xbd178d01	-0.036999706
245	0x3e47fdaa	0.19530359
246	0x3d8db686	0.06919579
247	0xbe18df08	-0.1492883
248	0x3d651cdc	0.055935726
249	0x3e0c35f2	0.13692454
250	0x3ecbf6f3	0.39836845
251	0xbe2bd089	-0.16778769
252	0x3db2c31a	0.08728619
253	0xbd20ce6f	-0.03925937
254	0x3e4a9d54	0.19786578
255	0xbd926d3c	-0.07149741

layers.0.1.weight f4 [256]
0	0x3f7ba5d8	0.9829993
1	0x3f7434c6	0.95393026
2	0x3f7c3505	0.985184
3	0x3f7a5063	0.9777891
4	0x3f886c1c	1.0657992
5	0x3f70ddc7	0.94088405
6	0x3f7f9641	0.99838644
7	0x3f7aab6f	0.97917837
8	0x3f778276	0.9668344
9	0x3f78d152	0.971944
10	0x3f7ca5e4	0.9869063
11	0x3f83d4e4	1.0299344
12	0x3f794587	0.97371715
13	0x3f6ec0ce	0.93262947
14	0x3f7830ec	0.9694965
15	0x3f80ac9f	1.005268
16	0x3f820035	1.0156313
17	0x3f80b821	1.0056192
18	0x3f91ed1c	1.1400485
19	0x3f83dc5a	1.0301621
20	0x3f7e7094	0.9939053
21	0x3f7ea268	0.9946656
22	0x3f79fe3f	0.97653574
23	0x3f7c6bdb	0.98602074
24	0x3f81874d	1.0119416
25	0x3f807314	1.0035119
26	0x3f891301	1.0708925
27	0x3f817d76	1.0116413
28	0x3f8030ea	1.0014927
29	0x3f86c72d	1.0529534
30	0x3f85cd16	1.0453212
31	0x3f815bcf	1.0106143
32	0x3f832ec2	1.0248644
33	0x3f808373	1.0040115
34	0x3f7dcb3f	0.99138254
35	0x3f7a46a0	0.97764015
36	0x3f776013	0.9663097
37	0x3f7fdcee	0.99946487
38	0x3f847c17	1.0350369
39	0x3f770c72	0.96503365
40	0x3f7ac645	0.97958785
41	0x3f74765b	0.95493096
42	0x3f70ba66	0.9403442
43	0x3f81d479	1.0142967
44	0x3f86452e	1.0489862
45	0x3f7f9f16	0.9985212
46	0x3f77fb1c	0.9686754
47	0x3f7c8a46	0.9864849
48	0x3f7fc700	0.99913025
49	0x3f81c079	1.0136863
50	0x3f84a0b3	1.0361542
51	0x3f7f0c28	0.99627924
52	0x3f8269f9	1.018859
53	0x3f7b3867	0.9813294
54	0x3f8ec97d	1.1155239
55	0x3f82f3eb	1.0230688
56	0x3f81f5fa	1.0153191
57	0x3f82f95f	1.0232352
58	0x3f813ef3	1.0097336
59	0x3f808805	1.004151
60	0x3f854598	1.0411863
61	0x3f7e27d9	0.9927955
62	0x3f7586ca	0.95908797
63	0x3f82da33	1.0222839
64	0x3f77cca4	0.9679663
65	0x3f7bc6ac	0.98350024
66	0x3f79e597	0.9761595
67	0x3f7b991d	0.9828051
68	0x3f84a193	1.0361809
69	0x3f8336a2	1.0251048
70	0x3f7ecaab	0.99527997
71	0x3f86d779	1.0534507
72	0x3f7c1fb5	0.9848588
73	0x3f7d4033	0.98926085
74	0x3f7b24ec	0.98103213
75	0x3f77fd49	0.9687086
76	0x3f7a300b	0.9772956
77	0x3f801969	1.0007755
78	0x3f7a61d0	0.978055
79	0x3f82015a	1.0156662
80	0x3f80fabd	1.0076519
81	0x3f79bc73	0.97553176
82	0x3f87cc9a	1.0609314
83	0x3f7a38ea	0.97743094
84	0x3f78c903	0.9718172
85	0x3f81d0a9	1.0141803
86	0x3f7c30af	0.98511785
87	0x3f7a4fc9	0.9777799
88	0x3f8083fa	1.0040276
89	0x3f810a55	1.0081278
90	0x3f7e2ffc	0.9929197
91	0x3f800772	1.0002272
92	0x3f7b0cd1	0.9806643
93	0x3f763881	0.9617997
94	0x3f7b159b	0.9807984
95	0x3f800ed9	1.0004531
96	0x3f837b56	1.0272014
97	0x3f7bfb88	0.9843068
98	0x3f84cffb	1.0375971
99	0x3f8526d2	1.0402472
100	0x3f764d61	0.9621182
101	0x3f788352	0.9707538
102	0x3f790ecd	0.9728821
103	0x3f7b7487	0.9822468
104	0x3f81ebdd	1.0150105
105	0x3f79ec96	0.97626626
106	0x3f8269c5	1.0188528
107	0x3f7f6313	0.9976055
108	0x3f7d4719	0.9893661
109	0x3f7d85bb	0.9903218
110	0x3f7696a5	0.96323615
111	0x3f796f8a	0.9743582
112	0x3f81aba2	1.0130503
113	0x3f79c51f	0.9756641
114	0x3f8080a1	1.0039254
115	0x3f7820f8	0.96925306
116	0x3f7df4bc	0.9920156
117	0x3f791d61	0.97310454
118	0x3f810eee	1.0082681
119	0x3f7b4965	0.98158866
120	0x3f79bf67	0.9755768
121	0x3f7a984e	0.9788865
122	0x3f7db75e	0.9910792
123	0x3f7a26ba	0.9771534
124	0x3f84f90d	1.0388504
125	0x3f86b0ac	1.0522666
126	0x3f7b0ef9	0.9806972
127	0x3f787db9	0.9706684
128	0x3f832eea	1.0248692
129	0x3f786b2b	0.97038525
130	0x3f7aa04b	0.9790084
131	0x3f804811	1.0021993
132	0x3f800372	1.0001051
133	0x3f852e36	1.0404727
134	0x3f7b0d52	0.980672
135	0x3f8ef152	1.1167395
136	0x3f7c8041	0.986332
137	0x3f82f9b0	1.0232449
138	0x3f82e395	1.0225703
139	0x3f7c66a8	0.9859414
140	0x3f7caf1f	0.98704714
141	0x3f7e254a	0.9927565
142	0x3f844e0a	1.0336316
143	0x3f7eea5a	0.9957634
144	0x3f7ed8f3	0.9954979
145	0x3f817fc8	1.0117121
146	0x3f7f7265	0.9978393
147	0x3f7e7d79	0.99410206
148	0x3f80f3c2	1.0074389
149	0x3f7c8026	0.9863304
150	0x3f73b35c	0.95195556
151	0x3f7b43d8	0.98150396
152	0x3f7af241	0.980259
153	0x3f80b00a	1.0053723
154	0x3f81018c	1.0078597
155	0x3f7a8ced	0.97871286
156	0x3f7a790e	0.97840965
157	0x3f7cef77	0.98802894
158	0x3f855eb5	1.0419527
159	0x3f7adbd1	0.97991663
160	0x3f7ff96c	0.9998996
161	0x3f855a0e	1.0418108
162	0x3f7417c8	0.9534879
163	0x3f787d1d	0.9706591
164	0x3f81699a	1.0110352
165	0x3f80dc1a	1.006717
166	0x3f7dea15	0.99185306
167	0x3f801a4a	1.0008023
168	0x3f843f37	1.0331792
169	0x3f78c253	0.97171515
170	0x3f80ec66	1.0072143
171	0x3f763e4d	0.96188813
172	0x3f7fc2ce	0.99906623
173	0x3f74e812	0.9566661
174	0x3f7e1c30	0.9926176
175	0x3f81c37e	1.0137784
176	0x3f77f694	0.96860623
177	0x3f7275bc	0.947109
178	0x3f7d3cf8	0.98921156
179	0x3f801780	1.0007172
180	0x3f79e20d	0.9761055
181	0x3f7edb1f	0.995531
182	0x3f8132f5	1.0093676
183	0x3f89e902	1.0774233
184	0x3f85b830	1.0446835
185	0x3f8acefd	1.0844418
186	0x3f7c17fc	0.984741
187	0x3f7ce5ca	0.9878813
188	0x3f8365a6	1.0265396
189	0x3f7c64e1	0.9859143
190	0x3f839d0e	1.0282304
191	0x3f89069e	1.0705144
192	0x3f71a86d	0.9439762
193	0x3f7dc1df	0.9912395
194	0x3f7ac859	0.97961956
195	0x3f8709d8	1.0549879
196	0x3f8a610b	1.0810865
197	0x3f7db57e	0.9910506
198	0x3f79e56d	0.976157
199	0x3f798401	0.97467047
200	0x3f865fc4	1.0497975
201	0x3f74bd0c	0.9560096
202	0x3f800436	1.0001285
203	0x3f80a51b	1.0050386
204	0x3f8312a9	1.024007
205	0x3f7c0823	0.98449916
206	0x3f7cbbe9	0.9872423
207	0x3f7d64f1	0.9898215
208	0x3f8146f1	1.0099775
209	0x3f860ca0	1.0472603
210	0x3f704ece	0.93870246
211	0x3f7ca716	0.9869245
212	0x3f80fc5b	1.0077013
213	0x3f81a4e7	1.0128449
214	0x3f80db2e	1.0066888
215	0x3f828a0b	1.0198377
216	0x3f81b0ca	1.0132077
217	0x3f7587d7	0.959104
218	0x3f79a7df	0.97521776
219	0x3f76b998	0.96376944
220	0x3f7fa1ab	0.9985606
221	0x3f7b5b59	0.9818626
222	0x3f79d1d7	0.97585815
223	0x3f7b12f2	0.98075783
224	0x3f752957	0.95766205
225	0x3f7b7e89	0.9823995
226	0x3f86ab6a	1.0521061
227	0x3f80cb4e	1.0062044
228	0x3f754e9f	0.9582309
229	0x3f789248	0.9709821
230	0x3f7db39a	0.99102175
231	0x3f730d79	0.9494243
232	0x3f76d29b	0.9641511
233	0x3f798955	0.9747518
234	0x3f7ef026	0.9958519
235	0x3f818e00	1.012146
236	0x3f86669a	1.0500062
237	0x3f842a2b	1.0325369
238	0x3f73bdcb	0.95211476
239	0x3f84dc00	1.0379639
240	0x3f8aeac8	1.08529
241	0x3f7ac8e4	0.97962785
242	0x3f77100e	0.9650887
243	0x3f81e010	1.0146503
244	0x3f7ff0ae	0.99976623
245	0x3f7667a4	0.96251893
246	0x3f7843bb	0.9697835
247	0x3f80f5e5	1.0075041
248	0x3f7bdddf	0.98385423
249	0x3f772b93	0.96550864
250	0x3f811440	1.0084305
251	0x3f769ec7	0.96336025
252	0x3f87b983	1.0603489
253	0x3f8243f0	1.0176983
254	0x3f80e346	1.0069358
255	0x3f800e72	1.0004408

layers.0.1.bias f4 [256]
0	0xbc98312d	-0.018578136
1	0xbc50ef6b	-0.012752394
2	0xbd2f5b15	-0.042811472
3	0x3c0ff9d8	0.008787595
4	0x3d86f15e	0.06589006
5	0xbca48de3	-0.020087188
6	0x3c4173d7	0.0118074035
7	0xbc5f7a00	-0.013639927
8	0xbcdfc60d	-0.027316118
9	0xbcd346ed	-0.025790656
10	0xbbd19b06	-0.006396654
11	0x3b1ff163	0.0024405352
12	0x3ba072d9	0.0048965034
13	0xbd911007	-0.07083135
14	0xbb5c26cd	-0.0033592463
15	0x3d0061ac	0.031343147
16	0x3d0ef5fb	0.034902554
17	0x3d32ac32	0.04362125
18	0x3e1e2250	0.15442777
19	0x3c911635	0.017710784
20	0xbd3e4543	-0.046452772
21	0xbc19e0c6	-0.009391969
22	0x3a545be3	0.00081008504
23	0xbbd05996	-0.0063583357
24	0x3c514fb7	0.012775353
25	0x3be77252	0.0070631886
26	0x3dc0790b	0.09398087
27	0x3d305986	0.043054126
28	0xbcadfecc	-0.02123966
29	0x3d07c315	0.03314503
30	0x3bb0c5e1	0.0053946828
31	0xbbaf79d5	-0.0053550997
32	0xbc5dda4c	-0.013540816
33	0x3c7fbeff	0.015609502
34	0xbca8e02e	-0.02061471
35	0xbba57f1b	-0.0050505525
36	0xbce50ab0	-0.027959198
37	0xbd2d24b4	-0.04227133
38	0x3dacd736	0.08439486
39	0xbcb87388	-0.022516027
40	0xbc6dd4b8	-0.014516048
41	0xbca0847a	-0.01959442
42	0xbc03e7ae	-0.008050842
43	0x3c8908b5	0.016727785
44	0x3cbbdd6f	0.022932736
45	0xbc418a65	-0.011812781
46	0x3c008007	0.007843024
47	0xbd4d4694	-0.050116137
48	0x3c0b9d59	0.008521401
49	0xbbb2e5ed	-0.005459538
50	0xbcb61db7	-0.022230966
51	0x3c006e9c	0.007838871
52	0xbcf3d32d	-0.029763782
53	0xbcc12866	-0.023578834
54	0x3d8bb4b4	0.06821576
55	0x3caf0a20	0.021367133
56	0x3d186110	0.03720194
57	0x3be3062a	0.006928225
58	0x3d891446	0.0669332
59	0x3d3e2b80	0.046428204
60	0x3d34b2e4	0.044115916
61	0xbc980536	-0.018557172
62	0xbcef0b84	-0.029180296
63	0x3b97209c	0.0046120416
64	0xbcdf3185	-0.027245292
65	0xbc8862ca	-0.016648669
66	0x3c0ec875	0.008714785
67	0xbca34924	-0.019932337
68	0x3d4859ce	0.04891377
69	0x3bdb094d	0.0066844583
70	0x3bd23f64	0.006416248
71	0x3d9a09fc	0.075214356
72	0xbb94e535	-0.004543925
73	0xbb045f56	-0.0020198426
74	0xbd001f15	-0.031279642
75	0x3c6ad460	0.014332861
76	0xbbdf77bb	-0.006819693
77	0xbbd53be5	-0.006507384
78	0x3ae8ed2d	0.0017770879
79	0x3cc9a4e1	0.024614753
80	0x3d82c222	0.06384684
81	0x3bfeda3c	0.0077774804
82	0x3d3cef33	0.046126556
83	0xbc7e4b8d	-0.015520942
84	0x3c3f560d	0.011678231
85	0xbb8d5db1	-0.0043141474
86	0xbc35f325	-0.011105333
87	0xbb949617	-0.0045344937
88	0x3bea4245	0.007149013
89	0x3d26b04a	0.040695466
90	0x3d048f35	0.032363135
91	0x3c739812	0.014867799
92	0xbb9b9c43	-0.0047488525
93	0xbc958afc	-0.01825475
94	0xbad1ec52	-0.0016015864
95	0xbcd084e0	-0.025453985
96	0x3d875140	0.06607294
97	0xba51fb81	-0.0008010194
98	0x3c728d4e	0.0148041975
99	0xbbe47c65	-0.006972837
100	0xbbbad5cc	-0.005701756
101	0xbcbd0747	-0.02307476
102	0xbca21c14	-0.01978878
103	0xbc77b6e2	-0.015119286
104	0xbb851c72	-0.004062229
105	0xbc583230	-0.013195559
106	0xbb98a924	-0.004658835
107	0xbba82a62	-0.0051320055
108	0xbc84628b	-0.01616027
109	0x3d116189	0.035493407
110	0x3c8f972a	0.017528135
111	0xbb380bd7	-0.002808323
112	0x3c32e270	0.010918245
113	0x3cd880f7	0.026428683
114	0x3d44c699	0.04804096
115	0xbcd90b12	-0.026494537
116	0xbc71e558	-0.0147641525
117	0xbbb3b868	-0.0054846294
118	0xb9caa210	-0.00038649188
119	0xbc4185a5	-0.0118116485
120	0x3c8f359c	0.017481618
121	0xbc777054	-0.015102465
122	0x3c764d88	0.015033133
123	0x3c0acb04	0.008471254
124	0x3bf61cce	0.007510758
125	0x3cd95e86	0.02653433
126	0x3a5087d0	0.0007954808
127	0xbcf1e5bc	-0.029528491
128	0x3b934210	0.0044939592
129	0xbccc78a9	-0.024959879
130	0xbc278e3e	-0.010226784
131	0x3c500d8d	0.012698543
132	0x3c8c615f	0.017136274
133	0x3cbcfed5	0.023070732
134	0x39da3d24	0.00041625754
135	0x3de0fd78	0.10985845
136	0x3d11f12e	0.035630397
137	0x3d066357	0.03280958
138	0xbc359a46	-0.011084145
139	0xbc7831d9	-0.015148603
140	0xbc5b22fd	-0.013375041
141	0x3cb21d76	0.021742564
142	0x3c510b64	0.012759063
143	0x3bc945fe	0.006142377
144	0xbc8c7475	-0.017145375
145	0xb8a2828e	-7.74908e-05
146	0xbac39d9d	-0.0014924292
147	0xbbe735dc	-0.007055981
148	0x3d378eac	0.044813797
149	0xbc77932f	-0.015110775
150	0xbd4be82f	-0.049781974
151	0xbc257b62	-0.010100218
152	0xbd6019b7	-0.054712024
153	0xbcaa1c75	-0.020765522
154	0x3cb016d6	0.021495264
155	0x3b569f0a	0.0032748603
156	0xbd2b61f0	-0.041841447
157	0xbd15de44	-0.036588922
158	0x3decf2da	0.11569758
159	0x3c9b51b2	0.018959854
160	0xba6b9127	-0.0008986168
161	0x3d9b06d0	0.07569659
162	0xbbcce2da	-0.0062526288
163	0xbcc248d5	-0.02371637
164	0x3d538a48	0.051645547
165	0xbc23c828	-0.009996451
166	0xbabb2984	-0.001427934
167	0x3b83efee	0.0040264046
168	0x3d13a071	0.03604168
169	0xbc8f05ba	-0.017458785
170	0x3bc78ada	0.0060895504
171	0xbd5dc87f	-0.054146286
172	0x3ab700ab	0.0013961991
173	0xbd48ab67	-0.048991587
174	0xbcab82df	-0.020936428
175	0xbba916f1	-0.0051602055
176	0xbc670f02	-0.014102699
177	0xbd13ec9d	-0.036114324
178	0x3bdbe283	0.006710352
179	0x3d2528fa	0.04032228
180	0xbc0c5bb7	-0.008566788
181	0xbd093c00	-0.033504486
182	0x3ceaf384	0.02868057
183	0x3da20b09	0.07912261
184	0x3ce86809	0.02836992
185	0x3c370860	0.01117143
186	0x3c6b2177	0.01435124
187	0x3d0c7721	0.034293298
188	0x3c85fef6	0.016356926
189	0xbc3581b2	-0.011078285
190	0x3d992d07	0.074792914
191	0x3cfdd5f6	0.030985814
192	0xbbc97d64	-0.006148981
193	0x3c5e5c41	0.0135718
194	0xbc38e694	-0.011285443
195	0x3c837765	0.016048143
196	0x3db57f6c	0.088621944
197	0xbc835b15	-0.016034642
198	0xbc793569	-0.015210488
199	0xbb9dca21	-0.0048153554
200	0xbd071015	-0.03297432
201	0xbcb93fb9	-0.022613393
202	0xbc333d88	-0.010939963
203	0x3c94bf78	0.018157706
204	0x3b09b0a2	0.0021009822
205	0xbcd24f28	-0.02567251
206	0x3d8acc5e	0.06777261
207	0xbc99faa1	-0.018796267
208	0x3cad3c52	0.021146927
209	0x3c21b96b	0.009870867
210	0xbd730f64	-0.05934085
211	0x3c76bb5a	0.0150593165
212	0xbc148a1c	-0.009066131
213	0x3cd20f1c	0.02564197
214	0xbd1ce6d4	-0.038306072
215	0x3c02cd49	0.007983514
216	0x3d1a5e18	0.03768739
217	0xbc546921	-0.012964518
218	0xbb46893f	-0.0030294207
219	0xbceaf22b	-0.028679928
220	0xbbdd2787	-0.006749097
221	0x3c70d7d0	0.014699891
222	0x3bd5ac0c	0.0065207537
223	0xbbe5c76c	-0.0070122983
224	0xbd3b52f0	-0.045733392
225	0xbc506657	-0.012719712
226	0x3d950aff	0.07277488
227	0x3bd5e9a0	0.0065280944
228	0xbd06975d	-0.032859195
229	0xbcfd69f5	-0.030934313
230	0xbba630ab	-0.0050717196
231	0xbc8ff90e	-0.017574813
232	0xbcc3f862	-0.02392215
233	0x3bf91578	0.007601436
234	0x3cda67c6	0.026660811
235	0x3d016a5b	0.03159557
236	0x3c253b92	0.010085003
237	0x3d508c6d	0.05091517
238	0xbb9e66d1	-0.004834034
239	0x3d421381	0.04738188
240	0x3da55709	0.08073241
241	0xbd03c0e6	-0.032166384
242	0xbc4363e7	-0.011925674
243	0x3cb0c6ec	0.021579228
244	0xbbdbaaea	-0.006703724
245	0xbc1fe908	-0.009760149
246	0xbce4f1dd	-0.02794736
247	0xb92fdb70	-0.00016771047
248	0xbc24af02	-0.010051491
249	0xbcccf9f6	-0.025021534
250	0xbbf54158	-0.007484596
251	0xbc5b94c6	-0.01340217
252	0x3df1887a	0.11793609
253	0x3ce040c5	0.027374635
254	0x3d41d697	0.04732379
255	0xbc86231c	-0.016374163

layers.1.0.weight f4 [128, 256]
0	0x3d75a33b	0.05997012
1	0xbc937067	-0.017997934
2	0xbdf42c87	-0.119225554
3	0x3d07143e	0.03297829
4	0xbe0ebd54	-0.1393941
5	0x3d5f901c	0.054580793
6	0x3d505673	0.050863694
7	0x3e30124c	0.1719448
8	0xbd938b08	-0.072042525
9	0xbc7ce934	-0.015436459
10	0xbd8aaf04	-0.06771663
11	0x3d9fdee9	0.078061886
12	0x3c3a2de7	0.011363483
13	0x3d921556	0.07132976
14	0x3b84fa1f	0.004058137
15	0xbda09f5a	-0.07842894
16	0x3e2546fe	0.16140363
17	0xbd631dd0	-0.055448353
18	0x3e8c2034	0.2736832
19	0x3c9d250e	0.019182708
20	0xbc8dcc5b	-0.017309358
21	0xbc73a4b3	-0.01487081
22	0x3d333dc3	0.043760072
23	0x3dc1e146	0.094667956
24	0x3d8e0d0e	0.06936084
25	0xbd2439a6	-0.04009404
26	0xbdafbcb2	-0.08580913
27	0x3df5c740	0.120008945
28	0x3de2d063	0.11074903
29	0xbb60aa34	-0.0034281136
30	0xbcbc09b9	-0.022953855
31	0x3d4efa10	0.050531447
32	0xba8c4ed8	-0.001070465
33	0x3ca1bf0f	0.019744424
34	0x3e107648	0.1410762
35	0x3d4dbf0e	0.050231032
36	0xbca277af	-0.01983246
37	0xbe39cd89	-0.18144812
38	0x3d94358a	0.07236774
39	0xbb1a85c1	-0.0023578259
40	0x3e14b3e6	0.14521751
41	0xbddd720c	-0.10812768
42	0xbcf58f6e	-0.02997562
43	0xbcd2bf55	-0.025726
44	0x3dd1a6da	0.102369025
45	0x3d249e3f	0.040189978
46	0x3d25246b	0.040317934
47	0xbda0b7f4	-0.07847586
48	0x3e076115	0.13220628
49	0xbe35476f	-0.17703031
50	0x3e1369be	0.14395806
51	0x3d849313	0.06473365
52	0x3d28119d	0.041032422
53	0xbdb09482	-0.086220756
54	0xbd8ed09a	-0.06973381
55	0xbc8ecb75	-0.017431
56	0xbca45b25	-0.020062992
57	0x3d948967	0.0725277
58	0xbc6308d5	-0.013857086
59	0xbc3cc6d0	-0.01152201
60	0xbdb78609	-0.08961112
61	0x3d8e7ec7	0.069577746
62	0xbe020976	-0.12698922
63	0x3e31b2e3	0.17353396
64	0xbd844fdb	-0.06460544
65	0x3d5c8db4	0.053846076
66	0xbda1a7a1	-0.07893301
67	0x3df40cdb	0.119165145
68	0x3e0ef2fb	0.13959877
69	0xbc825534	-0.015909769
70	0x3c36a27c	0.011147138
71	0xbdd5e5b1	-0.10444201
72	0x3d06c15f	0.032899257
73	0xbdc80cd7	-0.09768074
74	0x3db98e95	0.090603985
75	0xbd79f1f9	-0.06102178
76	0xbe345535	-0.17610629
77	0x3d8d208f	0.06890976
78	0xbd35c2fe	-0.044375412
79	0x3dd6c884	0.10487464
80	0xbd3d547e	-0.046223156
81	0x3deb7f72	0.11498918
82	0xbd097f56	-0.033568703
83	0x3e0eb2fc	0.13935465
84	0x3c4ddcc9	0.012564846
85	0x3e09204b	0.13391225
86	0x3b21fc39	0.0024716987
87	0xbc6c5da9	-0.014426627
88	0x3dcd133f	0.100134365
89	0xbdcd2563	-0.100168966
90	0x3b006afc	0.0019595018
91	0xbd3147d4	-0.04328139
92	0x3ded6b53	0.11592736
93	0xbc8c93cd	-0.01716032
94	0xbb2c563a	-0.0026296512
95	0xbc582fdc	-0.013195004
96	0xbdf3f495	-0.11911885
97	0xbd915538	-0.07096332
98	0xbd971780	-0.07377529
99	0x3def6454	0.11689058
100	0x3e379b28	0.17930281
101	0x3e009b53	0.12559251
102	0x3bdf632b	0.0068172417
103	0x3d724046	0.059143327
104	0x3dd458b2	0.1036848
105	0x3ddf1377	0.108923845
106	0x3cfa5c80	0.030561686
107	0x3e05c5cc	0.13063735
108	0x3ceb6c43	0.028738147
109	0x3d82515a	0.06363173
110	0xbd87b021	-0.06625391
111	0xbb4df363	-0.0031425587
112	0xbdf970c6	-0.12179713
113	0xbdc3ffbb	-0.09570261
114	0xb945b9ec	-0.00018856645
115	0x3dedcab6	0.1161093
116	0x3c430ea3	0.011905345
117	0x3e0e5756	0.13900504
118	0xbdc88f93	-0.097930096
119	0x3ce30ec3	0.027717
120	0x3dfdc9c1	0.12391997
121	0xbd8a7246	-0.06760077
122	0xbdd759a4	-0.105151445
123	0xbd0c5060	-0.03425634
124	0x3cb0ef2b	0.02159842
125	0xbaa5b16d	-0.0012641378
126	0x3d0c2545	0.03421523
127	0x3afb5d6b	0.0019177621
128	0xbc3c55b6	-0.011495044
129	0xbda22c51	-0.07918609
130	0xbd85b724	-0.06529072
131	0xbc34c6b3	-0.011033702
132	0xbd9486c2	-0.072522655
133	0x3d3f120b	0.046648066
134	0xb76e2bec	-1.4196132e-05
135	0xbcdb564a	-0.026774544
136	0xbd9ed2fc	-0.07755086
137	0xbdadbfae	-0.084838256
138	0xbdd93711	-0.10606206
139	0x3d18335d	0.03715836
140	0xbc88dfc0	-0.016708255
141	0xbe046360	-0.12928534
142	0x3c433066	0.011913395
143	0x3c618a30	0.013765857
144	0xbd3c2bc7	-0.045940187
145	0x3d341afd	0.04397105
146	0xbdd07c23	-0.10179927
147	0xbdec26d8	-0.11530846
148	0xbd65abc5	-0.056072015
149	0x3c9e43d4	0.019319452
150	0x3de84dfc	0.11342999
151	0xbe1bf3d5	-0.15229733
152	0xbde2a118	-0.110658824
153	0xbd6ca94b	-0.057778638
154	0xbe96a27f	-0.2942085
155	0x3d33db6c	0.04391043
156	0xbe0a8f61	-0.13531257
157	0x3df791c9	0.12088353
158	0x3e08c7ec	0.13357514
159	0x3d3eb2b5	0.046557147
160	0xbd23dd67	-0.040006068
161	0x3dfa5254	0.12222734
162	0xbdcc0a73	-0.099629305
163	0xbe1f4435	-0.15553363
164	0x3de09cd9	0.10967416
165	0x3ddbec5e	0.10738443
166	0x3e07bf4c	0.13256568
167	0x3dfee018	0.12445086
168	0x3d4d5152	0.05012638
169	0x3d04b95b	0.03240333
170	0xbd97b41a	-0.074073985
171	0xbdf54533	-0.11976089
172	0xbde8f6d3	-0.11375203
173	0x3d0d2d6c	0.034467146
174	0xbe1b0cdc	-0.15141624
175	0x3bc982f9	0.0061496464
176	0xbdaa65eb	-0.083202206
177	0xbdad9eaf	-0.08477532
178	0xbdde3da0	-0.10851598
179	0x3c06dfab	0.008232038
180	0x3e2065ff	0.15663908
181	0x3d412e17	0.047163095
182	0xbbea195e	-0.0071441373
183	0xbd8bee0c	-0.06832513
184	0xbe4f2c15	-0.2023166
185	0x3df2e26b	0.11859592
186	0x3d17bb7a	0.037044026
187	0x3dd61189	0.10452563
188	0x3d83fda3	0.06444862
189	0xbd719c91	-0.058987204
190	0xbe061c37	-0.130967
191	0x3c7334ea	0.014844159
192	0xbe149954	-0.14511615
193	0xbdfc82a3	-0.123296045
194	0xbd945f06	-0.07244687
195	0xbd9b7120	-0.07589936
196	0x3d0e0bfb	0.034679394
197	0x3d7c888b	0.061653655
198	0x3bfd2812	0.007725724
199	0x3e371015	0.17877229
200	0xbe143118	-0.14471853
201	0xbde6ed6c	-0.112757534
202	0xbe8c05b9	-0.27348116
203	0xbdc8d508	-0.098062575
204	0x3db6ad0e	0.08919726
205	0x3e2093fd	0.15681453
206	0xbd990f8c	-0.074736685
207	0x3dd6570c	0.104658216
208	0xbd339818	-0.04384622
209	0xbdad78ee	-0.08470331
210	0x3d6e487b	0.05817459
211	0x3db790b0	0.08963144
212	0x3d4939fb	0.04912756
213	0x3dc9d53f	0.098551266
214	0xbdaabdfe	-0.083370194
215	0xbb19362d	-0.0023378239
216	0xbd9eb21d	-0.07748816
217	0xbc666422	-0.014061959
218	0xbcd4d7b4	-0.025981762
219	0xbd4ec85c	-0.050484046
220	0xbd1839a8	-0.03716436
221	0x3ccafd7e	0.024779078
222	0xbe3dc0b6	-0.18530545
223	0xbe3eea94	-0.18644172
224	0x3db44cd8	0.08803719
225	0x3d0b85a7	0.034063008
226	0xbd51042a	-0.05102936
227	0x3cf65b1e	0.030072745
228	0xbd9787e6	-0.073989674
229	0xbd326b5f	-0.04355943
230	0xbe0acb2a	-0.13554063
231	0xbd062fed	-0.03276055
232	0xbe00067c	-0.12502474
233	0xbd9baf0f	-0.07601749
234	0x3dc99a93	0.09843936
235	0xbd6140ea	-0.054993547
236	0x3dacfb73	0.08446398
237	0x3d8e0cae	0.06936012
238	0x3e25d961	0.16196205
239	0x3d34e6c2	0.04416538
240	0xbbab70ec	-0.005231967
241	0x3da89e87	0.08233362
242	0xbc8c2b50	-0.017110497
243	0xbd9ff177	-0.07809728
244	0x3a043a0a	0.0005044049
245	0xbd50359a	-0.05083237
246	0x3e1a0de8	0.15044367
247	0xbe357abd	-0.17722602
248	0xbb014d88	-0.001973005
249	0x3d3e1fa5	0.046416897
250	0x3da11eb8	0.07867187
251	0xbd9625a5	-0.07331399
252	0x3d83fad5	0.06444327
253	0x3dffdd84	0.124934226
254	0xbcd07930	-0.025448412
255	0x3de2301d	0.11044333

layers.1.1.weight f4 [128]
0	0x3f82c8f5	1.0217577
1	0x3f8138d3	1.0095466
2	0x3f7fa344	0.998585
3	0x3f762f29	0.9616571
4	0x3f805fef	1.0029277
5	0x3f830fd0	1.02392
6	0x3f815e1d	1.0106846
7	0x3f764ed6	0.96214044
8	0x3f85e0d9	1.0459243
9	0x3f70cd97	0.94063705
10	0x3f7dd513	0.9915325
11	0x3f7ae0bd	0.97999173
12	0x3f7af2dd	0.9802683
13	0x3f83b28a	1.0288861
14	0x3f7b7a41	0.9823342
15	0x3f7b60be	0.9819449
16	0x3f7cde54	0.98776746
17	0x3f826f1b	1.0190157
18	0x3f7c8dd5	0.9865392
19	0x3f78ddec	0.97213626
20	0x3f82d8c2	1.0222399
21	0x3f7d9448	0.99054384
22	0x3f80977a	1.0046227
23	0x3f7ee14a	0.99562514
24	0x3f7cbe2f	0.987277
25	0x3f80759c	1.0035892
26	0x3f7dd94d	0.991597
27	0x3f80def3	1.0068039
28	0x3f85aac7	1.0442742
29	0x3f8133dc	1.0093951
30	0x3f7f65e6	0.9976486
31	0x3f6cadad	0.9245251
32	0x3f80fb00	1.0076599
33	0x3f802169	1.0010196
34	0x3f809f73	1.004866
35	0x3f80ba58	1.0056868
36	0x3f808f67	1.0043763
37	0x3f7a8112	0.97853196
38	0x3f81a7d0	1.0129337
39	0x3f77b3c1	0.9675866
40	0x3f7e155f	0.9925136
41	0x3f8156da	1.010463
42	0x3f7fc849	0.99914986
43	0x3f870659	1.0548812
44	0x3f7e2df8	0.9928889
45	0x3f7cefba	0.98803294
46	0x3f80d8b4	1.0066133
47	0x3f7b68a4	0.98206544
48	0x3f809e70	1.0048351
49	0x3f75cc82	0.9601518
50	0x3f881738	1.0632086
51	0x3f76deff	0.96434015
52	0x3f792d85	0.9733508
53	0x3f7c0a1c	0.98452926
54	0x3f81dc55	1.0145365
55	0x3f816519	1.0108978
56	0x3f819ab2	1.0125334
57	0x3f7a1f0c	0.97703624
58	0x3f7cb692	0.9871608
59	0x3f842722	1.0324442
60	0x3f7b340e	0.98126304
61	0x3f7b33d6	0.9812597
62	0x3f7bb7e9	0.983275
63	0x3f77e09b	0.96827096
64	0x3f80a58a	1.0050519
65	0x3f7b0163	0.9804899
66	0x3f78e696	0.97226846
67	0x3f7caea6	0.9870399
68	0x3f7fb437	0.9988436
69	0x3f821c63	1.0164913
70	0x3f81638b	1.0108503
71	0x3f7b6878	0.9820628
72	0x3f791ba1	0.97307783
73	0x3f7db62d	0.99106103
74	0x3f808e90	1.0043507
75	0x3f7fd208	0.9992986
76	0x3f79ca7a	0.9757458
77	0x3f7c5661	0.98569304
78	0x3f75de3b	0.9604222
79	0x3f7d8af1	0.9904013
80	0x3f74577c	0.9544599
81	0x3f76988b	0.9632651
82	0x3f8108a1	1.0080758
83	0x3f797039	0.97436863
84	0x3f78725c	0.970495
85	0x3f7678d6	0.9627813
86	0x3f76d46e	0.9641789
87	0x3f86a530	1.0519161
88	0x3f80d238	1.0064154
89	0x3f87eff4	1.0620103
90	0x3f7e564d	0.99350435
91	0x3f84d6ac	1.0378013
92	0x3f7e3053	0.99292487
93	0x3f787034	0.9704621
94	0x3f7b8a47	0.9825787
95	0x3f76a79a	0.9634949
96	0x3f7d572a	0.98961127
97	0x3f7cec72	0.98798287
98	0x3f7cdf18	0.98777914
99	0x3f821424	1.0162396
100	0x3f8581da	1.0430253
101	0x3f7fbec0	0.99900436
102	0x3f7c97fe	0.9866942
103	0x3f7e8c47	0.99432796
104	0x3f80553a	1.0026009
105	0x3f72508a	0.9465414
106	0x3f8361e9	1.0264255
107	0x3f763478	0.9617381
108	0x3f8458df	1.0339621
109	0x3f81655e	1.010906
110	0x3f793791	0.9735041
111	0x3f847c84	1.0350499
112	0x3f82de11	1.0224019
113	0x3f84b428	1.0367479
114	0x3f7fec3c	0.9996984
115	0x3f7d6b44	0.989918
116	0x3f85400e	1.0410173
117	0x3f833ef8	1.0253592
118	0x3f779a8a	0.9672018
119	0x3f7d3517	0.98909134
120	0x3f7b0762	0.9805814
121	0x3f8110fe	1.0083311
122	0x3f7c7ede	0.98631084
123	0x3f7f383b	0.99695176
124	0x3f7cd5c1	0.9876366
125	0x3f826665	1.0187498
126	0x3f798362	0.974661
127	0x3f853408	1.0406504

layers.1.1.bias f4 [128]
0	0x3c2bf574	0.010495532
1	0xbb9ee0ef	-0.0048485915
2	0x3c999a18	0.018750235
3	0xbcf66e6d	-0.030081952
4	0xbcb47dd5	-0.022032658
5	0x3c0ee357	0.008721194
6	0xb7b78668	-2.1877888e-05
7	0xbc43baa9	-0.011946359
8	0xbbf12fd2	-0.007360437
9	0xbd5479e1	-0.051874045
10	0xbca06861	-0.019581022
11	0xbd1085fe	-0.035284035
12	0xbd0ef043	-0.0348971
13	0xbb46da8f	-0.0030342673
14	0x3be06c10	0.0068488196
15	0x3a8bf2d1	0.0010677223
16	0xbc5296cf	-0.012853338
17	0x3bfeeac7	0.0077794525
18	0xbc53efb0	-0.012935564
19	0xbd290a35	-0.0412695
20	0xbb6ed1c0	-0.0036440939
21	0xbd47d287	-0.04878476
22	0x3d0b6efc	0.03404139
23	0xbbde64b3	-0.0067869066
24	0x3c46e8eb	0.012140493
25	0x3bf8bd21	0.0075909053
26	0x3b21b377	0.002467362
27	0xbcf0b9c6	-0.029385459
28	0x3d12e29e	0.03586065
29	0xbce4a0b8	-0.027908668
30	0x3d1aa013	0.037750315
31	0xbd7435e4	-0.059621707
32	0x3c55df56	0.013053736
33	0xbd5e4131	-0.05426139
34	0x3c8f071f	0.01745945
35	0x3bdc793c	0.0067283195
36	0xbcd51fb7	-0.0260161
37	0x3a5fc4b8	0.0008536088
38	0xba4e9e45	-0.00078818604
39	0x3bdacf69	0.0066775572
40	0xbcb972b5	-0.022637704
41	0xbc711d76	-0.014716497
42	0x3c51f717	0.0128152585
43	0x3cb21ba8	0.021741703
44	0xbcdb81aa	-0.026795227
45	0x3d285735	0.041098792
46	0xbc0c6fea	-0.008571604
47	0xbca15290	-0.01969269
48	0x3d2f3b14	0.04278095
49	0xbcebd909	-0.028790014
50	0x3d1c6172	0.03817887
51	0xbc9f58bc	-0.019451492
52	0x3c0ed852	0.008718567
53	0xbc5d563c	-0.013509329
54	0xbd14b15b	-0.03630195
55	0x3c3089ee	0.0107750725
56	0x3be6ad12	0.0070396746
57	0x3a938700	0.0011255443
58	0xbd0be8b3	-0.034157466
59	0x3ce788d7	0.028263493
60	0xba9a7e75	-0.0011786955
61	0xbd77bcd0	-0.0604828
62	0xbc03c42c	-0.0080423765
63	0xbc9e2aaf	-0.019307462
64	0x3bf08b84	0.0073408503
65	0xbc543174	-0.012951244
66	0xbd11f3fc	-0.035633072
67	0x3ca91efe	0.020644661
68	0x3c25c5c4	0.010117952
69	0x3cda29da	0.026631285
70	0x3ccd881f	0.025089322
71	0xbc94c62a	-0.018160898
72	0xbccf95e8	-0.025340036
73	0xbc4084af	-0.011750384
74	0x3c074b4f	0.008257701
75	0xbcc4a3e2	-0.024003927
76	0xbb540001	-0.0032348635
77	0xbd283b26	-0.041072033
78	0xbd0e4d5b	-0.03474174
79	0xbc92d080	-0.017921686
80	0xbd00d272	-0.031450696
81	0xbd5d3a4c	-0.054010674
82	0xbb13ebd0	-0.0022570975
83	0x3bfc33f0	0.007696621
84	0x3b9be6d9	0.004757744
85	0xbd445399	-0.047931287
86	0x3b07d461	0.0020725953
87	0x3cd25e8a	0.025679845
88	0xbc0384d3	-0.008027273
89	0x3cd5edb4	0.026114322
90	0xbc5590e1	-0.01303503
91	0x3d8d60be	0.06903218
92	0x3b068d35	0.0020530943
93	0xbc7a67b3	-0.015283513
94	0xbb1d6f15	-0.002402251
95	0xbd1da3ce	-0.038486294
96	0xbc9573c8	-0.018243685
97	0xbbc6491d	-0.0060511963
98	0xbc5b1db2	-0.013373779
99	0xbc40b4b4	-0.011761833
100	0x3cb22d92	0.021750245
101	0xbbad40eb	-0.00528728
102	0x3c623d3c	0.013808545
103	0x3bbb39bc	0.0057136696
104	0xba62e40a	-0.0008655196
105	0xbd34892f	-0.04407614
106	0x3d079e5d	0.03311001
107	0xbcecf843	-0.028926974
108	0x3caa2c1c	0.020772986
109	0xbc294fb5	-0.010333945
110	0xbbd5bc1a	-0.0065226676
111	0x3ca6d79d	0.020366484
112	0x3c94647d	0.018114323
113	0xbc13643c	-0.008996066
114	0xbb830051	-0.0039978405
115	0xbbb1ba55	-0.005423824
116	0x3d0c32d6	0.03422817
117	0x3c393280	0.011303544
118	0xbc94468c	-0.018100046
119	0xbc771c7d	-0.015082476
120	0xbc819955	-0.015820185
121	0x38676286	5.516645e-05
122	0x3be1115e	0.0068685254
123	0xbbcac884	-0.006188454
124	0xbb058e12	-0.002037887
125	0x3c493ee5	0.012283062
126	0xbcbc4f6d	-0.022987092
127	0x3d0f3d66	0.034970663

layers.2.0.weight f4 [64, 128]
0	0x3e1ddc4d	0.1541607
1	0x3cf90e20	0.030402243
2	0xbe00feb1	-0.12597157
3	0xbc5f85a6	-0.013642704
4	0xbdf226a4	-0.11823776
5	0xbe73d3fe	-0.23811337
6	0xbe5c31ea	-0.21503416
7	0x3ce225c7	0.027605904
8	0xbe63c28f	-0.22242187
9	0x3cd3709c	0.025810532
10	0xbe552258	-0.20813882
11	0xbd405830	-0.046959102
12	0xbdae7dfe	-0.08520125
13	0x3db8a678	0.090161264
14	0x3e9b0a56	0.30281323
15	0xbdd130f2	-0.10214414
16	0x3c9b6c7e	0.018972632
17	0xbe22c596	-0.15895686
18	0x3e4c12d9	0.19929065
19	0x3d5c58f5	0.053795774
20	0x3cf95508	0.030436054
21	0xbe375508	-0.1790353
22	0xbdabd2ce	-0.08389817
23	0x3c4419e8	0.011969067
24	0x3e5eb41b	0.21748392
25	0x3d89c259	0.06726522
26	0x3cdf207e	0.027237173
27	0xbc8265e2	-0.015917722
28	0xbe8fec4f	-0.28109977
29	0xbd259f3c	-0.04043506
30	0x3df0ea64	0.117634565
31	0x3d8fd025	0.07022122
32	0xbda5771a	-0.080793574
33	0xbd815d6c	-0.06316647
34	0xbd17a365	-0.03702106
35	0x3e3a346f	0.18184064
36	0xbdc5a379	-0.096503206
37	0xbdbb5539	-0.09147114
38	0xbd0547f7	-0.032539334
39	0xbd097b1e	-0.03356468
40	0x3d60badd	0.054865707
41	0x3cb17ce9	0.021666007
42	0x3e522069	0.20520176
43	0x3cd13672	0.025538657
44	0xbbc188d8	-0.0059062056
45	0xbe518a38	-0.20462883
46	0xba8b6900	-0.0010636151
47	0x3e0a2b3b	0.13493054
48	0xbe321198	-0.17389524
49	0x3caec4df	0.02133411
50	0xbdf8fb01	-0.1215725
51	0xbe92b88f	-0.28656432
52	0x3e3a734a	0.18208042
53	0xbcaf3846	-0.021389138
54	0xbe8c8dcd	-0.27451935
55	0x3977c1b9	0.00023627923
56	0xbde79448	-0.11307579
57	0xbe2c0222	-0.16797689
58	0xbe14d40f	-0.14534019
59	0xbdb11da5	-0.08648232
60	0x3dd7d3b6	0.105384275
61	0xbd60d87b	-0.054893952
62	0x3d97f28b	0.07419308
63	0x3b6335dd	0.0034669556
64	0xbd35cd7c	-0.04438542
65	0xbe5f24de	-0.21791407
66	0xbd9bb7f8	-0.07603449
67	0x3e4d6b98	0.20060575
68	0xbe9fe752	-0.3123117
69	0xbe165515	-0.14680894
70	0x3d8b8462	0.068123594
71	0xbdd5de8f	-0.1044284
72	0x3cc20ce6	0.023687791
73	0xbe602fe9	-0.21893276
74	0x3e248d03	0.16069417
75	0x3dbf143f	0.093300335
76	0x3df69a5b	0.1204116
77	0x3d125acf	0.035731133
78	0x3d628061	0.055298213
79	0x3dc186e0	0.094495535
80	0x3da75bd5	0.081718124
81	0xbdbc06cb	-0.09180983
82	0xbe18802b	-0.14892642
83	0xbcee0936	-0.029057126
84	0xbdf35c65	-0.11882857
85	0x385f1dd8	5.3195137e-05
86	0xbbbe1324	-0.0058006216
87	0x3e1b0b98	0.15141141
88	0xbe0288e6	-0.12747535
89	0xbc859096	-0.016304296
90	0x3e66c35e	0.22535464
91	0x3d1730a8	0.036911637
92	0x3c1d4810	0.009599701
93	0xbe2a68ed	-0.16641589
94	0xbb95c584	-0.004570665
95	0xbe02fea6	-0.12792453
96	0x3ea27353	0.3172861
97	0xba62231c	-0.00086264475
98	0x3db03e0e	0.08605586
99	0xbcaad27d	-0.020852322
100	0xbe6c872e	-0.23098442
101	0xbdb8abd0	-0.09017146
102	0xbdcb184c	-0.09916744
103	0x3cfa33c5	0.030542264
104	0xbe488f07	-0.1958581
105	0xbe3a1d8c	-0.18175334
106	0xbd592a8a	-0.053019084
107	0xbe023772	-0.12716463
108	0xbb8a4127	-0.0042191925
109	0x3d2677c7	0.040641572
110	0x3d3b4eb8	0.04572937
111	0x3d890ed9	0.06692285
112	0xbe8d484b	-0.27594218
113	0xbdcee347	-0.101019435
114	0x3e942a24	0.289384
115	0x3c45cc4e	0.012072636
116	0x3eb312dd	0.3497533
117	0x3d653e36	0.055967532
118	0xbdadb14a	-0.08481081
119	0x3db7eab3	0.08980312
120	0xbe181dfe	-0.14855191
121	0x3dabb2e6	0.083837315
122	0x3e89e913	0.26935634
123	0x3cd76302	0.026292328
124	0xbd9861a9	-0.07440502
125	0xbe01c256	-0.1267179
126	0xbcd8242e	-0.02638444
127	0xbda13aea	-0.07872565
128	0xbec0e957	-0.37678024
129	0xbdfb661d	-0.12275336
130	0xbdb39463	-0.08768537
131	0xbcb24600	-0.021761894
132	0x3e2bbc08	0.16770947
133	0x3d80acd7	0.062829666
134	0x3dc8c881	0.09803868
135	0x3bf76b96	0.007550667
136	0x3e16ffed	0.14746065
137	0x3da4caa5	0.08046464
138	0xbeab09f1	-0.33406022
139	0xbe38fa98	-0.18064344
140	0xbd50027f	-0.05078363
141	0xbe2ada20	-0.1668477
142	0xbcfd73ae	-0.03093895
143	0xbe3e3b33	-0.1857727
144	0xbe11543d	-0.1419229
145	0x3d5bf0ec	0.053696558
146	0xbe3b401b	-0.18286173
147	0x3bc33d2a	0.005958219
148	0xbe2f1737	-0.170987
149	0x3d003a9f	0.031305905
150	0xbd9f939a	-0.07791825
151	0xbe84dee6	-0.25951308
152	0xbdcc8012	-0.09985365
153	0xbdb35d51	-0.08758033
154	0x3dfe399c	0.12413332
155	0x3e5abb55	0.21360524
156	0x3d0c0b7a	0.034190632
157	0x3db2e54a	0.0873514
158	0xbd418d7e	-0.047254078
159	0x3c8049c8	0.015660182
160	0xbdd7ea0c	-0.10542688
161	0x3df73864	0.120713025
162	0x3e84c9be	0.25935167
163	0x3c434261	0.011917681
164	0xbd2477c2	-0.040153272
165	0xbd994f78	-0.074858606
166	0x3bd3343e	0.0064454367
167	0x3ddc709b	0.10763665
168	0xbe67f057	-0.22650276
169	0x3d9dbd93	0.07702174
170	0xbd9d3ea5	-0.07677964
171	0xbd2686c1	-0.040655855
172	0xbd988b4b	-0.07448443
173	0x3e22b026	0.15887508
174	0x3e216175	0.15759833
175	0xbd09902f	-0.03358477
176	0x3e0c035f	0.13673161
177	0xbe2d7aa5	-0.16941316
178	0xbdbde347	-0.09271865
179	0x3dcd1e35	0.10015527
180	0x3d0ea2bf	0.034823176
181	0x3d9d9b0f	0.07695591
182	0x3d1ca87f	0.038246628
183	0xbe96bdd5	-0.29441705
184	0xbcd91340	-0.026498437
185	0x3e7eb7c3	0.24874787
186	0xbda7bcd5	-0.08190314
187	0xbd1e2726	-0.038611554
188	0xbe724b80	-0.23661613
189	0xbe1baddc	-0.15203041
190	0xbdb9046b	-0.09034046
191	0x3a94ba88	0.0011347095
192	0xbd77d0a4	-0.06050171
193	0x3d863dee	0.06554781
194	0xbc8e07a7	-0.017337633
195	0x3e7f1b26	0.249127
196	0x3d1a1b0b	0.037623446
197	0x3d22a1c2	0.039705046
198	0xbd2863a9	-0.04111067
199	0xbcb5df51	-0.022201212
200	0xbd848f15	-0.06472603
201	0xbdf74976	-0.120745584
202	0x3daaa4a9	0.08332188
203	0x3e23f4bd	0.16011329
204	0xbd67b35a	-0.056567527
205	0xbdd65e12	-0.10467161
206	0xbd99045a	-0.07471533
207	0x3de594db	0.112100326
208	0x3e31427d	0.1731052
209	0x3e3613c7	0.17780982
210	0x3d68977d	0.056785095
211	0xbe1c5f29	-0.15270676
212	0xbe54d1df	-0.20783184
213	0x3d3cc8f7	0.046090093
214	0x3e717075	0.23578055
215	0x3c9af8a1	0.018917384
216	0x3cf95f13	0.030440843
217	0x3e510a09	0.20413984
218	0x3d7b2fb4	0.06132479
219	0x3d1d6374	0.038424924
220	0xbdbec92a	-0.09315713
221	0xbcb0c460	-0.021578014
222	0x3d47ffa2	0.048827775
223	0x3dfee200	0.1244545
224	0x3e4bc0e4	0.198978
225	0x3e08a107	0.13342677
226	0xbc4ed2e4	-0.012623522
227	0x3e6d0083	0.23144726
228	0xbe20a427	-0.15687619
229	0xbe44e0f5	-0.1922644
230	0x3c8e0d87	0.017340435
231	0x3d2a39a7	0.041558888
232	0xbccdb471	-0.025110455
233	0x3cc4cbea	0.024023015
234	0xbdfa1959	-0.12211866
235	0x3db69242	0.08914615
236	0xbe3a8d7d	-0.18218036
237	0x3e18337a	0.14863387
238	0x3d79f121	0.061020974
239	0xbe0c3e34	-0.13695604
240	0xbdf203cb	-0.1181713
241	0x3d8ed514	0.06974235
242	0xbd38a4a3	-0.045078885
243	0x3d2f3099	0.042770956
244	0xbd980cc4	-0.0742431
245	0x3d879877	0.06620877
246	0x3d18bfb0	0.037292182
247	0xbd4d05be	-0.050054304
248	0x3e0e6989	0.13907446
249	0x3e39403f	0.18090914
250	0xbdf5ce18	-0.120022
251	0x3ddbfcad	0.107415535
252	0xbeb491ac	-0.3526739
253	0xbdfc9f8e	-0.1233512
254	0x3d7fb060	0.062424064
255	0xbdeb0196	-0.11474912

layers.2.1.weight f4 [64]
0	0x3f7968f7	0.9742579
1	0x3f73c354	0.9521992
2	0x3f7c84a3	0.9863989
3	0x3f884cdd	1.0648457
4	0x3f84583e	1.0339429
5	0x3f742c50	0.95380116
6	0x3f7275f1	0.94711214
7	0x3f849dac	1.0360618
8	0x3f787952	0.9706012
9	0x3f7b365f	0.9812984
10	0x3f769cc7	0.96332973
11	0x3f7aabcb	0.97918385
12	0x3f8041ea	1.0020115
13	0x3f7f9e5e	0.99851024
14	0x3f7ab51a	0.9793259
15	0x3f814692	1.0099661
16	0x3f8662c1	1.0498887
17	0x3f81d970	1.0144482
18	0x3f81a327	1.0127915
19	0x3f80c99d	1.0061527
20	0x3f776112	0.9663249
21	0x3f7e546c	0.9934757
22	0x3f77606d	0.9663151
23	0x3f861306	1.0474555
24	0x3f86e8c7	1.0539788
25	0x3f7f5772	0.99742806
26	0x3f794f11	0.9738627
27	0x3f7ac874	0.9796212
28	0x3f7e1cae	0.9926251
29	0x3f7ff4d2	0.9998294
30	0x3f7360fb	0.95069855
31	0x3f7b7866	0.9823059
32	0x3f7e9947	0.9945263
33	0x3f6efc6a	0.93353903
34	0x3f80082b	1.0002493
35	0x3f770e24	0.9650595
36	0x3f84b986	1.0369117
37	0x3f76c914	0.9640057
38	0x3f79047e	0.9727248
39	0x3f820e28	1.016057
40	0x3f79910a	0.9748694
41	0x3f80110b	1.0005201
42	0x3f7e916f	0.99440664
43	0x3f808943	1.0041889
44	0x3f7def9c	0.9919374
45	0x3f82ccdb	1.0218767
46	0x3f77d0d0	0.96803
47	0x3f75fec1	0.9609185
48	0x3f776bc2	0.966488
49	0x3f801f8d	1.0009629
50	0x3f7cd316	0.9875959
51	0x3f7da3ce	0.9907807
52	0x3f7dae51	0.9909411
53	0x3f7366d7	0.95078796
54	0x3f89fb06	1.0779731
55	0x3f760297	0.960977
56	0x3f74bf85	0.95604736
57	0x3f864b63	1.0491756
58	0x3f74b16e	0.95583236
59	0x3f76e4aa	0.96442664
60	0x3f807dde	1.0038412
61	0x3f7abf79	0.97948414
62	0x3f81914d	1.0122467
63	0x3f88e732	1.0695555

layers.2.1.bias f4 [64]
0	0xbca062b9	-0.019578325
1	0x3b47f016	0.0030508093
2	0xbc8e2889	-0.017353313
3	0x3d89539e	0.06705402
4	0xbb69ed29	-0.0035694337
5	0xbcc88f14	-0.024482287
6	0xbd1d6e5b	-0.03843532
7	0x3c256710	0.010095373
8	0xbc6d44be	-0.014481721
9	0xbc4e8d3a	-0.012606913
10	0xbc9ec265	-0.019379804
11	0xbcc3e4f3	-0.023912882
12	0x3c5118ac	0.01276223
13	0x3b221053	0.0024728968
14	0xbcc4ceb1	-0.02402434
15	0x3a58b88d	0.00082672463
16	0xbb8af8f6	-0.0042411042
17	0x3ab5c53c	0.0013867985
18	0x3ba0c680	0.0049064755
19	0x3b1443da	0.002262345
20	0xbd007653	-0.031362843
21	0xbc038cde	-0.008029191
22	0xbb1f8206	-0.0024338975
23	0x3c892d97	0.016745372
24	0x3c860afd	0.016362661
25	0x3a6826db	0.00088558876
26	0x3b727d83	0.003700108
27	0xbc887536	-0.016657453
28	0x3c3e99bf	0.011633336
29	0x3cc3e052	0.023910675
30	0xbd02ee36	-0.031965457
31	0xbc7e6e96	-0.015529295
32	0x3cae080d	0.021244073
33	0xbd08778a	-0.033317126
34	0xbc8360cb	-0.016037365
35	0xbd2a73f8	-0.041614503
36	0x3cc59eaf	0.024123518
37	0xbce234e4	-0.02761311
38	0x3bc6e190	0.0060693696
39	0x3aed9324	0.0018125516
40	0xbc356c14	-0.011073131
41	0xbcbfb665	-0.023402402
42	0xbc818024	-0.015808173
43	0x3c502adc	0.012705531
44	0xbc792fde	-0.015209166
45	0x3d15297f	0.036416527
46	0xbd0d5234	-0.034502223
47	0xbd13578d	-0.035972167
48	0xbce635a8	-0.028101757
49	0xbcbaaca9	-0.022787409
50	0xbcf51c82	-0.02992082
51	0x3cb5d82d	0.022197807
52	0xbb9d62d2	-0.00480304
53	0xbcd09f4e	-0.025466587
54	0x3cfe32e3	0.031030124
55	0xbcc2e13f	-0.023789046
56	0xbd44c5da	-0.04804025
57	0x3d0af5c0	0.03392577
58	0xbd14da33	-0.036340903
59	0xbd31e988	-0.043435603
60	0x3c1f37b5	0.009717871
61	0xbcacaaf1	-0.021077605
62	0x3c63a1ad	0.013893527
63	0x3d6ed672	0.05830998
