test/output/local3/simulatorRun/fsv_volumes_pretrained/fold_3/best.nn.pt (torch_old, 737310 bytes, 42 tensors)

layers.0.0.weight f4 [256, 66]
000000 48 9e 8a be 11 cb 01 be 8f ab fc 3d ab 0a 5d 3d
       -0.27073884 -0.1267512 0.1233741 0.053965252
000010 13 77 c0 3e 03 08 9d 3e 11 64 70 3d 16 13 c4 3d
       0.37590846 0.30670175 0.05868918 0.09573953
000020 d8 3e f8 bb ad e4 a7 3d b4 e5 7f be 1b f4 d8 bd
       -0.007575851 0.08197913 -0.24989969 -0.105934344
000030 a8 b9 c5 bd c6 b5 ee bc ec ca 05 be ff f0 4c 3e
       -0.09654552 -0.02913941 -0.1306569 0.20013808
000040 e8 e3 f8 39 19 f0 51 bd 6c 80 b1 3d 72 79 ff bd
       0.0004747205 -0.051254366 0.08667073 -0.12474336
000050 60 54 03 be 77 0f cf 3e 5a e6 54 3e 80 f4 9a bd
       -0.12825155 0.40441486 0.20790997 -0.07566166
000060 33 91 b2 be 7e 74 cf be 79 2e cf be 92 26 17 3d
       -0.34876403 -0.40518564 -0.40465143 0.036902018
000070 9f 67 53 3d c1 e0 67 be d7 de 49 bc 47 eb c4 3d
       0.051612493 -0.2264433 -0.012321196 0.09615188
000080 62 3a ce 3e 4c 2c b5 bc be 6f a3 3e cd cd d6 3d
       0.40278918 -0.022115849 0.3192119 0.10488472
000090 58 40 0f 3d d2 3c ef 3b 6b d7 a5 bb 7c c5 dd bd
       0.034973472 0.0073009515 -0.00506108 -0.10828683
0000a0 0a d6 ea 3c f8 3f a7 bd 7d d8 01 3e 1a ba c4 3e
       0.028666515 -0.08166498 0.1268024 0.38423234
0000b0 01 71 e4 3d 26 c5 b8 bd e3 13 24 be cf 6c f9 bd
       0.11154366 -0.09021978 -0.16023211 -0.12178957
0000c0 b9 f0 15 be ac a9 44 3e 1c d8 25 be f5 4e 58 be
       -0.1464261 0.1920535 -0.1619572 -0.2112387
0000d0 ca 71 1b 3d 52 ea b4 be 6c 05 56 3e 78 27 9e bd
       0.037950315 -0.35335022 0.20900506 -0.07722372
0000e0 b8 c9 48 be 61 f4 19 3e 6f 8a 8c bc 19 e5 03 3f
       -0.196082 0.1503463 -0.017155854 0.5152145
0000f0 e6 a0 30 be 8a 48 1c 3e aa 3a 89 3e 8d 1b 17 3e
       -0.17248878 0.15262046 0.2680257 0.14756604
000100 a5 06 bd be 67 9d 59 bb 6a 02 bb 3c 50 65 07 bd
       -0.36919132 -0.0033205391 0.0228283 -0.033055604
000110 e3 62 56 be 07 e5 46 3e f4 f3 4e be e5 76 18 3c
       -0.2093616 0.19423304 -0.20210248 0.00930569
000120 e5 3c 8b be 0e 55 9b bd bf bd 4a 3c b0 af f5 3d
       -0.27194896 -0.07584582 0.012374341 0.119964
000130 71 0a f5 3d 80 f4 65 3e ad e0 a8 bd ea 80 78 bd
       0.11964882 0.2245655 -0.082459785 -0.060669817
000140 c9 db 4e be 7b d6 7b bd 47 56 94 3d f0 78 80 be
       -0.20201029 -0.06148384 0.072430186 -0.25092268
000150 c0 72 02 be 7b 57 5a 3d 31 50 b6 3d 6a cb 2e 3e
       -0.12739086 0.053306084 0.08902014 0.17069784
000160 1b ec b3 be 60 1e 52 be 37 b4 77 3e 2c 89 82 bd
       -0.35141072 -0.205194 0.2418984 -0.0637382
000170 97 5a 9e bd b2 d4 9b bd c0 7f 1b be d0 9b cf 3c
       -0.077321224 -0.07608928 -0.15185452 0.025342852
000180 cb 91 38 3e 36 e1 7b be 20 43 68 3d b8 f9 e9 bd
       0.18024366 -0.2459763 0.05670464 -0.11424583
000190 87 9a 69 be 73 5a 80 3e b9 b1 20 3e 32 f1 4c bc
       -0.22812854 0.25069007 0.15692796 -0.012508677
0001a0 ce 19 2f be 32 8a ce 3d 60 52 82 be 64 65 7e 3e
       -0.17099687 0.100849524 -0.25453472 0.24843365
0001b0 68 16 9e bd 1a 11 da bd 08 1c f8 bb e1 9f 30 3d
       -0.077191174 -0.10647793 -0.007571701 0.043121222
0001c0 3f d4 f8 3d 17 85 9d bc 88 1a 3d 3b fd b5 7c bd
       0.12149858 -0.019228501 0.0028854925 -0.061696995
0001d0 05 0c 52 3d db 08 0a bd a9 dd b5 3d f2 31 57 3e
       0.051280994 -0.03369985 0.08880169 0.21015146
0001e0 50 cb ac 3d ab 12 ab 3b 63 e7 1c be 4a a4 b3 bc
       0.08437216 0.0052207313 -0.15322642 -0.021928925
0001f0 e1 7a d2 bd 2a 8f 57 be 98 96 f8 3c 85 70 94 be
       -0.102773435 -0.21050707 0.030345246 -0.28992096
000200 4a 7b e7 be d7 71 ab 3e 70 17 1b be 04 32 46 bd
       -0.4521125 0.3348529 -0.1514566 -0.048387542
000210 1d 64 8b 3e 58 68 a5 bd 18 8d 4d bd 71 af d8 bb
       0.27224818 -0.080765426 -0.050183386 -0.006612711
000220 af 50 bb bb bc d1 93 be 46 ed ae bc 3f d3 2e be
       -0.0057164053 -0.28870952 -0.021353375 -0.17072771
000230 41 90 f9 bc fe f8 20 3e 52 e6 4c be 6f 55 35 be
       -0.030464293 0.15719983 -0.20009735 -0.17708372
000240 1b 52 8a be 6c d4 cf bd 78 b4 3a bd c2 ad 4a bc
       -0.27015767 -0.10147938 -0.045582265 -0.012370529
000250 55 2c dc bd fa 8a 84 be aa 9d a4 3d 45 02 22 be
       -0.10750643 -0.2588728 0.080378845 -0.15821178
000260 d2 70 40 be 17 fb ce 3d 54 06 e8 3b 5b 92 18 bc
       -0.18793038 0.10106485 0.0070808325 -0.009312238
000270 10 8f 87 be a1 d6 eb 3d 63 2a 20 3e de 31 85 3e
       -0.26476336 0.115155466 0.15641169 0.26014608
000280 6c 1c 5b 3e 59 39 22 be d2 72 41 3e 54 45 3c bd
       0.21397561 -0.15842189 0.18891457 -0.045964554
000290 a1 56 db 3d 2a 2b 84 3d 25 f7 a8 bd e7 e9 57 be
       0.107098825 0.064535454 -0.08250264 -0.2108532
0002a0 a4 3a 89 bd e9 62 a4 3e 89 50 82 be 6b 17 9a 3d
       -0.06700638 0.32106712 -0.25452068 0.07523998
0002b0 d6 d6 80 be 18 07 55 3e 94 75 f4 3c 3c 5f 35 bd
       -0.25163907 0.20803487 0.029841222 -0.044280276
0002c0 1f 3f b2 3d b4 d4 2f 3e 4b 80 32 3e 67 be f5 3d
       0.08703446 0.17170984 0.17431752 0.11999207
0002d0 f9 3d bc 3d a6 0a d6 3e ee 0f 8a be 5f 68 2e 3d
       0.09191508 0.41805 -0.26965278 0.042580005
0002e0 2f 63 81 bb e2 23 4d be cb c9 c6 3d 8a 08 1a be
       -0.003948591 -0.2003322 0.09706458 -0.1504232
0002f0 84 f0 b4 be da d3 53 3e 04 bd 4d be cc 1e 02 be
       -0.3533975 0.20686284 -0.20091635 -0.1270706
000300 57 46 54 be 7d 94 1c be 54 fa fa bd 43 50 ef 3d
       -0.20729958 -0.15291019 -0.122547776 0.116852306
000310 65 c7 03 bd 92 11 c0 be 12 1b 2c be 6c 43 88 3e
       -0.03217258 -0.37513405 -0.16807202 0.2661394
000320 06 df 03 3e 08 aa a0 3d 2a 42 59 be aa 07 82 3e
       0.12878045 0.07844931 -0.21216646 0.25396472
000330 d6 b1 7b 3e 88 9e 8e bd 6b 57 5f 3e 2f 7c ef 3c
       0.24579558 -0.06963831 0.21810691 0.02923402
000340 ec d6 03 be ce ce 95 bd d8 44 fc 3e 2d f1 89 be
       -0.12874955 -0.073148355 0.49271274 -0.26941815
000350 6d 92 ac 3c 2d c3 1a be 7e c6 15 3c e0 53 23 bc
       0.021065915 -0.15113516 0.0091415625 -0.009968728
000360 57 67 8d be 68 bd b4 3c e0 15 b6 bd 00 a3 82 be
       -0.27617905 0.022062972 -0.08890891 -0.25514984
000370 aa 58 a6 be 5e 4a cb 3e 02 e5 ad be 72 51 36 bb
       -0.3248952 0.39705175 -0.33963782 -0.0027819541
000380 5e 71 70 3e 98 43 ca 3b ab e6 a6 3e 9b 01 bb 3b
       0.23480746 0.0061726086 0.3259786 0.0057069785
000390 76 41 65 be 2c db 33 3e d7 45 ef bd 68 7d 8e 3e
       -0.22388253 0.17564076 -0.11683243 0.27830052
0003a0 8f 1b 1e bd c1 13 8d bd 4f 4f 83 be 78 fc e3 bd
       -0.0386005 -0.068885334 -0.25646445 -0.11132139
0003b0 e0 e5 4d 3e 3e 05 c8 3e 46 42 e6 bd 21 71 88 3d
       0.20107222 0.390665 -0.112431094 0.066622026
0003c0 6f db 2b 3e 8a b7 34 be f6 2d 75 3d 62 57 d2 bd
       0.16782926 -0.1764814 0.059858285 -0.10270573
0003d0 d1 70 59 3e 99 54 3d bd 17 fe e3 bd db d3 0a 3d
       0.21234442 -0.046223257 -0.11132448 0.033893447
0003e0 dd 47 ae 3e 15 62 53 3d ed 3f 0f 3c 1d e5 f1 bd
       0.34039202 0.05160721 0.008743268 -0.11811278
0003f0 c3 c6 7e be ec e8 23 be 59 e8 8b be 44 39 71 3d
       -0.24880509 -0.16006821 -0.27325705 0.058892503

layers.0.1.weight f4 [256]
000000 54 fa 7e 3f c3 62 81 3f f9 94 7c 3f b8 af 80 3f
       0.9960072 1.0108265 0.98664814 1.0053625
000010 68 c3 7d 3f bf 97 81 3f 8c f5 7f 3f 84 8c 7c 3f
       0.9912629 1.0124434 0.9998405 0.9865191
000020 28 07 81 3f 9e 88 7b 3f ef 67 7f 3f 0b 7f 7f 3f
       1.0080309 0.98255336 0.99767965 0.9980323
000030 90 d4 7e 3f b9 33 83 3f d7 bc 80 3f e5 83 81 3f
       0.99543095 1.025016 1.0057629 1.0118376
000040 5c f1 7e 3f c2 89 7d 3f 21 5e 82 3f 04 14 7f 3f
       0.99587035 0.99038327 1.0184976 0.99639916
000050 d1 25 7b 3f 26 d8 80 3f 72 b4 80 3f dc d4 80 3f
       0.9810458 1.0065963 1.0055068 1.006496
000060 2f d0 7d 3f d7 2b 82 3f dd c0 7f 3f 43 d6 7e 3f
       0.9914579 1.0169629 0.9990366 0.9954569
000070 a0 c9 87 3f 45 e9 80 3f 23 37 80 3f d4 d5 81 3f
       1.0608406 1.0071188 1.0016826 1.014338
000080 72 df 78 3f 7f 7f 7a 3f f5 8d 7e 3f 03 2b 7e 3f
       0.9721595 0.97850794 0.9943536 0.9928438
000090 67 1c 80 3f 7d ef 7d 3f 13 31 80 3f 44 8d 7f 3f
       1.0008668 0.99193555 1.0014976 0.9982493
0000a0 09 41 7a 3f 8d 0f 80 3f f5 cb 7f 3f ea 75 7e 3f
       0.97755486 1.0004746 0.9992059 0.9939867
0000b0 e0 e5 80 3f dc 51 80 3f 37 13 7d 3f 48 70 80 3f
       1.0070152 1.0024981 0.98857445 1.0034266
0000c0 6d 49 7e 3f 41 69 7c 3f 47 c6 80 3f 47 2b 83 3f
       0.9933079 0.98598105 1.006051 1.0247582
0000d0 01 63 81 3f c5 09 80 3f ff 1d 80 3f 6d 2d 80 3f
       1.0108339 1.0002981 1.0009154 1.0013863
0000e0 7a 43 83 3f ec 32 81 3f 05 ac 80 3f d2 c3 7c 3f
       1.0254967 1.0093665 1.0052496 0.987363
0000f0 a7 a2 7c 3f 01 a5 80 3f b5 4d 82 3f 27 a3 81 3f
       0.9868569 1.0050355 1.0179964 1.0127915
000100 1c a4 7d 3f b4 15 81 3f 3d bc 82 3f d3 0b 82 3f
       0.99078536 1.0084748 1.0213696 1.0159858
000110 16 61 7c 3f f2 df 81 3f b8 75 81 3f dc 87 7f 3f
       0.9858564 1.0146468 1.011405 0.9981668
000120 69 5b 81 3f 09 cb 80 3f e2 55 7e 3f eb bf 7a 3f
       1.0106021 1.0061961 0.99349797 0.97949094
000130 fe 10 81 3f 86 06 7e 3f 06 71 81 3f 9e cd 82 3f
       1.0083311 0.99228704 1.0112617 1.0218999
000140 e8 5b 82 3f 25 60 7f 3f e1 dc 7a 3f b5 51 7f 3f
       1.0184298 0.9975608 0.97993284 0.9973405
000150 70 aa 7e 3f 64 bf 82 3f b5 01 82 3f 8f 60 7d 3f
       0.99478817 1.0214658 1.0156771 0.9897546
000160 8f d2 7e 3f af 4e 7b 3f a1 83 80 3f 9b 7c 7d 3f
       0.99540037 0.98166937 1.004017 0.9901826
000170 9f e0 7d 3f 22 ba 83 3f 97 ae 82 3f 22 12 7b 3f
       0.9917087 1.0291178 1.020953 0.98074543
000180 16 d1 7b 3f eb 4f 7f 3f 7a 6a 83 3f 03 e0 7f 3f
       0.98365915 0.9973132 1.0266869 0.9995119
000190 48 05 7e 3f 96 ce 79 3f 07 8e 81 3f d5 c9 80 3f
       0.9922681 0.9758085 1.0121468 1.0061594
0001a0 f0 a1 7b 3f 76 4b 7a 3f 5c f8 84 3f 81 76 81 3f
       0.9829397 0.97771394 1.0388293 1.011429
0001b0 48 26 7f 3f 55 3a 80 3f 82 67 81 3f c9 be 7f 3f
       0.9966779 1.0017802 1.0109713 0.9990049
0001c0 8c 38 7b 3f 4a 83 82 3f 9a f2 80 3f e3 76 80 3f
       0.9813316 1.0196316 1.0074036 1.0036281
0001d0 9a c6 80 3f ce c6 7a 3f 29 a5 7f 3f b4 f9 7c 3f
       1.0060608 0.979596 0.9986139 0.98818517
0001e0 c0 05 81 3f 0b dd 7f 3f 6e 52 80 3f b7 d1 7d 3f
       1.007988 0.9994666 1.0025156 0.99148124
0001f0 33 5c 80 3f 05 e0 80 3f 40 84 80 3f b2 08 80 3f
       1.0028137 1.0068365 1.004036 1.0002654
000200 55 74 7d 3f 6e 76 7d 3f 08 9c 7b 3f e1 a3 80 3f
       0.99005634 0.99008834 0.9828496 1.0050012
000210 cc b8 80 3f 5b e2 7b 3f b8 3b 80 3f e4 16 80 3f
       1.0056396 0.98392266 1.0018225 1.0006986
000220 0f 15 7c 3f 5a f5 7f 3f 2f cd 7f 3f 4d 0e 7a 3f
       0.9846963 0.9998375 0.9992246 0.9767807
000230 96 00 7c 3f 9f 40 82 3f 18 b1 81 3f 16 d4 7f 3f
       0.98438394 1.0175971 1.013217 0.9993299
000240 b3 3f 80 3f d7 6e 81 3f 7b ea 7d 3f a4 47 7e 3f
       1.001944 1.0111951 0.99185914 0.99328065
000250 3d f5 7d 3f fe 17 80 3f f6 8d 7f 3f 26 df 7f 3f
       0.9920233 1.0007322 0.9982599 0.9994987
000260 64 3c 7e 3f dd 51 82 3f fc 0c 80 3f 3a 8a 80 3f
       0.993109 1.0181233 1.0003963 1.0042183
000270 b3 5a 83 3f b0 3e 82 3f 3c 03 84 3f bc 58 82 3f
       1.0262054 1.0175381 1.0313487 1.018333
000280 29 5c 80 3f d8 ac 7f 3f c5 9a 7e 3f 55 10 80 3f
       1.0028125 0.99873114 0.9945491 1.0004984
000290 55 e8 80 3f 1c 6e 7a 3f 36 67 7e 3f d8 e6 7d 3f
       1.0070902 0.97824264 0.9937624 0.99180365
0002a0 23 71 80 3f f7 b2 7d 3f 0c 4a 7c 3f 4b ce 7d 3f
       1.0034527 0.99101204 0.98550487 0.99142903
0002b0 a7 0e 7d 3f 58 da 82 3f e8 46 80 3f c0 14 7f 3f
       0.9885048 1.0222883 1.0021639 0.99641037
0002c0 3d 5e 7c 3f 64 31 7f 3f 34 f9 7a 3f ed 01 7f 3f
       0.98581296 0.9968474 0.98036504 0.99612314
0002d0 9f a8 7a 3f 95 b8 79 3f 21 af 7c 3f 41 5e 78 3f
       0.97913545 0.97547275 0.98704726 0.9701882
0002e0 68 ba 75 3f bb d1 7c 3f 63 3b 80 3f 15 fb 7f 3f
       0.9598756 0.98757523 1.0018123 0.99992496
0002f0 a3 e2 7c 3f 60 17 7a 3f 44 cd 81 3f 3d 1c 80 3f
       0.9878332 0.9769192 1.0140767 1.0008618
000300 e5 d9 7e 3f 60 64 7e 3f f1 0b 7f 3f a2 93 82 3f
       0.9955123 0.9937191 0.99627596 1.0201304
000310 7c 05 7f 3f 11 a4 80 3f 4e 14 82 3f 89 9a 80 3f
       0.99617743 1.0050069 1.0162446 1.004716
000320 4e 2e 82 3f a8 dd 7c 3f 74 6a 80 3f 7e 1c 7d 3f
       1.0170381 0.9877572 1.0032487 0.988716
000330 05 08 80 3f d1 6d 7b 3f 66 b4 7d 3f 72 89 7f 3f
       1.0002447 0.9821444 0.9910339 0.998191
000340 7f a4 7d 3f 82 98 7c 3f 4b 40 80 3f 4d 7e 7f 3f
       0.99079126 0.9867021 1.0019621 0.99802095
000350 62 73 7b 3f 3a e7 7e 3f 28 be 7e 3f 95 ed 80 3f
       0.98222935 0.99571574 0.99508905 1.0072504
000360 4e 0e 80 3f f2 60 84 3f c0 83 81 3f 2b 0c 7d 3f
       1.0004365 1.0342085 1.0118332 0.9884669
000370 06 14 81 3f 77 ce 7f 3f b6 b0 7e 3f 12 33 82 3f
       1.0084236 0.99924415 0.9948839 1.0171835
000380 96 5b 80 3f a3 c5 82 3f 84 8c 7f 3f 23 56 84 3f
       1.002795 1.0216564 0.99823785 1.0338787
000390 f1 c8 81 3f f6 e6 7d 3f b0 30 7a 3f ce 91 80 3f
       1.0139447 0.99180543 0.9773054 1.0044496
0003a0 69 e7 81 3f 7a 2a 83 3f d4 b0 7d 3f 57 ee 7d 3f
       1.0148746 1.0247338 0.99097943 0.991918
0003b0 43 06 81 3f 73 49 7d 3f 1a 76 7e 3f ab 5b 7b 3f
       1.0080036 0.989402 0.9939896 0.9818675
0003c0 85 09 81 3f da 94 7e 3f 5e 4b 7c 3f ff 79 84 3f
       1.008103 0.9944588 0.985525 1.034973
0003d0 b7 f7 80 3f 47 8f 80 3f b2 bc 77 3f 42 10 7f 3f
       1.0075597 1.0043725 0.967723 0.9963418
0003e0 73 5e 7d 3f 04 f6 81 3f eb 8b 7e 3f 38 40 81 3f
       0.98972243 1.0153203 0.9943225 1.0097723
0003f0 39 8a 81 3f 1b c3 79 3f a6 27 7f 3f 35 8a 80 3f
       1.0120307 0.9756333 0.99669874 1.0042177

layers.0.1.bias f4 [256]
000000 73 b6 8f 3b 01 a3 9a 3b 6c bb 20 bb 5b 47 86 3c
       0.0043857633 0.0047191386 -0.0024525775 0.016391447
000010 73 b6 45 39 cf 70 07 3d c0 f2 eb bb ab f0 84 bc
       0.00018855352 0.033066567 -0.007200569 -0.01622804
000020 63 ab b1 3b b3 69 b4 bc 6f bf 30 3c de 35 96 3a
       0.005422042 -0.022023058 0.010787829 0.0011460145
000030 36 62 10 3c 1c 95 00 3c 8b 67 93 3b b8 da 04 bb
       0.008812478 0.00784805 0.0044984273 -0.0020271968
000040 95 99 36 3c 96 ac e2 3b 91 7e 79 3c ca a0 9b bb
       0.011145015 0.0069175465 0.01522793 -0.004749392
000050 1e 3d ca bb 70 08 55 3b 5c 36 ce 3b f1 0b 99 bc
       -0.0061718365 0.003250625 0.0062931012 -0.018682452
000060 0b be 56 3c 45 1c 9b 3c 4b c3 11 3d 37 a1 d3 bb
       0.013106833 0.018934378 0.035586637 -0.0064584273
000070 77 80 2f 3d 3f 8e 48 3c 14 52 ba 3a bb f6 89 ba
       0.042847123 0.012240945 0.0014215135 -0.0010525802
000080 7a 5e bf bc ac b7 6a bb f5 d4 6e bc 5b ea 6d 3c
       -0.02336048 -0.0035815043 -0.01457714 0.014521207
000090 3e ec 8c bb 59 57 8f bc 6c b5 39 3c 66 b2 53 3a
       -0.004300623 -0.017497705 0.011334758 0.00080755947
0000a0 83 27 ba bc 83 49 4f bc 5c 29 94 3c d0 9e 3a bb
       -0.022723919 -0.012651804 0.018086128 -0.0028476007
0000b0 40 8e 4e bc a1 0a 59 3c f8 15 3e bc f4 6d e1 3c
       -0.012607157 0.013247163 -0.011601917 0.02751825
0000c0 d9 6d 30 bc a1 c5 e0 3b c6 f8 8e 3c 96 df b0 3c
       -0.010768377 0.0068594967 0.017452609 0.02159099
0000d0 b6 10 92 3a c2 f7 0f bc ba e5 e8 ba 31 05 26 3c
       0.0011143896 -0.008787097 -0.0017768659 0.010133074
0000e0 ed fa 90 3c 00 6b 29 bb 52 a0 88 bc f6 cc 79 bc
       0.017697776 -0.002585113 -0.01667801 -0.01524662
0000f0 d0 eb 05 bc 31 e7 ff 3b ed 98 66 3c 7b db 86 bc
       -0.008173898 0.0078095426 0.014074546 -0.016462078
000100 16 67 db bc 8d 51 12 3c 88 1e 2f 3d 1f 31 b7 3c
       -0.026782554 0.008930576 0.042753726 0.02236229
000110 bf 21 d1 bb 11 f9 ae bb 7d bb 81 3c 1e a7 38 3c
       -0.0063821967 -0.0053397496 0.015836472 0.011270313
000120 e2 c8 98 bb c0 14 72 bb d6 76 3e bc db 3b 16 bc
       -0.004662619 -0.0036938637 -0.011625012 -0.009169544
000130 eb 42 87 3c f9 55 04 3b 76 c0 f5 3a cc 82 f0 3b
       0.016511401 0.0020192845 0.0018749374 0.007339811
000140 04 b1 26 bb ba c6 fb 3c dd 1e b3 bb 54 da 06 bb
       -0.00254351 0.030734409 -0.0054663257 -0.002057691
000150 4d d2 3d 3c d5 06 8a 3c 21 80 96 3b c9 a3 90 bc
       0.011585784 0.01684896 0.004592911 -0.017656224
000160 68 92 0f ba 49 57 26 3c 46 b2 83 3c 8e 27 8f bc
       -0.00054768333 0.010152646 0.016076218 -0.017474916
000170 04 a2 2b bb 9e 5a 1c 3d 57 25 bb 3b 74 dd 4d bc
       -0.0026189098 0.038172357 0.0057112384 -0.012565006
000180 aa be 26 bc d0 52 ea 3b ab 64 89 3c fb ec 8f 3c
       -0.010177294 0.0071509853 0.016771635 0.017569056
000190 17 f4 30 3c e4 58 34 bb 1f 7b 28 3c a6 d5 ce ba
       0.010800383 -0.0027518803 0.010283261 -0.0015780225
0001a0 28 ac 9c bc df 22 d0 bc 7c 71 f3 3c 70 20 ed ba
       -0.01912506 -0.025407253 0.0297172 -0.0018091332
0001b0 27 8f 46 bc c6 c2 cc 3c e4 ce 90 3c 0e 41 60 3c
       -0.012119091 0.024995219 0.017676778 0.013687385
0001c0 dc 6b e6 bb e0 aa 1a 3b 2e 99 49 bc 8a ef c0 bb
       -0.007031901 0.0023600385 -0.012304587 -0.0058879303
0001d0 86 11 72 bb f7 69 06 bb 97 04 09 3c cb 7c 48 bb
       -0.0036936714 -0.0020509937 0.008362911 -0.003059196
0001e0 96 10 f6 3b f0 31 28 3b c0 e0 81 3b 81 a3 9a 3c
       0.0075093014 0.002566453 0.00396356 0.018876793
0001f0 03 64 14 3c b0 c8 67 3a 2a 5c b9 3c b0 6a 8b bb
       0.009057048 0.00088418555 0.022626955 -0.0042546615
000200 20 f3 72 bb b5 34 ce 3c 46 cc c6 bc f5 24 99 3c
       -0.0037071183 0.025171617 -0.024267327 0.01869438
000210 b6 23 b6 3c 84 bf 91 3b 25 c5 85 3b a6 82 02 bc
       0.022233825 0.0044478793 0.0040823394 -0.007965719
000220 e8 2f 9f bc 80 51 33 3c 37 59 13 3c 0d dd 40 bb
       -0.019432023 0.010944724 0.008993438 -0.0029428632
000230 ff 26 82 bc 5c f7 c6 3c a8 cd e2 3b e1 03 5f 3c
       -0.015887735 0.024287872 0.006921489 0.013611765
000240 2b 29 54 3b c2 7d e5 3b 39 88 2f bc e9 57 5e bc
       0.003237317 0.007003517 -0.01071363 -0.013570764
000250 b8 2a 8e bb 1f ab 95 3c 7d 1e c8 3c bf 11 75 bc
       -0.0043385886 0.018270073 0.0244286 -0.014957844
000260 53 9a b9 3b 3c 46 e1 3c 8b 4f 79 3c 3b 1f 87 ba
       0.005664149 0.02749931 0.015216718 -0.001030899
000270 25 35 f9 3c d3 6a df 3c 60 6f 60 3d b6 44 92 bb
       0.03042085 0.027272617 0.054793715 -0.0044637574
000280 90 e3 1b bc 26 94 22 bc 94 6b 65 ba 99 e9 a4 bb
       -0.009514704 -0.009923017 -0.0008751687 -0.00503273
000290 39 e0 21 3c b9 95 bb bc 0f ae 10 bc 43 88 b5 bb
       0.009880119 -0.022898542 -0.008830561 -0.0055399253
0002a0 4a 2b 84 3b 7b 9b a8 3b 73 32 a5 bc 06 58 fd bb
       0.004033481 0.005145488 -0.020165658 -0.0077314405
0002b0 f2 36 73 bc 9c 50 90 3c cc 17 b2 3c e7 06 52 3b
       -0.014844643 0.017616563 0.021739863 0.003204757
0002c0 18 60 d8 bb 72 7d a6 3c 6a 26 da ba 67 a2 23 3c
       -0.006603252 0.020323489 -0.0016643528 0.00998745
0002d0 b8 9f 58 bc b5 97 28 3c 88 b6 a6 bb 18 2a 9e bc
       -0.013221674 0.010290076 -0.0050876774 -0.019307181
0002e0 39 a7 ec bc 94 8a 46 bc e8 0f c8 3b e5 ee 18 bc
       -0.028888332 -0.012118001 0.006105412 -0.009334301
0002f0 1e 3f ac ba 76 31 25 bb 03 fc 2d 3d 30 01 ce bb
       -0.0013141369 -0.0025206483 0.042476665 -0.0062867627
000300 10 b4 28 3c 78 ef c0 3a 57 5e 70 3b 95 3e f8 3b
       0.0102968365 0.0014719805 0.0036677325 0.0075758197
000310 10 c5 49 bc 09 72 d9 bb b8 3b 79 bb b4 0a 13 3c
       -0.01231505 -0.0066359085 -0.003802998 0.00897472
000320 6d 78 82 3c a5 ca 9c bc 51 aa 43 3c ed 85 2c bb
       0.015926564 -0.019139597 0.011942462 -0.0026324943
000330 83 c4 56 3c 28 00 77 bc b3 d0 3f bc e0 b0 85 3c
       0.0131083755 -0.015075721 -0.011707473 0.016319692
000340 f4 05 00 3b 4a 4d ae bc cf 07 c1 3a ca 91 82 39
       0.0019534798 -0.021277089 0.0014727059 0.00024904154
000350 1e 54 43 bc ac 71 02 38 d6 64 a5 3a 46 b7 06 3d
       -0.011921911 3.110028e-05 0.0012618552 0.032889627
000360 da 68 d6 3b a0 75 f3 3b 84 35 72 3c ba b6 71 3c
       0.006543261 0.0074297935 0.014783267 0.014753038
000370 ed ac ed 3c 4f bf e5 3b 6b 1a 9a 3a 9a 6c 9e 3c
       0.029013122 0.007011331 0.0011757141 0.019338895
000380 35 3c 25 3c 3c 1f eb 3c 59 2d 26 3c 7e bb de 3c
       0.010085155 0.028701417 0.010142648 0.027189013
000390 ef ac 91 3b d2 cd c7 3a 05 56 07 3c 3e 28 15 3b
       0.004445664 0.0015243834 0.008260255 0.0022759582
0003a0 ab 2d 0b 3c 95 4a 3a 3c bb cc df bb b1 92 ff 3b
       0.008494775 0.011370321 -0.0068298257 0.0077994694
0003b0 d0 d0 a1 3c d9 16 28 3c aa 08 de ba 8a 5d a5 3c
       0.01975289 0.010259354 -0.0016939838 0.020186204
0003c0 97 92 26 3c c6 a8 31 bb de 19 e9 bb 6f d8 14 3d
       0.010166786 -0.0027108653 -0.0071136793 0.03633922
0003d0 73 34 f2 bb 74 71 96 3b 11 6a 3f bc 9c bc 2a 39
       -0.0073915063 0.0045911614 -0.011683003 0.00016282726
0003e0 4e 20 4b ba 27 45 4f 3b 0b 65 85 bb 0e ed 50 3c
       -0.0007748649 0.0031626911 -0.004070883 0.012751831
0003f0 bc 3f 61 bb e3 5f 17 3c 67 91 80 3c ad 8e 23 bb
       -0.0034370264 0.00923917 0.015694333 -0.0024956868

layers.1.0.weight f4 [128, 256]
000000 68 b9 f5 3d f7 bb 4d be 5e 52 0d 3e 73 c0 db bd
       0.11998254 -0.20091234 0.13800952 -0.10730066
000010 8a ae ab 3d 6e db ef 3c 91 53 a4 3d fc 3b 79 bd
       0.083829 0.029279437 0.080237515 -0.06084822
000020 99 0e b2 3d b3 59 2c be 1c 1d 00 be 67 40 64 3d
       0.086941905 -0.16831093 -0.12511104 0.05572548
000030 b3 9b e8 bc 0e 8a 48 3e 53 fe ea bd f8 c1 4f bd
       -0.028394556 0.19583914 -0.1147429 -0.050722092
000040 27 20 c3 bd 4f df 84 3d e1 be ea 3a 93 8f 7e 3d
       -0.09527617 0.06487905 0.001790967 0.06214864
000050 09 14 a9 3c 57 12 2a 3d ca f3 b8 3c 2d 6a b5 3d
       0.020639436 0.041521396 0.022577185 0.08858142
000060 31 22 0e 3e 23 ba 63 3d 42 19 87 bd 68 78 4d bd
       0.1388023 0.055597436 -0.065966144 -0.050163656
000070 42 f9 d3 3c 0e f8 f0 bc eb 35 6e 3d b3 31 36 bb
       0.025875691 -0.029415157 0.05815689 -0.002780062
000080 02 88 87 3c 6e 98 81 bd e8 d7 c1 3d 5a 03 81 bd
       0.016544346 -0.06327902 0.09465009 -0.062994674
000090 28 f6 ef 3c 53 08 5c 3d 7c 03 3a 3b ac e4 95 bd
       0.029292181 0.053718876 0.0028383425 -0.07319006
0000a0 60 a3 f1 37 9f e8 df 3c a1 27 71 bd 24 e3 75 bd
       2.8805516e-05 0.027332602 -0.058875684 -0.06003107
0000b0 50 c6 9c 3d e0 c0 6c 3d 23 09 3d bd d2 14 58 bc
       0.076550126 0.057801127 -0.04615129 -0.013188558
0000c0 c2 f9 05 3e 1e 2d 06 3e 02 ad 0a be 39 0a cb 3b
       0.13083556 0.13103148 -0.1354256 0.006196287
0000d0 4b 2c 21 be ee d0 32 3d 23 a6 1a bc d4 57 d0 bd
       -0.15739553 0.043656282 -0.009439024 -0.10173002
0000e0 22 66 64 bd 33 0b ea bd 78 ce d3 bc 46 81 f8 bc
       -0.055761464 -0.11427917 -0.025855288 -0.03033508
0000f0 43 6b 49 3d 77 c5 0d 3e 7b 12 29 bd 6a e3 75 3c
       0.04917456 0.13844858 -0.04127739 0.015007833
000100 97 be 9b 3d f8 a9 35 bc ac ed 5a be e4 a1 3f bd
       0.076047115 -0.011087887 -0.21379727 -0.04678525
000110 89 66 d9 3a 0a 31 76 3d 2d 73 30 3d 42 97 ce bd
       0.0016586344 0.06010536 0.04307859 -0.10087444
000120 36 57 84 bd 03 b6 f4 bd 73 da a0 be bf 94 73 3d
       -0.06461947 -0.119487785 -0.31416664 0.059468027
000130 ad c9 20 bd b6 9d 7e 3d 08 5b 81 bd bd 56 47 bd
       -0.039254833 0.062162124 -0.06316191 -0.048666704
000140 12 5c 02 be bd f5 0a be 28 a9 15 3d ac f3 58 3d
       -0.12730435 -0.13570304 0.036538273 0.05296676
000150 99 84 18 be ca e5 05 3c fd fd 35 bd f3 ff dd bd
       -0.14894332 0.008172462 -0.044431675 -0.10839834
000160 01 d2 d7 bd c1 89 b1 bc ac 67 13 3d d3 b3 b8 3d
       -0.10538102 -0.021672131 0.03598754 0.09018674
000170 b4 b9 4a 3c dd 4f 07 3d 5a ef 1a be 5f 70 08 be
       0.012373377 0.033035148 -0.15130368 -0.13324116
000180 46 1b 0d 3d f9 1d 07 bd f4 3a c7 3d 91 d7 95 bd
       0.034449838 -0.03298757 0.09728041 -0.07316507
000190 ad f6 42 3d a3 a6 59 bd f1 ba 5e be f2 3d d1 bd
       0.04759853 -0.053137433 -0.21751 -0.10216893
0001a0 a4 eb 36 3e 30 56 a2 3d c7 62 23 3c 84 42 27 3a
       0.17863327 0.07926595 0.009972281 0.0006380456
0001b0 b8 6c 4c 3c 9f 0d d5 3c 58 06 94 3d 56 e9 c5 bc
       0.012477092 0.026007472 0.072277725 -0.024159115
0001c0 ce bf f1 bd 5c 26 1e bd d3 de 1b 3b 8a 00 bf bd
       -0.11804162 -0.0386108 0.0023783937 -0.09326275
0001d0 ad 9c 92 bc 69 be 4f 3d 2d ab 8a bd 24 68 d0 bc
       -0.017896974 0.0507187 -0.067709304 -0.025440283
0001e0 b0 ee cf bd 2d fb 4d bd 97 d7 b6 bd 50 78 98 bc
       -0.10152948 -0.050288368 -0.08927839 -0.018612057
0001f0 4d 9e 9c 3c fd a8 9c 3d 4e 6b 09 be b7 0b da bd
       0.019118452 0.076494195 -0.1341984 -0.10646766
000200 7f ef 22 3c 42 d0 08 3e 84 e8 30 3e ed 33 74 bc
       0.009944796 0.13360694 0.17276198 -0.014904958
000210 2e 6e ab bc 02 ce 91 bd 29 78 23 bd 64 db e2 3d
       -0.020926561 -0.07119371 -0.039909516 0.11077002
000220 33 4e 03 bc 75 d0 9f bc f5 52 1d 3d ec 2a 1d bb
       -0.00801425 -0.01950858 0.038409192 -0.0023981882
000230 eb 85 28 be 54 29 b0 bb b5 3f 3e be 17 0c b9 3d
       -0.16457336 -0.0053760204 -0.1857899 0.09035509
000240 3d 9d 1c 3d 6e 26 82 bc d0 a1 16 be 73 98 35 3d
       0.03823589 -0.015887465 -0.14710164 0.04433484
000250 c6 50 09 3e 70 b3 f8 bd e5 00 9b 3d c9 64 2b 3d
       0.13409719 -0.121436 0.0756853 0.041844163
000260 05 da 13 be a8 5c 39 3d e8 59 9a bd 4f 0a d5 3d
       -0.14438637 0.04525438 -0.075366795 0.10402357
000270 c0 db e7 3d f6 d2 00 3d 33 06 2d 3d c1 a3 ff 3a
       0.11321211 0.031451188 0.04224224 0.0019503759
000280 00 00 56 3c f2 bd cf 3d 27 a4 24 3b 1f 3f cc 3d
       0.013061523 0.10143651 0.0025122256 0.09972977
000290 c7 84 d1 3d fb 1f 98 3d aa ee 0e 3e bd d1 19 bd
       0.102304034 0.07427975 0.1395823 -0.037553538
0002a0 af e3 05 bd f8 9b 9a 3d f6 61 2a bc 7e 94 c4 3c
       -0.03268784 0.0754928 -0.010399332 0.023996588
0002b0 2a f2 76 bd 84 ff c8 3d 32 b1 c4 3c b8 50 27 3e
       -0.06028954 0.09814361 0.024010275 0.16339386
0002c0 04 dc 9b ba e5 6d 15 be 8c a6 d0 bd 8b 20 3a bd
       -0.0011891131 -0.14592703 -0.10188016 -0.04544119
0002d0 93 98 82 3d d9 76 72 bd 0f d0 18 be 3a f4 4f bd
       0.063767575 -0.059195373 -0.14923118 -0.050770022
0002e0 17 d0 37 bd c0 4b 49 bc 79 cf 04 3e 42 ac 56 bc
       -0.044876184 -0.012286127 0.1296977 -0.013102593
0002f0 c8 20 32 3d b8 d5 ce bc 97 b3 cf bc 8b a5 c5 3d
       0.043488294 -0.025248393 -0.02535419 0.096507154
000300 1e c3 0d bd 3a 57 e8 bc ce 89 90 3d f7 72 43 3d
       -0.034609906 -0.028361905 0.07057534 0.04771706
000310 d9 76 06 bd bd 6b 0c be ad 9a 95 bb eb ab 0c bd
       -0.032828186 -0.13712974 -0.004565558 -0.03434364
000320 56 b8 1b 3e 43 a8 31 3c 0c ee a2 3d 58 06 6a 3c
       0.15207037 0.010843339 0.0795556 0.014283739
000330 03 7f 5c 3e 04 69 ef bd 97 41 89 bc d2 b2 dd bd
       0.21532826 -0.11689952 -0.016754908 -0.10825123
000340 06 40 06 be f0 ed ab 3c e6 79 31 3d 61 5b 5e 3c
       -0.1311036 0.02098748 0.043329142 0.013571591
000350 b1 fc 86 3c fc f6 03 be d0 39 a8 bc 23 8b 89 bc
       0.016477915 -0.12887186 -0.02053538 -0.016789978
000360 5a 0c 62 bd 47 71 d0 3d 49 75 b9 bd 35 8f 44 bb
       -0.05518756 0.10177856 -0.090555735 -0.0029992585
000370 d5 99 7f 3d ac d8 10 bd fb 7e 8f bc a6 d9 f2 3d
       0.062402565 -0.035362884 -0.017516604 0.118579194
000380 9c a4 ab bd 81 5b 3a 3d 8f ff 00 bd 5d aa 01 bd
       -0.08381006 0.04549742 -0.03149372 -0.03165661
000390 e3 06 39 3e 99 a0 c2 bd 2d e1 42 3d fc 7f 97 3d
       0.18069033 -0.09503288 0.047578026 0.07397458
0003a0 7c 1c e3 bd a3 05 bc bd 6c e0 ab bd e1 36 1c be
       -0.11089417 -0.091807626 -0.083924145 -0.1525531
0003b0 9e e4 08 bd da 39 0c 3d e7 14 6d bd ed f4 d8 3c
       -0.03342115 0.03423486 -0.057881262 0.026483977
0003c0 0d 3e b6 3d 41 8f 80 3d 65 e5 83 bd 75 dc 82 bd
       0.08898554 0.062773235 -0.06440238 -0.06389705
0003d0 53 0e 9d 3a 44 7a 12 3e d5 e7 05 be 1f c0 13 bd
       0.0011982418 0.14304453 -0.13076718 -0.036071893
0003e0 01 8d 11 3d 2e 3e f9 bd fc 35 c5 bc 7a be bc 3b
       0.035534862 -0.12170063 -0.024073593 0.0057600113
0003f0 96 c1 b8 bd 85 fa d1 3c bf 10 90 3c 85 c6 05 3e
       -0.090212986 0.025632152 0.01758611 0.1306401

layers.1.1.weight f4 [128]
000000 47 70 81 3f 6a 02 7b 3f 16 a7 7f 3f 6f a7 82 3f
       1.0112389 0.9805056 0.9986433 1.0207347
000010 08 4d 82 3f 80 04 7c 3f e7 cb 83 3f b6 f6 7d 3f
       1.0179758 0.98444366 1.0296601 0.99204576
000020 97 ce 81 3f 6d 2f 82 3f c3 d0 83 3f b8 5c 7b 3f
       1.0141171 1.0170723 1.0298084 0.9818835
000030 18 11 80 3f 14 6b 7e 3f 0e 0e 82 3f c2 68 78 3f
       1.0005217 0.9938214 1.0160539 0.9703485
000040 e3 9a 80 3f 29 5c 7e 3f c6 d4 79 3f 22 69 80 3f
       1.0047268 0.99359375 0.9759029 1.0032084
000050 7c 59 7a 3f 16 ac 82 3f 8e 70 7f 3f 36 e1 7a 3f
       0.9779279 1.0208766 0.9978112 0.97999895
000060 5f 12 80 3f 2f 76 7b 3f 95 06 81 3f 66 08 82 3f
       1.0005606 0.9822721 1.0080134 1.0158813
000070 48 61 87 3f 9d 53 7e 3f f7 9c 7f 3f ac bc 7a 3f
       1.0576563 0.99346334 0.99848884 0.9794414
000080 3a 06 7e 3f 1a 58 7f 3f 13 ce 7e 3f 49 3a 80 3f
       0.9922825 0.9974381 0.99533194 1.0017787
000090 1e 37 7c 3f 34 a5 7d 3f a4 b3 81 3f 30 83 80 3f
       0.985216 0.99080205 1.0132947 1.0040035
0000a0 9c a2 7b 3f 2d b9 81 3f 9c 7c 82 3f 42 39 80 3f
       0.98295 1.0134636 1.0194278 1.0017474
0000b0 c0 36 80 3f 73 fb 80 3f 8c a1 7d 3f 28 e5 7d 3f
       1.0016708 1.0076736 0.99074626 0.9917779
0000c0 79 38 80 3f 79 23 81 3f 09 7c 7f 3f e0 03 82 3f
       1.0017234 1.008895 0.9979864 1.0157433
0000d0 fe 46 7b 3f df 0f 81 3f 99 64 80 3f 1e 6c 81 3f
       0.981552 1.0082968 1.00307 1.011112
0000e0 be d2 80 3f 0b 60 7f 3f 72 7d 7d 3f 58 8f 81 3f
       1.0064313 0.99755925 0.9901954 1.012187
0000f0 f0 f8 79 3f a5 47 80 3f 3b b5 7b 3f 5c 79 80 3f
       0.97645473 1.0021864 0.9832341 1.0037036
000100 9d 35 81 3f 2a 25 80 3f b6 c8 82 3f b2 c2 7c 3f
       1.0094486 1.0011342 1.0217502 0.9873458
000110 8f 3f 7c 3f ee 19 82 3f 03 ef 7b 3f b1 cf 7f 3f
       0.9853448 1.0164163 0.9841158 0.99926287
000120 20 00 7f 3f cb e8 83 3f 55 69 80 3f 26 91 79 3f
       0.99609566 1.0305418 1.0032145 0.97487104
000130 d2 37 7c 3f e1 10 7f 3f 88 62 83 3f 5c 02 7b 3f
       0.98522675 0.9963513 1.0264444 0.98050475
000140 f9 fd 7d 3f f3 c5 7b 3f 13 0e 78 3f 65 83 81 3f
       0.99215657 0.9834892 0.96896476 1.0118223
000150 b1 dc 7c 3f 99 15 81 3f e7 28 81 3f 77 79 78 3f
       0.9877425 1.0084716 1.0090607 0.9706034
000160 25 03 81 3f e4 6a 7d 3f eb f4 80 3f e5 1f 7f 3f
       1.0079085 0.9899123 1.0074743 0.9965804
000170 f0 5a 82 3f 4b 51 81 3f a1 51 80 3f 51 be 7e 3f
       1.0184002 1.0102934 1.0024911 0.9950915
000180 98 fa 7a 3f 75 1b 81 3f e7 65 83 3f 17 82 78 3f
       0.98038626 1.0086504 1.0265473 0.970735
000190 a4 04 7e 3f 58 e1 7a 3f f7 48 82 3f 2c 1d 81 3f
       0.9922583 0.980001 1.0178517 1.0087028
0001a0 3c 70 7f 3f b8 69 7e 3f 9c cc 7e 3f 5b 9f 78 3f
       0.9978063 0.99380064 0.9953096 0.9711816
0001b0 03 10 80 3f df aa 81 3f 8f 0a 7d 3f 46 79 7c 3f
       1.0004886 1.0130271 0.98844236 0.9862255
0001c0 2c 33 7c 3f 3c 6b 80 3f 0d ba 7c 3f ea c5 85 3f
       0.9851558 1.0032725 0.9872139 1.0451024
0001d0 57 49 81 3f 7e ba 7d 3f 14 a0 7c 3f 89 d3 81 3f
       1.0100507 0.9911269 0.9868176 1.014268
0001e0 4a 1a 80 3f a5 6d 7c 3f b9 45 7d 3f 05 f7 81 3f
       1.0008023 0.98604804 0.98934513 1.0153509
0001f0 b0 81 7e 3f 67 5a 7d 3f 1b 1e 81 3f d6 37 80 3f
       0.9941664 0.9896607 1.0087312 1.001704

layers.1.1.bias f4 [128]
000000 d2 99 c6 bb 4b 8e 84 bc 01 b6 0e bb 68 37 13 3c
       -0.0060608173 -0.016181132 -0.0021775963 0.008985378
000010 30 6d 8a 3c cf e9 fd bb 37 0c 97 3c d7 b1 91 bb
       0.016897768 -0.0077488194 0.018438442 -0.004446249
000020 05 2a 69 3b 28 70 e3 3b 67 e5 e7 3c a3 24 8e bc
       0.0035578024 0.0069408603 0.02830763 -0.017351454
000030 a8 0b 6c 3b 9d 9f a5 ba 1d 14 da 3c c6 96 ab bc
       0.003601769 -0.001263607 0.026620919 -0.020945918
000040 a0 3f a6 3c 21 bd fc 3b 91 a2 bc bc a0 80 24 3c
       0.02029401 0.0077129756 -0.023026736 0.010040432
000050 11 67 b9 bc 90 be dc 3c 1d ed 59 bb ae a8 b0 bc
       -0.022632154 0.026946336 -0.0033252903 -0.021564808
000060 b9 42 af bb 35 6b 4c 3b 3b 10 65 3b 50 cf 79 bc
       -0.00534853 0.003119183 0.00349523 -0.015247181
000070 9a eb 10 3d 73 21 b3 bb f5 ad 6b bc 6b 54 22 3b
       0.035380937 -0.005466634 -0.014384736 0.0024769555
000080 17 be b1 ba f8 53 1a bb e5 d8 88 3b c6 ef 80 3b
       -0.001356068 -0.0023548584 0.0041762465 0.003934833
000090 38 0b 77 ba 96 0e bc bb 32 f1 3f ba 1d 19 42 3b
       -0.0009423974 -0.0057390435 -0.00073220127 0.002961702
0000a0 94 1e d8 bc 57 32 ad 3c f4 6e f1 3c af db a3 3b
       -0.026381768 0.021142168 0.029471852 0.0050005536
0000b0 d1 39 03 bc 9c 28 ff ba 79 4a 92 bb 40 c0 06 3b
       -0.00800939 -0.0019467059 -0.0044644442 0.0020561367
0000c0 df 1b 6f bc af be 1a bb 89 4f c3 bb a1 ce 5f 3c
       -0.014594047 -0.0023612191 -0.005960409 0.013660104
0000d0 98 30 b8 bc 9b 8c 7d ba 35 c6 b8 39 34 f1 ac 3b
       -0.022484109 -0.0009672136 0.0003524289 0.005277777
0000e0 28 61 5e 3c 9e 43 bf 3b d5 e6 80 bc 69 01 04 3d
       0.013572969 0.005836918 -0.01573507 0.032227907
0000f0 6f d8 8e bc 80 a6 0a b7 7a c1 a8 bc c3 f0 64 3c
       -0.017437188 -8.264207e-06 -0.02060007 0.013973418
000100 41 47 21 3c 76 0f 77 bc ec 0c f5 3b a1 a3 ab bb
       0.009843648 -0.01507937 0.007478347 -0.005238012
000110 4d 42 61 bb 34 a9 d6 ba 25 db 53 bc 1e 54 61 3b
       -0.0034371794 -0.0016377331 -0.012930666 0.0034382413
000120 0f 81 0c 3c f5 b4 ce 3c 1c 63 2b 3c 3c d6 04 bc
       0.008575692 0.025232771 0.010460641 -0.008107718
000130 d8 34 1d bb 04 3b ec b9 6b 1c 22 3c e9 dd bf bc
       -0.0023987796 -0.00045057398 0.009894471 -0.023421245
000140 bd 5a 81 bb 84 9b 7b bc 43 b5 51 bc 5e 01 98 3c
       -0.0039475844 -0.015356902 -0.012799564 0.01855534
000150 cf 84 a3 bc 1d 35 13 3b d0 a0 4f bc da 8e 92 bc
       -0.019960789 0.0022462078 -0.012672618 -0.017890383
000160 4b 8e 8d bb 39 b7 43 bc be b2 07 3c ad 7f df bb
       -0.004319941 -0.011945539 0.008282362 -0.00682064
000170 c8 dc 32 3c a8 57 79 3b 2c 63 14 3b d0 38 99 bb
       0.010916896 0.0038046632 0.002264212 -0.004675962
000180 d0 2d a1 bc 9b 63 33 bc e3 7a ca 3c 78 53 47 bb
       -0.019675165 -0.010949041 0.0247168 -0.0030414741
000190 f3 54 1a bc af bc b1 bc ec 89 14 3c 05 e8 af 3b
       -0.009419668 -0.021696417 0.009066086 0.005368235
0001a0 b6 11 f5 ba 08 01 3a bc 32 5e 5c bb da 5a d0 bc
       -0.0018697295 -0.011352785 -0.003362548 -0.025433946
0001b0 1b 16 bc bc 87 5f 83 3c 13 21 5c 3c 4e c7 d9 bb
       -0.02295976 0.016036762 0.01343562 -0.0066460734
0001c0 fb 97 45 bc fe 2d 2b ba fc f1 26 bc 9c ac cc 3c
       -0.012060161 -0.00065299857 -0.0101895295 0.02498465
0001d0 1e e5 c9 39 42 2c 31 bc 9a f2 05 bb 89 85 19 3b
       0.00038508413 -0.010813775 -0.0020438791 0.002342554
0001e0 e1 03 25 bb c6 5c d3 bb 11 09 56 3c 0c ce bc 3b
       -0.0025179314 -0.0064502684 0.013063685 0.0057618674
0001f0 11 25 07 bc 49 67 47 bc a1 8c 40 3c 51 57 95 3b
       -0.008248583 -0.012170621 0.011752279 0.004557528

layers.2.0.weight f4 [64, 128]
000000 47 3e 49 bb 73 0c 37 3e 99 d6 0f bd c9 32 c7 bd
       -0.0030707286 0.17875843 -0.035116766 -0.097264834
000010 23 5b 3a be bc 0e 87 bb 71 27 6a 3c b3 19 48 3e
       -0.18198828 -0.0041216295 0.01429163 0.19541053
000020 80 bd 5d bd 8c aa 0e 3b 88 ef e2 bc a0 51 05 3e
       -0.0541358 0.0021769134 -0.027702108 0.13019419
000030 8c c5 0b 3e 0d c5 23 be 45 8c b4 bd da aa 00 be
       0.13649577 -0.15993138 -0.08815817 -0.12565175
000040 c4 33 e8 3c 69 9c 93 bd 5c e1 14 3c 06 be c7 bd
       0.028344996 -0.07207567 0.009086933 -0.09753041
000050 fd d1 8a be f5 4d 80 3e e4 de 30 3e e7 e9 16 3e
       -0.27113333 0.25059476 0.17272526 0.14737664
000060 a1 3d 54 bc 64 a2 44 be 24 46 99 be 74 3c 87 3c
       -0.012954147 -0.19202572 -0.29936326 0.016508318
000070 c0 c4 01 be ec 21 5b 3e 60 1e b9 3b 40 f1 b7 bd
       -0.1267271 0.21399659 0.005649373 -0.08981562
000080 9a ae 21 be 68 2e 8d 3d 8d a8 4d be 50 58 86 3c
       -0.15789261 0.06893617 -0.20083828 0.016399533
000090 7b d6 01 bd ee d9 eb bc cc 85 b2 bd dc 5b 81 bd
       -0.031698685 -0.02879044 -0.08716926 -0.06316349
0000a0 a5 cb b2 3d 1c 85 43 3e 67 b1 f3 3c b7 48 4b 3e
       0.08730248 0.19093746 0.029747678 0.19851957
0000b0 be 3c 49 3d 7c ef e3 3d d0 e5 43 bd c9 a8 c9 bd
       0.049130194 0.111296624 -0.04782659 -0.09846646
0000c0 20 12 f4 3d 9a c1 f7 bc a2 a6 94 b9 ca d8 f4 bd
       0.119175196 -0.030243684 -0.0002835291 -0.11955412
0000d0 4f 87 82 3c bc 9e 63 3e 9c ea 2e be 10 33 4d b9
       0.01593366 0.22228521 -0.17081684 -0.00019569346
0000e0 53 7f 9f bc 15 0e 31 bd 9b 33 77 3d 2d ec 44 bd
       -0.019469893 -0.04322632 0.06035195 -0.048076797
0000f0 b8 3e 90 3e b6 3a 1c 3e 02 a5 13 be b8 bb 84 3e
       0.2817285 0.15256771 -0.14418414 0.25924468
000100 d2 f5 ee bc e1 98 86 3e a0 98 06 be a9 2e 81 3d
       -0.02916995 0.26288512 -0.1314416 0.06307728
000110 dc ea af bd 11 87 33 bc 9e 36 d1 3a 63 ee 95 bd
       -0.08589718 -0.010957495 0.0015961712 -0.07320859
000120 86 da b8 3c 7b c0 aa 3d 0e 6e 73 3e 48 a5 35 be
       0.022565138 0.08337494 0.23772451 -0.17738831
000130 21 1b d6 bd 36 91 8a be e0 18 c4 bd d6 db 30 3e
       -0.10454393 -0.27063912 -0.09575057 0.17271361
000140 3e 26 07 be 59 17 bd bd 54 f7 93 bd e6 f6 d3 3b
       -0.13198182 -0.09232969 -0.072249085 0.0064686416
000150 a5 6b d3 bd 39 e4 16 3e 26 a2 1e bd 60 01 a9 3d
       -0.10323266 0.14735498 -0.038728856 0.082522154
000160 12 df b3 bd bb 64 11 3c 3b 65 89 3d bf e9 67 3d
       -0.08782782 0.008874114 0.06708761 0.056619402
000170 22 dd 33 3d 78 ba fb bd 9d 6d 59 bd 87 f5 f2 bd
       0.04391206 -0.122914255 -0.05308305 -0.11863237
000180 20 23 17 be 4e dd 13 be 8a 5f 9a 3c fc cd b5 bc
       -0.14759493 -0.1443989 0.018844385 -0.022192948
000190 46 f7 66 bd b5 72 2b bd 64 b9 04 3d 38 1a a8 3b
       -0.056388162 -0.04185744 0.032403365 0.0051300786
0001a0 aa 19 c0 3c 3b f0 9d 3d 0e 82 9f bd 9a e3 11 3d
       0.023449738 0.07711836 -0.07788478 0.03561745
0001b0 17 ef 69 bd ac ca 2d 3d 77 cf 92 3d 14 0b e6 3d
       -0.05711278 0.04242961 0.07168477 0.11232582
0001c0 ed d2 11 be 17 10 82 3d 34 36 50 bd 00 6b 4e bd
       -0.14240618 0.06350725 -0.050832942 -0.050395012
0001d0 9d 0d 43 3d eb b1 1a 3e 99 a5 8f 3d 27 fe 30 be
       0.047620405 0.15106933 0.07014007 -0.17284451
0001e0 3b 30 ce 3d 2f f1 fc bd 2e 32 bd 3c 94 54 06 be
       0.10067793 -0.123506896 0.023095217 -0.13118201
0001f0 5e 4d 42 3d cb c0 91 bd f4 ab 31 bb a4 8e 20 3e
       0.047437064 -0.071168505 -0.0027110549 0.15679413
000200 ae cc c9 bc 3f ce 63 bc 72 af 19 bd ff 85 a0 be
       -0.024633732 -0.013904153 -0.037520833 -0.3135223
000210 81 c6 0b 3e e5 43 3c be d9 cc 05 3e 9d d0 7a 3d
       0.13649942 -0.18385275 0.13066424 0.061234105
000220 41 ef 15 bd 99 4a d0 3d cf 3f 6d be 6d af 53 be
       -0.036605123 0.101704784 -0.23168872 -0.20672388
000230 93 ad e0 3c 8e 0d 71 3e 2b a1 6f 3e 67 8a 19 bd
       0.027426517 0.23540327 0.23401324 -0.037485506
000240 01 cf e3 3d 90 3a 76 b9 d0 9d 28 be fa a6 e6 bd
       0.11123467 -0.00023482204 -0.1646645 -0.11262317
000250 ef 1d ed 3c a0 8b b1 3d ca 2f 1b be 9e 29 5e bc
       0.028944938 0.086692095 -0.15154949 -0.013559727
000260 c0 2d af bd 31 fa a7 3d 61 5c 6e bd af 79 b2 bd
       -0.08553648 0.08202017 -0.05819357 -0.087146156
000270 bf 7a 91 3e 68 dd 13 be 65 25 d0 3d 24 c2 fe 3d
       0.2841396 -0.14439929 0.101633824 0.12439373
000280 f9 13 13 3e 6f 63 d7 bd 06 bc 5e be cf 97 75 3e
       0.14363088 -0.10517012 -0.21751413 0.23983692
000290 ce c4 c5 bc 4e 9e 57 bd 5c c5 67 be 73 00 39 be
       -0.024141695 -0.052641205 -0.2263388 -0.18066578
0002a0 51 eb b1 bc a7 28 9d bd 17 08 26 be c5 01 b2 3d
       -0.021718653 -0.076737694 -0.16214024 0.08691744
0002b0 fc 81 95 bd 92 3a bb 3d a0 b1 a2 3d b6 fb 10 3d
       -0.07300183 0.09142031 0.079440355 0.0353963
0002c0 b0 9c 09 be 96 25 6a be 34 c3 6e 3e 86 31 e6 3d
       -0.13438678 -0.228659 0.23316652 0.112399146
0002d0 76 45 e1 3c d9 48 7b bd a2 e7 45 bc a9 e8 e6 3d
       0.027498942 -0.06134877 -0.012079151 0.11274845
0002e0 a9 61 5c bd 9f 36 7c bd 8e 29 ae 3d fa c5 23 bc
       -0.053804073 -0.06157553 0.0850402 -0.009995932
0002f0 4a 76 d5 3d c4 50 9b 3d 23 4f 29 be 13 15 47 bc
       0.104229525 0.07583764 -0.16534095 -0.012151021
000300 90 b2 c0 bc 2e c0 51 3c df f7 7f 3d 0c 49 00 3d
       -0.023522645 0.012802167 0.062492248 0.031319663
000310 dc 1a e2 bd 4e 1e 46 3d 65 25 09 3d 37 5f 07 3d
       -0.11040279 0.048368745 0.033482928 0.03304979
000320 48 e7 06 3d 62 cd 12 be 25 ea fa 3c 5a 85 b0 3e
       0.03293541 -0.1433616 0.030629227 0.3447674
000330 5d cd 08 3d 06 fc 89 3e 04 2a 41 be df 3d bd bd
       0.033398975 0.2695009 -0.18863684 -0.092403166
000340 4a 32 46 bc e3 6f fc 3d 94 5b b1 bd ac ee 57 bc
       -0.012096951 0.12326028 -0.08660045 -0.013179462
000350 9c bd fd bc d8 39 44 bd 9f e3 9b be 24 e0 57 bd
       -0.030974202 -0.047906727 -0.304471 -0.05270399
000360 cb ca e8 3d c6 5a 95 3d 1a be 3c bb f7 78 e4 3d
       0.11366805 0.07292704 -0.0028799833 0.11155885
000370 5c 2d 36 3e 02 c2 db bd 41 35 f3 3c dc 74 25 3c
       0.1779074 -0.107303634 0.02968848 0.010098662
000380 65 f1 43 bd 96 e4 a7 3d a4 1b 07 be ff f1 27 3e
       -0.047837634 0.08197896 -0.13194138 0.16400908
000390 1a 36 55 3e 8c c7 50 bd 9d 16 5e bd 7d be 2a bd
       0.2082142 -0.050971553 -0.054220784 -0.04168557
0003a0 54 4e 26 3e e6 6c 8c be 17 0a e5 3d 03 49 e2 bd
       0.16240817 -0.27426833 0.11183565 -0.11049082
0003b0 dc e9 b0 3d 71 f6 a5 3d 93 64 96 3d 6e 20 7f bb
       0.08638355 0.081036456 0.07343402 -0.0038929242
0003c0 22 62 1e 3e 3a f5 59 3e b9 e3 81 bd 83 d4 8a 3d
       0.15467122 0.21284953 -0.06342263 0.06778815
0003d0 63 66 ef 3b 13 cd b7 bd 66 bd 9c 3d ea ec 2a 3e
       0.0073059066 -0.08974662 0.076533124 0.16691938
0003e0 01 93 e3 bd 35 af 0f 3e 63 56 37 3d cb 29 ae 3c
       -0.11112023 0.1403168 0.04476012 0.021260163
0003f0 dd 02 9b bd dc c9 45 be ad 70 15 3d d5 15 30 be
       -0.075689055 -0.19315284 0.03648441 -0.17195828

layers.2.1.weight f4 [64]
000000 d1 c6 7c 3f ff 41 81 3f 79 dd 7f 3f 92 c6 80 3f
       0.9874087 1.0098265 0.99947315 1.0060599
000010 c8 3e 79 3f d6 90 7f 3f c5 20 81 3f af 82 7d 3f
       0.9736142 0.9983038 1.0088125 0.9902753
000020 2e e1 83 3f 00 24 82 3f 33 8c 82 3f 01 b9 81 3f
       1.0303094 1.0167236 1.0199035 1.0134584
000030 20 44 80 3f c9 4b 81 3f a1 df 7e 3f ce d1 80 3f
       1.002079 1.0101253 0.9955998 1.0064027
000040 2f 44 7d 3f d9 01 80 3f 92 1c 83 3f 1a 74 7d 3f
       0.98932165 1.0000564 1.0243094 0.9900528
000050 0d f6 7e 3f d3 95 80 3f 68 73 80 3f a9 68 7f 3f
       0.99594194 1.0045723 1.0035219 0.99769074
000060 d5 44 81 3f 2c 0a 7a 3f 10 5d 7b 3f 40 f7 7f 3f
       1.0099131 0.9767177 0.9818888 0.9998665
000070 81 ca 80 3f 48 2d 80 3f b4 91 7b 3f 27 41 7f 3f
       1.0061799 1.0013819 0.982692 0.9970879
000080 8d 8d 7b 3f 56 9f 82 3f 5a 93 7e 3f 51 cd 7d 3f
       0.98262864 1.0204875 0.9944359 0.9914141
000090 43 3f 7d 3f 8d d7 7c 3f 36 ff 80 3f 84 c3 7b 3f
       0.98924655 0.98766404 1.0077884 0.9834521
0000a0 80 2d 7e 3f 11 ff 7d 3f ec 49 80 3f 1b ca 80 3f
       0.9928818 0.99217325 1.0022559 1.0061678
0000b0 fa 05 83 3f f8 d2 81 3f 99 20 83 3f 02 59 81 3f
       1.0236199 1.0142508 1.0244323 1.0105288
0000c0 c9 86 79 3f a0 4c 7e 3f e0 56 80 3f fc 03 7e 3f
       0.9747129 0.9933567 1.0026512 0.9922483
0000d0 a2 ba 83 3f 5d ba 7c 3f 00 35 80 3f ba 4a 80 3f
       1.0291331 0.9872187 1.0016174 1.0022805
0000e0 c6 9b 7f 3f 82 e6 7d 3f 35 66 7d 3f 3c ca 80 3f
       0.99847066 0.9917985 0.9898408 1.0061717
0000f0 9a 3f 80 3f 00 5d 81 3f 31 73 7a 3f 18 3a 81 3f
       1.001941 1.0106506 0.9783202 1.0095854

layers.2.1.bias f4 [64]
000000 95 a9 1f bc 98 3d 29 bc d7 90 c4 bb 62 8a 94 3b
       -0.009745021 -0.0103296265 -0.0059987116 0.004533098
000010 17 f4 98 bc 03 a7 90 bc a3 ba 14 bc a2 3b bc bc
       -0.018671079 -0.017657762 -0.009077701 -0.022977654
000020 5a e5 e1 3c 1d d8 14 3b 57 e1 9f 3c 1e cb 68 3c
       0.027575184 0.0022711821 0.01951663 0.014208583
000030 ae 1c 26 3c fc a7 a7 3b 30 ad a3 b8 77 37 23 bc
       0.010138674 0.005116461 -7.8047044e-05 -0.009961954
000040 da d4 1f bc 67 41 9c ba 10 4c 32 3c fb e7 9d bb
       -0.009755338 -0.0011921347 0.0108823925 -0.004818914
000050 7d 2e 37 bb 6c e2 89 3c fa d0 8e 3b 2f d5 5d 3b
       -0.0027951293 0.0168316 0.004358408 0.003384899
000060 1a bc fa 3a b2 e0 3b bc f3 ff 26 bc 20 d2 0c ba
       0.0019129545 -0.011467146 -0.010192859 -0.0005371887
000070 8b 2b ab 3c 75 ac 48 3b 84 93 7e bc 84 fb cf b9
       0.020894786 0.003062037 -0.0155381 -0.0003966951
000080 d3 04 ad bc 6e e5 1f 3c f5 db 3b bc 09 24 08 ba
       -0.021120464 0.00975929 -0.011466016 -0.0005193358
000090 85 ae 38 3c 33 49 ea bb d3 a0 33 3b bc a5 9c bc
       0.011272077 -0.0071498393 0.002740909 -0.019121997
0000a0 23 f6 6d bc d2 28 2d bc 66 96 05 bb 1a 89 37 3c
       -0.014524016 -0.010568814 -0.0020383834 0.011202121
0000b0 ce 9b b1 3c 39 57 45 3c ac 7e c9 3c f6 6b 17 3c
       0.021680739 0.012044721 0.024596535 0.0092420485
0000c0 be ba 42 bc df 9d dd 3b fa a4 e3 3a 0e 7c 1f bb
       -0.011885343 0.0067632045 0.0017367892 -0.0024335417
0000d0 be 12 ea 3c 6f 0b 02 bd 01 a7 09 3c 64 34 09 bc
       0.02857339 -0.031749185 0.008401633 -0.008374307
0000e0 b4 ac 91 bc 5e 8a 0d bb c8 b9 ec bb 78 86 36 3b
       -0.017782547 -0.0021597366 -0.0072242953 0.0027851146
0000f0 9e cd ee bb 67 3c 89 3c 85 1f 40 bb 27 62 5b bc
       -0.007287695 0.016752435 -0.0029315662 -0.013390101
