test/output/local1/simulatorRun/fsv_volumes_from_scratch/fold_6/best.nn.pt (torch_old, 737324 bytes, 42 tensors)

layers.0.0.weight f4 [256, 66]
00000000: d6a3 88bd b9ad 20be e6fb 31bd 9bd8 2cbe
00000010: 8915 58bd f173 54be 8d49 363e 0105 0fbe
00000020: 007c 803d 5f5d 043e f989 32bd 20c0 763e
00000030: d40d 303e d250 ce3d 40c5 933e c3e6 54be
00000040: aefb e73e ad41 59be 2aed 00bd f94a 293c
00000050: d2d7 ab3c 63d8 453e 1abb db3d 9e68 f73e
00000060: 3bb4 fcbb 38ac 943d 8b31 04be 378c 7f3e
00000070: e73c a0bd 7876 3b3d 3616 5a3e 267a c93d
00000080: 815f d0bd 3af5 8fbe fd4b a5bd 4da1 593e
00000090: 9d6f c23c e65e 0a3e aa4f 073e badb 61bd
000000a0: 7dc9 1bbe e8e9 353e c89b 2cbe 5adf 07bc
000000b0: aa21 b43e 53dc 833e 0094 ed3d 1b50 aa3d
000000c0: 7c77 433b 2911 15bd c8bc 79be 2ea5 9bbe
000000d0: eec4 c3bd 7d24 0abd af20 43bc 6796 2a3e
000000e0: ce09 e9bc 55fe 1c3e 991c 0c3e af4f 923e
000000f0: 3a0f d2bc 021c adbe e7e0 863e 30fb 933c
00000100: fed5 25be d385 e13c b080 71be bb13 54bd
00000110: 74f5 7fbe 85bc 36be cca2 a73e f425 02be
00000120: 49ef 81bd 1dc3 3d3d edd4 aabd 6693 19bd
00000130: 3c01 603e b2ac 833d 5274 82bc ab03 e23c
00000140: 639b 1abe e664 cebd 4c2a ed3d 65a2 fb3d
00000150: 5327 47bd 0e3d c1bd d6b5 cf3d 35a8 203e
00000160: 5d2d a93d d556 5a3e 3881 733e c676 7c3e
00000170: 1c41 ad3c c139 7bbe 55a3 b5bc a9d9 2e3e
00000180: 0d01 b6bc 71e8 023e e4ca a6bc 6880 2fbe
00000190: 8bd3 943c f17b 253e ee04 b3bd 2c12 8dbe
000001a0: fe2e 87bb 744a 5abe 7b64 d23c 494b 223e
000001b0: dafb 483d 5c2d 7ebe 315b a5bd ff1a 9fbd
000001c0: b2b3 56be 47e6 c63e 692b a63c 54c1 113c
000001d0: 2b87 2cbe e7c8 c2bd e5e3 0ebf d783 8d3e
000001e0: 8909 bb3c a568 d1be 3c44 22be 8643 05bb
000001f0: 1c55 c3bd d55b 2ebe 9d34 553e 8b27 9cbd
00000200: b0af f8bd fcfa 883e d31d 4abe c569 4dbd
00000210: f171 83bd 78fd 3f3e d6ad 94bc f838 96be
00000220: e40f 083e 305a 813e 8b0f 57bd 78e7 d4bc
00000230: a52b 0ebd 0e65 bd3c 177c 253d 4c55 01be
00000240: b565 753e 263b 623d 6fad 7dbe 87da 1e3d
00000250: 8fb7 73be 37c3 8f3c cba3 00be 7b2b 60be
00000260: 4d4e a5bd b7a5 9cbe 4459 a23d 08ca 28be
00000270: 36b1 bebc 874c e9bd e272 e0bd 954b c63d
00000280: 6e9e 5ebe be16 8a3e b269 d4bd db36 c0bd
00000290: 1269 153e a46c 613d 7a79 66bc cae0 413e
000002a0: 2944 bebc 14d2 43bd 4b07 83bb ccf4 183e
000002b0: 9120 8a3d 3d57 a5be ea49 093e 2e89 153c
000002c0: 35fb 13be c1d7 cd3e cfb0 fb3d 426e c7bd
000002d0: 4515 54bc a237 debd 21dc 73be 23cd f53c
000002e0: 83cd 393d c132 8a3d 01df c7bb 4581 a93e
000002f0: a81e 1e3d a20e 893c b7a1 08be 2955 c5bd
00000300: 6647 4dbe 373b a53e 5e52 9a3e 3d0d 073e
00000310: f163 4dbe e030 e9bc 7846 903c cd6c 043e
00000320: 3369 3bbe bca9 adbe 6c9c 253d c490 233d
00000330: d614 4e3e ed92 5c3e bc0a 643c ed0d 87be
00000340: 6281 c53d 1fd2 6abd 217e b33e a2b9 86bd
00000350: c436 c5be 319f a83e b4c0 3fbe 9966 fb3d
00000360: 8463 5fbd 3130 c23e eed5 29bd d71d 563e
00000370: aaae c7bd b5af 29be 2660 993e 0f7c a33e
00000380: 7c69 213e 8cf2 46bd d952 20be 70da 9f3d
00000390: f23d 803e a12a 5f3e 48b0 b9bd fa62 29be
000003a0: 1e30 50be a979 17be 4819 3b3d d8a0 cdbd
000003b0: d765 93be c757 c5be 1782 07bd 4f9f 82be
000003c0: 4d38 773e c71f 42be 0d6b e63d 6326 cdbd
000003d0: 1de2 22bd e4a9 283e 3a6c c43d 8d86 0fbe
000003e0: 7217 b83d 56dd 0d3e 232a dc3e 693d 34be
000003f0: e5b5 6d3d 2d23 35bd a40f 2f3e 2655 dbbd
-0.06671874 -0.1569127 -0.04345312 -0.16879503 -0.052754913 -0.20747353 0.17801495 -0.13966753
0.06273651 0.12926243 -0.043588612 0.24096727 0.17192775 0.10074009 0.28861427 -0.20791154
0.45309204 -0.2121646 -0.031476177 0.010332816 0.020976935 0.19320826 0.10729046 0.48322004
-0.007711915 0.072594106 -0.12909524 0.24955831 -0.07824116 0.045767277 0.21297535 0.09837751
-0.10174466 -0.2811678 -0.08071134 0.21252938 0.023734862 0.13512763 0.13213983 -0.05514119
-0.1521358 0.1776501 -0.16856301 -0.008292997 0.35181934 0.25754032 0.116004944 0.0831606
0.0029825857 -0.03639332 -0.2438842 -0.3039946 -0.09559046 -0.033726204 -0.011909648 0.16658936
-0.028447058 0.15331395 0.13682784 0.2857642 -0.025642026 -0.3381043 0.26343462 0.018064111
-0.16194913 0.027529633 -0.23584247 -0.05177663 -0.24995977 -0.17845352 0.32741392 -0.1270979
-0.06344468 0.046328653 -0.083413936 -0.037494086 0.21875471 0.064294234 -0.015924606 0.02758964
-0.15098338 -0.100778386 0.11580333 0.12286834 -0.048621487 -0.094354734 0.10142104 0.15689166
0.082606055 0.21322186 0.23779762 0.24654683 0.02114921 -0.2453375 -0.02217261 0.17075218
-0.022217298 0.12783982 -0.020360418 -0.17138827 0.018167278 0.16160561 -0.08741175 -0.27552927
-0.004125475 -0.21317464 0.025682678 0.15849032 0.04906831 -0.2482199 -0.08074034 -0.07768821
-0.20966986 0.38847563 0.020284371 0.008896191 -0.16848437 -0.09510975 -0.5581649 0.27639648
0.022831695 -0.4090015 -0.15846342 -0.0020334437 -0.09537718 -0.17027219 0.20820852 -0.0762473
-0.12142885 0.26753986 -0.1973794 -0.050149698 -0.06418217 0.18749034 -0.018149298 -0.2934034
0.13287312 0.2526412 -0.052505057 -0.02598928 -0.03470959 0.023119476 0.040401544 -0.12630194
0.2396458 0.05523219 -0.24773191 0.038782623 -0.23800491 0.01754914 -0.12562482 -0.21891586
-0.08071575 -0.3059518 0.07927182 -0.16483319 -0.02327786 -0.113915496 -0.10959412 0.09682385
-0.21740124 0.26970476 -0.10371722 -0.09385463 0.14590862 0.05503525 -0.014067048 0.18933406
-0.02322586 -0.047807768 -0.003998672 0.14937133 0.06744493 -0.3229312 0.13407102 0.0091269445
-0.14451297 0.4020367 0.12289583 -0.09737827 -0.012944524 -0.10850455 -0.23814441 0.030005043
0.045362007 0.06747962 -0.006099582 0.33106437 0.038603455 0.01673061 -0.1334294 -0.09635384
-0.20046768 0.3227174 0.30140966 0.13188644 -0.20057656 -0.028465688 0.017611727 0.12932129
-0.18301849 -0.3391856 0.04043238 0.03993298 0.20125136 0.21540423 0.013918575 -0.26377812
0.096438184 -0.057329293 0.35057166 -0.065783754 -0.38518345 0.32933953 -0.18725854 0.12275428
-0.054538265 0.37927392 -0.041463785 0.2090982 -0.097501114 -0.16570933 0.29956168 0.31930587
0.15762895 -0.048571154 -0.15656604 0.078053355 0.2504726 0.21793605 -0.09066826 -0.16541663
-0.20330855 -0.14792503 0.045678407 -0.10040444 -0.28788635 -0.3854353 -0.033083048 -0.25512168
0.24142571 -0.18957435 0.11250887 -0.10017087 -0.03976642 0.16471058 0.09590955 -0.14016171
0.08988847 0.13853964 0.43000898 -0.17601551 0.058034796 -0.044223 0.1709581 -0.107096

layers.0.1.weight f4 [256]
00000000: 31e6 7a3f ad0f 783f a0ac 823f 7277 7b3f
00000010: afe8 883f 141e 743f ab21 703f d15e 743f
00000020: 5ad5 803f c785 6d3f d49c 7d3f b7d4 823f
00000030: 696d 763f 9a75 843f 85af 753f 8f0c 803f
00000040: 0885 833f b27e 803f c316 9d3f 5e77 833f
00000050: a073 7d3f 3b97 803f bdac 793f 4f9f 7c3f
00000060: 34b8 703f 5e0b 7c3f 3a15 823f 0335 833f
00000070: 9c16 893f b3b2 883f 1c99 7a3f 5a71 7c3f
00000080: a6cc 793f 88d2 833f 83d1 733f 448b 8a3f
00000090: e78a 7a3f 2ee4 7b3f 50bd 913f 8839 833f
000000a0: c4bf 7a3f 1c59 773f 15d0 6b3f 6c66 813f
000000b0: 192e 903f f197 803f 0216 7d3f c347 883f
000000c0: 6981 7d3f ae5a 803f d466 893f 02fa 7c3f
000000d0: b82b 783f 695c 773f fdb8 913f 539f 7b3f
000000e0: 14ed 6e3f 1aa0 7e3f 91c2 803f f3a8 7f3f
000000f0: df84 813f 413c 7d3f 3b59 753f 3d52 863f
00000100: 5ddc 743f c224 7c3f 8c27 753f 3feb 7d3f
00000110: e0cc 773f 6ce3 843f a430 743f 9334 863f
00000120: 55ba 7c3f d2d6 823f aad2 753f 89d8 6b3f
00000130: 965f 823f b994 7c3f b256 7b3f e82b 843f
00000140: d360 823f 4516 753f 3029 843f e1a6 703f
00000150: fd0b 6d3f 3334 803f 5428 763f 0417 753f
00000160: 5816 7b3f e683 803f 1512 7c3f ff72 733f
00000170: 6de7 7f3f ce8c 6f3f 7056 7f3f 0b98 783f
00000180: fcc0 833f eb52 803f d30c 863f 2dcb 8f3f
00000190: 08fd 773f 9655 703f 0c29 743f f0f9 6f3f
000001a0: eb19 803f 1238 783f 6ce3 723f 3c43 7e3f
000001b0: 5e0b 753f 29a7 7c3f 2eb0 713f be10 793f
000001c0: e534 863f 6266 883f 2c1f 863f 50a6 753f
000001d0: 8547 823f 9f42 7a3f 8d3e 7d3f 8124 753f
000001e0: 4b6b 713f 6279 7d3f 51a3 783f 59be 7b3f
000001f0: 92f9 813f 05a4 753f df22 7d3f 9490 7a3f
00000200: f8e1 863f d91a 703f 4dc3 793f dd8b 7f3f
00000210: 20a7 813f 3646 813f 7ad5 783f ae98 923f
00000220: 7640 7f3f 8b9b 833f 4344 823f 3373 783f
00000230: d935 853f 8ab5 823f 9818 873f 99a0 793f
00000240: 2697 7c3f 442f 7b3f 6b98 7e3f ebd6 7e3f
00000250: ade4 823f 529d 773f 97cf 7a3f b20e 833f
00000260: b64b 743f a3a0 7f3f 4a58 813f 0f8d 803f
00000270: 668c 753f 9366 813f 9a60 873f f45c 7f3f
00000280: 65aa 7c3f b821 853f 68e9 6d3f 98b0 723f
00000290: 27e8 843f 6e48 813f e657 7f3f 96ba 793f
000002a0: 6725 823f 92cb 713f 0726 7d3f 3041 793f
000002b0: f654 843f 9d9a 683f 876d 7a3f b41d 843f
000002c0: f813 793f fa99 683f e706 733f 6b1f 7f3f
000002d0: c163 763f 2145 723f aa8b 813f d4fa 8e3f
000002e0: d27c 853f 00fe 843f 284a 7b3f 8e13 803f
000002f0: 283c 843f fcf0 773f c746 8d3f b68e 853f
00000300: 016a 683f 8e99 7e3f 4ca8 7e3f d68f 853f
00000310: 8b97 873f 2537 803f f6f9 7c3f b6fc 803f
00000320: 20f5 883f 61f8 803f 4550 773f b2cd 793f
00000330: e116 763f b384 783f f6ce 7e3f cf9a 7d3f
00000340: 4275 753f 669d 803f ab40 703f bd2d 743f
00000350: 96d8 903f 5864 833f 1452 833f 2432 7d3f
00000360: 05b9 7b3f faf5 6e3f ca60 793f 4df3 763f
00000370: e012 823f d70f 743f a7a3 7a3f 3376 7d3f
00000380: 9e4f 713f 103e 6e3f 97a1 863f 3b63 773f
00000390: fcef 803f f9e3 713f 23a4 783f 6c5d 783f
000003a0: 013f 7c3f 4b02 7b3f 845b 7a3f e27e 893f
000003b0: 11e0 883f e4ec 833f abe8 723f 2a0b 863f
000003c0: ff64 8f3f ec8e 743f 16e8 803f 63f3 7a3f
000003d0: 9d48 7d3f 548b 783f 1843 6b3f cf75 7e3f
000003e0: 743b 7b3f 8bec 793f 7a84 7c3f 1df6 743f
000003f0: 806d 893f 13a6 803f e5ae 873f 4b17 823f
0.98007494 0.9689892 1.0208931 0.98229134 1.0696009 0.95358396 0.93801373 0.9545718
1.006511 0.92782253 0.99067426 1.0221165 0.96260697 1.0348389 0.95970947 1.0003833
1.0274973 1.0038664 1.2272571 1.0270803 0.99004555 1.0046152 0.975292 0.98680586
0.9403107 0.98454845 1.0162728 1.0250553 1.0710025 1.0679535 0.97889876 0.9861046
0.97577894 1.0298624 0.95241565 1.082375 0.978682 0.9839505 1.1385899 1.0251932
0.9794886 0.96620345 0.92114383 1.0109382 1.1264068 1.0046369 0.98861706 1.06469
0.9902559 1.0027673 1.0734506 0.9881898 0.9694171 0.9662538 1.1384579 0.98289984
0.933305 0.99463046 1.0059377 0.9986717 1.0118674 0.98920065 0.9583928 1.0493847
0.9564875 0.9849359 0.9576347 0.9918708 0.9679699 1.0381904 0.9538672 1.0484794
0.9872182 1.0221808 0.9602457 0.9212728 1.018542 0.9866443 0.9817916 1.0325899
1.0185798 0.95737106 1.032507 0.94004637 0.9259642 1.001593 0.96155286 0.95738244
0.9808097 1.0040252 0.9846509 0.95097345 0.999625 0.93574226 0.9974127 0.97107
1.0293269 1.0025305 1.0472664 1.1233879 0.9687047 0.93880594 0.9537513 0.9374075
1.000791 0.96960557 0.9487827 0.9932134 0.9572047 0.98692566 0.94409454 0.9729117
1.0484892 1.0656245 1.0478263 0.959569 1.0178076 0.97757906 0.9892357 0.95758826
0.9430434 0.9901334 0.971242 0.9833732 1.0154288 0.959534 0.98881334 0.9787686
1.053771 0.93790966 0.9756363 0.9982279 1.0129128 1.0099552 0.9720074 1.1452844
0.99707735 1.0281843 1.0177082 0.9705078 1.0407058 1.0211651 1.055438 0.9751068
0.98668134 0.98118997 0.9945132 0.9954669 1.0226036 0.96724427 0.97973007 1.023886
0.95428026 0.9985449 1.0105069 1.0043048 0.95917356 1.0109428 1.0576355 0.9975121
0.986975 1.0400915 0.92934275 0.9480071 1.0383347 1.0100229 0.997435 0.9755033
1.0167664 0.9445125 0.9888615 0.97365093 1.0338428 0.9086092 0.97823375 1.0321565
0.97296095 0.9085995 0.9493241 0.99657315 0.9624596 0.9463673 1.0120747 1.1170297
1.0428717 1.0390015 0.9816003 1.0005968 1.0330858 0.9685209 1.1037225 1.0434177
0.9078675 0.99453056 0.9947555 1.043452 1.0593122 1.0016829 0.9881891 1.0077121
1.0699806 1.0075799 0.96606857 0.9757949 0.9612866 0.9707748 0.9953455 0.99064344
0.95882046 1.0048034 0.93848675 0.9538229 1.1316097 1.0264997 1.0259423 0.98904634
0.9832919 0.9334408 0.97413313 0.96465 1.016201 0.9533667 0.97905964 0.9900848
0.9426211 0.9306345 1.0518063 0.9663579 1.0073237 0.94488484 0.9712545 0.9701755
0.98533636 0.98050374 0.9779589 1.0741847 1.069338 1.0306668 0.94886273 1.0472157
1.1202697 0.9553058 1.0070827 0.9802763 0.98938924 0.970876 0.9189925 0.9939851
0.98137593 0.9762656 0.98639643 0.9568804 1.0736542 1.0050682 1.0600249 1.0163358

layers.0.1.bias f4 [256]
00000000: 39d0 5abc c0a8 60bc c6bd c53c 1f29 833b
00000010: e870 bc3d a6eb 68bd 1de3 38bd 8ebb 79bc
00000020: ee1c f0bc 13ca 8abd 98d0 8b3b aad6 3c3c
00000030: 0b22 dabc 84db c3bb ac82 e3ba 340a 983d
00000040: 822b 6f3d 1eb6 cd3c ac08 6f3e e5a9 813d
00000050: b69b 6bbd c17f 693c aa06 9d3a 11aa 3fbc
00000060: 6a12 eabc d770 19bc a06a 893c f459 aa3d
00000070: 1d62 1c3d a356 d13c 7d68 6ebc cc62 b2bc
00000080: a835 a1bc 89a9 973d 398a 4cbd b878 ad3c
00000090: 2b02 37bb 4ace 4ebc 22e6 b63d 0ca8 483c
000000a0: 5b6a 7bbc e65f 8e3c 1888 8abd d909 283d
000000b0: eb2b 993b 213e 9c3c a5b8 de3c 765f d83c
000000c0: ce0b 5d3c b5d3 943c d989 333c 7c99 123d
000000d0: ca2e 9cbc d226 c1bc fff4 693d f0f6 373c
000000e0: 0c62 53ba 0527 95bb 368a 193d 402f ad3d
000000f0: 3757 053d eb50 49bc 9614 5bbd c719 533d
00000100: c7e2 08bb 9a5d e7ba 800c 1b3a 3df5 83bb
00000110: 5bde 073c 129f 203d 2dde efbc 0c1d 603d
00000120: 578f c1bc 6ab7 993c ecac af3c 4a97 89bd
00000130: c19c 2a3d 1432 d4bc 14d2 ffba 0c29 6d3d
00000140: 1e60 413d eaf9 be3b 62e5 143c 4914 58bc
00000150: 3641 78bc 0bc9 053c 9c47 cebc db5a cfbc
00000160: 15e0 3ebc da06 c33c f66b 233d a73c 63bd
00000170: cc4f 683b a2b1 92bc d5be 1c3d 8bdc d63c
00000180: 7188 433d f7f1 0dbc c858 893d 512f c23d
00000190: e735 793b fa30 cabc aa84 1bbc bb18 d7bc
000001a0: 2507 73bb 72b6 1bbb 5acc 10bd 20a9 163b
000001b0: df48 d3bc a7f8 c53c 482a cb3c 2ef5 5f3d
000001c0: 2ec4 ca3d de65 9d3d 9fba 843c 885a d1bb
000001d0: 2388 793d 0e70 4b3b 50f6 c43a 19ee f8bc
000001e0: e304 21bb e7aa 433c 789a 39bc 989f a4bc
000001f0: 623b 3f3c 9bbd 9fbc f1f6 58bc 7169 72bc
00000200: 353a f33c b162 bebc 2381 de3a 48ce 0d3d
00000210: 2713 5abc bf14 b8bc 6067 abbb 0338 0a3e
00000220: 07a9 9a3c c626 203d 022b 00bc b9f0 ddbc
00000230: 82bd 843d 6b56 8d3c f93c e63d 5e7a 09bc
00000240: 4468 24bb d948 84bb 790a b7bc d2eb d8bb
00000250: bac7 4f3d 8465 01bd 212e 8bbc 7e22 673d
00000260: 0701 edbc e091 9abb cc0e 843c e26f ad3b
00000270: 7445 30bd c7d6 51bc e52c c33d 3039 9e3d
00000280: 4e6f 42bc db3f fd3d efc6 6ebd 7f87 d2bc
00000290: ebb5 9f3d 645e a03c dd58 453c 4b2f 01bc
000002a0: 0961 3b3d 7983 e7bc 12bf 8ebb acac 9dbc
000002b0: 4115 db3d bbc2 1fbd a2dd fdbc 96ee 013c
000002c0: 239d 49bc ce67 5fbd 60b5 26bd 43ca 80bc
000002d0: 82af c83a 8734 4abd 0120 113d a22d ba3d
000002e0: 27be 0c3d 609c 273d 6550 fcbb 2ebf a23c
000002f0: 7abc bc3c 74bb 603c 9e0c 963d cffe 1d3d
00000300: fe3e 80bd a898 6a3c 60e5 2c3d fc2e 643d
00000310: bfb2 d33d e440 963d d0da 79bc e704 a93c
00000320: d6c2 163d 05b6 c13b ba26 103a 49a3 133c
00000330: 1134 7fbc bae9 1fbd 799a fe3c 4e8f 7d3c
00000340: 4ec4 11bb 7ad7 70bd 2fa0 31bd 94d4 ad3c
00000350: 2b07 2f3d bf39 b53c 70f3 37bb f466 a63c
00000360: a4ee 243c 4d6a 80bd 4120 31bc 216d 6fbb
00000370: 68e4 c0ba 808b 7bbc e81d b33c d4f7 8dbc
00000380: e44b 38bd bfaa 203c abef 473d cbc2 b93c
00000390: ab02 603c 6a7b f2bc 635a 523c da8d fabc
000003a0: 59ed 983c d5ed e8bb 64fa c73c 71ec 873d
000003b0: 62c4 403d 45e0 663d 6275 a3bd ec6e 8c3d
000003c0: 64b8 1b3e c204 5cbd 9d94 16bd fa09 813c
000003d0: 3233 3cbb c3fb ddba eb97 f1bb 1a8f 2a3c
000003e0: 06a6 97bb 2fa4 e2bc 8176 a73c b475 fa3b
000003f0: 0df5 503e 3276 eb3c db71 983d fb04 c53c
-0.013355308 -0.013712108 0.024138343 0.0040027048 0.09201223 -0.056865357 -0.045138467 -0.01524247
-0.02931067 -0.06776824 0.0042668097 0.011525789 -0.026627561 -0.005977096 -0.0017357669 0.07423821
0.0583911 0.025111254 0.23343152 0.06331233 -0.057521544 0.01425165 0.0011980135 -0.011698262
-0.028573234 -0.009365282 0.016774476 0.083179384 0.038179506 0.025554007 -0.014551279 -0.021775626
-0.019678906 0.07405383 -0.049936507 0.021175727 -0.0027924876 -0.012622425 0.08930613 0.012247097
-0.015345181 0.017379712 -0.06764239 0.041025016 0.004674425 0.019072594 0.027187655 0.026412707
0.013491584 0.018167356 0.010958158 0.035790905 -0.01906528 -0.023578081 0.057118412 0.011228308
-0.00080636214 -0.0045517706 0.037485324 0.08456278 0.032553878 -0.012287359 -0.05348643 0.051538255
-0.0020887123 -0.0017651797 0.00059146434 -0.0040270374 0.00829276 0.0392142 -0.029280746 0.0547152
-0.02362792 0.018764216 0.02144476 -0.06718309 0.0416534 -0.025902785 -0.0019517564 0.057900473
0.047210805 0.005828132 0.009087892 -0.01318843 -0.015152266 0.008165608 -0.02518063 -0.025311878
-0.011650105 0.023806978 0.03989788 -0.055477764 0.0035447953 -0.017906968 0.03826793 0.02622821
0.047737543 -0.008663646 0.06706387 0.09481681 0.0038026513 -0.024681557 -0.009492079 -0.02625691
-0.0037083116 -0.002375987 -0.035351135 0.002298899 -0.025791584 0.024166418 0.024800435 0.05467718
0.099006996 0.07685445 0.01620227 -0.006388966 0.060920846 0.0031042132 0.001502702 -0.030386971
-0.0024569563 0.011942602 -0.011328332 -0.020095631 0.011671873 -0.01949959 -0.013242469 -0.014795647
0.029690841 -0.02324042 0.0016975742 0.034620553 -0.01331023 -0.02247083 -0.005230829 0.1349793
0.018879427 0.039099477 -0.007822754 -0.027092325 0.06481458 0.017253121 0.11242098 -0.008390991
-0.0025086561 -0.0040370044 -0.022343861 -0.006619909 0.050727583 -0.031590953 -0.01698977 0.05642938
-0.028931154 -0.0047170967 0.016120337 0.0052928785 -0.043034986 -0.012807555 0.09530047 0.077257514
-0.011867357 0.12365695 -0.058295187 -0.025699375 0.0779837 0.019576259 0.012045112 -0.007884811
0.045746837 -0.028260933 -0.0043562734 -0.019247375 0.10697413 -0.03900407 -0.030989472 0.0079304185
-0.012305531 -0.054542355 -0.040700316 -0.015721446 0.0015311094 -0.0493665 0.035430912 0.09090735
0.03436103 0.040920615 -0.0077000135 0.019866552 0.023039091 0.013716567 0.07326625 0.038573083
-0.06262015 0.014318623 0.042210937 0.05570887 0.103368275 0.07336596 -0.015249923 0.02063222
0.036806904 0.005911591 0.0005498935 0.009011098 -0.015576378 -0.03904126 0.031079518 0.015476061
-0.002224225 -0.058799244 -0.043365654 0.02121953 0.042731445 0.022122262 -0.0028068684 0.020312764
0.010066662 -0.06270275 -0.010810913 -0.0036533552 -0.0014716508 -0.015353084 0.021864846 -0.017330088
-0.04499425 0.009806334 0.04881255 0.022675892 0.013672511 -0.029599864 0.012838933 -0.030585218
0.018667864 -0.00710843 0.024411388 0.066368945 0.047062285 0.056366224 -0.07981373 0.06857094
0.15207058 -0.053715475 -0.036762822 0.015751828 -0.0028717038 -0.0016935993 -0.0073728464 0.010410095
-0.004627946 -0.02766618 0.02044225 0.007643426 0.2040598 0.028742883 0.07443591 0.024050226

layers.1.0.weight f4 [128, 256]
00000000: 2769 513d 3cad 9dbc c58a 0cbe 6ddf 333d
00000010: c684 f2bd e8aa 5d3d 6714 3f3d 0048 293e
00000020: 5482 85bd 0660 60bc 960e adbd de1e 2f3d
00000030: ff35 6a3b a3cb a83d d29f b73b 003b b2bd
00000040: 16bd 203e 6081 bdbd 1b27 8d3e d7ce b73c
00000050: 120c 32bc ae38 b2bc 4ef8 053d 0fe0 ba3d
00000060: 1bde 623d fe40 52bd de2d b7bd bafb 073e
00000070: ca75 873d f596 973c c608 bdbc 5a83 203d
00000080: c6eb 44ba b83e dd3b 3a79 e93d 699e 553d
00000090: f35a b1bc aa3d 3ebe 971b cd3c 9cdc e0bb
000000a0: bd13 1c3e 193c c5bd d851 5439 1a69 03bd
000000b0: ca37 e83d ca51 533d f475 103d d767 52bd
000000c0: b628 ef3d 5134 3abe 0f37 053e 6943 813d
000000d0: 7fb9 c63c a26b cabd 8445 6cbd b082 17bc
000000e0: 295a b6bc 799d 903d 757d 7dbc 27c7 83bb
000000f0: 374a 01be 41b7 913d 99a6 05be 80b5 393e
00000100: ab26 70bd 6dbf 0e3d b54f b2bd 8a97 023e
00000110: 3d07 073e 1ee5 fabc c085 873c 4ffd c7bd
00000120: 61dc ec3c c0c0 e7bd 020c ae3d b108 72bd
00000130: 94aa 41be 14fb 8e3d fd8c 72bd 5c23 c63d
00000140: 1c91 2dbd 69e2 d13d 8de5 5ebd cd52 043e
00000150: b6b2 34bc 0090 023e 5973 9dbb 06da cbbc
00000160: 578f b13d 2ee4 d2bd 1be7 8cbc b6eb 03bd
00000170: 33ee f43d 5481 c0bc 537f 07bc 1534 25bd
00000180: 225e 10be feff 9cbd b9ca 76bd b9a7 033e
00000190: cdac 343e 3abc fc3d ab81 2a3a 1a16 563d
000001a0: d651 b43d d447 ce3d e3a1 173d 30cf 053e
000001b0: 5f81 083d 652c 6b3d 801a 83bd 929a 5cbc
000001c0: f40a 0dbe 0ddc a3bd 0b12 3cbc 761a f93d
000001d0: 6bd4 91bb 710d 1d3e f723 debd 0d8f a33c
000001e0: 09b4 003e 0bf6 51bd 1a6c f8bd 95e2 18bd
000001f0: cb55 e0bc b646 bfbb 24d6 dc3c a7a7 4abc
00000200: e090 52bb 243e 9abd d29e 8ebd 894f 063b
00000210: a9a4 9dbd ddd3 283d 5527 553c c782 cabb
00000220: 2d17 bfbd 9594 b0bd 42cd e6bd 043c ec3c
00000230: 0a15 8cbc 1351 07be 87a9 b63c 1e7f 053c
00000240: 4214 5dbd 58c9 053d cd3c c9bd 56d4 fcbd
00000250: 06fe 88bd 544a 313c 122c d13d ef3f 13be
00000260: e2b8 b5bd 56f6 5dbd 0800 94be 0656 eb3c
00000270: e66f 0ebe 3bed 003e aabc 1f3e f5bc 3f3d
00000280: 8973 52bd 8531 d93d dac3 07be 9794 38be
00000290: 8684 053e 0b92 ca3d 09fc fa3d 7a5d ff3d
000002a0: 9455 663d 00fd ac3c 986e aebd 738d 00be
000002b0: 829c d1bd e957 193d e524 19be 62f9 0ebc
000002c0: 9e12 b4bd d3fd e7bd 4876 c8bd 38ec a5bb
000002d0: bc4b 193e 807b 9c3c b43b 44bc 6047 c2bd
000002e0: f149 50be 788c 073e ac12 e03c 094b d43d
000002f0: e100 463d 78c9 5ebd 9855 ffbd 42c7 c93c
00000300: e396 10be 1dfc 07be 7950 abbd 1d5c 89bd
00000310: 6073 bc3c 6027 813d 69d9 9c3a 76ba 373e
00000320: e294 19be a337 36bd 8359 8ebe a9e1 dbbd
00000330: e1cc c83d 946b 123e bc06 99bd b71c db3d
00000340: cf39 4ebd 4679 c7bd cce8 183d 5cee a13d
00000350: 3a00 a33c dd75 bd3d 7f8e bfbd d238 b5bb
00000360: 0da8 b4bd bc3d 013c 6e18 0abd cc3a 6cbd
00000370: b50a 38bd a9e6 6a3c e76a 45be 18c5 33be
00000380: ee94 a93d dab4 163d 3a93 67bd 14b4 353d
00000390: 5fcf 98bd e5ac 4dbd d159 11be 22e9 acba
000003a0: 3e98 07be 8b4e 8ebd 5476 bc3d 4ed9 9ebd
000003b0: 4d47 b23d c4b4 933d ff2b 353e 707c 6f3d
000003c0: be93 4e3c 362f 923d 795b b8bc 5abe a2bd
000003d0: fc19 f239 407f 1dbd 07dd 0e3e a9f2 3cbe
000003e0: 3bec 45bc 8114 1e3d f3b0 953d 0f82 93bd
000003f0: 19ce a23d 74d8 043e 729e bebc 5700 de3d
0.05112567 -0.019247644 -0.13724811 0.043914247 -0.11841731 0.054118067 0.046650317 0.16531372
-0.06518999 -0.013694769 -0.08450048 0.042754047 0.003573775 0.082419656 0.005603769 -0.087026596
0.1569713 -0.09253192 0.27568898 0.022437496 -0.010867136 -0.021755543 0.032707505 0.09124767
0.055387598 -0.051331513 -0.08944295 0.1327962 0.06614263 0.0185046 -0.023075473 0.039187767
-0.00075119396 0.0067518614 0.11400075 0.052153025 -0.021649813 -0.1857821 0.02503757 -0.006862236
0.15241905 -0.09630603 0.00020248385 -0.032082655 0.11338766 0.051591672 0.03526874 -0.05136856
0.11677687 -0.1818402 0.13009284 0.063116856 0.024258373 -0.098838106 -0.057683483 -0.009247467
-0.022259789 0.070612855 -0.015471806 -0.0040215435 -0.12625967 0.07115031 -0.13051833 0.18135643
-0.058630627 0.034850527 -0.08706609 0.1275312 0.13186355 -0.03062683 0.01654327 -0.09765112
0.028913679 -0.11316061 0.08498384 -0.05909032 -0.18912727 0.06981483 -0.05921649 0.09674713
-0.042374715 0.102482624 -0.054418135 0.12922211 -0.011028936 0.12750244 -0.0048050103 -0.024884235
0.08669918 -0.10297428 -0.017200043 -0.032207213 0.119594954 -0.023499168 -0.008270103 -0.040332872
-0.14098409 -0.07666014 -0.060251925 0.1285695 0.17644043 0.12340589 0.00065043074 0.05226717
0.088046715 0.10072294 0.03701962 0.13067317 0.033326503 0.057415385 -0.06401539 -0.013464587
-0.1377371 -0.08000956 -0.011478911 0.1216325 -0.004450371 0.15337159 -0.108467035 0.019965673
0.12568678 -0.051260035 -0.12129994 -0.03732546 -0.02738466 -0.005837287 0.026957579 -0.012369073
-0.003212981 -0.07531384 -0.06963886 0.0020494184 -0.07697422 0.041217674 0.013009866 -0.0061801407
-0.09330592 -0.0862209 -0.112696186 0.028837211 -0.017099876 -0.13214521 0.022297634 0.008147983
-0.053974397 0.03266272 -0.0982605 -0.12345187 -0.06689076 0.010820944 0.10213484 -0.14379857
-0.08873154 -0.054190002 -0.28906274 0.028727543 -0.13909873 0.12590496 0.15599313 0.046811063
-0.051379714 0.10605148 -0.13258305 -0.18025433 0.13038835 0.09891137 0.12255103 0.12469001
0.056233957 0.021116734 -0.08517188 -0.12553959 -0.102349296 0.037437353 -0.1495548 -0.00872645
-0.087926134 -0.1132771 -0.09788185 -0.00506356 0.14970297 0.019101858 -0.011977125 -0.0948627
-0.20340706 0.13237178 0.027352653 0.10365874 0.048340682 -0.054391354 -0.124674976 0.024631146
-0.14120059 -0.13279767 -0.08364958 -0.06707022 0.023004234 0.06306338 0.0011966649 0.17942223
-0.149982 -0.044486653 -0.27802667 -0.10736401 0.098047026 0.1429885 -0.074719876 0.10698836
-0.0503481 -0.09739928 0.037331387 0.079067916 0.019897569 0.09250996 -0.09353351 -0.005530455
-0.08821116 0.007888254 -0.033714704 -0.05767326 -0.044932086 0.01433722 -0.19279061 -0.17555654
0.08280359 0.036793567 -0.05653689 0.04436119 -0.07461428 -0.050213713 -0.14194418 -0.0013192038
-0.1324167 -0.06948575 0.09202257 -0.07756291 0.08705006 0.07212213 0.17692564 0.058468282
0.012608467 0.07137911 -0.022504555 -0.07946463 0.00046177197 -0.038451433 0.13951503 -0.18451943
-0.0120802475 0.038593773 0.07309141 -0.07202541 0.07949466 0.12973195 -0.023268912 0.108399086

layers.1.1.weight f4 [128]
00000000: 86df 813f 4f03 823f 7296 833f 0569 7c3f
00000010: 26f4 7b3f 4cd6 833f ccd4 7a3f 3edb 7a3f
00000020: 36d6 863f 20da 7b3f 1b9c 7e3f 35fa 793f
00000030: 2c31 893f 0e66 833f 28c1 793f ec4c 863f
00000040: 26cb 7f3f e15a 813f ecfe 7a3f 2ecc 703f
00000050: 026f 813f 9cba 7d3f 5fae 803f b966 7e3f
00000060: 12bc 6f3f 6ec5 803f 8eb9 7b3f 5fac 763f
00000070: 99cf 7e3f 3068 803f dc0d 813f c203 7b3f
00000080: 242d 823f 8789 7a3f 93ec 7c3f 6e1d 793f
00000090: 42b2 773f fd27 773f 00c4 813f 756c 813f
000000a0: 77b6 803f cd0e 803f c61b 873f be15 8e3f
000000b0: 4b20 7c3f 3aaf 7e3f 00cb 823f 4130 763f
000000c0: d844 7f3f 4d01 813f b4c0 843f 944d 823f
000000d0: c7c9 803f 4ec7 7a3f 1e00 733f 2370 823f
000000e0: f672 7c3f 004a 7f3f df45 7c3f 6619 823f
000000f0: 5eb6 813f 1e75 7a3f 45ab 7e3f 376d 7d3f
00000100: ca5e 7d3f 9cb1 7e3f 76ab 813f dda4 753f
00000110: 8285 813f 3839 803f d881 7f3f 7bd6 7c3f
00000120: 7ecb 7d3f 05d7 743f 53a0 7c3f 5435 7f3f
00000130: 11ec 7d3f c1d5 7a3f 109b 783f 1454 7f3f
00000140: 7df2 7c3f 8e5a 7a3f 00fe 833f dc26 803f
00000150: 1ec7 723f cd39 863f 5dfc 763f 8846 873f
00000160: 93f7 713f f341 893f b909 803f 3ac1 813f
00000170: 42b8 813f c325 833f f8f5 793f 0022 733f
00000180: e988 793f 643d 793f 0d1e 783f 2133 7d3f
00000190: 6290 813f 7cd4 813f 044c 833f 8f1f 863f
000001a0: af36 7a3f 18ad 7c3f ec0d 7d3f 3749 803f
000001b0: 1b8c 823f d87b 7e3f 1463 743f b05f 863f
000001c0: e694 763f b4f9 7f3f 89ec 7e3f 0932 793f
000001d0: 7f8a 883f 5f62 793f c359 7b3f 56c4 7d3f
000001e0: 2e8a 713f 2489 7d3f cbc2 743f a969 7a3f
000001f0: 79ee 743f 7a2d 803f 1ede 7a3f 2205 783f
1.0146339 1.015726 1.0280287 0.9859775 0.98419416 1.0299773 0.9798095 0.9799079
1.0534122 0.9837971 0.9945695 0.9764741 1.0718131 1.026552 0.9756036 1.0492225
0.99919355 1.0105859 0.9804523 0.94061553 1.0112002 0.9911287 1.0053214 0.9937549
0.9364635 1.0060251 0.9833001 0.9635677 0.9953552 1.0031796 1.0082355 0.9805261
1.0170026 0.978661 0.98798484 0.9731053 0.96756375 0.9654539 1.013794 1.0111223
1.0055684 1.0004517 1.0555351 1.1100385 0.98486775 0.99486125 1.0218201 0.9616738
0.9971442 1.0078522 1.0371308 1.0179925 1.0061578 0.97960365 0.94922054 1.0190471
0.98612916 0.9972229 0.98544115 1.0164001 1.0133779 0.97834957 0.99480087 0.98994774
0.9897276 0.9948976 1.0130451 0.95954686 1.0118868 1.0017462 0.998075 0.9876477
0.9913863 0.95640594 0.98682135 0.9969075 0.99188334 0.9798241 0.97111607 0.9973767
0.9880751 0.97794425 1.031189 1.0011859 0.9483508 1.0486389 0.96478826 1.05684
0.94518393 1.0723251 1.0002967 1.0137093 1.0134356 1.0245899 0.97640944 0.94973755
0.97474533 0.973593 0.96920854 0.9890614 1.0122187 1.014297 1.0257573 1.0478381
0.9773969 0.9870162 0.9884937 1.0022343 1.0199007 0.9940772 0.9546368 1.0497952
0.9632095 0.9999039 0.99579674 0.9734197 1.0667266 0.9741573 0.9818384 0.9912771
0.9435147 0.99037385 0.9560973 0.97817475 0.9567638 1.0013878 0.97995174 0.9688283

layers.1.1.bias f4 [128]
00000000: d351 a43c 2d7f e0bb 03a9 413d 6147 0abd
00000010: 176c b7bc 28f7 083d 43ad 22bc 09d6 10bc
00000020: 8f54 093d 501a 1dbd 05b2 fdbc f6b0 0bbd
00000030: 76a6 d33c 0273 aa3c 93ae 84bc 3990 dc3c
00000040: 3638 ae3c 18d9 d63c c237 a3ba f464 79bd
00000050: fb77 ec3b a815 2cbd 38a8 7c3c 2392 edbc
00000060: 401c 7bbd 4ffb 483d 0f52 b3bc d676 4ebd
00000070: c2eb 603c d36a 99ba d864 983c 33f7 fcbb
00000080: 0240 dd3c 991d 1fbd 8d63 ce3b df7e b4bc
00000090: 30cb c3bc d1b2 483c 6ab3 c2bc 6ce5 c73c
000000a0: be51 223b 24b7 71bc 8576 8a3d 9cc0 263d
000000b0: fd01 9cbc 22a2 8a3c 9c40 8a3c 6b45 2cbd
000000c0: 3ad8 c83c 5989 2dbc e78c 2a3d fa6d 753d
000000d0: 13fb 863b d382 ffbc cca3 19bd cf0d a8bb
000000e0: 9771 72bc cecd 93bc d9e1 113c 9436 84bc
000000f0: 70d1 ee3b 27ef 913c 08b8 98bc 3ea9 ce3c
00000100: 54d9 5a3c dd1f 1dba 81ce a1bc 535f 3dbd
00000110: 48b3 a73c 604a a6bb 4499 963c 3ea5 0cbd
00000120: 19d7 3ebb 4fe6 e5bc 9f55 89bc 1aba 0abd
00000130: d90f 55bc a02d 653c d529 8cbc 7fd9 93bb
00000140: 1bec 0c3c f7a8 a13c 8645 2d3d 6256 863c
00000150: 83f6 81bd 298d 3cbc 9bdb 8bbc 57a2 963d
00000160: 3754 b5bc 3ecf 16bb 9339 79bc e1f5 053d
00000170: 55c5 6f3b 510e d33c 551b a8bc f055 15bd
00000180: bd97 2bbd e891 18bd f51a a6bc bde4 5fbd
00000190: d529 36bc b5d7 843c 16af e1bb a864 133d
000001a0: 965d a0bc 124b b3bc 66fb ba3b 84db 733c
000001b0: e583 7b3c e095 82bb 3597 eabc 2016 3b3d
000001c0: 4b8c 1abd 27a2 433b 56e2 21bd 32e6 c3bc
000001d0: 6dc3 653d ea45 a3bc 2825 c9bc 4bb9 68bc
000001e0: e244 51bd ee01 8c3c 2b10 39bd 8df8 b03c
000001f0: e6aa c1bc ce5c 65bc a6bc 37bc 04e2 a3bc
0.020058548 -0.006851098 0.047280323 -0.03375948 -0.022390408 0.03343883 -0.009929004 -0.008840092
0.033527907 -0.03835517 -0.030968675 -0.03410431 0.02583621 0.020806793 -0.016196525 0.02692424
0.021267038 0.026226565 -0.001245253 -0.060887292 0.007216451 -0.04201284 0.015420966 -0.029000347
-0.06130624 0.04906779 -0.021889715 -0.0504063 0.013728084 -0.001170481 0.018602774 -0.007719898
0.02700806 -0.038846586 0.0062984885 -0.022033153 -0.023900598 0.012249664 -0.023767192 0.024401389
0.002476796 -0.014753137 0.06760887 0.04071103 -0.019043917 0.016923014 0.016876511 -0.04205839
0.024517167 -0.010591828 0.04163828 0.059919335 0.004119286 -0.031190312 -0.037509724 -0.0051285992
-0.01479759 -0.018042471 0.008903944 -0.016139306 0.0072881505 0.017814232 -0.01864244 0.025227185
0.013357479 -0.00059938227 -0.019751789 -0.046233486 0.02047123 -0.005074784 0.01838363 -0.034337275
-0.0029119907 -0.028063921 -0.01676446 -0.033868887 -0.013004267 0.013987929 -0.01710979 -0.0045120115
0.008601214 0.019733889 0.04230263 0.016398612 -0.063458465 -0.011508265 -0.01707249 0.073551826
-0.022134883 -0.002301171 -0.015211481 0.03270519 0.0036586125 0.025763663 -0.020520845 -0.03645891
-0.041892756 -0.037248522 -0.020276526 -0.0546615 -0.011118372 0.016216138 -0.006887327 0.035984665
-0.019575875 -0.021886382 0.0057062386 0.01488388 0.01535127 -0.0039851516 -0.028636554 0.045675397
-0.03773145 0.002985129 -0.03952249 -0.023913477 0.056094576 -0.019930799 -0.02455385 -0.014204334
-0.051091082 0.017090764 -0.045181435 0.021602893 -0.023641061 -0.013999177 -0.011214411 -0.020005234

layers.2.0.weight f4 [64, 128]
00000000: 9d52 073e e09a ec3c d09c d9bd cc55 c63c
00000010: 1bc9 12be df8e 69be ed46 55be ccc1 413d
00000020: 3231 66be 52f4 82bc a3b4 87be 5c62 65bd
00000030: c116 83bd 0752 6e3d 0ad1 a43e 5ec6 b1bd
00000040: 3017 8b3c 1d6a 3fbe c19d 483e e613 633c
00000050: 8163 0e3d a437 41be ba2b 01be e93b 563c
00000060: 9ecb 3d3e 6240 973d a5cc 5ebc 39fb 16bd
00000070: 8f65 8fbe 02f5 acba ba98 053e 3e93 ab3d
00000080: bf4f 87bd 0905 abbd debf 79bd 4f52 3c3e
00000090: dea3 d5bd 9ed5 d7bd 123d 73bd b481 22bd
000000a0: 867d 003e 1a9b 943a 4208 433e 15a2 713d
000000b0: 7c67 32bd 891a 5bbe 18af bebc bb3f fe3d
000000c0: a613 3dbe 0d42 403b 5ad4 f5bd c641 8fbe
000000d0: d764 433e 4fc6 793c fdb2 73be 00d3 8abd
000000e0: f737 57bd b428 10be 327f 3abe c9d3 a3bd
000000f0: 3005 d43d 8bab d63c c0c5 e53d b70b 783d
00000100: 538e babd cdac 51be fcd3 9bbd 39e7 613e
00000110: ce35 9ebe 1df1 3ebe 5a91 7a3d a6ad 13be
00000120: 1b89 9f3b 8010 54be f99f 1a3e 8c71 973d
00000130: 3919 0a3e 77c6 9cbc cbe7 8f3d b67e b43d
00000140: 1240 f33d 3454 00be 1142 11be 1c5b b5bd
00000150: d8f0 14be 09ee 233d a0a1 a83a bcc6 123e
00000160: 0cde 0cbe 2b18 18bb dab4 5a3e de17 cbbb
00000170: 8d4f e2bb 81f5 02be 37e0 dabc 9724 07be
00000180: 3f64 883e f349 9fbc a81c 9c3d 9669 00bc
00000190: 5eb6 74be 706b d1bd a2c2 6dbd 866f 723c
000001a0: b52d 61be f229 2cbe 0d40 8bbd 4f93 dcbd
000001b0: 1650 b6bb aeb2 bfbc 9290 4b3d e49b 0c3e
000001c0: 3662 96be 4285 0bbe b1ce 9a3e 83be 1cbc
000001d0: e374 ab3e 2a50 0d3d 45ed c0bd b345 8e3d
000001e0: 480f f3bd 2b75 f83c 0411 7a3e 535b 1bbd
000001f0: 3b1d dbbd 4227 14be 2b6b 2abd b92a 6ebd
00000200: 2b93 bbbe 3e96 d3bd 25d8 88bd 86c4 bcbc
00000210: a5ad 0e3e 5cfd ab3d 7969 153e dc6f a63c
00000220: 1d49 2e3e 9693 be3d a179 8ebe ff1b 3abe
00000230: 3b05 97bd d2f6 0bbe 9f4e 18bd f988 41be
00000240: ea44 3cbe db98 613d b32a 4dbe 3698 8f3b
00000250: 8e8c 49be fa2f f43c 5079 c6bd 55d0 93be
00000260: 93c0 afbd 2ea0 dabd 2a25 1d3e 07d7 763e
00000270: 8bcf 383d 73d8 033e 076b 65bd c05f b5bc
00000280: dddd 0abe 0e26 253e bdc4 803e e4c6 acba
00000290: 88a4 acbc 9be4 8ebd 8bb4 80bd 610d fe3d
000002a0: 1316 8dbe 59f4 913d 2d65 90bd c8a3 1bbd
000002b0: 4ad7 96bd a405 1d3e 756e 3f3e e987 08bd
000002c0: 12c0 f93d c281 04be e7f2 2abd 81bd 6d3d
000002d0: 8c75 a23c ba6b 6b3d 7714 443d a47f 99be
000002e0: e96b f63b ff7d 6e3e 2285 3cbd 6557 1ebd
000002f0: a196 81be 47b7 33be b6e7 81bd 7414 87bc
00000300: fe56 1bbd 5884 8e3d 32f2 fc3b 6cd1 613e
00000310: e8f2 723d 963f db3c 73ac 58bd b3f4 05bd
00000320: a2e0 14bd 1aa1 10be 9179 bb3c 329e 253e
00000330: 3c11 eabc 5728 9dbd 130a 1bbe 6482 e73d
00000340: 2af9 2e3e 2ed2 643e 7cb6 1d3d 2704 09be
00000350: c2ba 18be 0517 bc3d 69c1 7a3e a63f 793c
00000360: e01e 6c3d 3026 3d3e 218e 6f3d 00c3 423d
00000370: 6868 5fbd d399 09bd 993b 1a3d 282c 013e
00000380: ff9a 723e b66a f13d 0b6a dfbb ef5c 703e
00000390: e543 13be b6b8 40be d693 0a3d 9eee 05bb
000003a0: 064d 64bd 5656 4d3d ee23 07be 2c7e 1b3e
000003b0: 0f87 efbd 2c3d 0a3e ea38 a43d 13e5 80bd
000003c0: 2d48 dfbd 56ff 2f3d ca71 f73b bf84 153d
000003d0: bd30 99bd 2d7c 8f3d 2586 4d3d 62d9 9cbd
000003e0: d1cd fc3d 654d 453e aaac f5bd c499 243e
000003f0: d5a8 a5be e9c9 ecbd 5d4b ce3d b504 b2bd
0.13215108 0.028882444 -0.10625613 0.024210833 -0.14334528 -0.22808407 -0.20827837 0.04730396
-0.22479704 -0.015985642 -0.26505002 -0.056002006 -0.06400824 0.058183696 0.32190734 -0.08680414
0.01697883 -0.18692823 0.19591428 0.013859725 0.034762863 -0.18868881 -0.12614337 0.013075807
0.18534705 0.07385327 -0.013598596 -0.03686068 -0.2800717 -0.0013195577 0.13046542 0.083776936
-0.06607007 -0.0835057 -0.060973994 0.18390773 -0.10431646 -0.10538791 -0.059384413 -0.039674476
0.12547883 0.0011337728 0.19046119 0.058992464 -0.04355572 -0.21396841 -0.02327685 0.12414499
-0.18464527 0.0029336244 -0.120033935 -0.2797987 0.19081436 0.015245034 -0.23798747 -0.06778526
-0.052543607 -0.14078027 -0.18212584 -0.07999379 0.10352552 0.026204845 0.112193584 0.060558047
-0.091091774 -0.20476075 -0.07608792 0.2206086 -0.30900425 -0.18646665 0.061173774 -0.1442171
0.004868639 -0.20709419 0.15100087 0.07394704 0.13486184 -0.019137604 0.07026633 0.08813231
0.11877455 -0.12532121 -0.14185359 -0.08855268 -0.14545 0.04002193 0.0012865551 0.14333624
-0.13756579 -0.0023207765 0.21358052 -0.0061979135 -0.006906456 -0.12788965 -0.026718242 -0.13197552
0.26638982 -0.019444441 0.07622653 -0.007837674 -0.23897693 -0.1022557 -0.058046944 0.014797097
-0.21990092 -0.16812876 -0.06799326 -0.107702844 -0.005563746 -0.02340063 0.04969842 0.13731343
-0.29371804 -0.13625053 0.30235818 -0.009566906 0.33487615 0.03450028 -0.094202556 0.06946888
-0.11868149 0.030329308 0.24420553 -0.03792889 -0.10698935 -0.144681 -0.04160611 -0.058146212
-0.36635718 -0.10331391 -0.06681851 -0.023042928 0.13933428 0.08397934 0.14591016 0.02031701
0.17020078 0.093054935 -0.2782717 -0.18174742 -0.073740445 -0.13668373 -0.037184354 -0.18899907
-0.18385664 0.055077415 -0.2003582 0.0043821586 -0.19682524 0.029808033 -0.09691107 -0.28869882
-0.085816525 -0.10675083 0.15346208 0.24105464 0.045119803 0.12875538 -0.056010272 -0.022140384
-0.13561197 0.16127798 0.251501 -0.0013181833 -0.021074548 -0.06977197 -0.06284436 0.124048956
-0.27555904 0.07126684 -0.07050548 -0.03799799 -0.07365282 0.15334183 0.1869448 -0.03333274
0.12194838 -0.12940124 -0.041735556 0.058042053 0.019831441 0.057475783 0.04787108 -0.29980195
0.007520188 0.23290251 -0.046025403 -0.038657565 -0.25310233 -0.17550384 -0.063430235 -0.016489245
-0.03792476 0.06958836 0.0077193016 0.22052544 0.059313685 0.026763719 -0.052898835 -0.032704066
-0.03634704 -0.14123955 0.022885116 0.16173628 -0.028572671 -0.0767371 -0.15140562 0.11304167
0.17087236 0.22345802 0.03850411 -0.1338049 -0.14914992 0.09184078 0.24487843 0.015212929
0.057646632 0.18471599 0.058485154 0.047549248 -0.05454293 -0.033593964 0.037654493 0.126145
0.23691939 0.117879316 -0.006818061 0.23472951 -0.14381368 -0.18820462 0.033832394 -0.0020436416
-0.055737518 0.050131164 -0.131973 0.1518485 -0.11695682 0.13499898 0.08018668 -0.062936924
-0.10902438 0.042968117 0.0075514065 0.03650355 -0.07479999 0.070061065 0.05017676 -0.0765865
0.12343944 0.19267805 -0.11995824 0.16074282 -0.3235537 -0.11561949 0.10072968 -0.08692304

layers.2.1.weight f4 [64]
00000000: e18f 643f 8921 773f a376 823f 4788 843f
00000010: a91f 723f 37ef 723f 0fc5 7a3f 606b 8c3f
00000020: fca5 6f3f 2626 813f 4cd7 743f cc98 793f
00000030: 2c3c 823f 5ef9 7e3f 3334 753f ec3d 763f
00000040: 1051 8c3f 7452 803f fe83 853f 3147 803f
00000050: e66a 803f 25fc 833f 5c09 743f aeb6 863f
00000060: 9308 853f d318 813f b609 7d3f 9014 803f
00000070: 8dc2 7a3f 427b 7a3f 9d92 753f f4b5 753f
00000080: 6879 773f 13fb 7b3f 9069 723f 978c 803f
00000090: 3922 843f 67c0 753f d749 793f 04be 813f
000000a0: 3da6 7e3f 6517 803f fbb3 713f b565 7e3f
000000b0: bb10 823f 536a 8b3f 3558 783f 963d 823f
000000c0: a06d 773f b6d0 823f 9ae5 803f 5227 843f
000000d0: 8b68 6b3f 914e 793f c2bf 803f 5426 843f
000000e0: e6b2 7c3f e062 813f 384f 813f 7fcf 6b3f
000000f0: 74d3 833f 1567 6e3f b359 7f3f a7b2 843f
0.8928204 0.96535546 1.0192455 1.0354089 0.9457956 0.9489626 0.9795694 1.0970268
0.9361265 1.0089767 0.95641017 0.97498775 1.0174613 0.99599254 0.95782775 0.96188235
1.0962238 1.0025163 1.0430906 1.0021726 1.0032623 1.0311323 0.9532678 1.05245
1.0393242 1.0085701 0.9884294 1.0006275 0.9795311 0.97844326 0.9592684 0.95980763
0.96669626 0.98429984 0.94692326 1.0042905 1.0322944 0.9599671 0.97378296 1.0136113
0.9947241 1.000714 0.94415253 0.9937394 1.0161356 1.0891823 0.97009593 1.0175045
0.9665165 1.0219944 1.0070069 1.03245 0.91956395 0.9738551 1.005852 1.0324197
0.9871048 1.0108299 1.0102301 0.9211349 1.0298905 0.9312604 0.99746245 1.036702

layers.2.1.bias f4 [64]
00000000: 56cb b8bd c111 67bb fb39 123d c801 993d
00000010: bd87 08bd d1f6 00bd 88cf 8cbc 3e16 3f3d
00000020: f62c 3bbd 1ee1 79bb 8318 ecbc aafd 8abc
00000030: a5e3 5c3b a9f1 2abd e09c a6bc e0f4 21bd
00000040: 1df6 123d a978 c43b 47ea c73c 6eef 513b
00000050: 80ad c73a 8523 cd3b 13d2 47bd 4f84 793c
00000060: cc3a 3fbc 0947 c93b ba9e 7bbc 34be e1bc
00000070: 87f4 653b 23e1 b73c 5d14 52bd 35e2 8dbd
00000080: 7c7d 173a 2bde b73a d966 30bd d7fa 01bd
00000090: b514 f43c f7f0 d8bc b111 103c b795 a2bc
000000a0: d2f1 36bc 4b0e 883b 9d80 afbd f141 023d
000000b0: 1482 93bc e91f 183d de2a 62bd 8871 4b3b
000000c0: fba5 48bd ed85 67bc 76ff 16ba 5c45 ce3c
000000d0: 46e1 50bd 24de c8bc 8726 d539 97a7 303a
000000e0: 259d 2cbd f8b4 ca3c f665 203c b63c 82bd
000000f0: f92e 8cbb 6809 59bd 4b96 41bc b01a 9e3d
-0.09023158 -0.0035258385 0.035699826 0.07471043 -0.033332575 -0.031485382 -0.017188802 0.04665207
-0.045697175 -0.0038128565 -0.028820282 -0.01696666 0.0033705023 -0.04173437 -0.020338476 -0.03954017
0.035879243 0.005995829 0.024403704 0.003203358 0.0015234202 0.006260338 -0.048784327 0.015229299
-0.011671733 0.0061425013 -0.015357668 -0.027556516 0.0035088377 0.02244622 -0.05128895 -0.06927911
0.00057788915 0.0014028003 -0.043066833 -0.03173336 0.02979503 -0.026482088 0.00879328 -0.01984678
-0.011166053 0.0041520945 -0.08569453 0.031801168 -0.018006362 0.037139807 -0.055216663 0.0031043012
-0.048986416 -0.0141310515 -0.00057601125 0.025179558 -0.050996087 -0.024519987 0.0004065523 0.000673884
-0.042142052 0.024744496 0.009789934 -0.06359236 -0.0042780605 -0.052987486 -0.011815618 0.07719934

layers.3.0.weight f4 [32, 64]
00000000: 3c4f 9d3d 8a8c 263e 21fa 3c3e 536d d03e
00000010: 120d d5be 91d9 3c3e 67d8 a03d 1521 173d
00000020: c49c 1d3e ce6e abbe eba6 c23c 2b4e f03d
00000030: c7f3 14be dbef 7bbe b574 f7bb 5655 54bd
00000040: 16f8 90be d868 203e 8d54 423d 83c9 f5bb
00000050: 49f2 e43c ed85 f03e 49f4 03be dd19 9abe
00000060: 0416 ff3d e267 8e3e ee9e 0dbf e5df 8dbd
00000070: bd2c 50bc 5345 d93d ac12 493a 8e75 36be
00000080: 57e2 6a3e 28ec 483e 235d 0f3d bd73 f7bd
00000090: 2f7d 8fbd 6cc7 31be 4535 b1bb bdb4 8a3c
000000a0: 5040 3c3e c668 c0bc 7416 723d 3fdf a83d
000000b0: 467a 213e 9056 66be 9e5b 6a3e e882 42b9
000000c0: 43ff c23d 4329 5dbd ba06 8f3d 4d17 63be
000000d0: 9d17 04be 75f7 d8bd a237 9dbd dfda 13bd
000000e0: 6709 7b3d cb38 c23e d0c9 a73d cfdc 43bd
000000f0: f338 9dbc 3493 5dbc 80d1 08bd 6fff 893e
00000100: cc0b 57be 2d01 08bd 853f 9dbe e305 c93c
00000110: c23d b53c 15c4 fbbc 08e0 c837 13b3 76be
00000120: 4c4e 3bbe a962 07bc f836 433e 9e56 bdbd
00000130: 9380 9bbd 4855 72bc 4300 28bc 5a08 d6bc
00000140: c32b a53e 3b93 55bd df60 95be 6d28 39be
00000150: 858a 8dbd 8603 143e 3a6a 0f3e 3f29 1d3e
00000160: 44de c8bd 0382 66bb e489 20be bc1d 793d
00000170: 8cb6 f13c b57c d7be 6f27 9d3d fc07 b03c
00000180: e3f7 873e bb42 92bc 4fde 913c d637 6f3d
00000190: c044 c73d 9995 18bb 4737 c6be 7ed9 abbe
000001a0: 3f97 f6be a300 493e ab74 f83c 35f4 f33c
000001b0: 8e90 c5bd 6241 2ebe f259 fabd 99ab 97be
000001c0: 45ee e3bd 5a8d e53e 14c0 68be 049e a33c
000001d0: 9b62 58bd b0c1 303e 641b 493e d36e 7fbe
000001e0: 2fca 843d 6421 e2bd b90b 85be 33b1 7fbe
000001f0: b068 053e 6e15 8a3e cf79 803e 1f11 2cbe
00000200: 7fa9 9f3e 4a46 143d 108a 453e 874e 47be
00000210: 4161 9cbd 8941 6d3d f8bf 90be 6646 b7bd
00000220: 0206 b1bd dc18 2d3e 660c db3e 52fb 31bd
00000230: 2a3a 413e 1756 30bc 5e7c 52be 9dcd f23d
00000240: 3b4f 4c3d 49fa af3b c45f 22be 6f1a 88bc
00000250: 18a2 2b3e 6345 80bd ab6a d9be 2e64 743e
00000260: b751 123d 608e 393e 6db4 23be feb4 37be
00000270: 78cc 493e 0881 483e ff3a 3cbd 63f3 d1bd
00000280: c744 84be aed5 3fbd d566 843d 31ed d9bd
00000290: b4fe 50bd 6d71 6bbe e750 42be 1c23 ebbd
000002a0: e1c9 8ebe 0256 8c3e 86de 47bd 5aec 2bbe
000002b0: e18c 8d3d 005e d539 f9c9 4bbe b4a4 63bd
000002c0: 36e5 e1bc 4565 0c3e 9cac 39be b7d4 5fbd
000002d0: 7535 513d 0f6b 613e 0304 3d3e 21e2 7d3e
000002e0: 30d1 243e a418 963b 3d8c 5fbd abd6 87be
000002f0: 89a0 763e 6527 043e 91ec da3d 0fa6 dfbd
00000300: a4de 41be 0e4d 853d 5d4d 7f3d 37b4 923e
00000310: 672f 60bc d298 133d e3cc f5bd c519 7dbd
00000320: 1c74 14be 7baf 2fbe 67db 3a3e 8ee3 4dbe
00000330: 5cf2 82be 91d4 ae3d f927 4fbe ed6b 1c3e
00000340: 2939 cbbd ef03 c63d 9b79 dcbd 03d1 e3be
00000350: 44cc 693d 6851 703e 7600 b8be 9824 203c
00000360: b9a3 8c3e e7c5 a4be f566 103e bd5b 3e3e
00000370: 5adb 4bbd afb0 943e 8a52 56bd 626b 4fbd
00000380: 982e 9a3c 59e4 de3d 053c 443e 0348 5d3e
00000390: bccc edbb e290 55bb 2ecf babe 4643 883e
000003a0: 89e5 373e 2fe5 593e f1e1 e8bd 4f5d 8c3b
000003b0: 0b1b 7abe 6d0e 173a d249 6c3e 2187 333e
000003c0: b6e3 5d3e 6eb6 acbd ec4c 343e 89cb debd
000003d0: ce09 0bbd 1395 ec3d 70ec 493d 5e00 47bd
000003e0: eabe 123c 500d 553e 30b5 6abe de28 183e
000003f0: 48f5 173d a00f 54be 7315 fc3d 4588 36be
0.076811284 0.16264549 0.18454792 0.40708408 -0.41611534 0.1844237 0.078537755 0.036896784
0.15391833 -0.33482975 0.023761233 0.11733659 -0.14546119 -0.24603216 -0.0075517544 -0.051839195
-0.28314275 0.15664995 0.047443915 -0.0075008287 0.027947562 0.46977177 -0.12886156 -0.30097857
0.12455371 0.2781363 -0.5532063 -0.0692747 -0.012705979 0.10608926 0.0007670324 -0.17818281
0.22937904 0.19621336 0.03500093 -0.12082622 -0.07006299 -0.1736123 -0.0054079616 0.016931886
0.18383908 -0.02348746 0.059103444 0.08245706 0.157693 -0.22493958 0.22886512 -0.00018550048
0.095213436 -0.05399443 0.06983705 -0.22176857 -0.12899633 -0.10594074 -0.07676627 -0.036097404
0.061288264 0.37933955 0.081927896 -0.047818 -0.019192195 -0.0135238655 -0.03340292 0.26952693
-0.21000594 -0.033204246 -0.30712524 0.02453894 0.022124175 -0.030733148 2.394618e-05 -0.24091749
-0.18291587 -0.0082632685 0.19063938 -0.092450365 -0.07592883 -0.01479084 -0.010253969 -0.02612703
0.3225995 -0.052142363 -0.2917547 -0.18081827 -0.06911186 0.14454469 0.14005366 0.15347765
-0.09808019 -0.0035172708 -0.15677601 0.060819373 0.02950599 -0.4208733 0.07673537 0.021488182
0.2655631 -0.017854085 0.0178062 0.05840286 0.0972991 -0.0023282527 -0.38714048 -0.3356437
-0.48162267 0.19629149 0.03032907 0.029779533 -0.09646712 -0.17017129 -0.12224187 -0.29623106
-0.11129431 0.44834405 -0.22729522 0.019972809 -0.052828413 0.17261386 0.19639355 -0.2494462
0.06483876 -0.11041525 -0.25985506 -0.2496994 0.13028216 0.26969475 0.25092933 -0.16803406
0.31184003 0.036199845 0.19290948 -0.1946355 -0.07635737 0.057923827 -0.2827146 -0.08948974
-0.08643724 0.16904014 0.42782897 -0.04345257 0.18869844 -0.010762713 -0.20555255 0.11855624
0.049880248 0.0053704125 -0.15856844 -0.016614167 0.16761053 -0.062632345 -0.42464194 0.2386634
0.03572246 0.18120718 -0.15986796 -0.17940137 0.19706905 0.19580472 -0.0459547 -0.102515005
-0.25833723 -0.04683464 0.06464926 -0.10640944 -0.051024154 -0.22992487 -0.18976174 -0.11481306
-0.27888396 0.2740937 -0.0487962 -0.1678938 0.06911636 0.0004069656 -0.19901265 -0.055576995
-0.027575117 0.13710506 -0.18132252 -0.05464622 0.05107637 0.22013496 0.18458562 0.24793293
0.16095424 0.004580574 -0.0545771 -0.26530966 0.24084677 0.12905653 0.10689653 -0.10920345
-0.18932587 0.06508838 0.06232964 0.28653118 -0.013683177 0.036034413 -0.1200197 -0.061792154
-0.14497417 -0.17156784 0.18247758 -0.20106336 -0.2557553 0.085366376 -0.20230092 0.15275545
-0.09923012 0.09668719 -0.10765382 -0.444954 0.05707957 0.23468554 -0.35937852 0.00977435
0.2746866 -0.32182238 0.14101775 0.18589683 -0.049769737 0.2904105 -0.05232481 -0.050639518
0.018821046 0.108833976 0.1916352 0.21609502 -0.0072570723 -0.0032587578 -0.3648619 0.26613826
0.17958654 0.21278833 -0.1137122 0.004283584 -0.24424379 0.00057623425 0.23075035 0.17532016
0.21668896 -0.08433233 0.17607468 -0.10878665 -0.033944897 0.11551871 0.04929775 -0.048584335
0.00895665 0.2080586 -0.2292068 0.1485934 0.037099153 -0.20709085 0.123087786 -0.1782542

layers.3.1.weight f4 [32]
00000000: d27c 8d3f 6feb 913f 3887 8a3f c0cb 893f
00000010: 72ee 793f 6060 883f 31d1 873f 9344 7c3f
00000020: f3a8 923f e187 923f cd70 8e3f f589 933f
00000030: 1ae0 843f 3039 893f c502 843f b33f 903f
00000040: 188e 853f d390 903f 47d4 733f 69e4 833f
00000050: dbc7 733f 148e 813f cf77 883f 3a17 7f3f
00000060: 87d0 8c3f 95e1 903f 64c6 8a3f ed24 9a3f
00000070: e704 8d3f f654 8e3f 71c1 933f 4ceb 853f
1.1053717 1.1399974 1.0822515 1.0765305 0.97629464 1.0654411 1.0610715 0.98542136
1.1457809 1.1447717 1.1128174 1.1526476 1.038089 1.0720577 1.0313345 1.126944
1.0433989 1.1294197 0.95245785 1.030408 0.9522683 1.0121484 1.0661563 0.99644816
1.1001137 1.1318842 1.0841794 1.2042519 1.1017121 1.1119678 1.1543409 1.0462432

layers.3.1.bias f4 [32]
00000000: 83f9 ed3d bcb0 d13d f649 8e3d 3d20 373d
00000010: 6fc4 87bc 3b0e 583d cfac cb3c b5dd 4cbd
00000020: 8393 cb3d cc68 fd3d fa31 0a3e cfe0 233e
00000030: f29d 843d 4311 453d a9b1 11bc e671 ac3d
00000040: fe8e c93c 4148 6d3d 95b6 22bd 299c 3b39
00000050: 1989 0dbd 99db cbbc 76d7 183d 2e9d 44bc
00000060: 50c0 d43d ca57 053e a315 813d bb94 393e
00000070: 304f aa3d 4d14 e23d 90d0 c83d 5101 9e3c
0.11619856 0.102387875 0.06947701 0.04470848 -0.016573159 0.052747946 0.024862675 -0.050016124
0.09940245 0.12373504 0.13495627 0.16003726 0.06475438 0.048112165 -0.008892455 0.08420162
0.024604317 0.057930235 -0.039724905 0.00017891884 -0.034554575 -0.024884986 0.037314855 -0.012000365
0.10388243 0.1302177 0.06302955 0.18123142 0.08315885 0.11039028 0.09805405 0.019287737

fc_out.weight f4 [2, 32]
00000000: 7949 0bbf bdc1 d23e 7ad8 da3e 7951 5e3d
00000010: 7581 7b3d 17cf 13bc 2596 bb3d 1aea 0e3d
00000020: 5907 43be a115 e3be e993 0abe 0e0c f3be
00000030: 06d7 123f 8236 963e 8bc9 6f3d 325b de3d
00000040: f7ce 8c3e 99fd a73e 9039 aa3d 9e4a 243e
00000050: f3c3 333d 9678 253e 5d48 203e 2ae4 833e
00000060: abbd 82bc a542 ddbe e2d2 983e 3d43 db3d
00000070: 34c7 babe f8e3 99bd a4f9 17be a140 db3e
00000080: 5abe 15be 6650 99be dcbe ffbd dbbd 7f3e
00000090: 92e0 41be c3f7 e23e 1a70 43be beb3 a1bd
000000a0: aa6d 6a3e 08d5 c23e 5aac 023f 82aa 563e
000000b0: b370 dc3d 1551 73be 0da8 56bd caa0 003f
000000c0: 0789 b1be e0da 75be d80e d03d b90b 26bd
000000d0: 247f c63c caf1 9bbe df1f 12be 58ad bcbc
000000e0: 8281 363e 3713 c13e 2eff 133d 1283 e43e
000000f0: 7e64 edbd 981a 3c3e 72fe eb3d 5b92 77bc
-0.54408985 0.41163436 0.42743284 0.054276917 0.061402757 -0.009021542 0.09159497 0.034891225
-0.19045772 -0.4435244 -0.13532986 -0.47470134 0.5735935 0.2933846 0.058541816 0.10857238
0.27501652 0.32810667 0.083117604 0.16044089 0.043888044 0.16159281 0.15652604 0.25760013
-0.015959581 -0.43214908 0.2984839 0.10706184 -0.36480105 -0.07514185 -0.14841324 0.42822745
-0.14623395 -0.29944152 -0.124875754 0.24974768 -0.18933323 0.44329652 -0.19085732 -0.07895611
0.22893396 0.38053155 0.5104424 0.20963481 0.10763683 -0.23761399 -0.05240636 0.50245345
-0.34674856 -0.24009275 0.10159081 -0.040538523 0.024230547 -0.30457908 -0.1426997 -0.023031875
0.17822841 0.37709972 0.03613203 0.4463125 -0.11591433 0.1836952 0.11523141 -0.015110577

fc_out.bias f4 [2]
00000000: ee00 2abd dd00 2a3d
-0.041504793 0.04150473
