test/output/local0/simulatorRun/freesurfer_volumetric/3/current.nn.pt (torch_old, 23025 bytes, 50 tensors)

layers.0.0.weight f4 [16, 66]
0	0xbdb8701b	-0.090057574
1	0xbe51e14e	-0.20496103
2	0x3e66842a	0.22511354
3	0x3b94a8dc	0.004536731
4	0xbdeaea9a	-0.11470528
5	0x3ea48f68	0.3214066
6	0x3e05cf7e	0.13067433
7	0x3d5f8f1a	0.05457983
8	0xbe533fd7	-0.20629822
9	0x3d8b4d10	0.06801808
10	0xbd0ad59f	-0.03389513
11	0xbe7597db	-0.2398371
12	0xbcc95528	-0.024576738
13	0xbdb1e1d4	-0.086856514
14	0x3e883a33	0.26606902
15	0x3e0013d9	0.12507571
16	0x3e12ee66	0.14348754
17	0xbe6bdef2	-0.23034266
18	0xbe68db5f	-0.22739933
19	0x3e9d39a4	0.3070804
20	0x3dedb59d	0.116069056
21	0xbdfa513f	-0.12222528
22	0xbcd14c81	-0.025549175
23	0xbe9220ac	-0.28540552
24	0x3e856ce1	0.2605963
25	0xbe4847bc	-0.19558614
26	0x3d278602	0.040899284
27	0xbe7a332b	-0.24433582
28	0xbdc8a4c3	-0.09797051
29	0xbe40195d	-0.18759675
30	0xbd5a4dc0	-0.053296804
31	0x3e2bf90c	0.16794223
32	0xbdd8ae88	-0.10580164
33	0x3e4b9e8c	0.198847
34	0xbd3da418	-0.04629907
35	0x3ce2d893	0.027691161
36	0x3e962670	0.293262
37	0x3c0e40c8	0.008682437
38	0x3e3e176e	0.18563625
39	0x3e45a86f	0.19302534
40	0x3c4e04f0	0.012574419
41	0xbc45f4ec	-0.01208232
42	0x3a82a888	0.0009968439
43	0x3dbc113c	0.09182975
44	0xbdca1190	-0.09866631
45	0xbdd83125	-0.105562486
46	0xbe3cba48	-0.18430436
47	0x3dd4c1dd	0.10388539
48	0x3e7ff606	0.24996194
49	0xbe136cb0	-0.1439693
50	0x3da17252	0.07883133
51	0x3cf36c93	0.029714858
52	0x3daf51d2	0.08560528
53	0xbe8c3a5c	-0.27388275
54	0xbb6c1791	-0.003602479
55	0x3dc61b88	0.0967322
56	0x3db1e937	0.0868706
57	0xbe724e30	-0.23662639
58	0xbcfd1216	-0.030892413
59	0xbd0e7989	-0.034783874
60	0x3b88d674	0.0041759554
61	0x3e1341ec	0.14380616
62	0xbdad473b	-0.08460852
63	0xbd727def	-0.05920213
64	0xbd423960	-0.047418
65	0x3de0db73	0.109793566
66	0x3df7f284	0.12106803
67	0xbdb1694f	-0.08662664
68	0xbe21dc62	-0.15806726
69	0x3eb34586	0.3501398
70	0x3e675a6b	0.22593085
71	0x3ed0b6b3	0.40764388
72	0xbdf5bcf6	-0.11998932
73	0xbe14967c	-0.1451053
74	0x3dabc0b8	0.083863676
75	0xbd5c4ca7	-0.05378404
76	0x3b1c26ec	0.002382691
77	0x3e0172e6	0.12641487
78	0x3e7eb594	0.24873954
79	0xbca728e1	-0.020405235
80	0xbcd410cc	-0.025886916
81	0x3e105969	0.14096607
82	0xbe3db7b2	-0.18527105
83	0x3e0fe88b	0.14053552
84	0xbdc741ab	-0.09729322
85	0xbd7eab4c	-0.06217508
86	0xbe04eee9	-0.12981762
87	0x3e2b15ef	0.16707586
88	0xbe6d54df	-0.23176907
89	0x3df0f333	0.117651366
90	0x3ded0745	0.11573652
91	0xbe8fcfa0	-0.28088093
92	0x3edaf4db	0.42764935
93	0x3eaf9bea	0.3429864
94	0xbd2a5a2d	-0.041589905
95	0x3eb5ade0	0.3548422
96	0x3e32c737	0.17458807
97	0xbdee570f	-0.11637699
98	0x3dbf5e8b	0.093442045
99	0x3de2642d	0.11054263
100	0x3d272500	0.04080677
101	0xbbbac819	-0.005700123
102	0xbe93894d	-0.2881569
103	0xbe1b0b74	-0.15141088
104	0xbe171ca2	-0.14757016
105	0xbda6f520	-0.08152223
106	0xbd7e974c	-0.062156007
107	0x3e99984f	0.29999015
108	0x3e371b73	0.17881565
109	0xbcb0f6e4	-0.021602102
110	0x3df0468f	0.11732208
111	0xbe9001c8	-0.2812636
112	0xbea218fd	-0.3165969
113	0x3e8eb08b	0.27869067
114	0xbdd63ab8	-0.104604185
115	0x3dacba16	0.084339306
116	0x3e3f3685	0.18673141
117	0xbd00ff5c	-0.03149353
118	0xbded62e5	-0.11591128
119	0xba995e0c	-0.0011701002
120	0xbe6d80a8	-0.2319361
121	0x3e9c8e86	0.30577487
122	0x3d3682e5	0.044558425
123	0x3e51fd03	0.20506673
124	0x3ddb194e	0.10698186
125	0xbea94039	-0.3305681
126	0xbe5ac30d	-0.21363468
127	0xbca9797b	-0.02068781
128	0x3dff726b	0.12472995
129	0xbd35c810	-0.044380248
130	0xbdd46566	-0.10370903
131	0xbe2fb7b4	-0.17159921
132	0x3eb589ff	0.35456845
133	0xbe9213ed	-0.28530827
134	0x3d7c4cf3	0.061596822
135	0x3dab010a	0.083498076
136	0xbe319065	-0.17340238
137	0x3e253eb7	0.16137205
138	0x3eaf7225	0.34266773
139	0x3ecc6a0e	0.39924663
140	0x3e984a09	0.29743984
141	0x3cb8728d	0.02251556
142	0xbe03b8bb	-0.12863438
143	0x3de54dda	0.1119649
144	0xbde257bd	-0.11051891
145	0x3d8294c6	0.063760325
146	0xbea2b4d2	-0.3177858
147	0x3e6f3cc5	0.23363025
148	0xbddf687e	-0.10908602
149	0x3e9fea0b	0.31233248
150	0x3eb6a418	0.3567207
151	0xbc6e52f1	-0.014546142
152	0x3dda1772	0.10649003
153	0x3e0b05a5	0.13576372
154	0x3ebc04b4	0.36722338
155	0x3e677f6f	0.22607206
156	0x3da760f0	0.08172786
157	0xbde770a3	-0.113007806
158	0x3e373f4b	0.17895238
159	0xbe4c23ff	-0.19935606
160	0xbd4452eb	-0.04793064
161	0x3c3c5210	0.011494175
162	0xbd6db59e	-0.05803453
163	0xbd8bd796	-0.06828229
164	0xbcd1063f	-0.025515674
165	0x3ca5ff0f	0.020263223
166	0x3ebd454e	0.36966938
167	0xbee8431e	-0.45363706
168	0xbd96c37d	-0.07361505
169	0x3d1e76e3	0.038687598
170	0xbd2bb9ac	-0.041925117
171	0x3dbf2590	0.09333336
172	0xbe8271c8	-0.25477433
173	0x3d066ad6	0.03281673
174	0xbc897166	-0.016777705
175	0xbe071cf4	-0.13194638
176	0x3dfe3dd7	0.12414139
177	0x3e41eae8	0.18937266
178	0x3e3380bf	0.17529581
179	0x3e202fbc	0.15643209
180	0xbdaf7866	-0.08567886
181	0x3e3c1438	0.18367088
182	0xbd941ab0	-0.07231653
183	0x3d7e7285	0.062120933
184	0xbdf9eee5	-0.12203769
185	0xbe228dc2	-0.15874389
186	0xbdcaf0a5	-0.099091806
187	0x3de6d264	0.112705976
188	0xbb735fc1	-0.0037135931
189	0x3d37f53d	0.04491161
190	0xbc787096	-0.015163561
191	0xbc1830d0	-0.009288982
192	0x3e17f509	0.14839567
193	0x3e05ea66	0.13077697
194	0xbe26e578	-0.16298473
195	0xbeb17e04	-0.34666455
196	0x3e7f84aa	0.24952951
197	0x3ea5e12c	0.32398355
198	0xbe36c3c7	-0.1784812
199	0xbe5c4521	-0.21510746
200	0xbbb857a7	-0.0056256833
201	0xbdb729f0	-0.08943546
202	0x3d3e1d68	0.046414763
203	0x3de22384	0.1104193
204	0x3d14e9f9	0.036355946
205	0x3de66349	0.11249406
206	0xbd9743c2	-0.07385971
207	0xbdf3acf7	-0.11898225
208	0xbd05cea6	-0.03266778
209	0xbb705bd6	-0.0036675832
210	0x3d4b07df	0.049568053
211	0xbcee7718	-0.029109523
212	0xbe5cf2f4	-0.21577054
213	0x3e2a97e9	0.16659512
214	0xbdd52810	-0.10408032
215	0xbe0f7ba5	-0.1401201
216	0xbe3633a1	-0.17793132
217	0xbe6b50f0	-0.22980094
218	0xbd07f3c9	-0.033191476
219	0xbe07ab46	-0.1324893
220	0xbd0435fb	-0.032278042
221	0xbebf6063	-0.37378225
222	0xbb927bd3	-0.0044703274
223	0xbe37b7e1	-0.17941238
224	0x3ea7e985	0.3279535
225	0x3de16d27	0.11007147
226	0x3e423d6f	0.18968748
227	0xbe0ed834	-0.13949662
228	0x3deaa92e	0.1145805
229	0x3e2d5f3f	0.16930865
230	0xbd5e8197	-0.054322805
231	0xbd9dcdc4	-0.07705262
232	0x3d9effbf	0.077636234
233	0xbd8c8719	-0.06861705
234	0x3e4e90ff	0.20172499
235	0x3d8591e7	0.06521969
236	0xbd8ae068	-0.06781083
237	0x3df4b6c3	0.119489215
238	0x3e4b3854	0.19845706
239	0xbe694e62	-0.22783807
240	0x3d9a9077	0.07547086
241	0xbe46872e	-0.19387504
242	0x3d294e77	0.041334596
243	0xbc8a60bc	-0.01689183
244	0xbdf1929a	-0.1179554
245	0x3e45441f	0.19264267
246	0xbe0acef5	-0.1355551
247	0x3e544999	0.207312
248	0xbba3e89a	-0.0050020935
249	0xbd41fd03	-0.04736043
250	0xbd07ff88	-0.033202678
251	0xbab66c45	-0.0013917765
252	0xbd2c9167	-0.042130854
253	0xbe6d89af	-0.23197053
254	0xbea1a610	-0.31572008
255	0xbaa26d87	-0.0012392261

layers.0.1.weight f4 [16]
0	0x3f727612	0.9471141
1	0x3f84afa7	1.0366105
2	0x3f7aba7c	0.979408
3	0x3f804bde	1.0023153
4	0x3f7e467b	0.99326295
5	0x3f801848	1.000741
6	0x3f84860a	1.0353405
7	0x3f795206	0.9739078
8	0x3f802864	1.0012326
9	0x3f7d9fe3	0.9907209
10	0x3f7ef32c	0.995898
11	0x3f7baf4e	0.9831437
12	0x3f83a539	1.0284797
13	0x3f831cf2	1.0243208
14	0x3f811f40	1.0087662
15	0x3f781fbe	0.96923435

layers.0.1.bias f4 [16]
0	0xbcfd2c42	-0.030904893
1	0x3d072597	0.032994833
2	0xbceee59a	-0.029162217
3	0x3bf3d53a	0.00744119
4	0xbcbc67fa	-0.022998799
5	0x3c86e161	0.01646489
6	0x3cff0488	0.03113009
7	0xbd018e23	-0.031629693
8	0x3b63aff4	0.0034742327
9	0xbcfccdbe	-0.030859824
10	0x3bafe5f5	0.005367989
11	0xbb6ffba9	-0.0036618507
12	0x3d223e5d	0.039610256
13	0x3d00b1c8	0.031419545
14	0xbb92a4e6	-0.004475224
15	0xbcf125a6	-0.029436897

layers.0.1.running_mean f4 [16]
0	0xc8860469	-274467.28
1	0xc8fbb614	-515504.62
2	0x498c964d	1.1516896e+06
3	0xc89b14a9	-317605.28
4	0x49241a9c	672169.75
5	0x491643bb	615483.7
6	0xc8f38ab6	-498773.7
7	0x48a5ff74	339963.62
8	0xc87da4c5	-259731.08
9	0xc8881f44	-278778.12
10	0x495c46f8	902255.5
11	0xc81c77bb	-160222.92
12	0xc954b132	-871187.1
13	0x49136190	603673.0
14	0xc50a1d94	-2209.8486
15	0x4901f8d6	532365.4

layers.0.1.running_var f4 [16]
0	0x4e4f8833	8.704524e+08
1	0x4ef27333	2.033818e+09
2	0x5025fdd1	1.1139499e+10
3	0x4ea1af48	1.3563095e+09
4	0x4f8e779b	4.7804063e+09
5	0x4f357efe	3.0449987e+09
6	0x4f164d1f	2.5216366e+09
7	0x4ea6348d	1.3942309e+09
8	0x4e083c8f	5.7141754e+08
9	0x4e0366d4	5.5113856e+08
10	0x4fdb4989	7.358059e+09
11	0x4dc28c65	4.079976e+08
12	0x4faeaccb	5.8611195e+09
13	0x4f460b1a	3.3226163e+09
14	0x4d496e33	2.1121515e+08
15	0x4f1b0583	2.6008297e+09

layers.1.0.weight f4 [8, 16]
0	0x3ea69ee2	0.32543093
1	0x3ee048c2	0.4380551
2	0xbe981c22	-0.29708964
3	0xbdb33ca0	-0.08751798
4	0xbe18b05e	-0.14911029
5	0x3e0dbdba	0.13841906
6	0xbf53213a	-0.82472575
7	0xbdee19fb	-0.11626049
8	0xbe99f999	-0.3007324
9	0xbe717223	-0.23578696
10	0x3e1233e5	0.14277609
11	0x3e941884	0.28924954
12	0xbf3fb056	-0.7487844
13	0x3e0ce394	0.13758689
14	0xbf0cac84	-0.5495074
15	0xbed0c33a	-0.40773946
16	0xbdfaeed6	-0.122525856
17	0x3e97ac77	0.29623768
18	0xbe9cf8d6	-0.30658597
19	0xbe287893	-0.16452245
20	0x3da39b09	0.07988555
21	0x3eab1880	0.3341713
22	0xbd8ac1cc	-0.06775245
23	0xbe9d8f25	-0.30773273
24	0xbe83d263	-0.2574645
25	0x3daf0a7d	0.08546922
26	0x3ea4df85	0.32201782
27	0xbf49f2f8	-0.78886366
28	0xbec3fd65	-0.38279262
29	0x3ead2d19	0.3382347
30	0x3db5dff2	0.08880605
31	0x3df47755	0.11936823
32	0x3f16a7ff	0.5885009
33	0xbe963492	-0.29336983
34	0x3edada80	0.42744827
35	0x3f4abe6a	0.791968
36	0xbea4190a	-0.32050353
37	0xbf5245a4	-0.82137513
38	0xbd826ac0	-0.06368017
39	0xbe5fb215	-0.21845277
40	0xbee53ebd	-0.44774428
41	0xbcfe8f0f	-0.031074075
42	0x3f256274	0.6460335
43	0x3de3acbe	0.11116932
44	0x3f213c57	0.62982696
45	0xbe88e74f	-0.26738974
46	0x3e51606f	0.20446943
47	0x3df3f9a1	0.11912847
48	0xbf0f6238	-0.56009245
49	0x3ee15ec9	0.44017628
50	0x3e207120	0.15668154
51	0x3e62aefd	0.22137065
52	0xbe1d11e3	-0.15338854
53	0x3e0713cc	0.13191146
54	0x3c913f96	0.017730515
55	0x3e8b1174	0.27161753
56	0x3e9cd4be	0.3063106
57	0x3e7062c6	0.23475179
58	0x3e412cb4	0.18864709
59	0xbdb7abc2	-0.08968307
60	0x3e2d5ff0	0.16931129
61	0x3e97fda9	0.29685715
62	0xbf113148	-0.5671582
63	0x3d8922d3	0.06696095
64	0x3eb9e04f	0.36303946
65	0xbf162386	-0.58647954
66	0x3d068eae	0.032850914
67	0xbe77e001	-0.24206544
68	0xbf4d5f22	-0.80223286
69	0x3ece5efa	0.40306836
70	0xbeaa767c	-0.3329352
71	0x3e10058a	0.14064613
72	0xbe44787d	-0.19186588
73	0x3ec19b83	0.3781396
74	0x3d7d24f8	0.061802834
75	0xbd8af079	-0.06784148
76	0xbe8c73e6	-0.27432173
77	0xbe6e1c35	-0.23252948
78	0x3e3bcba8	0.18339407
79	0x3e563521	0.20918705
80	0xbf66f5e6	-0.9021896
81	0xbd5b57b2	-0.05355043
82	0x3ecdea4f	0.40217826
83	0xbe290695	-0.16506417
84	0x3ec12d53	0.37729892
85	0xbe4ea181	-0.20178796
86	0x3d2acd87	0.041699912
87	0x3f0899c2	0.53359616
88	0x3cf6cb0e	0.03012612
89	0x3e7daf67	0.24773942
90	0x3eaefb2c	0.34176004
91	0xbe58330a	-0.2111322
92	0xbf2ffeb8	-0.68748045
93	0x3f44ba26	0.7684654
94	0x3e2fa6f2	0.17153528
95	0x3c833eff	0.01602125
96	0x3f4e8bf0	0.8068228
97	0xbdabd071	-0.083893664
98	0x3e57f9fe	0.21091458
99	0x3e4a944b	0.19783132
100	0x3e8bf674	0.27336466
101	0xbe3b7ea3	-0.18310027
102	0xbf53bfb5	-0.82714397
103	0x3ddb992d	0.10722575
104	0xbd7f1085	-0.062271614
105	0xbd459199	-0.048234556
106	0x3e70f114	0.23529464
107	0x3ee06c4a	0.43832618
108	0xbf2e511a	-0.680925
109	0x3f0f913f	0.56081
110	0xbeb4e660	-0.35332012
111	0xbe6a8cc7	-0.22905265
112	0x3d329aff	0.043604847
113	0x3ea48007	0.32128927
114	0x3e02f4e5	0.12788732
115	0x3e5f2447	0.21791182
116	0x3eeeb17d	0.46619788
117	0xbbd615fd	-0.006533383
118	0x3eb473a2	0.3524447
119	0x3e16932d	0.1470458
120	0x3ec2132d	0.37905255
121	0xbdb1fd5b	-0.08690902
122	0x3e130c29	0.14360107
123	0x3e1a55d6	0.15071806
124	0x3eb3daae	0.35127777
125	0xbf427f42	-0.7597543
126	0xbe2b6e45	-0.16741283
127	0x3eecc473	0.4624363

layers.1.1.weight f4 [8]
0	0x3f78f242	0.97244656
1	0x3f80012a	1.0000355
2	0x3f84b0f7	1.0366505
3	0x3f79e528	0.9761529
4	0x3f83947a	1.0279686
5	0x3f7ed091	0.99537
6	0x3f83693d	1.0266491
7	0x3f7ecdc1	0.99532706

layers.1.1.bias f4 [8]
0	0xbc688f3a	-0.014194304
1	0x3c97787f	0.018490074
2	0x3d549fcb	0.051910203
3	0x3aac0d91	0.0013126602
4	0xba68a38c	-0.0008874468
5	0x3b74129a	0.0037242533
6	0x3cdc9919	0.026928471
7	0x3bd3e7d9	0.0064668474

layers.1.1.running_mean f4 [8]
0	0xbf7a9b38	-0.97893095
1	0xbe93d68f	-0.28874633
2	0x3ed16650	0.4089837
3	0x3f000824	0.5001242
4	0xbee7f456	-0.453036
5	0x3e96d03e	0.2945575
6	0x3d9b1efd	0.0757427
7	0x3f61d14a	0.88209975

layers.1.1.running_var f4 [8]
0	0x3f5a532b	0.85283154
1	0x3f9f53fe	1.2447507
2	0x3fa4b7eb	1.2868627
3	0x3ef7577e	0.4830894
4	0x3ea9254e	0.33036274
5	0x40791e52	3.8924756
6	0x3f3fd844	0.7493937
7	0x3f408b31	0.7521239

layers.2.0.weight f4 [4, 8]
0	0xbe1f94a4	-0.15584046
1	0xbd3e7500	-0.0464983
2	0x3e9020cc	0.28150022
3	0x3f6a785e	0.91589916
4	0x3d7d1aae	0.06179302
5	0x3e32439d	0.17408605
6	0xbf9706cc	-1.1798949
7	0x3ec74de8	0.38926625
8	0xbee7a96d	-0.4524645
9	0x3e123fb4	0.14282113
10	0xbd579084	-0.052628055
11	0xbd491797	-0.049094763
12	0xbe1e7fbc	-0.15478414
13	0xbed7aef6	-0.42125672
14	0xbf204ce1	-0.6261731
15	0xbe9f5b43	-0.31124315
16	0xbe9dc7ea	-0.30816585
17	0x3f14110c	0.5783851
18	0xbf1003f6	-0.56256044
19	0xbdd0aead	-0.10189567
20	0xbf1bbd76	-0.6083597
21	0x3e732c22	0.23747304
22	0x3e9889f6	0.29792756
23	0xbebd8986	-0.37018985
24	0xbe08bf65	-0.13354261
25	0x3f48dd88	0.7846303
26	0xbf3aa917	-0.7291426
27	0xbdc43053	-0.095795296
28	0xbd31c1fc	-0.04339789
29	0x3f2a4f3c	0.6652715
30	0x3ed664cd	0.4187378
31	0xbf0c1c76	-0.5473093

layers.2.1.weight f4 [4]
0	0x3f7edc7b	0.99555176
1	0x3f778242	0.9668313
2	0x3f80f282	1.0074008
3	0x3f7b8047	0.9824261

layers.2.1.bias f4 [4]
0	0x3badab79	0.005299982
1	0xbd4e4a61	-0.050363902
2	0x3ccb3003	0.024803167
3	0xbc16af8e	-0.009197129

layers.2.1.running_mean f4 [4]
0	0x3df001f8	0.117191255
1	0xbf4d8ead	-0.8029583
2	0xbe9e886e	-0.30963463
3	0x3e2c36c7	0.16817771

layers.2.1.running_var f4 [4]
0	0x3f842cda	1.0326188
1	0x3ea50039	0.32226732
2	0x3f7b018c	0.98049235
3	0x40334bd5	2.8015034

layers.3.0.weight f4 [2, 4]
0	0x3f0e31c0	0.5554466
1	0x3e18f167	0.14935838
2	0x3edcc1b8	0.43116546
3	0x3f5e17a3	0.86754817
4	0xbfce01b6	-1.6094272
5	0x3f1618a2	0.58631337
6	0x40062c6b	2.096461
7	0x3f87f763	1.0622371

layers.3.1.weight f4 [2]
0	0x3f75fbe3	0.96087474
1	0x3f827c19	1.0194122

layers.3.1.bias f4 [2]
0	0xbc9d8b4f	-0.019231467
1	0x3d4f483c	0.050605997

layers.3.1.running_mean f4 [2]
0	0x3f4b26ef	0.7935628
1	0x3f5b6da0	0.8571415

layers.3.1.running_var f4 [2]
0	0x3edb1435	0.42788854
1	0x40c77419	6.232922

fc_out.weight f4 [2, 2]
0	0xbfdcb429	-1.724248
1	0x3f40af14	0.7526715
2	0xbeae1726	-0.34002036
3	0xbf88bfd5	-1.0683542

fc_out.bias f4 [2]
0	0x3b8d7333	0.0043167113
1	0xbb8d7333	-0.0043167113

exp_avg f4 [16, 66]
0	0x3af530ee	0.0018706599
1	0x38083318	3.247251e-05
2	0x3a81a3d5	0.0009890745
3	0xba56db71	-0.00081961515
4	0xb9a4229d	-0.00031306306
5	0xb940f4a0	-0.00018401677
6	0xb944c881	-0.0001876671
7	0xb820c824	-3.8333368e-05
8	0x38fa9cc8	0.00011950132
9	0xb6797bdf	-3.7175994e-06
10	0x39f6ec5f	0.00047096887
11	0xb8dfe494	-0.000106760446
12	0xb8809d17	-6.132776e-05
13	0xb5a4e8f5	-1.2286752e-06
14	0x3783b6dc	1.5701567e-05
15	0xb80c5abb	-3.34631e-05
16	0x37141a8c	8.827668e-06
17	0x3865fc36	5.4832744e-05
18	0x3ae3458f	0.0017339456
19	0x389a49a3	7.357008e-05
20	0x3a1e4ca2	0.0006038641
21	0xba959085	-0.0011410868
22	0xb99e9b6b	-0.00030251904
23	0xb91476db	-0.00014158657
24	0xb913770e	-0.00014063364
25	0xb89c1677	-7.442844e-05
26	0xb87f25f9	-6.0832102e-05
27	0xb81ab5ca	-3.6885765e-05
28	0xb7054e65	-7.94567e-06
29	0xb8b8f941	-8.820231e-05
30	0x34986163	2.8383064e-07
31	0x38296a5c	4.0391795e-05
32	0x336234a8	5.2667616e-08
33	0x3920fd25	0.00015353093
34	0x00000000	0.0
35	0x00000000	0.0
36	0xb6acb387	-5.146899e-06
37	0x00000000	0.0
38	0x00000000	0.0
39	0xb643fe45	-2.9205269e-06
40	0xb61a0296	-2.2949293e-06
41	0xb82a531e	-4.0608567e-05
42	0xb7befae8	-2.2766602e-05
43	0xb80024d1	-3.0551866e-05
44	0xb85873bf	-5.160621e-05
45	0xbc2694e6	-0.010167336
46	0xbc678e22	-0.014133008
47	0xbc671c73	-0.014105904
48	0xbbfe905e	-0.0077686748
49	0xbbe1e88e	-0.0068941778
50	0xbc704198	-0.014664076
51	0x3a6287f0	0.0008641472
52	0x3af287de	0.0018503626
53	0x3b31da5e	0.0027138214
54	0xbaeb7651	-0.0017964338
55	0xbc963ea6	-0.01834042
56	0xbc235aa2	-0.009970339
57	0xbc6244ce	-0.01381035
58	0xbc618ef9	-0.0137669975
59	0x3af23deb	0.0018481588
60	0x2c1ddf2d	2.243493e-12
61	0x2d32db37	1.0166804e-11
62	0x36d59470	6.365175e-06
63	0x36b6e6e9	5.450904e-06
64	0x3746a77e	1.1840717e-05
65	0xbbd330ee	-0.006445042
66	0xb8d1eaee	-0.00010009656
67	0x3729c157	1.01182e-05
68	0xba0f0fe2	-0.0005457384
69	0x3a971b2f	0.0011528487
70	0x39306e0a	0.0001682566
71	0x3912a637	0.00013985565
72	0x3926a21a	0.00015891381
73	0x388e9110	6.798108e-05
74	0xb8373091	-4.367583e-05
75	0x378edc6d	1.7030363e-05
76	0xb9136b9b	-0.00014059099
77	0xb795f8d1	-1.7878048e-05
78	0xb6edef20	-7.090988e-06
79	0x382b325d	4.081648e-05
80	0xb6bf29e0	-5.6971185e-06
81	0x37522a54	1.2526831e-05
82	0xb6753f15	-3.6544563e-06
83	0x380ccb06	3.356768e-05
84	0xba0b9c7d	-0.0005325748
85	0xb780f1f2	-1.5371454e-05
86	0xb9d2ebae	-0.00040229916
87	0x3abe2a53	0.0014508463
88	0x399e3e1c	0.00030182383
89	0x3909439c	0.00013090525
90	0x38a78fc1	7.989957e-05
91	0x381a92a8	3.6853045e-05
92	0xb83fdd24	-4.5743902e-05
93	0xb7865ad6	-1.6016344e-05
94	0xb5eda09d	-1.7704621e-06
95	0x388eef87	6.815703e-05
96	0x36ca7d2e	6.034642e-06
97	0x38206271	3.8238653e-05
98	0xb4a74a0f	-3.116006e-07
99	0xb904f49e	-0.00012679628
100	0x00000000	0.0
101	0x00000000	0.0
102	0x36ce5fc1	6.1504256e-06
103	0x00000000	0.0
104	0x00000000	0.0
105	0x3795afbd	1.7844019e-05
106	0xb6f301ff	-7.2421967e-06
107	0x3698f283	4.558185e-06
108	0xb7d0dd27	-2.4898514e-05
109	0x37360af3	1.0850595e-05
110	0x37ec3801	2.8159471e-05
111	0x3c6504e4	0.013978217
112	0x3c6e38f1	0.014539943
113	0x3c6ec153	0.014572459
114	0x3b9c2b0a	0.004765873
115	0x3b91c274	0.0044482294
116	0x3c16efff	0.009212493
117	0x3ac31c6a	0.0014885787
118	0x3a9542ba	0.0011387684
119	0x3b2c4b7f	0.0026290116
120	0x3a90475a	0.0011007593
121	0x3c52e153	0.012871104
122	0x3c4b8af4	0.012423266
123	0x3c5494b5	0.012974908
124	0x3c530013	0.012878436
125	0x3c82a20e	0.015946414
126	0x00000000	0.0
127	0x2b8f8238	1.0196904e-12
128	0xb69d0459	-4.6794707e-06
129	0xb69c6f88	-4.6621462e-06
130	0xb71cf291	-9.3548015e-06
131	0x3c23bceb	0.009993772
132	0x38c4091c	9.347705e-05
133	0x35a3304f	1.2158506e-06
134	0xb802781f	-3.1106287e-05
135	0xb69c65b0	-4.6610003e-06
136	0xb771686d	-1.4389033e-05
137	0x349925dd	2.852602e-07
138	0xb3579a3f	-5.0198874e-08
139	0x33fecb74	1.18648046e-07
140	0x3667d884	3.454771e-06
141	0x35b004cb	1.3114417e-06
142	0xb7e33651	-2.7085802e-05
143	0xb6613429	-3.3557974e-06
144	0xb5f65607	-1.8353466e-06
145	0x327cbfbb	1.4711925e-08
146	0x33950945	6.940039e-08
147	0xb73709b2	-1.0909907e-05
148	0xb5910cf2	-1.080711e-06
149	0x3608090c	2.0270845e-06
150	0xb7807f74	-1.5318139e-05
151	0xb5958464	-1.1139896e-06
152	0xb802c96b	-3.1182e-05
153	0xb75fb46f	-1.3333846e-05
154	0xb78848c8	-1.6246355e-05
155	0x3618e6fe	2.278422e-06
156	0xb6274501	-2.4925105e-06
157	0xb6b9743e	-5.526962e-06
158	0xb6616f8e	-3.3592546e-06
159	0xb6041993	-1.968442e-06
160	0xb5d66558	-1.5973737e-06
161	0xb76a1078	-1.3951321e-05
162	0xb4ce4400	-3.8419967e-07
163	0x361afc92	2.3094804e-06
164	0xb3dcb4fe	-1.02774706e-07
165	0xb63521fb	-2.699088e-06
166	0x00000000	0.0
167	0x00000000	0.0
168	0xb4393683	-1.7249299e-07
169	0x00000000	0.0
170	0x00000000	0.0
171	0x359d6f49	1.17298e-06
172	0xb42cac04	-1.6081327e-07
173	0xb5a93afa	-1.2608646e-06
174	0xb5c86c00	-1.4932593e-06
175	0xb5c7d856	-1.4889617e-06
176	0xb6092b43	-2.0439772e-06
177	0x387e3c7c	6.061465e-05
178	0xb7e402f7	-2.7181099e-05
179	0xb804981a	-3.1612908e-05
180	0x39565e72	0.00020443814
181	0x3923f204	0.00015635049
182	0x39bd2141	0.00036073665
183	0xb8bcf048	-9.0092944e-05
184	0xb90ccbd5	-0.00013427374
185	0xb96b36da	-0.0002243178
186	0xb8a2afc4	-7.757501e-05
187	0x39884506	0.00025991368
188	0x39153eec	0.00014233188
189	0x387b6b0a	5.994275e-05
190	0x387f2cba	6.0838393e-05
191	0x3954e3c3	0.00020302743
192	0x00000000	0.0
193	0x00000000	0.0
194	0x3410f394	1.3499658e-07
195	0x3415679f	1.3914403e-07
196	0x34968efe	2.8043718e-07
197	0xb99b626d	-0.00029637237
198	0x393c8836	0.0001797982
199	0x3655a7e9	3.183721e-06
200	0xb993efa2	-0.00028216565
201	0xb8a9f338	-8.103851e-05
202	0xb75a892d	-1.3025751e-05
203	0xb5d0e273	-1.5563113e-06
204	0xb755b320	-1.2737495e-05
205	0x381da6b9	3.758699e-05
206	0x36f928a0	7.4255076e-06
207	0xb82ccdb9	-4.119959e-05
208	0xb9882e1e	-0.000259743
209	0xb87378d2	-5.8048237e-05
210	0xb5413408	-7.197382e-07
211	0x38270b75	3.9826573e-05
212	0xb800da83	-3.0721083e-05
213	0xb85cecda	-5.2672673e-05
214	0x369c172e	4.6518608e-06
215	0x374ae17c	1.2092638e-05
216	0x373ab428	1.112841e-05
217	0xb79f967d	-1.9024354e-05
218	0xb961ea4c	-0.00021544955
219	0x383d3344	4.5108856e-05
220	0x389cfb16	7.485428e-05
221	0xb7043761	-7.880707e-06
222	0xb87ff34c	-6.1023326e-05
223	0x3666a04b	3.4365974e-06
224	0xb89cceef	-7.477204e-05
225	0xb6c050bd	-5.731445e-06
226	0xb7b60480	-2.1698186e-05
227	0xb7a30b8b	-1.943649e-05
228	0x372661fa	9.917183e-06
229	0x38571bd4	5.128591e-05
230	0xb4daedb7	-4.0778625e-07
231	0x377bb41d	1.5002702e-05
232	0x00000000	0.0
233	0x00000000	0.0
234	0x36f86123	7.402284e-06
235	0x00000000	0.0
236	0x00000000	0.0
237	0x36a01fb9	4.7720646e-06
238	0xb714b615	-8.863882e-06
239	0xb71a0839	-9.18103e-06
240	0xb7b0b8d1	-2.1066897e-05
241	0x3746b056	1.1842776e-05
242	0x373e3e66	1.1339411e-05
243	0xbb08249b	-0.0020773772
244	0xbb19718a	-0.0023413622
245	0xbb194413	-0.0023386523
246	0xb9aeb300	-0.00033321232
247	0xb8df64c1	-0.000106522355
248	0xb9e63549	-0.0004390872
249	0xb9c71343	-0.0003797059
250	0xba3f7c34	-0.00073045795
251	0xba915b9c	-0.0011089924
252	0xb977125b	-0.00023562594
253	0xba4864e9	-0.00076444313
254	0xbac3c771	-0.0014936758
255	0xbae5d050	-0.0017533395

exp_avg_sq f4 [16, 66]
0	0x36637de9	3.3898925e-06
1	0x329200ea	1.6997053e-08
2	0x343974b4	1.7271924e-07
3	0x361ab4c5	2.305301e-06
4	0x342c332c	1.6037365e-07
5	0x3327d262	3.907406e-08
6	0x33905cc1	6.7223944e-08
7	0x327c53f7	1.4687422e-08
8	0x334167ab	4.50306e-08
9	0x33aaa787	7.946715e-08
10	0x359dad1f	1.1747796e-06
11	0x339e1af6	7.3623525e-08
12	0x32a84055	1.9587029e-08
13	0x32a2d300	1.8955234e-08
14	0x30f63ce9	1.7916167e-09
15	0x32b39c2d	2.0909363e-08
16	0x2ed8ed2d	9.864674e-11
17	0x32faa16d	2.9177238e-08
18	0x3692ba13	4.372801e-06
19	0x319845d5	4.431721e-09
20	0x342e38cd	1.6225677e-07
21	0x3601c5ee	1.9337708e-06
22	0x33c07b35	8.963108e-08
23	0x3369a001	5.4395063e-08
24	0x33a10d5a	7.4995754e-08
25	0x31bc848a	5.486588e-09
26	0x3391fc69	6.798002e-08
27	0x320ba49c	8.128293e-09
28	0x30cda1bd	1.4961682e-09
29	0x3308fa55	3.1892643e-08
30	0x2ffeaa6e	4.6323428e-10
31	0x32cfe8a1	2.4203759e-08
32	0x2c28597c	2.392391e-12
33	0x33480f7a	4.6580205e-08
34	0x00000000	0.0
35	0x00000000	0.0
36	0x2e7f9d97	5.8120255e-11
37	0x00000000	0.0
38	0x00000000	0.0
39	0x30c7b000	1.4529178e-09
40	0x31986901	4.43572e-09
41	0x3121e674	2.355958e-09
42	0x305a3108	7.9377616e-10
43	0x31c0a6a0	5.6068785e-09
44	0x31141d34	2.1553435e-09
45	0x3a50f35f	0.00079708354
46	0x3a5925ed	0.00082835444
47	0x3a58cd69	0.00082703546
48	0x3922eff6	0.00015538916
49	0x38f479f9	0.00011657546
50	0x3a0d9e5d	0.0005402321
51	0x36a81d73	5.0102185e-06
52	0x37a9c835	2.0239599e-05
53	0x3837ae4f	4.3792938e-05
54	0x35f6f956	1.8400995e-06
55	0x3a0a606f	0.0005278652
56	0x3a648bb7	0.0008718329
57	0x3a6d5606	0.0009053651
58	0x3a6e53cd	0.0009091467
59	0x3adc9f38	0.0016832119
60	0x244de770	4.4648324e-17
61	0x254dba0f	1.7843955e-16
62	0x2f89e64d	2.5083793e-10
63	0x300080ce	4.674917e-10
64	0x30bc5028	1.3701582e-09
65	0x3a599f1b	0.00083016016
66	0x34eda04a	4.4261316e-07
67	0x31169f71	2.1918505e-09
68	0x33269dbc	3.8793345e-08
69	0x3482c48f	2.4357402e-07
70	0x32994de1	1.784696e-08
71	0x3219e00a	8.956713e-09
72	0x32877548	1.5769402e-08
73	0x31aedcec	5.0891824e-09
74	0x325408e8	1.2342049e-08
75	0x32bc22b0	2.1901855e-08
76	0x339144c1	6.764595e-08
77	0x31ffe07f	7.446999e-09
78	0x2f9c43a4	2.8424296e-10
79	0x314c677d	2.9744733e-09
80	0x2f7a8652	2.2785088e-10
81	0x3161648c	3.2798964e-09
82	0x2e2c8d98	3.9234033e-11
83	0x31252980	2.403425e-09
84	0x34e684d3	4.293748e-07
85	0x3067ca36	8.432467e-10
86	0x3361b538	5.2551712e-08
87	0x34c0bf42	3.5901945e-07
88	0x32c04042	2.2380963e-08
89	0x32504222	1.212223e-08
90	0x328b6d57	1.6231452e-08
91	0x30965287	1.0937392e-09
92	0x31ed7f24	6.912062e-09
93	0x2fbd2a07	3.4408762e-10
94	0x2f3a874d	1.696467e-10
95	0x31390166	2.6921838e-09
96	0x2e843b98	6.013251e-11
97	0x317570d2	3.5716323e-09
98	0x2ac5c6fc	3.5132303e-13
99	0x322b2028	9.9608215e-09
100	0x00000000	0.0
101	0x00000000	0.0
102	0x2d6efd0a	1.358492e-11
103	0x00000000	0.0
104	0x00000000	0.0
105	0x2eb6216b	8.282338e-11
106	0x309d9841	1.1466527e-09
107	0x2f7ae28d	2.2817855e-10
108	0x2f9cc1f3	2.8514044e-10
109	0x2f7dd824	2.3087005e-10
110	0x3056b45a	7.810904e-10
111	0x3896789f	7.175025e-05
112	0x38b6ba39	8.713123e-05
113	0x38b6ae2d	8.710879e-05
114	0x375525ad	1.2704561e-05
115	0x373ec770	1.1371318e-05
116	0x3848dc0b	4.7888647e-05
117	0x368b408d	4.1500375e-06
118	0x36ac099a	5.127117e-06
119	0x3798b389	1.8203415e-05
120	0x34e5e210	4.2819056e-07
121	0x388c5ab1	6.692613e-05
122	0x388fc876	6.85611e-05
123	0x38af4f4f	8.359423e-05
124	0x38aeda66	8.3376464e-05
125	0x384e1486	4.913334e-05
126	0x00000000	0.0
127	0x23cf54ad	2.2478847e-17
128	0x2f7716d2	2.2472627e-10
129	0x2fc0b62e	3.5054043e-10
130	0x309b1574	1.1283832e-09
131	0x390a4ccf	0.00013189319
132	0x336ed246	5.5604936e-08
133	0x2f818fdb	2.356718e-10
134	0x328a04de	1.6067528e-08
135	0x33327763	4.1552436e-08
136	0x306afe11	8.5489754e-10
137	0x2f887755	2.4823046e-10
138	0x30ab09b1	1.2444642e-09
139	0x2eacd148	7.85883e-11
140	0x3007d562	4.941595e-10
141	0x30850333	9.677933e-10
142	0x322555be	9.62376e-09
143	0x2fc72506	3.6224196e-10
144	0x2e6246ec	5.1449442e-11
145	0x2f4cbde6	1.8621157e-10
146	0x2ddc7ec1	2.5067394e-11
147	0x2f88d7da	2.4891628e-10
148	0x2d79b7fc	1.4194864e-11
149	0x30b35d46	1.3050474e-09
150	0x3384f61e	6.1914974e-08
151	0x2e664600	5.2358118e-11
152	0x324b8543	1.1846455e-08
153	0x3315f724	3.491654e-08
154	0x3040073c	6.9859474e-10
155	0x2ffa6b79	4.55511e-10
156	0x301a9af5	5.624508e-10
157	0x2f542f15	1.9298015e-10
158	0x2f4e7430	1.8776869e-10
159	0x2e389e29	4.197723e-11
160	0x2dd707cd	2.4446134e-11
161	0x2f76682c	2.2410579e-10
162	0x2ccc9fd3	5.8157728e-12
163	0x306d7397	8.638436e-10
164	0x2886463d	1.490745e-14
165	0x311d8e5a	2.2927424e-09
166	0x00000000	0.0
167	0x00000000	0.0
168	0x2b37d5b0	6.531121e-13
169	0x00000000	0.0
170	0x00000000	0.0
171	0x2c8e908f	4.051932e-12
172	0x2f1efd38	1.4459978e-10
173	0x2e901226	6.551586e-11
174	0x2e52b969	4.791315e-11
175	0x2f59c8c1	1.9807357e-10
176	0x2eefa5a3	1.0897885e-10
177	0x34f5a615	4.5755647e-07
178	0x3582adcb	9.736335e-07
179	0x3583bd53	9.815361e-07
180	0x3407a94e	1.2634447e-07
181	0x341a1dc6	1.4353199e-07
182	0x350c4957	5.226079e-07
183	0x34abf547	3.2029695e-07
184	0x34edd447	4.4299142e-07
185	0x35c1286e	1.4391387e-06
186	0x32373788	1.0664628e-08
187	0x34c8fa0b	3.7434833e-07
188	0x354b2b9e	7.5686864e-07
189	0x35d9ab72	1.6217657e-06
190	0x35dd5628	1.6490858e-06
191	0x3599dadc	1.1463085e-06
192	0x00000000	0.0
193	0x00000000	0.0
194	0x2b9f811d	1.1333466e-12
195	0x2cabefcb	4.8867347e-12
196	0x2d140283	8.413384e-12
197	0x35d31463	1.5726658e-06
198	0x35839475	9.803467e-07
199	0x30caadf5	1.4746876e-09
200	0x34899b84	2.563139e-07
201	0x36bfcaa1	5.7158327e-06
202	0x3343bc6f	4.5573355e-08
203	0x328b16bd	1.619207e-08
204	0x32e8e5f6	2.7112929e-08
205	0x314749a2	2.9000167e-09
206	0x319892ee	4.440486e-09
207	0x32af62d3	2.0417621e-08
208	0x34ae89a2	3.2510167e-07
209	0x329935af	1.7835957e-08
210	0x30e8b539	1.6931728e-09
211	0x310cf9e2	2.0514723e-09
212	0x305cf4f7	8.038365e-10
213	0x32d85c6c	2.5187738e-08
214	0x2e2e598b	3.964255e-11
215	0x31940190	4.3075445e-09
216	0x351140de	5.4111104e-07
217	0x304a16c8	7.3519546e-10
218	0x342fa6e5	1.6358861e-07
219	0x36be3ee3	5.6697622e-06
220	0x3353dcf0	4.9328207e-08
221	0x325898e5	1.2607619e-08
222	0x332aca4f	3.9765208e-08
223	0x312ba38d	2.4976743e-09
224	0x32235a7f	9.508425e-09
225	0x30a317d8	1.1866588e-09
226	0x2f93cca6	2.6884556e-10
227	0x32c73853	2.3192262e-08
228	0x2f0ef5b5	1.3002117e-10
229	0x32200f55	9.316712e-09
230	0x2b706b6b	8.54142e-13
231	0x3209e82b	8.027238e-09
232	0x00000000	0.0
233	0x00000000	0.0
234	0x2d036bf5	7.470459e-12
235	0x00000000	0.0
236	0x00000000	0.0
237	0x2eda4f67	9.927597e-11
238	0x30a2f00e	1.1855279e-09
239	0x2f87877c	2.4652624e-10
240	0x2f8e2eae	2.5862817e-10
241	0x2f871bcf	2.4576116e-10
242	0x303a87fb	6.7859646e-10
243	0x3a3d289e	0.000721583
244	0x3a360d75	0.0006944754
245	0x3a36003b	0.00069427834
246	0x379d68f7	1.8764737e-05
247	0x37c2b2b9	2.3209826e-05
248	0x38ae8d14	8.3232444e-05
249	0x3814d4ca	3.5484125e-05
250	0x3805e8eb	3.1926593e-05
251	0x390d160d	0.00013455022
252	0x36417c16	2.8831469e-06
253	0x3973fc5d	0.00023268299
254	0x39fce3ba	0.00048234855
255	0x39f28325	0.00046255547

exp_avg f4 [16]
0	0xbbbe7098	-0.005811762
1	0x3c2cb501	0.010541202
2	0xbb75325d	-0.0037414052
3	0xb9a8a9e9	-0.0003217005
4	0x3acc738a	0.0015598398
5	0xbb285fe6	-0.0025691926
6	0x3a9324da	0.0011226193
7	0xbb885c5a	-0.0041614
8	0x3b4d04ab	0.00312833
9	0x3b376ffe	0.0027990337
10	0xbb5d5487	-0.0033772306
11	0x3b1957ab	0.0023398201
12	0xb9af869b	-0.0003347889
13	0x3993b1b7	0.00028170433
14	0x3851ffa0	5.0067552e-05
15	0xbb8bd313	-0.0042671054

exp_avg_sq f4 [16]
0	0x381fecf0	3.812922e-05
1	0x390a9026	0.00013214405
2	0x39118935	0.00013879391
3	0x38146642	3.5381185e-05
4	0x38e39837	0.00010852556
5	0x38141919	3.5309324e-05
6	0x3873d322	5.8132347e-05
7	0x396bb051	0.0002247703
8	0x38fc51a8	0.00012031506
9	0x36de2ec8	6.6215616e-06
10	0x386e9f7b	5.689215e-05
11	0x39679032	0.00022083594
12	0x38d3091c	0.00010062961
13	0x3a78833d	0.0009480005
14	0x378c633a	1.6735507e-05
15	0x393954a8	0.00017674512

exp_avg f4 [16]
0	0xbc227d64	-0.009917591
1	0x3ba02117	0.004886757
2	0xbb8d055e	-0.0043036183
3	0x3bc2a8b7	0.0059405225
4	0xbbc8d6c3	-0.006129117
5	0x38fb8e38	0.00011995103
6	0x3c4de094	0.012565751
7	0xbae4becd	-0.0017451883
8	0x3bb624ef	0.005558602
9	0x3b75b293	0.0037490472
10	0xbb9210ec	-0.0044575837
11	0x3b1e0fa1	0.0024118202
12	0x3bdeddb6	0.0068013323
13	0x3968297a	0.00022140695
14	0x3803d9ee	3.1435797e-05
15	0xbb99324a	-0.0046751844

exp_avg_sq f4 [16]
0	0x3828fd79	4.0290386e-05
1	0x3872ff05	5.79348e-05
2	0x383b9a3e	4.4727924e-05
3	0x38416cc6	4.611609e-05
4	0x395a27b0	0.00020804885
5	0x37d52d95	2.5412804e-05
6	0x398e31d2	0.0002712147
7	0x37f15c48	2.877241e-05
8	0x38a0d303	7.6686985e-05
9	0x375913d6	1.2938826e-05
10	0x3716d48a	8.990182e-06
11	0x39a56f61	0.00031554236
12	0x39361c3e	0.00017367394
13	0x39c89acf	0.00038262314
14	0x38128cea	3.494035e-05
15	0x38cccf7b	9.766124e-05

exp_avg f4 [8, 16]
0	0xbbad4dd2	-0.005288818
1	0xbbb5f490	-0.0055528358
2	0x39eeaab3	0.00045522078
3	0xbb4fdaab	-0.003171603
4	0x3b41e8b9	0.0029588176
5	0x3b34da15	0.0027595807
6	0xbb9400f9	-0.0045167175
7	0x3b381add	0.0028092184
8	0x3a245952	0.0006269413
9	0xbb8b7a01	-0.0042564874
10	0x3b1dc4fe	0.0024073715
11	0xbac76c9c	-0.0015214863
12	0xbb8252eb	-0.0039771697
13	0x3b863ad7	0.0040963697
14	0x3bf6fc1e	0.007537379
15	0xba12b04b	-0.00055957277
16	0x3b2e42e0	0.0026590154
17	0x3b79e331	0.0038129801
18	0x3b39b0b3	0.002833408
19	0xbb09559f	-0.0020955575
20	0x3b01e0be	0.0019817795
21	0xbb088377	-0.0020830312
22	0xba1598c3	-0.0005706662
23	0xba5ae7b8	-0.0008350569
24	0x3a7bfa4c	0.0009612187
25	0x3bb106db	0.0054024286
26	0xb9e2f6b3	-0.00043289884
27	0xbb4bd64b	-0.003110307
28	0x3b136658	0.0022491422
29	0xbb891bf9	-0.004184243
30	0xbc261c1f	-0.0101385405
31	0x3b87a778	0.004139837
32	0xbb4bf032	-0.003111851
33	0xbbbc7db9	-0.005752292
34	0xba479f07	-0.00076149445
35	0xba5ec287	-0.0008497615
36	0xbab716dd	-0.0013968606
37	0xba573189	-0.00082089804
38	0xbb18839f	-0.0023271812
39	0xbaab34f7	-0.0013062049
40	0xbb3ccf7c	-0.0028810194
41	0xbb12513b	-0.002232625
42	0xba9a9f35	-0.0011796715
43	0xb8edf4d7	-0.000113466456
44	0xbb6d0af4	-0.0036169859
45	0xba9e69bb	-0.0012085953
46	0x3b851d20	0.00406231
47	0xba4a9d49	-0.0007729126
48	0x3bb1a5bc	0.0054213684
49	0x3c583958	0.013197266
50	0xbc25a257	-0.010109506
51	0x3b8129c9	0.0039417488
52	0xbc14fe91	-0.0090938965
53	0xbc252d7a	-0.010081643
54	0x3b89116e	0.004182986
55	0xbc0af4f7	-0.008481256
56	0x3bc80c7f	0.0061050053
57	0x3bdc8d5d	0.006730719
58	0xbc217747	-0.009855098
59	0x38445413	4.680834e-05
60	0x3beaac76	0.007161672
61	0xbc256786	-0.010095483
62	0xba8f61ca	-0.0010939178
63	0xbc21b1b5	-0.009869029
64	0xbb243a44	-0.0025059143
65	0xbbe61ee9	-0.0070227277
66	0xbbc95915	-0.0061446526
67	0x3b85328a	0.0040648626
68	0xbb0f806f	-0.002189662
69	0xbbb80cb1	-0.0056167473
70	0x3b44615b	0.0029965255
71	0xbbdc1db1	-0.0067174067
72	0x3ae93e22	0.0017795006
73	0xba9fee80	-0.0012201816
74	0xbb991032	-0.00467112
75	0x3bc8cb5f	0.0061277593
76	0xba3f3ecf	-0.0007295431
77	0xbb961668	-0.0045803078
78	0x3c1c4622	0.009538205
79	0xbbced2cb	-0.0063117496
80	0xb9f73778	-0.0004715284
81	0xba1c9874	-0.0005973645
82	0x3a09126f	0.0005228882
83	0xba506140	-0.00079490617
84	0x3a4c9aa3	0.0007805025
85	0xba92ee32	-0.0011209904
86	0xba664551	-0.00087841327
87	0xba22f644	-0.0006216506
88	0xb8659ff0	-5.4746808e-05
89	0x38f533c3	0.00011692152
90	0xb9e7bdb4	-0.00044201093
91	0xb9e34684	-0.00043349352
92	0xba4a2e1c	-0.00077125593
93	0xbac3194c	-0.0014884858
94	0xbb118afb	-0.0022208083
95	0x3a7ecf48	0.00097202184
96	0x3b39b278	0.0028335135
97	0x3b8c8497	0.004288267
98	0x3989b8bb	0.0002626831
99	0xba327129	-0.00068070233
100	0x3b8ca637	0.0042922753
101	0xbad667e5	-0.0016357867
102	0x3b5355e6	0.0032247244
103	0x3ad03d11	0.001588734
104	0x3b911050	0.0044269934
105	0x3b89da11	0.0042069037
106	0x3a9938b0	0.0011689868
107	0xb987d833	-0.00025910288
108	0x3b99c6ec	0.004692903
109	0xba20465e	-0.0006114001
110	0xbc01b95c	-0.007917728
111	0x391aeb16	0.00014774161
112	0xbb317459	-0.0027077405
113	0x3b46218a	0.0030232393
114	0xbbc534bf	-0.0060182507
115	0xba45c95c	-0.00075449585
116	0xbbdc0baf	-0.00671526
117	0xbbb90b4b	-0.005647098
118	0x3b60fb99	0.0034329651
119	0xbbc13e29	-0.0058973026
120	0x3b2ea402	0.002664805
121	0xbac2d26e	-0.0014863738
122	0xbbc62f10	-0.0060480908
123	0x3b960582	0.0045782933
124	0x3b6bbb6b	0.0035969864
125	0xbbb2079c	-0.005433036
126	0x3ba6055c	0.005066557
127	0xbbbfaa35	-0.0058491477

exp_avg_sq f4 [8, 16]
0	0x36f147b6	7.190708e-06
1	0x37b8160d	2.1944777e-05
2	0x38315c2f	4.228594e-05
3	0x364b297d	3.0273507e-06
4	0x37deda80	2.656621e-05
5	0x383413fe	4.2933963e-05
6	0x36ecd713	7.058386e-06
7	0x37a5891b	1.9733377e-05
8	0x37937625	1.757878e-05
9	0x3735c8e0	1.0835211e-05
10	0x38113093	3.4615932e-05
11	0x374d2518	1.2227589e-05
12	0x37273073	9.965256e-06
13	0x38146e47	3.5388653e-05
14	0x375da288	1.3210469e-05
15	0x3822f15f	3.8848604e-05
16	0x387579a6	5.8525846e-05
17	0x3877f8b5	5.9121016e-05
18	0x3a4b325f	0.00077513413
19	0x382018de	3.8170132e-05
20	0x3a0b37cb	0.0005310743
21	0x3a678b2a	0.0008832688
22	0x37f0258e	2.8627717e-05
23	0x3a6dd7f8	0.00090730144
24	0x3943e429	0.00018681645
25	0x384ab76a	4.833137e-05
26	0x3a656c99	0.0008751839
27	0x395be2f2	0.00020970011
28	0x378743c4	1.612481e-05
29	0x3a8c2912	0.0010693392
30	0x38b3da72	8.576074e-05
31	0x3a5e0b00	0.0008470267
32	0x36607a46	3.3449774e-06
33	0x371110ef	8.646616e-06
34	0x35fea56f	1.8972622e-06
35	0x35b795ee	1.3678198e-06
36	0x35ad7b40	1.2925375e-06
37	0x35ce1da5	1.5356824e-06
38	0x362dfcd2	2.592617e-06
39	0x35e332a4	1.6927556e-06
40	0x36dd5f0b	6.5973777e-06
41	0x372a225f	1.0140792e-05
42	0x360aae1e	2.0664952e-06
43	0x3651585e	3.1194863e-06
44	0x36ec472b	7.041633e-06
45	0x35e79f09	1.7257127e-06
46	0x36cca6d0	6.0990933e-06
47	0x368ec30a	4.2546353e-06
48	0x381c154a	3.7213125e-05
49	0x38f5aff5	0.00011715285
50	0x38645b0e	5.4444237e-05
51	0x37275c69	9.975492e-06
52	0x38dfec36	0.00010677466
53	0x3898efd9	7.2926e-05
54	0x37d184a6	2.497651e-05
55	0x38603121	5.3451517e-05
56	0x3828cecf	4.0246927e-05
57	0x39113a4b	0.00013849993
58	0x38806ee3	6.12417e-05
59	0x387170f8	5.7564088e-05
60	0x38d24c0b	0.000100277444
61	0x384869c5	4.778222e-05
62	0x381569cb	3.5622896e-05
63	0x385762c2	5.135197e-05
64	0x37de3d65	2.6493051e-05
65	0x380b6d8f	3.3242217e-05
66	0x38b35e1d	8.552915e-05
67	0x37f1311c	2.8752307e-05
68	0x38a4457f	7.833074e-05
69	0x38dce36f	0.0001053278
70	0x3793f888	1.7639497e-05
71	0x3973b3ce	0.00023241268
72	0x383553a7	4.323167e-05
73	0x383a85b3	4.4470373e-05
74	0x38bf42a5	9.120003e-05
75	0x38de41c7	0.00010598037
76	0x3796e0cf	1.7986078e-05
77	0x38fb60e7	0.00011986662
78	0x38a8225f	8.0172664e-05
79	0x38a7b8c4	7.997596e-05
80	0x34dd0705	4.1169565e-07
81	0x352566fc	6.161715e-07
82	0x3526db54	6.2158983e-07
83	0x35201ec4	5.9649415e-07
84	0x35a22f52	1.2083713e-06
85	0x35343c4b	6.7142963e-07
86	0x35289348	6.27992e-07
87	0x34d7c8f0	4.0193072e-07
88	0x371920af	9.12712e-06
89	0x350e78a6	5.307469e-07
90	0x35091964	5.1073425e-07
91	0x35ef83fd	1.7845301e-06
92	0x35163c7a	5.596736e-07
93	0x35046ada	4.932932e-07
94	0x3620062c	2.384545e-06
95	0x3586249a	9.99443e-07
96	0x37e26533	2.6988424e-05
97	0x3718da62	9.110752e-06
98	0x38f7327d	0.00011787282
99	0x381f7fb6	3.8027494e-05
100	0x3961c789	0.00021532005
101	0x391dce82	0.00015049617
102	0x37cd5282	2.4476325e-05
103	0x38ef71f9	0.00011417637
104	0x381184d9	3.4694418e-05
105	0x37719bf3	1.4401029e-05
106	0x390eb7d9	0.00013610664
107	0x38cc13a4	9.7311364e-05
108	0x376ad2b9	1.399655e-05
109	0x38bf9efb	9.137202e-05
110	0x3866d667	5.503595e-05
111	0x3907b8cb	0.00012943444
112	0x39fa073f	0.00047689115
113	0x3a25c42c	0.00063234824
114	0x39f6c665	0.00047068592
115	0x39de9583	0.00042454535
116	0x3a320567	0.0006790966
117	0x3a0b5248	0.000531469
118	0x3a052096	0.0005078403
119	0x39e8ff98	0.0004444092
120	0x390b092a	0.00013259487
121	0x3a294fd4	0.00064587337
122	0x3a151ccb	0.00056881894
123	0x38380f47	4.3883247e-05
124	0x3a2d8697	0.0006619482
125	0x39f73284	0.00047149148
126	0x39b585d5	0.00034622723
127	0x3a0afb99	0.0005301773

exp_avg f4 [8]
0	0xbae78748	-0.0017664218
1	0x3b7148fb	0.0036817181
2	0x3a2c7270	0.0006578332
3	0xbc4ef07f	-0.012630581
4	0xbbed0d22	-0.0072342316
5	0xbacc6e46	-0.0015596829
6	0x3cacb967	0.0210845
7	0xbb8675e0	-0.0041034073

exp_avg_sq f4 [8]
0	0x3830b0a7	4.212619e-05
1	0x375557d0	1.2716235e-05
2	0x38cc8780	9.752717e-05
3	0x3a919284	0.0011106287
4	0x3801a4a2	3.0909323e-05
5	0x38408943	4.5904202e-05
6	0x3a7d148e	0.0009654247
7	0x38478c6b	4.757607e-05

exp_avg f4 [8]
0	0xbb502b1a	-0.0031763972
1	0x3c10e114	0.008842725
2	0x3b6e3692	0.0036348444
3	0xbc33780c	-0.010953914
4	0xbc4e5931	-0.012594507
5	0x3a433aa9	0.0007447401
6	0x3c5e5faf	0.013572617
7	0x3bd9fc17	0.006652366

exp_avg_sq f4 [8]
0	0x37ece659	2.8240656e-05
1	0x3835dfba	4.3362124e-05
2	0x38a8c8d8	8.048274e-05
3	0x3a087076	0.0005204746
4	0x38d3e98c	0.000101047655
5	0x384a0185	4.8161968e-05
6	0x3a741520	0.0009311009
7	0x38c27f23	9.274322e-05

exp_avg f4 [4, 8]
0	0xbb26972a	-0.002541969
1	0xbc49341d	-0.012280491
2	0x3b6c05f9	0.0036014302
3	0xbc51dd97	-0.012809179
4	0xba3f7069	-0.0007302822
5	0xbc6befa8	-0.0144004
6	0xbc845231	-0.016152473
7	0xbc932688	-0.01796271
8	0x3b37f1e4	0.0028067762
9	0x39fb270d	0.00047903546
10	0x3b473816	0.003039842
11	0xb9cd9180	-0.00039209053
12	0x3a4b9b85	0.00077670097
13	0x3a9b86af	0.00118657
14	0x3a2c7cb2	0.00065798603
15	0xbbf08e80	-0.007341206
16	0x3a352747	0.0006910455
17	0x3bdc9f22	0.0067328373
18	0x3a9d8ae7	0.0012019546
19	0x3c19d389	0.009388813
20	0x3c4a044a	0.012330124
21	0x3c2b87f9	0.01046943
22	0x3bd7faac	0.0065911617
23	0xbb0d7d4b	-0.0021589573
24	0x3ba3a9d7	0.0049946117
25	0xba6f1266	-0.0009119868
26	0xba76c6e6	-0.00094137935
27	0xbb35e8c4	-0.0027757147
28	0xbb998ced	-0.004685989
29	0xbad324a7	-0.0016108946
30	0x3b54564c	0.003240007
31	0x39df9821	0.0004264722

exp_avg_sq f4 [4, 8]
0	0x3854bb79	5.0719336e-05
1	0x38b31014	8.53838e-05
2	0x3ab50fda	0.0013813928
3	0x3a9934f5	0.0011688756
4	0x386c7d12	5.6383265e-05
5	0x3aa3fb98	0.0012510894
6	0x3a4051e7	0.0007336423
7	0x38b9c6c4	8.8585104e-05
8	0x37d83b78	2.5776899e-05
9	0x3758df5e	1.292661e-05
10	0x37d64968	2.554497e-05
11	0x37be09f9	2.2654409e-05
12	0x376a4f70	1.3965982e-05
13	0x37073786	8.059555e-06
14	0x36789771	3.704303e-06
15	0x38570efd	5.1273953e-05
16	0x3931a764	0.00016942393
17	0x38565fd9	5.111084e-05
18	0x386c08f2	5.6275116e-05
19	0x3968f41c	0.00022216182
20	0x38affb25	8.3914296e-05
21	0x39695266	0.00022251307
22	0x38ae51f6	8.312233e-05
23	0x3920e5ff	0.0001534447
24	0x378899f0	1.6284146e-05
25	0x37b7c6e3	2.1907914e-05
26	0x371d045e	9.358946e-06
27	0x383dd617	4.5260498e-05
28	0x380e9c87	3.4001216e-05
29	0x378e16f0	1.69384e-05
30	0x37ea47a0	2.7928327e-05
31	0x37a3fdf8	1.9549378e-05

exp_avg f4 [4]
0	0xbd23662b	-0.039892357
1	0xbb814d65	-0.0039459937
2	0x3c8302d4	0.01599256
3	0x3cdb7ca9	0.026792841

exp_avg_sq f4 [4]
0	0x3a40af02	0.0007350297
1	0x37a5bdf7	1.9757992e-05
2	0x3952fc72	0.00020121204
3	0x3980026f	0.00024415876

exp_avg f4 [4]
0	0xbc4ce0a0	-0.012504727
1	0xbbc09ed1	-0.0058783074
2	0x3c8dc9f6	0.017308217
3	0x3ced55c5	0.028971562

exp_avg_sq f4 [4]
0	0x39b554c4	0.00034586166
1	0x37582500	1.2883218e-05
2	0x39067ec8	0.00012826466
3	0x397193e5	0.00023038646

exp_avg f4 [2, 4]
0	0xbd76f0ad	-0.06028812
1	0xbbd5cb06	-0.0065244464
2	0x3d079d6f	0.033109125
3	0x3cb8e7ac	0.022571407
4	0x3b817e0d	0.003951794
5	0xbb8eb25d	-0.0043547587
6	0x3a89ce4e	0.0010513754
7	0x3bcd5e70	0.0062673613

exp_avg_sq f4 [2, 4]
0	0x3aeacef2	0.0017914458
1	0x383bd281	4.478032e-05
2	0x3977817b	0.00023603991
3	0x39af4fd4	0.00033438078
4	0x38a7573b	7.9794285e-05
5	0x384d4d06	4.8947542e-05
6	0x380f449c	3.4157754e-05
7	0x38061e31	3.1976208e-05

exp_avg f4 [2]
0	0xbd0446ed	-0.032294203
1	0x3bf696e2	0.007525311

exp_avg_sq f4 [2]
0	0x3ae28152	0.0017280972
1	0x3ab16d43	0.0013536591

exp_avg f4 [2]
0	0xbd424a43	-0.047434103
1	0x3ca30d2c	0.019903742

exp_avg_sq f4 [2]
0	0x3a8124b8	0.0009852862
1	0x3a80f022	0.000983719

exp_avg f4 [2, 2]
0	0x3cb18dbf	0.021674035
1	0x3b9cb669	0.004782487
2	0xbcb18dbf	-0.021674035
3	0xbb9cb669	-0.004782487

exp_avg_sq f4 [2, 2]
0	0x3a552e1b	0.00081321754
1	0x39e80759	0.00044255963
2	0x3a552e1b	0.00081321754
3	0x39e80759	0.00044255963

exp_avg f4 [2]
0	0x3db69d67	0.08916741
1	0xbdb69d67	-0.08916741

exp_avg_sq f4 [2]
0	0x3ab2011f	0.0013580656
1	0x3ab2011f	0.0013580656
