test/output/local3/simulatorRun/freesurfer_volumetric/9/current.nn.pt (torch_old, 23025 bytes, 50 tensors)

layers.0.0.weight f4 [16, 66]
00000000: 24c8 c2bd d794 50be fb57 6b3e a8e5 3fbd
00000010: 5648 f4bd d88a b03e 4e75 f03d ebcb 353d
00000020: af13 54be 3619 823d 3174 44bd efd7 80be
00000030: 0ba5 d5bc 34e0 bfbd 62a1 7d3e 6c8a 0c3e
00000040: 0b80 ef3d 6348 67be a18f 5fbe f77f a93e
00000050: 4189 013e 325b 2dbe 4f69 77bd 870a 7fbe
00000060: 2031 7e3e 472d dbbd 7d49 1a3d 8fca 4fbe
00000070: 405a 97bd fa38 37be a007 18bd f1b2 043e
00000080: 07aa 96bd 964b 413e 18a4 3dbd 93d8 e23c
00000090: f034 523e c840 0e3c 6e17 3e3e 7bca 493e
000000a0: 395e 4a3d 04e3 c83c 1bda 0c3d 062e 0b3e
000000b0: 9683 82bd 53ef e4bd 12b4 45be edd7 c23d
000000c0: 8518 6c3e 9822 20be 148c 803d 7849 363b
000000d0: 3a3d b63d 8f82 94be 6c30 693b 1f97 a93d
000000e0: aebc a43d b868 7bbe 730f 23bd dc40 6bbd
000000f0: a2e4 4e3d 3b3c 393e 5368 b6bd 79fe afbd
00000100: 948c b0bd 8c23 a73d 7e6e fc3d e68c 91bd
00000110: daa0 a7bd dccf a13e 78f2 323e 1bac c43e
00000120: 14a7 91bd 1f85 03be 8a94 e53d 97e7 c1bd
00000130: b77c 27bc 5ee4 c13d bcbd 2d3e 0e48 de3c
00000140: 4015 5ebd f323 d83d 6ce0 b2bd 0930 1d3e
00000150: 048f e2bd 2b74 993c 9eaa e3bd 3c96 1f3e
00000160: 5c95 85be 386b ba3d caa6 323e 6f3b a2be
00000170: 8422 c63e 1e38 973e 8525 62bd 1a34 a33e
00000180: f875 7e3e a46b c2bd 291b f83d 8f1a 133e
00000190: 0025 273d 19c8 babb 5a89 6dbe 740b 1bbe
000001a0: a21c 17be 1bf5 d9bd 0a25 16be 32ce 5d3e
000001b0: 25cc 703d fa9d 09be 58a6 dd3c 4008 b4be
000001c0: 1452 c0be a42f 613e 8319 0ebe 1300 213d
000001d0: 7dde 163e d401 07be 33b2 63be f6e0 d6bd
000001e0: 8ed3 74be 5a59 8a3e f8e8 e9bc 39c2 123e
000001f0: fe9c 383d 0e5b 8bbe e3fe 6abe 6037 0abc
00000200: 0091 f13d d79d db3a 169d c5bd d108 45be
00000210: 9104 b83e 4859 60be 3f29 bd3c 42fb d83d
00000220: 1a8f 17be b2cf 1e3e e0aa a43e 6abe b53e
00000230: cc0d b43e eebd 373d 9ec7 38bd 1f68 1c3d
00000240: 6943 e7bd 5da7 4a3d c5d3 bbbe 4aea 923e
00000250: b8a7 06be d775 803e 8fd1 9a3e 67e0 1a3d
00000260: 5bee 093e 9852 263e d732 b53e 2231 523e
00000270: 4377 a53d 1f08 1bbe f20e 0c3e 4661 4ebe
00000280: 4043 9bbd 21cc 6d3d 13b8 fabd bb1a 1ebe
00000290: 870a a5bd b442 313c 4e45 bd3e 1e43 e8be
000002a0: 9847 36be e376 1e3d acb9 2bbd ae93 6a3d
000002b0: b046 71be 3ba2 c43d 30a8 613d 2217 eebd
000002c0: 82a5 073e 3faf 4f3e b549 4d3e bf25 393e
000002d0: b6bd 00be d34f 203e efa1 d9bd de49 c93d
000002e0: a567 a4bd d1da f3bd 5385 e9bd b648 c13d
000002f0: eed7 39bc 96fc 553d 700a efbb 9681 b839
00000300: 09f5 173e 66ea 053e 357c 24be 538d aabe
00000310: 3612 843e f955 a23e a3e7 cdbd b846 16be
00000320: e7c9 163d 025b 6bbc f33a b53d 0825 ed3d
00000330: ee34 9a3d add8 e83d a9b3 213d 8444 9dbd
00000340: 7791 243a 8832 55bd e71d 063e 9678 b23d
00000350: e3a9 83be 59e1 123e 5841 39bd 0e3a 9dbd
00000360: 67bb 1cbe 961d 40be 1dc6 efbc 7a05 d1bd
00000370: 7a39 da3b b700 cbbe 6537 693b d84a 66be
00000380: b04e 853e 3f11 8f3d 0c94 363e 2559 09be
00000390: 17ef c23d 5894 5b3e f330 cbbc 6349 98bd
000003a0: bfff 9e3d 1987 8cbd f984 5f3e e791 853d
000003b0: 68e0 8abd 655f f03d 5a6c 203e 97ee 89be
000003c0: c594 823d 3422 82be 76e8 48bc 722e d43b
000003d0: 6a23 c5bd ec57 5b3e 414e d7bd a2cb 663e
000003e0: d956 9d3c 7b51 8bbc 43fd f8ba febf f13c
000003f0: 76de 4bbd 56a4 4ebe 9981 95be 0e76 aa3c
-0.0951083 -0.20369278 0.2298278 -0.046849877 -0.119278595 0.3448093 0.11741124 0.044383924
-0.20710634 0.06352465 -0.04796237 -0.25164744 -0.026079675 -0.09368935 0.24768594 0.13724679
0.11694344 -0.22586207 -0.21832134 0.33105442 0.12650014 -0.1692932 -0.060403164 -0.2490636
0.24823427 -0.10701995 0.03766774 -0.20292114 -0.07390261 -0.17892829 -0.037116647 0.12958886
-0.07356649 0.1887649 -0.04629907 0.027691161 0.20528007 0.008682437 0.18563625 0.19706146
0.049406264 0.024522312 0.03438769 0.13591775 -0.06372754 -0.1117846 -0.19306973 0.09513841
0.23056228 -0.15638196 0.06276718 0.0027814787 0.08898397 -0.29005858 0.003558184 0.08280777
0.080438 -0.24551666 -0.039809655 -0.0574349 0.05051101 0.18089382 -0.08906617 -0.08593459
-0.08620563 0.08161077 0.12325762 -0.07106952 -0.08184977 0.31603897 0.17475307 0.38412556
-0.07111946 -0.1284375 0.11209972 -0.094680004 -0.010222605 0.09467386 0.16966909 0.027133968
-0.054219484 0.10553732 -0.08734211 0.15350355 -0.11062434 0.018732151 -0.11116527 0.15584654
-0.26090515 0.091024816 0.17446437 -0.3168597 0.38698208 0.29535002 -0.055211563 0.31875688
0.24849689 -0.09493187 0.121145554 0.143656 0.04080677 -0.005700123 -0.23196927 -0.15141088
-0.14757016 -0.10642453 -0.14662567 0.21660689 0.058788437 -0.1343917 0.027056858 -0.35162544
-0.3756262 0.2199083 -0.1387692 0.03930671 0.1473331 -0.13184291 -0.22235946 -0.10492127
-0.23908827 0.27021295 -0.028553471 0.14331903 0.045071594 -0.27217907 -0.22948794 -0.008436054
0.11795235 0.0016755414 -0.096491024 -0.19241644 0.35940984 -0.21909058 0.023090957 0.105947986
-0.14800683 0.15508917 0.32161617 0.35496837 0.35166776 0.044858865 -0.045112245 0.038185235
-0.11292154 0.049476016 -0.36685005 0.28694373 -0.13149917 0.25089905 0.30238006 0.037811663
0.13469832 0.16242445 0.3539035 0.20526555 0.08079388 -0.15139817 0.13677576 -0.20154294
-0.07581186 0.058056 -0.122421406 -0.15439884 -0.080586486 0.010819126 0.36966938 -0.45363706
-0.17800748 0.038687598 -0.041925117 0.057269745 -0.23562121 0.096012555 0.055092037 -0.11625506
0.1324673 0.20281695 0.20047648 0.18080805 -0.12572369 0.1565545 -0.106265895 0.09828542
-0.08027581 -0.1190697 -0.11402383 0.09437697 -0.011342986 0.052242838 -0.0072949454 0.00035191764
0.14839567 0.13077697 -0.16063006 -0.33310947 0.25795144 0.31706217 -0.10053947 -0.14675415
0.036813643 -0.01436496 0.08849134 0.11579329 0.07529627 0.113694526 0.039477978 -0.07679084
0.00062777795 -0.052050143 0.13097344 0.08714406 -0.2571555 0.14343776 -0.045228332 -0.07677089
-0.15305863 -0.18761286 -0.029269272 -0.10206123 0.006659684 -0.39648983 0.0035585996 -0.22489488
0.26036596 0.06985711 0.17829913 -0.13412912 0.09518259 0.21443307 -0.024803614 -0.074358724
0.077636234 -0.06861705 0.21828069 0.06521969 -0.06781083 0.11736945 0.15666333 -0.26939842
0.06376032 -0.2541672 -0.012262454 0.0064752633 -0.09625895 0.21420258 -0.105129726 0.22538617
0.019206451 -0.017006626 -0.0018996376 0.029510494 -0.049772702 -0.20179877 -0.29200438 0.020808246

layers.0.1.weight f4 [16]
00000000: aaa0 813f 5387 723f 1f0d 7d3f f250 813f
00000010: 138e 883f 8c0f 7b3f 5e46 7c3f 252a 7b3f
00000020: 6f89 6d3f 3dbe 773f 18ee 7a3f c5c9 873f
00000030: cc02 833f 1c93 843f cbc3 863f d12e 713f
1.0127156 0.9473774 0.98848146 1.0102828 1.0668358 0.980706 0.9854487 0.9811118
0.9278783 0.96774656 0.9801955 1.060845 1.0235229 1.0357394 1.0528501 0.9421206

layers.0.1.bias f4 [16]
00000000: 1290 423d 1caf e93a d304 4dbc 2c16 0bbd
00000010: c1e2 263d f3ba a53a c4bb 783c 44c0 bc3d
00000020: 31ce 0abd 26f0 8d3d 07b9 8cbc b807 45bb
00000030: a0c4 813c f595 f63c 2d17 853d abb7 88bc
0.047500677 0.0017828676 -0.012513357 -0.03395669 0.040743593 0.0012644216 0.015181486 0.09216359
-0.033888046 0.0693057 -0.017178072 -0.0030064415 0.015840828 0.030100802 0.06498561 -0.016689142

layers.0.1.running_mean f4 [16]
00000000: 72d3 cdc8 9f3c 80c9 208a 8d49 a83a 5147
00000010: 42d8 e848 3076 3049 6e69 cbc8 b1a8 a348
00000020: 8b91 05c9 4e78 0d48 545c 4949 7ef8 71c8
00000030: f8e0 46c9 74ca 0649 2aba dac8 f41a 5049
-421531.56 -1.0505159e+06 1.159492e+06 53562.656 476866.06 722787.0 -416587.44 335173.53
-547096.7 144865.22 824773.25 -247777.97 -814607.5 552103.25 -447953.3 852399.25

layers.0.1.running_var f4 [16]
00000000: 5167 1d4f 5898 3350 1c04 3c50 d410 424d
00000010: e36c 364f d656 9e4f 56cd 034f d0e6 c84e
00000020: c733 344f 462e d04d 076d d64f 053d 464e
00000030: 1eee b34f 1a58 5a4f 34b8 f94e f625 dd4f
2.6407939e+09 1.2052423e+10 1.2617544e+10 2.0349267e+08 3.0605893e+09 5.312982e+09 2.2112722e+09 1.6852849e+09
3.0232922e+09 4.365867e+08 7.194939e+09 8.3147194e+08 6.037454e+09 3.663207e+09 2.0947994e+09 7.420505e+09

layers.1.0.weight f4 [8, 16]
00000000: c650 c63e 1886 ef3e 786f a1be 6149 0cbd
00000010: add8 43be b429 0f3e 21d0 42bf 9fd7 34be
00000020: bd2e 81be 3a2e 87be 128e fb3d ae7a 9e3e
00000030: 5f3b 3bbf 71d8 e13d da46 00bf 0a6f d9be
00000040: f0c3 b9bd 9135 a73e 4aaa a3be 4f51 2abe
00000050: 2f15 d63d 2396 993e 7ba2 d6bc d439 9dbe
00000060: 6a8a 9abe 8c64 073e b407 9d3e b416 4dbf
00000070: 194a b8be e499 a53e 292c e43d 50ed db3d
00000080: b3f1 203f f8de 88be d918 dc3e 43ec 453f
00000090: 052d 98be 202f 4cbf b7f4 23bd 4dcb 56be
000000a0: bed7 dcbe 38dd 91bd 6a8b 273f b62b 273e
000000b0: b527 2a3f c647 76be 6f2a 613e 25c0 da3d
000000c0: 9763 2fbf 67b9 9e3e 8a5d 153e cf9b f63d
000000d0: 81e5 11be f786 263e 7cbb f3bd 1e9b 963e
000000e0: be96 783e 7a13 1e3e 3136 523e ab95 02be
000000f0: 787a 953d 430a a63e 208e 20bf 9c4d fd3c
00000100: 709d b33e 22c1 0fbf 80d5 a6bc 7be7 92be
00000110: f557 58bf b85a c03e 0a24 d5be deb6 ca3d
00000120: 7c00 3ebe 4296 bf3e aad0 aa3c 9638 f9bd
00000130: 59ba 8abe fdcd 88be 25ea c83d a022 283e
00000140: 174a 6abf 9a42 b6bd e293 c03e 27fe 51be
00000150: 797b bf3e 68ef 73be 290f 31bb 017b 083f
00000160: 1d1b 26bc 569d 883e cec0 993e 3d3e 65be
00000170: c57e 3dbf a3b0 3f3f 262c b03d 1ac6 77bc
00000180: 9b69 583f cfae 89bd 6d4d 5e3e f9e8 633e
00000190: 0a11 a83e 26e8 39be 5425 4abf 0762 d43d
000001a0: c95f 8ebd fe6e 1fbc ef55 833e db2d f53e
000001b0: 5ee9 2abf e7ac 0e3f 2524 b5be 4a46 59be
000001c0: 5ca1 c73d 314a 963e 0207 0e3e 305c 923e
000001d0: b760 f13e b443 db3b 370b bd3e f94b 163e
000001e0: b3e4 c03e 4251 21be b4c6 1d3e 26a1 4c3e
000001f0: c885 9f3e 19b8 3fbf 7f40 0cbe 9729 f03e
0.387335 0.46781993 -0.31530356 -0.034249667 -0.19125624 0.13980752 -0.7609883 -0.17660378
-0.2523097 -0.26402456 0.12282957 0.30952972 -0.7313747 0.11027611 -0.5010811 -0.4246753
-0.09070575 0.32658055 -0.31965858 -0.1663258 0.10453259 0.29997358 -0.026200524 -0.30708182
-0.30183727 0.1322195 0.3066994 -0.8011277 -0.35994032 0.32343972 0.111412354 0.10738623
0.62868804 -0.26732612 0.42987707 0.7731363 -0.29721847 -0.7975941 -0.0400283 -0.2097599
-0.43133348 -0.07122272 0.65447104 0.16325268 0.6646684 -0.24050817 0.21988843 0.1068118
-0.6851134 0.31000826 0.14586464 0.12041437 -0.14247705 0.16262423 -0.11900994 0.2941522
0.24276254 0.15437117 0.20528485 -0.12752406 0.0729875 0.32429704 -0.62716866 0.030920796
0.35081053 -0.5615407 -0.020365477 -0.2869223 -0.8450921 0.37569213 -0.41629058 0.098981604
-0.18554872 0.37419325 0.020851452 -0.12168996 -0.27095297 -0.26719657 0.098102845 0.16419458
-0.915193 -0.08899422 0.37612826 -0.20507108 0.3739889 -0.23821795 -0.0027017093 0.5331269
-0.0101383 0.26682538 0.3002991 -0.22387023 -0.7402156 0.748789 0.08602171 -0.015122915
0.8453614 -0.06722795 0.21709223 0.22256841 0.328255 -0.18154964 -0.7896321 0.1037026
-0.06951863 -0.009731052 0.256515 0.47886547 -0.6676234 0.5573258 -0.3537914 -0.2121822
0.09747574 0.2935348 0.13869861 0.28585958 0.471441 0.0066914205 0.3692262 0.14677419
0.37674484 -0.15753654 0.1540783 0.19983348 0.31156754 -0.74890286 -0.13696478 0.4690673

layers.1.1.weight f4 [8]
00000000: d9b6 853f 2c98 7f3f d3a9 863f e4c1 6d3f
00000010: 0f73 7e3f c4b9 6d3f 0d8d 883f 96ae 803f
1.0446426 0.9984157 1.0520576 0.9287398 0.99394315 0.9286158 1.0668045 1.0053279

layers.1.1.bias f4 [8]
00000000: 7c97 123d 5bce 863b 7352 8c3c f500 8dbd
00000010: 8408 ee3c f752 84bd 3d35 7b3d 7b34 32bd
0.035788998 0.004113955 0.017129159 -0.06884948 0.029056795 -0.06461137 0.06133007 -0.04350708

layers.1.1.running_mean f4 [8]
00000000: a1fa 67bf 86fe 8ebe 31ce 103f 22f3 e33d
00000010: 2f1c 24bf 773b 193e f180 9f3e d324 6c3f
-0.90616804 -0.2792856 0.56564623 0.11130358 -0.64105505 0.1496409 0.31153062 0.9224369

layers.1.1.running_var f4 [8]
00000000: 4368 cf3e a876 853f 04d7 8d3f 75b0 b03f
00000010: 4a1b cf3e 7444 af40 e7c8 683f 47e4 153f
0.40509233 1.0426836 1.1081243 1.380385 0.40450507 5.477106 0.9093155 0.5855145

layers.2.0.weight f4 [4, 8]
00000000: d420 23bd 2238 a9bd a6fd 963e f0ba 5d3f
00000010: d2da 8b3d de9d 073e 8459 9dbf 0235 e43e
00000020: 653e 0dbf afd5 213e 846d 87bd 9b88 0cbd
00000030: a22c 00be 2a56 b2be 9abc 15bf e5b7 91be
00000040: 38cf bcbe 1ea1 1c3f fe5d 0abf a40a ecbd
00000050: dfbc 14bf 02d6 633e 85c1 7e3e fcc2 aebe
00000060: 0e24 d6bd 736a 333f c264 44bf 1d8f 93bd
00000070: dfac a3bd 410d 293f 383b de3e 46ad 0fbf
-0.03982623 -0.082626596 0.29490393 0.8661337 0.06828846 0.13243815 -1.2292943 0.44571692
-0.5517333 0.1580417 -0.06612685 -0.034309965 -0.12517026 -0.34831363 -0.5849091 -0.28460613
-0.36876845 0.61183345 -0.5404967 -0.11525467 -0.58100694 0.22249606 0.2487851 -0.34133136
-0.10456096 0.70084304 -0.76716244 -0.07205031 -0.07991957 0.6603585 0.43404555 -0.5612377

layers.2.1.weight f4 [4]
00000000: e72d 823f f1a3 803f 0303 803f 52b8 763f
1.0170258 1.0050031 1.0000919 0.96375

layers.2.1.bias f4 [4]
00000000: a0c9 25bd 42c3 0c3c 3163 a6bc 869f 90bd
-0.040475488 0.008591475 -0.02031097 -0.07061677

layers.2.1.running_mean f4 [4]
00000000: e8cb 8d3d af59 4dbf a941 c6be df96 9a3d
0.06923658 -0.8021497 -0.3872197 0.075483076

layers.2.1.running_var f4 [4]
00000000: bcd8 0e3f 975b 433e e6d4 533f 73ca 2940
0.5579946 0.19077908 0.8274673 2.6529815

layers.3.0.weight f4 [2, 4]
00000000: 774d 1a3f a293 1a3e 6e2c c73e 3500 4b3f
00000010: a85a cdbf f9a0 1f3f 3c8b 0640 09e6 873f
0.6027445 0.1509538 0.38901085 0.7929719 -1.6043291 0.62355 2.1022482 1.0617076

layers.3.1.weight f4 [2]
00000000: a231 783f 3f5e 7e3f
0.96950734 0.9936256

layers.3.1.bias f4 [2]
00000000: 5516 1f3d ff0e b5bb
0.038839657 -0.0055254693

layers.3.1.running_mean f4 [2]
00000000: 347f 3b3f 040d 5b3f
0.7324097 0.85566735

layers.3.1.running_var f4 [2]
00000000: f943 ea3e f9b2 d040
0.45754984 6.5218472

fc_out.weight f4 [2, 2]
00000000: a1d6 ddbf 07ff 393f 538d a9be d467 85bf
-1.7331125 0.72654766 -0.33115634 -1.0422311

fc_out.bias f4 [2]
00000000: fcfa 3dbd fcfa 3d3d
-0.046381935 0.046381935

exp_avg f4 [16, 66]
00000000: 0cc7 c53a 47c9 6f36 9571 a6ba 043e deba
00000010: f298 e3b9 b4c2 23b9 e85b fbb7 9d59 e3b8
00000020: 97d2 9238 7f3d a7b6 c59c 9bba 2678 b436
00000030: b335 0138 8b69 c937 ebcc 39b8 6c55 85b9
00000040: 4151 ddb4 39a4 9438 d11d c63a 707a e237
00000050: 3288 91ba 32cc 0dbb fd84 89b9 024c 14b9
00000060: 5995 1cb9 3f10 cbb8 74d4 61b8 c16c 4bb7
00000070: ee17 5ab8 8c50 55b9 af7d 7737 cccf d538
00000080: 1aed d734 aead 2ab9 0000 0000 0000 0000
00000090: e113 2437 0000 0000 0000 0000 c7ae 26b7
000000a0: b85e 3138 3621 c3b7 c7bb 37b8 702c 7ab7
000000b0: 4e9e b237 de44 80bb 136d eebb 27fd e9bb
000000c0: e813 83ba b381 dfba ead3 31bb 1751 393b
000000d0: e8ed 813a f217 7a3b 840c 07bb 2ba6 0bbc
000000e0: 7b47 163b ef9c 80ba c122 8eba 0da2 c2bb
000000f0: f856 a3b0 d731 53b1 b641 c3b6 f88e 8db6
00000100: c74a 28b7 aa76 e3bb f75c 1939 f269 86b6
00000110: 99ad b7b8 b21c 89b9 fbde 84b7 1412 b7b7
00000120: a13b 58b7 a625 41b6 5107 33b6 9230 9235
00000130: 9164 2bb9 cb70 7c37 1d60 2836 d079 e136
00000140: d73d 9db6 3ffc b9b7 9d8e 7736 2ece 8336
00000150: b5a0 3f39 2492 ad36 c4e8 adb8 ed97 80b9
00000160: fe50 6eb7 e720 d8b6 6ad2 74b7 82a9 04b6
00000170: a695 d636 0043 8e36 0217 aab6 6270 e1b5
00000180: 6129 1b36 7102 8037 6d43 f933 505c a2b7
00000190: 0000 0000 0000 0000 ab29 9c35 0000 0000
000001a0: 0000 0000 e5e3 aeb5 3591 3637 afb6 d7b4
000001b0: dee7 56b6 77cb 9db5 7fa5 e836 4288 c53a
000001c0: 96db 953a de4e 973a 0d4e 473a b290 0d3a
000001d0: 6e84 aa3a ab93 bc39 8958 8d39 10e7 243a
000001e0: 245e e1b8 7337 353a 5dc0 0f3b b970 f03a
000001f0: 1f4c ee3a def8 9aba 1a62 ab2d 0000 0000
00000200: 514b 7eb5 627e 97b5 b7e4 0db6 999d 7a38
00000210: 8d21 8537 9ce5 1eb7 2e51 82b7 b9d9 a1b9
00000220: f884 f7b6 2444 a3b7 737c eeb7 61c5 dfb7
00000230: 1aa1 25b7 c27e 1bb8 4512 2b38 a489 2737
00000240: 58b5 8ab6 cde2 4536 c3de 1136 b047 27b8
00000250: 9b7e 9eb5 7a6c 6037 4a51 6538 6e7f 14b7
00000260: 9b5d 4fb7 7ccb 80b9 c9f3 9cb7 d86e a1b7
00000270: 9e47 dab7 388d 6bb7 a2f7 5737 0aca c4b6
00000280: d8a1 83b6 0772 2bb8 5718 5836 a0e2 9437
00000290: 3668 7934 b554 fdb7 0000 0000 0000 0000
000002a0: 0aad 44b4 0000 0000 0000 0000 9446 c936
000002b0: 22e6 0337 0158 3235 3a56 aa35 2e0a 8236
000002c0: 6ae1 b836 574a 093a 0fd1 013a fd3d 013a
000002d0: 2ba4 54ba 963f 66ba 4d6e ddba 0be4 c93a
000002e0: 5016 c13a 0e6c 453b 97cd 88b9 b06a 22bb
000002f0: 2f36 983a 5385 8e3a e7f7 8a3a 1ee3 053b
00000300: 0000 0000 0000 0000 5317 7a35 bd40 16b5
00000310: 8859 d134 01a9 1f39 9279 793b 3cfb 2739
00000320: c098 e3b8 6300 1b3a d2d4 d9b9 0bbd 98b9
00000330: eb90 cb39 fe9d 2337 388e 4739 08d1 9639
00000340: aeef a0ba 1dbb ac39 7889 0239 0264 8f39
00000350: 31f1 0ab9 f55e 49b8 dde5 1638 34c4 cd39
00000360: 83ed 013a f8e2 c838 0ad9 a739 5043 8639
00000370: 4191 3cb8 4fb6 acb9 79c3 9a39 3979 d3b8
00000380: a847 e639 3151 1739 43e4 d0b8 391b 9239
00000390: da2d 2438 1936 243a 59c8 6f34 5525 5fb9
000003a0: 0000 0000 0000 0000 c6b2 2c38 0000 0000
000003b0: 0000 0000 80fa 90b7 e6e0 3e39 5cb3 21b7
000003c0: 6cb5 34b8 55c9 6eb7 1e7c 0239 4ff9 a73d
000003d0: 7bd7 9a3d e48d 9a3d 840d ab3c 56a2 983c
000003e0: d4e8 213d 3390 8f3c 59d7 833c eba8 093d
000003f0: 3cf1 233a ca58 2a3d bb4c a33d 84a7 973d
0.0015089228 3.5730934e-06 -0.0012698645 -0.0016955738 -0.00043410767 -0.00015617424 -2.9964329e-05 -0.00010840895
7.001048e-05 -4.984147e-06 -0.0011872282 5.378405e-06 3.0806008e-05 2.4010214e-05 -4.4298282e-05 -0.0002543138
-4.1223578e-07 7.087779e-05 0.0015115087 2.6998314e-05 -0.0011103211 -0.0021636602 -0.0002622976 -0.00014142695
-0.00014932956 -9.6828204e-05 -5.3842043e-05 -1.2125064e-05 -5.1997537e-05 -0.00020343269 1.475161e-05 0.00010195337
4.0219385e-07 -0.00016277164 0.0 0.0 9.77979e-06 0.0 0.0 -9.935065e-06
4.2288302e-05 -2.3261277e-05 -4.380548e-05 -1.4911508e-05 2.129297e-05 -0.0039144596 -0.0072761863 -0.007140774
-0.0010000439 -0.0017052203 -0.0027134367 0.0028277093 0.000991282 0.0038161245 -0.0020606825 -0.008523504
0.002293079 -0.0009812395 -0.0010844098 -0.005939728 -1.1884529e-09 -3.0732872e-09 -5.8191026e-06 -4.218771e-06
-1.0030991e-05 -0.006941636 0.00014625849 -4.005845e-06 -8.758455e-05 -0.00026152056 -1.583946e-05 -2.1823718e-05
-1.2888487e-05 -2.8781155e-06 -2.6677337e-06 1.0891983e-06 -0.00016345295 1.5046632e-05 2.5089896e-06 6.7197034e-06
-4.6861637e-06 -2.217118e-05 3.688888e-06 3.9281067e-06 0.00018275047 5.172815e-06 -8.292639e-05 -0.00024527256
-1.4204763e-05 -6.441132e-06 -1.4592524e-05 -1.97682e-06 6.3951184e-06 4.2397296e-06 -5.0690733e-06 -1.6796514e-06
2.3120886e-06 1.5259926e-05 1.1607231e-07 -1.9354891e-05 0.0 0.0 1.1635033e-06 0.0
0.0 -1.3030336e-06 1.0881854e-05 -4.017979e-07 -3.202345e-06 -1.1756628e-06 6.933405e-06 0.0015070515
0.001143324 0.001154389 0.0007602878 0.00054002844 0.0013009438 0.00035968176 0.0002695958 0.00062905345
-0.00010746371 0.00069128646 0.0021934726 0.0018344141 0.0018180645 -0.0011823436 1.9484015e-11 0.0
-9.4731973e-07 -1.1287159e-06 -2.1143767e-06 5.975142e-05 1.5870459e-05 -9.470994e-06 -1.553501e-05 -0.0003087053
-7.3766532e-06 -1.9462845e-05 -2.8429762e-05 -2.6675583e-05 -9.872276e-06 -3.7072932e-05 4.0786592e-05 9.986023e-06
-4.1338317e-06 2.9487303e-06 2.1736348e-06 -3.9882667e-05 -1.1808764e-06 1.3376697e-05 5.467356e-05 -8.851157e-06
-1.2359956e-05 -0.0002456567 -1.871017e-05 -1.9244311e-05 -2.6020974e-05 -1.4039972e-05 1.2872655e-05 -5.8647756e-06
-3.9229453e-06 -4.0875773e-05 3.2200676e-06 1.7748505e-05 2.3227844e-07 -3.0199395e-05 0.0 0.0
-1.8316874e-07 0.0 0.0 5.998483e-06 7.86179e-06 6.643823e-07 1.2691082e-06 3.875487e-06
5.509869e-06 0.0005237213 0.00049521116 0.00049301964 -0.0008111621 -0.0008783279 -0.0016893834 0.0015403045
0.0014731381 0.003012422 -0.00026093118 -0.002478283 0.0011612828 0.0010873474 0.0010602445 0.0020429562
0.0 0.0 9.31662e-07 -5.597356e-07 3.8994426e-07 0.0001522638 0.0038066846 0.00016019953
-0.000108526554 0.00059128384 -0.0004154803 -0.00029132547 0.0003882715 9.7523425e-06 0.000190311 0.0002876597
-0.0012278461 0.00032945807 0.00012448977 0.00027349597 -0.00013250556 -4.801057e-05 3.5976864e-05 0.0003924683
0.00049563515 9.5790194e-05 0.0003201443 0.00025608623 -4.495797e-05 -0.00032942227 0.00029518807 -0.000100838435
0.00043922407 0.00014430728 -9.96073e-05 0.00027867572 3.914335e-05 0.00062641647 2.2331496e-07 -0.00021280845
0.0 0.0 4.117449e-05 0.0 0.0 -1.7282786e-05 0.00018203593 -9.638108e-06
-4.3084307e-05 -1.4232782e-05 0.00012444003 0.08201849 0.07560631 0.07546595 0.020880468 0.018632095
0.039528683 0.017524814 0.016093897 0.03360836 0.0006253903 0.041588582 0.079736196 0.07404998

exp_avg_sq f4 [16, 66]
00000000: 581b 3837 7d7b 7c32 eafa 6035 bfe9 7337
00000010: 6b70 6434 7b6d 1b34 d923 4334 dd55 9f33
00000020: 9103 0933 b4a3 4434 d07f 2c36 b9d6 8e33
00000030: e3ce 2432 18a9 cf32 0b8a b731 30ff d433
00000040: d95e 7630 7ca6 2033 e611 2137 0ee2 6632
00000050: 61b3 0535 70ef 7f37 fcc8 c034 51ae 1934
00000060: d916 5c34 fba4 1432 6278 7633 3956 d132
00000070: 0493 a931 4f9d 5633 1d9e be30 b2fa 6e33
00000080: 9fcf 302d 5d92 0734 0000 0000 0000 0000
00000090: d791 262f 0000 0000 0000 0000 5f62 c530
000000a0: f39e 5e32 cc0b 0c32 55ce 8832 7071 4a32
000000b0: 08ae b031 cab1 923b a6b3 853b 76bd 853b
000000c0: 504f 9939 761c 9739 c7ec 973a 0653 2d39
000000d0: 1dcb 3e39 8faa 343a cc30 4c37 2986 e93a
000000e0: 34b0 6f3b 020c 5c3b 8b8f 5b3b 91df 173c
000000f0: 8344 cf25 9a0a 6626 f11d 0030 70ab 1430
00000100: 2fe7 eb30 c426 683c c7a8 1935 dd4f 3b30
00000110: 06e0 6e32 d241 0435 60dd cf32 1c13 3c31
00000120: f035 8331 48ba 9c30 ecd4 8f31 7cdf fa30
00000130: 3c71 6c33 8a49 c931 0aeb da2f 8429 2231
00000140: 7eb7 b52f be10 8131 b1e3 502e 0673 8b30
00000150: 79c9 0735 962e 1b30 cec4 c332 357d 3b35
00000160: ab37 9532 6aac 6a31 f797 6931 d3a9 6530
00000170: 415e b931 f9e4 b730 4cd9 662f 1352 4531
00000180: 000e 5f2e 725b 8a31 7b9e 7f29 fd3f ae32
00000190: 0000 0000 0000 0000 3879 062f 0000 0000
000001a0: 0000 0000 cdb4 bc2e e80d d42f 2edb 182f
000001b0: 67d9 3c2f 55d8 872f 7c35 7430 c41a 7d38
000001c0: 0b7d 9b38 7f89 9c38 b0bb f236 6c9e bf36
000001d0: bc39 d637 2334 da35 d655 a135 f6df b836
000001e0: 0601 0035 f292 4838 5974 3a38 8f64 6038
000001f0: 59cb 6038 fb09 1d37 9338 d523 0000 0000
00000200: ecd7 9e2e d013 1e2e ae01 5b2f 8164 1d37
00000210: b4fb e433 f5a4 d730 2f4b 0834 ff3a 2435
00000220: 8383 3232 6435 d931 e837 9f31 5c06 0530
00000230: 33f4 3f31 7698 9931 142b 6833 4ac1 e430
00000240: 46b9 1130 83a7 f330 ee67 502f 1481 3330
00000250: 0f91 062e 9074 be30 6997 2e34 ec2c 3430
00000260: 77a9 1634 a0e9 c234 7249 6431 c677 b931
00000270: 6fe4 0131 f43d 7230 721b 0931 d360 4830
00000280: 6699 9c2f 9d8c cd30 873c 882d 6163 1931
00000290: ef82 b42b 2db5 0632 0000 0000 0000 0000
000002a0: a642 462d 0000 0000 0000 0000 e8e9 cb2e
000002b0: 957c 4830 c582 eb2f e4fd 6d2f bd95 262f
000002c0: 5ee2 b32f 8c41 1536 0511 5d36 9040 5c36
000002d0: 0782 7d35 4b94 b135 c314 9236 4e3b 8036
000002e0: 79a9 8236 d658 8037 d462 3334 3092 c336
000002f0: 45b3 0537 69fa 2f37 e848 3437 b013 8f37
00000300: 0000 0000 0000 0000 e8c4 d42d e1b5 c72e
00000310: ac61 5e2f 764c 7037 d6f0 0e37 ea13 8333
00000320: 9eb5 e736 c7a0 cc37 2e2b 0535 1b74 b834
00000330: 5609 e134 6091 1833 6998 0f34 ec79 6e34
00000340: aecc f635 7561 3334 7c45 2033 abba e533
00000350: caf3 9b32 94aa c733 d2f6 b530 c133 2334
00000360: 4945 6a37 9c75 2c33 a264 c836 fabb 8337
00000370: 745d 8d34 c5e1 8334 4f4e 4034 3ba4 2133
00000380: a470 3734 2057 3833 481c a532 06ad a333
00000390: 9e9f 0431 d2c5 3834 ec41 9f2e 0fa7 0b34
000003a0: 0000 0000 0000 0000 db7c 0530 0000 0000
000003b0: 0000 0000 6b9e c831 3740 7433 44f5 9e32
000003c0: 14f7 b632 0ffb 3432 0585 2733 270e cb3b
000003d0: a067 c03b 4d80 c03b b2a0 4939 b302 5c39
000003e0: b3c4 4e3a 7a7c 2e3a f411 503a e78b 3e3b
000003f0: d720 2437 33f7 893a 0a4f c33b a7dd b83b
1.0973621e-05 1.46964085e-08 8.381163e-07 1.4538352e-05 2.1275052e-07 1.4475329e-07 1.8173832e-07 7.419633e-08
3.1901042e-08 1.8313477e-07 2.5704394e-06 6.651448e-08 9.593097e-09 2.4174867e-08 5.3416946e-09 9.9184376e-08
8.9629065e-10 3.740432e-08 9.600515e-06 1.3439161e-08 4.980739e-07 1.5254933e-05 3.5909022e-07 1.4312651e-07
2.0497409e-07 8.652246e-09 5.7385826e-08 2.4370012e-08 4.935261e-09 4.996883e-08 1.3869258e-09 5.56417e-08
1.0050543e-11 1.2626101e-07 0.0 0.0 1.5149425e-10 0.0 0.0 1.4361595e-09
1.2958242e-08 8.151755e-09 1.5926313e-08 1.178374e-08 5.1420592e-09 0.0044767605 0.0040802537 0.0040814234
0.00029241526 0.0002882217 0.0011590951 0.00016529494 0.00018195478 0.000689187 1.2170709e-05 0.0017816472
0.003657353 0.0033576493 0.0033502306 0.009269611 3.59552e-16 7.981165e-16 4.660868e-10 5.4085714e-10
1.7164207e-09 0.014169399 5.7242545e-07 6.8143696e-10 1.390436e-08 4.9269613e-07 2.4198641e-08 2.7368463e-09
3.8187338e-09 1.1403438e-09 4.186054e-09 1.8253412e-09 5.5051018e-08 5.8582303e-09 3.9820974e-10 2.3597702e-09
3.3054087e-10 3.7562975e-09 4.7495955e-11 1.0146273e-09 5.05846e-07 5.6454874e-10 2.2790484e-08 6.984513e-07
1.7371198e-08 3.4149488e-09 3.3992344e-09 8.355105e-10 5.394924e-09 1.338008e-09 2.0995577e-10 2.8713927e-09
5.0716764e-11 4.0267247e-09 5.6758834e-14 2.0285364e-08 0.0 0.0 1.2230295e-10 0.0
0.0 8.581367e-11 3.8572456e-10 1.3902188e-10 1.7175737e-10 2.471007e-10 8.884269e-10 6.0344828e-05
7.414267e-05 7.46427e-05 7.2340117e-06 5.7106863e-06 2.5537673e-05 1.625744e-06 1.2020416e-06 5.5097e-06
4.7685205e-07 4.782057e-05 4.4454213e-05 5.3499414e-05 5.3595144e-05 9.360253e-06 2.3117466e-17 0.0
7.2233636e-11 3.5942638e-11 1.9918531e-10 9.38133e-06 1.0662862e-07 1.5690192e-09 1.2693339e-07 6.118061e-07
1.0390866e-08 6.321601e-09 4.633865e-09 4.8394155e-10 2.793297e-09 4.470219e-09 5.405589e-08 1.6644119e-09
5.301398e-10 1.7728187e-09 1.8954413e-10 6.530325e-10 3.059691e-11 1.3857449e-09 1.6260095e-07 6.5547456e-10
1.403149e-07 3.63053e-07 3.3220116e-09 5.3978253e-09 1.890182e-09 8.812713e-10 1.9951725e-09 7.289717e-10
2.848523e-10 1.4955678e-09 1.548829e-11 2.232092e-09 1.2826111e-12 7.841021e-09 0.0 0.0
1.1269796e-11 0.0 0.0 9.272921e-11 7.293662e-10 4.2839168e-10 2.1645225e-10 1.515081e-10
3.2720754e-10 2.2240883e-06 3.2941473e-06 3.2820135e-06 9.443906e-07 1.3230687e-06 4.353556e-06 3.8216012e-06
3.894031e-06 1.5300157e-05 1.6706628e-07 5.8284713e-06 7.969157e-06 1.0489116e-05 1.0745811e-05 1.7056096e-05
0.0 0.0 2.4189054e-11 9.0817805e-11 2.0225482e-10 1.4322917e-05 8.5199335e-06 6.103785e-08
6.9054795e-06 2.4393563e-05 4.9609196e-07 3.435715e-07 4.191631e-07 3.5522476e-08 1.337336e-07 2.2209832e-07
1.8387998e-06 1.6706129e-07 3.73161e-08 1.0697598e-07 1.8155237e-08 9.2976876e-08 1.3239634e-09 1.5199386e-07
1.3963619e-05 4.0153836e-08 5.9721797e-06 1.570395e-05 2.6331293e-07 2.456492e-07 1.7909882e-07 3.76351e-08
1.7084182e-07 4.2920078e-08 1.9221389e-08 7.621752e-08 1.929926e-09 1.7208302e-07 7.242193e-11 1.300616e-07
0.0 0.0 4.856255e-10 0.0 0.0 5.838776e-09 5.686908e-08 1.8505155e-08
2.1299947e-08 1.0534463e-08 3.9003698e-08 0.0061967555 0.005871728 0.0058746696 0.00019228717 0.0002098184
0.0007887587 0.00066561217 0.00079372455 0.0029075088 9.782808e-06 0.0010525942 0.00596035 0.0056416574

exp_avg f4 [16]
00000000: 290f 34bc 5106 f23b 5aea 903b ca82 56ba
00000010: 92c4 423c 7ffd 88bb 9f7e 34bb e4b3 bb3a
00000020: 511d 2a3c 5173 43bb b5bf 133c 743e b2bb
00000030: 9810 ecbb 5ebf c5bb 0405 adbb ea8c f33a
-0.010989943 0.007386007 0.004422468 -0.0008182941 0.011887686 -0.0041806097 -0.0027541292 0.0014320579
0.010382966 -0.0029823373 0.0090178745 -0.005439574 -0.0072041266 -0.0060347756 -0.005280139 0.0018581424

exp_avg_sq f4 [16]
00000000: f28e 203a 1f18 cc38 cf99 4139 7d70 3239
00000010: 85d3 c739 0b53 6639 068e e938 a1c1 7238
00000020: fab8 3c39 33cb 4038 3d7b cf39 0cc1 b338
00000030: c1e4 3b39 dc73 383a e638 e037 0300 9139
0.0006124816 9.731971e-05 0.00018463212 0.00017017308 0.00038113832 0.00021965445 0.0001113676 5.7877627e-05
0.00017997986 4.596561e-05 0.00039573936 8.571343e-05 0.00017918927 0.00070363074 2.6729376e-05 0.00027656564

exp_avg f4 [16]
00000000: f579 99bc a11d 533b ff3f 833b 354f c13a
00000010: a7ff 92bb deb0 c3bb 8ea6 013b 91c2 0bbb
00000020: 945a f23b 5b5c 62ba f04b be3b bd71 03bb
00000030: 14d1 62bb 1997 c0bb bdcb a1bb 84b6 933a
-0.018734911 0.0032213705 0.0040054317 0.0014748337 -0.0044860425 -0.005972012 0.0019783112 -0.0021325687
0.0073960517 -0.0008634978 0.0058073923 -0.0020056807 -0.0034609484 -0.0058773872 -0.0049376176 0.0011269604

exp_avg_sq f4 [16]
00000000: 1a71 fc39 30e1 ff38 1695 a938 7fe1 7239
00000010: 2143 8339 5b5e 4039 0ca2 6139 3f14 ce37
00000020: 5f41 1039 38b0 2337 c22a 4139 fe4f 9b38
00000030: 0d7c 0c39 5c55 a338 61b0 0f38 94e5 3938
0.00048149453 0.00012201292 8.0863174e-05 0.00023162922 0.00025036282 0.00018345697 0.0002151804 2.4566541e-05
0.00013757263 9.756586e-06 0.00018421843 7.405876e-05 0.00013397653 7.788345e-05 3.4258122e-05 4.432125e-05

exp_avg f4 [8, 16]
00000000: 43dc 97bb 9541 8bbb 9d4c b53b a3c3 a33c
00000010: 0ba0 4ebb 7a42 9f3b bcab 723a 36ac 0dba
00000020: 1050 74bb 9f5b 21bc cabd f43b 7d14 1a3b
00000030: f17f 60bb 58bb dd3b dc87 2c3b d9f0 933b
00000040: 6ed7 1e3b fdd4 073b 4d70 2abb faa4 7cbc
00000050: fac7 0a3c f24f f8ba 7f15 e63a 891a 9b3b
00000060: 570a 063b 0f8b 903c fb4b 88bb 0697 ec3a
00000070: 1fe1 2f3b a383 51bb 925a 1f3b c7ee a1ba
00000080: 5dde 83bc 0607 67bc 821a 4d3c 624e 743c
00000090: b645 9b3b 735b 333c e273 99bc b3fc f73b
000000a0: 5618 6ebc 5913 5c3a 30ec 593c ae0d acbc
000000b0: c479 75bc 3c23 513c 77bb 97bc f712 303c
000000c0: 3177 be39 4c33 e6b8 d8a1 e8ba 254c 863b
000000d0: 92a2 babb 8661 5cba f2a2 853a 9f1d 823b
000000e0: df40 8f3a 5582 40bb 8258 30bb f07d 803a
000000f0: 78e1 0c3b 61a9 3a39 ac94 323b 7064 81ba
00000100: c17a 24bb 58e9 5bbb c5ed 223c 1633 d83c
00000110: ccc1 2dbc 0300 4c3c 8d85 b3ba e6ae 893b
00000120: 7006 2ebb 3662 b0bc e538 5d3c 12cb a2ba
00000130: 9a27 3fbb 6b41 6f3c 8a3e f6ba a5b7 0d3c
00000140: 3a55 b83a ffff a03a bd7a a4b9 102b 10bb
00000150: ae36 1939 1fd4 123a d485 c23a 45ea 2a3b
00000160: b788 bb3a e178 293b 58dd d2b9 3356 d03a
00000170: 7754 e73a aee1 283a 0985 113b 6053 8139
00000180: bea5 2f3b 4763 d63a c37e a5ba 0ccf 2fbc
00000190: 1ea6 9d3a 025c aa3a 1161 f03a 3ea9 b23b
000001a0: 45d4 db3a 3109 c33b 7043 9239 7fbe 083b
000001b0: c060 063b 226b 253b 65b5 083b 029b 4a3a
000001c0: 9a7b 393b 4fb4 0d3c 2aa2 023b 397e a9bc
000001d0: 80f7 673b 00cb c73a 6ca2 c9bb 2735 c23a
000001e0: eeb3 ab3b 096b 793b f5fa 2a3b 69f9 6dbc
000001f0: a847 ef3b cabc 023b 0275 f4bb 6e83 093b
-0.0046344115 -0.0042497613 0.0055328147 0.019990748 -0.0031528499 0.0048602195 0.0009257158 -0.00054043846
-0.0037279166 -0.009848504 0.0074689137 0.0023510747 -0.0034255947 0.006766718 0.0026326096 0.0045147953
0.0024237293 0.0020726316 -0.0026006878 -0.015420193 0.00847053 -0.0018944724 0.0017554014 0.004733388
0.002045294 0.017644433 -0.004159448 0.001805038 0.0026837063 -0.003196933 0.0024315459 -0.0012354486
-0.016097242 -0.014100796 0.012518527 0.014911266 0.004738535 0.010947096 -0.018732015 0.007567966
-0.014532169 0.0008395217 0.01330094 -0.021002617 -0.0149826445 0.012764748 -0.018522007 0.010746709
0.00036328429 -0.000109768094 -0.0017748429 0.0040984326 -0.0056956494 -0.0008406866 0.0010195656 0.0039708163
0.0010929367 -0.002937456 -0.0026908224 0.0009803157 0.0021496695 0.00017801441 0.002724926 -0.0009871852
-0.002509758 -0.0033555832 0.009944384 0.026391547 -0.010605287 0.012451175 -0.0013696417 0.0042017577
-0.002655413 -0.021531206 0.013502334 -0.0012420139 -0.0029167891 0.014602999 -0.0018786949 0.008649741
0.0014063485 0.0012283324 -0.00031371965 -0.0021998324 0.00014611587 0.00056010665 0.0014840909 0.0026079577
0.0014307712 0.0025859403 -0.00040219235 0.001589483 0.0017649074 0.00064423203 0.002220454 0.00024666917
0.002680167 0.0016356491 -0.0012626279 -0.010730516 0.0012027656 0.0012997391 0.0018339475 0.005452304
0.0016771635 0.0059520234 0.00027897535 0.0020865498 0.0020504445 0.0025240858 0.0020860073 0.00077287864
0.0028302432 0.008648946 0.0019933083 -0.02069007 0.0035395324 0.0015242994 -0.0061533954 0.0014816866
0.005239955 0.0038058183 0.0026089523 -0.014524796 0.0073022433 0.0019948953 -0.0074602375 0.002098288

exp_avg_sq f4 [8, 16]
00000000: 5aa0 0938 a10f c737 8a50 0e38 b966 3b38
00000010: 38de 4338 69c6 0838 56cf 8e37 8331 0b38
00000020: 49f4 e637 cc3a 7038 9b42 f237 ed8a d637
00000030: 8f4b e237 467c 1638 aec2 9137 5fb9 d537
00000040: e8d9 9f37 4983 0c38 20e8 d038 978e 0d39
00000050: bb59 1c39 6ee1 9a38 5080 9137 d2a1 8439
00000060: cb62 8337 c7d1 7d39 c8ea bc38 cb0e 4f37
00000070: 2126 8137 de74 f538 404a 8f37 46a0 b238
00000080: bce5 043a 147f 243a 8476 3c3a abc8 b539
00000090: 535b 633a b797 163a 743f 4c3a 0f28 4f3a
000000a0: 710e 1b3a ce7d 913a 0b9d 4e3a dde8 383a
000000b0: bf92 233a b482 483a 1e0c 2f3a bdfd 273a
000000c0: 8d8e 6c38 5e15 5938 6215 fb37 1be0 3e39
000000d0: 5ce9 c538 8a6a cd37 91b5 9138 e28c 9438
000000e0: 6c2a 7e38 4556 5139 847f 5338 9343 8238
000000f0: 0ac7 5d38 750a b237 50d8 9a38 d122 be37
00000100: 920f 6f38 ed1a e437 e68a bc39 7b0d b939
00000110: f4ab c039 1c58 ac39 6442 5d38 067d e139
00000120: 0118 b438 fdf1 033a ab72 de39 9eb8 8238
00000130: 59c3 6838 27c6 ca39 1099 ea38 1fd6 b139
00000140: 96e7 0736 d423 1736 48e1 9f36 10ce 7d37
00000150: c0c4 0336 fa27 5736 63ed 5a36 30b5 6036
00000160: dcf2 1e36 f6fe 7e36 14e2 2f36 9231 5f36
00000170: 9490 1136 9ee9 1936 2b02 b336 457c 6c36
00000180: 3ba4 2239 f532 fd38 bdd8 8239 d909 b639
00000190: f34e 5d39 887d 2039 d85b 1339 c2d2 ee39
000001a0: 7c85 f438 fcd7 013a dcf3 3f39 8fca 1739
000001b0: 024f 1139 175e 3e39 77f6 1539 2e54 6c39
000001c0: 7fb8 1339 25b2 1239 8a2a d839 a61b bf39
000001d0: 549b d439 603b be39 71e3 2b39 00e3 d739
000001e0: 6b56 ff38 8f57 c639 6dda e939 2c14 2339
000001f0: e77b 1939 8859 e239 dbf6 2739 10b9 c739
3.2812684e-05 2.3729926e-05 3.3930446e-05 4.4679942e-05 4.669858e-05 3.260971e-05 1.7024267e-05 3.3186294e-05
2.753189e-05 5.7275218e-05 2.8879664e-05 2.557548e-05 2.6976484e-05 3.5878526e-05 1.7376002e-05 2.5477899e-05
1.9055748e-05 3.350087e-05 9.9614495e-05 0.00013499927 0.00014910747 7.385282e-05 1.7345097e-05 0.00025297567
1.5662421e-05 0.00024206108 9.00827e-05 1.2341606e-05 1.5395754e-05 0.000117042786 1.7081504e-05 8.517555e-05
0.00050696335 0.00062750396 0.0007189291 0.0003467252 0.0008672971 0.0005744653 0.00077914377 0.00079023925
0.00059149327 0.0011100115 0.00078816776 0.00070537423 0.00062398234 0.0007648871 0.0006677526 0.00064083544
5.6399545e-05 5.175673e-05 2.9931489e-05 0.00018203298 9.4371586e-05 2.4487515e-05 6.947958e-05 7.0834314e-05
6.0597828e-05 0.00019963931 5.042508e-05 6.21147e-05 5.2875876e-05 2.1224123e-05 7.3835836e-05 2.2665978e-05
5.699654e-05 2.7192256e-05 0.00035961642 0.00035295993 0.0003674921 0.00032872043 5.2752337e-05 0.00043008494
8.58754e-05 0.00050333125 0.00042428574 6.233271e-05 5.5495042e-05 0.00038676077 0.000111864996 0.00033919603
2.0251368e-06 2.2521608e-06 4.7647954e-06 1.5127953e-05 1.9635045e-06 3.2060766e-06 3.2622709e-06 3.3484066e-06
2.3685197e-06 3.7997356e-06 2.6208627e-06 3.3258443e-06 2.169084e-06 2.293476e-06 5.334868e-06 3.5239075e-06
0.00015510705 0.000120734716 0.00024957015 0.00034721082 0.00021105613 0.00015305553 0.00014053227 0.00045551924
0.0001165969 0.00049531437 0.00018306024 0.00014475941 0.0001385771 0.00018154863 0.00014301563 0.00022538073
0.00014087743 0.00013990009 0.00041230425 0.0003645096 0.0004055152 0.00036283862 0.0001639256 0.00041177124
0.00012175444 0.0003783074 0.00044603963 0.00015552406 0.00014637374 0.00043172785 0.00016018322 0.0003809412

exp_avg f4 [8]
00000000: 5a72 723a f659 3dbb aadf febb bbe7 033b
00000010: c676 103b 1212 9b3b 17d1 2a3c f3ad 4bbc
0.0009248607 -0.0028892732 -0.0077781277 0.0020127136 0.002204345 0.0047323788 0.0104258275 -0.012431609

exp_avg_sq f4 [8]
00000000: 7de0 8238 0aca 2439 c54b 2a39 1138 b83a
00000010: a398 4b39 75e4 9a38 69ce d63a 3e3e 0f39
6.240697e-05 0.00015715524 0.0001624069 0.0014054795 0.0001941645 7.385846e-05 0.0016388419 0.0001366073

exp_avg f4 [8]
00000000: 185a 2d3b fba4 00bc b20e 573c a0aa 42bb
00000010: 5df9 a43b 3ed0 e8ba 8eca 303c 932c aebb
0.0026451405 -0.007851834 0.013126062 -0.0029703751 0.005034609 -0.0017762256 0.01079048 -0.0053153723

exp_avg_sq f4 [8]
00000000: d00d 5e38 8331 2c39 a7d8 4939 0868 ae39
00000010: 3b76 0e39 b483 f737 a210 103a 6e41 a039
5.294179e-05 0.00016421643 0.00019249563 0.00033265376 0.0001358622 2.9506024e-05 0.00054956425 0.00030566327

exp_avg f4 [4, 8]
00000000: b26d 743a 5c2a cdbb 4e43 d5bc 4b9f 423a
00000010: b7b2 e43b 6ea1 c9ba 94d4 fbbb 0405 20bc
00000020: fbae 083c 60dc 7abb 3cb9 863a 5de3 e0bb
00000030: 7340 083b 0f1f b9bb d317 12bc 224d ec3b
00000040: 3641 64bc fc38 edbb ec57 59bb ccc0 53bc
00000050: 0319 91bb e619 60bb fa1c 54bc b56e 193c
00000060: b5bf 7abb 83fa 073b a6d9 363b de6f a93b
00000070: ce2b d73b 7c3c a03b 6a1c 473a 2cdb 9e3b
0.0009324207 -0.006261153 -0.02603307 0.0007424249 0.0069793123 -0.0015383193 -0.0076852534 -0.009766821
0.0083425 -0.0038278326 0.0010278593 -0.0068630413 0.0020790368 -0.0056494544 -0.008916813 0.0072113434
-0.013931563 -0.007239459 -0.0033163978 -0.012924384 -0.0044280305 -0.0034195124 -0.012946362 0.0093647735
-0.003826124 0.0020748682 0.0027900725 0.0051708063 0.006566501 0.004890023 0.00075954816 0.0048479047

exp_avg_sq f4 [4, 8]
00000000: b5a7 9d38 1c8b 1e3a 82e7 533a 4c1c b23a
00000010: 6542 ee39 be02 933a 034c 933a de3d c939
00000020: 3402 6b38 ed15 7137 6505 9a38 a88e cb37
00000030: b2dd b837 9773 8e37 609c 4837 8c82 0b39
00000040: e6fd 4a39 eeb9 043a 9a97 a239 ed26 743a
00000050: f2f9 023a 7db7 5e3a 6d36 2f3a bfcb 9339
00000060: 626a 8937 d1fc a637 a63b 3939 4af9 c538
00000070: 731c be37 7b41 8b38 67ca 9538 e6d7 1538
7.517581e-05 0.00060479506 0.00080835086 0.0013588755 0.00045444365 0.0011216027 0.0011237863 0.00038383802
5.6030418e-05 1.4369824e-05 7.344297e-05 2.4265915e-05 2.2037744e-05 1.6981545e-05 1.1957338e-05 0.00013304705
0.00019358806 0.0005063106 0.00031012 0.0009313662 0.0004996351 0.000849597 0.000668383 0.00028189828
1.6381211e-05 1.9906469e-05 0.00017665196 9.440126e-05 2.2663013e-05 6.640233e-05 7.142574e-05 3.572544e-05

exp_avg f4 [4]
00000000: 69ae 01bd 7df0 9ebb 0859 993c 52d1 a13c
-0.03166047 -0.004850446 0.018719211 0.019753132

exp_avg_sq f4 [4]
00000000: ec53 c839 2c78 2f38 e1fe df38 9528 2a39
0.000382095 4.183517e-05 0.000106809435 0.00016227581

exp_avg f4 [4]
00000000: 513f a4ba 4935 b23a 2e7d 043c cde2 693c
-0.0012531077 0.0013596202 0.008086486 0.014275265

exp_avg_sq f4 [4]
00000000: d712 6d39 745f 7937 9234 bf38 6c05 fd38
0.000226091 1.4863781e-05 9.117382e-05 0.0001206499

exp_avg f4 [2, 4]
00000000: b890 15bd a358 85bb 312c 5e3c a560 b03c
00000010: 1898 ce3b 7273 dfbb 3678 cf3b bd81 723a
-0.036514968 -0.004069404 0.013560341 0.021530459 0.006304752 -0.006819182 0.006331469 0.00092509

exp_avg_sq f4 [2, 4]
00000000: 114c 553a 34db 8338 2602 6139 a507 2039
00000010: 6d9b 8138 c698 f638 04c4 a937 ca58 a038
0.000813664 6.2873965e-05 0.00021458472 0.00015261637 6.18015e-05 0.0001175865 2.0237647e-05 7.645933e-05

exp_avg f4 [2]
00000000: 3c03 03bd deb6 093d
-0.031985506 0.03362166

exp_avg_sq f4 [2]
00000000: b239 ab3a b668 a13a
0.0013063459 0.0012314531

exp_avg f4 [2]
00000000: 336c 82bd 5dfe 923b
-0.063682936 0.004485889

exp_avg_sq f4 [2]
00000000: 0203 6b3a 39b9 293a
0.0008964987 0.00064744387

exp_avg f4 [2, 2]
00000000: cc15 be3c 07d5 9d3c cc15 bebc 07d5 9dbc
0.023203753 0.019266618 -0.023203753 -0.019266618

exp_avg_sq f4 [2, 2]
00000000: 5840 243a 4a2c cf39 5840 243a 4a2c cf39
0.00062656915 0.00039515115 0.00062656915 0.00039515115

exp_avg f4 [2]
00000000: 7acd 813d 7acd 81bd
0.0633802 -0.0633802

exp_avg_sq f4 [2]
00000000: 53cf 553a 53cf 553a
0.0008156199 0.0008156199
