test/output/local0/simulatorRun/freesurfer_volumetric/fold_7/best.nn.pt (torch_old, 736748 bytes, 42 tensors)

layers.0.0.weight f4 [256, 66]
000000 c0 ec 28 3e 78 b6 fa 3d 07 b8 8f bd d8 d5 34 3e
       0.16496563 0.122418344 -0.07017522 0.176597
000010 d1 b8 97 bd d3 fd ce 3e 01 c7 e3 bc 8a b9 0f be
       -0.07408298 0.40428028 -0.027804853 -0.14035621
000020 e4 e6 2f be 39 c0 b1 3d c3 b6 0a 3e 7d 9f 85 3e
       -0.17177922 0.08679242 0.1354628 0.26098242
000030 24 12 6f bd f1 b4 7f bd 17 f4 94 3e ff 7e 8a 3b
       -0.05836691 -0.06242842 0.29092476 0.004226565
000040 99 2c cc bc 18 00 f0 bb 0a 42 ff 3c 3e f9 14 b9
       -0.02492361 -0.00732423 0.03115942 -0.0001420723
000050 f6 d7 04 be a8 50 4f 3e a3 52 1d 3e c5 0a 84 3a
       -0.12973008 0.20245612 0.15363555 0.001007401
000060 02 e9 a0 3e 16 ba 71 3e 6d 5a 9c bc a4 32 91 3d
       0.3142777 0.23606142 -0.019086087 0.07089737
000070 40 57 14 3c c2 4e 8f 3e 8b 4b 36 3d d5 2c 6a bd
       0.009054005 0.27989775 0.044505637 -0.05717166
000080 5e 0d 4f 3e 39 b1 02 bc ef 82 4a be 3d c7 92 3e
       0.20219943 -0.0079768235 -0.1977651 0.28667632
000090 88 86 d8 bd 0a 5e a7 bd fe 28 55 bd 6d 4c 61 3e
       -0.10572535 -0.081722334 -0.052041046 0.2200181
0000a0 dc 97 15 be c0 cc 35 be b0 d0 3d be 03 d7 80 be
       -0.14608711 -0.17753887 -0.18536639 -0.2516404
0000b0 da 11 72 3d 27 3c ae bd 69 3a 8b 3e 62 1f 67 bc
       0.059099056 -0.08507567 0.27193 -0.014106603
0000c0 1f 4e 7f bc eb 42 71 bd 9a 66 67 3c dc 3e 8d 3d
       -0.01558259 -0.05890171 0.014123583 0.06896755
0000d0 8d db 94 bd 8b 85 e4 bd 63 8f 6f 3c f4 0b fb 3d
       -0.072684385 -0.11158284 0.014621588 0.12258139
0000e0 34 c5 8e 3d b8 be 06 3e 47 81 67 3e 3a 35 0f 3e
       0.06971207 0.13158691 0.22607909 0.13985148
0000f0 74 3a f6 3d 7f d3 4f bd 66 b1 77 be a1 d7 c6 be
       0.12022868 -0.050738808 -0.24188766 -0.38836387
000100 b8 f2 1c 3e f4 ff da 3d 89 27 cc bd b3 4f 70 3e
       0.15326965 0.106933504 -0.09968478 0.23467903
000110 56 1d 6e be e2 2f 85 be 01 96 59 3d 37 10 8b be
       -0.23253378 -0.26013094 0.05312157 -0.27160808
000120 ad db 11 3e 3a d1 85 be dc f7 c5 3e 52 ee ac bd
       0.14243956 -0.2613619 0.38665664 -0.084438935
000130 16 8f 8d be bb fc 4e 3e 53 d0 26 3e b1 c6 7b be
       -0.27648228 0.20213597 0.16290407 -0.24587514
000140 d1 4c 77 3d 1e 7b bd be b1 90 3c be 21 a2 c1 bd
       0.060375992 -0.37007993 -0.1841457 -0.09454752
000150 c3 26 26 be b5 23 68 be 88 5e 07 3e 23 e8 f3 3d
       -0.16225724 -0.22669871 0.13219655 0.11909511
000160 3b 69 8e be 63 74 01 3d 1e 5d 42 bd 12 3c cd bd
       -0.2781466 0.031605136 -0.047452085 -0.10021223
000170 19 33 c4 bd 0b 4d 6f be a9 67 c7 bd 0a 65 01 3e
       -0.095800586 -0.23369233 -0.097365685 0.126362
000180 ff 62 d2 bd 62 9d 20 be 15 99 b9 be 9c fc 49 be
       -0.10272788 -0.15685037 -0.36249605 -0.19725269
000190 77 72 d0 bd 82 75 5d 3d 91 1b 5e bd 37 b5 c6 bc
       -0.101780824 0.054067142 -0.054225508 -0.024256332
0001a0 ab 08 57 3e a9 60 15 bd 5c 9c ce 3e 9a d3 c9 bd
       0.209994 -0.036469135 0.40353668 -0.09854813
0001b0 10 21 82 bd e0 de 9b 3d 9f a1 5c 3e b7 d4 5b 3e
       -0.063539624 0.076108694 0.21546029 0.21467863
0001c0 7d 2f 96 be 89 ee 4c be 6f 3b b5 bd e3 63 5f 3d
       -0.29333106 -0.20012869 -0.08849227 0.05453862
0001d0 e2 08 20 be 83 00 5e 3e 84 91 1c bd 98 d4 1b be
       -0.15628389 0.21679883 -0.038224712 -0.15217817
0001e0 b6 96 f1 3d ef bc 32 3e c9 d3 1b be 0d 72 83 3a
       0.11796324 0.17454885 -0.15217508 0.0010028497
0001f0 67 d4 84 bd 3d 53 1e bc df e2 ff bd 2d 21 7d bd
       -0.06485825 -0.0096634 -0.12494444 -0.061799217
000200 a1 a1 b6 bd 20 43 24 3e 57 af 97 be 60 b9 d2 be
       -0.08917547 0.16041231 -0.2962596 -0.41157055
000210 21 84 58 bd 11 44 1d be 97 81 c9 3c 89 51 25 bd
       -0.052860383 -0.15357997 0.024597926 -0.04036096
000220 b1 67 7e be 4e 9e 7b 3c 29 29 7c 3d 80 a2 8d b9
       -0.24844243 0.015357567 0.06156269 -0.00027014688
000230 21 67 6b be e2 b6 8c 3e 31 df 2e 3e fb 68 b3 bd
       -0.2298856 0.2748328 0.17077328 -0.08760258
000240 2b d9 3b be 2a 49 1e 3e c3 24 0d 3e da 31 96 bd
       -0.18344562 0.15457597 0.13783555 -0.07333727
000250 57 66 d8 3d 1f f7 08 3d af e9 e8 bd 6c 99 a5 3d
       0.10566395 0.033438798 -0.113726966 0.080859035
000260 a7 99 c7 bd ca 7e 37 3e 56 5f bc 3e 81 1b 03 3e
       -0.09746104 0.1791946 0.36791486 0.1280346
000270 83 df 1d be 7d 94 06 3e e5 42 9e bb fa 5b 1b bd
       -0.15417294 0.13142581 -0.004829752 -0.037929513
000280 6d 6d 60 be 9e 23 21 be c9 f5 15 be 75 ac 0e 3d
       -0.21916743 -0.15736243 -0.14644541 0.034832437
000290 79 5c 96 bd bf 22 c8 bd 21 32 b0 bd c8 b7 89 be
       -0.073418565 -0.09772252 -0.08603311 -0.26898026
0002a0 04 e7 8d be bf 67 92 bd 81 3d b3 be 10 a8 1e be
       -0.27715313 -0.07148694 -0.3500786 -0.15493798
0002b0 26 38 19 be 00 c5 95 3c 16 d8 0a 3d fa c8 98 bd
       -0.14962825 0.018282413 0.03389748 -0.07460208
0002c0 fc 5d 29 3d a8 14 d1 3c 55 ac 9e 3c 8c 2a 2b be
       0.041349396 0.025522545 0.019369284 -0.16715449
0002d0 7c 14 f3 bd 87 da 16 3e f8 55 3c bc 11 5f 6d be
       -0.118691415 0.14731799 -0.011495106 -0.23180796
0002e0 e6 c4 8f bd ac 77 51 3d 5a 14 10 3c 1b 4c 4e be
       -0.07019977 0.05113952 0.008793915 -0.2014622
0002f0 63 36 28 3e d4 6b 96 3c b5 d1 29 be af 08 35 3d
       0.16426997 0.018361963 -0.16583903 0.044197734
000300 7d 9d 9e be 93 28 8f 3b 41 b4 b4 bc e8 b8 c2 bc
       -0.3097953 0.0043688505 -0.022058608 -0.02376981
000310 fc cb cf 3d 24 bf 19 3e 3c a1 0d be 69 93 35 be
       0.10146329 0.1501432 -0.13831037 -0.17732014
000320 a8 47 ab bd 93 b2 e2 3d 74 4b 8c 3d 86 27 bb 3d
       -0.08363277 0.110692166 0.06850329 0.09138398
000330 91 c4 aa 3d 9a 9c 5f 3d fb 12 4d be fe 4b bc bc
       0.08338273 0.054592706 -0.20026772 -0.022985455
000340 6b a0 12 3e 43 b6 59 3e a9 41 1c 3d af 33 93 bd
       0.14319007 0.21260934 0.038148556 -0.07187592
000350 d1 7a 32 3e 63 89 00 bf 70 30 69 be 1d 3d bc bd
       0.17429663 -0.50209635 -0.22772384 -0.09191344
000360 4f 52 cb 3d d3 1d bc 3d 6f 2f 11 be f7 4c 28 be
       0.099278085 0.09185376 -0.1417825 -0.1643561
000370 e2 eb 01 3e 89 aa 35 3d ce 06 98 3d ab 4a 5f 3e
       0.12687638 0.044352088 0.07423173 0.21805827
000380 57 a7 30 be d4 ea c1 3d 75 24 1a be 12 a9 08 be
       -0.17251335 0.09468618 -0.1505297 -0.13345745
000390 f9 a9 25 be c0 fa aa 3d bd 6a bc bd c3 2a 4f 3d
       -0.1617812 0.08348608 -0.09200046 0.05057789
0003a0 3a da eb bc 4e 70 d8 3e 2a af 9c 3d 29 26 6a 3c
       -0.028790582 0.42273182 0.076505974 0.014291325
0003b0 5b 85 82 3d 12 7a 58 bd fb b7 45 3e e0 98 9f 3e
       0.06373092 -0.05285079 0.19308464 0.31171322
0003c0 14 22 1c bb 09 9f c8 3e c8 11 cd 3d 1f a4 8e bc
       -0.0023824023 0.39183834 0.10013157 -0.017412243
0003d0 79 87 81 3d 1c 92 a5 3e 3a 32 40 bd fa 1f b3 bd
       0.063246675 0.32338035 -0.0469229 -0.087463334
0003e0 65 d5 74 be df fc 2b bd af 15 d9 3d 9f 7b 2d be
       -0.23909529 -0.041989204 0.10599839 -0.16941689
0003f0 ab c7 53 bd 6a 73 2b 3e 9a 17 4d 3b 0c 53 81 be
       -0.05170409 0.16743246 0.0031294585 -0.25258672

layers.0.1.weight f4 [256]
000000 1c 62 80 3f 84 25 7e 3f b6 71 7d 3f 17 25 7e 3f
       1.0029941 0.99275994 0.99001634 0.99275345
000010 df 04 7d 3f 9f 58 80 3f c9 bd 7c 3f 0f 32 7c 3f
       0.9883556 1.0027045 0.9872709 0.98513883
000020 e7 87 7f 3f 60 c2 82 3f 93 f5 7f 3f 3c 22 80 3f
       0.99816746 1.0215569 0.9998409 1.0010448
000030 aa 6b 84 3f f4 2b 81 3f 6c e5 7f 3f 83 01 7d 3f
       1.0345356 1.0091538 0.99959445 0.9883043
000040 53 6a 7f 3f 44 73 80 3f 59 a3 7e 3f cc de 7e 3f
       0.9977161 1.0035176 0.99468 0.9955871
000050 41 0f 80 3f 40 71 7e 3f 12 da 7f 3f d3 20 7d 3f
       1.0004655 0.99391556 0.99942124 0.9887821
000060 1f d7 7f 3f cc 42 80 3f bd 7e 7c 3f 1b 2f 83 3f
       0.99937624 1.0020385 0.9863089 1.024875
000070 cb 16 80 3f df 5e 7c 3f a6 bd 7d 3f 1f 0a 80 3f
       1.0006956 0.9858226 0.99117506 1.0003089
000080 8c 4a 80 3f 9f 4b 7e 3f 04 45 81 3f 54 8f 7f 3f
       1.002275 0.9933414 1.0099187 0.99828076
000090 22 7f 7d 3f 52 6b 7c 3f b8 23 7e 3f 5b 8d 7d 3f
       0.99022114 0.9860126 0.9927325 0.99043816
0000a0 ea 54 80 3f 0c d5 7d 3f 94 60 80 3f 99 7d 7f 3f
       1.0025914 0.9915321 1.0029473 0.9980102
0000b0 6f 69 81 3f 83 80 80 3f 67 44 7e 3f a1 65 7e 3f
       1.0110301 1.0039219 0.99323124 0.99373823
0000c0 36 ab 80 3f c8 8f 7f 3f ac 0f 7d 3f 56 ca 7d 3f
       1.005225 0.9982877 0.9885204 0.99136865
0000d0 28 4f 80 3f 3c 12 7f 3f cc 9a 80 3f d7 f0 7e 3f
       1.0024157 0.996372 1.004724 0.9958624
0000e0 e4 bd 7e 3f 09 4d 7f 3f 28 fa 78 3f c3 87 7f 3f
       0.995085 0.9972692 0.9725671 0.9981653
0000f0 62 f7 83 3f 9a 2b 7c 3f cf 64 7e 3f c8 ce 7c 3f
       1.030987 0.9850403 0.9937257 0.98753023
000100 cb 4b 7e 3f 97 cb 7b 3f 18 5c 7c 3f 28 c6 7e 3f
       0.993344 0.9835753 0.98578024 0.9952111
000110 58 8a 7e 3f ff ab 81 3f 81 61 82 3f 03 5d 7f 3f
       0.99429846 1.0130614 1.0186006 0.997513
000120 0a 68 82 3f 56 ac 81 3f fa 05 83 3f 0d d1 7c 3f
       1.0188 1.0130718 1.0236199 0.98756486
000130 7f 75 7f 3f 04 67 81 3f b7 50 80 3f c6 a4 80 3f
       0.9978866 1.0109563 1.0024632 1.0050285
000140 73 8b 7e 3f cf 61 81 3f 72 7c 7b 3f ee 50 82 3f
       0.9943153 1.0107974 0.98236763 1.0180948
000150 c1 26 7e 3f c0 85 7f 3f 50 df 81 3f 4d e8 81 3f
       0.99277884 0.9981346 1.0146275 1.0149018
000160 de 54 7f 3f 12 4e 81 3f dd 33 80 3f c5 75 80 3f
       0.9973887 1.010195 1.0015827 1.003594
000170 bf 31 82 3f e2 68 7c 3f 8a d9 81 3f 7d 7c 7d 3f
       1.0171431 0.9859754 1.0144513 0.9901808
000180 ae 6b 81 3f 3d 15 7d 3f 57 cf 7d 3f 41 26 80 3f
       1.0110986 0.9886053 0.991445 1.0011674
000190 3c ed 7b 3f d7 61 80 3f 6e 37 80 3f ed 6b 7f 3f
       0.98408866 1.0029858 1.0016916 0.99774057
0001a0 3c ed 80 3f e5 cd 7e 3f ea 91 80 3f c8 36 7f 3f
       1.0072398 0.9953292 1.004453 0.99692965
0001b0 ee 7c 7e 3f b6 c4 7e 3f 8e ad 7d 3f 9d 47 80 3f
       0.9940938 0.9951891 0.9909295 1.0021855
0001c0 5a 0a 7f 3f d2 1f 7f 3f 88 4a 80 3f 6e cd 7e 3f
       0.9962517 0.9965793 1.0022745 0.9953221
0001d0 7a 2b 80 3f bc 02 81 3f 53 96 7e 3f 1c f7 7e 3f
       1.0013268 1.007896 0.99448127 0.9959581
0001e0 0e 50 81 3f d8 4d 80 3f f4 d1 80 3f 90 1b 80 3f
       1.0102556 1.0023756 1.0064073 1.0008411
0001f0 cb c5 80 3f c0 e5 82 3f 4d 5b 80 3f fc 29 7d 3f
       1.0060362 1.0226364 1.0027863 0.9889219
000200 32 0a 80 3f f5 84 80 3f 9b bf 81 3f 7d f5 85 3f
       1.0003111 1.0040575 1.0136598 1.0465542
000210 89 50 7e 3f bb f0 80 3f 92 39 80 3f f8 3b 81 3f
       0.99341637 1.0073465 1.0017569 1.0096426
000220 07 a8 7e 3f 37 fa 7e 3f 59 07 81 3f 18 b6 7f 3f
       0.9947514 0.9960055 1.0080367 0.9988723
000230 31 36 7f 3f c9 b0 7d 3f 91 e2 7f 3f 2f 59 7f 3f
       0.99692065 0.9909788 0.9995509 0.9974546
000240 a5 67 7f 3f 0f c8 80 3f 3c b5 7d 3f 2e 61 7f 3f
       0.99767524 1.0061053 0.99104667 0.9975766
000250 c7 a8 82 3f c0 68 7e 3f 45 13 7e 3f 7a 1a 7f 3f
       1.0207757 0.99378586 0.9924815 0.99649775
000260 c0 d7 7e 3f 66 82 7f 3f ec 27 7d 3f 1a f0 7f 3f
       0.9954796 0.9980835 0.9888904 0.9997574
000270 5f 1f 7e 3f df d9 7f 3f 3c 39 80 3f ef da 7d 3f
       0.9926662 0.9994182 1.0017467 0.9916219
000280 ef d5 80 3f d9 e4 7d 3f 09 8c 7e 3f 56 24 81 3f
       1.0065287 0.9917732 0.99432427 1.0089214
000290 cc 32 80 3f d5 ff 7c 3f 84 2e 81 3f 53 00 7f 3f
       1.0015502 0.9882787 1.009232 0.9960987
0002a0 1f 73 81 3f 34 6d 80 3f f7 e9 7e 3f 4c 8c 80 3f
       1.0113257 1.0033326 0.9957575 1.0042815
0002b0 b0 21 81 3f 35 ba 80 3f 3e 4a 7e 3f 99 0d 7e 3f
       1.0088406 1.0056826 0.99332035 0.992395
0002c0 b5 31 83 3f 03 76 81 3f cc 81 7c 3f 82 0e 80 3f
       1.0249544 1.0114139 0.98635554 1.0004427
0002d0 19 6f 82 3f 3d d8 7e 3f 06 bd 7c 3f ad e9 80 3f
       1.0190154 0.99548703 0.98725927 1.0071312
0002e0 80 68 7e 3f 18 71 7e 3f 33 30 7f 3f 89 27 7e 3f
       0.99378204 0.9939132 0.9968292 0.99279076
0002f0 bf bf 7d 3f 50 8c 80 3f f4 fd 7e 3f 27 21 7f 3f
       0.99120706 1.004282 0.9960625 0.9965996
000300 0a 6b 7f 3f 78 cb 7f 3f 87 3b 80 3f a6 45 7e 3f
       0.99772704 0.99919844 1.0018166 0.99325025
000310 a0 c7 80 3f c6 ae 81 3f 52 2a 80 3f 75 45 81 3f
       1.0060921 1.0131462 1.0012915 1.0099322
000320 aa 11 80 3f cb f2 7d 3f d7 d1 80 3f 51 53 80 3f
       1.0005391 0.991986 1.0064038 1.0025426
000330 fc dc 7f 3f 44 33 7d 3f 27 a2 80 3f 38 05 7f 3f
       0.9994657 0.9890635 1.0049485 0.9961734
000340 c4 61 7e 3f 9c 0d 80 3f 06 25 7d 3f 97 8e 7f 3f
       0.9936793 1.0004153 0.9888462 0.9982695
000350 ed a7 80 3f 18 3f 7b 3f 14 9a 7f 3f 26 45 83 3f
       1.0051247 0.9814315 0.9984448 1.0255477
000360 2e a7 7e 3f 01 6a 7e 3f bc 43 80 3f 16 71 7d 3f
       0.99473846 0.993805 1.0020671 0.9900068
000370 2b 26 7c 3f 69 d9 7f 3f ee 0f 80 3f 89 ad 80 3f
       0.9849574 0.99941117 1.0004861 1.0052959
000380 8a df 7c 3f 0e 62 83 3f 0f 5c 7c 3f 78 3d 7d 3f
       0.98778594 1.0264299 0.9857797 0.9892192
000390 1b c6 7d 3f d2 ed 7b 3f 8e 0e 82 3f d6 26 7f 3f
       0.9913041 0.9840976 1.0160692 0.99668634
0003a0 1a 85 7f 3f 15 69 7d 3f 33 8c 80 3f e8 04 7b 3f
       0.9981247 0.9898847 1.0042785 0.9805436
0003b0 fe 43 7f 3f ca 44 79 3f 88 96 80 3f 68 92 7c 3f
       0.9971312 0.9737059 1.0045938 0.986609
0003c0 0f bd 82 3f be d1 80 3f e5 01 83 3f 18 40 7e 3f
       1.0213946 1.0064008 1.0234953 0.9931655
0003d0 5f ac 7f 3f d7 51 82 3f 8e 36 80 3f 96 67 7c 3f
       0.9987239 1.0181226 1.0016649 0.9859556
0003e0 56 aa 80 3f c7 b5 80 3f a5 e4 80 3f d1 ac 80 3f
       1.0051982 1.0055474 1.0069777 1.0052739
0003f0 5e eb 80 3f c3 43 80 3f 54 36 81 3f 4f 5e 81 3f
       1.0071828 1.0020679 1.0094705 1.0106906

layers.0.1.bias f4 [256]
000000 9a b6 be 3a 5e bf 3d bc 8c 1c df ba 36 f9 20 bc
       0.0014550269 -0.01158127 -0.0017022057 -0.0098250415
000010 34 f6 ff bb 4a 9b 0c 3c 1b 51 15 bc b3 16 15 bc
       -0.007811332 0.008581946 -0.009113575 -0.00909965
000020 4a ec 76 3c 1d e0 cd 3c 4d a4 a3 3a f8 f2 fc bb
       0.015070984 0.02513128 0.0012484879 -0.007719394
000030 99 82 00 3d 83 16 b6 3b e5 25 18 3b bc a1 4f b9
       0.031374548 0.005556883 0.0023215946 -0.00019801309
000040 49 1c f9 bb 92 62 40 3b fb 8a 5a 3c e1 66 20 bc
       -0.007602249 0.0029355627 0.0133388 -0.009790153
000050 65 41 26 b9 1d 69 f3 bb 58 31 bf b9 54 bb 09 bc
       -0.00015855355 -0.007428302 -0.00036467123 -0.008406479
000060 06 af 6a 3a 98 00 ec bb 7b 0f 11 bc e5 46 bc 3c
       0.0008952472 -0.007202219 -0.0088537885 0.022983024
000070 e5 1d b3 3b 1a 9e 32 bb 44 f3 ac 3b f3 a5 61 3c
       0.00546621 -0.002725488 0.005278023 0.0137724755
000080 61 44 c9 ba 64 9d dc b9 1d 02 c4 3b 97 6b 0e 3a
       -0.0015355462 -0.00042078935 0.0059816972 0.0005432902
000090 4c 0a 8e bc 72 bd 2c bc e6 70 8c bb 0e 6d 7d bb
       -0.017338894 -0.010543214 -0.0042859195 -0.0038669738
0000a0 12 06 2e bc 23 54 38 bb 5f 6b 09 3a d7 86 99 bb
       -0.010621564 -0.0028126321 0.0005242135 -0.0046852636
0000b0 d1 2e 76 3c ef b4 bb 3c 6b 83 5b bb a9 fe 85 bc
       0.01502581 0.022913424 -0.003349508 -0.016356783
0000c0 f8 a2 6c 3b f5 3f fa bb b5 d5 23 bc 9e 16 29 bc
       0.003610788 -0.007637019 -0.009999682 -0.010320334
0000d0 be 40 56 3c 0e 57 39 3b 18 11 30 bb fd da 69 bb
       0.013076959 0.0028280648 -0.0026865657 -0.0035683506
0000e0 3b 72 a3 ba 3f 72 ea 3a 6f 33 9b bb e4 55 e5 3a
       -0.0012469956 0.0017886831 -0.004736356 0.0017496911
0000f0 1b 61 ac 3c 4b 16 04 bc f4 14 11 3a 73 9b a6 bb
       0.021042397 -0.008061956 0.00055344333 -0.005084449
000100 b5 93 5f 3b 7b 6f 30 bc b1 84 48 3a 1b 53 22 bc
       0.003411514 -0.0107687665 0.0007649167 -0.009907509
000110 58 84 bd ba 97 8f 65 3c c6 f5 b4 3c ad ba e5 3a
       -0.0014458997 0.014011285 0.02208985 0.0017526947
000120 f4 1e 86 3c 0b a7 ce 3a 90 ce e1 3c f8 b6 99 bb
       0.016372181 0.0015766335 0.027564317 -0.004691001
000130 e0 e9 b9 37 26 c8 b7 3b d4 6c eb 3b 14 a0 15 3c
       2.2162625e-05 0.0056085763 0.007184604 0.009132404
000140 f8 df a4 bb 9d 5b bb 3b a1 7e a7 bc 4d 5b b8 3c
       -0.005031582 0.0057177083 -0.020446124 0.022504473
000150 4c 79 08 3a a7 a7 5f 3b 81 46 9a 3b 7f 23 e1 3b
       0.0005206063 0.0034127028 0.0047081118 0.0068706865
000160 53 64 05 3b fc e1 88 3c 19 fc 04 bc 91 54 8c 3b
       0.0020353987 0.01670932 -0.008116745 0.004282542
000170 ea 6a 19 3d a0 45 4e bc 98 be 1c 3c 6a 65 78 ba
       0.037455477 -0.012589842 0.0095669255 -0.0009475561
000180 66 46 68 3b 5f 29 57 bb 8e 30 3b bc f6 10 49 3b
       0.0035442351 -0.0032831056 -0.011425151 0.0030680276
000190 16 26 2c bc 4e 59 03 3b 1c 43 e7 bb 39 62 72 3a
       -0.010507127 0.0020042243 -0.0070575606 0.00092462037
0001a0 2d ad 16 3b af 22 13 bc 3f 29 1e bb 76 a2 8f bb
       0.0022991404 -0.008980437 -0.0024133471 -0.0043833805
0001b0 cd af 2e bc ce 48 a9 ba 18 e8 54 bc 65 b2 64 bb
       -0.010662031 -0.0012915374 -0.012994789 -0.003489637
0001c0 58 0c e2 bb bd 6d 2c 3c d3 5a c9 39 37 24 99 3b
       -0.006898444 0.0105242105 0.00038405377 0.0046735066
0001d0 d4 db 10 3c e2 d4 9d 3c 89 22 62 ba e0 10 25 bc
       0.008841474 0.01926655 -0.0008626362 -0.010074824
0001e0 e6 9f a1 3b f7 20 b6 3b 57 1b 88 3c 28 84 22 bc
       0.0049323915 0.005558129 0.0166146 -0.009919204
0001f0 c5 a1 3a bc 34 b4 ff 3c 0a 39 cd 3b 8c 21 0e bc
       -0.011391108 0.031213857 0.006262903 -0.00867499
000200 f4 cc d7 38 a3 87 31 3c a9 4b e3 3b a0 d4 12 3d
       0.000102901744 0.010835561 0.0069365096 0.035847306
000210 6b 80 7e 3b 0a 1c 8f ba cb 39 48 3c d4 1f c1 ba
       0.0038833867 -0.001091839 0.01222081 -0.0014734217
000220 09 f3 a7 bc 04 9a 1f 3b 0c ab ea 3b 9f a1 c1 3a
       -0.02050163 0.0024353275 0.0071615037 0.0014772898
000230 c3 bd 18 bc ae 51 c5 ba 44 d5 2c b8 49 e2 63 bc
       -0.0093225865 -0.001505425 -4.1206615e-05 -0.013908931
000240 c8 b7 f0 3a ed f8 90 3a b6 c2 91 bc 61 5c 0f 3b
       0.0018365318 0.0011060514 -0.01779304 0.002187513
000250 97 57 da 3c 80 6c 02 bc 48 df 23 3b 61 f9 e4 3b
       0.026653094 -0.007960439 0.0025004912 0.006987736
000260 5d 24 55 3b 00 4f 88 bb f6 fc 66 bc 91 e1 83 3b
       0.0032522895 -0.004159808 -0.0140983965 0.0040246923
000270 2a 79 4b ba 1a 26 89 bb 6a 36 b5 bb 9c cb 3a bc
       -0.00077618903 -0.0041854503 -0.0055301683 -0.011401083
000280 43 30 25 3c b5 ad 6d bc c6 72 36 3a 29 7f 8f 3c
       0.010082307 -0.014506747 0.00069598516 0.01751669
000290 e4 12 7a 3a 2c d6 42 bc 18 62 30 3c ae 4f 90 bb
       0.0009539558 -0.011891883 0.010765575 -0.00440403
0002a0 b1 d4 22 3c 73 d6 48 3c 85 68 aa 3b 0c 01 1a 3c
       0.009938405 0.01225816 0.005200448 0.009399664
0002b0 a6 b6 48 3c a6 33 32 3c 74 99 3e bc fc 9f 25 3c
       0.012250578 0.010876572 -0.011633266 0.010108944
0002c0 b9 85 64 3b c0 14 e0 3b 33 f0 a1 3a a9 28 af ba
       0.0034869744 0.006838411 0.001235491 -0.0013363558
0002d0 66 17 30 3c 67 6b 11 bc 54 2e c7 3a 04 f4 36 3c
       0.010747766 -0.008875704 0.0015196302 0.011166576
0002e0 39 2f d7 bb 54 aa c8 3b ef 68 b1 bb f3 79 b2 bb
       -0.0065669087 0.0061238203 -0.0054141204 -0.0054466664
0002f0 44 e1 c3 3b 78 6f 43 3c c9 a5 ac 3b 4b 33 e3 3b
       0.0059777815 0.011928432 0.0052687866 0.006933605
000300 e8 2b 72 bc d8 b7 85 3b 74 fb a9 bb ba aa 90 3c
       -0.014780976 0.004080754 -0.0051874463 0.017659534
000310 2d 5f c8 3b e2 33 d4 3b 3d cb f3 3b 11 7b 8e 3b
       0.0061148615 0.0064759115 0.0074399994 0.0043481668
000320 53 4a ab 3b 0d 18 e2 b9 24 10 12 3c be 87 05 bc
       0.005227366 -0.00043123998 0.008914981 -0.008150039
000330 f3 7d 84 3b 77 19 cd ba 54 40 37 3b 93 47 85 bb
       0.0040433346 -0.0015647848 0.0027961927 -0.00406737
000340 87 97 a4 bc 03 2d 17 bb 61 84 27 bc 4d f9 6b bb
       -0.020091785 -0.00230676 -0.010224433 -0.003600675
000350 5a b5 fb 3b 27 33 bb bb 6e b5 d9 b9 1c b1 4d 3c
       0.007681531 -0.005712885 -0.0004152464 0.012554433
000360 8e fb 01 bc 72 65 73 bb 21 54 d4 bb 69 00 33 bc
       -0.0079335105 -0.0037139324 -0.0064797555 -0.010925391
000370 30 1e 88 bc 3a 52 50 ba 8e cd 32 3c 41 66 7e 3c
       -0.016615957 -0.0007946823 0.010913266 0.015527309
000380 8e 21 b5 bb 56 a9 fc 3c 73 1a 16 bc 74 6e 5d 3b
       -0.0055276817 0.030842464 -0.009161579 0.003378776
000390 e6 fa 62 bb 88 26 3d bc 05 16 ac 3c df 41 06 3c
       -0.003463441 -0.011544831 0.021006593 0.008194416
0003a0 b7 1b 48 ba ed 3d 84 bc e0 22 cf 3b 72 e5 6f bc
       -0.00076335244 -0.01614281 0.006321296 -0.014642106
0003b0 81 39 8d bb aa 29 b2 bc 67 64 20 3c 0e ff ab bc
       -0.0043098335 -0.021748383 0.009789563 -0.020995643
0003c0 78 ea 30 3c ea 8e 02 3b 98 23 b8 3c f5 25 3e bc
       0.010798089 0.001992161 0.02247791 -0.011605729
0003d0 07 46 0e 3a 39 4a d7 3c 1a 50 20 3c db 80 6d bc
       0.0005427305 0.02628051 0.009784723 -0.014496054
0003e0 27 92 08 3c 25 41 57 3a 65 f2 a6 3b 99 e1 0c 3b
       0.008335627 0.00082113064 0.0050948136 0.0021496771
0003f0 89 b5 99 3c 06 87 5b 3c f8 54 40 3c 45 cc 90 3c
       0.01876332 0.013398891 0.011739008 0.017675528

layers.1.0.weight f4 [128, 256]
000000 17 01 62 bd a0 1c 6d bc 1b e4 fc bd 93 19 a0 bd
       -0.05517682 -0.014472157 -0.12348195 -0.07817378
000010 f2 32 06 3d de c6 4c 3d f8 dd 2a 3d 3d 17 55 bd
       0.03276343 0.049994342 0.041715592 -0.052024115
000020 15 ae 9c 3d 6b 21 0f 3d d8 a0 b6 3d 05 ac b0 3d
       0.07650391 0.03494398 0.08917397 0.0862656
000030 bd 42 23 3d a1 86 9c bc bc e1 43 bd 7a cf ad bc
       0.03985857 -0.019107165 -0.0478227 -0.021217097
000040 b3 ae 5d 3d cd 7f 98 3c 24 4d 9b bd 45 2a d0 bc
       0.054121684 0.018615628 -0.07583073 -0.02541078
000050 30 eb 08 be 53 78 9c bd 97 64 2a 3d 1b 30 f6 bd
       -0.13370967 -0.076401375 0.041599836 -0.12020894
000060 83 2f 88 bd 54 8f d0 bd 82 26 d1 bd b8 1b 5b 3d
       -0.06649687 -0.10183588 -0.10212423 0.05349323
000070 83 b8 1d 3d 54 a4 9d bd 17 7d c2 bd be b2 83 bc
       0.038506042 -0.07697359 -0.09496515 -0.016076442
000080 3f 92 a9 3d 1a 15 81 3d 13 b9 61 3e d1 55 9a 3d
       0.08279847 0.06302853 0.22043256 0.075358994
000090 ab f0 33 bd 84 78 58 be 15 90 1f bd 6f 6c 31 3d
       -0.04393069 -0.21139723 -0.038955767 0.0433163
0000a0 c3 db c5 3c 4e b6 9e bc 92 de 0d 3c ca 5c 7a 3d
       0.024152642 -0.019374039 0.008659022 0.061123647
0000b0 92 91 a2 3c 3f 85 c0 3d b7 a5 d4 3d b3 77 9e bc
       0.019844804 0.09400415 0.1038317 -0.019344186
0000c0 82 6b 7c be 8a b3 55 3b 53 fc 8f 3d 36 84 36 3e
       -0.24650386 0.0032608234 0.07030549 0.17823872
0000d0 fd 55 46 bd 12 fb fc ba 51 1e 21 3d bb bc 91 bd
       -0.04842185 -0.0019300899 0.039335553 -0.071160756
0000e0 12 3b 90 bd cc de f0 bd 29 88 14 3e 78 99 e9 3d
       -0.07042517 -0.11761245 0.14505066 0.11406225
0000f0 b6 76 93 bd c7 1f c5 3c 88 ce b3 3d 82 5b 87 3d
       -0.07200377 0.024063004 0.08779627 0.066092506
000100 82 a1 65 bc 78 c5 57 3d 2f f7 84 3d 84 fc 93 bc
       -0.014015557 0.052678555 0.06492459 -0.018064745
000110 94 c7 b2 bd b4 c8 79 3c c0 ae c8 3b b9 58 47 3d
       -0.08729473 0.015245605 0.0061243474 0.048668597
000120 1c b0 41 bb a8 47 87 3d 3c 0a a6 bd bf 12 c8 bd
       -0.0029554432 0.06605464 -0.08107421 -0.097692005
000130 fa da d8 bd b7 20 43 bc 99 e4 87 3b 29 ab 3d bc
       -0.105886415 -0.011909655 0.004147124 -0.011576452
000140 af 0f 0c bc a5 74 23 bd 75 48 68 be 73 45 d9 bd
       -0.008548661 -0.039906163 -0.2268389 -0.106089495
000150 5b cb 63 bd a0 6d 04 be 0d 89 5a bd 77 fe de bd
       -0.055613857 -0.12932444 -0.053353358 -0.10888379
000160 17 93 18 bc 13 8f 4c 3d 50 70 1d bc 96 35 bf bc
       -0.009312413 0.049941134 -0.009609297 -0.023340981
000170 e1 3c 1a 3d 65 44 42 bd 46 7c dc 3d d0 af ee 3d
       0.037655715 -0.047428507 0.10765891 0.11654627
000180 16 c7 3d 3d d9 2d 3e 3d f9 8c 09 be 47 4e 47 3d
       0.04633244 0.046430442 -0.13432683 0.048658635
000190 65 eb d4 3d 6f 41 1b be f5 4c 60 bc 63 2a ed bd
       0.103964604 -0.1516168 -0.013690223 -0.1158035
0001a0 09 61 a0 3c fd 99 96 3d 24 c7 57 bd 6f 62 1f bd
       0.01957752 0.0735359 -0.05268015 -0.038912233
0001b0 11 52 7e 3d 87 13 01 be ce 07 3c 3e 60 07 19 3d
       0.062089983 -0.12605105 0.18362352 0.03736055
0001c0 9a b4 28 3e 71 a3 6e 3d 70 93 10 be 2c 6f 8c bd
       0.16475144 0.05826134 -0.14118743 -0.06857142
0001d0 5e 8c 5e ba 9d b5 ea bc 55 2e b1 3d 3c a6 c6 3d
       -0.0008489544 -0.028651053 0.08651415 0.096996754
0001e0 29 3d 03 3c 09 32 58 bb c0 9c 49 bd 34 f3 6c bd
       0.008010187 -0.0032988808 -0.049221754 -0.057849124
0001f0 86 ed f4 bd 39 78 cf 3d 89 ef 35 3e 94 a1 03 3d
       -0.119593665 0.101303525 0.17767157 0.032136515
000200 89 ba c8 3a f1 82 ad 3d 7d a7 4a 3d 3b c1 1d 3e
       0.0015314381 0.08472241 0.049476136 0.15405743
000210 5e d2 32 bd 18 50 d3 3d 79 ce e7 3d ac ad 1b 3e
       -0.043657653 0.10318011 0.113186784 0.1520297
000220 9c f2 14 3d a9 ae 30 bc 2d 15 b6 3d a4 06 c0 bd
       0.036364183 -0.01078383 0.08890758 -0.093762666
000230 80 9b a6 bd e1 e8 30 3b c9 8f c1 bd 88 59 4c bd
       -0.08135128 0.0026994275 -0.09451253 -0.04989007
000240 92 88 99 3c 72 cd 10 bd 48 c8 57 b8 1f 36 24 be
       0.01874188 -0.035352178 -5.144652e-05 -0.1603627
000250 f7 0d 19 3d f6 f0 a0 3d bf 0c 9d 3d 59 53 f0 bd
       0.037366834 0.0785846 0.07668447 -0.11734647
000260 76 2c e5 bd de 9f b4 bd d2 14 e5 b9 c9 6e 29 bd
       -0.11190121 -0.08819555 -0.00043693796 -0.04136542
000270 94 5b d7 3d b8 2c c0 3d c9 c5 70 bc d0 02 58 bd
       0.10515514 0.093835294 -0.014695593 -0.052737057
000280 e5 89 44 3c 16 e9 3b bd fc f6 a5 bd e5 a8 86 3d
       0.011995767 -0.045876585 -0.08103749 0.06575183
000290 96 7a 05 3d eb 78 24 3d dd b1 47 3d 58 bf f6 3c
       0.03258761 0.04015438 0.048753608 0.030120537
0002a0 9d 9b bc bd e3 6d 5a 3e 2a aa 6a 3d 70 23 33 bc
       -0.092093684 0.21330981 0.057291187 -0.010933742
0002b0 f2 74 3a 3d bb 2e fb 3c f1 c6 07 3d 5c 28 10 3d
       0.045521684 0.030661931 0.03314871 0.03519474
0002c0 f2 51 14 3d 29 65 81 3d f1 16 2b 3d 6a 53 3a be
       0.03621096 0.06318123 0.041769926 -0.18195882
0002d0 a8 8a 40 3e 1d 34 52 3e 1f b0 a6 bc 9e 9d d8 bd
       0.18802893 0.20527692 -0.020347653 -0.10576938
0002e0 52 7b 25 bc 04 93 8d bd 99 0e 84 bd 3f 98 c1 3d
       -0.010100203 -0.06912807 -0.06448097 0.09452867
0002f0 94 66 01 3b ab 69 a0 3d 2b 2a 1a bd cb 02 c6 bb
       0.001974498 0.078326546 -0.03763787 -0.0060428134
000300 b8 9c 36 bd 5d ae ad 3d 25 4c 65 3e 14 6a 24 bc
       -0.044583052 0.08480523 0.22392328 -0.010035057
000310 d5 37 2d bc 92 cc d8 bd af 9c 2f 3c 9e f4 9a bb
       -0.010572393 -0.10585894 0.010718509 -0.0047288677
000320 65 e4 06 bb 59 1b 30 bc 46 4e 97 3d 6e e0 fe 3d
       -0.002058291 -0.010748708 0.07387976 0.1244515
000330 dd cb 1d bd 04 af 72 3e 3c e2 0b be ce fd 0f 3e
       -0.038524497 0.23699576 -0.1366052 0.14061663
000340 da 02 1d bd 51 41 a3 bd 38 12 ac 3d e2 6b 04 be
       -0.038332798 -0.079714425 0.084019125 -0.12931779
000350 1f d7 38 3c 3e 73 f8 3c f2 6c 3b 3e f4 0f b6 bd
       0.011281758 0.03032839 0.18303278 -0.088897616
000360 7f bf a2 bd 98 dd eb 3d 38 2b 48 3c 1b 0d 8f 3d
       -0.07946681 0.11516875 0.012217335 0.069849215
000370 ae 0b 80 3d 8b 34 cd bd 7a 30 e3 bd c1 d9 97 bd
       0.06252228 -0.100197874 -0.110932305 -0.0741458
000380 dc 26 9e 3d 6a 85 ca bd fb df 11 3e 97 99 cc bd
       0.077222556 -0.09888728 0.14245598 -0.099902324
000390 ae cc e8 3d 9f 57 1c 3e 2a e8 1b be 81 84 ad 3c
       0.113671646 0.152678 -0.15225282 0.021181347
0003a0 aa ce 9b 3d cd c6 ee 3d 57 90 6c 3d ec 30 72 3c
       0.076077774 0.11659012 0.05775484 0.014782172
0003b0 fb 9e 38 bd 51 6a 0a 3e fa 55 19 be 85 f1 30 3d
       -0.04507349 0.13517119 -0.14974204 0.04319908
0003c0 1b 32 a9 bd d3 7d f1 bd 6a 43 33 bc 16 c7 28 3d
       -0.0826151 -0.11791577 -0.010941366 0.04120549
0003d0 66 7e 31 bd c6 6f ce bb 47 cd 15 bd 23 bd e9 bd
       -0.043333434 -0.0062999455 -0.03657272 -0.11413028
0003e0 b8 ea 56 bc 6c d5 5f bd eb 39 2c 3d c9 5d cd 3b
       -0.013117485 -0.054646894 0.042047422 0.0062672836
0003f0 d8 da bf bb fb bc 21 be 4e 8b 22 3e 11 22 12 bd
       -0.0058549456 -0.15794747 0.15873453 -0.03567702

layers.1.1.weight f4 [128]
000000 f5 99 7f 3f 64 e3 7f 3f 42 92 79 3f 39 52 7b 3f
       0.99844295 0.99956346 0.97488797 0.98172337
000010 76 1e 7f 3f 0c 86 7d 3f fc fa 7f 3f 8c 82 80 3f
       0.99655855 0.99032664 0.99992347 1.003984
000020 86 f3 80 3f 47 11 81 3f 07 ad 7c 3f 86 c4 7f 3f
       1.0074317 1.0083398 0.9870152 0.99909246
000030 dc ae 7a 3f 87 0c 80 3f 6c fa 7f 3f f0 7d 7d 3f
       0.97923064 1.0003823 0.9999149 0.9902029
000040 a9 57 80 3f 67 33 82 3f ed 15 7e 3f 50 1a 7f 3f
       1.0026752 1.0171937 0.99252206 0.99649525
000050 8c 8f 80 3f 3a 41 7f 3f 65 24 7f 3f 57 db 7f 3f
       1.0043807 0.997089 0.9966491 0.9994406
000060 da 24 7f 3f 28 a3 84 3f b3 b0 80 3f 3a c2 7e 3f
       0.99665606 1.0362291 1.0053924 0.99515116
000070 da 39 80 3f d9 0c 7d 3f cf 71 80 3f 4b 05 85 3f
       1.0017655 0.9884773 1.0034732 1.039224
000080 20 2f 7d 3f 9f 6a 82 3f 7b 1f 84 3f dc 68 79 3f
       0.9890003 1.0188788 1.0322107 0.9742563
000090 93 da 81 3f 1a 85 80 3f 9a 55 82 3f 41 0f 82 3f
       1.0144829 1.0040619 1.0182374 1.0160905
0000a0 21 73 7e 3f e8 c4 80 3f 1d ee 7c 3f f5 ac 80 3f
       0.9939442 1.0060091 0.9880083 1.0052782
0000b0 f7 c3 7c 3f 3b 00 7e 3f bd 5f 80 3f 55 7e 80 3f
       0.9873652 0.992191 1.0029217 1.0038553
0000c0 0d 50 7b 3f 6b b7 7f 3f db ff 80 3f 9f 77 82 3f
       0.9816902 0.9988925 1.0078081 1.0192755
0000d0 0e ae 82 3f b7 ea 7d 3f 95 9b 81 3f d2 b5 7d 3f
       1.0209367 0.9918627 1.0125605 0.9910556
0000e0 09 72 79 3f 29 4d 7f 3f 7a 4b 7a 3f 8d 4d 7b 3f
       0.9743963 0.9972711 0.9777142 0.9816521
0000f0 ee 98 80 3f f0 71 7c 3f e9 cb 7e 3f af 6f 7d 3f
       1.004667 0.98611355 0.9952989 0.9899854
000100 54 82 81 3f 90 96 7c 3f c8 bd 7d 3f 0d 98 7c 3f
       1.0117898 0.9866724 0.9911771 0.9866951
000110 6c e0 81 3f cc 4a 83 3f a3 9e 7f 3f b8 66 7f 3f
       1.0146613 1.0257201 0.99851435 0.9976611
000120 bc 6e 7f 3f 22 ac 7d 3f c4 57 81 3f bb e9 7a 3f
       0.9977834 0.9909078 1.0104909 0.98012894
000130 a2 33 80 3f 1b 44 7a 3f 4e f6 7f 3f 97 40 81 3f
       1.0015757 0.9776017 0.99985206 1.0097836
000140 72 4b 81 3f be 4f 81 3f a2 a5 80 3f 1e b7 7d 3f
       1.0101149 1.010246 1.0050547 0.9910754
000150 50 29 81 3f 72 6e 7f 3f a3 d6 7f 3f 36 ee 7c 3f
       1.0090733 0.997779 0.99936885 0.9880098
000160 4a 6d 7e 3f d4 70 80 3f b2 27 81 3f 64 b1 81 3f
       0.9938551 1.0034432 1.0090239 1.013226
000170 e5 cb 7f 3f fb 66 7f 3f b2 ad 7f 3f 52 f0 7d 3f
       0.99920493 0.9976651 0.99874413 0.99194825
000180 7e 83 7e 3f c1 ea 7d 3f 07 80 7c 3f 86 82 7d 3f
       0.9941939 0.9918633 0.98632854 0.9902729
000190 8d f6 7f 3f 34 69 80 3f 49 02 7f 3f 8c 47 7e 3f
       0.9998558 1.0032105 0.9961286 0.9932792
0001a0 8b e6 7a 3f d2 79 7e 3f e1 02 7e 3f 48 de 7c 3f
       0.9800803 0.99404633 0.9922314 0.98776674
0001b0 ec cc 80 3f 04 86 7e 3f cc 7b 80 3f 09 e2 7f 3f
       1.0062537 0.9942324 1.003778 0.9995428
0001c0 65 80 7d 3f a9 ca 7d 3f c6 df 80 3f ff a1 81 3f
       0.9902404 0.9913736 1.006829 1.0127562
0001d0 c7 b2 80 3f 72 58 7d 3f 5a ed 7f 3f 7d 3f 80 3f
       1.0054559 0.9896308 0.99971545 1.0019375
0001e0 3d 5e 7d 3f 0d cd 7f 3f e5 e3 81 3f de 53 7b 3f
       0.9897192 0.9992226 1.0147673 0.98174846
0001f0 98 50 7f 3f 33 c7 83 3f 4e 77 81 3f ae 5e 7f 3f
       0.9973235 1.0295166 1.0114534 0.99753845

layers.1.1.bias f4 [128]
000000 8d fa c1 bb 85 36 f6 bb 58 cc 86 bb 80 63 3d bc
       -0.0059197606 -0.0075138235 -0.004113715 -0.011559367
000010 bd e7 bf 3b cb 98 11 bc 46 31 72 bb a3 c8 b3 3b
       0.005856483 -0.008886526 -0.0036955639 0.0054865642
000020 16 bd 78 3b dc 0c 41 3c 64 2e 90 bc 03 f9 41 3b
       0.00379545 0.011782851 -0.017600246 0.0029597885
000030 a6 09 4e bc 24 15 0e 3b ed a4 9b 3c 10 c3 4e bb
       -0.012575543 0.0021680081 0.018999541 -0.0031549372
000040 52 35 ce 3b ac f5 1b 3c 60 60 ca b9 fd 89 ee bb
       0.0062929774 0.009519022 -0.00038600247 -0.007279633
000050 41 ca 3f 3c 9e 1d 09 bb 9c cb 7f bc cc 6d 15 3a
       0.011705936 -0.0020922194 -0.015612509 0.000570026
000060 9a 25 c1 3b 0f 35 dc 3c 6a b2 10 bb 69 0f 60 bc
       0.005894375 0.026880769 -0.0022079 -0.013675549
000070 9f fd 60 3b 6d 90 0b bc 1a ad e7 3b c0 a9 00 3d
       0.0034330857 -0.0085183205 0.007070196 0.031411886
000080 8c 4a 35 bc a4 34 d8 3c a7 2d 94 3c ad cd c4 bc
       -0.011065137 0.026392289 0.018088175 -0.024023855
000090 75 66 fa 3b ae 47 ac bc 6b 1e c6 3c d6 75 61 3c
       0.0076416084 -0.021030273 0.024184426 0.013761004
0000a0 64 41 26 3c 2b 67 03 3b cf b0 80 bc 07 c2 df 3b
       0.010147426 0.0020050507 -0.015709309 0.00682855
0000b0 13 52 38 bc 46 c0 1f 3b e7 d5 2c 3c 8a cc cb bb
       -0.011250037 0.0024376079 0.010549045 -0.0062194513
0000c0 fa 0e 24 bc 35 68 0e bc ea fa ac 3a 4f fb b0 3c
       -0.010013336 -0.008691837 0.0013197337 0.021604208
0000d0 03 64 19 3c 80 36 d1 bb 03 6d 2a 3c 7f 23 0c bc
       0.009362224 -0.0063846707 0.010401967 -0.008553385
0000e0 d8 80 52 bc a6 32 94 bb 19 91 24 bc 24 03 8d bc
       -0.012848102 -0.0045226393 -0.01004436 -0.017213412
0000f0 48 99 e0 3b a0 ad 94 bc a1 20 09 bc 7a 0c 25 bc
       0.00685421 -0.018149197 -0.008369596 -0.010073775
000100 7a bd 0d 3b 80 60 d5 ba 46 4e 8b bc 57 c3 88 3b
       0.002162783 -0.001627937 -0.017005097 0.004173677
000110 39 39 1e 3c 73 c6 2a 3c c2 4a 47 bc c7 86 df 3b
       0.009657198 0.010423291 -0.01216382 0.0068214866
000120 a2 97 47 3b 04 9e f9 3b 36 0c b6 bb d9 06 02 3c
       0.003045537 0.007617714 -0.005555655 0.007936203
000130 7a 41 8d 39 83 68 85 bc ba f8 e8 3b bd 9c 8b 3c
       0.000269424 -0.016285187 0.0071097286 0.017042512
000140 df ed 29 3c 55 8b 2b 3c 77 c4 8c bb 24 91 37 bc
       0.010371654 0.010470231 -0.0042958814 -0.011204038
000150 4a 3f 6b 3b b4 0a ed b9 ff 43 c4 3b 89 bd 34 bc
       0.0035895878 -0.00045212137 0.005989551 -0.011031517
000160 b7 49 ff bb d1 e5 bd ba b1 55 1e 3c 29 3b 4b ba
       -0.00779077 -0.0014488046 0.009663985 -0.0007752651
000170 c2 a5 7c 3b a6 b1 f0 bb 97 31 25 3c a1 70 d1 bb
       0.0038550948 -0.007345396 0.010082624 -0.0063916002
000180 ed 64 9f bb 4f 95 cd bb f9 db 3d bc 9e d7 0b bc
       -0.004864326 -0.0062739025 -0.01158809 -0.008535294
000190 65 75 28 bb 46 07 54 3c 01 b3 d6 bb a9 0c 06 bb
       -0.0025704738 0.012941187 -0.0065521006 -0.0020454323
0001a0 93 4b 6e bc 5b 9a 5f bc 80 f9 d7 b9 e6 c2 79 bc
       -0.0145443855 -0.013647641 -0.00041193888 -0.015244221
0001b0 a9 15 aa 3b 1d 6a 5a bc f8 b2 81 3b 56 b0 3b 3b
       0.0051905704 -0.013330963 0.0039581023 0.002863904
0001c0 16 a3 c9 bb 4e 44 22 3b 97 d1 ba 3b 6e 2b e0 ba
       -0.0061534746 0.002475995 0.0057012546 -0.0017102787
0001d0 de e2 66 3b 80 53 00 bb f5 71 bb bb 22 6c 50 3c
       0.0035230438 -0.001958102 -0.005720372 0.012721093
0001e0 4c 8c 2e bc a9 17 3d ba 47 36 68 3c 94 0d b9 3b
       -0.010653567 -0.00072133035 0.014173097 0.0056473706
0001f0 58 2a 8b b7 06 3d dc 3c a3 75 64 3c f5 51 cf ba
       -1.658981e-05 0.026884567 0.013944062 -0.0015817272

layers.2.0.weight f4 [64, 128]
000000 f1 73 48 3d 61 9b 89 3e dc 76 31 be 8d 0f af 3e
       0.048938695 0.26876357 -0.17330498 0.34191552
000010 eb 84 c1 3d a2 b6 86 3c 65 19 3d be fd 6b 3f 3d
       0.0944918 0.016444508 -0.18466718 0.046733845
000020 ca 12 7f 3d 8c e9 a7 bc a0 95 71 bd ed d0 7a bc
       0.062273778 -0.020497106 -0.058980584 -0.015308601
000030 c0 e4 b5 bd 6d 86 7c bd 5a f6 36 be d4 0a 72 3d
       -0.08881521 -0.061651636 -0.17867413 0.059092358
000040 74 95 03 3e de 3e 2c 3e 39 14 80 3d 09 2f 51 3d
       0.1284998 0.16820857 0.06253857 0.051070247
000050 44 b6 cc 3d 28 a5 35 b9 d4 57 25 bd 38 91 15 bc
       0.09995702 -0.0001732303 -0.040366963 -0.009128861
000060 45 b2 f4 bd 30 49 cb 3c b9 5f 0f 3d 5b 6f a4 3d
       -0.11948065 0.024815172 0.035003398 0.08029052
000070 a5 19 81 bc 2f 67 0e be 76 20 00 3e fe d5 05 bd
       -0.015759299 -0.13906549 0.12512383 -0.032674782
000080 64 79 34 3a c5 02 83 be c6 da 10 3e 97 b9 0f be
       0.00068845437 -0.2558805 0.14145955 -0.1403564
000090 41 f9 ee 3c bc 00 59 3e 16 bd 0e 3d 36 52 2d 3e
       0.029171588 0.21191686 0.034848295 0.16925892
0000a0 05 fc 34 3e eb e1 4e be 2f 99 d0 3b 85 93 c5 3d
       0.17674263 -0.20203368 0.006365917 0.09647278
0000b0 37 23 4a be fd 22 42 bd 3f 3f 70 3c a1 07 97 3d
       -0.19739996 -0.04739665 0.014663517 0.07374502
0000c0 40 a5 53 3c ff 67 a8 3d a4 0c 88 3d dd 8c 6a bd
       0.012917817 0.08222961 0.06643036 -0.057263244
0000d0 28 f1 c0 bd 6c 7e d4 3c 8e cd 06 be b3 7d 21 be
       -0.09420997 0.025939189 -0.1316435 -0.15770607
0000e0 33 45 0b be 4b 4e 45 3d 6b 08 f1 bd 5b 98 ad bd
       -0.13600616 0.04817037 -0.11769184 -0.08476325
0000f0 23 3c 3d be 6f 15 15 bc aa 2f ac 3d da 35 c5 3d
       -0.18479972 -0.009099348 0.08407529 0.09629412
000100 b8 20 82 3c 06 4c 2a 3e 21 ec b3 bc a1 a9 4d 3d
       0.015884742 0.16630563 -0.021963181 0.0502106
000110 bf c7 41 bd ac c6 b3 bd 78 f9 1b bd af f3 96 bc
       -0.047309633 -0.08778128 -0.03807971 -0.018426744
000120 a5 29 bd 3a 30 90 b1 3c ca 01 25 3e 31 80 24 be
       0.0014431967 0.0216752 0.16113964 -0.16064526
000130 2f dc cb bd 3a 61 cc bd 26 a0 2f 3e dd f8 25 be
       -0.09954106 -0.09979482 0.17150936 -0.16208215
000140 4d b9 86 be 01 01 10 bd a3 74 a9 3d 47 d9 d0 3b
       -0.26313248 -0.035157207 0.082742 0.0063735577
000150 c5 f7 7a bc d2 69 6c bd e9 30 d1 3a cb 96 ef 3d
       -0.015317862 -0.057718106 0.0015960011 0.11698683
000160 55 e8 a8 bc 9e 76 95 3e 1e 16 ac 3d 19 98 11 bd
       -0.020618597 0.2919206 0.08402656 -0.035545442
000170 d7 d1 4b bd d4 2f 88 3d a6 cd c7 bd b8 e3 96 3d
       -0.049760666 0.066497475 -0.09756021 0.07367653
000180 1e eb 78 3d 78 83 82 bd 3c 33 8d bd 89 62 05 be
       0.0607711 -0.06372732 -0.06894538 -0.1302587
000190 6a 44 4e be d4 29 77 bd 73 1b 53 be eb 8d 13 be
       -0.20143285 -0.060342625 -0.2061594 -0.14409606
0001a0 75 a5 af 3c 0d 89 f8 3d 9f 6a 06 3e f0 39 8f bd
       0.0214412 0.12135515 0.1312661 -0.069934726
0001b0 60 58 a4 bc eb f1 33 3e 51 a2 24 3d d1 c3 12 be
       -0.020061672 0.17572753 0.04019386 -0.1433251
0001c0 dd 75 28 3c a8 7e 28 3d fb 75 6a bd 53 13 93 3c
       0.010282007 0.041136414 -0.05724142 0.01795355
0001d0 14 68 d9 3d bb 48 d0 3c 07 d2 28 bd c9 fe 8f be
       0.106155545 0.025425306 -0.041215923 -0.28124073
0001e0 f5 75 de bd b6 95 a6 3d d4 1c f3 bc 9a d8 00 3e
       -0.10862342 0.08134024 -0.029676832 0.12582627
0001f0 d2 d4 18 3d 54 27 e5 3d 26 66 ac bd 06 2f fb bd
       0.037312336 0.11189142 -0.08417921 -0.122648284
000200 c7 fc 3e bc d9 20 12 3e c8 e2 81 3e 79 93 6e 3d
       -0.0116569465 0.14270343 0.25368333 0.05824611
000210 1f 30 c5 bd bb ca 39 3c b8 9e 0a 3e 10 63 af 3d
       -0.09628319 0.011339839 0.13537109 0.085638165
000220 bf c4 c9 bd 1c 89 0e be 8d c5 db 3d a0 99 9f 3e
       -0.098519795 -0.1391949 0.10731039 0.31171894
000230 8d b8 29 be 6c a8 be bc 82 28 0d be 76 01 6d 3e
       -0.16574307 -0.02327367 -0.13784984 0.23145089
000240 c1 ca 23 3e f5 c9 80 3d 72 26 99 bd 1b 6b b7 3c
       0.15995313 0.0628852 -0.07478036 0.022389939
000250 26 f0 10 bc 1b a3 c4 bd b8 89 bf bd db ae 83 bd
       -0.008846318 -0.096014224 -0.0935244 -0.064298354
000260 d7 6c eb bd fc d7 92 3d ec 58 59 bd 0c a0 01 3d
       -0.11495369 0.07170102 -0.053063318 0.031646773
000270 bf b6 1d be ab 57 0a bc 52 9b 3b be a3 84 97 3d
       -0.15401743 -0.008443753 -0.18320969 0.07398345
000280 00 18 63 3e 1f 99 21 be 59 08 48 3d 36 e5 82 bd
       0.22177124 -0.15781067 0.048836086 -0.06391375
000290 51 82 4c bd 4e 84 72 3e 32 d6 94 3c 60 f7 ac bd
       -0.049928967 0.23683283 0.018168543 -0.084456205
0002a0 a1 c7 1e 3d 44 7e 12 3d cd d8 6a 3c fd cd f9 3d
       0.0387646 0.035764948 0.014333916 0.12197492
0002b0 6d 3a 3d 3c 1f 71 65 bd d1 35 66 bd ae 68 fc 3d
       0.011549574 -0.056016084 -0.056203667 0.123246536
0002c0 82 1a a1 3d ac fb 37 be 34 be 9d 39 0b 4b 27 bd
       0.07866384 -0.17967099 0.00030087086 -0.04084305
0002d0 89 45 04 3e ba 1e 2d 3b ca 44 d5 3d 94 7b d1 3d
       0.1291715 0.002641602 0.10413511 0.10228649
0002e0 4b 02 b4 bd 68 82 36 3d a4 35 d1 bc b8 41 11 3c
       -0.087895 0.04455796 -0.025538273 0.008865766
0002f0 c6 99 01 3e c7 17 ba bc c2 cc 77 be d8 72 d4 bc
       0.12656316 -0.022716416 -0.24199203 -0.025933668
000300 85 d9 21 bd 0b b6 31 3c aa 0b 43 bd 85 88 b5 3b
       -0.039514083 0.010846625 -0.047618546 0.005539956
000310 0b e3 d2 bd 49 e6 53 be 38 41 9e 3d 1f c3 86 bd
       -0.10297211 -0.20693316 0.07727283 -0.06580185
000320 52 a8 1e bd 3d 2d 30 be ff 52 08 be 70 5f 43 be
       -0.03873474 -0.17204757 -0.1331291 -0.19079375
000330 f7 05 3b 3d 78 74 e1 3c ec 6f 72 bd 22 03 f5 3d
       0.045659985 0.027521357 -0.05918877 0.11963488
000340 95 7a 8b 3d 92 46 c3 3d 46 7f 4c 3e e8 de 0e bd
       0.0681049 0.095349446 0.19970426 -0.03488055
000350 21 8f c7 3d 09 57 05 bd d3 57 80 bd 3e 50 16 3e
       0.097440965 -0.032553706 -0.06266751 0.14679047
000360 84 88 2e bc a5 fe b4 3d e1 72 17 be 02 31 e3 bb
       -0.010652665 0.08837632 -0.14789917 -0.0069333324
000370 ed ae e3 3d 50 1e f3 3d b4 1e 21 be 23 5b bc 3e
       0.11117349 0.11871016 -0.15734369 0.36788282
000380 b3 35 1f bc 07 f9 f0 bd 8a f8 f7 bd 81 a5 be 3d
       -0.009717393 -0.11766248 -0.12107952 0.09308911
000390 9b 6d c3 3d a1 b7 36 3e e9 5e 1a 3d f2 9b 40 3c
       0.0954239 0.17843486 0.03768817 0.01175593
0003a0 94 e3 db bd dc 4a 96 3d 11 4f 07 be 0a 0b 4e bd
       -0.107367665 0.07338497 -0.13213755 -0.050303496
0003b0 7f eb bf 3d 7a 01 48 be 68 b7 50 3c 42 f2 14 3e
       0.09371089 -0.19531813 0.01273904 0.14545539
0003c0 69 ca 07 bd 73 b4 25 bc d7 8d 20 bb 6f b9 08 bb
       -0.033152018 -0.010113823 -0.0024498606 -0.002086248
0003d0 63 dd ec bc 66 6b 4e bd 37 fb 8e bd 4d cf f4 3d
       -0.02891416 -0.050395392 -0.06981509 0.11953602
0003e0 53 a0 e6 bc 73 bf 76 3c f5 52 5e 3d 23 dc 30 3d
       -0.02815262 0.0150602935 0.054278333 0.04317869
0003f0 b3 87 1b 3d f3 ed 41 3e 23 43 6e bd 7a 09 31 3c
       0.03797121 0.18938427 -0.058169495 0.010805482

layers.2.1.weight f4 [64]
000000 b0 06 7b 3f 98 00 7e 3f a0 ea 7f 3f 63 52 80 3f
       0.9805708 0.99219656 0.99967384 1.0025142
000010 41 6a 81 3f 33 97 79 3f 7d 18 81 3f 76 9f 7c 3f
       1.0110551 0.97496337 1.0085598 0.9868082
000020 5b 7a 76 3f f2 db 7f 3f cc 2e 86 3f e0 60 84 3f
       0.9628045 0.99944985 1.0483031 1.0342064
000030 9a 31 7e 3f e6 7b 80 3f 82 e8 7e 3f 1c e4 7c 3f
       0.99294436 1.0037811 0.9957353 0.9878557
000040 c8 32 7a 3f c5 ef 7b 3f 9a be 7c 3f bd 42 78 3f
       0.97733736 0.98412734 0.98728335 0.96976835
000050 b1 68 81 3f 82 e8 80 3f 69 bf 80 3f 2f 91 7b 3f
       1.0110074 1.0070956 1.0058414 0.9826841
000060 77 e5 84 3f ad f2 7a 3f 06 96 7d 3f e7 55 7e 3f
       1.0382527 0.98026544 0.9905704 0.99349827
000070 c5 78 78 3f 30 2e 83 3f f8 8a 7c 3f f0 14 80 3f
       0.9705928 1.024847 0.9864955 1.000639
000080 e2 90 80 3f 79 f6 79 3f e8 d7 79 3f f2 d9 7f 3f
       1.0044215 0.9764171 0.9759507 0.99941933
000090 69 d3 81 3f 79 b2 7d 3f 0e 81 7a 3f ce 81 7a 3f
       1.0142642 0.9910045 0.9785317 0.97854316
0000a0 bd 70 80 3f 00 60 7e 3f d4 26 82 3f 48 88 81 3f
       1.0034405 0.99365234 1.0168099 1.0119715
0000b0 7b a3 80 3f f0 07 7a 3f f5 98 7e 3f 67 6a 7c 3f
       1.004989 0.9766836 0.99452144 0.9859986
0000c0 3f 5c 81 3f d9 85 7a 3f 8f c9 81 3f 73 6c 82 3f
       1.0106276 0.97860485 1.0139636 1.0189346
0000d0 a5 5e 7e 3f e2 fb 7d 3f 7f 76 81 3f 2b d0 7c 3f
       0.99363166 0.9921247 1.0114287 0.9875514
0000e0 2c fb 82 3f 2b 0b 80 3f 0b 7f 7e 3f 69 de 7e 3f
       1.0232902 1.0003408 0.994126 0.9955812
0000f0 d3 78 80 3f 4d df 7e 3f 3a 7f 80 3f 1e c0 85 3f
       1.0036873 0.9955948 1.0038826 1.0449255

layers.2.1.bias f4 [64]
000000 cc 03 4d bc 3f 2f 53 bb 9e ff e3 3b a5 27 43 3b
       -0.012513112 -0.0032224206 0.006957962 0.0029778269
000010 b0 31 22 bc b0 09 26 bc c0 4f 86 3c f4 56 b2 bb
       -0.009899542 -0.010134146 0.01639545 -0.0054424945
000020 b0 e1 ff bc 28 c5 4f 3c dd a3 13 3d 16 1e 28 3d
       -0.031235546 0.012681283 0.036044944 0.041044317
000030 37 99 45 b9 55 19 49 3c b4 07 67 ba 5b 73 e3 bb
       -0.00018844461 0.012274106 -0.00088130985 -0.0069412417
000040 14 39 a2 bc 50 4a 67 bc dd 68 25 3b 46 fc 9a bc
       -0.019802608 -0.014116839 0.0025239505 -0.018919121
000050 0b 1d c3 b9 a6 55 a8 bb c6 be 90 3a e1 f2 2a bb
       -0.00037214937 -0.005137163 0.0011043183 -0.0026084709
000060 d3 cf 5c 3d 7c 11 44 bc 9c 33 83 bc 82 28 2c bc
       0.053909134 -0.011967059 -0.01601582 -0.010507705
000070 b0 1e 0d 3c 9e df 19 3c 59 50 fd 3b 12 f0 19 3b
       0.0086132735 0.009391693 0.0077305255 0.002348904
000080 b9 5a 2e bb 78 56 c2 bc dd 82 db bc 6b 24 94 bb
       -0.0026604368 -0.023722872 -0.026795799 -0.004520943
000090 d5 f8 c0 3c 60 34 80 bb 61 e0 1e bc 05 c1 dc bc
       0.023556152 -0.0039124936 -0.009697051 -0.026947508
0000a0 ef c0 23 bc 24 70 09 3c 00 cd 9b ba 84 70 a6 3c
       -0.009994729 0.008388553 -0.0011886656 0.020317324
0000b0 60 3a ba ba 68 0e c5 bc e1 24 1a 3c 91 7d 10 bc
       -0.0014208071 -0.024054721 0.009408207 -0.008819
0000c0 83 af 15 3c 60 00 17 bd 99 27 3d 3c 16 bd 75 3c
       0.009136084 -0.036865592 0.011545085 0.014998695
0000d0 ee 2b 89 3c 5a 12 82 3c 2e 44 b9 3c 5e 04 ac bc
       0.01674458 0.015877891 0.022615518 -0.020998176
0000e0 ff f1 cb ba 5a e7 60 3b 8c 14 f4 bb a8 55 db ba
       -0.0015559791 0.0034317584 -0.0074487384 -0.0016733902
0000f0 5c b2 f1 bb 56 d3 13 3b b0 eb 34 3b 79 fa f9 3c
       -0.0073759984 0.0022556386 0.00276063 0.030514942
