test/output/local0/simulatorRun/freesurfer_volumetric/6/best.nn.pt (torch_old, 23025 bytes, 50 tensors)

layers.0.0.weight f4 [16, 66]
000000 81 b6 7a bd cb 4f 57 be 66 1f 87 3e e2 63 e8 3b
       -0.061209206 -0.21026532 0.26391143 0.007091985
000010 3c 7c c3 bd f5 de a0 3e b3 b1 bd 3d 23 a4 2e 3d
       -0.0954518 0.31420103 0.09262409 0.042637
000020 a6 c1 5a be 41 cf 80 3d f4 85 cb bc 12 e7 79 be
       -0.21362934 0.062895305 -0.024844147 -0.24404553
000030 30 35 04 bd e0 3d b8 bd 1a e1 87 3e 44 0c 0d 3e
       -0.032277286 -0.08996177 0.26538926 0.1377421
000040 1d 43 15 3e d4 50 83 be 0c d0 59 be fb aa ad 3e
       0.14576383 -0.25647604 -0.2127077 0.3391951
000050 35 36 20 3e 72 92 ff bd 66 64 7d bc d9 0c 95 be
       0.15645678 -0.12479104 -0.015465831 -0.29111364
000060 34 e7 70 3e 56 75 34 be ba 3c 4a 3d b8 7a 7d be
       0.23525697 -0.17622885 0.04937432 -0.24753845
000070 cd 16 d2 bd c9 cf 2f be ba 55 10 bd 65 18 0f 3e
       -0.10258255 -0.17169107 -0.035238005 0.1397415
000080 46 1d b7 bd 44 4c 45 3e 18 a4 3d bd 93 d8 e2 3c
       -0.0894113 0.19267374 -0.04629907 0.027691161
000090 3e e3 90 3e c8 40 0e 3c 6e 17 3e 3e db af 4a 3e
       0.28298372 0.008682437 0.18563625 0.19793646
0000a0 99 f6 fe 3c d9 8f b3 3b 7d 7d 8c 3c 64 34 d4 3d
       0.031123446 0.0054797945 0.017149681 0.10361555
0000b0 fe 49 6d bd 14 24 cc bd 01 2a 38 be 08 ea dd 3d
       -0.057931893 -0.09967819 -0.17984773 0.108356535
0000c0 84 71 80 3e 97 0f 0f be 86 75 a6 3d 72 b1 fe 3c
       0.25086606 -0.13970791 0.081278846 0.031090472
0000d0 01 2d c3 3d 8a 6f 88 be 86 76 9d bb 97 80 ca 3d
       0.09530068 -0.26647598 -0.004805389 0.09887808
0000e0 f4 b6 bc 3d 5c 64 6e be 5f 74 de bc e9 48 13 bd
       0.09214583 -0.23280472 -0.0271551 -0.035958204
0000f0 0e b1 eb 3b 9b 04 0b 3e 86 1a 77 bd a0 47 45 bd
       0.0071927374 0.13575976 -0.06032803 -0.04816401
000100 06 e2 00 bd e6 05 f2 3d 74 e4 1f 3e d7 61 c4 bd
       -0.031465553 0.11817531 0.15614492 -0.09588974
000110 9c ee 11 be 0d 18 b7 3e a0 c6 4a 3e b6 b5 d4 3e
       -0.14251179 0.35760537 0.19802332 0.41544884
000120 60 c2 cd bd c1 b7 1a be 32 8b 00 3e af 76 33 bd
       -0.1004684 -0.15109159 0.12553099 -0.043814357
000130 47 5d 1b bd ce 93 bf 3d ed 7b 37 3e 51 de 82 3b
       -0.037930753 0.093543634 0.17918368 0.0039937873
000140 19 1c 53 bd 8a 41 9e 3d 83 de c0 bd 20 98 2f 3e
       -0.051540468 0.07727344 -0.09417441 0.17147875
000150 d0 ca 84 bd 6d 51 98 bc 5d 6c f0 bd 30 9f 34 3e
       -0.06483996 -0.018593514 -0.11739419 0.1763885
000160 cb b4 7c be f8 a1 f9 3d e8 68 f3 3d 65 61 92 be
       -0.24678342 0.12189096 0.11885244 -0.2858993
000170 6b 93 c4 3e bc eb 9c 3e e2 b4 37 bd d5 52 9e 3e
       0.3839372 0.306486 -0.044850238 0.3092257
000180 f1 e9 7e 3e 83 08 b3 bd 4d c0 bb 3d 37 5a fe 3d
       0.24893929 -0.08741858 0.09167538 0.12419551
000190 00 25 27 3d 19 c8 ba bb 8b bc 61 be 74 0b 1b be
       0.04080677 -0.005700123 -0.2204458 -0.15141088
0001a0 a2 1c 17 be 5f fc e1 bd 6c a7 b4 bd ab ab 7a 3e
       -0.14757016 -0.11034464 -0.08820996 0.24479549
0001b0 cb 0a 9b 3d bf 1a ab bd 12 b8 c1 3d cc f9 98 be
       0.07570418 -0.08354711 0.09458937 -0.2987808
0001c0 dc 2e ad be d0 8e 83 3e f8 4b ee bd 6d 0e 8d 3d
       -0.33824813 0.25694895 -0.11635584 0.06887517
0001d0 fb 3b 31 3e 8f b9 5f bd 67 0d 1b be 4b b8 00 bd
       0.17308037 -0.05462032 -0.15141831 -0.031425755
0001e0 0d 0b 82 be 40 db 95 3e e9 ae ce 3c 27 03 3b 3e
       -0.25399056 0.29268837 0.025229888 0.18262921
0001f0 be 9c ad 3d 01 d3 a2 be 78 31 56 be 12 01 1a 3b
       0.08477162 -0.31801608 -0.20917308 0.0023499173
000200 f0 8e bd 3d 34 f5 18 bd e9 47 e3 bd 9e 93 41 be
       0.09255779 -0.03734322 -0.110977 -0.18903968
000210 1b 68 af 3e d3 bd 92 be 73 9c 8c 3d 78 99 af 3d
       0.34259114 -0.2866045 0.06865778 0.08574194
000220 53 e1 46 be be f6 20 3e 2d ed 98 3e 87 21 cd 3e
       -0.19421892 0.15719125 0.2986845 0.40064642
000230 5c c4 8f 3e 9d 93 fd 3b 83 33 c3 bd ef 0d a2 3d
       0.28079498 0.007738544 -0.095313095 0.07912814
000240 89 3b 0d be a3 3f 38 3d fa 8c a5 be 54 46 84 3e
       -0.13792242 0.044982564 -0.3233412 0.25834906
000250 b9 b5 12 be 63 22 8c 3e 93 15 b5 3e 63 64 bb bc
       -0.14327134 0.27369985 0.35368022 -0.022875017
000260 16 e2 0b 3e bb c3 1f 3e 1d 82 bc 3e 57 9e 8b 3e
       0.13660464 0.15602009 0.3681802 0.2726924
000270 e9 b3 7c 3d 5b 4d b8 bd 6a bb 2f 3e ac 6f 6a be
       0.061695013 -0.089991294 0.17161337 -0.22894162
000280 7a dd ec bc a0 46 f5 3c 09 c1 aa bd 6a 7e d4 bd
       -0.028914202 0.029940903 -0.083376 -0.10375674
000290 88 22 66 bd 09 8b b9 bc 4e 45 bd 3e 1e 43 e8 be
       -0.056185275 -0.022649305 0.36966938 -0.45363706
0002a0 57 ee a8 bd e3 76 1e 3d ac b9 2b bd 37 f5 db 3d
       -0.08248585 0.038687598 -0.041925117 0.107401304
0002b0 d6 bf 6f be c4 67 33 3d f1 5f cc bb a4 aa f6 bd
       -0.23413023 0.04380013 -0.006237023 -0.12044266
0002c0 e1 5a 24 3e ef 91 4d 3e 8b 39 41 3e 5c ce 2d 3e
       0.16050293 0.200752 0.18869607 0.16973251
0002d0 53 a7 9c bd 75 8e 52 3e bd c6 66 bd 1f 12 7a 3d
       -0.07649102 0.20562156 -0.056341875 0.061052438
0002e0 2d 1a f7 bd ab f2 21 be 4c 14 e6 bd f4 09 0d 3e
       -0.120655395 -0.15815227 -0.1123434 0.13773328
0002f0 3b 71 b4 ba 58 df 4b 3d 97 68 27 bc 32 e3 db bc
       -0.0013766655 0.049773544 -0.010217807 -0.026841734
000300 09 f5 17 3e 66 ea 05 3e 19 81 39 be a3 5f ae be
       0.14839567 0.13077697 -0.18115653 -0.3405734
000310 20 fa 78 3e c4 eb 9a 3e cb 43 04 be bc f5 6c be
       0.24314165 0.30258 -0.12916486 -0.23140615
000320 fe 80 52 bc 03 00 bb bd 30 eb 0f 3d bd f2 fa 3d
       -0.012848137 -0.091308616 0.0351364 0.1225333
000330 88 09 a8 3c 16 8b da 3d 8a 24 54 bd 6a c1 dc bd
       0.020512357 0.1067106 -0.05179266 -0.10779078
000340 93 fd 2e bd af 82 c6 bc b0 f5 33 3d 95 33 90 bc
       -0.042722296 -0.024232237 0.043935478 -0.017602721
000350 6c d1 75 be f7 eb 0c 3e 90 c8 b9 bd 27 82 01 be
       -0.2400567 0.13761888 -0.090714574 -0.12647305
000360 0e ac 00 be 9e 22 5e be ad 98 63 bd dd be 07 be
       -0.12565634 -0.21692893 -0.055565525 -0.13256402
000370 5b b3 0d bd c0 a8 b7 be bb ff 07 bd e7 f0 3d be
       -0.034594875 -0.35870934 -0.033202868 -0.18548928
000380 c4 e0 99 3e 39 e4 9e 3d a5 e5 43 3e 53 03 22 be
       0.30054295 0.07758374 0.19130571 -0.1582158
000390 46 95 06 3e 3f 4d 53 3e 10 f2 1e bd ed 38 d6 bd
       0.13142881 0.20634936 -0.038805068 -0.104600765
0003a0 bf ff 9e 3d 19 87 8c bd 44 19 8b 3e e7 91 85 3d
       0.077636234 -0.06861705 0.27167714 0.06521969
0003b0 68 e0 8a bd 54 ee d3 3d 50 18 53 3e 1d d3 8d be
       -0.06781083 0.10348192 0.20614743 -0.2770013
0003c0 3b 5f d1 3c 09 6b 64 be 74 26 26 3d e8 7d 93 bc
       0.025558105 -0.22306456 0.040564016 -0.018004373
0003d0 4c ab fa bd 03 bf 40 3e 71 63 03 be 7c 8f 59 3e
       -0.122397035 0.18822865 -0.12830903 0.21246141
0003e0 71 48 95 3a 33 ff 56 bd 39 6f 26 bd 9f 22 fb bb
       0.0011389387 -0.05248947 -0.040633414 -0.0076640393
0003f0 0e 9c 67 bd 1e 07 6c be 1c e9 a1 be 69 3c b3 bb
       -0.05654531 -0.2304959 -0.3162316 -0.005469848

layers.0.1.weight f4 [16]
000000 f6 fd 7d 3f 08 f6 83 3f a8 55 80 3f d7 b6 7e 3f
       0.9921564 1.0309458 1.002614 0.9949774
000010 cc 44 80 3f 81 84 78 3f cf 5a 83 3f ae 57 7d 3f
       1.0020995 0.97077185 1.0262088 0.98961914
000020 81 17 81 3f da d6 7d 3f 50 43 7e 3f 40 be 7b 3f
       1.0085298 0.9915596 0.9932146 0.98337173
000030 70 ca 81 3f 6f 85 81 3f 09 d1 83 3f 50 a2 79 3f
       1.0139904 1.0118846 1.0298167 0.97513294

layers.0.1.bias f4 [16]
000000 33 5b 98 bc f3 c4 d9 bb f8 de ae 3a cf 53 95 bc
       -0.018598175 -0.0066457926 0.0013341596 -0.01822844
000010 fb 0b 9a bc 36 c6 e0 bc fa 30 9a 3c 02 e0 17 bb
       -0.01880454 -0.027438264 0.018822182 -0.002317429
000020 ef 73 dc 3b 8a fa 44 bc bf b0 06 3c 6d f2 45 3b
       0.0067276875 -0.012022624 0.0082208505 0.0030204311
000030 b9 66 4a 3c 09 7a cd 3b c5 a2 82 3c 75 66 ae bc
       0.012353593 0.0062706512 0.015946755 -0.02128909

layers.0.1.running_mean f4 [16]
000000 dc d4 3f c8 b6 58 3e c9 43 35 92 49 0b 96 96 c8
       -196435.44 -779659.4 1.1977364e+06 -308400.34
000010 a3 ae 1a 49 b0 85 cb 48 0e ba ba c8 2a 13 b0 48
       633578.2 416813.5 -382416.44 360601.3
000020 7e 1d 30 48 72 c4 85 c8 db 80 0e 49 18 ed d1 47
       180341.97 -273955.56 583693.7 107482.19
000030 07 f3 0e c9 84 50 c7 48 b0 1c 1a 47 a5 b3 c0 48
       -585520.44 408196.12 39452.688 394653.16

layers.0.1.running_var f4 [16]
000000 1d f4 f7 4d fc 48 94 4f d5 30 2c 50 05 e5 86 4e
       5.1999632e+08 4.975622e+09 1.1555526e+10 1.131578e+09
000010 1c bf 71 4f 7b 3e a7 4e 33 86 aa 4e 9d f5 9e 4e
       4.0558336e+09 1.4029449e+09 1.4304608e+09 1.3334483e+09
000020 39 b3 e0 4d 0b b9 05 4e 1e 32 38 4f a4 4c 30 4d
       4.7123024e+08 5.608742e+08 3.0902922e+09 1.848633e+08
000030 9c ff 18 4f 52 34 ba 4e 29 81 6f 4d db 0a a1 4e
       2.5668884e+09 1.5619955e+09 2.511387e+08 1.3509216e+09

layers.1.0.weight f4 [8, 16]
000000 b5 c8 aa 3e b8 80 e3 3e 1c 16 97 be 63 c9 26 bd
       0.33356252 0.44434142 -0.29509056 -0.0407194
000010 93 1e 0b be 26 fc 14 3e 56 40 56 bf cb 11 d9 bd
       -0.13585882 0.14549312 -0.8369192 -0.10599097
000020 49 7c 97 be 49 1d 44 be fc 96 14 3e eb 81 72 3e
       -0.2958701 -0.19151796 0.14510721 0.23682372
000030 50 c0 40 bf 3d c3 13 3e 90 b8 0b bf b8 01 d3 be
       -0.75293446 0.14429946 -0.54578495 -0.4121225
000040 0c 31 c9 bd 7a d4 a0 3e 28 ad a8 be e2 14 1a be
       -0.09823808 0.31412107 -0.32944608 -0.15047029
000050 0f 69 70 3d 35 2d 9f 3e 74 b3 44 bc bc 9e a8 be
       0.05869394 0.31089178 -0.012005676 -0.32933605
000060 42 5a 93 be 02 32 bf 3d 72 48 9c 3e 53 05 4e bf
       -0.287798 0.0933571 0.3052402 -0.80476874
000070 d6 8f ba be cb 92 a4 3e c2 0e 02 3e 87 8c cc 3d
       -0.36437863 0.32143244 0.12700942 0.09987741
000080 ef 19 1b 3f aa f8 8b be 00 99 e4 3e 9e b5 44 3f
       0.60586447 -0.27338153 0.4464798 0.76839626
000090 c5 7e 8d be 0e 04 49 bf d0 73 26 bd a7 da 35 be
       -0.2763578 -0.7852181 -0.04063779 -0.1775919
0000a0 62 4e ef be 5f c4 00 3c 9b 5e 2a 3f 95 25 bf 3d
       -0.4673949 0.0078593185 0.66550606 0.0933334
0000b0 44 fe 24 3f 38 35 6e be e4 d5 40 3e 1a c7 fa 3d
       0.6445048 -0.23262489 0.18831593 0.12245007
0000c0 53 b9 17 bf 2d 4e d4 3e 39 b8 62 3e 2d e3 2c 3e
       -0.5926716 0.41465893 0.22140588 0.16883536
0000d0 31 54 05 be 66 96 48 3e 22 4d 8b bc 85 cc 93 3e
       -0.13020398 0.19588622 -0.017004553 0.28866974
0000e0 03 c6 8d 3e d9 ed 5a 3e a4 8c 6c 3e 40 a4 a4 bd
       0.27690133 0.21379794 0.23100525 -0.08039141
0000f0 a7 b7 13 3e 13 2e ad 3e 2a c5 0d bf 14 dd 04 3e
       0.14425527 0.33824214 -0.55378973 0.1297496
000100 d9 36 ad 3e ad eb 0e bf 92 37 e5 bb 14 69 8b be
       0.33830908 -0.5582836 -0.00699515 -0.27228606
000110 77 b6 50 bf 02 14 c5 3e d3 87 c0 be 1c b3 09 3e
       -0.8152842 0.38491827 -0.37603626 0.13447231
000120 9e ac 4e be 34 c5 cd 3e 5b a2 11 3d 7d 40 b3 bd
       -0.20183036 0.40189517 0.035555225 -0.087525345
000130 8c 92 82 be ef fe 7d be b1 16 08 3e e5 a4 24 3e
       -0.2550243 -0.2480428 0.13289906 0.16078527
000140 c3 7b 60 bf 06 dd 68 bd 8e 38 dd 3e 3b b1 29 be
       -0.87688845 -0.05685141 0.4320721 -0.16571514
000150 47 f6 b6 3e 66 80 42 be 78 03 28 3d 10 60 09 3f
       0.3573477 -0.18994293 0.041018933 0.53662205
000160 29 a4 55 3c 36 0c 86 3e 2c 6c b7 3e b6 8e 3b be
       0.013039627 0.2618119 0.35824716 -0.18316159
000170 96 2d 36 bf 7a 7b 49 3f f1 4e 18 3e b7 22 32 3d
       -0.7116331 0.78704035 0.14873864 0.043490138
000180 86 16 5c 3f dc 81 a8 bd b6 02 3a 3e 43 24 5c 3e
       0.8597187 -0.08227894 0.18165097 0.21498208
000190 77 fa 85 3e 0a 2c 66 be f6 ef 4c bf 62 fc bb 3d
       0.26167652 -0.22477737 -0.8005365 0.091789976
0001a0 b9 3b 52 bd bc 9f 1c bd 4a c1 5a 3e a1 d2 e1 3e
       -0.051326487 -0.038238272 0.21362796 0.4410601
0001b0 86 cf 2b bf c0 73 08 3f 48 a3 cc be 52 84 82 be
       -0.6711353 0.5330162 -0.39968324 -0.25491577
0001c0 85 9d 5c 3d 00 1b a9 3e d8 12 09 3e b2 94 4c 3e
       0.05386116 0.33028412 0.13386095 0.19978598
0001d0 a3 a0 f2 3e 0c 5a 89 3a 42 3a ba 3e 09 db 1c 3e
       0.4738818 0.0010479107 0.36372572 0.1531793
0001e0 d3 31 c0 3e fd 7a b2 bd dd 71 19 3e 83 7f 12 3e
       0.37538013 -0.087148644 0.14984842 0.14306454
0001f0 0b 70 b1 3e ba fc 40 bf 15 b4 32 be ab 25 f0 3e
       0.34655795 -0.7538563 -0.17451508 0.46903738

layers.1.1.weight f4 [8]
000000 27 1c 7a 3f 8e 89 7d 3f ce ec 84 3f 89 78 77 3f
       0.9769921 0.99038017 1.0384767 0.966683
000010 16 c2 83 3f 3b 93 7a 3f dc e9 82 3f 3d e3 81 3f
       1.0293605 0.97880906 1.0227618 1.0147473

layers.1.1.bias f4 [8]
000000 14 28 ce bc d4 b5 79 bc d2 82 23 3a 92 92 3e bc
       -0.025165595 -0.015241105 0.000623745 -0.011631625
000010 4d 05 fd 3b 42 64 98 bc 2b a4 86 3c 84 9a 47 3c
       0.007721579 -0.018602494 0.016435703 0.0121828355

layers.1.1.running_mean f4 [8]
000000 24 80 6d bf 4a 78 88 be 4a 3b 04 3f 5b a9 01 3f
       -0.9277365 -0.26654273 0.5165297 0.5064904
000010 dc cb 04 bf e2 c0 b5 3e 19 d9 94 3d 8a 25 61 3f
       -0.51873565 0.3549872 0.072679706 0.87947905

layers.1.1.running_var f4 [8]
000000 03 0f 06 3f c3 3b 4f 3e cb 1f cb 3f f1 82 1a 3f
       0.52366656 0.20237641 1.5869077 0.6035605
000010 1e d8 4c 3e 22 03 61 40 bb 59 50 3f 04 32 e0 3e
       0.20004317 3.5158162 0.8138692 0.4378816

layers.2.0.weight f4 [4, 8]
000000 5c a8 fc bd 07 67 90 bc 5f f6 96 3e 56 af 67 3f
       -0.123367995 -0.017627252 0.2948484 0.90501916
000010 74 db da 3d 56 14 31 3e bd 7a 97 bf a7 fd ca 3e
       0.106863886 0.17292914 -1.1834332 0.39646646
000020 93 d4 f5 be bb 3f 1c 3e f6 33 52 bd c9 18 6a bd
       -0.48013744 0.15258686 -0.051319085 -0.057152543
000030 fb 28 15 be d0 df c0 be ef ba 0c bf f0 39 ae be
       -0.14566414 -0.37670755 -0.5497274 -0.34028578
000040 62 57 a2 be 68 ac 16 3f c1 a6 09 bf e4 29 15 be
       -0.31707293 0.5885682 -0.5377007 -0.14566761
000050 b2 c8 1a bf 89 e6 46 3e d9 35 77 3e d1 44 cc be
       -0.60462487 0.1942388 0.24141635 -0.39896253
000060 bc de ed bd c9 35 43 3f df f8 38 bf 6f 51 3a bd
       -0.11614749 0.76253945 -0.7225475 -0.045487817
000070 2f 17 a1 bd ab 8a 2d 3f e6 81 f5 3e f2 37 08 bf
       -0.0786575 0.67789716 0.47950667 -0.53210366

layers.2.1.weight f4 [4]
000000 21 55 78 3f 98 32 83 3f 74 5b 7e 3f 79 a8 7d 3f
       0.97004896 1.0249815 0.99358296 0.99085194

layers.2.1.bias f4 [4]
000000 1f 6f c8 bb 64 ef d6 bb 02 f1 ec 3c b0 9a 17 bb
       -0.0061167623 -0.0065592993 0.028923515 -0.0023132972

layers.2.1.running_mean f4 [4]
000000 bb 93 45 3e 54 2e 43 bf d6 3a d0 be 5c 5b 34 3e
       0.19294636 -0.76242566 -0.40669888 0.17612976

layers.2.1.running_var f4 [4]
000000 d7 81 05 3f 18 58 8e 3e 94 16 2d 3f b8 ee e8 3f
       0.52151245 0.27801585 0.67612576 1.8197851

layers.3.0.weight f4 [2, 4]
000000 cf 32 02 3f 75 33 00 3e 90 91 f6 3e 3c 89 66 3f
       0.5085878 0.1251963 0.4815793 0.90053153
000010 b8 f5 d1 bf 24 a7 24 3f ab 84 03 40 eb 13 82 3f
       -1.6403112 0.64317536 2.0549724 1.0162328

layers.3.1.weight f4 [2]
000000 35 18 81 3f 77 b7 79 3f
       1.0085512 0.9754557

layers.3.1.bias f4 [2]
000000 bc 94 9b 3c b7 15 8b 3b
       0.01899182 0.004244532

layers.3.1.running_mean f4 [2]
000000 c5 b9 41 3f ad 73 4e 3f
       0.75674087 0.8064526

layers.3.1.running_var f4 [2]
000000 81 40 10 3f 05 ab 97 40
       0.56348425 4.7396264

fc_out.weight f4 [2, 2]
000000 5c d6 e2 bf 56 70 35 3f 6d 8e 95 be 78 20 83 bf
       -1.7721667 0.70874536 -0.29210225 -1.0244284

fc_out.bias f4 [2]
000000 78 8c 01 bb 78 8c 01 3b
       -0.0019767564 0.0019767564

exp_avg f4 [16, 66]
000000 e6 30 68 bc ed f0 9e b9 0e 21 13 3b 3b 47 1c 3c
       -0.014171815 -0.00030315612 0.0022450122 0.009538467
000010 c1 56 78 ba 4f 21 2d 39 e6 b3 07 3a 28 3e 40 ba
       -0.00094733766 0.00016510974 0.0005176648 -0.0007333481
000020 0a ad 07 ba ad 21 b2 b9 f3 d9 64 3a ec 5f ea b8
       -0.0005175626 -0.00033975896 0.0008729987 -0.00011175856
000030 b8 61 7c 39 38 d6 8c b9 b4 d4 93 b8 32 0a 89 b9
       0.00024068996 -0.00026862486 -7.049125e-05 -0.00026138272
000040 db 2f 91 b8 2f 0c 6b ba 6a ee 14 bc fc 2c d9 b7
       -6.9230526e-05 -0.0008966354 -0.0090900455 -2.5889363e-05
000050 d1 2b 98 3b dc 1a 1c 3c 24 b2 5e ba b5 9c 2a 37
       0.004643895 0.009527888 -0.0008495173 1.0169276e-05
000060 93 a0 3b b9 b2 1a 83 b9 8b e0 bc b8 4d 6f b7 39
       -0.00017893528 -0.00025006157 -9.006363e-05 0.00034987406
000070 cf 1a 18 39 3d 83 96 b9 f2 55 8d b8 0e 88 a4 ba
       0.00014505837 -0.0002870801 -6.7394125e-05 -0.0012552754
000080 bb c0 ab 37 a6 1d 43 ba 00 00 00 00 00 00 00 00
       2.0474536e-05 -0.00074430776 0.0 0.0
000090 52 1c fb b7 00 00 00 00 00 00 00 00 64 d7 69 b9
       -2.993472e-05 0.0 0.0 -0.00022300851
0000a0 12 c2 81 39 1d ea f7 38 48 19 c9 38 e5 7a 08 39
       0.0002474939 0.00011821485 9.589136e-05 0.00013015752
0000b0 ea 04 05 b9 15 4d 68 3c e2 66 29 3d 73 f3 28 3d
       -0.00012685699 0.014178534 0.041357882 0.041247796
0000c0 ad 13 cb 3c 76 fd b2 3c 01 1e 3f 3d 28 15 6c bc
       0.024789656 0.021849375 0.046659473 -0.014409341
0000d0 dc 28 6c bc b4 21 ec bc d0 90 27 bb 21 f0 80 3d
       -0.0144140385 -0.028824665 -0.0025568493 0.06295801
0000e0 42 ec 33 bc 4c 62 75 3c 57 64 7e 3c 35 b9 d9 bd
       -0.010981621 0.014977049 0.015526853 -0.106310286
0000f0 6a 2a cb 33 3b 60 3f 33 1b 6c fd b7 5c e6 dd b7
       9.460639e-08 4.4558174e-08 -3.021029e-05 -2.6452522e-05
000100 93 a5 6d b8 1a b1 2c be 21 43 d7 3a 0b 44 12 39
       -5.6659406e-05 -0.16864434 0.0016423204 0.00013948993
000110 d9 32 21 bb 2f b0 43 bb 85 c9 95 39 91 3f 37 b8
       -0.0024596958 -0.0029859652 0.00028569638 -4.36898e-05
000120 31 7a 20 39 c4 ec a2 39 42 53 8d b7 fc 43 98 39
       0.00015304309 0.00031075452 -1.684728e-05 0.00029042352
000130 d9 79 d8 39 b7 b8 63 39 13 86 f2 b7 fc 2b f6 37
       0.00041289514 0.00021717219 -2.8911081e-05 2.9345967e-05
000140 a3 1c d2 37 6b 83 04 39 b8 3a 13 37 9f 74 e0 37
       2.5047286e-05 0.00012637458 8.775554e-06 2.6757187e-05
000150 c3 42 4f 3a 19 6e bb 37 49 b8 2f bb 57 8e 20 bb
       0.00079063716 2.2343405e-05 -0.0026812723 -0.0024498904
000160 12 0f a1 39 b1 00 8a 36 51 5e ec 39 32 e1 00 39
       0.0003071954 4.112801e-06 0.000450837 0.00012290923
000170 1d d0 0b 39 2a 61 97 b8 2d f0 bd b7 2b 39 84 39
       0.00013333601 -7.218339e-05 -2.2642396e-05 0.00025219595
000180 b4 5f e1 37 9d 83 27 39 fa 21 21 b7 52 b5 3c 39
       2.6866655e-05 0.00015975391 -9.604259e-06 0.00017996624
000190 00 00 00 00 00 00 00 00 40 a7 14 b4 00 00 00 00
       0.0 0.0 -1.384442e-07 0.0
0001a0 00 00 00 00 7f 36 73 38 c0 fe c5 b7 e0 c2 a9 b7
       0.0 5.7986468e-05 -2.3602857e-05 -2.0237116e-05
0001b0 32 9e 89 38 9f 17 b4 b7 79 02 65 38 4e 03 16 bd
       6.562135e-05 -2.1468672e-05 5.4600157e-05 -0.036624245
0001c0 8a a3 22 bd 2d c6 21 bd 06 63 18 bc 50 58 07 bc
       -0.039706744 -0.039495636 -0.009300953 -0.008260801
0001d0 82 d8 8f bc 38 2b 04 bc 14 77 b8 bb 5d 69 60 bc
       -0.017559294 -0.008066945 -0.0056294296 -0.013696996
0001e0 ce 80 29 3b 06 62 a8 bc 5e 8d d3 bc 6f 67 ea bc
       0.0025864127 -0.020554554 -0.025824245 -0.028613774
0001f0 ae ec ec bc 00 fd c8 bc 55 8e 05 b3 77 6f 45 b3
       -0.028921451 -0.024534702 -3.1095926e-08 -4.5969013e-08
000200 8a 89 4a 37 80 cf ff 36 7b 5b a5 37 8f ff 29 3d
       1.2072162e-05 7.6237484e-06 1.9712132e-05 0.041503485
000210 8a 10 45 39 86 60 18 b8 56 ef 80 b8 78 37 0f ba
       0.00018793545 -3.632952e-05 -6.1480954e-05 -0.00054632826
000220 e1 18 1e 39 50 f4 17 38 38 f1 cd 38 39 80 04 38
       0.00015077322 3.622874e-05 9.820092e-05 3.159067e-05
000230 69 cb 6c 37 66 6a e7 b8 50 68 f9 39 31 f5 9b 38
       1.4114056e-05 -0.000110347566 0.000475707 7.4366464e-05
000240 87 26 4c 38 d5 5e 98 b8 2a 2a 87 38 83 3f 3a 38
       4.867327e-05 -7.265589e-05 6.445155e-05 4.4405006e-05
000250 06 54 90 37 9b 99 07 38 2c 6b c0 b9 cc 45 76 38
       1.7205264e-05 3.2329564e-05 -0.00036700943 5.8715974e-05
000260 03 52 5a 38 20 b5 53 ba 25 d2 ef 38 c3 fc 0a b7
       5.205163e-05 -0.0008076001 0.000114355506 -8.284292e-06
000270 63 22 75 38 5f f6 c5 37 6c ad ba 38 bd 45 08 39
       5.8444577e-05 2.3598956e-05 8.9014735e-05 0.0001299595
000280 cd ab 76 37 75 de 9f 38 b8 9f d4 37 ef 9b e0 b7
       1.4702743e-05 7.623147e-05 2.5346744e-05 -2.6775493e-05
000290 55 75 09 35 7d f4 4e 39 00 00 00 00 00 00 00 00
       5.120722e-07 0.0001973677 0.0 0.0
0002a0 8c f3 90 b6 00 00 00 00 00 00 00 00 b0 a9 aa 35
       -4.319887e-06 0.0 0.0 1.2715373e-06
0002b0 d8 59 bb 38 9c c3 8d b6 5a e7 80 b7 e4 ea 94 37
       8.9335896e-05 -4.2248994e-06 -1.536652e-05 1.7752354e-05
0002c0 fb a1 90 b6 1b 36 cf 3b 76 14 da 3b 83 10 d7 3b
       -4.3103914e-06 0.0063235885 0.006655271 0.0065632476
0002d0 86 e3 f7 ba cc 13 d0 ba 04 03 64 bb 61 5b b0 3b
       -0.0018912412 -0.001587504 -0.0034791837 0.005381987
0002e0 ee 9e 9a 3b 7d 8c 25 3c d4 54 9e 3a 5a e5 69 bb
       0.004718653 0.010104296 0.0012079724 -0.0035689683
0002f0 58 01 ff 3b 4a 30 02 3c 5a 8f 02 3c e2 f7 3a 3b
       0.0077821426 0.007946083 0.007968748 0.0028529097
000300 00 00 00 00 00 00 00 00 7a d0 21 b5 2e cd 37 b6
       0.0 0.0 -6.0280547e-07 -2.7388555e-06
000310 4c dd 61 b6 3e e5 bf bb 3b 6d c9 ba cf b8 93 39
       -3.3656424e-06 -0.005856185 -0.0015367636 0.00028175718
000320 bb c9 ef 3a 85 31 a2 3a cd 45 03 39 1f 38 7c 39
       0.0018294373 0.0012374377 0.00012519136 0.000240535
000330 4e c0 12 3a af 0a 84 39 0d 8c 24 b8 9a 03 6b b9
       0.00055981136 0.00025184962 -3.923108e-05 -0.00022412688
000340 f6 b7 47 3a b0 53 b9 37 98 ca 14 39 b3 2e c2 b8
       0.000761866 2.2092689e-05 0.00014189852 -9.259339e-05
000350 fc d3 58 38 13 fa e8 39 87 96 12 b8 0d b2 60 39
       5.169584e-05 0.00044436808 -3.4949302e-05 0.00021428634
000360 78 f8 87 ba 2f 2d 07 38 bd 95 9f 3a 63 5a 27 3a
       -0.0010373732 3.222859e-05 0.0012175363 0.0006384013
000370 c7 87 4e b8 d2 61 b0 39 61 d2 03 3a fc 8c af 39
       -4.924068e-05 0.00033642218 0.00050286023 0.00033483643
000380 e8 41 3c b8 ab 02 12 38 ed b8 eb 37 6f 51 94 39
       -4.4884073e-05 3.4811597e-05 2.8100296e-05 0.00028289433
000390 81 da 1a b8 c6 aa 42 39 c7 33 08 b5 d1 94 5c 39
       -3.691996e-05 0.000185649 -5.0739294e-07 0.00021036273
0003a0 00 00 00 00 00 00 00 00 f1 3c 97 b7 00 00 00 00
       0.0 0.0 -1.802898e-05 0.0
0003b0 00 00 00 00 d4 69 4b b8 74 89 26 39 d4 de 2f 39
       0.0 -4.849753e-05 0.00015882199 0.0001677231
0003c0 bb 53 2b 39 33 9e c8 38 d7 85 ad 38 90 c5 58 3c
       0.00016339023 9.56621e-05 8.2742125e-05 0.013230696
0003d0 4e 85 7d 3c 4a 1d 80 3c a6 08 87 bb 1b 0b f1 bb
       0.015473677 0.015638966 -0.004120904 -0.00735606
0003e0 d4 03 3c bc d5 59 1c 3c 19 cb 07 3c a1 09 92 3c
       -0.011475522 0.009542902 0.008288168 0.017826857
0003f0 b3 90 70 3b c0 93 a5 bb 9f 8e 05 3c 63 02 25 3c
       0.0036707341 -0.0050530136 0.008151679 0.01007137

exp_avg_sq f4 [16, 66]
000000 ea 46 a1 36 24 fd 49 31 d9 80 97 34 62 77 87 36
       4.8064294e-06 2.9393243e-09 2.821969e-07 4.0372115e-06
000010 d1 a3 8e 34 e0 6d cd 32 2c 9c 5a 33 a6 8b dd 32
       2.6568753e-07 2.3915106e-08 5.0899118e-08 2.579129e-08
000020 b2 46 9f 32 5a e7 10 33 71 47 b4 35 ba e5 c1 32
       1.8542185e-08 3.3738026e-08 1.3431837e-06 2.2572625e-08
000030 44 7e b0 32 cc 55 71 32 89 5c 86 31 8b df a0 32
       2.0546516e-08 1.4047554e-08 3.9104333e-09 1.8728107e-08
000040 9c a1 4c 2f b2 d1 13 33 bd 64 0c 36 72 35 8a 30
       1.8611107e-10 3.441682e-08 2.0920263e-06 1.0056012e-09
000050 dd c0 23 35 5f f5 4e 36 fc 65 1c 34 2d 78 11 33
       6.1002885e-07 3.0839217e-06 1.4565734e-07 3.3869743e-08
000060 c1 58 23 33 c7 9f 19 32 b2 7d 8c 32 59 ed ba 31
       3.8032116e-08 8.942101e-09 1.6355305e-08 5.4402958e-09
000070 bc 75 1e 31 70 50 4d 32 62 89 0a 30 88 6a 5e 33
       2.305895e-09 1.195086e-08 5.039934e-10 5.1785292e-08
000080 db 43 4e 2d 7c 30 d6 32 00 00 00 00 00 00 00 00
       1.1724811e-11 2.4934927e-08 0.0 0.0
000090 c9 bd 25 2e 00 00 00 00 00 00 00 00 8e 48 51 31
       3.768522e-11 0.0 0.0 3.0454745e-09
0000a0 e9 4a 30 31 96 03 bd 30 3c e1 7a 30 60 c9 c0 31
       2.5653952e-09 1.3752579e-09 9.126955e-10 5.610829e-09
0000b0 14 9c 8e 30 e9 0e 90 3a 4d 5b 8f 3a e7 22 8f 3a
       1.037622e-09 0.0010990772 0.0010937244 0.0010920436
0000c0 c7 cb 37 39 7d a4 14 39 87 54 25 3a b0 44 90 37
       0.00017528153 0.00014175657 0.0006306846 1.7198123e-05
0000d0 0d c3 18 38 55 c3 d2 38 97 3e ae 36 4d d3 27 3a
       3.642128e-05 0.00010049964 5.1928905e-06 0.00064020307
0000e0 b4 e5 99 3a 7a cd 96 3a c8 73 97 3a 8f 3d 3d 3b
       0.001174143 0.0011505329 0.0011554891 0.0028875803
0000f0 19 9d d4 25 5d d9 c3 25 92 37 61 2e b4 20 ac 2e
       3.688259e-16 3.39744e-16 5.1208433e-11 7.827464e-11
000100 75 27 75 2f 4c 82 41 3b 75 28 0a 34 7f c4 18 30
       2.2296638e-10 0.0029527126 1.286697e-07 5.5576516e-10
000110 fe ab 3a 34 1c c4 db 34 eb 0c 8a 31 73 7e 8d 31
       1.738517e-07 4.0934617e-07 4.017797e-09 4.1180157e-09
000120 36 98 cd 31 17 17 4c 31 0f 17 8e 30 78 8e a7 31
       5.9835896e-09 2.9699032e-09 1.0338413e-09 4.8765365e-09
000130 5b e6 44 33 f5 cc 5d 31 e3 db df 2f 23 2a 99 30
       4.5844313e-08 3.2276237e-09 4.0719703e-10 1.1144191e-09
000140 ac 42 6e 2f 28 46 99 30 f4 40 63 2e e4 73 2a 2f
       2.166966e-10 1.1152155e-09 5.1671514e-11 1.5502583e-10
000150 32 2c 3a 33 f9 c8 c9 2e e0 78 4e 34 ef b4 95 34
       4.3346695e-08 9.176122e-11 1.9229219e-07 2.788506e-07
000160 53 9f 9a 31 2d 8f 3b 31 ac 52 61 32 44 0a 66 30
       4.500103e-09 2.7293467e-09 1.3115521e-08 8.36881e-10
000170 49 c5 fd 30 26 d8 6e 30 93 b3 3f 2f 7e f4 21 31
       1.8464245e-09 8.689106e-10 1.7435146e-10 2.3567561e-09
000180 23 04 41 2e a1 aa 25 30 f6 5f 5a 2c 34 75 dd 31
       4.3886794e-11 6.026913e-10 3.1032932e-12 6.445271e-09
000190 00 00 00 00 00 00 00 00 3d 87 15 2d 00 00 00 00
       0.0 0.0 8.499698e-12 0.0
0001a0 00 00 00 00 b0 99 fd 2e 63 24 6f 2f b0 d5 3f 2e
       0.0 1.15324084e-10 2.174985e-10 4.3618165e-11
0001b0 70 c8 1d 2f 7a dc b3 2e 48 72 0f 2f 5a 30 3f 38
       1.4350277e-10 8.179142e-11 1.3046375e-10 4.558298e-05
0001c0 ec 86 5c 38 57 e6 5b 38 36 87 a1 36 5f 27 89 36
       5.2577743e-05 5.242819e-05 4.8139145e-06 4.0875016e-06
0001d0 d1 f5 93 37 28 41 20 36 90 3a f2 35 b7 96 07 37
       1.7638233e-05 2.3879784e-06 1.8047449e-06 8.081718e-06
0001e0 36 b2 c8 34 bf 70 df 37 d3 f8 ee 37 3a 45 0a 38
       3.7382569e-07 2.6636173e-05 2.8487679e-05 3.2966236e-05
0001f0 0a 1a 0a 38 6d de 19 38 65 b0 e4 23 1c e4 63 24
       3.2926015e-05 3.6685193e-05 2.4794516e-17 4.9415995e-17
000200 e3 f4 dc 2c 16 cf d6 2c 0f 8c 4e 2d b8 45 26 38
       6.279964e-12 6.105237e-12 1.17408435e-11 3.9642415e-05
000210 01 8a 24 32 f5 ac 4e 2e 10 81 ff 30 91 7e e2 32
       9.577435e-09 4.6992594e-11 1.8590374e-09 2.6367418e-08
000220 1d 04 1e 30 26 1c ab 2e e7 f1 15 30 b6 7e 75 2f
       5.748591e-10 7.78118e-11 5.454965e-10 2.2327637e-10
000230 db b0 a3 2d 17 51 9d 2f 1c 3d 03 32 3b a8 9d 2f
       1.8609494e-11 2.8615751e-10 7.639098e-09 2.8677669e-10
000240 f0 af 6b 2e df f5 25 2f 2e b6 19 2f ae 21 e3 2e
       5.3589078e-11 1.5094014e-10 1.3979992e-10 1.03287476e-10
000250 cc 07 38 2d 8d 06 95 2e 6b 49 e3 31 6b 6b 35 2f
       1.046092e-11 6.776899e-11 6.614916e-09 1.6500017e-10
000260 bf ba 19 31 0f ab d7 32 3f 36 4b 30 66 a1 59 2f
       2.2370583e-09 2.5107083e-08 7.392806e-10 1.9793375e-10
000270 28 85 89 2f 14 3c fe 2e 1d 7f 16 30 ad 93 ed 2f
       2.5014768e-10 1.1561255e-10 5.475032e-10 4.321498e-10
000280 d3 ea 10 2e b9 6b 30 2f 13 4f e6 2d 33 43 da 2e
       3.2950375e-11 1.6045378e-10 2.6183089e-11 9.925429e-11
000290 74 7c b6 28 2d 59 8f 30 00 00 00 00 00 00 00 00
       2.0260032e-14 1.0429965e-09 0.0 0.0
0002a0 e9 60 ea 2a 00 00 00 00 00 00 00 00 73 3c 0b 2d
       4.1633995e-13 0.0 0.0 7.914658e-12
0002b0 d4 f6 4f 2f e3 7e e0 2d 93 96 e2 2d e2 06 b3 2d
       1.8914231e-10 2.55222e-11 2.5760094e-11 2.0353e-11
0002c0 6d d4 3a 2d b2 de a4 35 ca 0d ba 35 cd eb b5 35
       1.0620044e-11 1.2283765e-06 1.3862093e-06 1.3554178e-06
0002d0 46 87 de 33 87 56 b0 33 c6 4a c1 34 71 36 41 35
       1.0362287e-07 8.211378e-08 3.6003456e-07 7.1977325e-07
0002e0 98 e1 1c 35 dd a8 2d 36 34 c3 3e 33 d7 a7 bb 34
       5.844281e-07 2.58773e-06 4.441536e-08 3.4953584e-07
0002f0 d4 b8 fe 35 3d 8a 0b 36 8e bf 0b 36 e5 8f 08 36
       1.8978267e-06 2.079308e-06 2.0824114e-06 2.0349337e-06
000300 00 00 00 00 00 00 00 00 2e 03 27 2b 4d 7c 08 2b
       0.0 0.0 5.933473e-13 4.848941e-13
000310 2d c8 f5 2b 67 5d f7 35 e0 60 04 36 4e 52 76 31
       1.7463857e-12 1.8430118e-06 1.9725921e-06 3.5844496e-09
000320 32 db 0b 34 54 12 e0 36 fe c6 5c 33 20 e1 40 33
       1.3025127e-07 6.677854e-06 5.1403724e-08 4.4908234e-08
000330 c1 53 16 33 ea 19 76 32 59 62 a1 31 d8 1b 46 33
       3.500077e-08 1.4324977e-08 4.6968975e-09 4.612579e-08
000340 15 6f 0b 35 fc 2c 26 33 3a b9 00 31 a6 58 df 31
       5.194318e-07 3.86908e-08 1.873174e-09 6.5002324e-09
000350 e0 2c ea 30 de fa 1e 33 91 81 25 2e 81 ea 5b 31
       1.7038495e-09 3.7015404e-08 3.7631735e-11 3.2001994e-09
000360 50 4f a1 35 27 ae ca 30 dd 86 82 33 8f 28 ee 36
       1.2018518e-06 1.4746931e-09 6.078128e-08 7.0976744e-06
000370 e1 78 ee 33 5b 0a 74 33 e3 5c 66 33 fe da 75 32
       1.11047264e-07 5.6820095e-08 5.3635528e-08 1.431067e-08
000380 5c fe 5a 32 73 e1 e7 30 b8 a6 3a 30 fc e1 41 33
       1.2747105e-08 1.6871539e-09 6.790333e-10 4.5141846e-08
000390 eb 45 9f 2e a4 85 e6 31 70 b5 8a 2b f7 f8 05 34
       7.242903e-11 6.709074e-09 9.855849e-13 1.2477163e-07
0003a0 00 00 00 00 00 00 00 00 99 88 91 2d 00 00 00 00
       0.0 0.0 1.6545253e-11 0.0
0003b0 00 00 00 00 d1 fb 1b 2f 0f 5c e2 30 df 1b b0 30
       0.0 1.4186631e-10 1.6469829e-09 1.2813607e-09
0003c0 ae 40 a6 30 b7 18 35 30 b2 9d 7f 30 36 1d 57 3a
       1.2096473e-09 6.588254e-10 9.299256e-10 0.0008205952
0003d0 c2 cc 52 3a 27 0b 53 3a 33 18 bf 37 8e c5 fc 37
       0.00080413755 0.0008050673 2.2780243e-05 3.0132735e-05
0003e0 7f eb db 38 ab 9b 8e 38 73 64 97 38 db 7f 92 39
       0.00010486598 6.800083e-05 7.218951e-05 0.0002794255
0003f0 26 e4 98 36 16 cf 97 39 88 3f 1b 3a 4a 66 1b 3a
       4.556513e-06 0.00028955255 0.00059222477 0.0005928023

exp_avg f4 [16]
000000 dc fe 6a 3c 7a 98 0b bd 8d 57 88 bd 11 d4 3e bc
       0.01434299 -0.03408096 -0.06657324 -0.01164724
000010 7d b0 1f 3d b6 21 7d 3d ea 70 df bc 9c be 33 bd
       0.03898667 0.061799727 -0.027275521 -0.04388295
000020 bc 2d a9 3b 86 d3 c3 3c ce 92 1b 3d 68 e8 76 bc
       0.0051629227 0.023904573 0.0379818 -0.015070058
000030 93 14 36 bd 9f 0c 15 3d 28 7a a1 bc 4d 9c 3c 3d
       -0.044453215 0.03638899 -0.019711569 0.046047498

exp_avg_sq f4 [16]
000000 78 59 d0 37 59 a3 d2 37 ef f8 0a 39 ec 5e f4 36
       2.4837194e-05 2.5110015e-05 0.0001325344 7.282817e-06
000010 35 da 57 38 2e e0 d6 38 04 84 b4 37 49 f9 08 39
       5.1463216e-05 0.00010246072 2.1519147e-05 0.00013062837
000020 b5 66 fe 37 dd 6d 65 37 97 d7 b8 38 88 ae b7 38
       3.0326986e-05 1.3675043e-05 8.8139604e-05 8.758629e-05
000030 86 c1 89 38 bc 50 59 39 bc f7 cb 37 d3 50 82 38
       6.5687156e-05 0.00020724809 2.4314846e-05 6.213938e-05

exp_avg f4 [16]
000000 36 10 a2 3d 5b fe 81 bd 6c dc d9 bb a2 b9 98 3b
       0.07913248 -0.063473426 -0.006648591 0.004660801
000010 5f 4e 92 3b b2 d6 e5 3b 1d 3e a7 bd e9 f6 a1 bc
       0.004464909 0.007014119 -0.08166144 -0.019771056
000020 d9 4c 08 3d 93 ac fc 3c 80 e6 4f 3c 9d 2c 0b bd
       0.033276413 0.030844009 0.012689233 -0.033978093
000030 d1 e2 18 bd 1e b9 10 3d bb 6f d5 b8 2d 95 a6 3c
       -0.037325684 0.03533279 -0.00010177443 0.020334804

exp_avg_sq f4 [16]
000000 51 61 25 39 de b1 d8 38 50 9f 52 37 50 e1 e5 37
       0.0001577188 0.00010332813 1.2554068e-05 2.7403847e-05
000010 82 f8 fb 37 b5 4f 92 37 5c b3 5e 39 61 af 52 37
       3.0037252e-05 1.7441673e-05 0.00021238386 1.2557809e-05
000020 df 8d 37 38 a1 17 4a 38 97 75 8b 37 72 69 44 39
       4.3762728e-05 4.818256e-05 1.6624848e-05 0.00018731298
000030 55 a7 f4 38 17 45 81 38 d6 7d a2 37 ca 53 ce 37
       0.00011665995 6.164068e-05 1.9370502e-05 2.4596131e-05

exp_avg f4 [8, 16]
000000 ec 2b 7a 3a 4d ff e6 3c 47 0b df bc 03 15 00 bc
       0.0009543288 0.028197909 -0.027227057 -0.00781751
000010 14 b0 6f bc 73 8d d1 bc 89 34 8b 3c 8d 3e cc bc
       -0.014629383 -0.025580144 0.016992824 -0.02493217
000020 7e 6c eb bc e7 58 bb 3c 40 b1 ad bc cb 4e 0b bd
       -0.028738257 0.02286954 -0.021202683 -0.03401069
000030 b5 bb c7 3c 8d 07 d9 bc dd d4 a2 bc 0f c0 a8 bc
       0.024381498 -0.026492858 -0.019876892 -0.020599393
000040 9e 11 94 3d 4a 9d ac 3c 63 10 4a 3e ad b3 46 3d
       0.07229923 0.021071095 0.19732814 0.048511196
000050 16 4e 1f 3e b7 c9 43 3e 30 15 14 bc 81 64 25 3e
       0.15557131 0.19119917 -0.009038255 0.1615162
000060 93 2d 29 3e e6 d1 35 3d 6a 5e 3e 3e a3 a5 26 3d
       0.16521291 0.044389628 0.18590704 0.040685307
000070 5b f5 85 3c 05 ae 32 3e 7b 17 96 bd 09 ed 4c 3e
       0.016352346 0.17449196 -0.07328697 0.20012297
000080 30 65 99 bb ef b7 e9 3b 27 e8 ba bc c9 72 05 bc
       -0.004681252 0.0071325223 -0.022815777 -0.008145043
000090 ce f6 b9 bc 6c 96 b7 bc 10 c3 1c bb a9 bc bf bc
       -0.022700693 -0.022410594 -0.0023919977 -0.02340539
0000a0 e6 ba b1 bc 16 17 c3 bb c7 0b c4 bc bd 04 dc bc
       -0.021695565 -0.00595368 -0.023931397 -0.026857728
0000b0 41 30 81 3b 68 9b cb bc 3e a5 fb bc e4 24 ac bc
       0.00394252 -0.024854377 -0.030718442 -0.021013685
0000c0 e4 6f da 3b e3 38 23 bc 28 85 61 bc c4 a3 0c 3c
       0.0066661704 -0.009962293 -0.013764657 0.008583967
0000d0 40 9b 92 3b 73 6b a9 bc ca a9 c3 ba 29 54 73 3c
       0.0044740736 -0.020681119 -0.001492792 0.014851608
0000e0 07 a5 4b 3c 25 d2 0b bc 69 c6 61 3a eb 2a c0 bc
       0.012429482 -0.008533989 0.0008612634 -0.023457965
0000f0 89 4b 32 bc 09 ec 07 3a cf 53 5e bc 7a 7b e5 bb
       -0.010882267 0.0005185013 -0.013569786 -0.007003245
000100 58 06 fb 3c d1 3f 7e 3d d6 7b 41 bd 96 4a 8e bb
       0.030642673 0.06207258 -0.04723724 -0.0043423874
000110 d0 f1 30 bc 49 d9 0a bd 42 54 8c 3c 16 85 7c bd
       -0.01079984 -0.033898626 0.017130021 -0.06165036
000120 1f 59 c3 bd ad 57 62 3d 09 5d c6 bc 5a ae 03 be
       -0.09538483 0.055259395 -0.024214284 -0.12859479
000130 00 c2 12 3d 84 b8 6c bd fa b9 ff bd 5c 93 b2 bc
       0.035829544 -0.057793155 -0.12486644 -0.021798782
000140 7a 09 a3 ba 6f 78 06 bb 15 f9 9a bb cb e2 ec ba
       -0.0012438737 -0.0020518561 -0.0047294 -0.0018072961
000150 ec e3 d5 bb 79 82 d9 bb 36 8e 7b bb c7 a6 9a 3b
       -0.0065274145 -0.006637868 -0.0038384325 0.0047195884
000160 f2 00 15 3c 55 b5 b7 ba 15 43 a6 bb 96 86 4c 3b
       0.009094464 -0.0014015833 -0.005073915 0.003120815
000170 a4 64 17 bb 7c cb c8 b9 c5 bf 25 3b 50 87 c9 bb
       -0.0023100758 -0.0003829858 0.0025291306 -0.0061501637
000180 13 47 95 3c eb 7c e2 3b 0e e6 60 bb 40 32 d8 3b
       0.018222367 0.006911864 -0.003431681 0.006597787
000190 70 3a e2 bc db 9b 08 bb ef 12 77 bb a9 db c9 bc
       -0.027615756 -0.002084485 -0.0037700494 -0.024640875
0001a0 54 6f 47 bc 12 ab 3e 3c 2f c1 d1 bc 4a a8 0f 3d
       -0.012172539 0.011637466 -0.025604812 0.035072602
0001b0 2c a6 62 3b 2d 2c a6 bc 9f 45 06 3d bd 19 84 bc
       0.003458391 -0.020284737 0.03278124 -0.016125554
0001c0 34 93 d6 bc 04 12 23 bd 64 d8 e4 3c 3c 3e 94 bc
       -0.026193239 -0.039812103 0.027935214 -0.018096082
0001d0 ba 47 37 3d fc fb ca 3c a3 4e 08 bd cd 65 f4 3c
       0.04474614 0.024778359 -0.03327812 0.029833699
0001e0 63 82 a9 3c 2f 9a 12 bd 02 7b 25 3d 9f d7 fe bb
       0.020692056 -0.035791572 0.040400513 -0.007777169
0001f0 86 04 17 bd f5 70 10 3d 9c 7e a5 bc 0c 63 15 3d
       -0.03686955 0.035263974 -0.020201974 0.03647141

exp_avg_sq f4 [8, 16]
000000 9a 58 46 36 b8 6e bf 37 fd 03 46 38 32 f9 a2 36
       2.9555872e-06 2.2820532e-05 4.7210593e-05 4.8569864e-06
000010 c2 7f f0 37 1b 3d 22 38 1a f1 49 37 df 07 ef 37
       2.8669721e-05 3.868072e-05 1.2036669e-05 2.8494685e-05
000020 0d 4c 3d 38 c8 33 87 37 3c 08 04 38 25 f0 2b 38
       4.513194e-05 1.6117367e-05 3.147892e-05 4.099323e-05
000030 0d e0 ab 37 22 2d 16 38 ca 7a b4 37 59 a4 1b 38
       2.048912e-05 3.580482e-05 2.151485e-05 3.710794e-05
000040 94 53 0b 39 0a 91 75 38 37 f0 92 3a 07 49 65 38
       0.00013287208 5.854763e-05 0.0011210506 5.4665867e-05
000050 f7 98 4e 3a cf ba 8a 3a cc 7b b6 37 06 3d 6c 3a
       0.000788107 0.0010584238 2.1753738e-05 0.0009011779
000060 57 f1 3b 3a 67 64 a9 38 4b 58 8e 3a 57 0b bb 38
       0.00071694463 8.0772494e-05 0.0010860054 8.918967e-05
000070 e4 c2 b5 37 ba 5c 82 3a 2b c8 e8 38 03 8b 8f 3a
       2.1667634e-05 0.0009945848 0.00011099906 0.0010951463
000080 df 8f 8b 37 f1 00 6f 36 81 ea bb 37 da 29 5f 36
       1.6637086e-05 3.5614323e-06 2.2401337e-05 3.325395e-06
000090 34 ac c0 37 a9 7b b8 37 bb 7c 04 35 3e 4c b9 37
       2.2968372e-05 2.1992093e-05 4.935534e-07 2.2089222e-05
0000a0 c9 c0 89 37 26 c4 a2 36 5b 3f c6 37 e4 11 ee 37
       1.6421445e-05 4.850811e-06 2.3632942e-05 2.8380142e-05
0000b0 22 d0 d8 36 a4 c7 cc 37 4f 1f 0c 38 09 09 a8 37
       6.4615315e-06 2.441166e-05 3.340776e-05 2.0031368e-05
0000c0 ad 36 4e 37 7e d3 51 37 f7 c1 04 37 9c c2 f6 36
       1.2291287e-05 1.2506613e-05 7.912974e-06 7.354027e-06
0000d0 08 d9 d5 37 96 0d 84 37 2e 0a 94 36 a5 a3 08 38
       2.5492642e-05 1.5741953e-05 4.411929e-06 3.2577333e-05
0000e0 ec 32 14 38 13 e6 87 37 9e 16 71 37 11 5f 2a 38
       3.5333374e-05 1.620039e-05 1.4369985e-05 4.0619696e-05
0000f0 bd db 8d 37 bf 40 92 37 72 6f ba 37 d3 cc be 36
       1.6910833e-05 1.7434706e-05 2.2224824e-05 5.686286e-06
000100 a7 cf f4 37 c8 45 db 38 c7 40 99 38 30 17 30 38
       2.9183762e-05 0.000104557315 7.307674e-05 4.1983265e-05
000110 f2 c6 32 38 0b 98 1f 38 16 66 1d 37 2b a3 b2 39
       4.262379e-05 3.8050155e-05 9.381698e-06 0.00034072375
000120 6a 74 95 39 15 ff b7 38 1d cc 26 38 8d f9 0d 3a
       0.0002850623 8.773633e-05 3.976758e-05 0.0005415909
000130 de cd 81 38 60 0d 01 39 e6 67 ee 39 26 a6 02 38
       6.189545e-05 0.00012307381 0.00045472308 3.1149153e-05
000140 c5 ec dc 34 9d 84 0f 35 3e ba 92 35 20 42 93 34
       4.1150466e-07 5.346463e-07 1.0932051e-06 2.7428996e-07
000150 b5 38 c6 35 1e f9 af 35 82 fe 2f 35 75 d6 21 35
       1.4768654e-06 1.3111019e-06 6.556294e-07 6.028925e-07
000160 9d c6 f3 35 6e 9c 00 35 a2 74 4a 35 5d c2 96 35
       1.8162715e-06 4.791135e-07 7.5420587e-07 1.1232438e-06
000170 49 1c fb 34 81 2e 03 34 ee dc 6d 34 e8 78 e8 35
       4.6772973e-07 1.2217244e-07 2.2152719e-07 1.7320535e-06
000180 de 7b 95 37 09 4b 3f 37 1b a3 c6 35 63 54 34 37
       1.7819864e-05 1.1401958e-05 1.479962e-06 1.0748484e-05
000190 4e 91 36 38 bf 02 e1 36 57 bd 35 37 22 16 a0 38
       4.3527507e-05 6.705842e-06 1.0832525e-05 7.633517e-05
0001a0 99 24 6c 38 f1 76 d0 37 b6 21 02 38 32 5c 65 38
       5.630087e-05 2.4850919e-05 3.102581e-05 5.468372e-05
0001b0 b4 df 8b 37 b3 99 cf 37 71 da 19 38 ce 32 1e 37
       1.6674261e-05 2.4747895e-05 3.6681482e-05 9.429363e-06
0001c0 97 21 7e 38 c5 f4 94 38 93 de 7f 38 b7 6f 13 38
       6.0589602e-05 7.102782e-05 6.1004026e-05 3.5151574e-05
0001d0 52 4d 12 39 3a fc 8a 38 91 47 40 38 c4 90 fb 38
       0.00013952449 6.627334e-05 4.584302e-05 0.000119955774
0001e0 bc 76 bd 38 88 71 03 39 c1 77 de 38 12 9c 90 38
       9.034338e-05 0.00012535427 0.00010608091 6.8955254e-05
0001f0 41 7c a8 38 10 a6 f5 38 5c bd db 37 af 80 7f 38
       8.034008e-05 0.00011713442 2.6195012e-05 6.0916584e-05

exp_avg f4 [8]
000000 a0 b8 fd 3c 02 65 b4 bd 40 50 d0 bc 25 88 a2 3d
       0.030971825 -0.08808328 -0.025428891 0.07936124
000010 ec 4a f5 3b 11 a8 8b 3d ff 5f 75 bd b6 8d 35 bc
       0.007485738 0.068191655 -0.059906002 -0.01108115

exp_avg_sq f4 [8]
000000 b0 09 d5 37 bc 0a 43 39 6f 42 67 37 06 eb 72 39
       2.539609e-05 0.00018600648 1.3784141e-05 0.00023166472
000010 c2 a0 85 37 9c 58 ca 38 dd c2 b1 39 c1 c0 b9 38
       1.5929694e-05 9.6486154e-05 0.00033905255 8.857391e-05

exp_avg f4 [8]
000000 1e 46 24 3d d8 6f ca bd 0e 6b 89 3c 25 e3 e8 3c
       0.04010593 -0.09884614 0.01677468 0.028428623
000010 96 f7 dd 3b 9f 21 57 3d 76 ee 09 bb 9a 6b bf bc
       0.0067738993 0.052522298 -0.0021046675 -0.023366738

exp_avg_sq f4 [8]
000000 4f 74 18 38 63 96 8d 39 48 e2 5c 38 6a 48 a0 38
       3.6347945e-05 0.00027005663 5.266283e-05 7.642883e-05
000010 36 2f 0a 38 29 7e 69 38 58 c7 1f 38 5c e7 0c 38
       3.2945733e-05 5.5669025e-05 3.8094207e-05 3.359407e-05

exp_avg f4 [4, 8]
000000 e0 fb d6 3b 5a a9 48 bb 9b 06 83 bd 91 63 ba 3d
       0.0065607876 -0.003061852 -0.06397744 0.09101022
000010 f7 9d df 3a 62 1a be 3d 0b 9f bd 3d 67 4c 88 3d
       0.0017060627 0.09282376 0.09258851 0.066551976
000020 81 a6 48 bc 53 9c 3e bc d7 c1 22 3c b6 f3 02 ba
       -0.012246729 -0.01163395 0.00993391 -0.0004995422
000030 6e df 64 3b ab 4a 00 3b 63 78 0e 3b 83 cb 8e 3b
       0.0034923214 0.0019575756 0.0021739237 0.0043577566
000040 8f e1 94 bd 55 3e b3 bd d2 e1 86 bb 8f 9f fb 3c
       -0.072695844 -0.08752123 -0.0041162753 0.030715732
000050 33 f2 80 bc c5 4e 8f 3d fe a5 a5 3d cd 93 16 3d
       -0.01574049 0.06997446 0.08088301 0.036762048
000060 7c cd ef bb 63 20 2d bd 8f 35 5e 3c 5e 03 32 3d
       -0.007318197 -0.042267215 0.013562574 0.043460242
000070 22 ad bd 3c 53 40 5b 3d 49 55 72 3d d0 63 2f 3d
       0.023153845 0.05352814 0.059163366 0.042819798

exp_avg_sq f4 [4, 8]
000000 fc 6e 77 37 e5 70 a7 37 86 30 06 39 7b 3f 8d 39
       1.4748188e-05 1.9960522e-05 0.00012797312 0.00026940912
000010 56 e0 2e 38 16 c6 b7 39 8e 06 a6 39 22 f7 4d 39
       4.1693762e-05 0.00035052066 0.0003166687 0.00019642388
000020 c1 b7 37 37 4c 02 5d 37 a4 0f 82 37 06 ff 04 37
       1.09504335e-05 1.3173161e-05 1.550449e-05 7.92719e-06
000030 4a 4e 62 36 54 a3 a2 36 b9 54 20 35 65 f8 58 37
       3.3722195e-06 4.84699e-06 5.972793e-07 1.2932437e-05
000040 a0 81 02 39 93 a7 74 39 a9 b6 52 36 1f 2c 91 38
       0.00012446055 0.0002333208 3.139876e-06 6.922357e-05
000050 38 d5 15 38 1c d2 1e 39 88 64 3d 39 0f 90 b3 38
       3.5722944e-05 0.00015146326 0.00018061895 8.562218e-05
000060 db f9 3f 38 e2 bb 37 38 15 fb 97 36 5b fa 54 38
       4.5770645e-05 4.380558e-05 4.5293805e-06 5.07779e-05
000070 9e 71 36 37 ea 3d 90 38 34 b0 a4 38 9d fa 61 38
       1.0874499e-05 6.8779875e-05 7.85295e-05 5.3877582e-05

exp_avg f4 [4]
000000 7c 85 24 3d 92 a4 a7 bb ee 5c 11 bd 5e 95 cb 3a
       0.040166363 -0.005116054 -0.035489015 0.0015532186

exp_avg_sq f4 [4]
000000 52 e2 50 38 ce c7 cd 36 86 ea 1d 38 0a 65 c3 36
       4.980184e-05 6.1327364e-06 3.7650134e-05 5.8232154e-06

exp_avg f4 [4]
000000 fe 3b c0 3c f9 e8 9e bb b6 9b 3b bd 96 51 d4 bc
       0.023466107 -0.00484955 -0.045802794 -0.02591781

exp_avg_sq f4 [4]
000000 10 10 3e 38 58 61 80 36 22 4e 87 38 d9 cd 88 37
       4.531449e-05 3.8260296e-06 6.451855e-05 1.6308319e-05

exp_avg f4 [2, 4]
000000 d9 65 4f 3d c1 db 07 bd dd 12 92 bd 1a aa 4d 3c
       0.05063424 -0.033168558 -0.07132504 0.012552762
000010 b0 f1 02 bc 89 8d 02 bb 02 4d 97 ba 86 8c 1a bc
       -0.007992193 -0.0019920787 -0.0011543336 -0.009432917

exp_avg_sq f4 [2, 4]
000000 51 9a 9b 38 67 b8 06 38 00 df da 38 5d 35 2f 37
       7.4197196e-05 3.2119828e-05 0.00010436587 1.0443237e-05
000010 cd c6 d3 36 1a 07 95 37 a9 80 0b 36 74 49 1d 37
       6.3114335e-06 1.7765491e-05 2.0787504e-06 9.375031e-06

exp_avg f4 [2]
000000 6f 70 06 3e f1 b0 51 3d
       0.13128828 0.051194135

exp_avg_sq f4 [2]
000000 d6 9a 12 3a 9b 21 f9 39
       0.00055925304 0.0004751802

exp_avg f4 [2]
000000 b0 0d 0a 3d f6 8e 70 bc
       0.03370446 -0.014682522

exp_avg_sq f4 [2]
000000 7a 7b 35 39 da b8 9b 38
       0.00017307504 7.425407e-05

exp_avg f4 [2, 2]
000000 9f e4 b7 bd 21 d4 eb 3c 9f e4 b7 3d 21 d4 eb bc
       -0.08979153 0.028787674 0.08979153 -0.028787674

exp_avg_sq f4 [2, 2]
000000 8d 73 89 39 61 ac 1d 39 8d 73 89 39 61 ac 1d 39
       0.00026216768 0.00015036903 0.00026216768 0.00015036903

exp_avg f4 [2]
000000 7c d5 a7 bd 7c d5 a7 3d
       -0.08195016 0.08195016

exp_avg_sq f4 [2]
000000 91 a2 7f 39 91 a2 7f 39
       0.00024379256 0.00024379256
