test/input/local3/simulatorRun/pretrained_weights.tar (torch_old, 737310 bytes, 42 tensors)

layers.0.0.weight f4 [256, 66]
00000000: 1b00 593d 71de 0abd 59e8 3a3e 3222 eebd
00000010: 30d6 123e dc07 e53d a996 b33d 5165 253d
00000020: 0aa9 40be 808f 9a3e 8cb7 d2bc 0294 793e
00000030: b69c eebd b624 693d 7b78 f8bc 4598 3dbe
00000040: 12b5 6bbc f3c8 633e caf8 c73d 5f7c 123e
00000050: 0660 5d3e e085 12be df64 d8bd feab b1bc
00000060: a54b 60bc f2cd ba3e 2462 843d ab44 cbbd
00000070: aed4 ffbd 7856 2c3e dfd8 20bd 5ca6 923e
00000080: 7c8e ea3d 0cd7 283e fd6c 463e bde2 493e
00000090: b81e b8be 4425 0dbd 2e63 a7be 0986 8e3e
000000a0: 5abf 113e 92ef 0dbe 93e2 e9bd aac6 a83c
000000b0: 6a92 5c3e d56e 7bbd 9c38 80be f9ce 073e
000000c0: 67f1 98be 61e0 bd3e 419b f4bc 3a9b f33e
000000d0: 0a8b 19bd c779 ea3d 2baa 85bd 2b52 a03e
000000e0: 714a 313d 294c 433d 8c59 913d f007 3fbe
000000f0: 2a88 623e 31b4 71bd 636d fabd 965a b73c
00000100: b068 763e 22a4 9fbd e586 e13d d510 f9bd
00000110: a638 91bd 8c29 3bbe ee36 02bd cfd7 1f3e
00000120: 435f 0f3d f909 f2bc 7fdb 543b 6620 e3bd
00000130: 9e30 4fbc 709d 6d3e e7da a7bd 9a4e 4eba
00000140: 81bc 39bd 9e80 96bc aad3 443d e946 3d3e
00000150: c8e8 f4bd f7d8 89be 99fd c03d 1b54 0ebe
00000160: 7553 43be 614c 123d 7b2a 89be 45f3 abbe
00000170: 96a6 913d a850 a1bd e4c0 123d 44bb 6b3e
00000180: c818 3fbe 1803 063c 208c 86bd 6607 e7bb
00000190: e8c1 063e 9232 84bd 282a 29be 5199 ebbd
000001a0: d1a0 063e dea5 193e 11aa d43d 735f 143d
000001b0: 71b0 38bd e28c 02be da53 643e dcdf b93d
000001c0: 25f0 433e 2ff0 5ebe 4448 763c 84e2 6f3e
000001d0: 5b88 823d 6722 78bd 1496 f63d 1b2b c4bd
000001e0: c2a6 0c3e e129 a03d d852 e6bd 082d debd
000001f0: fcd5 edbd 160c c93d db11 23bd 3014 303e
00000200: cbb0 55be 21c4 4d3d fb42 a63d a474 f2bd
00000210: abd0 76bd e9be 85be 6d1f c53d 95de 3cbe
00000220: 4fa0 593e 968c 9cbe 661f 93bd c297 eb3d
00000230: ad0c ec3d 751f f03b dccb b83e 230f ecbd
00000240: 50bc edbe cb18 3d3e bb28 d43b 0eca ae3b
00000250: 18d4 293d 6cb3 6bbe 2c6a 313d 2285 803e
00000260: 087b c13d 06c6 a23d 777c 26be 9555 b4bd
00000270: 97ed 0bbe 060d d93b e7ca b1bd 06bd 9cbe
00000280: 8b20 693e 4d30 e43c b884 6fbd dd66 97bd
00000290: 55f2 d8bc 4e9c c5bd 47ad c03c 24e3 24bd
000002a0: 64c3 193e e906 033d 9934 f2bd d6f1 46bd
000002b0: edb5 1a3e 7b62 973d 6140 72be b6fb b43c
000002c0: 7de1 56be 013e d83d e690 2ebd 646c a8bc
000002d0: c321 8dbd b578 073d f695 05be 9170 0a3e
000002e0: 5a07 f43d 2c97 a8be d1a3 13be 6c9b 03bd
000002f0: d10b 06be 0c67 d83e bf6e 213e 20cd 9f3e
00000300: 045b 9c3e ec54 103c 6f94 073e 262a 623e
00000310: d8f3 a73e 45e8 5a3d 56c8 153e 44b3 443e
00000320: 33bc 193e 6260 0a3e eaa6 863d 7407 09be
00000330: 39f2 6cbe 39ca 1e3e eea5 5e3d c92b 2c3e
00000340: 9255 cc3c d81c 9b3e 1641 193c 6403 c7be
00000350: 391f 0f3e 15b0 0ebd 1302 50be 0a53 723e
00000360: fa71 70bc 80a5 953e 3081 aabe e64e 5b3d
00000370: 7cfd 8fbd d214 8a3e 8831 3e3a 445c b0bd
00000380: bb0c 97be 8df2 bc3e b583 d13d 3596 58bd
00000390: bf87 b83c 4252 7a3e cf44 513d cf84 45be
000003a0: 8848 bf3e 61d4 efbd 4169 51bd 2d59 093d
000003b0: a3b2 fbbd 9a66 fdbb 6274 ccbc bb98 c0bd
000003c0: 3453 63be d2b4 6c3e 0d61 bc3d b449 5e3c
000003d0: 855c d73e 64a1 d33d 2f86 6d3e 6748 94be
000003e0: 08fc 853e 00f9 523d 2bc3 a13d 3ba0 763a
000003f0: 9174 9a3e 267f 1cbe 980f d6bd 787b 9c3d
0.052978616 -0.033903543 0.18252696 -0.11627616 0.14339519 0.1118314 0.087689705 0.040379826
-0.18814483 0.30187607 -0.025722288 0.24372867 -0.11650984 0.056919776 -0.030330887 -0.18515117
-0.014386432 0.22244625 0.097642496 0.14305256 0.21618661 -0.14308882 -0.10566115 -0.021688458
-0.01368991 0.3648525 0.06464031 -0.09925207 -0.12491737 0.1682986 -0.039269324 0.28642547
0.11452958 0.16488284 0.19377513 0.197154 -0.35960937 -0.034459367 -0.32692856 0.27836636
0.14233151 -0.1386092 -0.11420169 0.020602543 0.21540228 -0.061384995 -0.2504319 0.13262548
-0.29871675 0.3708525 -0.029859187 0.47579366 -0.037486114 0.114490084 -0.065265976 0.3131269
0.043283883 0.047680054 0.07097158 -0.18655372 0.22122255 -0.059009735 -0.12227895 0.022382062
0.24063373 -0.07794978 0.11012057 -0.121614136 -0.07090883 -0.18277568 -0.031790666 0.15609668
0.035002958 -0.029545771 0.0032479463 -0.11090164 -0.012645869 0.23204589 -0.08196049 -0.0007869989
-0.045345787 -0.018371876 0.04805342 0.18484081 -0.11958462 -0.26923344 0.0942337 -0.13899271
-0.19074805 0.03571737 -0.26790223 -0.33584037 0.07111852 -0.07876712 0.035828486 0.23020655
-0.18661797 0.008179449 -0.065696955 -0.0070504425 0.13159907 -0.06454958 -0.16519988 -0.11503852
0.13147284 0.1500468 0.10384 0.03622384 -0.045090143 -0.12749055 0.22297612 0.09075901
0.19134577 -0.2177131 0.015031878 0.23426253 0.06373664 -0.060579684 0.12040344 -0.09578534
0.13735488 0.07820488 -0.1124627 -0.10848433 -0.1161308 0.09816758 -0.03981195 0.17195201
-0.20868222 0.05023587 0.08118244 -0.11838654 -0.060257595 -0.26122215 0.096251346 -0.18444283
0.21252559 -0.3057601 -0.07183723 0.11503555 0.11525855 0.0073279687 0.36093032 -0.115263246
-0.46432734 0.18466489 0.006474582 0.0053341454 0.041462034 -0.23017663 0.043314144 0.25101572
0.094472945 0.07947926 -0.16258417 -0.08805386 -0.13664852 0.006623867 -0.08681279 -0.30612963
0.2276632 0.027855063 -0.05847618 -0.073926665 -0.02648274 -0.096489534 0.023520125 -0.04025568
0.15015942 0.031989012 -0.118264385 -0.048570476 0.15108462 0.073918305 -0.23657371 0.022092681
-0.20984454 0.10558701 -0.042618655 -0.020559497 -0.06891205 0.0330741 -0.13045487 0.13519503
0.11915465 -0.32927835 -0.1441796 -0.032130644 -0.13090445 0.4226612 0.15764903 0.31211185
0.3053819 0.008809309 0.13240217 0.22086391 0.32803226 0.053444166 0.14627203 0.1920901
0.15013199 0.1351333 0.06574805 -0.1338175 -0.23139276 0.1550683 0.05435746 0.16813578
0.024943147 0.30295444 0.009353897 -0.38869774 0.13976754 -0.034835894 -0.20313291 0.2366449
-0.014675612 0.2922783 -0.33301687 0.05354204 -0.0703077 0.2696901 0.00072553055 -0.08611348
-0.295019 0.36903802 0.10230199 -0.052877624 0.022525666 0.24445441 0.05109101 -0.19288944
0.37360024 -0.1171043 -0.05112577 0.03353231 -0.122899316 -0.0077331783 -0.02495784 -0.09404131
-0.22199708 0.23115852 0.091981985 0.013567377 0.42062774 0.10333517 0.23195718 -0.2896149
0.26168847 0.051506996 0.078985535 0.00094080315 0.30167058 -0.15282878 -0.10452193 0.07640737

layers.0.1.weight f4 [256]
00000000: 09a4 7e3f 1289 7f3f a5cd 7e3f 82be 7f3f
00000010: eaff 7f3f 070f 803f c51e 803f 9890 7f3f
00000020: 8b54 803f a828 7f3f 18cd 7f3f ed1d 803f
00000030: 82ea 7f3f cf5f 803f 3606 803f 5367 803f
00000040: 0f24 803f 36bf 7f3f fa34 803f ff21 803f
00000050: 13ab 7f3f ac9c 7f3f 4e30 7f3f 8e2d 803f
00000060: 960a 803f c957 7f3f d52b 803f af5c 803f
00000070: cef9 7f3f 35e7 7e3f c270 7f3f 9049 7f3f
00000080: 3d81 803f 989e 803f d331 7f3f a16f 803f
00000090: 33ed 7e3f a410 803f bbd3 7f3f c5a5 7f3f
000000a0: 374b 7f3f f36d 803f b7ff 7e3f 902e 803f
000000b0: 5512 7f3f 15b0 7f3f 920b 7f3f a779 803f
000000c0: 9077 803f aba6 803f b285 7f3f 462b 803f
000000d0: ebe1 7e3f b5b7 803f 7b20 803f e0f7 7f3f
000000e0: 0bd0 7f3f cf71 803f e1b8 7f3f 4301 7f3f
000000f0: 0663 803f 38b1 7e3f bb09 7f3f 5030 7f3f
00000100: 94fe 7e3f 41d5 7f3f fdb5 7e3f 865a 803f
00000110: 4bfa 7e3f 0504 803f f356 803f 348c 803f
00000120: 1611 803f 95d9 7e3f 69b0 7f3f c8dd 7e3f
00000130: dd6f 803f 0560 803f 307f 7f3f e515 803f
00000140: 9cc9 7f3f 9b3d 803f 3ab6 7f3f 1c7d 803f
00000150: dcfe 7f3f 23ef 7f3f 754b 803f ba22 803f
00000160: dc77 803f 895e 7f3f e972 803f c7e5 7f3f
00000170: f284 803f b580 803f 0c2a 803f 9e64 7f3f
00000180: f129 7f3f 7477 7f3f cb7e 7f3f 13fb 7f3f
00000190: ded5 7e3f ff4f 803f 817b 7f3f 437f 803f
000001a0: 979d 7e3f d103 803f 4b6b 803f 3987 7f3f
000001b0: 8e51 7f3f 624e 803f 6db7 7e3f 1630 803f
000001c0: c991 803f 08ec 7f3f 464b 803f d741 803f
000001d0: 7af1 7e3f d20a 803f 4142 7f3f 3243 803f
000001e0: 2855 803f e3fd 7f3f 782d 803f 7103 803f
000001f0: 83aa 7f3f 026c 7f3f ec5b 803f 99fd 7e3f
00000200: 327b 803f a86c 7f3f 2d5f 803f 1e3f 803f
00000210: a140 7f3f 5559 803f cf4d 7f3f f8ed 7f3f
00000220: f4e3 7e3f 9b90 7f3f 3710 803f f47c 803f
00000230: 2aab 7e3f 620e 803f 3b23 7f3f be89 7f3f
00000240: bcfb 7e3f 6f37 7f3f 0391 803f d9af 803f
00000250: 1829 7f3f d780 803f 534d 803f 8813 803f
00000260: ee2f 7f3f 9ac8 7f3f f80e 7f3f 25fe 7e3f
00000270: 1f14 803f fb87 803f 04bb 7f3f 99b4 7f3f
00000280: 09ff 7f3f e492 7f3f a76b 803f 1e66 803f
00000290: 1a20 803f 3ccb 7f3f 595b 803f 7100 7f3f
000002a0: 0cc4 7f3f 5ed6 7f3f d212 803f 2838 7f3f
000002b0: 13b3 7f3f f72a 803f 1fa8 803f 19e7 7e3f
000002c0: 745b 803f 95ed 7e3f 547e 7f3f bc11 803f
000002d0: b4b0 7f3f 8912 803f 24b8 7e3f 5875 7f3f
000002e0: 136e 803f 824f 7f3f bc64 803f 772f 7f3f
000002f0: 7569 803f cf2e 7f3f f075 7f3f 581e 803f
00000300: 4696 803f c399 803f 9a17 803f f520 803f
00000310: 393b 803f 5799 803f e686 7f3f cc7d 803f
00000320: ff56 803f 71fa 7f3f ea42 7f3f c09f 803f
00000330: fcfb 7e3f c451 803f 3495 803f 7641 803f
00000340: 0be7 7f3f f2f4 7f3f 4d2c 803f 3d29 803f
00000350: 38ca 7f3f f654 803f 9c25 803f aa81 803f
00000360: 125e 7f3f 99ac 803f 31fd 7e3f 073a 7f3f
00000370: 44da 7f3f d632 803f 4d02 803f 08f0 7f3f
00000380: e48c 803f ffd4 7f3f e212 7f3f 379e 803f
00000390: 0838 803f 4c43 803f 3566 803f 6a2a 803f
000003a0: 5b74 803f 4e24 7f3f e7ab 803f c06b 803f
000003b0: 6e71 803f cfdf 7f3f a861 7f3f 0b8c 7f3f
000003c0: 85a5 7f3f 54da 7f3f b04c 7f3f 31a9 7f3f
000003d0: c576 803f 218f 7f3f df86 7f3f a182 803f
000003e0: 7f76 7f3f 308f 803f b470 803f bc5b 7f3f
000003f0: 0447 7f3f 8d60 803f 8233 803f 39ad 7e3f
0.9946905 0.9981853 0.9953254 0.99900067 0.9999987 1.0004586 1.000939 0.9983001
1.00258 0.9967141 0.99922323 1.0009133 0.99967206 1.0029238 1.0001895 1.0031532
1.0011004 0.9990114 1.0016167 1.0010375 0.99870414 0.9984844 0.9968308 1.0013902
1.000323 0.99743325 1.0013376 1.0028285 0.99990547 0.99571544 0.9978143 0.9972162
1.003944 1.0048399 0.996854 1.0034066 0.9958069 1.0005078 0.9993245 0.9986232
0.99724144 1.0033554 0.9960894 1.001421 0.9963735 0.99878055 0.9962703 1.0037125
1.0036488 1.0050863 0.9981338 1.0013206 0.99563473 1.0056063 1.0009912 0.999876
0.99926823 1.0034732 0.9989148 0.996113 1.003022 0.99489164 0.9962422 0.99683094
0.99607205 0.99934775 0.9949644 1.0027626 0.99600667 1.0001227 1.0026535 1.0042787
1.0005214 0.99550754 0.99878556 0.9955716 1.0034138 1.0029303 0.9980345 1.0006682
0.99917006 1.00188 0.9988743 1.003818 0.9999826 0.9997427 1.0023028 1.0010598
1.0036578 0.99753624 1.0035068 0.9995999 1.0040572 1.0039278 1.0012832 0.99762905
0.9967337 0.99791646 0.99802846 0.99992484 0.99545085 1.0024413 0.99797827 1.0038837
0.99459213 1.0001165 1.0032743 0.9981571 0.9973382 1.002392 0.99498636 1.0014675
1.004449 0.9996953 1.0022972 1.0020093 0.99587214 1.0003302 0.9971047 1.0020506
1.0025988 0.99996775 1.0013876 1.000105 0.99869555 0.9977418 1.0028052 0.9960571
1.0037596 0.9977517 1.0029045 1.0019262 0.9970799 1.0027262 0.997281 0.99972486
0.9956658 0.99830025 1.0004948 1.0038133 0.99479926 1.0004389 0.9966313 0.9981955
0.99602866 0.9969396 1.0044254 1.0053664 0.9967208 1.0039319 1.0023597 1.000596
0.9968251 0.9991547 0.99632215 0.99606544 1.000614 1.0041498 0.9989474 0.99884945
0.9999853 0.9983351 1.0032853 1.0031164 1.0009797 0.99919486 1.0027877 0.9961005
0.9990852 0.99936473 1.0005744 0.9969506 0.9988262 1.0013112 1.0051306 0.9957138
1.0027909 0.9958127 0.99802136 1.0005412 0.99879 1.0005656 0.99499726 0.9978843
1.0033592 0.99730694 1.0030742 0.996818 1.0032183 0.996808 0.99789333 1.000926
1.004586 1.0046924 1.0007203 1.0010058 1.0018073 1.0046796 0.99815214 1.003839
1.0026549 0.9999152 0.9971148 1.0048752 0.9960325 1.0024953 1.0045533 1.0019977
0.9996192 0.9998313 1.001352 1.0012585 0.99917936 1.0025928 1.0011477 1.003957
0.99752915 1.0052673 0.9960509 0.9969792 0.9994242 1.0015514 1.0000702 0.99975634
1.0042996 0.9993438 0.9963819 1.0048283 1.0017099 1.0020537 1.0031191 1.0012944
1.0035509 0.9966477 1.005246 1.0032883 1.0034616 0.9995088 0.99758387 0.99823064
0.9986194 0.9994252 0.9972639 0.9986754 1.0036246 0.9982777 0.9981517 1.0039865
0.99790186 1.0043697 1.0034394 0.9974935 0.99717736 1.0029465 1.0015719 0.99483067

layers.0.1.bias f4 [256]
00000000: 0726 70bb 7025 c23a c076 97bb 38f9 e338
00000010: 4531 b5bb f0d0 8b3a 74a1 703b ecc4 2b3b
00000020: d493 ad3b b1cf 58bb 31f2 bbb9 9299 463a
00000030: 0e98 c03a eacc 113b 4b90 10bb 99d2 843b
00000040: afbd b03a be8c 4abb b71b d93a 490c 573a
00000050: c43b a039 a440 04bb d421 91bb 9e81 0f3a
00000060: 2e74 de3a d780 943b 4abd c53a 9b1c 903b
00000070: 5010 b8b9 c6e6 93bb b836 0dbb 5223 b4ba
00000080: 9594 6a3b 92a1 9d3b fa99 66bb a8cd 923b
00000090: ca75 8dbb 0d93 3e3b 4a0f d1b9 201c b03b
000000a0: 6a8e e03a f24d 2f3b a92e a6bb fd59 a23a
000000b0: e3f0 80bb 8d61 2abb b3fa a2bb 6046 973b
000000c0: 5186 373b c7e2 7d3b 4a87 47bb 033f 953b
000000d0: dc22 96bb eaee a63b 9fd2 6d3b 4a69 8eb9
000000e0: c0f8 bb3a 70cd 4e3b 72ed 6ebb 6fb7 01bb
000000f0: 0a4b 413b c296 443a 3225 98bb 3c34 52bb
00000100: 8afd 2ebb cf8b 05bb bcc4 8fbb d124 a43a
00000110: 3f71 54bb 1920 8f3a c28b 1b3b 0ddf 9c3a
00000120: 5a5b 293b d160 88bb 54d3 12bb cdbe 83bb
00000130: bca1 493b 90c5 7f3a 8da7 93ba 0e44 0b3b
00000140: d8c7 c838 815c 0a3b a7c9 8bbb 7135 bd3a
00000150: e67a 74ba 765d 143b 946b 833b a01a f2b9
00000160: 7ab5 e739 3b3b 473a 5cc3 173b dc4c bb3a
00000170: 8b03 cf3a 6939 8c3b 50ea 0bbb 6b04 a8bb
00000180: 8f1d 82bb 5359 60bb 6173 f2ba 4dd8 81bb
00000190: ddbd 91bb 966b f63a 7927 89ba b37c 64ba
000001a0: a3da 8dbb 1bec 563b 1a04 243b 92f4 81bb
000001b0: d7c5 933b a4ba 5c3b 666e daba 0941 b4ba
000001c0: b186 ab3b 9a4e 9eba 1697 f4ba 1a99 0fbb
000001d0: a8f9 40bb 0070 223a 828e 32bb cc02 76bb
000001e0: 48d5 053b 2011 763a 61b7 1c3b 980b c6b8
000001f0: 1adb b8ba 5124 60bb bccc eb3a f474 ee39
00000200: 0e62 5b3b 38bc e938 986c 203b 301e 6fbb
00000210: f3a0 28bb 5660 1f3b 6bc5 0bbb 676b daba
00000220: 77f9 edba c2d6 9dbb 38a2 7d3b 5d32 293b
00000230: f0e0 f3ba 2468 b23a 7cd7 873a 3b7b 83ba
00000240: bad4 2abb 6919 03bb 4afc 8e3b 6c2c 5f3b
00000250: 9dfc 01bb 47ef 803b b25d 2bbb b71f 44bb
00000260: be8b 8d3a 4f7d 27bb 645b 90bb acc5 feba
00000270: e3f6 4f3a 3779 e03a 0cd0 14bb 3c72 d8b9
00000280: d4a2 2ab9 0d32 7abb c5e0 ba3b 5c1a b43a
00000290: f670 a539 a623 0d3b 2366 523b a41a f5ba
000002a0: d26c acbb 236e cd3a 4a2c 103b 3bf5 58bb
000002b0: 881e b23a 3eae 033b 064b 2d3b 3c12 63bb
000002c0: 9ac4 393b 9d59 90ba 9634 1eba 10a1 95ba
000002d0: 10be 1338 47bd 203b 3bd0 9dbb 7bdb 8fba
000002e0: 44f6 923b 9776 6abb 9313 233b bb4f a7bb
000002f0: e589 2a3b 0be4 63bb b2d3 aeb9 005c f139
00000300: 8c91 ab3b ff34 863b eae1 53b9 d542 0e3a
00000310: ac57 043b 348d 383a 9cbc b5ba 7325 993b
00000320: 855e 5a3b cb28 a7ba 967b 7cbb 32a3 8c3b
00000330: 2ba3 6cbb f0a8 6238 d535 49bb 8160 1b3b
00000340: f832 27bb 21d8 21ba 4f4c 393b 2eb9 b43a
00000350: daa6 a7ba ec1c 393b ca8e 043b d2aa 313a
00000360: 8cbf ed3a b279 723b bf52 68ba fb0f 85bb
00000370: 4ca3 243b b0d2 a43a e58d 0e3b 8c28 57ba
00000380: fc5d 8c3b 3666 d3b9 e145 01bb 9e00 0bba
00000390: 3e3b 1d3b 8429 1bb9 3f9b 9e3a b88c b53a
000003a0: 4cf7 b1bb f282 56bb ee28 8c3b 8bdb 613b
000003b0: 8351 2b3b 0ba6 8cb9 c39b 24bb 3f9a a03b
000003c0: 4404 0ebb 32ab 97b9 8454 a43b 2fd7 d9b9
000003d0: ad44 823b 463d ceba f5ed 85bb 95a4 5c3b
000003e0: 1dbf 22ba 85fa 6d3b 3cda 663b afe0 79bb
000003f0: cd98 5cbb a054 213b a45f 5f3b ae71 a1bb
-0.003664376 0.0014812183 -0.0046223104 0.00010870624 -0.005529555 0.0010667127 0.0036717327 0.0026209904
0.0052971635 -0.0033082778 -0.00035847866 0.00075759843 0.0014693753 0.0022247382 -0.0022058662 0.0040534255
0.0013484264 -0.0030906643 0.0016564046 0.000820343 0.00030562107 -0.002018013 -0.0044290815 0.00054743316
0.001697188 0.0045319605 0.001508632 0.0043979413 -0.0003510737 -0.0045135943 -0.0021547507 -0.0013743436
0.0035794128 0.0048105204 -0.0035186992 0.0044800825 -0.00431702 0.0029079348 -0.00039874978 0.0053744465
0.0017132286 0.002674934 -0.0050714803 0.0012386438 -0.003934966 -0.0025998086 -0.0049737333 0.0046165437
0.0028003643 0.0038739906 -0.0030445629 0.0045546307 -0.0045817923 0.0050943987 0.003628887 -0.00027162797
0.0014341101 0.0031555556 -0.0036457446 -0.0019793173 0.002949419 0.00074992713 -0.004643106 -0.003207459
-0.0026701414 -0.0020377522 -0.0043874662 0.0012523179 -0.0032416133 0.00109196 0.0023734425 0.001196833
0.0025841803 -0.004161932 -0.0022403793 -0.004020548 0.0030766567 0.0009756917 -0.0011265144 0.002125028
9.573967e-05 0.0021112266 -0.004265982 0.0014435482 -0.00093261746 0.0022638715 0.004010627 -0.00046177674
0.00044194964 0.00076000736 0.0023157215 0.0014289874 0.0015793903 0.0042793048 -0.0021349378 -0.00512748
-0.003970809 -0.003423293 -0.001849752 -0.0039625526 -0.0044476823 0.0018800374 -0.0010464034 -0.00087160914
-0.004329042 0.0032794538 0.0025026859 -0.0039659226 0.0045096683 0.0033680582 -0.0016664981 -0.0013752292
0.0052345623 -0.0012077868 -0.001866075 -0.0021911324 -0.0029445682 0.0006196499 -0.0027245586 -0.0037538288
0.0020421315 0.0009386707 0.0023913013 -9.443535e-05 -0.0014103383 -0.0034201334 0.0017990093 0.00045482034
0.0033475193 0.00011145364 0.002447879 -0.00364865 -0.0025730699 0.0024318895 -0.0021327387 -0.0016664088
-0.0018156011 -0.004816861 0.0038701426 0.0025817372 -0.0018606465 0.0013611359 0.0010363902 -0.0010031232
-0.0026066736 -0.002000416 0.0043635713 0.0034053577 -0.0019834407 0.003934774 -0.0026148376 -0.002992613
0.0010799093 -0.0025556867 -0.004405426 -0.0019437573 0.00079332123 0.0017125969 -0.0022707013 -0.00041283842
-0.00016273122 -0.0038176805 0.005703064 0.0013740766 0.00031555415 0.002153614 0.0032104335 -0.0018699956
-0.005261996 0.0015673082 0.0021999055 -0.0033105153 0.0013589421 0.002009287 0.0026442423 -0.003464832
0.0028345943 -0.0011013035 -0.00060350576 -0.0011415798 3.522454e-05 0.002452688 -0.004816083 -0.0010975444
0.0044849236 -0.0035776251 0.0024883493 -0.00510594 0.0026022133 -0.0034773375 -0.00033345592 0.00046035647
0.0052358564 0.004095673 -0.00020206688 0.0005426829 0.0020193858 0.0007040084 -0.0013865414 0.0046736537
0.0033320498 -0.0012753246 -0.0038525811 0.0042919153 -0.0036107998 5.4039934e-05 -0.0030702252 0.0023708644
-0.0025512557 -0.00061738683 0.0028274243 0.0013788098 -0.0012790815 0.0028245999 0.002022671 0.00067774684
0.001813875 0.0036998806 -0.0008862428 -0.004060743 0.0025121747 0.0012574997 0.0021752056 -0.0008207641
0.0042836647 -0.0004032121 -0.001972549 -0.0005302521 0.002399161 -0.00014797418 0.001210071 0.0013851142
-0.0054310914 -0.0032731858 0.00427734 0.0034463133 0.0026141114 -0.00026826593 -0.0025117255 0.0049012
-0.0021670023 -0.00028928515 0.005014958 -0.0004154979 0.003975472 -0.0015734814 -0.0040872046 0.0033667434
-0.00062082877 0.0036312651 0.0035225293 -0.0038128307 -0.0033660412 0.002461709 0.0034084106 -0.0049268818

layers.1.0.weight f4 [128, 256]
00000000: 40a3 b3bd 4688 14bd 4b3b f4bd cdca be3d
00000010: 0cab 90bb 54a1 863c 81e4 333d 51d9 6bbd
00000020: 9a8b cc3c 21db 4d3d 9bcb c2bc 2a03 82bd
00000030: 2c46 a8bd 05b5 f1bb 30d1 f63d 914a c3bd
00000040: 5985 7c3d ce34 233d 809f 5ebb 6b74 443c
00000050: 87b4 493e 1755 6d3c f624 b03d 3427 29bd
00000060: c27a 153d fa98 3ebd 5651 ae3d 7b5d 4e3d
00000070: 4cd6 1fbd 74fb 89bd fd85 8fbc bc80 af3c
00000080: 7a0c bf3b 8736 2c3e 83f9 1a3d 96a2 e93c
00000090: 27b7 793d 071d a03c c554 0e3e 8daf d53d
000000a0: 41a5 b83d 83bd 863d d85c 98bb 0d14 183e
000000b0: c37e bf3d e10b e6bd 7285 d0bd 3312 19bd
000000c0: 2731 23be e412 273d a3fc 0cbe 9be1 fdbd
000000d0: d814 d53d 66ad 1c3e 9025 2dbd 7a35 56bd
000000e0: f435 04bd 7067 583e f718 d53d 5d3d e63d
000000f0: aed0 5ebc 0dcf ec3d 6c40 83bd b6db c7bc
00000100: e455 21be 4c0c 623d d064 af3d 0272 dbba
00000110: 6b8d cb3d 9c0d 28bd e704 cabd f850 343e
00000120: 081c 813c 3eba 093d 6523 07be dd7d 9a3b
00000130: 3031 81be adc0 433c 9ab7 c83d 5c5d f23a
00000140: 2048 f3bd 2b21 adbd 15eb 2e3c 25a7 bbbc
00000150: b07b a3bd a508 343d ee15 bb3d a5d4 93bd
00000160: 14c2 963d b2df 86bb deb0 85bd 59b1 6cbd
00000170: 4129 f2bd 0fa9 17be 79b2 d93d f2d8 053e
00000180: 2486 863d 072c 4b3c a3f8 b33d c99c 7dbd
00000190: 96a3 e13c 54d0 23be 04c5 3c3c 1e47 fa3c
000001a0: 8122 0f3e 28b4 743e 760f c7bc a152 53bb
000001b0: 9467 fb3c 748a 6a3d 525d 383e b064 333d
000001c0: 5473 24be bde2 c43d 9605 eebc 6b7f 733e
000001d0: c54b aa3d 5f62 67bd 52c2 843d ecae 823d
000001e0: 3473 c53d 280d 1fbd a75a 123d 9751 43ba
000001f0: 835e 74bc a175 93bc 6756 0d3e 10c8 0e3e
00000200: 2584 333b 24b3 503e 3820 93bc 8210 04be
00000210: 12b0 f93d abd3 65bd 51ce 223c b6f5 da3d
00000220: df0b 2e3d 297c 5fbc cf80 97bc 6110 163d
00000230: 6306 c63d 70d3 77bd ab92 a63d 9f83 623d
00000240: 654f 4d3c ebe1 8fbc 4d5a f93b 7610 3abe
00000250: c83b f33d 8eac 43bb e652 7e3c 5c51 9abd
00000260: dbee 6f3d e9ef ebbc 64e7 b23c 547f ef3d
00000270: cd0d e8bc d08e 573c aeb9 edbd b620 b23d
00000280: b920 11bd a110 a1bd 7f89 3fbe 32dd 96bd
00000290: 263a a3bd 298c 153d 3157 b6bd a107 1bbe
000002a0: f34b 163c 1a90 0bbd 574a 6e3d 307f 0fbd
000002b0: 7bdb 5b3b 7119 81bc c92a 5a3d f4ff 6cbd
000002c0: 37b0 98bd 1197 46bc 11e6 46be a35d 2dbd
000002d0: dff5 873c f7d2 b2bd 8604 babc 2310 5abd
000002e0: 2ff8 c4bd e932 09be b4b3 4f3d ba1e febd
000002f0: 583d 6a3d 3804 713c 7c09 1bbe 6df3 b83d
00000300: 9249 003e 03a9 9ebd 10c3 b7bd d217 7dbd
00000310: 5697 a0bd ace1 04be 8286 c63d 5140 503d
00000320: 16ef cebd 5199 203e 9d4b 353d df96 e73c
00000330: c95f 1bbe d5c5 2ebd e181 cc3a 3918 c2bd
00000340: 3aa1 eb3d cee3 8ebd 3de5 883d d65d 413c
00000350: 81e7 28bc 5296 333d 071b c83c 838f 8e3b
00000360: 9f3f 683c 1691 fd3c c25d 58be da12 43be
00000370: d182 633d 8f5e 79bc 4af9 75bc 5354 0d3e
00000380: 5e41 093d 4fe9 09be a11d 743d af36 59bc
00000390: a21b 94bd c704 0fbd 41b4 f2bc 574b 3abc
000003a0: 2a88 bebd ee59 0cbe d63a 243e 75f0 1d3c
000003b0: a031 b43d e913 15bd 3530 4b3d e8f5 673d
000003c0: 05b8 4a3d b35e bcbd bfde 2a3d e48c ba3d
000003d0: 5410 7c3c a2f2 6bbd a136 d6bc 8783 e13d
000003e0: fcaa ba3d 6b0b 8b3d 43da cf3d aae4 363c
000003f0: e0f9 433d fda7 793e 5954 0abd 829a 103e
-0.08771372 -0.036262773 -0.11925372 0.09316025 -0.0044149216 0.01643435 0.04391909 -0.057580296
0.024968911 0.050257806 -0.023778727 -0.0634826 -0.08216509 -0.0073763155 0.12051618 -0.09535707
0.061650608 0.03984528 -0.003396958 0.011990647 0.19697772 0.014485619 0.086008 -0.041297153
0.036494024 -0.04653261 0.08511607 0.05038212 -0.03902273 -0.06737414 -0.017519945 0.02142369
0.0058303447 0.16817676 0.03783561 0.02851991 0.060965683 0.019545091 0.13899525 0.10433874
0.09015895 0.06579115 -0.0046497397 0.14851399 0.0935035 -0.112327345 -0.10181703 -0.03737087
-0.15936719 0.0407895 -0.13768248 -0.123965465 0.10404366 0.15300521 -0.04227215 -0.052297093
-0.032278016 0.21133208 0.10405152 0.11242173 -0.013599558 0.11562929 -0.06408772 -0.024396759
-0.15755421 0.05518751 0.0856415 -0.0016742351 0.09939083 -0.041028604 -0.09864216 0.17609012
0.015760437 0.03362488 -0.13197096 0.004714711 -0.2523284 0.011947793 0.09800644 0.0018490958
-0.11878991 -0.08453592 0.010676165 -0.02290685 -0.07982576 0.043953557 0.09135042 -0.07218293
0.07361236 -0.004116022 -0.06527875 -0.05778632 -0.11824275 -0.14810584 0.10629744 0.1307104
0.06568554 0.012400634 0.08787658 -0.0619171 0.027543824 -0.1599744 0.011521582 0.03055149
0.13978006 0.23896849 -0.024299365 -0.0032245296 0.030689038 0.057260945 0.18004349 0.043797195
-0.16059619 0.096135594 -0.029055398 0.23779075 0.08315233 -0.0564903 0.06482376 0.0638102
0.09641114 -0.038830906 0.035730984 -0.00074508175 -0.0149151115 -0.018000426 0.13802491 0.13943505
0.0027391997 0.20380837 -0.017959699 -0.12896922 0.12191786 -0.056110065 0.009936885 0.10691397
0.04249179 -0.013640442 -0.018494038 0.036636714 0.09669187 -0.060504377 0.081334434 0.055301305
0.012531136 -0.01756378 0.0076096416 -0.18170342 0.11876637 -0.002985749 0.015522694 -0.07535049
0.0585774 -0.028800922 0.021838851 0.11694208 -0.028326893 0.013156608 -0.11607681 0.08697645
-0.035431597 -0.078645 -0.18704794 -0.073664084 -0.07970075 0.03651062 -0.08903349 -0.15139629
0.009173381 -0.034072973 0.058176365 -0.035033405 0.0033547569 -0.015759202 0.05326346 -0.057861283
-0.07455485 -0.012120978 -0.19423701 -0.042325627 0.016596733 -0.087316446 -0.022707235 -0.053238045
-0.0961765 -0.13398327 0.050708488 -0.124082044 0.05718741 0.0147104785 -0.15140337 0.09030805
0.12528065 -0.0774708 -0.08972752 -0.061790295 -0.07841365 -0.12976712 0.09693624 0.050842587
-0.10104196 0.15683486 0.044261564 0.028270183 -0.15173258 -0.042669136 0.0015602672 -0.09477276
0.11505361 -0.06977044 0.06684349 0.011802157 -0.010309101 0.04384453 0.02442695 0.004350604
0.014175325 0.030952971 -0.21129516 -0.1905016 0.055544678 -0.015220298 -0.015013048 0.13801698
0.033509605 -0.13467906 0.05959857 -0.0132576665 -0.07231833 -0.034916665 -0.029626967 -0.0113705015
-0.09303315 -0.1370618 0.16038069 0.009639849 0.08798528 -0.03639594 0.04960652 0.056631
0.0494919 -0.0919775 0.041716333 0.09108904 0.015384752 -0.05760444 -0.026149096 0.11011415
0.09114644 0.06789287 0.10149052 0.011162916 0.04784572 0.24380489 -0.033771846 0.1412144

layers.1.1.weight f4 [128]
00000000: b69b 803f e0c5 7e3f eaf7 7e3f f24e 803f
00000010: 9f5c 803f 4985 803f 6bf3 7e3f f3e4 7f3f
00000020: 6c5b 803f b6fc 7e3f d6cf 7f3f b146 803f
00000030: 962b 803f 8a09 803f 7392 803f 1d47 7f3f
00000040: c32c 7f3f adb2 7e3f 0e94 7f3f 04a8 803f
00000050: 4d68 7f3f 5539 803f 866f 803f e4d0 7f3f
00000060: 089c 803f 862a 7f3f 83a7 7f3f 4a5a 803f
00000070: 86ae 7f3f e9df 7e3f 93ad 7f3f f5ad 7e3f
00000080: 0821 7f3f b136 7f3f 6ca7 7e3f 858b 803f
00000090: ed94 803f e611 803f 1c62 803f f38d 803f
000000a0: 7da7 7e3f d508 803f d537 7f3f 9b0d 803f
000000b0: eb73 803f d62c 803f 597a 7f3f 4f2e 803f
000000c0: 889d 7f3f ad3b 803f 228c 803f c211 7f3f
000000d0: 1bc3 7f3f 08af 7f3f 7160 803f d920 803f
000000e0: 6e2c 7f3f 0f29 7f3f 3c3f 803f d835 803f
000000f0: c0c0 7f3f de6f 803f 7521 803f 2dba 7e3f
00000100: b0f1 7e3f 1d65 803f 8d65 803f 5f13 7f3f
00000110: 10d7 7e3f 2b72 7f3f c3e6 7f3f 1bef 7f3f
00000120: 9f92 7f3f d804 803f 6c57 803f 15a3 7f3f
00000130: a00a 803f 5865 7f3f 29d3 7f3f 0d33 803f
00000140: 71f8 7f3f 0060 7f3f b089 7f3f b893 803f
00000150: 7652 7f3f cd5f 803f 6c40 803f 3845 803f
00000160: 4f36 803f 676c 803f 886c 7f3f 7b87 803f
00000170: ae36 803f e47d 803f 7ba2 803f c434 803f
00000180: af35 7f3f 0c77 7f3f ebe9 7f3f 4bb3 7f3f
00000190: 2513 803f 7033 7f3f 2cac 803f 4b7a 803f
000001a0: 6fb2 7f3f a399 7f3f c860 7f3f 0478 803f
000001b0: c91f 803f 35ab 7f3f 108e 803f 0e04 7f3f
000001c0: 53e1 7e3f dad4 7f3f f755 803f 647d 803f
000001d0: d525 7f3f cfe7 7f3f 9d04 803f deb6 803f
000001e0: e399 803f d4ce 7e3f eb67 7f3f ef96 7e3f
000001f0: 92ca 7e3f 9144 803f cfb5 7f3f 3560 803f
1.0047519 0.99520683 0.99597037 1.0024092 1.0028266 1.0040675 0.99590176 0.99958724
1.00279 0.99604356 0.9992651 1.0021573 1.0013301 1.0002911 1.0044693 0.99717885
0.99677676 0.9949139 0.9983529 1.0051274 0.99768525 1.0017496 1.0034034 0.99928117
1.0047617 0.9967426 0.9986498 1.0027554 0.99875677 0.9956041 0.9987423 0.9948419
0.99659777 0.9969283 0.99474216 1.0042578 1.0045449 1.0005462 1.0029941 1.004332
0.99474317 1.0002695 0.9969457 1.0004152 1.0035375 1.0013683 0.9979606 1.0014132
0.9984975 1.0018212 1.0042765 0.9963647 0.9990708 0.9987645 1.0029432 1.0010024
0.9967717 0.99672025 1.0019298 1.0016432 0.9990349 1.0034139 1.001021 0.9950283
0.99587536 1.0030857 1.0030991 0.9963893 0.9954691 0.9978358 0.9996149 0.9997422
0.998331 1.0001478 1.0026679 0.9985822 1.0003242 0.99764013 0.9993158 1.001558
0.99988467 0.9975586 0.9981947 1.004508 0.997352 1.0029236 1.001966 1.0021124
1.0016574 1.0033082 0.9977498 1.0041345 1.0016687 1.0038419 1.0049585 1.0016103
0.9969129 0.99791026 0.99966305 0.99882954 1.0005842 0.9968786 1.0052543 1.0037321
0.99881643 0.99843806 0.9975705 1.0036626 1.00097 0.99870616 1.0043354 0.9961556
0.9956257 0.9993416 1.0026234 1.0038266 0.996671 0.99963087 1.0001408 1.0055807
1.0046962 0.99534345 0.9976794 0.99449056 0.9952785 1.0020925 0.9988679 1.002936

layers.1.1.bias f4 [128]
00000000: e27a 363b 4ea1 01bb 595f 98bb e712 6b3b
00000010: e08e 7d3b 3068 a13b cd22 47bb 7d5a 18ba
00000020: a9dd 753b ab7f 503b 4646 c63a 64b5 b53b
00000030: 7e1c 603b cfe2 d4ba dd46 a2ba d1cf 0dbb
00000040: 978d 4bbb 1571 77bb 355f 4abb ee1c 823b
00000050: 763c 6d3a 2657 e93a 4fdb c73a 635c 14bb
00000060: e384 0a3a 2591 00bb b187 9a3a c9af 813b
00000070: 7048 1a39 aff3 b53a e18e 073b 1e53 a6bb
00000080: aa76 f6ba 7fc3 453a b566 c0bb 9c15 3f3b
00000090: 7ed9 3d3b e5fd 813b a17d 223b 32bb 283b
000000a0: 2774 b9bb 75d4 82ba 1146 b0bb 9cad 663b
000000b0: 991f 463b 8a40 85b9 680a c0b8 00ff 0a3b
000000c0: 8050 9a39 e49e 8f3a e643 783b 69f2 a5bb
000000d0: 0e30 223b 5028 f83a a9ad ab3a 0da2 b9ba
000000e0: 1e6e 63bb e5b9 5a3a 2039 0cbb 8980 21bb
000000f0: 3a77 e2b9 ae44 a93b 5917 803a 9fdf 19bb
00000100: d1af 40bb 29bb 6a3b f414 573b 2ac3 5cbb
00000110: 41b1 7dbb 8059 3cbb 1df6 653b b532 8eba
00000120: 0877 7339 b49e 383a c418 c23a 1dd4 f6ba
00000130: c8f8 85bb 5093 8fba 21d7 97bb c6e9 9d3a
00000140: ac41 ac3a 6ddc 61bb ff12 9cba 568c 203b
00000150: 28aa 70b9 7544 383b 00da 703b 296a 6fba
00000160: 8143 2c3b f380 7a3a eab9 fb3a be38 d33a
00000170: 8191 243a 0031 5f37 0d24 da39 a4bf 893b
00000180: 8aec 9cbb 379e 22bb 5c06 313b 3f80 653b
00000190: 5ca8 553b c8b9 a7ba 16be 72bb ecb3 233b
000001a0: a50e 7bbb 9fe3 92ba df07 72bb 9440 8f3b
000001b0: 3ed2 1f3b 2beb 89bb 477d 893b d348 93bb
000001c0: 1a3b 6bba 6424 5aba 8a90 1c3b 787c 693b
000001d0: bad7 333b c408 ccba f62f a23a aa7b e53a
000001e0: 747c 4f3b 1251 53bb c66d 27bb e5da aabb
000001f0: 2e2e 6fbb f901 613b de70 a8b9 08b4 d838
0.002784424 -0.0019779983 -0.004650038 0.003586942 0.0038689896 0.00492575 -0.0030385733 -0.00058118236
0.0037516153 0.0031814377 0.0015127144 0.005545305 0.003419667 -0.0016241911 -0.0012380738 -0.002163876
-0.0031059736 -0.003775661 -0.0030879502 0.003970734 0.0009049842 0.0017802462 0.0015247854 -0.0022638075
0.0005284084 -0.0019617763 0.0011789707 0.003957723 0.0001471357 0.0013881827 0.0020684528 -0.0050758263
-0.0018803675 0.0007544085 -0.0058716186 0.0029157167 0.0028968747 0.003967034 0.002479412 0.0025746343
-0.0056595984 -0.000998153 -0.0053794463 0.0035198694 0.0030231236 -0.00025415822 -9.157212e-05 0.002120912
0.00029433146 0.0010957387 0.0037882267 -0.005064298 0.002474788 0.0018932912 0.0013098019 -0.0014162675
-0.0034703086 0.00083437405 -0.0021396354 -0.0024643263 -0.0004319491 0.005165658 0.0009772583 -0.0023479236
-0.002940167 0.0035817123 0.0032818886 -0.0033685663 -0.0038710388 -0.002873987 0.0035089322 -0.0010848852
0.00023218628 0.00070426916 0.0014808406 -0.0018831525 -0.004088495 -0.0010953937 -0.0046337997 0.0012047819
0.001314213 -0.003446366 -0.0011907517 0.002449771 -0.00022951572 0.0028116975 0.0036751032 -0.00091329456
0.0026285353 0.0009555958 0.0019205187 0.0016114933 0.0006277785 1.33032445e-05 0.0004160706 0.0042037535
-0.00478894 -0.0024813542 0.0027011847 0.0035019068 0.003260157 -0.0012796456 -0.003703957 0.0024979068
-0.003830829 -0.0011206752 -0.003693096 0.004371712 0.0024386789 -0.0042089424 0.0041958424 -0.0044947653
-0.00089733454 -0.00083214627 0.0023889863 0.0035627168 0.0027441815 -0.0015566577 0.0012373913 0.0017508168
0.0031659873 -0.0032244367 -0.0025547608 -0.0052140825 -0.003649603 0.0034333451 -0.0003212755 0.00010333216

layers.2.0.weight f4 [64, 128]
00000000: afcc 433e 93b6 1abd 5be3 03bd e72e e1bd
00000010: aec0 80bc 592d b83d 0e36 ae3d aa68 0dbe
00000020: d3f7 5fbe fc56 1c3e b1a2 063e c5d2 6cbe
00000030: a930 52bd 6a91 12bc 85b3 7dbd 14fa 0bbe
00000040: 4862 b2bc fd58 1dbe dd16 a03c d262 c3ba
00000050: aa41 9a3d 3018 6dbe 8206 053d cbbd 453e
00000060: fbe0 79bd 8d7f fa3d 4b98 d0bd a1c2 b9bd
00000070: 1c13 20bd 3fa5 a13d 579c 043e 9a3e 2b3e
00000080: 82d5 9abe dea0 7abb 9773 823e 54b1 0c3d
00000090: b75a 8d3e 756a a03d 1a59 d2bc 1391 c53b
000000a0: 2842 1b3e b601 e3bd 7743 0a3d 89a1 dabd
000000b0: e3c1 093e 89d9 41be a455 eb3d 123e e53d
000000c0: 819f 53be e15e f33d 1296 fdbc 7bf1 17be
000000d0: 89eb 0dbe e274 e03d 245f c0bb e388 ab3e
000000e0: ba36 38be 5d99 1abc 091d bf3c f5b6 0fbd
000000f0: 5c29 443d 2833 c43d b5c7 073d df8b 16bb
00000100: 9eab f23d 15d7 87be 93d3 f3bd 600c 06bd
00000110: 0963 39bd 3858 8d3d 901d 1bbe 5941 ab3c
00000120: 79e6 09be a565 85be 9333 183d 0b73 53bd
00000130: 387e dc3c 9be1 af3b 6adb 543e b52e a4be
00000140: 356b 9f3e 6307 183e 5304 9e3d f48b 933b
00000150: 72d1 223e 8ef8 71be 6670 153c be8b 01bc
00000160: 904e e93c 362f fe3d dbfd 02be 86c1 5d3e
00000170: 1c54 0dbe f123 8b3c 22ab 38be b64d d83d
00000180: 0a00 803d 6423 e4bd 286d 5bbe a52f 15be
00000190: 8c5a f5bd b239 8e3e 2b48 97bd 3f72 113e
000001a0: cea5 0d3c aae7 a3bd 9b5b babb a648 8f3e
000001b0: 7dbf b03e 3cf9 f73d e2f5 dbbd ddeb 41bd
000001c0: 33a8 7f3e ad3e 2ebe 486c a23d 15d8 2d3e
000001d0: 076d 3fbd a140 47bd c1f6 933c 5432 723b
000001e0: 0d0b e23d f978 ecbd 3290 733d b61f 483e
000001f0: 69fa acbc 98eb b1be e8ef 62be 61ad 66bd
00000200: 782c 65bd 8ef0 da3d c708 833d 4faa bbbd
00000210: d235 c8bd 145e 90bd 195d 6abd 3cf1 ff3d
00000220: 07a3 753e 84f0 653d 758b e5bd 6b4d c8bb
00000230: 7de6 453e f0e8 403e a857 8ebd de2c 313d
00000240: 96b0 f13c 5043 3f3d ca4e 713e a149 643e
00000250: eb50 82be 33ac 0ebe b6a8 673c 7619 ab3c
00000260: f220 93bc df9d 5bbe bf83 283d 5086 9fbe
00000270: 426c 763e 4fcd dc3d cf9f dd3d c4d4 ecbd
00000280: 7db4 d93d 9678 b0bd 1e8d e2bd 49b9 81bd
00000290: 8417 03bd 27cb 94bd 115c 213e 7dbe fabd
000002a0: a80b 163b 7747 a63c b0ba fdbd 8928 223e
000002b0: 6a20 37bb 8a3d ed3d 1fe4 a23d ea26 16bb
000002c0: 14dd a83d 6fed ac3d 795f 533e be18 3bbe
000002d0: 7bc4 873d e84f edbc 4336 c13d 87df 373d
000002e0: f6e8 193e 4633 2fbc 3956 e33d 558b a23c
000002f0: 4865 033d 0338 b3bd 048d 023e 3a69 75bd
00000300: 52df 34bd 3242 733e 2f43 bd3d 9044 523d
00000310: 81f3 b4bd 83ca b8bd 148c 043e c3ec 2cbe
00000320: b221 01bd 8975 86bd 704c db3d 37d8 103e
00000330: 6737 09be 20c6 fb3d 033e 2fbe 41fd 293d
00000340: 1a83 43bd 762a 49be 73dc 6e3d ccd7 113d
00000350: 0437 acbc 0e16 fa3c 411b 943d 328f 52bc
00000360: 5cd2 943b ed85 1ebe 3827 d63d 9cd7 5a3e
00000370: 631d 293e 7dee 073e 82af 21be 17ac 3a3e
00000380: 19eb a1bd dd3f 1ebd ea3d 243c 0813 10bd
00000390: 0b6c 55be 296f 54be 0b23 513d f07a 1cbe
000003a0: f3d0 66bd f064 a13c c9f8 0abc e47e 083e
000003b0: 7424 e23c 7147 f83d d514 0abd 5b36 9b3d
000003c0: 1c13 bf3d f7c0 373e 55af 72be 054c 253e
000003d0: c1e8 b63d f3b1 8b3c d625 a23e f298 74be
000003e0: eab9 aa3d 2092 5abd 43d7 d2bc 5d97 d63d
000003f0: 49a9 243e cd3c e9bd 540f 0b3d 2920 123d
0.1912105 -0.037771773 -0.032199245 -0.10995274 -0.015716877 0.089930244 0.08506404 -0.13809457
-0.21871881 0.15267557 0.13148 -0.23127277 -0.051315937 -0.008945802 -0.06193878 -0.13669616
-0.02177538 -0.15365978 0.019542152 -0.001490677 0.07532056 -0.23153758 0.03247691 0.19310682
-0.061005574 0.1223136 -0.101852976 -0.09070326 -0.039080724 0.07892846 0.12950264 0.167231
-0.3024102 -0.0038242857 0.25478813 0.0343488 0.27608272 0.07832805 -0.025677253 0.006029257
0.15161955 -0.11084311 0.033755746 -0.10675342 0.13452868 -0.1893064 0.11490944 0.111934796
-0.20666315 0.11883331 -0.030955348 -0.14838211 -0.13859381 0.109597936 -0.0058707166 0.33502874
-0.17989627 -0.009435979 0.023329275 -0.03508659 0.047891006 0.0958007 0.03314944 -0.0022971553
0.1184914 -0.26531282 -0.11905589 -0.032726645 -0.045260463 0.06901592 -0.15147996 0.020905184
-0.13466825 -0.2605411 0.03715856 -0.051623385 0.026915655 0.0053674704 0.20786825 -0.32066885
0.3113648 0.14846568 0.077156685 0.0045027677 0.1590021 -0.23629972 0.009121036 -0.007906852
0.028479844 0.124113485 -0.1279215 0.21655855 -0.13801616 0.016984912 -0.18034032 0.10561697
0.062500075 -0.11139563 -0.21428359 -0.14568956 -0.11980161 0.27778393 -0.07386812 0.14203738
0.008645488 -0.08003171 -0.0056871898 0.27985114 0.34521094 0.121080846 -0.10740258 -0.047344077
0.24966507 -0.17016096 0.07930809 0.1697696 -0.046734836 -0.04864562 0.018061997 0.0036956267
0.11037264 -0.11546511 0.059463687 0.19543347 -0.021115499 -0.34750056 -0.2216183 -0.05631769
-0.05595061 0.106904134 0.063981585 -0.09163343 -0.097758904 -0.07049194 -0.05721769 0.12497184
0.23987971 0.056137577 -0.1120824 -0.0061127446 0.19326206 0.18838859 -0.06950313 0.04325568
0.029503148 0.046695054 0.23565212 0.22293712 -0.2545236 -0.13932876 0.014139345 0.020886164
-0.017960045 -0.21446942 0.041141268 -0.3115716 0.24064735 0.10781347 0.10821497 -0.11564019
0.106301285 -0.0861675 -0.11062072 -0.063341685 -0.032004848 -0.07265311 0.15757777 -0.12243364
0.0022895131 0.020297749 -0.123891234 0.15835775 -0.0027942904 0.11584003 0.07953667 -0.0022911378
0.08245292 0.08443724 0.20641889 -0.18271157 0.066292726 -0.028968766 0.09434178 0.044890907
0.15030274 -0.010693377 0.1110043 0.01984183 0.03207901 -0.08750918 0.12749106 -0.059914805
-0.044158287 0.2375572 0.0924133 0.051334918 -0.08835507 -0.09023001 0.1294406 -0.16887192
-0.031526275 -0.06565387 0.10707939 0.1414498 -0.1340004 0.12293649 -0.171135 0.041501287
-0.04773245 -0.19645104 0.058315706 0.03560619 -0.021022327 0.030528095 0.07231761 -0.012851523
0.0045416784 -0.15480776 0.10456699 0.21371311 0.16515116 0.1327457 -0.15789607 0.1822971
-0.079061694 -0.038635124 0.010024527 -0.0351744 -0.20841996 -0.20745529 0.05105881 -0.15281272
-0.056351613 0.019701451 -0.008482167 0.13329655 0.027605273 0.12123001 -0.033711273 0.07578727
0.09329817 0.17944704 -0.23699696 0.1614228 0.08931113 0.017052626 0.31669492 -0.23886469
0.083362415 -0.053362012 -0.02573741 0.10478089 0.16080202 -0.1138855 0.033950165 0.0356752

layers.2.1.weight f4 [64]
00000000: 4b3b 803f 690b 803f 3767 803f 7841 803f
00000010: 1526 803f 9928 803f 8d95 7f3f 837d 803f
00000020: 89b2 7f3f 0021 7f3f 7f89 7f3f d202 803f
00000030: 928d 7f3f 3e92 803f 4002 7f3f 3d77 7f3f
00000040: 7841 803f 331e 7f3f 72f7 7e3f 3035 803f
00000050: f294 7f3f d9cf 7f3f 2e2d 803f d78e 803f
00000060: 5510 803f f33f 803f 0232 803f d625 803f
00000070: de66 803f aabc 803f 7d72 803f 805f 803f
00000080: de3a 7f3f 155d 7f3f f672 803f a101 803f
00000090: d65a 7f3f aa7f 803f 6a45 803f c237 803f
000000a0: d79c 803f b1db 7e3f e9c5 7e3f ca62 7f3f
000000b0: 2f1e 803f 74b9 7f3f 62da 7e3f 7a52 7f3f
000000c0: db35 7f3f bd17 803f 7b57 803f 4ccf 7f3f
000000d0: 6ec3 7f3f ac40 803f a904 7f3f 7728 803f
000000e0: 3f06 7f3f 2fdf 7e3f bc96 7f3f 5dd3 7f3f
000000f0: b626 7f3f ffc3 7f3f 4059 803f 07bb 7f3f
1.0018095 1.0003482 1.0031499 1.001998 1.0011622 1.001239 0.9983757 1.0038303
0.998818 0.9965973 0.9981918 1.0000861 0.99825394 1.004463 0.9961281 0.9979132
1.001998 0.99655455 0.9959632 1.0016232 0.9983665 0.99926525 1.0013788 1.0043591
1.0004984 1.0019516 1.0015261 1.0011547 1.0031393 1.0057576 1.0034939 1.0029144
0.996992 0.99751407 1.0035083 1.0000497 0.9974798 1.003896 1.0021183 1.0017016
1.0047864 0.9955397 0.99520737 0.99760115 1.0009211 0.99892354 0.99551976 0.99735224
0.9969155 1.0007244 1.0026697 0.99925685 0.9990758 1.0019736 0.99616486 1.0012349
0.99618906 0.995593 0.9983938 0.9993189 0.99668443 0.9990844 1.0027237 0.99894756

layers.2.1.bias f4 [64]
00000000: 586d 3cba 16a5 9cba e048 7538 aa13 be3a
00000010: a724 1d3b 5e50 1a3b 6266 38ba b21f 5b3b
00000020: 2237 11ba 5975 51bb 2211 1dbb 7f77 2e3b
00000030: 972b e9ba 37a8 863b 5e4f 69bb c2ca 9fba
00000040: e80a af38 7ae7 f8ba 019c a7bb 62fa aa3b
00000050: 41fc 23bb 4c5a a33b 1821 443a 14db 89bb
00000060: 2002 3c3b b344 603b 0381 ef3a 5919 9c3b
00000070: eeaa 84ba 3cd0 a63b 20f2 903b 285b 603b
00000080: b12d 45bb e5c9 d1ba 6845 5d3b 9ed7 3d3a
00000090: abaa 3db9 3b0f 8f3b 5811 8cba f8b2 023b
000000a0: 4f2e bc3b 8c39 83bb 5ec3 66ba 00b6 473b
000000b0: ff43 8dbb da13 31bb ee79 bfba 3278 583b
000000c0: e80c 2138 fa5c 913a 0e97 ee3a d16b 5bbb
000000d0: 106e 6cba aae7 363a c30e 69bb a9ff f33a
000000e0: 9e4c 88bb 993b 81bb 1e0f 323a d335 b23a
000000f0: 4243 37bb 28b9 623a 45d9 92ba 07ac 01ba
-0.00071879243 -0.0011951055 5.8480422e-05 0.001450171 0.0023978145 0.0023546438 -0.0007034299 0.003343564
-0.00055395265 -0.0031960814 -0.002396651 0.0026621518 -0.001778948 0.0041094082 -0.0035600285 -0.0012191164
8.346682e-05 -0.0018989884 -0.0051150327 0.0052178362 -0.0025022181 0.0049851295 0.0007481738 -0.0042070244
0.002868779 0.0034220635 0.0018272701 0.004763764 -0.0010121742 0.0050907414 0.004423395 0.003423402
-0.0030087049 -0.0016005604 0.0033763293 0.00072419073 -0.00018088023 0.0043658293 -0.0010686321 0.00199431
0.005742825 -0.004004663 -0.00088029157 0.003047347 -0.0043110843 -0.002701989 -0.0014608481 0.0033030626
3.839741e-05 0.0011090331 0.0018202977 -0.0033481012 -0.0009019086 0.00069772697 -0.0035561777 0.0018615621
-0.004159524 -0.003943872 0.0006792414 0.0013596363 -0.0027963673 0.0008648806 -0.0011203667 -0.00049465935

layers.3.0.weight f4 [32, 64]
00000000: d3e5 a6bd bbba 883e b21e 65bd 3604 0dbe
00000010: 5aea 5e3c 0947 47be f7da a03e 630e 6dbe
00000020: 13ae 3cbe 78e5 323e e734 5c3e f677 14be
00000030: 21a9 ec3c b9be 8b3d f1e2 5dbe f5cf 453c
00000040: 2c79 c3bd 0e4b b6bd 0229 73be 91d1 4abd
00000050: 72d2 4d3e 8b6f aebd b76f 22be f5f6 9e3e
00000060: 643f 46be 2d30 b23c 4c2e 2bbe 20f0 63be
00000070: 68c9 343b fb33 2e3e 226f c53d 2f75 813d
00000080: 0a68 b13d 6d1c 093c 41a6 213e 89df 0fbd
00000090: a0a0 8c3e 5103 e4bd 067b 92bd c196 093e
000000a0: e4b2 2f3e bd75 52bd 4492 77bd 9ad4 463e
000000b0: aae7 94bd 1cbf 9ebc ebd4 063e 9f5a 283b
000000c0: e927 eebd 8ccd a2bd 5c7b 7f3d 2342 83bd
000000d0: b3bc 193e f12d 8fbd 3c41 513d 1a42 533e
000000e0: ead9 c63d 0c2e 423d 04b0 ddbc 9f09 b93d
000000f0: 26b7 af3d ea55 063e a4db 8a3c 4166 88bd
00000100: 122e f8bd 7ebf 823e 4744 523e 3e93 1f3e
00000110: aac2 cd3d a392 5e3e 45f0 5a3d 8a12 6a3d
00000120: c412 be3e 9450 a93d 01ab 31be b8ec b63e
00000130: 98bb 463e 2d31 133d b9e6 29be 983d ae3d
00000140: bea8 1e3d a2b8 8abe b928 593e f09e c1be
00000150: da14 863e e2f5 81be ce85 d63d 6739 6d3d
00000160: cacf 5a3e 9c90 ce3d f03a 1abe eb36 203d
00000170: c71c 33bc 9f86 92bd 2120 0dbe fb4c 4cbe
00000180: a236 1a3e bb12 573c 2904 3bbe 40bb ba3d
00000190: 7504 75be 4771 62be 9cb7 80be 1834 50bd
000001a0: 92ee a83c 9589 45bc de11 e9bc db21 4f3e
000001b0: 4e79 393d 60b6 e13e 8a71 153c 762b 12be
000001c0: 178f 3f3e 69a4 993d 8373 60bd 4f05 733c
000001d0: 07d3 8ebc 51b2 94bd 508a 01be 8c8c 29bc
000001e0: a464 253e 3576 1b3d cceb 6cbd 74a8 5b3e
000001f0: 9d60 6fbe bb2e b1bd 5469 18be 26a2 c8bc
00000200: 5c56 4cbe 5d59 e33d 550e a03d e67b 6d3d
00000210: b6e1 8fbd 87b2 9dbd b9d9 f93d c686 babd
00000220: 4d5c c43d 24b9 333d 1347 c2be 3f56 a6be
00000230: 7f89 1bbd 8c74 fdbd 9658 873c 0c76 fc3d
00000240: a63d 33bd 8eec c4bc f167 2e3d 7c1a ac3e
00000250: 5e7e 443e 6db0 e6bd 27a1 b5be 31ee 17bd
00000260: 3ec2 5fbe b3e4 ac3c 0a37 89be 430c 43be
00000270: 6b71 443d 71f9 c93d 30ac 70be daa5 dd3d
00000280: 9169 dcbd cb84 ba3c 6819 f33d cd10 90bd
00000290: b41d ef3d 1ba0 4a3e c151 0d3e 76e3 bebd
000002a0: 8024 5e3d 9e27 9fbe 1c06 d6bd 8b8c 09be
000002b0: eca3 84be 823e 133e 15bf a23d ded1 70bd
000002c0: 0bca 99be 75fa a73e c603 78be 5293 02be
000002d0: 2609 293d 3ff1 65be 5db8 9e3e b51a afbe
000002e0: 46eb 52be 013a 6c3e 2738 73bd 631a 94bc
000002f0: 0d5b acbe 26ff 49bd 34aa d13d f400 eb3d
00000300: b46c e63d d85e 3c3e cfcb d1bd 9d07 ca3c
00000310: 8d08 bebc 0cf8 d7be c31d a0bc 44dc 6dbe
00000320: 810f 8f3c 6434 9d3e 7801 563e e51e 923e
00000330: a529 653e 46fe a83d 4ba8 863d a1c0 013e
00000340: 7a93 81bd a8bd 1abe 8056 20be 39f1 01be
00000350: f06b dcbd 9887 bebe 9c83 37bd 654f cc3d
00000360: 1675 593c fa14 4d3e 7692 49bc 26d8 a1be
00000370: c0a1 433e 1dc6 8cbb 8a60 553d ac27 a33d
00000380: bdd1 d3bd cff1 373e 7e30 d73c 7b47 30bd
00000390: 6c16 a03d d497 9cbd 8e3a 8dbd ce65 28bd
000003a0: 9d96 4c3d 5c65 e53d e97c 35be 31ac 5b3e
000003b0: 8fe8 403e 58f2 c53e c5e6 503e 3eb2 003e
000003c0: a7be 853d 9571 c33c d9ac c5bd 9e8f f53b
000003d0: 98fe beb8 04d8 15bd f6c0 b3bd 8f47 a7bd
000003e0: 27e9 b7bd 386d 2ebe 3df9 75bc 9279 273e
000003f0: 45dc f63d 9c0e ed3d 34ad 91bd c868 92bd
-0.08149304 0.26704964 -0.055937476 -0.13771138 0.013605678 -0.19460692 0.31417057 -0.2315002
-0.18425779 0.17470348 0.21504556 -0.14498886 0.02888924 0.06823487 -0.21668603 0.012073507
-0.09544596 -0.08901034 -0.23746112 -0.049516264 0.2009981 -0.08517369 -0.15862928 0.31047788
-0.19360119 0.021751488 -0.1671688 -0.22259569 0.0027585868 0.17012016 0.096403375 0.06321179
0.08662422 0.008368594 0.15786077 -0.03512529 0.27466297 -0.11133445 -0.07152371 0.13436414
0.17158085 -0.051381815 -0.060442224 0.19417039 -0.07270749 -0.019378237 0.1316716 0.002568878
-0.11628706 -0.07949361 0.062373504 -0.06409099 0.1501339 -0.069911845 0.051087603 0.20630684
0.097095326 0.047407195 -0.02706147 0.09035038 0.08579855 0.13118711 0.016950436 -0.066601284
-0.12118162 0.25536722 0.20533858 0.15583512 0.10046895 0.21735625 0.053451795 0.057146586
0.37123692 0.08267322 -0.17350389 0.35727477 0.19407499 0.03593557 -0.1659192 0.08507842
0.038735144 -0.2709399 0.2120694 -0.37816572 0.26187783 -0.25382906 0.1047474 0.05791607
0.21368328 0.10086176 -0.15061545 0.039114874 -0.010932154 -0.07154583 -0.13781787 -0.1995124
0.15059903 0.013127024 -0.18263306 0.09117746 -0.23927481 -0.22113524 -0.25140083 -0.05083093
0.020621572 -0.012056728 -0.028450903 0.20227759 0.0452817 0.44084454 0.009121308 -0.14274392
0.18706928 0.07502062 -0.05479766 0.014832809 -0.01743461 -0.07260574 -0.12650418 -0.01034845
0.16151673 0.037954528 -0.05784206 0.21450979 -0.23376699 -0.08651491 -0.1488393 -0.02449138
-0.19954818 0.11101029 0.078152336 0.057979487 -0.07025473 -0.07700067 0.121997304 -0.09107737
0.095879175 0.043877736 -0.3794485 -0.32487676 -0.037972923 -0.12375745 0.016521733 0.12327203
-0.043759964 -0.02403858 0.042579595 0.33613956 0.1918883 -0.11264119 -0.35474512 -0.03709239
-0.21851441 0.021105146 -0.26799804 -0.19047646 0.047959726 0.0986203 -0.23503184 0.10822649
-0.10762323 0.022768399 0.1187008 -0.070344545 0.11675587 0.19787638 0.13800718 -0.093207285
0.054234028 -0.31084913 -0.10450384 -0.13432519 -0.25906312 0.14379314 0.07946602 -0.058793895
-0.3003696 0.3280827 -0.2422019 -0.1275151 0.04126849 -0.2245531 0.31000033 -0.34200063
-0.20597562 0.23069002 -0.059379723 -0.018078988 -0.33663216 -0.049315594 0.10237542 0.11474791
0.11251202 0.18395555 -0.102439515 0.024661833 -0.023197437 -0.42181432 -0.019545441 -0.23228556
0.017463448 0.30704033 0.20898998 0.28539196 0.22379167 0.08251624 0.06575068 0.12671138
-0.06326957 -0.1511141 -0.15657997 -0.12689675 -0.10762775 -0.37212825 -0.044803247 0.09976081
0.013272544 0.20027533 -0.012302985 -0.3161022 0.19104671 -0.004296078 0.05209402 0.07966551
-0.10342739 0.17963336 0.02626824 -0.04303692 0.07816777 -0.076461464 -0.06895934 -0.041112714
0.049948324 0.112009734 -0.1772343 0.21452405 0.18838714 0.38661456 0.20400532 0.12567994
0.06530505 0.023857871 -0.09652109 0.007493927 -9.107328e-05 -0.03658296 -0.08777039 -0.081679456
-0.08980017 -0.17033851 -0.015013036 0.16354969 0.12053732 0.11575052 -0.07113114 -0.07148892

layers.3.1.weight f4 [32]
00000000: 58a4 7e3f e995 803f e37d 7f3f 9572 803f
00000010: 442e 7f3f 46da 7e3f 5ef4 7e3f 66b9 7e3f
00000020: 6108 7f3f 8c9b 803f 66ae 803f 680d 7f3f
00000030: d63d 7f3f eaa1 7f3f ba4d 803f 666c 803f
00000040: 52a5 803f 0191 7e3f c487 7e3f 5a85 7e3f
00000050: 5fb1 803f 4683 7e3f 22a3 7e3f 6cb4 803f
00000060: 8f8e 803f 9f7f 803f e599 7f3f d68b 803f
00000070: c1f1 7f3f 6312 7f3f f8a9 7e3f 90e3 7e3f
0.9946952 1.0045749 0.9980146 1.0034968 0.9967997 0.9955181 0.99591625 0.99501646
0.9962216 1.0047469 1.0053222 0.9962983 0.9970373 0.99856436 1.002372 1.003308
1.0050452 0.9944001 0.9942591 0.9942223 1.0054129 0.9941906 0.9946767 1.005506
1.0043505 1.0038947 0.998442 1.0042675 0.9997826 0.9963743 0.994781 0.9956598

layers.3.1.bias f4 [32]
00000000: f316 b5bb 467a 8b3b e468 cdba 9b4c 793b
00000010: e741 c3bb 256e a0bb 4a4a 5abb 7fdd 99bb
00000020: 8105 9abb 1c04 a53b 4c38 b33b e8ba 7cbb
00000030: e0cc abbb d816 a7bb 79c7 433b 4671 483b
00000040: 2db9 993b c7c0 c3bb 1cee b5bb b3f0 b0bb
00000050: 5e00 a53b 9f47 c1bb 0fca b2bb 43f3 be3b
00000060: d324 a63b 2170 8d3b c8f0 3ebb 8a9b a73b
00000070: d17a 223b d8fd dd3a eb5e b5bb c83a afbb
-0.0055264174 0.0042565195 -0.0015671519 0.0038040045 -0.005958784 -0.0048959428 -0.003330844 -0.004695594
-0.004700363 0.0050358903 0.0054693576 -0.0038563553 -0.005242929 -0.0050991587 0.0029873534 0.0030585094
0.004691264 -0.0059739086 -0.0055520665 -0.0053997873 0.005035444 -0.0058984305 -0.005456216 0.005827339
0.0050703078 0.0043163453 -0.0029135216 0.0051149772 0.0024792443 0.0016936613 -0.0055349967 -0.0053475834

fc_out.weight f4 [2, 32]
00000000: bec0 b33e 081f 0fbe 0650 a5bd bc3f 95be
00000010: b2bd 033e ec32 8d3c 53c1 bbbe 2e49 d43d
00000020: 2b6e 02be 7aa6 c4be d807 6fbe 023d 9e3d
00000030: 8144 3abe 3034 703e fc5d 89be 09ae 26bd
00000040: 2ed5 aabd 21b8 373e 6c62 723b c697 683e
00000050: 5f94 3fbe 67bb 913d 5f7b ee3d 0f2e 9cbe
00000060: a759 02be d6fe c4be fa22 14be c3ca 13be
00000070: a58f 34be d8a2 4b3d 8ffd 363f 2442 eabd
00000080: f92b c9be f6af 80bd d999 6ebe 718c b0bd
00000090: 2100 abbe c25b 29be b523 05bf a398 ba3c
000000a0: 4400 59be 85a0 84be cbdb 2f3e 5f9d a2bd
000000b0: 7ba4 8ebe b081 7ebd 5123 533e cd2c 393d
000000c0: 8971 4d3e 3b5a 6cbe 4455 96ba 326d 3a3e
000000d0: 75f4 30be 8e23 56bd a47b 04bf 9cac 21be
000000e0: 1c8a 523d ef98 22bd 2302 cebe a418 e83d
000000f0: 6e74 393e 6c6d 973b 4be2 5fbd c241 f9bd
0.35107988 -0.13976681 -0.08071904 -0.29150188 0.12865332 0.017236196 -0.36670932 0.103655204
-0.12737338 -0.38408262 -0.23342836 0.0772648 -0.18190195 0.23457408 -0.26829517 -0.040693317
-0.08341442 0.17941333 0.0036984934 0.22714147 -0.18708943 0.07115822 0.11644625 -0.3050389
-0.12729512 -0.38475674 -0.14466467 -0.14432816 -0.17632921 0.049715847 0.7148065 -0.114383966
-0.3929136 -0.06283562 -0.23300876 -0.08620537 -0.33398536 -0.16538909 -0.5200761 0.022777861
-0.21191508 -0.25903717 0.17173688 -0.079401724 -0.27859864 -0.0621354 0.20618941 0.04520874
0.20062841 -0.23081295 -0.0011469503 0.18205717 -0.17280753 -0.05228 -0.5175116 -0.15788502
0.051401243 -0.03969663 -0.40236005 0.11332825 0.1811082 0.0046211984 -0.05465917 -0.121707454

fc_out.bias f4 [2]
00000000: b61f b5bb b61f b53b
-0.005527462 0.005527462
