test/output/local2/simulatorRun/fsv_volumes_from_scratch/fold_0/current.nn.pt (torch_old, 737324 bytes, 42 tensors)

layers.0.0.weight f4 [256, 66]
-0.036758587 -0.20054808 0.024769656 -0.12698032 -0.06470515 -0.2225471 0.12128603 -0.17518191
0.024459781 0.089206815 -0.0039332253 0.23072428 0.13141467 0.055975173 0.23246682 -0.23462169
0.39845836 -0.2686238 -0.035959456 -0.029869698 0.09225216 0.24266203 0.07161883 0.46411487
-0.0704737 0.02168755 -0.15929365 0.2138801 -0.13571125 0.039013937 0.15113403 0.046964265
-0.18034282 -0.33229613 -0.10474051 0.15437576 0.009019862 0.116235256 0.07980857 -0.13463
-0.19753683 0.13531953 -0.21910812 -0.034620948 0.34145364 0.29552406 0.08488688 0.14280383
0.07366308 -0.007327798 -0.15997106 -0.25378335 -0.03622868 0.022163995 0.03675522 0.22424923
-0.00836599 0.2309115 0.19794638 0.34082332 -0.05576231 -0.39601257 0.21618022 0.0016953495
-0.19708498 0.039809708 -0.24224427 -0.034918915 -0.24239446 -0.17134006 0.34573334 -0.11084645
-0.057258684 0.047829356 -0.093436085 -0.06935053 0.20429994 0.049333815 -0.010365765 0.017521072
-0.16904537 -0.095186196 0.113343716 0.119745925 -0.073692515 -0.09249689 0.09343481 0.15694651
0.12869227 0.20973763 0.23793557 0.23864445 0.07378547 -0.24023823 -4.252298e-05 0.17729758
-0.037035886 0.11942678 0.001550141 -0.15863727 0.03652633 0.16763614 -0.06593273 -0.2642837
0.005834183 -0.21479982 0.035020847 0.16601476 0.04098922 -0.23154512 -0.09407888 -0.098802194
-0.19068998 0.38784912 0.019546382 0.010330431 -0.16334379 -0.09180997 -0.5533346 0.2767684
-0.0047408403 -0.41547087 -0.14211719 -0.010756878 -0.06063266 -0.12396922 0.22044568 -0.0699345
-0.1145042 0.27297127 -0.20004131 -0.052163087 -0.070350856 0.18709676 -0.009980306 -0.27787867
0.1169752 0.23031434 -0.040471062 -0.018034184 -0.03263836 0.051250603 0.068691 -0.09730144
0.24324326 0.0446137 -0.2312744 0.059357658 -0.25571427 0.034446515 -0.11252146 -0.22574428
-0.0573024 -0.2959998 0.07500024 -0.16483252 0.0124034295 -0.113784894 -0.1179671 0.081898734
-0.23340784 0.2811234 -0.099224366 -0.09250574 0.13293074 0.03310612 0.0025552684 0.20746714
-0.024058383 -0.049716555 -0.019296946 0.13937418 0.050134823 -0.32465386 0.1437821 -0.0009193884
-0.15123959 0.38844094 0.093056135 -0.16415265 -0.00330538 -0.10678132 -0.22448997 0.01942091
0.04820193 0.057361215 0.0044790003 0.33106524 0.014846434 0.008588474 -0.15302679 -0.06576082
-0.20675403 0.3062778 0.28532305 0.14402236 -0.19697635 -0.038426902 0.028620176 0.084684744
-0.16458553 -0.37100416 -0.0034690858 0.02998219 0.16004728 0.19050595 0.04369079 -0.24364899
0.12446042 -0.06380174 0.35402927 -0.045831256 -0.3362157 0.33991244 -0.16953842 0.12756336
-0.08283052 0.37987977 -0.04189021 0.19862342 -0.16095877 -0.19518787 0.28661084 0.31911993
0.14956766 -0.053154733 -0.18212026 0.06462177 0.2838438 0.22403814 -0.09806307 -0.16932175
-0.24926507 -0.15162817 0.031635918 -0.11220015 -0.3123253 -0.3646929 -0.024582218 -0.26649114
0.23336564 -0.20653129 0.12490132 0.0020684486 -0.06107864 0.20786965 0.06395033 -0.14179476
0.060542263 0.14555219 0.42111734 -0.13850604 0.11047107 -0.036994655 0.20656951 -0.045741048
00000000: 2c90 16bd 7a5c 4dbe bce9 ca3c 2107 02be
00000010: 2284 84bd 63e3 63be cf64 f83d e362 33be
00000020: e15f c83c 10b2 b63d 49e2 80bb fc42 6c3e
00000030: 9191 063e 3946 653d c80b 6e3e ab40 70be
00000040: bc02 cc3e 0f89 89be 394a 13bd 4cb1 f4bc
00000050: b3ee bc3d 657c 783e e5ac 923d 77a0 ed3e
00000060: 8454 90bd 17aa b13c e01d 23be 6303 5b3e
00000070: e4f7 0abe 14cd 1f3d e1c2 1a3e 9a5d 403d
00000080: caab 38be b822 aabe 3182 d6bd ae14 1e3e
00000090: 0bc8 133c c00c ee3d ad72 a33d 72dc 09be
000000a0: 1847 4abe 3491 0a3e e15d 60be b2ce 0dbd
000000b0: 03d3 ae3e ee4e 973e 2cd9 ad3d 2b3b 123e
000000c0: abdc 963d 061e f0bb 74cf 23be e4ef 81be
000000d0: 8664 14bd 4491 b53c a48c 163d 97a1 653e
000000e0: 8111 09bc 1074 6c3e 75b2 4a3e 6580 ae3e
000000f0: 0567 64bd 29c2 cabe 595e 5d3e 7d36 de3a
00000100: a5d0 49be 810f 233d e20e 78be 2307 0fbd
00000110: 4136 78be c573 2fbe f603 b13e 7703 e3bd
00000120: 1588 6abd b7e8 433d 6b5b bfbd a707 8ebd
00000130: 0134 513e 4112 4a3d 2bd5 29bc 5a88 8f3c
00000140: 3b1a 2dbe fbf0 c2bd c020 e83d 5a3d f53d
00000150: 1aec 96bd 026f bdbd c05a bf3d 96b6 203e
00000160: e8c7 033e 76c5 563e 62a5 733e 365f 743e
00000170: d61c 973d 0301 76be b45a 32b8 7f8d 353e
00000180: f1b2 17bd 0796 f43d 1a2e cb3a cf71 22be
00000190: a29c 153d cfa8 2b3e bd07 87bd 3150 87be
000001a0: ad2c bf3b 7cf4 5bbe 0572 0f3d c6ff 293e
000001b0: 50e4 273d 2a1a 6dbe 6eac c0bd ce58 cabd
000001c0: 3c44 43be 2994 c63e bc1f a03c f840 293c
000001d0: 9843 27be de06 bcbd 56a7 0dbf 96b4 8d3e
000001e0: 0d59 9bbb 99b8 d4be 2b87 11be 9e3d 30bc
000001f0: f459 78bd 93e3 fdbd 83bc 613e d239 8fbd
00000200: 2e81 eabd e4c2 8b3e a1d7 4cbe f6a8 55bd
00000210: 1c14 90bd 4b96 3f3e 7084 23bc 1d46 8ebe
00000220: b290 ef3d 86d7 6b3e fcc4 25bd 6dbc 93bc
00000230: cdaf 05bd 27ec 513d dead 8c3d fa45 c7bd
00000240: c314 793e dbbc 363d 32d3 6cbe 0421 733d
00000250: fbec 82be ca17 0d3d a771 e6bd 8229 67be
00000260: ecb5 6abd 498d 97be ba99 993d dbc9 28be
00000270: c137 4b3c 0e08 e9bd bc98 f1bd 86ba a73d
00000280: 7702 6fbe 68ef 8f3e 2536 cbbd a673 bdbd
00000290: ff1e 083e 489a 073d 4a76 273b 4472 543e
000002a0: 1616 c5bc 96a3 4bbd a114 9ebc 1bb8 0e3e
000002b0: 2c5a 4d3d 0839 a6be 9d3b 133e 1c03 71ba
000002c0: 8dde 1abe bbe1 c63e 3794 be3d a217 28be
000002d0: 139f 58bb 2ab0 dabd b3e0 65be 9a18 9f3c
000002e0: 636f 453d 98f3 6a3d 94c4 923b 6281 a93e
000002f0: 753e 733c acb6 0c3c 0eb3 1cbe 9cad 86bd
00000300: 54b7 53be 72d0 9c3e dd15 923e 997a 133e
00000310: 2bb4 49be 8765 1dbd dc74 ea3c 326f ad3d
00000320: 1c89 28be 42f4 bdbe 9a59 63bb 369d f53c
00000330: 6fe3 233e fe13 433e 1df5 323d 1f7f 79be
00000340: 1be5 fe3d 7daa 82bd 5343 b53e 8eb9 3bbd
00000350: 7724 acbe 0109 ae3e 7b9b 2dbe f89f 023e
00000360: 0ca3 a9bd 9a7f c23e 1295 2bbd f063 4b3e
00000370: 60d2 24be 54df 47be a8be 923e b063 a33e
00000380: 4428 193e c7b8 59bd bc7d 3abe 6b58 843d
00000390: f953 913e 416a 653e 4ad5 c8bd ae62 2dbe
000003a0: 583f 7fbe 6a44 1bbe aa94 013d 31c9 e5bd
000003b0: 1ae9 9fbe 07b9 babe a660 c9bc 8771 88be
000003c0: 67f7 6e3e f07c 53be 43cc ff3d cf8e 073b
000003d0: 992d 7abd c8db 543e 64f8 823d a532 11be
000003e0: 2afb 773d a20b 153e b19c d73e 87d4 0dbe
000003f0: a83e e23d b587 17bd f586 533e f75a 3bbd

layers.0.1.weight f4 [256]
0.96977365 0.9634515 0.9863235 0.9744132 1.1133143 0.97374684 0.9791252 0.98052657
0.95859236 0.979955 0.9684015 1.1045204 0.95266044 0.9943698 0.91171867 0.9663884
1.0015358 1.0305219 1.2791307 1.0508298 1.0242945 0.9735287 0.98408806 0.9467788
0.9744008 1.0100076 1.006998 0.9801701 0.9883678 1.0747442 1.063289 0.9659928
0.9832272 1.0589057 0.9462934 1.0263296 0.9868782 1.0009563 1.1044501 0.9750756
0.9661463 0.9625532 0.9444533 1.0090038 1.0828257 1.0617734 0.95791775 1.0647355
0.9900673 0.9907062 1.040332 0.99171245 1.0928982 0.9729125 1.1522146 0.95317453
0.9258731 1.1113318 1.0251492 0.96361095 1.0490258 0.97657603 0.94822985 1.099159
0.9995851 0.9977734 0.98536575 0.913369 0.94970596 1.1835225 0.94294846 0.9957297
1.0239973 0.9719839 0.93309593 0.9557695 1.0232477 1.0457164 0.97013015 0.98070574
1.0347816 0.9886311 1.0357425 0.9973724 0.9443327 1.0342954 0.98659194 0.9622079
0.99505043 0.9987019 1.0096344 0.9664662 0.94922423 0.9613631 0.98586154 0.96835405
1.0134976 0.9567473 1.0028782 1.0481563 0.9728533 0.9626439 0.9716412 0.99906236
1.0000756 1.014556 0.9163962 1.0306698 0.983317 0.9527183 1.0460428 0.9780024
1.0196794 1.0510477 0.98271835 0.99459416 1.0211602 0.95366013 0.96723366 0.9761748
0.99472123 0.9996515 0.9315337 0.99599105 1.0737364 0.9204255 0.9432959 0.97295547
1.0030466 0.9649662 0.98945934 1.0296122 0.96595156 1.0655423 0.9208177 1.0884761
1.0396476 0.9727456 0.9995971 0.9646291 0.97843206 0.96751726 1.0017607 0.97602975
0.95478 0.9642171 0.9443469 0.9806992 1.0536168 1.0107794 0.93931097 0.897607
0.95773935 0.92548954 0.9736671 1.0273271 0.9889926 1.1227086 0.9923201 1.0075817
1.0083982 1.0663774 0.9569486 0.9671378 1.0112578 0.97159386 0.9926265 0.9262589
0.9909355 0.9539571 0.9763792 0.95317364 1.0048157 0.94280654 0.98924667 1.0211074
0.9874447 0.9367469 1.0041633 1.002552 0.95586157 0.9780842 0.96931195 1.0830021
0.999137 1.0296519 0.95238507 1.0049725 1.0271015 0.9882913 1.0780448 0.9959356
0.928779 0.96877295 0.9818581 1.0427523 1.0654576 0.9836178 1.0088253 0.9594256
0.9982108 1.0228615 0.9989897 0.98734057 0.95043623 0.97783077 0.97108305 0.98508626
0.9350509 1.0317966 0.9281931 0.97605044 1.0829382 1.0339897 0.97520673 1.0144807
1.0445956 0.92576164 1.0072558 0.9649357 1.0091002 0.9477862 0.99796265 0.9199781
0.94967484 1.0411451 1.1147935 0.9818736 1.0317965 1.0152333 1.0031699 0.97531193
0.97720003 1.028915 0.96722835 1.0524844 1.0498246 1.0252298 0.93543327 1.0389342
1.0798148 0.97138286 1.0613936 0.9987104 0.9982713 1.0097802 0.96653634 0.9926286
0.95657027 0.9519771 0.9954593 0.9341325 1.0926697 0.99249464 1.0049419 1.0232455
00000000: 1643 783f c2a4 763f b27f 7c3f 2573 793f
00000010: 1581 8e3f 7947 793f f3a7 7a3f ca03 7b3f
00000020: 4f66 753f 55de 7a3f 29e9 773f ed60 8d3f
00000030: 8ee1 733f 058f 7e3f 6566 693f 3b65 773f
00000040: 5332 803f 24e8 833f 8eba a33f 9781 863f
00000050: 151c 833f 2d39 793f 32ed 7b3f 1860 723f
00000060: 5572 793f ee47 813f 4fe5 803f 6dec 7a3f
00000070: ac05 7d3f 3891 893f db19 883f 4e4b 773f
00000080: c7b4 7b3f 398a 873f 4940 723f c55e 833f
00000090: 0da4 7c3f 561f 803f 9f5e 8d3f 8e9e 793f
000000a0: 5d55 773f e369 763f b1c7 713f 0927 813f
000000b0: 089a 8a3f 31e8 873f 193a 753f 4149 883f
000000c0: 0d75 7d3f ec9e 7d3f 9929 853f dee0 7d3f
000000d0: 17e4 8b3f cb10 793f c57b 933f 3f03 743f
000000e0: 0506 6d3f 1f40 8e3f 1738 833f 35af 763f
000000f0: 7a46 863f e300 7a3f 31bf 723f 3eb1 8c3f
00000100: cfe4 7f3f 146e 7f3f ee40 7c3f 8dd2 693f
00000110: ee1f 733f aa7d 973f 1265 713f 24e8 7e3f
00000120: 5812 833f f0d3 783f 60df 6e3f 4fad 743f
00000130: c8f9 823f 09da 853f 735a 783f 880f 7b3f
00000140: b973 843f ee16 7d3f 3693 843f cc53 7f3f
00000150: cabf 713f cb63 843f 4a91 7c3f 4253 763f
00000160: a0bb 7e3f edaa 7f3f b33b 813f 546a 773f
00000170: 5c00 733f e41b 763f 6c61 7c3f 0de6 773f
00000180: 4aba 813f 64ed 743f 505e 803f fc29 863f
00000190: ea0c 793f d56f 763f 7abd 783f 8dc2 7f3f
000001a0: 7a02 803f f9dc 813f f198 6a3f fdec 833f
000001b0: aaba 7b3f 59e5 733f bbe4 853f 5e5e 7a3f
000001c0: db84 823f bb88 863f 6e93 7b3f b99d 7e3f
000001d0: 61b5 823f 1223 743f a09c 773f 97e6 793f
000001e0: 0da6 7e3f 29e9 7f3f fe78 6e3f 45f9 7e3f
000001f0: 3270 893f 01a1 6b3f d77b 713f 9c13 793f
00000200: d563 803f 0608 773f 354d 7d3f 55ca 833f
00000210: 9a48 773f b163 883f b5ba 6b3f 2f53 8b3f
00000220: 2c13 853f db05 793f 98e5 7f3f eff1 763f
00000230: 867a 7a3f 36af 773f b239 803f 16dd 793f
00000240: 766c 743f efd6 763f b8c0 713f 1a0f 7b3f
00000250: eadc 863f 3861 813f af76 703f 93c9 653f
00000260: 682e 753f e2ec 6c3f 3f42 793f 747f 833f
00000270: 9e2e 7d3f eab4 8f3f b108 7e3f 70f8 803f
00000280: 3113 813f 0e7f 883f 95fa 743f 5896 773f
00000290: e570 813f 60ba 783f c51c 7e3f 4e1f 6d3f
000002a0: f3ad 7d3f 8836 743f fdf3 793f 3003 743f
000002b0: cd9d 803f c55b 713f 453f 7d3f a6b3 823f
000002c0: 2dc9 7c3f a5ce 6f3f 6c88 803f a053 803f
000002d0: 58b3 743f ba63 7a3f d424 783f d09f 8a3f
000002e0: 71c7 7f3f a2cb 833f 82cf 733f f0a2 803f
000002f0: 1078 833f a900 7d3f 5ffd 893f a3f5 7e3f
00000300: 76c4 6d3f 8101 783f 0d5b 7b3f e878 853f
00000310: ea60 883f 60ce 7b3f 3021 813f eb9c 753f
00000320: be8a 7f3f 20ed 823f cabd 7f3f 5ac2 7c3f
00000330: ca4f 733f 1e53 7a3f e698 783f 9d2e 7c3f
00000340: 7f5f 6f3f e911 843f 109e 6d3f 71de 793f
00000350: b89d 8a3f c659 843f 26a7 793f 81da 813f
00000360: 4fb5 853f b7fe 6c3f c2ed 803f 0706 773f
00000370: 322a 813f 1ea2 723f 7b7a 7f3f af83 6b3f
00000380: e41d 733f 3e44 853f 8eb1 8e3f 115c 7b3f
00000390: e811 843f 2af3 813f df67 803f 0bae 793f
000003a0: c829 7a3f 7db3 833f 479c 773f cfb7 863f
000003b0: a760 863f bb3a 833f 8e78 6f3f ccfb 843f
000003c0: 5f37 8a3f 8cac 783f bfdb 873f 7cab 7f3f
000003d0: b58e 7f3f 7a40 813f ed6e 773f e81c 7e3f
000003e0: cae1 743f c5b4 733f 6cd6 7e3f 4f23 6f3f
000003f0: 9adc 8b3f 2114 7e3f f0a1 803f b5f9 823f

layers.0.1.bias f4 [256]
-0.021195084 0.010444004 0.034328178 0.007947143 0.10312283 0.0007401678 -0.016368102 -0.02170033
-0.047834244 -0.010464447 -0.0054496205 0.011287513 -0.055344213 -0.013053366 -0.062087547 -0.005206207
0.016563606 0.034336895 0.23047651 0.0672817 -0.03398916 -0.041218385 0.02445214 -0.04707101
-0.010089726 0.024686709 0.040870212 0.009811291 0.049327042 0.18778229 0.05605466 -0.016775222
-0.027316088 0.0640631 -0.046168678 -0.041404113 0.0009609231 0.019961197 0.12014854 -0.027854264
0.0009467549 -0.032029193 -0.016089777 0.03546555 0.022183958 0.107190534 0.0030843476 0.087820046
0.0063806437 0.006223518 -0.0071395584 -0.0352289 0.05379254 -0.002603255 0.092297755 0.028224751
-0.02515969 0.04155457 0.09855594 0.033989824 0.10801841 -0.022637794 0.018996349 0.07562259
-0.02269473 0.003012274 0.010443915 -0.05339616 -0.041143924 0.12883303 -0.028598497 0.030832298
0.025641592 -0.009039139 -0.05511706 -0.051795453 0.023946106 0.034253128 -0.038289845 0.024206186
0.13648343 0.007178548 0.06451105 0.030041512 -0.032803185 0.009635153 0.0139107285 -0.024652816
0.023073234 0.061522923 0.039101586 0.003635408 -0.03411502 -0.048553143 0.023197213 0.021437261
0.027036134 -0.0327765 0.028210036 0.037957594 0.0141052585 -0.054625776 -0.0016318088 0.019454917
0.005873452 0.000278542 -0.06469484 0.023619857 0.0013000625 -0.008024439 0.023467 -0.0011507886
0.041312657 0.09138511 -0.009373708 0.021292893 0.047706816 0.011081073 0.0024562352 0.015716203
0.019417856 -0.0052553792 -0.0086133415 0.033269793 0.113823734 -0.040866375 -0.011701592 -0.023127314
-0.0011852541 -0.010436318 0.0016357385 0.03796912 -0.012884721 -0.02892418 -0.06453045 0.120623045
0.060091455 0.023599954 0.010881607 -0.02219315 0.00055659557 -0.0024858383 0.015400735 -0.018791366
0.02092421 0.0011607939 -0.018945027 0.0036713437 0.090082794 0.050532423 -0.029822784 -0.027244952
-0.06795137 -0.059461057 -0.032502156 0.027325 0.017094027 0.0001795491 -0.024828508 0.033065386
0.034108322 0.116969936 -0.03814232 0.00040262198 0.05237875 -0.010088769 0.018195407 -0.054814383
0.031170858 -0.0512046 0.0064428593 -0.018245725 0.047518596 -0.060023893 -0.012974353 0.027433371
-0.022408968 -0.03684525 -0.0076510864 -0.011768744 -0.018667031 -0.0058272295 -0.022912871 0.051626664
-0.011108906 0.041232504 -0.010835823 -0.0067260554 0.049239725 0.006074611 0.095974304 -0.0013051105
-0.062320873 0.014830508 -0.029918179 0.08740861 0.04353193 0.003504277 0.027486939 -0.03841055
-0.057643153 0.0118368035 0.036155783 0.04002666 -0.02997067 1.3401412e-05 0.023541082 0.009581945
-0.029487068 0.03812514 -0.036988996 0.00054790144 0.0789976 0.005394405 -0.021252109 0.045883007
0.11479274 -0.044008307 -0.033634856 0.009739769 0.005934015 0.010406339 -0.015178429 -0.072975226
-0.028108088 0.05462373 0.13137193 -0.010539771 0.049992714 -0.0024213842 0.008530975 -0.04445893
0.028633611 0.03564871 -0.021845976 0.060935557 0.026162276 0.057440504 -0.054409295 0.06584993
0.050717942 0.006850865 0.030237596 0.082672305 -0.0013860385 0.0309837 0.0017403576 0.011347214
-0.01706961 -0.028422745 0.011613767 -0.021704672 0.15344214 0.050081115 0.016449176 0.011400494
00000000: 50a1 adbc 541d 2b3c b49b 0c3d bc34 023c
00000010: 1032 d33d d207 423a 6616 86bc e4c4 b1bc
00000020: d7ed 43bd 1273 2bbc bb92 b2bb 43ef 383c
00000030: 9db0 62bd c9dd 55bc 834f 7ebd d498 aabb
00000040: 66b0 873c d8a4 0c3d 0902 6c3e fdca 893d
00000050: 3838 0bbd 9cd4 28bd db4f c83c 88cd 40bd
00000060: 614f 25bc c83b ca3c 8667 273d 89bf 203c
00000070: 270b 4a3d 004a 403e 9299 653d 316c 89bc
00000080: fdc5 dfbc 8433 833d 5e1b 3dbd 5c97 29bd
00000090: 75e6 7b3a aa85 a33c 7010 f63d a02e e4bc
000000a0: a52f 783a 0b31 03bd b5ce 83bc 5344 113d
000000b0: 22bb b53c b686 db3d c422 4a3b ffda b33d
000000c0: b814 d13b a7ee cb3b f5f2 e9bb 2e4c 10bd
000000d0: 9155 5c3d 5f9b 2abb 9b06 bd3d 9837 e73c
000000e0: b21b cebc 2035 2a3d b2d7 c93d ea38 0b3d
000000f0: c238 dd3d e572 b9bc 3b9e 9b3c 04e0 9a3d
00000100: 4cea b9bc 9269 453b f41c 2b3c efb5 5abd
00000110: 8886 28bd ceec 033e 6547 eabc 0494 fc3c
00000120: 510e d23c e618 14bc 6dc2 61bd 7827 54bd
00000130: a02a c43c 024d 0c3d d0d5 1cbd 0d4c c63c
00000140: 50c2 0b3e 063a eb3b 5f1e 843d 9e19 f63c
00000150: a25c 06bd c3dc 1d3c d3e9 633c b4f4 c9bc
00000160: 1404 bd3c 76ff 7b3d fc28 203d 0640 6e3b
00000170: 31bc 0bbd a9df 46bd 1508 be3c 329d af3c
00000180: e27a dd3c a740 06bd bc18 e73c 6c79 1b3d
00000190: be19 673c 47bf 5fbd 6be2 d5ba eb5f 9f3c
000001a0: 1676 c03b 4609 9239 ba7e 84bd 6e7e c13c
000001b0: dc66 aa3a f078 03bc de3d c03c 0fd6 96ba
000001c0: 7637 293d 1e28 bb3d 2e94 19bc 6f6e ae3c
000001d0: 3968 433d 648d 353c caf8 203b 44bf 803c
000001e0: 3212 9f3c 5135 acbb f91e 0dbc e845 083d
000001f0: 6b1c e93d 8063 27bd 09b8 3fbc 7e75 bdbc
00000200: 875a 9bba 17fd 2abc 4766 d63a 8285 1b3d
00000210: 701a 53bc 67f2 ecbc 8a28 84bd 3709 f73d
00000220: 7522 763d b154 c13c c548 323c 69ce b5bc
00000230: 7fe8 113a 72e9 22bb 5d53 7c3c 5af0 99bc
00000240: 4069 ab3c c825 983a 9a32 9bbc ed9a 703b
00000250: 547d b83d 16fb 4e3d e94e f4bc ce30 dfbc
00000260: 162a 8bbd 708d 73bd fb20 05bd aed8 df3c
00000270: c608 8c3c 5845 3c39 2865 cbbc 926f 073d
00000280: 2bb5 0b3d ef8d ef3d 1f3b 1cbd 0217 d339
00000290: 1a8b 563d 5d4b 25bc 890e 953c 0c85 60bd
000002a0: 075a ff3c eabb 51bd 9f1e d33b 0f78 95bc
000002b0: dca2 423d 9ddb 75bd 6192 54bc f3bb e03c
000002c0: 0393 b7bc 0beb 16bd f7b5 fabb b1d1 40bc
000002d0: 9aeb 98bc 58f2 bebb c6b3 bbbc 7b76 533d
000002e0: 2102 36bc 6ae3 283d bc88 31bc 3e66 dcbb
000002f0: 98af 493d 880d c73b 2d8e c43d 3e10 abba
00000300: 2c44 7fbd a9fb 723c f816 f5bc 4903 b33d
00000310: 894e 323d 03a8 653b 4a2c e13c 6254 1dbd
00000320: 3a1b 6cbd 27ef 413c 1618 143d fff2 233d
00000330: 0d85 f5bc a0d6 6037 3ad9 c03c 97fd 1c3c
00000340: dd8e f1bc 1b29 1c3d c681 17bd 0ba1 0f3a
00000350: 7ec9 a13d 8dc3 b03b e718 aebc d2ef 3b3d
00000360: 7518 eb3d 0e42 34bd b4c4 09bd 8d93 1f3c
00000370: 2072 c23b 597f 2a3c f2ae 78bc 0974 95bd
00000380: ef42 e6bc 22bd 5f3d 5d86 063e 01af 2cbc
00000390: 29c5 4c3d 16b0 1ebb 81c5 0b3c 911a 36bd
000003a0: 0991 ea3c 6204 123d 55f6 b2bc 9097 793d
000003b0: 4552 d63c bc46 6b3d 48dc 5ebd 54dc 863d
000003c0: 9ebd 4f3d 397d e03b d6b4 f73c 1950 a93d
000003d0: bcab b5ba 87d1 fd3c b61c e43a aae9 393c
000003e0: 91d5 8bbc d1d6 e8bc ab47 3e3c ffcd b1bc
000003f0: f01f 1d3e db21 4d3d 6cc0 863c 23c9 3a3c

layers.1.0.weight f4 [128, 256]
0.0498418 -0.06742127 -0.1237277 0.04782283 -0.09641647 0.039029248 0.0465452 0.16476016
-0.075502224 -0.037375655 -0.09059798 0.0651165 -0.0041960324 0.045248207 -0.0012974837 -0.055492494
0.15116882 -0.054808788 0.31417853 0.031663056 0.028485132 -0.035004828 0.03713339 0.10843681
0.050900027 -0.057386678 -0.102035716 0.12139163 0.14183009 0.08275014 -0.012585531 0.05083244
-0.050445847 0.012002062 0.12933469 0.02225134 -0.041349962 -0.18502942 0.068444535 -0.011238528
0.14432743 -0.07050177 -0.041630425 -0.01922017 0.06932008 0.002198595 0.02595309 -0.071209334
0.12442274 -0.19435263 0.1474197 0.06415688 0.018808344 -0.07975539 -0.05169934 -0.019835752
-0.043982435 0.049888484 -0.03640754 0.020061603 -0.09524611 0.057487786 -0.11917991 0.16383566
-0.05486135 0.04453345 -0.098068826 0.12647863 0.1338149 -0.08181213 0.005691476 -0.080738775
0.026016068 -0.09399538 0.081455596 -0.05446234 -0.1751209 0.06417627 -0.05236927 0.08676192
-0.08077373 0.09240129 -0.066846974 0.13891087 -0.0010144233 0.1356329 -0.011576876 -0.030260859
0.0935809 -0.081308424 0.005509922 -0.03634926 0.110866256 -0.028584965 -0.0072978325 -0.02604693
-0.11440294 -0.09033277 -0.0895882 0.11941684 0.17327322 0.12600787 0.029846909 0.03703624
0.113993526 0.1109465 0.033487152 0.10255794 0.025505655 0.051360354 -0.050485443 0.0014598282
-0.11244511 -0.08712535 0.0064176517 0.13235648 -0.0047811796 0.13302559 -0.11311713 0.015751997
0.12529102 -0.062026918 -0.10808285 -0.00552595 0.002027061 0.03704133 0.022422817 -0.014050879
-0.008644452 -0.07648825 -0.05926701 -0.0110857235 -0.06756493 0.061955772 -0.00787517 -0.049223255
-0.08049319 -0.08321956 -0.12253256 0.05522321 -0.03201698 -0.1503646 0.021555232 0.0037328626
-0.03256015 0.031359855 -0.10497438 -0.1317369 -0.04944606 0.00070391514 0.09475343 -0.14954557
-0.08766168 -0.050000157 -0.32500464 0.047107887 -0.13009326 0.117945 0.12995039 0.030721433
-0.04229802 0.122328416 -0.097002976 -0.16624683 0.098093055 0.10033919 0.13061039 0.11003854
0.048224125 0.0056615537 -0.08896126 -0.12555812 -0.12206598 0.03474626 -0.1680563 -0.0042264555
-0.091258496 -0.111178756 -0.10513243 0.0027472412 0.13880704 0.042959746 -0.01472977 -0.044507284
-0.21992014 0.11714285 0.02292878 0.057490792 0.06853359 -0.06789598 -0.12344591 0.13212116
-0.12515849 -0.12166509 -0.099822365 -0.046326526 0.024371631 0.047883675 0.0061912388 0.17168283
-0.1412699 -0.061375402 -0.2814116 -0.114662305 0.11447886 0.18307413 -0.032892648 0.1004196
-0.065925755 -0.048398186 0.032545503 0.08169137 0.073357984 0.107732266 -0.0982339 -0.012736735
-0.07726379 0.0065382216 -0.027294666 -0.08608671 -0.044940606 0.0370251 -0.22999811 -0.16677459
0.10495338 0.039729767 -0.07436195 0.009884897 -0.10183626 -0.051088564 -0.14946567 0.02680274
-0.13122144 -0.11665106 0.084058 -0.060237456 0.07583957 0.056353375 0.16808929 0.07367582
-0.022241188 0.07020895 -0.012292178 -0.06203231 0.01767425 -0.04726082 0.14675333 -0.18294849
-0.010271037 0.036300577 0.06405622 -0.07958158 0.054259285 0.14653416 -0.032677907 0.077483356
00000000: ea26 4c3d 2a14 8abd f364 fdbd dfe1 433d
00000010: 0076 c5bd 22dd 1f3d 2ea6 3e3d e3b6 283e
00000020: e9a0 9abd 3717 19bd 6f8b b9bd cd5b 853d
00000030: df7e 89bb 2f56 393d 5410 aaba 194c 63bd
00000040: 00cc 1a3e 2e7f 60bd 02dc a03e 1fb1 013d
00000050: a759 e93c 3961 0fbd 2e19 183d 1e14 de3d
00000060: 8c7c 503d 4b0e 6bbd 1af8 d0bd 2d9c f83d
00000070: e83b 113e e878 a93d 8b33 4ebc ad35 503d
00000080: 4ea0 4ebd 4ca4 443c 5070 043e 7148 b63c
00000090: 945e 29bd 5a78 3dbe a62c 8c3d ce21 38bc
000000a0: 92ca 133e 3b63 90bd aa84 2abd 9e73 9dbc
000000b0: b0f7 8d3d 4e16 103b 939b d43c 33d6 91bd
000000c0: 59d1 fe3d 6004 47be 31f5 163e af64 833d
000000d0: f513 9a3c cb56 a3bd b0c2 53bd 967e a2bc
000000e0: ed26 34bd de57 4c3d 1320 15bd 3b58 a43c
000000f0: 6410 c3bd 5078 6b3d 9914 f4bd 89c4 273e
00000100: 4cb6 60bd b568 363d 4fd8 c8bd 9d83 013e
00000110: c606 093e 1e8d a7bd 907f ba3b 5f5a a5bd
00000120: a61f d53c a680 c0bd 31d2 a63d e713 5fbd
00000130: e552 33be d96e 833d 2981 56bd 3cb0 b13d
00000140: b36c a5bd e33c bd3d 11e7 88bd a73e 0e3e
00000150: 66f6 84ba 5ae3 0a3e f0ac 3dbc 9fe5 f7bc
00000160: 58a7 bf3d 0885 a6bd 938c b43b f6e2 14bd
00000170: d90d e33d 042b eabc a822 efbb 5f60 d5bc
00000180: 174c eabd 6300 b9bd 057a b7bd d190 f43d
00000190: 896e 313e 3508 013e 8181 f43c 50b3 173d
000001a0: 7075 e93d eb37 e33d d329 093d e609 d23d
000001b0: 3cf1 d03c 3c5f 523d d3c9 4ebd b557 bf3a
000001c0: 9f49 e6bd c76e b2bd 2a4b d23b 7588 073e
000001d0: 71ab 9cbb dc37 083e f4a9 e7bd 550a 813c
000001e0: 4a4c 003e f00f 7ebd 8b5a ddbd 0713 b5bb
000001f0: 71d8 043b a6b8 173d 0eb0 b73c a835 66bc
00000200: 76a1 0dbc dfa5 9cbd f7c1 72bd e5a0 35bc
00000210: 7b5f 8abd 56c5 7d3d db06 01bc 539e 49bd
00000220: 9dd9 a4bd 046f aabd 5af2 fabd bc31 623d
00000230: 3d24 03bd 2df9 19be 9994 b03c 0ba3 743b
00000240: cb5d 05bd 3173 003d cffc d6bd 0ae6 06be
00000250: f487 4abd f286 383a 160e c23d 7922 19be
00000260: f887 b3bd f7cc 4cbd 0267 a6be 33f4 403d
00000270: 2b37 05be 268d f13d b711 053e 84ab fb3c
00000280: b040 2dbd 5287 fa3d 7fa9 c6bd 9c3c 2abe
00000290: 03e5 c83d a27e cd3d bbbe 053e e35b e13d
000002a0: a986 453d 8e84 b93b 5231 b6bd 4f92 00be
000002b0: bbfd f9bd 1852 0e3d f316 2cbe 147e 8abb
000002c0: bce5 babd b0b1 e3bd ac4f d7bd 0f0b 343b
000002d0: 6f23 0e3e 8ff6 2f3d 2255 71bc 454d 36bd
000002e0: bf32 61be 97e8 ef3d 23d5 bb3c 777b 6b3d
000002f0: 575b 8c3d 0c0d 8bbd 36d1 fcbd c54a 073e
00000300: 8c29 00be 8c2b f9bd ab6f ccbd e2c0 3dbd
00000310: 04a7 c73c ac21 443d e0df ca3b a0cd 2f3e
00000320: 0fa9 10be c664 7bbd 2e15 90be 12d4 eabd
00000330: e473 ea3d c977 3b3e 71ba 06bd cba8 cd3d
00000340: 1504 87bd 2d3d 46bd 6f4e 053d ce4d a73d
00000350: b63c 963d bca2 dc3d db2e c9bd bdad 50bc
00000360: 7a3c 9ebd 943e d63b 1099 dfbc 3b4e b0bd
00000370: a413 38bd a2a7 173d a084 6bbe f5c6 2abe
00000380: ccf1 d63d aebb 223d 144b 98bd 43f4 213c
00000390: 878f d0bd 3e42 51bd 870d 19be 6b91 db3c
000003a0: ea5e 06be c0e6 eebd 9a26 ac3d 8dbb 76bd
000003b0: c751 9b3d ccd2 663d 991f 2c3e 59e3 963d
000003c0: 2733 b6bc b6c9 8f3d 2265 49bc 9715 7ebd
000003d0: 97c9 903c 9094 41bd 8146 163e d956 3bbe
000003e0: da47 28bc eaaf 143d e82f 833d abfb a2bd
000003f0: fc3e 5e3d 0d0d 163e 45d9 05bd 98af 9e3d

layers.1.1.weight f4 [128]
0.98426807 0.9711356 0.981601 1.0109513 0.98881245 1.0179471 1.007924 0.9832782
0.98141176 0.9712064 1.0175056 0.9703559 0.9759684 0.97620255 0.9893401 0.9914302
0.9897719 0.9881824 0.9631078 0.94167024 0.9432697 0.9757658 0.98069793 1.004725
1.0305368 0.9532331 1.0409491 0.9847588 0.9706304 0.97397923 0.9869404 0.9752099
0.9867642 1.0014279 0.9946237 0.99754584 0.9906333 0.9731562 1.0220791 0.978373
0.9924095 0.9976451 1.0559286 1.0324738 0.9838431 0.98976356 0.95493793 1.0327916
0.98659015 1.0293304 1.0491257 0.9755785 0.9426634 0.9915509 0.9524859 0.9982776
0.96601725 0.9704352 0.95679355 0.95044047 1.0028841 1.0597938 1.0036439 0.9731101
1.0368696 0.9456473 1.0048875 0.9567455 0.9766646 1.037748 0.9762301 0.9799394
1.0524037 1.0067172 0.97466105 1.0188044 1.0085421 1.0035858 0.9838917 0.97989976
1.0084783 0.9630342 0.9661897 1.0531955 1.0042253 1.0528134 0.9813346 1.0927615
1.0256974 1.0159832 0.98747575 1.0508846 0.95678127 0.97638905 0.9674067 0.98509324
1.0014627 0.9805578 1.0131081 1.0483669 1.0205138 1.003191 0.9714502 0.9714705
1.019594 1.0281385 1.0225769 0.98667353 1.0416993 0.98218477 1.0034865 1.0418894
0.99542713 0.96292126 1.0467257 0.969206 1.0682188 0.9766167 0.9970876 0.98600566
0.9572784 1.0085741 0.99468887 1.0605351 0.9755606 1.006196 0.9679208 0.9683491
00000000: fef8 7b3f 589c 783f 344a 7b3f da66 813f
00000010: d022 7d3f 174c 823f a703 813f 1fb8 7b3f
00000020: cd3d 7b3f fca0 783f a03d 823f 3f69 783f
00000030: 11d9 793f 69e8 793f 6545 7d3f 5fce 7d3f
00000040: b161 7d3f 86f9 7c3f 3c8e 763f 4d11 713f
00000050: 207a 713f cacb 793f 050f 7b3f d49a 803f
00000060: a1e8 833f 1607 743f d23d 853f 2719 7c3f
00000070: 3c7b 783f b456 793f 20a8 7c3f 5ba7 793f
00000080: 949c 7c3f ca2e 803f a99f 7e3f 2a5f 7f3f
00000090: 259a 7d3f c420 793f 7dd3 823f a776 7a3f
000000a0: 8d0e 7e3f ab65 7f3f ab28 873f 1a28 843f
000000b0: 24dd 7b3f 2561 7d3f d076 743f 8432 843f
000000c0: 2c91 7c3f 19c1 833f c049 863f 83bf 793f
000000d0: 6352 713f 48d6 7d3f 1ed6 733f 1f8f 7f3f
000000e0: e84c 773f 716e 783f 6cf0 743f 1150 733f
000000f0: 825e 803f 53a7 873f 6777 803f be1d 793f
00000100: 25b8 843f f115 723f 27a0 803f 46ed 743f
00000110: b106 7a3f edd4 843f 37ea 793f 4fdd 7a3f
00000120: 2ab5 863f 1cdc 803f 6383 793f 2f68 823f
00000130: e817 813f 8075 803f 54e0 7b3f b6da 7a3f
00000140: d115 813f 6989 763f 3558 773f 1ccf 863f
00000150: 748a 803f 97c2 863f bf38 7b3f 9cdf 8b3f
00000160: 0d4a 833f bd0b 823f 36cb 7c3f 6383 863f
00000170: 9eef 743f a2f4 793f f7a7 773f 122f 7c3f
00000180: ee2f 803f d605 7b3f 87ad 813f e330 863f
00000190: 32a0 823f 9068 803f f6b0 783f 4ab2 783f
000001a0: 0e82 823f 0b9a 833f cde3 823f a396 7c3f
000001b0: 6756 853f 7670 7b3f 3f72 803f a25c 853f
000001c0: 50d4 7e3f 0282 763f 1cfb 853f e21d 783f
000001d0: 65bb 883f 8d03 7a3f 2241 7f3f de6a 7c3f
000001e0: 3210 753f f518 813f eea3 7e3f 9dbf 873f
000001f0: 57be 793f 08cb 803f a8c9 773f bae5 773f

layers.1.1.bias f4 [128]
0.00934526 -0.04828534 -0.020413855 -0.0014264645 -0.012513863 -0.010243856 0.04264205 0.010056643
-0.03529235 -0.027498133 -0.0020190012 -0.017014557 -0.014353459 -0.028071217 -0.007987419 0.0030160309
-0.0051739644 -0.014653203 -0.036165915 -0.03497309 -0.055775486 -0.021206621 0.005091288 0.0078456765
0.028420283 -0.021856498 0.019447567 -0.033453245 -0.012695795 0.0009783001 0.0027303922 -0.01171528
-0.0076229908 -0.018040666 0.016338907 9.016903e-05 -0.013518525 -0.0192413 0.021777932 -0.010801055
-0.003588887 -0.018093368 0.07446067 0.018382806 -0.0023125985 -0.0052650594 -0.0639455 0.029870715
-0.016139366 0.008656334 0.05616115 -0.005441891 -0.051077813 0.0008760978 -0.045869906 0.007078978
-0.02336311 -0.027439147 -0.026805969 -0.02855018 -0.003091224 0.015370686 0.007549714 -0.011004742
0.042569637 -0.044128887 0.00044398615 -0.019732704 -0.0018828822 0.039405733 -0.00955081 -0.011513217
0.0010860257 -0.0010486065 -0.039425664 0.004051589 -0.02122708 -0.009685561 -0.0065789227 -0.0242864
0.0048025376 -0.005401961 -0.029526178 0.03625432 -0.016812835 0.02680551 -0.026228104 0.048997104
0.00568829 -0.021310318 -0.003267517 0.016448975 -0.059471868 -0.038599074 -0.022353757 -0.02052783
0.0013206159 -0.03324852 0.012255568 0.076355994 0.0063568708 0.0048029213 -0.0073058694 -0.011385367
0.010920126 0.014048517 -0.009506523 -0.01647193 0.038008664 0.021216473 0.009575108 0.04769328
0.0002794207 -0.03323484 0.014448905 -0.015994508 0.022842843 -0.03455556 -0.025677893 0.010731105
-0.027507616 0.027127447 0.022946056 0.01965108 -0.014786315 -0.03434656 -0.023710579 -0.016456984
00000000: dd1c 193c d9c6 45bd f53a a7bc 35f8 baba
00000010: f206 4dbc d9d5 27bc 6ea9 2e3d 9ec4 243c
00000020: b68e 10bd c443 e1bc 3851 04bb 1d62 8bbc
00000030: c52a 6bbc 9cf5 e5bc aadd 02bc 9aa8 453b
00000040: 5c8a a9bb fd13 70bc b622 14bd f13f 0fbd
00000050: d674 64bd 82b9 adbc d2d4 a63b 278b 003c
00000060: a7d1 e83c 660c b3bc 8150 9f3c 4506 09bd
00000070: 0602 50bc 4e3a 803a 61f0 323b 72f1 3fbc
00000080: 48ca f9bb 05ca 93bc 2cd9 853c 2119 bd38
00000090: ce7c 5dbc ee9f 9dbc a267 b23c e8f6 30bc
000000a0: 8833 6bbb 8b38 94bc d67e 983d 8a97 963c
000000b0: f78e 17bb 8586 acbb dcf5 82bd 6eb3 f43c
000000c0: b436 84bc 4cd3 0d3c 3c09 663d e451 b2bb
000000d0: f836 51bd eea9 653a 15e2 3bbd c5f6 e73b
000000e0: fe63 bfbc 10c8 e0bc 3198 dbbc 11e2 e9bc
000000f0: 2296 4abb 54d5 7b3c 9763 f73b 3c4d 34bc
00000100: 805d 2e3d 7ec0 34bd d0c6 e839 7ba6 a1bc
00000110: 0bcb f6ba e867 213d 007b 1cbc efa1 3cbc
00000120: fa58 8e3a 6571 89ba ce7c 21bd 31c3 843b
00000130: 6ae4 adbc 30b0 1ebc 0194 d7bb 46f4 c6bc
00000140: 9b5e 9d3b ef02 b1bb e2e0 f1bc 697f 143d
00000150: 12bb 89bc 3b97 db3c 52dc d6bc 30b1 483d
00000160: d664 ba3b fa92 aebc d723 56bb 00c0 863c
00000170: c698 73bd 101a 1ebd 3a1f b7bc fb29 a8bc
00000180: 8418 ad3a 9a2f 08bd 94cb 483c 8860 9c3d
00000190: 4c4d d03b d361 9d3b 1366 efbb b189 3abc
000001a0: 54ea 323c c02b 663c 3fc1 1bbc 24f0 86bc
000001b0: f9ae 1b3d 2bce ad3c eae0 1c3c 075a 433d
000001c0: 367f 9239 4121 08bd 1abb 6c3c ea06 83bc
000001d0: ea20 bb3c 228a 0dbd 725a d2bc 84d1 2f3c
000001e0: a757 e1bc 613a de3c 5ef9 bb3c 4dfb a03c
000001f0: 4d42 72bc faae 0cbd b03c c2bc ccd0 86bc

layers.2.0.weight f4 [64, 128]
0.09429054 0.059447158 -0.07383359 -0.011466456 -0.13329461 -0.21117763 -0.282748 0.051635534
-0.1942088 0.020212969 -0.21744989 -0.04996496 -0.13575456 0.10377937 0.26589277 -0.091921434
0.048597306 -0.1456829 0.20473246 0.020511096 -0.04267172 -0.14931741 -0.06328771 -0.010462323
0.22673741 0.017383909 0.004753073 0.023736756 -0.24151175 -0.06737136 0.119325064 0.033024706
-0.07807324 -0.0050779255 0.005406445 0.21304916 -0.088344865 -0.13494205 -0.117060415 -0.018591046
0.06497824 0.04338707 0.24164422 0.0026270458 -0.011321169 -0.23815353 -0.0023142928 0.13946171
-0.17623524 0.06330995 -0.13705342 -0.3087214 0.19143647 -0.018385695 -0.26909357 -0.09738056
-0.09561113 -0.17276952 -0.14601779 -0.058709312 0.12861003 -0.08238188 0.09111972 0.0524874
-0.052966934 -0.2402523 -0.0423594 0.15949446 -0.3022771 -0.13933733 0.11898406 -0.1610785
0.03595243 -0.30219534 0.18547855 0.12691136 0.14339416 0.012624666 0.02760901 0.12944806
0.032284576 -0.07958266 -0.12456866 0.013152803 -0.15422739 0.03498518 -0.0013337451 0.1469698
-0.09683945 0.013992945 0.2572954 0.05881959 0.0343582 -0.22113314 -0.007146775 -0.09779339
0.2721139 -0.04054489 0.09669437 -0.031896386 -0.21718125 -0.08059794 -0.034696713 0.022349944
-0.1956537 -0.21662974 -0.06604021 -0.19552758 -0.027068246 -0.045380723 0.092342004 0.11342471
-0.28848305 -0.09650295 0.29443675 0.006143128 0.28319126 0.10665101 -0.1229985 0.08855725
-0.15164164 0.10241188 0.2917471 0.003348294 -0.064265154 -0.11349772 -0.027820447 -0.039658535
-0.31730327 -0.15243393 -0.12830165 0.018650804 0.17084482 0.008923297 0.11143525 -0.021151746
0.10349817 0.10851527 -0.27294055 -0.20987803 -0.01970738 -0.20383936 -0.01267505 -0.16485423
-0.16648798 0.100740984 -0.12089406 -0.007235054 -0.14963093 -0.0007162959 -0.0698949 -0.22549084
-0.07353221 -0.043842558 0.15182193 0.24841292 -0.0027800882 0.12979788 -0.042153 0.026882168
-0.119131915 0.07737079 0.26464772 0.006243444 -0.0649781 -0.036284268 -0.0030917712 0.11542952
-0.20769846 0.04922847 -0.088492185 -0.035240583 -0.052543577 0.2172023 0.16638985 -0.04376298
0.18997802 -0.12905598 -0.11208898 0.13512677 0.0054348176 0.16122326 0.046136882 -0.244865
0.012656512 0.2700451 -0.104629084 -0.005819042 -0.30633476 -0.22610493 -0.025357723 -0.009155657
-0.0044611725 0.12026463 -0.0474123 0.29230958 0.10011628 0.010138592 -0.09905094 0.05795099
-0.116242394 -0.05241909 0.048319887 0.106629334 -0.09406232 -0.13929135 -0.10482632 0.09448593
0.20344949 0.17801628 0.02967704 -0.16378644 -0.17230655 -0.006802586 0.20219687 0.042594936
0.07465495 0.21093239 -0.0014245972 0.13215888 -0.11428712 -0.017349077 0.069078654 0.10915734
0.22074729 0.17518722 -0.046699785 0.19548838 -0.14444001 -0.21161085 0.008308632 0.036926903
-0.017609347 0.036615063 -0.0108346045 0.041606776 -0.16087659 0.21370333 0.0075730183 -0.15410233
-0.06368857 0.032365285 -0.057152934 0.07095237 -0.036186658 0.052633666 0.05696757 -0.05315206
0.16136946 0.13659659 -0.1694732 0.10315572 -0.33314705 -0.14271505 0.06697773 -0.14834629
00000000: 661b c13d dd7e 733d 1136 97bd cddd 3bbc
00000010: 627e 08be f33e 58be 59c4 90be c87f 533d
00000020: acde 46be ab95 a53c 2fab 5ebe 0fa8 4cbd
00000030: 3e03 0bbe 478a d43d 1923 883e 4e41 bcbd
00000040: f80d 473d e62d 15be 63a5 513e e306 a83c
00000050: 8bc8 2ebd aae6 18be fd9c 81bd 2a6a 2bbc
00000060: da2d 683e b368 8e3c abbf 9b3b 9673 c23c
00000070: db4e 77be fff9 89bd b360 f43d ea44 073d
00000080: dde4 9fbd ba64 a6bb 8c28 b13b 8f29 5a3e
00000090: 27ee b4bd 402e 0abe 5fbd efbd 404c 98bc
000000a0: 5013 853d a4b6 313d 9571 773e 842a 2c3b
000000b0: 6d7c 39bc 85de 73be 64ab 17bb 0dcf 0e3e
000000c0: 0377 34be a6a8 813d bb57 0cbe bb10 9ebe
000000d0: ec07 443e 999d 96bc a2c6 89be 766f c7bd
000000e0: c5cf c3bd 7eea 30be b085 15be 2d79 70bd
000000f0: 59b2 033e d5b7 a8bd fa9c ba3d 07fd 563d
00000100: dbf3 58bd b304 76be 0d81 2dbd 8452 233e
00000110: 10c4 9abe 72ae 0ebe eaad f33d c3f1 24be
00000120: db42 133d 59b9 9abe 17ee 3d3e 0df5 013e
00000130: ebd5 123e b0d7 4e3c 4a2c e23c 088e 043e
00000140: d53c 043d 3cfc a2bd db1d ffbd db7e 573c
00000150: c9ed 1dbe 9f4c 0f3d 0fd1 aeba 407f 163e
00000160: c353 c6bd aa42 653c 39bc 833e cfec 703d
00000170: 2fbb 0c3d ba70 62be 7e2f eabb e747 c8bd
00000180: 8352 8b3e 6612 26bd b307 c63d c9a5 02bd
00000190: c364 5ebe 8810 a5bd 241e 0ebd 3b17 b73c
000001a0: 7259 48be 30d4 5dbe 1740 87bd 6238 48be
000001b0: 3abe ddbc 23e1 39bd ce1d bd3d 374b e83d
000001c0: 0db4 93be 57a3 c5bd 6ac0 963e 4b4c c93b
000001d0: 72fe 903e d86b da3d a3e6 fbbd 815d b53d
000001e0: f247 1bbe 52bd d13d e05f 953e 0d6f 5b3b
000001f0: 739d 83bd 7e71 e8bd b5e7 e3bc fd70 22bd
00000200: 9375 a2be a417 1cbe 8261 03be 92c9 983c
00000210: f2f1 2e3e 0533 123c 2a38 e43d 6d46 adbc
00000220: d9f6 d33d 413d de3d ddbe 8bbe 44ea 56be
00000230: 5f71 a1bc 44bb 50be 03ab 4fbc 8ccf 28be
00000240: d37b 2abe 4a51 ce3d 4e97 f7bd 0814 edbb
00000250: da38 19be cec5 3bba 0f25 8fbd 12e7 66be
00000260: 0e98 96bd 4194 33bd 3577 1b3e f55f 7e3e
00000270: 2432 36bb bce9 043e a0a8 2cbd fe37 dc3c
00000280: 6ffb f3bd 9474 9e3d e87f 873e ce95 cc3b
00000290: 3d13 85bd d09e 14bd 509f 4abb 5066 ec3d
000002a0: e8ae 54be cba3 493d 643b b5bd 6e58 10bd
000002b0: ef37 57bd 486a 5e3e 1a62 2a3e cf40 33bd
000002c0: 9989 423e 4027 04be e88e e5bd ac5e 0a3e
000002d0: 8e16 b23b b617 253e 07fa 3c3d e4bd 7abe
000002e0: 425d 4f3c 5a43 8a3e c647 d6bd aaad bebb
000002f0: e9d7 9cbe 0d88 67be 00bb cfbc 9c01 16bc
00000300: 072f 92bb 4d4d f63d 6633 42bd 9aa9 953e
00000310: c409 cd3d 561c 263c 38db cabd 045e 6d3d
00000320: 7e10 eebd 66b5 56bd 13eb 453d 7b60 da3d
00000330: bfa3 c0bd 64a2 0ebe 2faf d6bd d781 c13d
00000340: 1055 503e e649 363e 441d f33c a2b7 27be
00000350: 2171 30be 3ae8 debb b20c 4f3e 0778 2e3d
00000360: b2e4 983d a9fe 573e 8db9 baba a854 073e
00000370: 5e0f eabd a71f 8ebc 1c79 8d3d e28d df3d
00000380: 940b 623e 4764 333e 4648 3fbd 1b2e 483e
00000390: 15e8 13be 84b0 58be ee20 083c aa40 173d
000003a0: 7a41 90bc adf9 153d a083 31bc de6b 2a3d
000003b0: d5bc 24be 0cd5 5a3e 1527 f83b 00cd 1dbe
000003c0: 276f 82bd 7691 043d 3219 6abd 7a4f 913d
000003d0: 7638 14bd 6696 573d d456 693d f9b5 59bd
000003e0: 093e 253e fadf 0b3e 628a 2dbe 4e43 d33d
000003f0: 4092 aabe e523 12be 9f2b 893d 17e8 17be

layers.2.1.weight f4 [64]
1.0059114 0.99801636 0.94196594 1.0086677 1.0182968 0.90373075 0.89291024 0.95789
0.9373708 1.0080384 0.9864269 0.9680418 1.0369003 0.9598064 0.97607696 0.9998741
1.0882646 1.0746241 1.0209068 0.9714993 1.0096421 1.0606486 0.9412352 1.0274312
0.9561714 1.0044023 1.0076473 1.0258787 1.0691398 0.9946754 0.99471563 0.9174096
0.98947096 1.0080775 0.93048483 1.0107872 1.0052259 0.9451901 0.99046594 1.0528597
0.94718933 0.9889674 0.9474774 1.0285747 1.030744 1.0297832 1.0394341 0.932434
1.0154284 1.0421464 0.98642737 1.082466 0.91938597 0.97373456 1.0104645 0.9291798
0.9689722 1.0468284 0.9950103 0.94942504 1.0163088 0.89061457 0.98952955 1.0497099
00000000: b4c1 803f 007e 7f3f ae24 713f 061c 813f
00000010: 8d57 823f e65a 673f c495 643f 4738 753f
00000020: 88f7 6f3f 6707 813f 7986 7c3f 96d1 773f
00000030: 26b9 843f dfb5 753f 2ee0 793f c0f7 7f3f
00000040: 414c 8b3f 488d 893f 13ad 823f 2eb4 783f
00000050: f43b 813f 55c3 873f caf4 703f de82 833f
00000060: a6c7 743f 4190 803f 96fa 803f fe4f 833f
00000070: 93d9 883f 0ca3 7e3f afa5 7e3f 5bdb 6a3f
00000080: f84d 7d3f af08 813f 4134 6e3f 7a61 813f
00000090: 3eab 803f faf7 713f 2d8f 7d3f 1bc4 863f
000000a0: 007b 723f f82c 7d3f e18d 723f 56a8 833f
000000b0: 6bef 833f f0cf 833f 2d0c 853f ffb3 6e3f
000000c0: 8ff9 813f 0e65 853f 8186 7c3f 3f8e 8a3f
000000d0: e15c 6b3f ab46 793f e756 813f bade 6d3f
000000e0: 900e 783f 79fe 853f ffb8 7e3f 850d 733f
000000f0: 6816 823f 51ff 633f cf51 7d3f e55c 863f

layers.2.1.bias f4 [64]
0.017886832 -0.004508088 -0.024100618 0.06436811 -0.00091460923 -0.056402028 -0.093776375 -0.06698975
-0.032534476 0.009265399 -0.01576368 0.016335849 0.03573508 -0.044400975 -0.025221316 0.009572241
0.04260169 0.06313075 0.025727125 -0.036432046 0.014577972 0.015934445 -0.04246678 -0.0014285749
-0.025478462 0.002069985 -0.0051460164 0.010165734 0.010322922 -0.044959582 0.037926532 -0.07910324
-0.02038939 0.015450292 -0.05804454 -0.00514512 0.012497701 -0.027104046 -0.021524042 0.046351846
-0.030650709 -0.011757661 -0.04464042 0.0015008177 -0.014836489 0.029240858 0.030249294 -0.086529635
-0.022650842 0.015556915 -0.050579943 0.04813406 -0.07137316 -0.040487647 -0.047902517 -0.068104826
-0.022107074 0.04078366 -0.0027287882 -0.051212143 0.038714144 -0.08529501 0.011711964 0.04099746
00000000: 6887 923c 95b8 93bb a96e c5bc 6dd3 833d
00000010: 63c2 6fba d005 67bd d40d c0bd ec31 89bd
00000020: df42 05bd e6cd 173c d522 81bc c2d2 853c
00000030: f25e 123d ccdd 35bd ef9c cebc e4d4 1c3c
00000040: 1c7f 2e3d b24a 813d b1c1 d23c c539 15bd
00000050: 72d8 6e3c f488 823c a5f1 2dbd 053f bbba
00000060: 35b8 d0bc 96a8 073b ea9f a8bb 2e8e 263c
00000070: 7921 293c 8a27 38bd da58 1b3d e100 a2bd
00000080: a607 a7bc 3923 7d3c 1dc0 6dbd 6598 a8bb
00000090: 28c3 4c3c 4e09 debc 3053 b0bc 6fdb 3d3d
000000a0: 3217 fbbc 34a3 40bc dfd8 36bd 16b7 c43a
000000b0: bf14 73bc 868a ef3c 5ecd f73c 7336 b1bd
000000c0: 428e b9bc 6ee2 7e3c ea2c 4fbd 3828 453d
000000d0: 172c 92bd 60d6 25bd 6e35 44bd 8b7a 8bbd
000000e0: e519 b5bc c40c 273d 78d5 32bb d3c3 51bd
000000f0: b992 1e3d 26af aebd 8ae3 3f3c f4ec 273d

layers.3.0.weight f4 [32, 64]
0.09352135 0.17419796 0.1689156 0.37983757 -0.40126923 0.20535089 0.108651824 -0.024715532
0.18029153 -0.37603748 -0.025239006 0.089935005 -0.16366898 -0.28531718 0.010588376 -0.06936936
-0.24058491 0.16086979 0.010341403 -0.059455708 0.03502998 0.49454966 -0.08940411 -0.3090186
0.042077053 0.30507955 -0.49987334 -0.11264378 0.054800916 0.028931588 0.0012670542 -0.14889953
0.1742418 0.18767685 0.02595981 -0.1342644 -0.018761147 -0.19279131 -0.033203937 0.02662076
0.14354594 -0.050158773 0.009460392 0.09974086 0.15041566 -0.30575275 0.24586496 -0.05401552
0.09897543 -0.051380903 0.039091542 -0.23968482 -0.106304325 -0.102349676 -0.09712542 0.019455444
0.12670204 0.31988713 0.06214785 -0.048518818 -0.032105476 -0.017719233 -0.029987687 0.2812496
-0.17543168 -0.08570326 -0.30325818 0.00926976 0.058970496 -0.030231018 -0.06587057 -0.14908385
-0.18005136 0.018630467 0.17323105 -0.09821582 -0.033290584 0.046060428 0.010740425 0.012487294
0.30608413 -0.084705144 -0.29905793 -0.17688145 -0.021259384 0.09242082 0.15407135 0.17909728
-0.118639275 -0.017721679 -0.19602516 0.0015392577 -0.04167034 -0.2880793 0.032387782 0.005649084
0.29767725 0.05356931 0.012479909 0.05007766 0.015528331 -0.06241317 -0.35391906 -0.38990045
-0.50272274 0.22302866 0.027151965 0.0018757017 -0.1151936 -0.1574865 -0.12949413 -0.2624412
-0.1435455 0.46016628 -0.19687943 0.05898348 -0.04670878 0.12369925 0.21631923 -0.25570634
0.021552015 -0.111826144 -0.27228835 -0.2909018 0.15334924 0.24153568 0.27765942 -0.18600723
0.33051205 -0.0393545 0.2452803 -0.17782 -0.06594967 0.024815561 -0.27228892 -0.038949747
-0.06364173 0.15776567 0.39672703 -0.06841499 0.22372662 0.039400507 -0.1788097 0.17502138
0.049414232 0.0033051618 -0.17958239 0.0026438888 0.19190273 -0.09608131 -0.39944336 0.27186802
0.068368234 0.24427317 -0.21549109 -0.14943035 0.17155583 0.25986692 -0.03489275 -0.13025333
-0.25185034 -0.04153088 0.09709921 -0.025676217 -0.108362734 -0.23807031 -0.14719164 -0.101851024
-0.2876379 0.22143759 -0.044228774 -0.14362635 0.031533968 0.01344281 -0.21142799 -0.010267227
-0.027977351 0.17718692 -0.1648292 -0.020515501 0.033401366 0.19873486 0.1816795 0.21391241
0.115929276 0.03013958 -0.037871763 -0.2646501 0.2143046 0.12875935 0.06742179 -0.072657116
-0.1711269 0.16382986 0.02326091 0.20179813 -0.07239707 -0.015918884 -0.08064812 -0.042096145
-0.077065 -0.16356514 0.24175742 -0.16809675 -0.25291473 0.109830655 -0.18237844 0.21874994
0.008754583 0.110333756 -0.18625997 -0.4082631 -0.03094055 0.2829332 -0.38753167 -0.010022529
0.18168108 -0.18462858 0.18719874 0.14255613 0.11313327 0.18365796 -0.03307645 0.06935768
-0.022613652 0.027107349 0.17013131 0.267128 0.12881832 -0.02019204 -0.38896522 0.21256465
0.13838917 0.20103997 -0.12844414 0.09857861 -0.2852973 -0.057487845 0.36891526 0.18229063
0.26523322 -0.10139033 0.20410718 -0.0678236 -0.04981729 0.21557443 0.016786968 -0.053849507
0.033373494 0.07599873 -0.18643501 0.07608149 -0.08014153 -0.11969484 0.112249434 -0.18957257
00000000: 1f88 bf3d f360 323e 36f8 2c3e 127a c23e
00000010: 2973 cdbe 8147 523e d984 de3d 3a78 cabc
00000020: 589e 383e fc87 c0be 08c2 cebc d82f b83d
00000030: d798 27be 1815 92be de7a 2d3c 8611 8ebd
00000040: e45b 76be 0dbb 243e fd6e 293c d487 73bd
00000050: 997b 0f3d 9d35 fd3e 8119 b7bd b037 9ebe
00000060: fd58 2c3d 6333 9c3e 66ef ffbe c8b1 e6bd
00000070: ed76 603d f001 ed3c 4913 a63a 1e79 18be
00000080: 716c 323e 5c2e 403e aba9 d43c 9b7c 09be
00000090: fab0 99bc 166b 45be da00 08bd c813 da3c
000000a0: b5fd 123e 4973 4dbd c3ff 1a3c f044 cc3d
000000b0: 9006 1a3e a08b 9cbe 06c4 7b3e 613f 5dbd
000000c0: a1b3 ca3d c874 52bd 741e 203d f06f 75be
000000d0: 15b6 d9bd b59c d1bd b1e9 c6bd 0661 9f3c
000000e0: 2ebe 013e 3fc8 a33e be8e 7e3d abbb 46bd
000000f0: 0881 03bd ed27 91bc bda8 f5bc f3ff 8f3e
00000100: 5da4 33be 3185 afbd a844 9bbe 31e0 173c
00000110: 0c8b 713d 0aa7 f7bc 26e7 86bd 70a9 18be
00000120: 625f 38be ec9e 983c 7b63 313e 6025 c9bd
00000130: b55b 08bd dca9 3c3d 9cf8 2f3c 8297 4c3c
00000140: 0fb7 9c3e e479 adbd 1f1e 99be 6920 35be
00000150: 2928 aebc 2047 bd3d e1c4 1d3e 4765 373e
00000160: 26f9 f2bd 0e2d 91bc d2ba 48be ebc0 c93a
00000170: 85ae 2abd 217f 93be 0da9 043d f41b b93b
00000180: 2769 983e 7e6b 5b3d 8878 4c3c 3b1e 4d3d
00000190: 8a6a 7e3c f4a4 7fbd e134 b5be 08a1 c7be
000001a0: 70b2 00bf a061 643e cc6d de3c 1bda f53a
000001b0: 9fea ebbd 2444 21be 1c9a 04be b15e 86be
000001c0: 97fd 12be ea9a eb3e c39a 49be a998 713d
000001d0: b551 3fbd 0856 fd3d ca82 5d3e f1eb 82be
000001e0: da8d b03c 1b05 e5bd 6169 8bbe 15f1 94be
000001f0: 9507 1d3e 2155 773e 6029 8e3e ae78 3ebe
00000200: e038 a93e 2f32 21bd c22a 7b3e 7216 36be
00000210: 9f10 87bd 014a cb3c 7469 8bbe c589 1fbd
00000220: 9856 82bd 538d 213e ce1f cb3e 291d 8cbd
00000230: 9718 653e 6d62 213d e419 37be ce38 333e
00000240: 9466 4a3d 6a9b 583b 72e4 37be 1845 2d3b
00000250: 2682 443e 47c6 c4bd d783 ccbe 4932 8b3e
00000260: a504 8c3d bf22 7a3e b2a9 5cbe 4504 19be
00000270: 55ac 2f3e 470d 853e b3eb 0ebd 2161 05be
00000280: 87f2 80be 491c 2abd f3db c63d ee56 d2bc
00000290: 48ed ddbd b4c8 73be 68b9 16be 4597 d0bd
000002a0: 4645 93be 89c0 623e 3b29 35bd c912 13be
000002b0: c329 013d 3b3f 5c3c 9480 58be df37 28bc
000002c0: c230 e5bc 7d70 353e fcc8 28be 2010 a8bc
000002d0: dfcf 083d 2781 4b3e 310a 3a3e db0b 5b3e
000002e0: 546c ed3d 48e7 f63c 6c1f 1bbd 3880 87be
000002f0: aa72 5b3e 7ed9 033e 6f14 8a3d 41cd 94bd
00000300: e43b 2fbe 04c3 273e aa8d be3c 2ba4 4e3e
00000310: ea44 94bd 5268 82bc d72a a5bd 026d 2cbd
00000320: 41d4 9dbd 9f7d 27be 428f 773e 8e21 2cbe
00000330: 0a7e 81be e5ee e03d 6ac1 3abe fcff 5f3e
00000340: 626f 0f3c aaf6 e13d efba 3ebe dc07 d1be
00000350: 0977 fdbc 9fdc 903e 8d6a c6be 8935 24bc
00000360: 9b0a 3a3e 460f 3dbe 07b1 3f3e 3cfa 113e
00000370: 6ab2 e73d d510 3c3e 2c7b 07bd 660b 8e3d
00000380: 4440 b9bc 3b10 de3c e736 2e3e 00c5 883e
00000390: f3e8 033e c769 a5bc 7326 c7be 8caa 593e
000003a0: e4b5 0d3e 6cdd 4d3e dc86 03be 95e3 c93d
000003b0: 7d12 92be 6078 6bbd 76e2 bc3e 65aa 3a3e
000003c0: a6cc 873e bca5 cfbd 7901 513e 19e7 8abd
000003d0: 370d 4cbd 8bbf 5c3e d384 893c 4d91 5cbd
000003e0: a5b2 083d 39a5 9b3d d2e8 3ebe 9dd0 9b3d
000003f0: 3e21 a4bd 9122 f5bd 08e3 e53d 501f 42be

layers.3.1.weight f4 [32]
1.1437114 1.0895983 1.0750303 1.063953 0.99352175 1.1112477 1.0736308 0.95992965
1.1462883 1.1550152 1.0747161 1.1389828 1.0143659 1.0590241 1.0829926 1.1614126
1.1261046 1.1002187 0.9822213 1.0505264 1.1412187 0.9910623 1.0968374 1.067865
1.2260553 1.0609299 1.0443282 1.1497089 1.167207 1.0093771 1.2238492 1.072382
00000000: 2365 923f f577 8b3f 989a 893f 9d2f 883f
00000010: 7157 7e3f 5d3d 8e3f bc6c 893f f3bd 753f
00000020: 93b9 923f 8ad7 933f 4c90 893f 30ca 913f
00000030: bed6 813f 1a8e 873f 809f 8a3f 2ba9 943f
00000040: 3224 903f f7d3 8c3f db72 7b3f a677 863f
00000050: 7413 923f 42b6 7d3f 2b65 8c3f cdaf 883f
00000060: 61ef 9c3f 8dcc 873f 8cac 853f a929 933f
00000070: 0a67 953f 4533 813f 17a7 9c3f d043 893f

layers.3.1.bias f4 [32]
0.16921721 0.042558078 0.059154022 0.027395384 0.003592181 0.0914744 0.014211597 -0.038008593
0.1288356 0.13160299 0.04530031 0.097668804 0.030140946 0.009638555 0.059489485 0.1376389
0.14662172 0.045449715 0.04945179 -0.006541407 0.07562585 -0.03703942 0.0859159 0.0673104
0.17391133 0.06743005 0.018139418 0.20181802 0.13436861 0.017329162 0.14400406 0.008807818
00000000: 4747 2d3e 6151 2e3d 7d4b 723d 496c e03c
00000010: cc6a 6b3b ee56 bb3d c2d7 683c e6ae 1bbd
00000020: 7bed 033e efc2 063e d18c 393d 9506 c83d
00000030: 25ea f63c 08eb 1d3c 3fab 733d 36f1 0c3e
00000040: 0124 163e 7b29 3a3d f68d 4a3d 4d59 d6bb
00000050: bae1 9a3d a6b6 17bd adf4 af3d 09da 893d
00000060: d015 323e c418 8a3d 1e99 943c 62a9 4e3e
00000070: ed97 093e e3f5 8d3c cd75 133e ab4e 103c

fc_out.weight f4 [2, 32]
-0.5748414 0.3665352 0.4200243 0.06059498 0.07948793 -0.050444435 0.10908959 0.0067860708
-0.19272184 -0.4514483 -0.100128524 -0.45850518 0.55323476 0.28235286 0.084187016 0.08429547
0.35634091 0.30439788 0.065665886 0.17702264 -0.047499664 0.14157495 0.18087031 0.32067424
-0.072321355 -0.3655418 0.27259246 0.1384355 -0.40645123 0.0028406065 -0.18604395 0.45165986
-0.115482144 -0.25434244 -0.11746729 0.24342954 -0.20741867 0.48471916 -0.20835203 -0.05085098
0.23119804 0.3884551 0.4752412 0.19343828 0.12799484 -0.2265814 -0.07805266 0.5267304
-0.42807245 -0.21638352 0.11904253 -0.057120286 0.11561828 -0.28456178 -0.16704395 -0.0861063
0.23459016 0.3104925 0.06202343 0.41493863 -0.07426362 0.10571467 0.15286222 -0.038543306
00000000: ce28 13bf 80aa bb3e 6d0d d73e 7132 783d
00000010: 91ca a23d d39e 4ebd 5d6a df3d b05d de3b
00000020: e058 45be 3b24 e7be 2f10 cdbd 31c1 eabe
00000030: cba0 0d3f 8e90 903e 3e6a ac3d 1aa3 ac3d
00000040: 5172 b63e 0ada 9b3e d67b 863d 6c45 353e
00000050: 028f 42bd 06f9 103e 1136 393e 6a2f a43e
00000060: 381d 94bd 4b28 bbbe 3d91 8b3e 09c2 0d3e
00000070: 601a d0be 7829 3a3b 4e82 3ebe f63f e73e
00000080: e781 ecbd 2c39 82be b192 f0bd 9845 793e
00000090: 8f65 54be 1c2d f83e 3c5a 55be 1e49 50bd
000000a0: 2ebf 6c3e 96e3 c63e d152 f33e af14 463e
000000b0: 1411 033e f404 68be 13da 9fbd ced7 063f
000000c0: 502c dbbe a493 5dbe 92cc f33d f6f6 69bd
000000d0: 47c9 ec3d 15b2 91be 920d 2bbe 8058 b0bd
000000e0: 6738 703e dff8 9e3e 480c 7e3d d672 d43e
000000f0: 8617 98bd ef80 d83d ea87 1c3e 96df 1dbd

fc_out.bias f4 [2]
-0.040290564 0.040290564
00000000: b807 25bd b807 253d
