test/output/local4/simulatorRun/freesurfer_volumetric/fold_9/current.nn.pt (torch_old, 736762 bytes, 42 tensors)

layers.0.0.weight f4 [256, 66]
0	0x3e1b4c87	0.15165912
1	0x3dc97ad1	0.098378785
2	0xbd950316	-0.07275979
3	0x3e30891f	0.17239808
4	0xbdc0a4de	-0.09406446
5	0x3ec24b0c	0.3794788
6	0xbd0cf943	-0.034417402
7	0xbe18339e	-0.1486344
8	0xbe2e4b97	-0.17021023
9	0x3dd17213	0.10226836
10	0x3e15e317	0.14637409
11	0x3e7c372f	0.24630426
12	0xbd7bea9d	-0.06150304
13	0xbd5a249c	-0.05325757
14	0x3e986dcd	0.2977127
15	0xbc19301d	-0.00934985
16	0xbce7f6ee	-0.028315987
17	0xbb62c28b	-0.003460082
18	0x3d04f7c4	0.03246285
19	0xbc3ed715	-0.011647959
20	0xbe1fecef	-0.15617727
21	0x3e5183d7	0.20460449
22	0x3e1774cb	0.14790647
23	0xbc1591d2	-0.009129005
24	0x3e9f25ee	0.31083626
25	0x3e6ee7ee	0.23330662
26	0xbce935e4	-0.02846808
27	0x3d786910	0.06064707
28	0x3b7ecd0e	0.0038879546
29	0x3e91c320	0.2846918
30	0x3d6e88bb	0.058235865
31	0xbd7880d0	-0.06066972
32	0x3e48b7b9	0.19601335
33	0xbc82cbc2	-0.0159663
34	0xbe5ebdf0	-0.21752143
35	0x3e9013c5	0.28140083
36	0xbe0cf85b	-0.13766615
37	0xbdde9976	-0.10869114
38	0xbd885449	-0.06656701
39	0x3e660ca6	0.22465762
40	0xbe1fd199	-0.15607299
41	0xbe41137a	-0.18855086
42	0xbe42016e	-0.18945858
43	0xbe8d0297	-0.27541038
44	0x3d30f19a	0.04319916
45	0xbd91c5a2	-0.071177736
46	0x3e8bab9b	0.27279362
47	0xbc21c77c	-0.009874221
48	0xbc95e9bc	-0.01829993
49	0xbd314404	-0.043277755
50	0xbb3924ec	-0.0028250767
51	0x3d8fd56c	0.07023129
52	0xbda16338	-0.078802526
53	0xbde3ed2e	-0.11129223
54	0x3d2f0fa4	0.042739525
55	0x3e0508dc	0.12991661
56	0x3d9dc946	0.077044055
57	0x3e0b02e9	0.13575329
58	0x3e575ecf	0.2103226
59	0x3e12e552	0.14345291
60	0x3dcfd8e2	0.10148789
61	0xbd7581be	-0.059938185
62	0xbe80172b	-0.25017676
63	0xbeccc82a	-0.39996463
64	0x3e255af4	0.16147977
65	0x3dd1ee3b	0.10250517
66	0xbd9483ce	-0.07251702
67	0x3e760688	0.24025929
68	0xbe8284b5	-0.25491872
69	0xbe986733	-0.29766235
70	0x3dc4d411	0.09610761
71	0xbe80e617	-0.25175545
72	0x3e268488	0.16261494
73	0xbe80b531	-0.25138238
74	0x3ed437a4	0.414487
75	0xbd6e1913	-0.05812938
76	0xbe8e9811	-0.27850392
77	0x3e6ae225	0.2293783
78	0x3e3b4bac	0.18290585
79	0xbe5ca601	-0.215477
80	0x3db3c54a	0.08777864
81	0xbeb4bb9b	-0.35299382
82	0xbe25984c	-0.16171378
83	0xbd94d994	-0.07268062
84	0xbe0ce491	-0.13759066
85	0xbe5af301	-0.21381761
86	0x3df15d26	0.11785345
87	0x3dc61d7b	0.09673592
88	0xbe77c8c1	-0.24197675
89	0x3cd5267a	0.026019324
90	0xbcacf4e8	-0.021112874
91	0xbd9e229a	-0.077214435
92	0xbd800bf1	-0.06252278
93	0xbe66fc7d	-0.22557254
94	0xbdacee04	-0.084438354
95	0x3e0a4853	0.13504152
96	0xbd9c5975	-0.0763425
97	0xbe088fa6	-0.13336048
98	0xbeae72d0	-0.3407197
99	0xbe39220e	-0.18079397
100	0xbdde1baa	-0.1084512
101	0x3d945a57	0.072437935
102	0xbd4e5c53	-0.050381016
103	0xbcb3bcd1	-0.02194062
104	0x3e60f23a	0.21967402
105	0xbb9f3f3e	-0.004859834
106	0x3ed9398e	0.42426723
107	0xbdc4854e	-0.09595738
108	0xbd606d29	-0.054791603
109	0x3da023b7	0.07819312
110	0x3e6d7ff4	0.23193341
111	0x3e542888	0.20718586
112	0xbe9ee9be	-0.31037706
113	0xbe64c99a	-0.2234253
114	0xbdefe664	-0.117138654
115	0x3d401b65	0.046901125
116	0xbe474046	-0.19458112
117	0x3e4d01d5	0.2002023
118	0xbd91b0c9	-0.07113797
119	0xbe2e2b84	-0.17008787
120	0x3df1f967	0.11815148
121	0x3e200e87	0.15630542
122	0xbe2943cc	-0.16529769
123	0xbca76a08	-0.020436302
124	0xbdce7f08	-0.10082823
125	0xbd177aa3	-0.03698219
126	0xbe028ef2	-0.12749842
127	0xbd11c160	-0.035584807
128	0xbd96e401	-0.07367707
129	0x3e1b52ad	0.15168257
130	0xbe909d31	-0.28244928
131	0xbee1519f	-0.44007584
132	0xbda0618f	-0.07831108
133	0xbe01071a	-0.12600365
134	0xbc4c71ec	-0.012478333
135	0xbd80a6c1	-0.06281806
136	0xbe85b8d8	-0.26117587
137	0x3c56b429	0.013104477
138	0x3d4d90f0	0.05018705
139	0x3ca8f439	0.020624267
140	0xbe615b82	-0.22007564
141	0x3e9b6b01	0.30355075
142	0x3e245da9	0.16051354
143	0xbdb1e943	-0.08687069
144	0xbe2ac556	-0.1667684
145	0x3e2d3a75	0.16916831
146	0x3e26db8e	0.16294691
147	0xbd7ca42f	-0.061680015
148	0x3e037e7a	0.12841216
149	0x3d60afac	0.054855034
150	0xbe0b59ac	-0.13608426
151	0x3dcef467	0.1010521
152	0xbdfe7d69	-0.12426264
153	0x3e40463a	0.1877679
154	0x3eb69dc9	0.35667256
155	0x3e0f1a84	0.13974959
156	0xbe0e3893	-0.13888769
157	0x3e19f264	0.15033871
158	0xbcb32fa5	-0.021873305
159	0xbcb54b39	-0.022130596
160	0xbe52bfbb	-0.20580952
161	0xbe0d2e42	-0.13787177
162	0xbe07c2c6	-0.13257894
163	0x3d90aff0	0.070648074
164	0xbd3b4fcf	-0.04573041
165	0xbdbfde2b	-0.09368547
166	0xbdd7488b	-0.10511883
167	0xbe854edb	-0.26036724
168	0xbea148f8	-0.31500983
169	0xbdaacbe0	-0.08339667
170	0xbea4a4f3	-0.32157096
171	0xbe01bbb0	-0.12669253
172	0xbe01014d	-0.12598152
173	0x3cef5041	0.029213073
174	0x3da1699b	0.07881471
175	0xbd9ac475	-0.075570025
176	0x3d58a69e	0.052893274
177	0x3b5a73b0	0.0033333115
178	0x3b99491f	0.004677906
179	0xbe1f085e	-0.15530536
180	0xbe19b99e	-0.15012214
181	0x3e17ba2c	0.14817113
182	0xbd55a0a7	-0.052155163
183	0xbe7051a5	-0.23468645
184	0xbdd43708	-0.10362059
185	0x3c83f486	0.016107809
186	0x3c3b5086	0.0114327725
187	0xbe653ed8	-0.22387254
188	0x3e0e6da0	0.13909006
189	0xbab93367	-0.0014129699
190	0xbe5f8568	-0.21828234
191	0x3c3463fc	0.011010166
192	0xbe94248c	-0.28934133
193	0x3cfddeb9	0.030989992
194	0x3b1e3ce2	0.0024145176
195	0xbd0a066c	-0.03369753
196	0x3dd32b8b	0.103110395
197	0x3e024950	0.12723279
198	0xbe0fa7f7	-0.14028917
199	0xbe695e73	-0.22789936
200	0x3d15f122	0.036606915
201	0x3e5d64d5	0.21620496
202	0xbc3f1e5c	-0.011664953
203	0x3d44b50d	0.048024226
204	0xbc21f7c1	-0.009885729
205	0xbd3acb04	-0.045603767
206	0xbe8b2d1d	-0.27182856
207	0xbe2c3b82	-0.16819575
208	0x3e45e1b1	0.19324376
209	0x3e056957	0.13028465
210	0xbda0c5c4	-0.07850221
211	0xbe13ef62	-0.14446786
212	0x3db6706b	0.08908161
213	0xbf0d74ba	-0.55256236
214	0xbe8581d3	-0.2607561
215	0xbe5e00fc	-0.21680063
216	0x3e03444d	0.12819023
217	0x3c8cc434	0.0171834
218	0xbddd098b	-0.10792836
219	0xbdcea1b3	-0.100894354
220	0x3db45114	0.08804527
221	0xbc3f500c	-0.0116767995
222	0xbce4ac1b	-0.027914098
223	0x3e070d4b	0.13188665
224	0xbe7129fe	-0.23551175
225	0x3d88def2	0.066831484
226	0xbe40f7d1	-0.18844534
227	0xbe3a5594	-0.18196708
228	0xbe6a0e64	-0.22857052
229	0x3c21b5e4	0.009870026
230	0xbe0ce55c	-0.13759369
231	0xbbcaa151	-0.006183781
232	0xbcb86ee1	-0.022513809
233	0x3eb6facc	0.35738218
234	0x3ddf32b4	0.10898343
235	0x3b10dcd9	0.0022104292
236	0xbb718b35	-0.0036856655
237	0xbdf31658	-0.11869496
238	0x3e052d13	0.13005476
239	0x3ea3516a	0.31898052
240	0xbe0ae31a	-0.13563195
241	0x3ed12b42	0.40853316
242	0x3cd8f259	0.026482748
243	0x3bfe9371	0.007769041
244	0x3e2d0193	0.16895132
245	0x3eb16210	0.34645128
246	0x3c8e8332	0.017396543
247	0xbd8ae769	-0.06782419
248	0xbe0d5742	-0.13802817
249	0x3d5d206e	0.053986005
250	0x3e800389	0.25002697
251	0xbc978dec	-0.01850029
252	0xbd5f1af3	-0.05446906
253	0x3e636c4b	0.22209279
254	0x3dab956d	0.0837811
255	0xbe3e8a7d	-0.18607517

layers.0.1.weight f4 [256]
0	0x3f7eaff8	0.99487257
1	0x3f81780c	1.011476
2	0x3f7a9e0f	0.9789743
3	0x3f7ba7ac	0.9830272
4	0x3f832924	1.024693
5	0x3f7b7dae	0.98238647
6	0x3f7b8dca	0.9826323
7	0x3f7e6eca	0.993878
8	0x3f7f018f	0.99611753
9	0x3f863677	1.0485371
10	0x3f7f9c81	0.9984818
11	0x3f762a14	0.96157956
12	0x3f83edc7	1.0306939
13	0x3f846b63	1.0345272
14	0x3f7fde4c	0.99948573
15	0x3f7d1c7e	0.988716
16	0x3f835b68	1.026227
17	0x3f8298fb	1.0202936
18	0x3f7d0a3a	0.9884373
19	0x3f799224	0.9748862
20	0x3f806457	1.0030621
21	0x3f7950c8	0.9738889
22	0x3f7a3268	0.97733164
23	0x3f737afc	0.95109534
24	0x3f784289	0.96976525
25	0x3f7ac0d3	0.97950476
26	0x3f780749	0.96886116
27	0x3f825647	1.018258
28	0x3f7de544	0.99177957
29	0x3f7ef583	0.9959337
30	0x3f7e608a	0.99366057
31	0x3f7de485	0.9917682
32	0x3f79b571	0.9754248
33	0x3f7d43df	0.9893169
34	0x3f80c7bc	1.0060954
35	0x3f838aac	1.0276694
36	0x3f7b4885	0.9815753
37	0x3f783ecf	0.9697084
38	0x3f80b8fa	1.005645
39	0x3f7dbf10	0.99119663
40	0x3f80298a	1.0012677
41	0x3f78fba7	0.9725899
42	0x3f805b70	1.0027905
43	0x3f796a8e	0.97428215
44	0x3f782088	0.9692464
45	0x3f8abae2	1.0838282
46	0x3f7ab5e7	0.9793381
47	0x3f81ace3	1.0130886
48	0x3f78cae3	0.9718458
49	0x3f824e57	1.0180157
50	0x3f7bf48d	0.9842003
51	0x3f879443	1.0592121
52	0x3f83fe50	1.0311985
53	0x3f7e9461	0.9944516
54	0x3f81393b	1.009559
55	0x3f821471	1.0162488
56	0x3f7d2a5c	0.9889276
57	0x3f7c06d1	0.984479
58	0x3f7c8820	0.9864521
59	0x3f7de48c	0.9917686
60	0x3f8b1920	1.0867043
61	0x3f7c0631	0.9844695
62	0x3f7bce34	0.98361516
63	0x3f84c5cf	1.0372866
64	0x3f82b377	1.0211018
65	0x3f7b0f77	0.9807047
66	0x3f817ae4	1.0115628
67	0x3f7d63e1	0.9898053
68	0x3f799509	0.97493035
69	0x3f8819c7	1.0632867
70	0x3f8a1bf4	1.0789781
71	0x3f79a3e9	0.9751573
72	0x3f804e09	1.0023814
73	0x3f801924	1.0007672
74	0x3f83ae2f	1.0287532
75	0x3f77db72	0.9681922
76	0x3f7d8839	0.99035984
77	0x3f7e2069	0.99268204
78	0x3f804a3d	1.0022656
79	0x3f838954	1.0276284
80	0x3f8145a8	1.0099382
81	0x3f84aa55	1.0364481
82	0x3f7bac2e	0.983096
83	0x3f88cc0b	1.0687269
84	0x3f806559	1.0030929
85	0x3f779e83	0.96726245
86	0x3f7aa227	0.97903675
87	0x3f7d5d6e	0.9897069
88	0x3f75da08	0.96035814
89	0x3f7cc0ce	0.98731697
90	0x3f77dc17	0.96820205
91	0x3f8a02bc	1.0782084
92	0x3f877133	1.0581421
93	0x3f7b7022	0.98217976
94	0x3f81fefb	1.0155939
95	0x3f7e2668	0.99277353
96	0x3f7baa08	0.9830632
97	0x3f7717c0	0.96520615
98	0x3f773cfb	0.96577424
99	0x3f7a6efa	0.97825587
100	0x3f8a3fb1	1.0800687
101	0x3f7dad12	0.9909221
102	0x3f81b5df	1.0133628
103	0x3f8113cc	1.0084167
104	0x3f815402	1.0103762
105	0x3f80beb7	1.0058202
106	0x3f78ec67	0.9723572
107	0x3f7e2510	0.992753
108	0x3f7a3dfd	0.97750837
109	0x3f7f23f9	0.99664265
110	0x3f793ad2	0.9735538
111	0x3f7f58f6	0.9974512
112	0x3f817c19	1.0115997
113	0x3f78cbbd	0.9718588
114	0x3f81a33a	1.0127938
115	0x3f7ad12e	0.9797543
116	0x3f724f74	0.94652486
117	0x3f7ba604	0.98300195
118	0x3f808398	1.0040159
119	0x3f79ed8f	0.9762811
120	0x3f80989c	1.0046573
121	0x3f7d4200	0.98928833
122	0x3f7daddf	0.9909343
123	0x3f7c89dc	0.98647857
124	0x3f7b353e	0.98128116
125	0x3f7815d7	0.96908325
126	0x3f7a38ce	0.9774293
127	0x3f7a07b6	0.97668016
128	0x3f761e17	0.96139663
129	0x3f835b77	1.0262288
130	0x3f7e61d3	0.9936802
131	0x3f8453af	1.0338038
132	0x3f7b404f	0.98145
133	0x3f79b7bc	0.9754598
134	0x3f7fb65c	0.99887633
135	0x3f7eaa3e	0.9947852
136	0x3f75a7ab	0.95958966
137	0x3f77cd43	0.9679758
138	0x3f7871bf	0.9704856
139	0x3f7da30d	0.9907692
140	0x3f7e06f7	0.9922938
141	0x3f7bdec5	0.98386794
142	0x3f72dad7	0.94865173
143	0x3f7c42ae	0.98539245
144	0x3f7c33e7	0.98516697
145	0x3f832886	1.0246742
146	0x3f7f7fe7	0.9980454
147	0x3f76ee0b	0.96456975
148	0x3f83ae62	1.0287592
149	0x3f772e61	0.96555144
150	0x3f7cca9e	0.9874667
151	0x3f78af68	0.9714265
152	0x3f78c35d	0.971731
153	0x3f7c09ab	0.9845225
154	0x3f830fea	1.0239232
155	0x3f7bd43d	0.98370725
156	0x3f833246	1.0249717
157	0x3f7e79a8	0.9940438
158	0x3f7bd3ed	0.9837025
159	0x3f746898	0.954721
160	0x3f7e28b0	0.99280834
161	0x3f808b0d	1.0042435
162	0x3f7bf375	0.9841836
163	0x3f85c0f2	1.0449507
164	0x3f79d490	0.9758997
165	0x3f7bbf79	0.9833904
166	0x3f7d799f	0.99013704
167	0x3f8184a9	1.011861
168	0x3f80b424	1.0054975
169	0x3f7cea31	0.9879485
170	0x3f7b7f41	0.9824105
171	0x3f7d482e	0.9893826
172	0x3f81ea24	1.0149579
173	0x3f7a53b0	0.97783947
174	0x3f811edc	1.0087543
175	0x3f793e72	0.9736091
176	0x3f883880	1.0642242
177	0x3f7c34c6	0.98518026
178	0x3f7ccf59	0.9875389
179	0x3f77b687	0.9676289
180	0x3f798e7b	0.9748303
181	0x3f7e2eeb	0.9929034
182	0x3f786d1b	0.9704148
183	0x3f78c46a	0.97174704
184	0x3f8047f6	1.0021961
185	0x3f79d54a	0.9759108
186	0x3f7bc19a	0.9834229
187	0x3f799c10	0.9750376
188	0x3f7cb6b1	0.98716265
189	0x3f7fa66e	0.99863327
190	0x3f7440a0	0.9541111
191	0x3f78eda5	0.97237617
192	0x3f794050	0.9736376
193	0x3f75b852	0.95984375
194	0x3f8470ba	1.0346901
195	0x3f7d8b42	0.99040616
196	0x3f7d82e0	0.99027824
197	0x3f831073	1.0239395
198	0x3f86fcc4	1.0545888
199	0x3f7a4e87	0.97776073
200	0x3f80aa66	1.0052001
201	0x3f81560b	1.0104383
202	0x3f817a50	1.0115452
203	0x3f88c6cf	1.0685672
204	0x3f775083	0.96607226
205	0x3f7b85fd	0.98251325
206	0x3f7c8eba	0.98655283
207	0x3f7bd6c1	0.98374563
208	0x3f85cc44	1.0452962
209	0x3f801a81	1.0008088
210	0x3f8009f6	1.000304
211	0x3f7da52f	0.99080175
212	0x3f7d1fcf	0.9887666
213	0x3f80576e	1.0026681
214	0x3f811db1	1.0087186
215	0x3f8464c6	1.0343254
216	0x3f80cdc0	1.006279
217	0x3f7a4f59	0.97777325
218	0x3f89058a	1.0704815
219	0x3f7a35f6	0.9773859
220	0x3f7ae61c	0.9800737
221	0x3f84e6dc	1.0382953
222	0x3f7f629b	0.99759835
223	0x3f811a20	1.0086098
224	0x3f7f1a86	0.99649847
225	0x3f7d171f	0.98863405
226	0x3f7a5c55	0.9779714
227	0x3f7a9a21	0.9789143
228	0x3f793f27	0.9736199
229	0x3f7c1ade	0.98478496
230	0x3f84eef9	1.0385429
231	0x3f81e44d	1.0147797
232	0x3f7b1fa3	0.9809515
233	0x3f7b01e5	0.98049766
234	0x3f7fb80c	0.9989021
235	0x3f7d1ce7	0.98872226
236	0x3f7a0321	0.97661024
237	0x3f760b9d	0.9611147
238	0x3f7d2381	0.988823
239	0x3f7ba598	0.9829955
240	0x3f7f690a	0.9976965
241	0x3f803c25	1.0018355
242	0x3f84caa3	1.037434
243	0x3f7ee2ff	0.9956512
244	0x3f7effa2	0.99608815
245	0x3f76c494	0.96393704
246	0x3f819aee	1.0125406
247	0x3f71f145	0.94508773
248	0x3f80434b	1.0020536
249	0x3f7eb440	0.9949379
250	0x3f85b909	1.0447093
251	0x3f838a67	1.0276612
252	0x3f7b3067	0.9812073
253	0x3f7d2714	0.98887753
254	0x3f7f57bb	0.9974324
255	0x3f823597	1.0172604

layers.0.1.bias f4 [256]
0	0xbc2ab722	-0.010419639
1	0xbc1a331d	-0.0094116
2	0x3bfd4186	0.0077287583
3	0xbc92f37b	-0.017938366
4	0xbc6a78b6	-0.014311006
5	0xbbd933ab	-0.0066284738
6	0xbca031ab	-0.019554934
7	0xbc9e9e40	-0.019362569
8	0x3d832e21	0.06405283
9	0x3d492e7d	0.0491166
10	0xbc286bf1	-0.0102796415
11	0xbcba15b3	-0.022715425
12	0x3db67c6b	0.089104496
13	0x3c627bb4	0.013823438
14	0x3be49470	0.006975703
15	0xbc663d51	-0.014052705
16	0xbc1e4ee9	-0.009662368
17	0x3ce2d0a4	0.027687378
18	0xbc0fee42	-0.008784832
19	0xbc3a4140	-0.011368096
20	0x3d03471f	0.03205025
21	0x3cc2f967	0.023800565
22	0xbca3eb71	-0.020009728
23	0xbd0991ea	-0.03358642
24	0xbbf0e728	-0.0073517747
25	0xbc6ba125	-0.014381682
26	0xbc86d819	-0.016460465
27	0x3caec741	0.021335246
28	0xbc8564ea	-0.016283471
29	0x3bcb913f	0.006212383
30	0xb9091e0c	-0.00013076531
31	0x3ac44856	0.0014975171
32	0xbc8be066	-0.017074775
33	0xbb652109	-0.0034962317
34	0xbc105579	-0.008809441
35	0x3d795360	0.06087053
36	0xbd0e99dd	-0.034814704
37	0xbc8ea3d8	-0.017412111
38	0x3c500e3f	0.012698709
39	0xbc1a1ad0	-0.009405807
40	0xbb19a424	-0.0023443783
41	0xbd07a538	-0.03311655
42	0x3c9633b8	0.018335208
43	0xbc789a6e	-0.015173538
44	0xbc918192	-0.01776198
45	0x3dd6781b	0.10472127
46	0x3acad945	0.0015476128
47	0x3c172825	0.00922588
48	0xbcbd7adf	-0.023129879
49	0xbc9d63a9	-0.01921256
50	0x3c0908a4	0.0083638765
51	0x3d871f25	0.06597737
52	0x3c1eff6f	0.009704455
53	0x3bc4a9fa	0.006001708
54	0x3aad5567	0.0013224304
55	0x3a9f4648	0.0012151683
56	0x3acf7c6f	0.0015829931
57	0xbbde1b8a	-0.0067781853
58	0xbc761c7a	-0.015021438
59	0x3b462dd7	0.0030239725
60	0x3da4172a	0.08012231
61	0xbc0ffce3	-0.00878832
62	0xbca4b8d5	-0.020107666
63	0x3c985c7a	0.018598784
64	0xbc18fec8	-0.009338088
65	0x3c2ce4b4	0.010552574
66	0x3c6a9b16	0.014319202
67	0x3be30888	0.0069285072
68	0x3b13acb1	0.0022533352
69	0x3d1a52d2	0.03767664
70	0x3d9ba039	0.075989194
71	0xbc883e2c	-0.016631208
72	0x3ca3df26	0.020003866
73	0xbc1d03b0	-0.009583399
74	0x3d2ddfca	0.04244975
75	0xbc4f0085	-0.012634401
76	0xbc7d8195	-0.015472789
77	0xbcd38cf4	-0.025824048
78	0x3d01552b	0.031575363
79	0x3d838237	0.06421321
80	0x3bb3d715	0.0054882863
81	0x3cce6e9e	0.02519923
82	0xbc0e944b	-0.008702348
83	0x3dcb73e0	0.09934211
84	0xb8de8a3c	-0.00010611533
85	0xbcccbb48	-0.024991646
86	0xbcd053e0	-0.02543062
87	0xbc1ad372	-0.009449827
88	0xbba214f9	-0.004946348
89	0xbc9529f8	-0.018208489
90	0xbcfae923	-0.030628746
91	0x3dcf7b8a	0.10130985
92	0x3d61f08e	0.05516105
93	0xbcd8ea62	-0.02647895
94	0x3d1b13ed	0.0378608
95	0xbad9e401	-0.0016623737
96	0xbc18a55c	-0.0093167685
97	0xbd58b1b6	-0.052903853
98	0xbc2452fe	-0.0100295525
99	0xbcda4579	-0.026644455
100	0x3dfb143a	0.12259717
101	0x3c50e403	0.012749675
102	0x3ce9890c	0.028507732
103	0x3cf9a9ca	0.03047647
104	0x3d5651a8	0.052323967
105	0xbb5ae7eb	-0.0033402394
106	0xbb1df9e7	-0.0024105252
107	0x3b41dac0	0.0029579848
108	0xbb600824	-0.003418454
109	0x3caaec26	0.020864557
110	0xbc3e0eba	-0.011600191
111	0x3caedb8d	0.021344924
112	0x3cf9055e	0.030398067
113	0xbc9d1a4a	-0.019177575
114	0x3d20db74	0.039271787
115	0xbc0b8be1	-0.008517236
116	0xbd683802	-0.05669404
117	0x3bdb91c2	0.0067007253
118	0x3c210ccd	0.009829712
119	0xbbe361ea	-0.0069391625
120	0xbcee2651	-0.029071005
121	0xbbe8758d	-0.0070940913
122	0x3c42aa1e	0.011881379
123	0x3c298e08	0.010348804
124	0xbc076126	-0.008262908
125	0xbcb92e33	-0.022605037
126	0xbcc924af	-0.024553625
127	0xbc922077	-0.017837746
128	0xbc4c8389	-0.012482532
129	0x3d43de4d	0.047819424
130	0xbcb027e4	-0.021503396
131	0x3d9d4b5e	0.07680391
132	0xbb9d42bc	-0.004799215
133	0xbcd2f1fc	-0.025750153
134	0x3c48240e	0.012215627
135	0x3c8f838d	0.017518783
136	0xbc925425	-0.017862389
137	0xbc873da5	-0.016508887
138	0xbd0bb043	-0.034103643
139	0x3c8a343c	0.01687061
140	0xbccb9d58	-0.0248553
141	0xbcddcb0c	-0.02707436
142	0xbd04fd03	-0.032467853
143	0xbbec7fad	-0.0072173686
144	0xbbafd328	-0.005365748
145	0xbc2d316e	-0.010570867
146	0xbc10a192	-0.008827584
147	0xbb215a9f	-0.0024620665
148	0x3cbee414	0.023302115
149	0xbcbd86a2	-0.023135487
150	0x3ca8114a	0.020516057
151	0xbd148a7c	-0.03626488
152	0xbcc3c219	-0.023896264
153	0x3b514fd3	0.0031938448
154	0x3c89a027	0.0168
155	0xbba8d236	-0.005152012
156	0x3c7ddc90	0.015494481
157	0xbb8cda30	-0.004298471
158	0xbbae4f76	-0.005319531
159	0xbcf6dc64	-0.030134387
160	0x3aed8f38	0.0018124348
161	0xbab07797	-0.0013463375
162	0xbc127566	-0.008939123
163	0x3d6923e7	0.056919005
164	0x3d342f1c	0.04399024
165	0xbc699159	-0.014255845
166	0xbbecfd73	-0.007232362
167	0xbb6bb16f	-0.0035963913
168	0xbd22663d	-0.039648283
169	0xbbb2bdc6	-0.0054547517
170	0xbcbfa958	-0.02339618
171	0xbca083a9	-0.01959403
172	0x3c29c9d3	0.01036306
173	0xbc1d95cc	-0.009618234
174	0xb94268aa	-0.00018540272
175	0xbbf8fc14	-0.0075984094
176	0x3d52c407	0.051456477
177	0xbc39b989	-0.011335739
178	0x3ce50264	0.027955242
179	0xbca266d0	-0.019824415
180	0xbc45250c	-0.012032758
181	0x3b8c67cd	0.004284835
182	0xbcbc3412	-0.022974048
183	0xbbf5d2a2	-0.007501916
184	0x3c4ffc1a	0.012694383
185	0xbcf0787b	-0.029354325
186	0xbc27dd40	-0.010245621
187	0xbc963bde	-0.018339094
188	0xb7c0fe90	-2.3006723e-05
189	0x3c452177	0.012031904
190	0xbcf52d2f	-0.029928772
191	0xbc170a20	-0.009218723
192	0xbc9483d4	-0.018129267
193	0xbc45fb8c	-0.012083899
194	0x3c4b07fb	0.012392039
195	0xbbd29b86	-0.0064272312
196	0xbc2fc236	-0.010727456
197	0x3d0e3e6d	0.034727503
198	0x3d0b1f22	0.033965237
199	0xbc8733f7	-0.016504271
200	0xbc387294	-0.011257786
201	0x3c9af8b9	0.018917428
202	0x3c611ff4	0.013740528
203	0x3d4b2cb9	0.049603198
204	0xbd049e73	-0.03237767
205	0xbcbd7d0c	-0.023130916
206	0xbc101f86	-0.008796578
207	0xbce3523e	-0.027749177
208	0xbcdb1bcb	-0.026746651
209	0xb80dd750	-3.3817545e-05
210	0x3b50404c	0.0031776605
211	0xbc9307ad	-0.017947996
212	0x3bd77cc4	0.0065761525
213	0x3ca06e41	0.019583823
214	0x3ca20cf1	0.019781562
215	0x3d8706cb	0.065930925
216	0xbc12ca29	-0.008959332
217	0xbc4a02ed	-0.012329799
218	0x3daf0e06	0.08547597
219	0xbca23d13	-0.019804513
220	0xbd0d483e	-0.034492724
221	0x3d307c4d	0.043087292
222	0x3c8df471	0.017328473
223	0x3d232911	0.039834086
224	0xbac0f228	-0.0014720606
225	0xbb9b5b32	-0.004741096
226	0xbc8b534a	-0.017007489
227	0x3c23c17a	0.009994859
228	0xbc330d50	-0.010928467
229	0xbc57b165	-0.013164853
230	0x3dda3c25	0.10656003
231	0x3ca5c925	0.020237515
232	0xbc93eeb3	-0.018058157
233	0xbcaf0d74	-0.02136872
234	0xbc783290	-0.015148774
235	0xbc1b219a	-0.00946846
236	0xbbd1a823	-0.0063982173
237	0xbc944c30	-0.018102735
238	0x3c54df8d	0.012992752
239	0xbcd4faba	-0.025998462
240	0xbaa07d5f	-0.0012244395
241	0x3c4eb406	0.012616163
242	0x3d527e7b	0.051390152
243	0x3bee3c8e	0.0072704023
244	0xbcf05468	-0.029337123
245	0xbba8b228	-0.005148191
246	0x3c7da5c9	0.015481421
247	0xbd06f0a2	-0.03294433
248	0xbc5700be	-0.013122736
249	0x3c444a61	0.011980624
250	0x3d9541bc	0.072879285
251	0x3d132868	0.035927206
252	0x3d26338c	0.040576503
253	0xbcc9dd18	-0.024641559
254	0x3c484dae	0.0122255515
255	0x3d72a833	0.05924244

layers.1.0.weight f4 [128, 256]
0	0xbda4cf98	-0.08047408
1	0xbc50b78a	-0.012739072
2	0xbe094c9f	-0.13408135
3	0xbd75ec59	-0.06003985
4	0x3c61a355	0.013771852
5	0x3dc6be72	0.09704293
6	0x3b9f3a5d	0.0048592524
7	0xbd5ed7fb	-0.054405194
8	0x3d0d849b	0.03455029
9	0xbb59d48d	-0.0033238262
10	0x3da1f9e3	0.0790899
11	0x3dafb412	0.085792676
12	0x3da450f9	0.08023257
13	0xbc936418	-0.017992064
14	0xbd5e44b9	-0.054264758
15	0xbbe29cde	-0.0069156727
16	0x3dd358c0	0.10319662
17	0xbc68dca7	-0.014212764
18	0xbd8c0216	-0.06836335
19	0xbbb0ee84	-0.005399527
20	0xbdf648bb	-0.12025591
21	0xbd8af12d	-0.06784282
22	0x3d7c8469	0.061649714
23	0xbdc5ad75	-0.09652225
24	0xbd4a2732	-0.049353786
25	0xbdd0f9b5	-0.10203878
26	0xbdb9888d	-0.09059248
27	0x3d5a9c73	0.053371858
28	0x3d6ed7cc	0.05831127
29	0xbd4bb338	-0.049731463
30	0xbdc421da	-0.09576769
31	0xbade29f1	-0.0016949755
32	0x3dbe027f	0.0927782
33	0x3d8043a8	0.062629044
34	0x3e69bfa4	0.22827011
35	0x3d54cfe7	0.051956084
36	0xbccc698f	-0.024952678
37	0xbe44c00f	-0.1921389
38	0xbd066011	-0.03280646
39	0x3d705b84	0.058681026
40	0x3d3a86fe	0.045538895
41	0xbcaba75e	-0.02095383
42	0x3d0c1389	0.034198318
43	0x3da4ad3c	0.08040854
44	0x3c635c5c	0.013877001
45	0x3d96d252	0.07364334
46	0x3dc36969	0.0954159
47	0xbcdd73b9	-0.02703272
48	0xbe67050f	-0.22560523
49	0x3b710ebb	0.0036782462
50	0x3d9c77e6	0.07640056
51	0x3e538914	0.2065776
52	0xbd29851c	-0.04138671
53	0xbb1fc443	-0.0024378456
54	0x3daaa5d1	0.08332408
55	0xbdceabb3	-0.10091343
56	0xbd90fcdc	-0.07079479
57	0xbdf41f64	-0.1192005
58	0x3e2acd2f	0.16679834
59	0x3e102b23	0.14078955
60	0xbd46b669	-0.048513804
61	0x3ce151e1	0.027504863
62	0x3de4a88c	0.1116496
63	0x3d5db862	0.05413092
64	0x3cbd74ef	0.023127047
65	0x3d13b015	0.036056597
66	0x3daaaafb	0.08333393
67	0xbc9a6993	-0.01884917
68	0xbd8ca7db	-0.068679534
69	0xbc58ae12	-0.013225095
70	0x3bcb956f	0.006212882
71	0x3d57d7dc	0.052696094
72	0x3b8773e8	0.00413369
73	0x3d8ccd61	0.068751104
74	0xbda6a988	-0.08137804
75	0xbda24b76	-0.07924549
76	0xbdf46d0e	-0.11934863
77	0xbc4024ea	-0.011727551
78	0x3c92db31	0.017926784
79	0x3c040dfe	0.008059977
80	0xb99c0c81	-0.00029763955
81	0xbd0238a5	-0.0317923
82	0xbe64bca0	-0.2233758
83	0xbdacf434	-0.084450155
84	0xbd377073	-0.044784974
85	0xbdfdd8eb	-0.123948894
86	0xbd19f8c5	-0.03759076
87	0xbdbe1252	-0.09280838
88	0xbc3bd9d5	-0.011465509
89	0x3d50ca87	0.050974395
90	0xbc119137	-0.00888472
91	0xbd0fe1d9	-0.035127494
92	0x3d054b56	0.03254255
93	0xbd25a597	-0.040441122
94	0x3dcfffa5	0.10156182
95	0x3de4a7b5	0.111648
96	0x3d6edef5	0.058318097
97	0x3d8cb888	0.06871134
98	0xbdd3f96c	-0.10350308
99	0x3d7d9670	0.061911047
100	0x3e08e5d9	0.1336893
101	0xbe06d4c3	-0.131671
102	0xbc14b3e8	-0.009076096
103	0xbddfe4eb	-0.109323345
104	0x3c743768	0.014905788
105	0x3dbbe404	0.0917435
106	0xbcef2494	-0.029192246
107	0xbd201c9a	-0.039089777
108	0x3d7e1b93	0.062038016
109	0xbe0127a1	-0.12612773
110	0x3e46d087	0.19415484
111	0x3d5a58aa	0.053307213
112	0x3e44630a	0.19178405
113	0x3d782793	0.060584616
114	0xbe1471f2	-0.14496592
115	0xbd44142e	-0.047870807
116	0x3ccffd8c	0.025389455
117	0xbc0fe483	-0.008782509
118	0x3db56025	0.08856229
119	0x3df693af	0.12039887
120	0x3cddcf68	0.027076438
121	0xbc2c6f74	-0.010524619
122	0xbd594ef3	-0.053053807
123	0xbd299c8d	-0.041409064
124	0xbd6fef16	-0.05857762
125	0x3dd2feb2	0.103024855
126	0x3e3e2ce9	0.1857182
127	0x3ceae295	0.028672496
128	0x3cb3fc39	0.021970855
129	0x3da5a5e4	0.08088282
130	0x3d07ecc0	0.033184767
131	0x3e2e73e6	0.17036399
132	0xbd19edfd	-0.03758048
133	0x3de7f957	0.11326855
134	0x3ddc1b5a	0.107474044
135	0x3e2d72a6	0.16938266
136	0x3d62b7ce	0.05535107
137	0xbbc17e9e	-0.0059049865
138	0x3ddf15c4	0.10892823
139	0xbde31be9	-0.11089308
140	0xbddf9f58	-0.10919064
141	0x3c96d8dd	0.018413955
142	0xbd96c8c7	-0.07362514
143	0xbd643588	-0.055715114
144	0x3d0e855c	0.03479515
145	0xbd3b0c3b	-0.04566596
146	0xbc90e62d	-0.017687881
147	0xbe24cf9e	-0.16094825
148	0x3caba25f	0.020951448
149	0x3dc80478	0.09766477
150	0x3da53e6c	0.08068547
151	0xbdc87b28	-0.09789115
152	0xbddd1608	-0.10795218
153	0xbdb0240b	-0.08600625
154	0xbc1ffe29	-0.009765186
155	0xbcc81b11	-0.024426969
156	0x3dea88eb	0.11451896
157	0x3ddbf90e	0.10740863
158	0xbc044ba9	-0.008074679
159	0xbcf59f89	-0.029983299
160	0x3cb07512	0.021540198
161	0xbd3899ec	-0.045068666
162	0xbda39933	-0.07988205
163	0x3dc8ee22	0.09811045
164	0x3d585339	0.052813742
165	0x3d6c0a07	0.05762675
166	0x3d5cfae2	0.053950198
167	0x3d2cd165	0.04219188
168	0xbdb3e797	-0.08784407
169	0x3e6e56e0	0.23275328
170	0x3d1ca52e	0.038243465
171	0xbc186d9c	-0.009303477
172	0x3d7bb8c3	0.0614555
173	0x3cd8c217	0.026459737
174	0x3c0a86d8	0.008455001
175	0x3d32b45a	0.043629028
176	0x3ca154bc	0.019693725
177	0x3da7a29d	0.08185313
178	0x3d30e333	0.043185424
179	0xbe2a6d27	-0.16643201
180	0x3e5864a1	0.21132137
181	0x3e4e4d9c	0.20146793
182	0xbcc79c11	-0.02436641
183	0xbddd358f	-0.10801231
184	0x3bb92f52	0.005651393
185	0xbd7f85f9	-0.062383626
186	0xbd74f4f1	-0.059803907
187	0x3de36c0c	0.11104593
188	0x3cd2e906	0.02574588
189	0x3dc6709e	0.09689449
190	0xbd4a45a5	-0.049382824
191	0xbbaece43	-0.005334647
192	0xbcea4581	-0.028597595
193	0x3d8c38ad	0.068467475
194	0x3e49cb62	0.1970649
195	0x3c43994c	0.011938404
196	0xbd24b5b2	-0.04021234
197	0xbe04a49f	-0.12953423
198	0xbcab509b	-0.02091246
199	0xbca18e92	-0.019721303
200	0x3c2b91e4	0.010471795
201	0x3cf4d407	0.029886259
202	0x3da106e4	0.078626424
203	0x3e25184d	0.16122551
204	0xbc881391	-0.016610892
205	0x3e8221c8	0.25416398
206	0xbdea754e	-0.11448155
207	0x3e1b444d	0.15162773
208	0xbd520b88	-0.05128053
209	0xbd9cc51d	-0.07654784
210	0x3d98be28	0.074581444
211	0xbe0645cf	-0.13112567
212	0x3cfbdf1b	0.030746033
213	0x3cdff917	0.027340455
214	0x3e4693fa	0.19392386
215	0xbdc241f1	-0.094852336
216	0xbd8a3de3	-0.06750085
217	0x3de7a11f	0.11310028
218	0x3d277914	0.040886953
219	0x3d91f39a	0.071265414
220	0x3d7a13a3	0.061053883
221	0xbdb67a6d	-0.089100696
222	0xbdd633ab	-0.10459074
223	0xbd878ecc	-0.06619033
224	0x3dbe4de5	0.09292201
225	0xbda58332	-0.08081664
226	0x3e142763	0.1446815
227	0xbdafabd0	-0.085776925
228	0x3de748f0	0.112932086
229	0x3e30682b	0.17227237
230	0xbe18e05b	-0.14929335
231	0x3cb26c19	0.02178006
232	0x3dabc49a	0.08387108
233	0x3df66f27	0.120329194
234	0x3d8f00da	0.06982584
235	0x3cebe5b8	0.028796062
236	0xbd99938e	-0.07498847
237	0x3e13a382	0.14417842
238	0xbe092bb9	-0.13395585
239	0x3d1a1c50	0.037624657
240	0xbd7bb855	-0.06145509
241	0xbde7a86b	-0.1131142
242	0xbcc0797c	-0.023495428
243	0x3d4b2bd9	0.049602363
244	0xbcfabada	-0.030606676
245	0x3d0770f9	0.033066723
246	0x3c389076	0.011264911
247	0xbdd3e710	-0.10346806
248	0x3bdd12e0	0.006746635
249	0xbc0223f9	-0.007943147
250	0x3cf7ca7a	0.030247916
251	0xbbd335aa	-0.0064456062
252	0xbb688da2	-0.003548481
253	0xbe2cd652	-0.16878632
254	0x3e20541f	0.1565709
255	0x3bd06b16	0.006360422

layers.1.1.weight f4 [128]
0	0x3f7e5b06	0.9935764
1	0x3f82d3a7	1.0220841
2	0x3f796974	0.97426534
3	0x3f7c8970	0.98647213
4	0x3f7a02a4	0.9766028
5	0x3f78539e	0.9700259
6	0x3f824fa6	1.0180557
7	0x3f863cc8	1.0487299
8	0x3f757a92	0.9589015
9	0x3f84cad5	1.03744
10	0x3f807f43	1.0038837
11	0x3f7dbf8e	0.99120414
12	0x3f7b7ec5	0.9824031
13	0x3f78653c	0.9702947
14	0x3f7b1686	0.98081243
15	0x3f81e891	1.0149099
16	0x3f792887	0.97327465
17	0x3f87bc90	1.060442
18	0x3f7cf262	0.98807347
19	0x3f814bd7	1.010127
20	0x3f7ee6c8	0.99570894
21	0x3f737fdd	0.9511698
22	0x3f7d9ae1	0.9906445
23	0x3f83a270	1.0283947
24	0x3f8040cc	1.0019774
25	0x3f8a9321	1.082615
26	0x3f78e8bb	0.9723012
27	0x3f7ac11f	0.9795093
28	0x3f7d6011	0.9897471
29	0x3f823d60	1.017498
30	0x3f78e709	0.9722753
31	0x3f858746	1.0431907
32	0x3f7e807d	0.9941481
33	0x3f72a5e9	0.9478441
34	0x3f8c0421	1.093876
35	0x3f7a378e	0.9774102
36	0x3f7f627b	0.99759644
37	0x3f7e7333	0.9939453
38	0x3f7a2555	0.97713214
39	0x3f805e84	1.0028844
40	0x3f7875c1	0.9705468
41	0x3f7e8b4c	0.994313
42	0x3f7549a1	0.95815474
43	0x3f7d8422	0.99029744
44	0x3f85a1ea	1.0440037
45	0x3f78da68	0.9720826
46	0x3f803559	1.001628
47	0x3f84c991	1.0374013
48	0x3f7a18c2	0.9769403
49	0x3f82df5d	1.0224415
50	0x3f7e7c27	0.9940819
51	0x3f7ee08b	0.99561375
52	0x3f88f857	1.0700787
53	0x3f73723f	0.950962
54	0x3f823dcb	1.0175108
55	0x3f815c9b	1.0106386
56	0x3f7bce95	0.98362094
57	0x3f81e920	1.0149269
58	0x3f7af5b7	0.9803118
59	0x3f74be95	0.95603305
60	0x3f7be18a	0.9839102
61	0x3f763415	0.9617322
62	0x3f7a6baf	0.9782056
63	0x3f7e4adf	0.99332994
64	0x3f805b07	1.0027779
65	0x3f734556	0.95027673
66	0x3f7c829f	0.9863681
67	0x3f821a22	1.0164225
68	0x3f866664	1.0499997
69	0x3f854f44	1.0414815
70	0x3f7863cf	0.97027296
71	0x3f8113d1	1.0084172
72	0x3f75d46e	0.96027267
73	0x3f79d6e3	0.97593516
74	0x3f829bb2	1.0203764
75	0x3f787aae	0.97062194
76	0x3f79265d	0.9732416
77	0x3f82f7d1	1.0231878
78	0x3f83414a	1.02543
79	0x3f7fc195	0.9990476
80	0x3f783d0c	0.9696815
81	0x3f7d52f0	0.9895468
82	0x3f7d8ca7	0.99042743
83	0x3f80401b	1.0019563
84	0x3f82a05e	1.020519
85	0x3f8074a6	1.0035598
86	0x3f7e8479	0.9942089
87	0x3f7baa71	0.9830695
88	0x3f6e03bb	0.9297444
89	0x3f8135f4	1.009459
90	0x3f8329fe	1.024719
91	0x3f73f100	0.9528961
92	0x3f7a9296	0.9787992
93	0x3f7df3ee	0.9920033
94	0x3f7c85c7	0.9864163
95	0x3f7bd66f	0.98374075
96	0x3f7ce1ec	0.9878223
97	0x3f7bcac4	0.9835627
98	0x3f83e7dc	1.0305133
99	0x3f83a18b	1.0283674
100	0x3f7ba52a	0.98298895
101	0x3f81c9a1	1.0139657
102	0x3f8163fa	1.0108635
103	0x3f81c71e	1.0138891
104	0x3f74b323	0.9558584
105	0x3f7fb865	0.9989074
106	0x3f7b9796	0.98278177
107	0x3f7fab4d	0.9987076
108	0x3f7c126b	0.98465604
109	0x3f7ed822	0.9954854
110	0x3f7df75c	0.99205565
111	0x3f7db29b	0.99100655
112	0x3f845824	1.0339398
113	0x3f8452be	1.0337751
114	0x3f8240e7	1.0176057
115	0x3f8210b8	1.0161352
116	0x3f7a514e	0.9778031
117	0x3f7cef4a	0.98802626
118	0x3f7fccd8	0.9992194
119	0x3f812583	1.0089573
120	0x3f7ca209	0.98684746
121	0x3f8158b4	1.0105195
122	0x3f81ae63	1.0131344
123	0x3f7dd3b9	0.9915119
124	0x3f7e1bfb	0.99261445
125	0x3f8419fd	1.0320431
126	0x3f788127	0.9707207
127	0x3f7c8fd7	0.9865698

layers.1.1.bias f4 [128]
0	0xbcbec8c0	-0.023289084
1	0x3ba9b1f2	0.0051786834
2	0xba629716	-0.00086437294
3	0xbb8c14a0	-0.0042749196
4	0xbcb3f46f	-0.021967141
5	0xbcd59226	-0.026070666
6	0x3c9bf398	0.019037053
7	0x3ca2b15f	0.019859968
8	0xbcc7520a	-0.024331111
9	0x3d52171d	0.051291574
10	0xbb6f71a7	-0.0036536248
11	0x397d89d6	0.00024179308
12	0xbc981cb0	-0.018568367
13	0xbc0eae0b	-0.008708487
14	0xbbf7fbbc	-0.007567851
15	0x3c11aee7	0.008891798
16	0xbccacdf1	-0.024756404
17	0x3d51dea1	0.051237706
18	0xbc4ce798	-0.012506388
19	0x3cf6af99	0.030113028
20	0xbc1de6f9	-0.009637588
21	0xbd01a3f1	-0.031650487
22	0xbc910002	-0.017700199
23	0x3d7c7391	0.06163365
24	0x3caa0486	0.02075411
25	0x3d66b263	0.056322467
26	0xbcfa1928	-0.030529574
27	0xbd3b5312	-0.04573352
28	0x3d3f5696	0.046713434
29	0x3c522527	0.012826241
30	0xbd1d1092	-0.03834588
31	0x3da0acbf	0.07845449
32	0x3b83dd8a	0.0040242122
33	0xbb345de2	-0.0027521779
34	0x3d9008bd	0.07032917
35	0xbbfc138b	-0.0076927594
36	0x3b9d0628	0.0047919936
37	0x3c6cd1fe	0.014454363
38	0x3c476f0d	0.012172473
39	0x3b0cb0b5	0.002146763
40	0xbc43e001	-0.011955262
41	0x3c411791	0.011785404
42	0xbc0f034f	-0.008728816
43	0xbc77c191	-0.015121833
44	0x3d2dfa1d	0.042474855
45	0xbc085345	-0.008320634
46	0xbc18b0b1	-0.00931947
47	0x3ca42ff2	0.020042393
48	0xbcd12511	-0.02553037
49	0x3c5ecbbb	0.013598378
50	0xbb79953b	-0.0038083333
51	0xbac608df	-0.0015108845
52	0x3c736f12	0.014858024
53	0xbd062665	-0.03275146
54	0xbc057037	-0.00814443
55	0x3cc56b3a	0.024098981
56	0xbcada847	-0.021198405
57	0x3b0c942c	0.0021450622
58	0xbba0715d	-0.0048963265
59	0xbd18a8e0	-0.037270427
60	0xbcb02399	-0.02150135
61	0xbd3a251a	-0.04544554
62	0xbc826885	-0.01591898
63	0xbc883cd6	-0.016630571
64	0xbc5cf240	-0.013485491
65	0xbcd6dab4	-0.026227333
66	0xbbb6b8e9	-0.005576242
67	0x3a1f0c4f	0.0006067203
68	0x3dadde1a	0.08489628
69	0x3c8c153d	0.017099971
70	0xbc9a89ab	-0.018864473
71	0x3c74ea93	0.014948505
72	0xbd33ebe6	-0.043926142
73	0xbc7eb896	-0.015546938
74	0x3caa8ca1	0.02081901
75	0xbd1c827a	-0.03821037
76	0x3acdc166	0.0015697896
77	0x3cd206d5	0.025638023
78	0x3ceea997	0.029133601
79	0xbb4d94c2	-0.0031369184
80	0xbcd4a3f9	-0.025957095
81	0x3a5a99d9	0.0008338965
82	0xbc2d11ad	-0.010563296
83	0x3bdc93cf	0.0067314873
84	0x3cf56f09	0.029960172
85	0xbc6f1b38	-0.014593892
86	0x3975d819	0.00023445523
87	0xbc7e50eb	-0.015522222
88	0xbd669307	-0.05629256
89	0xbbc62329	-0.006046672
90	0xbb91189d	-0.004427983
91	0xbd1bfd26	-0.038083218
92	0x3c0f015a	0.00872835
93	0x3aa7b9aa	0.0012796421
94	0xbb06f22d	-0.0020591125
95	0x3bf2ae89	0.00740606
96	0xbc7a22d1	-0.01526709
97	0xbc4f1d6e	-0.012641294
98	0x3ca88b68	0.020574287
99	0x3ca4912d	0.020088756
100	0xbbe6ae0c	-0.007039791
101	0xbb2f06a0	-0.002670683
102	0xbc32a2f2	-0.010903107
103	0x3b50c35a	0.003185472
104	0xbd0a0794	-0.033698633
105	0xbb678d2a	-0.0035331943
106	0xbc788ff7	-0.015171043
107	0x3b4ca35c	0.00312253
108	0x398b7a5a	0.00026603305
109	0xbcb2f0c4	-0.021843322
110	0xbceb5f25	-0.028731892
111	0x3b887e69	0.00416546
112	0x3d424295	0.04742678
113	0x3d7c4b5f	0.061595317
114	0x3c561dde	0.013068644
115	0x3ca2ffcc	0.019897364
116	0xbc9e6bc9	-0.019338505
117	0xbc04e57b	-0.008111353
118	0xbc4043e9	-0.011734941
119	0x3a1ee2c6	0.00060610136
120	0xbc87e5ff	-0.016589163
121	0x3cf2c56d	0.029635156
122	0x3bc0b09a	0.0058804275
123	0x3c0b4c76	0.008502116
124	0xbc68611d	-0.01418331
125	0x3cd63c31	0.026151748
126	0xbcd3ef1d	-0.025870854
127	0xbca08c72	-0.01959822

layers.2.0.weight f4 [64, 128]
0	0x3d713bba	0.05889485
1	0x3e810146	0.25196284
2	0xbe2677cb	-0.16256635
3	0x3e92985e	0.28631872
4	0x3de48981	0.11159039
5	0x3cd2695b	0.025685003
6	0xbe4bd7e8	-0.1990658
7	0x3d0c898e	0.03431087
8	0x3d9894b2	0.074502364
9	0x3bdc0923	0.0067149564
10	0xbd1eb63c	-0.03874801
11	0xbd02009d	-0.031738866
12	0xbd8f557e	-0.06998728
13	0xbdd65b90	-0.10466683
14	0xbe664154	-0.22485858
15	0x3d94123a	0.07230039
16	0x3e0b60aa	0.13611093
17	0x3e4b1865	0.19833525
18	0x3da28c5a	0.07936926
19	0x3d3636b6	0.04448577
20	0x3dfcfacb	0.123525225
21	0x3d0c6312	0.03427417
22	0xbd8ecd04	-0.069726974
23	0x3bb26a08	0.005444769
24	0xbdf1fe3f	-0.11816072
25	0x385e4f28	5.3002645e-05
26	0x3d102f59	0.035201404
27	0x3d7aa92e	0.0611965
28	0xbb8e01e4	-0.0043337215
29	0xbdfdd5fa	-0.123943284
30	0x3e1214d1	0.14265753
31	0xbd03dace	-0.03219109
32	0xbce1aeb7	-0.02754913
33	0xbe94bbfd	-0.29049674
34	0x3e13b878	0.14425838
35	0xbe05da7c	-0.13071626
36	0xba3c2419	-0.000717701
37	0x3e4de951	0.20108534
38	0x3d16f5ea	0.036855616
39	0x3e3f771f	0.18697785
40	0x3e443a94	0.19162971
41	0xbe2ead67	-0.17058335
42	0x3c912fdf	0.017723022
43	0x3de075ac	0.10959944
44	0xbe4edd54	-0.20201617
45	0xbd703bc8	-0.05865076
46	0x3c02f2a0	0.007992417
47	0x3d7e0bee	0.062023096
48	0x3cb62cb0	0.022238106
49	0x3d92d4f1	0.071695216
50	0x3d61b162	0.055100806
51	0xbd4090e6	-0.047013186
52	0xbd968a65	-0.073506154
53	0x3d1843f9	0.0371742
54	0xbdebc43d	-0.11512039
55	0xbe1212ed	-0.14265032
56	0xbe0af587	-0.13570224
57	0x3d09f45b	0.0336803
58	0xbe159a87	-0.14609729
59	0xbdfc6907	-0.1232472
60	0xbe0533fc	-0.13008112
61	0x3cada4bf	0.021196721
62	0x3dbfff60	0.09374881
63	0x3dcb5d32	0.09929885
64	0x3c5354ce	0.012898637
65	0x3e1b1cd5	0.15147717
66	0xbbdc5fb1	-0.0067252745
67	0x3d0be0d9	0.03414998
68	0xbd8e2b37	-0.06941836
69	0xbd8d21bc	-0.068912
70	0xbd62c443	-0.05536295
71	0xbd3d0917	-0.046151247
72	0x3c8c0fa0	0.017097294
73	0x3d0e34ec	0.03471844
74	0x3e2a900f	0.16656516
75	0xbe4d4502	-0.20045856
76	0xbe049c1b	-0.12950175
77	0xbe07151a	-0.13191643
78	0x3e4bc81a	0.19900551
79	0xbe1050b6	-0.14093289
80	0xbe7d3482	-0.24727061
81	0xbd4ef799	-0.050529096
82	0x3dbce1f8	0.092227876
83	0x3c157278	0.00912153
84	0xbd4d4500	-0.05011463
85	0xbd6e4d9f	-0.058179494
86	0xbcb8d727	-0.02256353
87	0x3e024e0b	0.12725084
88	0xbcb2fb90	-0.02184847
89	0x3e942cee	0.2894053
90	0x3dae6758	0.08515805
91	0xbd76ae35	-0.06022473
92	0xbdbb84fc	-0.09156224
93	0x3d6e76dc	0.058218822
94	0xbda590dc	-0.0808427
95	0x3dbbfc0a	0.09178932
96	0x3dbf8393	0.09351268
97	0xbd606589	-0.05478433
98	0xbdae1a0b	-0.08501061
99	0xbde55122	-0.111971155
100	0xbe618361	-0.22022773
101	0xbd5eb4d5	-0.054371674
102	0xbe578a18	-0.21048772
103	0xbe142c42	-0.14470008
104	0x369b1f98	4.623038e-06
105	0x3df23dc4	0.11828187
106	0x3de07b60	0.10961032
107	0xbd39a6a9	-0.045324955
108	0xbce60752	-0.028079662
109	0x3e19296d	0.14957209
110	0x3cde697f	0.027149914
111	0xbe07bc73	-0.13255481
112	0xbc9fdabe	-0.019513484
113	0xbbc067cc	-0.0058717486
114	0xbd34f448	-0.044178277
115	0xbc1a286f	-0.009409054
116	0x3db4aa66	0.088215634
117	0x3b977a43	0.004622729
118	0xbd614fd6	-0.055007778
119	0xbe8f7f55	-0.28026834
120	0xbe05d333	-0.13068847
121	0x3dd4837b	0.103766404
122	0xbc7db26c	-0.015484434
123	0x3e22a3d4	0.15882808
124	0x3d68762c	0.056753322
125	0x3e0791ec	0.13239259
126	0xbdd14328	-0.10217887
127	0xbde685a3	-0.11255958
128	0xbcc18575	-0.023623208
129	0x3e40a665	0.18813474
130	0x3e8045e6	0.25053328
131	0x3db7720b	0.08957299
132	0xbde02dca	-0.109462336
133	0x3c9bbd83	0.019011265
134	0x3e2071b3	0.15668373
135	0x3d51fac5	0.051264543
136	0xbdd5b336	-0.104345724
137	0xbe451d49	-0.19249453
138	0x3dfb0386	0.122565314
139	0x3e97af6c	0.29626024
140	0xbe3fc2e9	-0.18726696
141	0xbd1def1d	-0.038558114
142	0xbe1c0335	-0.15235598
143	0x3e806787	0.25078985
144	0x3e1193df	0.14216565
145	0x3c91e991	0.017811568
146	0xbda7929d	-0.08182261
147	0x3be36dde	0.0069405874
148	0xbcbdcb09	-0.023168104
149	0xbdb0a315	-0.086248554
150	0xbdd8132e	-0.10550533
151	0xbdb6e361	-0.08930088
152	0xbe087791	-0.13326861
153	0x3d958e34	0.07302514
154	0xbd355b00	-0.044276237
155	0x3cd363ad	0.025804365
156	0xbe0b655a	-0.13612881
157	0xbc170aa6	-0.009218847
158	0xbe4262c4	-0.18982989
159	0x3d48a676	0.048986875
160	0x3e6a94ba	0.22908297
161	0xbdf0ec7f	-0.11763858
162	0x3d82c3d8	0.063850105
163	0xbd931aa5	-0.071828164
164	0xbcc35be3	-0.023847526
165	0x3e620c29	0.22074951
166	0x3d375e4f	0.044767674
167	0xbdc54f2c	-0.096342415
168	0x3cd23920	0.025662005
169	0x3ca224a8	0.01979287
170	0x3c86572d	0.01639899
171	0x3de50b23	0.11183765
172	0x3d40e2d9	0.04709134
173	0xbd51c3d1	-0.051212136
174	0xbd37d7da	-0.044883586
175	0x3e22839d	0.15870519
176	0x3d982d80	0.074305534
177	0xbe2167bb	-0.15762226
178	0x3c4aa1d2	0.0123676825
179	0xbd29f898	-0.041496843
180	0x3e26ae98	0.1627754
181	0x3bba0e78	0.0056779943
182	0x3db7fe57	0.08984058
183	0x3e007b74	0.12547094
184	0xbdbd4605	-0.09241871
185	0x3c433914	0.011915464
186	0x3c41301b	0.011791254
187	0x3b25cb35	0.0025298123
188	0x3dea2beb	0.11434158
189	0xbc994d98	-0.018713757
190	0xbe79621d	-0.24353833
191	0x3a815532	0.0009867309
192	0xbd29948a	-0.041401424
193	0x3cb44d92	0.022009645
194	0xbd1c29a5	-0.038125653
195	0xbccb7ebe	-0.024840709
196	0xbe0ce97a	-0.13760939
197	0xbe65e379	-0.22450055
198	0x3d86653c	0.06562278
199	0xbd9b30de	-0.0757768
200	0xbd32d50c	-0.04366021
201	0xbe2601ac	-0.16211575
202	0xbe14f4b8	-0.14546478
203	0xbe4108f0	-0.18851066
204	0x3cc2ff25	0.023803303
205	0x3cc42f9f	0.023948489
206	0xbd9c1172	-0.07620515
207	0x3ddce896	0.1078655
208	0x3d81b8bc	0.063340634
209	0x3db9cf8b	0.09072789
210	0x3e51428f	0.20435546
211	0xbced7740	-0.028987527
212	0x3dd11919	0.10209865
213	0xbd246147	-0.040131833
214	0xbd8ee54d	-0.069773294
215	0x3e052a64	0.13004452
216	0xbbf82b64	-0.007573532
217	0x3dab8c96	0.08376424
218	0xbe1a17eb	-0.15048186
219	0x3a97e3ae	0.001158824
220	0x3dcd80b5	0.100343145
221	0x3dd64fdd	0.104644515
222	0xbe35ca33	-0.17752914
223	0x3ebd6a7d	0.36995307
224	0xbb223be9	-0.0024754948
225	0xbdd0f6bb	-0.1020331
226	0xbd510593	-0.051030707
227	0x3defc12b	0.11706766
228	0x3db5d939	0.088793226
229	0x3decae9d	0.11556742
230	0x3d302058	0.042999595
231	0xbd0fcc1f	-0.035106774
232	0xbdd9fbe7	-0.1064375
233	0x3da36327	0.07977896
234	0xbdc7c463	-0.09754255
235	0xbd68518c	-0.056718394
236	0x3de3ca74	0.11122599
237	0xbe50aca5	-0.20378359
238	0x3c9eba3d	0.019375915
239	0x3e07acf8	0.13249576
240	0x3d08358b	0.033254188
241	0x3bf604ac	0.007507881
242	0x3ab81f74	0.001404746
243	0xbc4bda7e	-0.012442229
244	0xbd30faf7	-0.04320809
245	0xbd561172	-0.05226273
246	0xbd9ec3ec	-0.07752213
247	0x3dc69b12	0.09697546
248	0xbcf9d0ac	-0.03049501
249	0x3d14b230	0.036302745
250	0x3d27a42e	0.04092806
251	0x3cf45d18	0.029829547
252	0x3d28eaab	0.04123942
253	0x3e23cfba	0.1599721
254	0xbce14b69	-0.027501779
255	0x3c80f2b1	0.015740724

layers.2.1.weight f4 [64]
0	0x3f71fab5	0.94523174
1	0x3f842c86	1.0326087
2	0x3f854992	1.0413077
3	0x3f6e4781	0.93077856
4	0x3f83c839	1.0295478
5	0x3f7f8b99	0.99822384
6	0x3f7d2a18	0.98892355
7	0x3f7c30d6	0.9851202
8	0x3f72fa95	0.9491361
9	0x3f819e76	1.0126483
10	0x3f8ce178	1.1006308
11	0x3f87ae34	1.0600038
12	0x3f782970	0.9693823
13	0x3f837aa9	1.0271808
14	0x3f76d899	0.9642425
15	0x3f82389e	1.0173528
16	0x3f7f2eae	0.996806
17	0x3f6ef295	0.933389
18	0x3f707c37	0.93939537
19	0x3f7a9ede	0.9789866
20	0x3f8406f6	1.0314624
21	0x3f7c0193	0.984399
22	0x3f766699	0.962503
23	0x3f733173	0.9499733
24	0x3f89ec66	1.0775268
25	0x3f76c3de	0.9639262
26	0x3f712805	0.9420169
27	0x3f80a3f0	1.005003
28	0x3f77bc30	0.96771526
29	0x3f7da13e	0.9907416
30	0x3f7c1d18	0.98481894
31	0x3f80ed32	1.0072386
32	0x3f80465a	1.002147
33	0x3f79f2f9	0.9763637
34	0x3f722cf8	0.94599867
35	0x3f6728f5	0.9029687
36	0x3f8260e6	1.0185821
37	0x3f74a335	0.95561534
38	0x3f7fabbf	0.9987144
39	0x3f746b91	0.95476633
40	0x3f7e3d8f	0.9931268
41	0x3f796ffa	0.9743649
42	0x3f7c9fa2	0.9868108
43	0x3f7d3f2f	0.98924536
44	0x3f7ed771	0.9954749
45	0x3f762ece	0.9616517
46	0x3f7625ec	0.96151614
47	0x3f7bc21c	0.9834306
48	0x3f86a03f	1.0517653
49	0x3f80e11c	1.0068698
50	0x3f812c7e	1.0091703
51	0x3f7f7d8d	0.9980095
52	0x3f7261c5	0.94680434
53	0x3f7cd8f1	0.98768526
54	0x3f7eae9a	0.9948517
55	0x3f80bf0a	1.00583
56	0x3f77c72f	0.96788305
57	0x3f78a120	0.9712086
58	0x3f7d0bc4	0.9884608
59	0x3f80537a	1.0025475
60	0x3f75280f	0.9576425
61	0x3f726dc0	0.94698715
62	0x3f81cf14	1.014132
63	0x3f8d8fb4	1.105948

layers.2.1.bias f4 [64]
0	0xbc755ac3	-0.014975253
1	0x3c8b217a	0.016983736
2	0x3db6b961	0.08922077
3	0xbd870451	-0.0659262
4	0x3c04bfc4	0.008102361
5	0x3c383936	0.011244109
6	0x3cb58a26	0.0221606
7	0xbc333c77	-0.010939709
8	0xbd2f6964	-0.042825118
9	0x3d25f25c	0.040514335
10	0x3dd075bd	0.10178707
11	0x3daddb8c	0.08489141
12	0xbd043b49	-0.0322831
13	0xbc9ceb93	-0.0191553
14	0xbca3856c	-0.019961081
15	0x3ca78edb	0.020453861
16	0xbc2ccd0c	-0.010546934
17	0xbd3e1bbe	-0.046413176
18	0xbd04f71a	-0.032462217
19	0xbd129038	-0.03578207
20	0xbbd68f29	-0.0065478277
21	0xbc2c7bc3	-0.010527554
22	0xbcf9b7b4	-0.030483104
23	0xbd26543a	-0.04060767
24	0x3db461c3	0.08807709
25	0xbcb86520	-0.022509158
26	0xbd33ae9e	-0.0438677
27	0xbcb01fa4	-0.021499462
28	0x3be9b549	0.0071322066
29	0xbd2bd12d	-0.041947532
30	0x3c8ef4a6	0.017450642
31	0x3c9b7354	0.018975891
32	0x3b2a51a7	0.002598861
33	0xbb4b314d	-0.0031004727
34	0xbd3c05f9	-0.045904133
35	0xbd962bf6	-0.07332604
36	0x3d265d39	0.040616248
37	0xbc544e83	-0.012958172
38	0x3cc0dd5c	0.023543052
39	0xbd407bb5	-0.046992976
40	0x3a2fbf2a	0.0006704206
41	0xbd415230	-0.04719752
42	0xbc00f5e6	-0.007871127
43	0xbbf799b3	-0.007556164
44	0xbd10c4ae	-0.03534382
45	0xbc8b1ea6	-0.016982388
46	0xbc4c8196	-0.012482068
47	0xbc6d79e6	-0.014494395
48	0x3d6c876c	0.057746336
49	0xbc95bb80	-0.018277884
50	0xbbf4d165	-0.007471251
51	0xbbcec367	-0.006309915
52	0xbbc115af	-0.0058924775
53	0x3d251959	0.040307377
54	0xbc11b657	-0.008893571
55	0xbbc9e951	-0.0061618467
56	0xbd67a47d	-0.056553353
57	0x3b595c0d	0.0033166439
58	0xbcbae5e1	-0.022814693
59	0xbaa719c5	-0.0012748769
60	0xbce751b1	-0.028237196
61	0xbd2e64e7	-0.042576697
62	0x3c69e63a	0.014276082
63	0x3da4528f	0.08023559
