test/output/local3/simulatorRun/freesurfer_volumetric/2/current.nn.pt (torch_old, 23025 bytes, 50 tensors)

layers.0.0.weight f4 [16, 66]
00000000: 82f7 b5bd 55b4 4fbe 24db 753e dc59 1f3c
00000010: 314a d4bd 27db a43e e44e f33d 9f07 183d
00000020: 8f99 61be 5df8 933d 0b83 e8bc ccab 62be
00000030: bb28 8cbc 3286 c5bd 0261 8b3e 1719 143e
00000040: a728 1a3e 2273 5dbe 91ff 6cbe 775d c23e
00000050: 9011 0a3e d465 f1bd 9253 debc 6fff 94be
00000060: 87d9 813e 8e03 36be 1ce9 763d 39df 5cbe
00000070: eb0e c0bd 0761 33be 4ba7 43bc 578e 243e
00000080: 6acb c5bd dcb6 3e3e 18a4 3dbd 93d8 e23c
00000090: c6f3 8b3e c840 0e3c 6e17 3e3e f6c0 433e
000000a0: 0662 333d 7e9d 833c 94c0 0c3c b5b5 d03d
000000b0: 65f4 70bd 84e5 c9bd cdaf 35be 500d e33d
000000c0: f5bd 823e 793d 0bbe d7f1 ae3d 6da8 d13c
000000d0: f1a4 bf3d 740a 8abe 1e2f 853b 7fb6 d63d
000000e0: cc19 bf3d 13c6 6bbe c05d c9bc a0d5 04bd
000000f0: f3f2 443c c268 1a3e cd40 c7bd 94a0 7cbd
00000100: cc6c 61bd 0e43 ee3d 0f72 243e 8e4f a6bd
00000110: f191 0ebe 7b9a ae3e e737 673e 0ef0 cd3e
00000120: f551 00be b84e 17be b791 c73d b521 2fbd
00000130: e6e5 52bd aa43 b83d 4077 213e 6da8 103d
00000140: 948c 21bd 1df9 693d 4d1f e7bd a2dd 143e
00000150: b113 9cbd 10dc 5ebd 5e49 bdbd 4ef8 2a3e
00000160: f2e0 6abe 2ffe ff3d ad55 d13d cadb 94be
00000170: 3abc c13e fd40 953e 0d94 02bd 9643 933e
00000180: 33ba 683e e908 d1bd 9b0d cb3d 2bf2 093e
00000190: 0025 273d 19c8 babb b50f 82be 740b 1bbe
000001a0: a21c 17be a926 0abe 93f3 84bd eb15 7b3e
000001b0: 13a3 f93d 17a4 6abd d698 cb3d ab72 a0be
000001c0: 1d54 b3be dfec 7a3e cd28 09be 4031 443d
000001d0: ac7b 1d3e 2586 41bd 02d2 03be 7a3f 61bc
000001e0: e00f 87be 9e66 8d3e 62d3 373c da5d 2f3e
000001f0: ee0c 963d ae55 acbe 0dc3 5abe 6037 0abc
00000200: 0e5b f13d ab7a 25bd 5edd cebd 9762 4abe
00000210: 6f7c ac3e b403 88be abf6 233d 006d 923d
00000220: 384a 24be 5ca5 493e c456 a53e 7928 bd3e
00000230: 0cc8 8f3e 0836 10bc 9919 00be 4705 733d
00000240: 77c1 06be 77cd 593d 0451 a7be 25b6 5d3e
00000250: d62d 10be 471b 9f3e d19d ac3e 8ba7 18bd
00000260: 57ce e23d 00ea 183e 947a b63e 1e94 873e
00000270: 56be b03d 21e3 f4bd b772 0b3e 1d9d 74be
00000280: f5e0 eebc 1e88 d23b e284 7cbd 2a58 e5bd
00000290: ab44 10bd 1542 d6bc 4e45 bd3e 1e43 e8be
000002a0: eab3 c9bd e376 1e3d acb9 2bbd b370 953d
000002b0: 4b75 58be 1d9c 8c3d 83b5 4d3c 4d9c e0bd
000002c0: 15ce 323e ccd3 4f3e ddfc 443e a85e 313e
000002d0: 5fdb 97bd 67d3 4e3e ef8a 6abd 4257 8f3d
000002e0: 3a63 e8bd 89b5 19be bcc8 f3bd 4aa7 043e
000002f0: 5ba8 043c c040 6f3d fa6e b5ba b825 cbbc
00000300: 09f5 173e 66ea 053e 40da 45be e780 b9be
00000310: cb4d 673e 5f12 9c3e a638 2cbe e649 74be
00000320: 0321 fbbb 2377 b9bd f15b 443d d764 ec3d
00000330: f3bb 0c3d 82eb de3d 2a97 8fbd fad7 f5bd
00000340: 4e64 0abd 8edc 1ebc c7bc 6f3d e1cf cdbb
00000350: 6f2c 5cbe 6c6d 143e 3923 d9bd 6f10 f4bd
00000360: ea66 25be c842 72be 0db1 3ebd 0abf 07be
00000370: 0674 15bd f793 b9be d3ae 11bc 4253 39be
00000380: 73a9 9f3e d1dd d93d 6bfb 5b3e 152e 1cbe
00000390: d2b3 e53d 85fe 473e 48c6 95bc d39e e6bd
000003a0: bfff 9e3d 1987 8cbd 897f 6b3e e791 853d
000003b0: 68e0 8abd 2ed2 da3d 7aff 563e 9ea1 81be
000003c0: b9ea f93c 7098 6bbe 06a2 243d 91fe acbc
000003d0: 07cb fcbd 13c6 3f3e 2983 13be c1b7 4a3e
000003e0: c8ab 64bc 8906 3cbd 992e 0cbd bc11 99ba
000003f0: b818 36bd 4ec1 73be 08b4 a3be 3a44 e0bb
-0.08885099 -0.20283635 0.24009377 0.009726014 -0.103657134 0.3219845 0.118802816 0.037116643
-0.22031234 0.07225106 -0.028382799 -0.22135848 -0.017109266 -0.09644736 0.2722245 0.14462696
0.1505457 -0.21625951 -0.23144366 0.37961933 0.13483262 -0.11787 -0.027139459 -0.2910113
0.25361273 -0.17774794 0.060280904 -0.21569528 -0.093778454 -0.17517482 -0.011941741 0.16069923
-0.09657939 0.18624443 -0.04629907 0.027691161 0.27334422 0.008682437 0.18563625 0.19116578
0.043794654 0.016066309 0.008590836 0.10190908 -0.058826823 -0.0985823 -0.17742844 0.110865235
0.2553555 -0.13597669 0.08542221 0.025593007 0.09357632 -0.269611 0.0040644547 0.10484027
0.09331092 -0.23024778 -0.024580836 -0.03243029 0.012020814 0.15079024 -0.09729157 -0.061676577
-0.055035397 0.116338834 0.16059135 -0.081206426 -0.1392286 0.34102234 0.22579919 0.4022221
-0.12531264 -0.14776123 0.0974459 -0.042756755 -0.05148878 0.08997281 0.15768147 0.035316873
-0.039440706 0.05712234 -0.11285267 0.14537671 -0.07620943 -0.054409087 -0.09242509 0.16696283
-0.22937372 0.124996535 0.102214195 -0.29073936 0.37838918 0.29151145 -0.031879473 0.287625
0.2272728 -0.102067776 0.099147044 0.13471286 0.04080677 -0.005700123 -0.2540261 -0.15141088
-0.14757016 -0.1349131 -0.064917706 0.2452008 0.12189307 -0.057285395 0.099412605 -0.31337485
-0.3502511 0.24504422 -0.1339447 0.04789853 0.15379208 -0.04724707 -0.1287308 -0.013748044
-0.263793 0.27617353 0.011219831 0.17125645 0.07326685 -0.33659118 -0.21363468 -0.008436054
0.117849454 -0.04040019 -0.10100816 -0.19764172 0.33688685 -0.26565325 0.040030163 0.07149696
-0.16043937 0.19691986 0.3229276 0.3694494 0.2808231 -0.008801945 -0.12509765 0.059331205
-0.13159738 0.053174462 -0.32678998 0.21651514 -0.14079985 0.31075498 0.33714154 -0.037269156
0.110745125 0.14933014 0.35640395 0.26480192 0.08630054 -0.11957384 0.13617979 -0.23888059
-0.029160002 0.006424918 -0.061650164 -0.111984566 -0.035221737 -0.026154557 0.36966938 -0.45363706
-0.09848769 0.038687598 -0.041925117 0.07296886 -0.21138494 0.06865714 0.012555483 -0.10967312
0.17461427 0.20295638 0.19237085 0.17321265 -0.074148886 0.20197831 -0.057261404 0.06999065
-0.11347051 -0.15010656 -0.119035214 0.1295444 0.00809678 0.05841136 -0.0013842278 -0.02479826
0.14839567 0.13077697 -0.19321537 -0.36231157 0.2258827 0.30482766 -0.16818485 -0.23856315
-0.0076638474 -0.09055927 0.047939245 0.11542671 0.03435893 0.10884763 -0.07011254 -0.12004085
-0.033787064 -0.009696139 0.05852964 -0.0062808846 -0.21501325 0.14494866 -0.10602421 -0.11917197
-0.1615254 -0.23658288 -0.046555568 -0.1325647 -0.0364876 -0.362457 -0.008891779 -0.18098167
0.31183967 0.10638011 0.21482627 -0.15251954 0.11215939 0.19530685 -0.018283024 -0.11260762
0.077636234 -0.06861705 0.2299787 0.06521969 -0.06781083 0.1068462 0.20995894 -0.25318617
0.030507432 -0.23007369 0.04019358 -0.02111748 -0.12343412 0.18727903 -0.14405502 0.19796659
-0.0139569715 -0.04590467 -0.034224126 -0.0011678259 -0.044457167 -0.23804209 -0.3197329 -0.0068440707

layers.0.1.weight f4 [16]
00000000: 8d84 7e3f 4213 813f 1801 7c3f 9d1e 803f
00000010: 15ee 843f 0a4e 7c3f bfcf 823f 24fe 793f
00000020: 232a 823f f45e 7e3f 0ca9 7a3f 2736 7a3f
00000030: bca7 803f 4f89 833f 54d2 833f 75ae 753f
0.99421006 1.0084002 0.9843917 1.0009342 1.0385157 0.9855658 1.0219649 0.9765341
1.0169109 0.99363637 0.97914195 0.9773888 1.0051188 1.0276278 1.0298562 0.95969325

layers.0.1.bias f4 [16]
00000000: aac3 e3ba 04d3 01bc 62f1 c0bc eee5 273b
00000010: 106d 6f3b ea44 ff3b 8c1c 873c 18c2 09bc
00000020: 4a77 a23c 02b0 a9bc 40dd d3bb f8da 9bbc
00000030: c7a9 d93c 732c fa3c 0198 a23b 4721 e7bc
-0.0017377038 -0.007923845 -0.0235526 0.0025619227 0.0036533512 0.0077901976 0.016493104 -0.008408092
0.019832272 -0.02071381 -0.006465584 -0.01902531 0.026570214 0.030538773 0.004961968 -0.02821411

layers.0.1.running_mean f4 [16]
00000000: 16fb 1dc8 1457 54c9 d3d8 8d49 bf76 b4c8
00000010: 10a1 0549 9620 f348 dc87 e5c8 dc53 c548
00000020: 2c31 90c8 c2fb 9fc8 8c25 9f48 0679 6148
00000030: 0090 12c9 a791 0349 3266 a1c7 1d50 ed48
-161772.34 -869745.25 1.1620104e+06 -369589.97 547345.0 497924.7 -470078.88 404126.88
-295305.38 -327646.06 325932.38 230884.1 -600320.0 538906.44 -82636.39 486016.9

layers.0.1.running_var f4 [16]
00000000: 4d6d 134e e405 d84f 155a 2e50 f87f df4e
00000010: 9d74 524f 6037 fb4e 12df 084f 07b3 f14e
00000020: b902 3e4e ea3c 644e b6fd 954e a10a 1f4e
00000030: a755 2f4f 67f6 304f 22d7 934d e8a3 014f
6.183535e+08 7.2485294e+09 1.1700557e+10 1.8748529e+09 3.5308577e+09 2.1073551e+09 2.2963205e+09 2.0275209e+09
7.9696237e+08 9.572993e+08 1.2582162e+09 6.670685e+08 2.941626e+09 2.9689382e+09 3.100437e+08 2.1750026e+09

layers.1.0.weight f4 [8, 16]
00000000: 46f2 a53e 6d0c e83e 7408 94be 6f23 8dbd
00000010: 0f64 08be 8640 1b3e 88c9 52bf b3af c1bd
00000020: 951e 91be 20b8 5fbe 3d18 1c3e b4d3 833e
00000030: 0f3e 42bf 1d29 1e3e a546 0ebf 4df0 cfbe
00000040: 363c afbd b8d2 a13e b37e a2be 44d6 0fbe
00000050: be8f a43d 2c2a a33e cc3b 13bd 13a2 a4be
00000060: 4a65 8fbe fd35 f63d f60c a23e 55b7 4bbf
00000070: f116 afbe 8d8a a43e 01a6 053e 8e20 e33d
00000080: 89a4 153f bc84 8ebe 62f8 d63e 5ecc 4f3f
00000090: f2bf a0be 10fc 4fbf 0f8d 95bc 4ab8 50be
000000a0: 2196 eebe a055 17bd 5426 203f f1ce de3d
000000b0: 3f3a 233f 85ab 85be 49f4 5a3e 7162 c63d
000000c0: 06d6 23bf ebfd c73e e0a6 5a3e 19b3 223e
000000d0: efb6 01be d1fb 423e 2b00 2cbd b006 913e
000000e0: ac47 933e b6dc 353e c652 723e a3c0 8fbd
000000f0: 8c40 073e dd65 b33e 5cff 0abf 9bba ea3d
00000100: 58ae b33e b43f 11bf 88d8 e7bb 65bd 7cbe
00000110: 3ff2 57bf 57ab c03e 014c b4be 0d95 fb3d
00000120: 6c9e 27be 148c c73e f878 d33c 268f 83bd
00000130: 75de 7cbe 9181 81be 08b4 343e 1927 203e
00000140: 75d4 62bf e33a 48bd eaf7 e13e c89e 12be
00000150: f3cb bc3e 922f 38be 4146 443d 9108 083f
00000160: a6c4 ed3b 9ec9 843e 97f6 b13e d202 45be
00000170: 40a4 34bf 3af3 493f 5a18 283e 0084 793d
00000180: 8706 583f c066 bcbd 0aaf 393e ebd1 4d3e
00000190: c3eb 8b3e 683a 60be c2ca 50bf 52c2 c23d
000001a0: f19a a9bd 661e 08bd 0412 623e 0b89 e53e
000001b0: 2dc1 2cbf 6c18 063f 7125 cabe 394c 75be
000001c0: 2cba 1b3d bf32 a33e 105d f33d 2d34 723e
000001d0: ac7f eb3e 02d7 7bbc 2315 be3e a068 143e
000001e0: 012a d23e 5510 cabd 57a9 083e 4b90 283e
000001f0: 70b4 b43e 074f 44bf 4cec 13be b48f e83e
0.32411402 0.4532198 -0.289127 -0.06891524 -0.1331942 0.15161332 -0.8233876 -0.0945734
-0.28343645 -0.21847582 0.15243621 0.25747454 -0.75875944 0.15445371 -0.55576545 -0.40613022
-0.08556406 0.31606078 -0.3173729 -0.1404658 0.08035229 0.31868112 -0.0359457 -0.32154903
-0.28006965 0.12022016 0.31650513 -0.7957662 -0.3419719 0.32136956 0.13051607 0.11090194
0.58454186 -0.27835643 0.41986376 0.81171215 -0.31396443 -0.8124399 -0.018255739 -0.203828
-0.46598914 -0.036946893 0.62558484 0.10879315 0.6376075 -0.26107422 0.2138225 0.09686745
-0.6399845 0.39060912 0.2135272 0.15888633 -0.1266744 0.19041373 -0.041992348 0.28325415
0.2876562 0.17759976 0.23664388 -0.070191644 0.13208216 0.35038653 -0.542959 0.114613734
0.3509395 -0.5673783 -0.007075373 -0.24681623 -0.84354013 0.37630722 -0.35214236 0.122842886
-0.16369027 0.3897406 0.025814518 -0.06423788 -0.24694236 -0.25294164 0.17646801 0.15639915
-0.88605434 -0.048884284 0.44134456 -0.14318383 0.3687435 -0.17986897 0.04791856 0.5313807
0.0072561083 0.25935072 0.34758446 -0.19239357 -0.70563126 0.7888676 0.1641554 0.0609169
0.8438496 -0.091992855 0.18133178 0.20099609 0.2732831 -0.2189728 -0.81559384 0.0950972
-0.08281506 -0.033232115 0.22077185 0.44831118 -0.6748226 0.52381015 -0.3948169 -0.23954858
0.038019344 0.31874654 0.11882985 0.23652716 0.45995843 -0.015371086 0.371255 0.14493036
0.4104767 -0.09866396 0.13345848 0.16461293 0.35293913 -0.76683086 -0.14445609 0.45422137

layers.1.1.weight f4 [8]
00000000: ae29 7e3f 1c3d 813f 8536 843f 8179 753f
00000010: 42dc 7b3f 4438 7f3f 4ad3 843f 6f75 7f3f
0.9928235 1.0096774 1.0329138 0.95888525 0.9838296 0.9969523 1.037698 0.99788564

layers.1.1.bias f4 [8]
00000000: a8f5 47bb c6ea 9e3b 63e3 1c3d f9eb 0bbd
00000010: 6087 08bd c75c 8ebb 1dfd 333d ee69 673b
-0.0030511413 0.0048497645 0.03830279 -0.034160588 -0.03333223 -0.004344556 0.04394256 0.0035310942

layers.1.1.running_mean f4 [8]
00000000: 9758 61bf 0cf7 75be 67c6 d83e 67bb e73e
00000010: ced8 01bf 2213 ad3e ebca 9b3d 6375 603f
-0.880258 -0.24020022 0.4233887 0.45260164 -0.5072144 0.3380366 0.07607063 0.8767912

layers.1.1.running_var f4 [8]
00000000: e00b b43f c442 553e 93e1 863f 2d70 193f
00000010: 5651 973e 66d1 4c40 8e3c ce3f 032d 3f3f
1.4066124 0.2082625 1.053759 0.5993679 0.29554242 3.2002807 1.611223 0.7467806

layers.2.0.weight f4 [4, 8]
00000000: ed8c 2ebe eee4 26bd d04d a23e e076 653f
00000010: 61ca b13d 7be5 243e c05e 98bf da2e dc3e
00000020: 898b f7be 3307 233e 665f dabc 8853 99bd
00000030: 3cde 1fbe 68a8 cabe 17bb 18bf 2e17 9ebe
00000040: 0ea0 a7be 729d 1c3f 9370 0bbf 28eb f6bd
00000050: 13f4 0ebf ea35 673e 72aa 8d3e 9da6 bcbe
00000060: 113b fdbd 70fb 463f f246 35bf 3357 f2bc
00000070: a83b 91bd b560 323f 8c12 f63e 0ab5 00bf
-0.17045946 -0.040745668 0.3169999 0.89634514 0.08681179 0.16103165 -1.1903915 0.43004495
-0.48348644 0.15920715 -0.026656818 -0.074866354 -0.1561212 -0.3958161 -0.59660476 -0.3087706
-0.327393 0.6117774 -0.5446865 -0.12056571 -0.5584118 0.2257916 0.27669102 -0.36845866
-0.12364782 0.77727413 -0.7081138 -0.029582595 -0.07091457 0.69678813 0.48061025 -0.50276244

layers.2.1.weight f4 [4]
00000000: f25e 7b3f bea4 7c3f 6805 813f 6489 803f
0.9819175 0.98688877 1.0079775 1.0041928

layers.2.1.bias f4 [4]
00000000: b816 77b9 e3b9 0cbd f776 2b3d 7b3e ef3b
-0.00023564219 -0.034356963 0.0418615 0.0073011494

layers.2.1.running_mean f4 [4]
00000000: e3f5 043e ecfc 43bf a835 97be 2e54 663e
0.12984423 -0.76557803 -0.29533124 0.2249305

layers.2.1.running_var f4 [4]
00000000: 8d1f 513f 1f69 cc3e c0db 5a3f a712 1840
0.8168877 0.3992395 0.8549156 2.3761384

layers.3.0.weight f4 [2, 4]
00000000: 8163 073f 38f7 ee3d 54a1 f23e 3508 633f
00000010: 3871 cfbf a4cc 1b3f d30d 0540 e772 863f
0.52886206 0.11668247 0.4738871 0.886844 -1.6206427 0.6085913 2.0789688 1.0503815

layers.3.1.weight f4 [2]
00000000: bb77 7c3f 6d36 813f
0.98620194 1.0094734

layers.3.1.bias f4 [2]
00000000: 6ced 6abc 872b 5e3d
-0.014338832 0.05424073

layers.3.1.running_mean f4 [2]
00000000: f716 4d3f 22c1 693f
0.80113167 0.9131032

layers.3.1.running_var f4 [2]
00000000: efc6 e83e 7339 c440
0.45464274 6.132013

fc_out.weight f4 [2, 2]
00000000: 27fa dfbf 2a52 3e3f 31ff a0be 6591 87bf
-1.7498215 0.7434412 -0.31444696 -1.0591246

fc_out.bias f4 [2]
00000000: 4908 59bc 4908 593c
-0.013246604 0.013246604

exp_avg f4 [16, 66]
00000000: c11c 4e3c f1cd dc37 8a9f d93a 9336 013c
00000010: 8567 7a3a 4075 3937 fefe 0d3a 7dd2 05ba
00000020: 6fb0 f7b7 3787 bdb9 5d78 1c3b 99a2 c539
00000030: be32 1039 a0b9 1037 61eb d3b7 d89d 31ba
00000040: 1eba a138 8015 0e37 c48b 353c 9902 9fb9
00000050: 3b3a 573b 0c87 073c dc5d d83a e6a4 e2b7
00000060: 462f 5bb9 9273 cbb9 b65b 31b9 422d 1039
00000070: 5da8 1fb9 22e8 19ba 0e4a 2c39 7184 dd38
00000080: 8a0d af35 dafe c7b9 0000 0000 0000 0000
00000090: 67bf 2737 0000 0000 0000 0000 10d8 1838
000000a0: 2fa0 9638 4a8d 52b9 6c36 dfb8 5ca0 b138
000000b0: 15c3 70b9 eb86 103e f463 f13d ef79 f03d
000000c0: 2c7a 443d e8bf 2d3d f00b b93d fe26 013c
000000d0: 7370 5bbb 54bc 943b a30c 5e3a 2509 dc3d
000000e0: b479 f43d fbc1 c33d ac68 c53d fdf6 083e
000000f0: f0ae 3633 4fa8 b1af 64f9 9937 b11b a7b6
00000100: 8721 6037 18fb 043e 6e46 16bb 8d5f b437
00000110: 7360 96b8 da57 083a 6d44 2e38 9b07 0a38
00000120: 9467 3938 4790 a038 fa02 a338 9498 c538
00000130: a0c1 8339 1cdd 38b8 0fb4 b638 5a75 80b8
00000140: be22 0fb8 4414 6a39 41eb 81b7 20ad 8b38
00000150: 20b8 e5ba a394 c836 fb01 bab9 ea56 a739
00000160: 577f 81b9 252a 0c39 5794 a738 9a59 9038
00000170: 9901 ba38 e135 4f38 e40c 4bb7 39d9 6139
00000180: ab5b 9eb7 983d 7c38 6a48 2f35 1766 c9b8
00000190: 0000 0000 0000 0000 3cbe 4536 0000 0000
000001a0: 0000 0000 eaa2 d537 0e9b 7eb7 169e 2d37
000001b0: ec31 cbb7 6854 7db7 7698 0938 5b05 da3b
000001c0: 0bf7 2b3c 1598 2b3c 34f6 3c3b 9da8 323b
000001d0: 81e6 b73b 0b6e a43a 34eb 233b 2e52 763b
000001e0: 37dc 5c3a 35b6 ec3b e212 ce3b a586 273c
000001f0: cad8 263c 5139 a239 0000 0000 0000 0000
00000200: c0d9 abb7 f8df c9b7 4704 3bb8 943e 0d3c
00000210: bfda ee38 bd06 64b7 a440 86b8 3d5b ccb9
00000220: af10 94b8 0cbd 12b8 0a31 91b7 f7c0 fc36
00000230: 94c6 56b7 bd75 29b7 1914 96b8 27b5 6737
00000240: 84b0 5cb7 10d4 9d37 77ab 22b6 56cd 9db7
00000250: 1088 43b6 d6e7 c736 50bc e6b8 4791 ba36
00000260: c9eb d1b7 b81b ccb9 6f39 c9b7 5294 94b7
00000270: 439a a1b7 3687 8236 8e20 8437 3971 a336
00000280: 7632 8636 3d5e a2b7 e2ef abb6 2145 2a37
00000290: 5bae 68b4 f02c 4fb7 0000 0000 0000 0000
000002a0: 106f 36b5 0000 0000 0000 0000 4725 0834
000002b0: a730 a337 9723 9a36 399f 8d36 1cbf 6736
000002c0: edb5 2537 2bb9 34b9 d2e6 42b9 f909 3eb9
000002d0: f709 d737 d8b8 5438 7dc0 a138 60dc d139
000002e0: 58ff c939 b1eb 4d3a 846d 43b9 1749 67ba
000002f0: 0fa5 383a 31e4 333a 3f31 2e3a 6513 113b
00000300: 0000 0000 0000 0000 2beb 4eb5 7bec a635
00000310: ffd9 ff34 4f19 a53a 6acf d53a 45f4 20b8
00000320: badb a7ba bd10 9dba d55b b7b9 96e5 6ab9
00000330: 9386 efb8 bfcf 4eb8 7b0b 68b9 14d5 08b9
00000340: 8ece 89ba 1c48 5c37 8004 b3b8 5e0a b4b7
00000350: bdb4 1eb8 d72b 47b9 1e5b 3f37 16c5 0bb9
00000360: 6f56 e03a 02e8 c7b8 d44a 29ba af22 ddba
00000370: 1a0f 3539 9c88 8eb9 c72b 84b8 a391 14b9
00000380: d077 7cb8 1c71 a6b8 bac8 1eb8 410d 58b9
00000390: ba91 3db7 d795 0cb9 e033 68b5 45f6 bbb9
000003a0: 0000 0000 0000 0000 c069 1bb6 0000 0000
000003b0: 0000 0000 0522 e3b7 2220 ba37 7269 28b8
000003c0: 9874 29b7 8abb 4e38 8e8f 6ab7 52db d0bc
000003d0: b0f1 e5bc 359c e6bc b797 7639 66e2 64ba
000003e0: f184 27ba 2b9a 19bc 36f5 3fbc a2b5 acbc
000003f0: 0e80 daba c1aa a6bb d2ec a7bc ee1e c0bc
0.012580098 2.6321943e-05 0.0016603332 0.007886547 0.0009552169 1.1054159e-05 0.000541672 -0.00051049126
-2.9526853e-05 -0.00036149632 0.0023875453 0.00037695913 0.00013751813 8.626288e-06 -2.5262767e-05 -0.0006775535
7.711745e-05 8.468865e-06 0.011080686 -0.0003032878 0.0032841105 0.008271944 0.0016507464 -2.7018086e-05
-0.00020903078 -0.00038805284 -0.000169142 0.0001374977 -0.00015226142 -0.00058710773 0.00016430786 0.0001056277
1.3042456e-06 -0.00038146117 0.0 0.0 9.99854e-06 0.0 0.0 3.6440848e-05
7.182394e-05 -0.00020079795 -0.000106436055 8.469887e-05 -0.00022960857 0.14113967 0.11786643 0.11742007
0.047968075 0.042419344 0.0903548 0.007882832 -0.0033483773 0.004539052 0.0008470511 0.10743932
0.119372755 0.09558483 0.09639105 0.13375469 4.2534282e-08 -3.2315703e-10 1.8355153e-05 -4.9802115e-06
1.3359247e-05 0.1298641 -0.0022930163 2.1502166e-05 -7.1705224e-05 0.0005201079 4.154856e-05 3.2908847e-05
4.42039e-05 7.656268e-05 7.773e-05 9.422112e-05 0.0002513053 -4.4074943e-05 8.711975e-05 -6.125374e-05
-3.4126213e-05 0.00022323529 -1.5487547e-05 6.6602835e-05 -0.0017526187 5.977768e-06 -0.0003547816 0.00031917478
-0.00024699673 0.0001336714 7.990811e-05 6.883145e-05 8.869469e-05 4.9402825e-05 -1.2102744e-05 0.00021538594
-1.8877754e-05 6.0138846e-05 6.5297957e-07 -9.6034426e-05 0.0 0.0 2.9466019e-06 0.0
0.0 2.5467441e-05 -1.5175681e-05 1.0348411e-05 -2.4222732e-05 -1.50996275e-05 3.2805336e-05 0.0066534705
0.010495911 0.010473271 0.0028833272 0.0027261146 0.005612195 0.0012545002 0.0025012018 0.0037585604
0.00084251486 0.007223869 0.006288872 0.010224973 0.0101835225 0.00030941752 0.0 0.0
-2.0486186e-05 -2.406536e-05 -4.4588258e-05 0.008620877 0.00011389469 -1.3591428e-05 -6.401658e-05 -0.0003897789
-7.0602975e-05 -3.4985176e-05 -1.7308183e-05 7.5326493e-06 -1.2801629e-05 -1.0100598e-05 -7.156301e-05 1.3810851e-05
-1.315412e-05 1.8814608e-05 -2.4239687e-06 -1.8811475e-05 -2.9136463e-06 5.9576514e-06 -0.000110023306 5.5601445e-06
-2.5024538e-05 -0.00038930564 -2.3987812e-05 -1.7712042e-05 -1.926453e-05 3.8900425e-06 1.5750786e-05 4.8709594e-06
3.9993856e-06 -1.9355788e-05 -5.124123e-06 1.0148885e-05 -2.1670114e-07 -1.2348624e-05 0.0 0.0
-6.79619e-07 0.0 0.0 1.2679548e-07 1.945377e-05 4.593701e-06 4.2206634e-06 3.4532923e-06
9.877124e-06 -0.00017235118 -0.00018587269 -0.00018123527 2.5634637e-05 5.0716888e-05 7.712932e-05 0.0004002778
0.00038527953 0.000785525 -0.00018637447 -0.0008822842 0.00070436386 0.0006862311 0.00066449115 0.0022136804
0.0 0.0 -7.7083195e-07 1.2436789e-06 4.7656064e-07 0.0012596044 0.0016312425 -3.8374466e-05
-0.0012806572 -0.0011983138 -0.000349729 -0.00022401506 -0.000114214745 -4.9307706e-05 -0.00022129521 -0.00013049348
-0.0010513829 1.3129811e-05 -8.536223e-05 -2.14625e-05 -3.783846e-05 -0.0001899445 1.1405702e-05 -0.00013329493
0.0017115603 -9.532274e-05 -0.00064579886 -0.0016871298 0.00017267131 -0.00027186133 -6.302405e-05 -0.00014168634
-6.0193066e-05 -7.936565e-05 -3.7857077e-05 -0.00020604303 -1.12992075e-05 -0.0001340726 -8.6502223e-07 -0.00035850905
0.0 0.0 -2.3158354e-06 0.0 0.0 -2.707635e-05 2.218789e-05 -4.0152525e-05
-1.0100332e-05 4.9288887e-05 -1.3980911e-05 -0.025495205 -0.028069347 -0.028150657 0.00023516906 -0.0008731246
-0.0006390354 -0.009375135 -0.011716178 -0.021082703 -0.0016670243 -0.0050862734 -0.020498667 -0.023452248

exp_avg_sq f4 [16, 66]
00000000: 5978 dd36 0960 f831 8be1 7135 cc2f 8e36
00000010: 7174 3534 bf11 2b33 a39a 4034 03dd dd32
00000020: 2bfe cc32 ea48 2634 6ea0 9f35 8b85 2233
00000030: f72b e332 c6c9 0232 1589 4831 3540 5a33
00000040: eedb 4f30 f39c 2233 7453 0b37 ff22 da31
00000050: 51ba 6e35 c861 8236 ceda 2234 4fe3 eb32
00000060: e7f7 f733 21d1 a632 eb9b 7132 a0fa e031
00000070: 6484 af31 acef 5e33 0dd3 9030 9cc4 e233
00000080: 25cb e52b 0ebd 7733 0000 0000 0000 0000
00000090: d859 f02e 0000 0000 0000 0000 5e7d b030
000000a0: 927f 1131 9507 5831 4fcb 7031 404c ec31
000000b0: 13c9 a831 e2e0 023b 4de8 dd3a 2270 dd3a
000000c0: 22a9 6139 3cbc 3239 1b34 493a 2a4f 0f38
000000d0: b742 5238 f688 2739 02ca da36 4c32 6c3a
000000e0: 41ad ee3a b769 cc3a 048c cd3a 2371 823b
000000f0: 0164 5125 861a 9525 4cab 992f f01d ff2e
00000100: 9f69 3f30 e6e9 a43b dc1a 6b34 f050 8230
00000110: 7125 4e32 fcc7 b534 4259 0432 dc79 5e31
00000120: 459a 6632 5d7d 8c30 9bf6 8330 7d50 dd31
00000130: b203 3633 ffc0 7b31 f4d4 a430 199b 4730
00000140: f11c 3a2f e93a a231 ac34 122e 2bb3 e030
00000150: bff3 e434 29b3 ca2f 02f5 7732 f1ba a734
00000160: cedb ee31 4f18 0a31 058f 3b32 1845 e030
00000170: b27d 1831 21ca 3830 9b35 342f 50e2 7c31
00000180: b4d6 5f2e 01b2 a531 ad5a 342a 38fe e231
00000190: 0000 0000 0000 0000 3888 742c 0000 0000
000001a0: 0000 0000 7c1a 262e 9b25 192f d234 a72f
000001b0: faf3 092f 26b9 4b2f 2502 af2f 5c96 ab37
000001c0: 852c fd37 8618 fb37 f099 4436 917f 2836
000001d0: d9c7 3437 053f 9335 0ad3 7535 ca33 7836
000001e0: 285d 0835 7126 b537 b1a8 8b37 9082 ce37
000001f0: f384 d037 ca50 ff36 0000 0000 0000 0000
00000200: bc12 7d2e 4151 412e f264 572f 85d5 1937
00000210: 2238 da32 2f61 182e 8d67 c431 4ecb 0b33
00000220: 5e0e d92f 5276 572f b680 1030 2900 d82e
00000230: b370 0a2f e0c6 2530 54be a431 b7f3 4f2f
00000240: 24b2 a52d b356 dc2e a064 142e 4900 412f
00000250: 6c68 1c2c 19f0 eb2e 7e51 0933 ffa6 372e
00000260: 3dd6 d131 daff fe32 58a6 822f cf1f bd2f
00000270: 510e ef2f f11a eb2e 0b1e 0a2f 253a 8c2e
00000280: 7f32 a42d 523e f32e 977d e32c c3d3 712f
00000290: 13e3 6429 41d7 6930 0000 0000 0000 0000
000002a0: 4b35 d02a 0000 0000 0000 0000 8ce8 312c
000002b0: 5f5f 132e ad74 af2d 954c 902e 2214 522e
000002c0: 85c0 142e fe09 ba34 c36d d334 ec4a d234
000002d0: 6a19 4734 4a3d 3634 8360 3d35 aa16 8d34
000002e0: cbba c734 aecc a635 d1fd f831 1d24 8c35
000002f0: 734f 2035 d895 0c35 ce61 0a35 244a 0336
00000300: 0000 0000 0000 0000 dfcd 592c f3e3 ee2b
00000310: 9303 1a2d 9180 e135 052e 2c35 68d1 1b31
00000320: 06a0 1435 fe18 e236 08aa 3a33 e953 8532
00000330: db74 0934 035f 7d32 76c4 1632 fd05 9232
00000340: bad1 6134 9597 9632 d6ab 6831 229e b231
00000350: 964e bb30 d943 bb32 0430 1d2f 6852 da31
00000360: 2f54 d935 69e0 e431 ce58 b534 7e90 d836
00000370: fb9a 4233 107b 6132 963f e533 2baf f431
00000380: f978 3432 f6dd 5331 e063 932f 658c c232
00000390: d7fb 872f a254 8532 fe07 952b 2c93 5a33
000003a0: 0000 0000 0000 0000 e506 a52d 0000 0000
000003b0: 0000 0000 9100 8b2f b865 7931 a464 8630
000003c0: bdc9 a530 5633 4630 dcc2 9331 be1b 4e3a
000003d0: 3494 403a 3766 403a d3c7 c237 4b56 f037
000003e0: 5d54 d838 44de 7538 5cdb 8f38 f4b4 8439
000003f0: 6af7 7336 9c67 8f39 60c1 173a 629c 0b3a
6.6003236e-06 7.228668e-09 9.0107704e-07 4.237494e-06 1.68993e-07 3.983018e-08 1.793765e-07 2.582829e-08
2.3864308e-08 1.5486481e-07 1.1893114e-06 3.784002e-08 2.6446271e-08 7.612874e-09 2.9181753e-09 5.0815476e-08
7.56187e-10 3.786131e-08 8.304476e-06 6.3486136e-09 8.8933035e-07 3.885685e-06 1.5167026e-07 2.7460969e-08
1.1546927e-07 1.9420044e-08 1.4063498e-08 6.547751e-09 5.1082214e-09 5.1906383e-08 1.0537363e-09 1.0559708e-07
1.6327813e-12 5.7681113e-08 0.0 0.0 1.0929896e-10 0.0 0.0 1.2841317e-09
2.1172792e-09 3.1436447e-09 3.5040164e-09 6.8771726e-09 4.912303e-09 0.0019970466 0.0016930193 0.001689438
0.00021520679 0.00017045526 0.0007675306 3.4167584e-05 5.0130035e-05 0.00015977383 6.520423e-06 0.00090101804
0.0018209593 0.001559547 0.0015681987 0.003980772 1.8161743e-16 2.5865353e-16 2.7952252e-10 1.16013754e-10
6.963549e-10 0.0050327657 2.1895852e-07 9.481749e-10 1.1999291e-08 3.3859385e-07 7.703706e-09 3.237452e-09
1.3422839e-08 1.0221971e-09 9.601594e-10 6.441097e-09 4.2378538e-08 3.6635013e-09 1.1993095e-09 7.2616185e-10
1.6926884e-10 4.721518e-09 3.324334e-11 1.6349068e-09 4.2645658e-07 3.6870887e-10 1.4433001e-08 3.1242192e-07
6.9517005e-09 2.009546e-09 1.09173515e-08 1.6317783e-09 2.219036e-09 6.722605e-10 1.6389949e-10 3.679947e-09
5.0895024e-11 4.8223687e-09 1.6018671e-13 6.606367e-09 0.0 0.0 3.4750102e-12 0.0
0.0 3.7767553e-11 1.3928629e-10 3.0414654e-10 1.2546755e-10 1.852852e-10 3.1833838e-10 2.0454805e-05
3.0180681e-05 2.9932951e-05 2.929588e-06 2.5108204e-06 1.0775367e-05 1.0970695e-06 9.1576715e-07 3.6985025e-06
5.079951e-07 2.1594782e-05 1.6648644e-05 2.4617912e-05 2.4857442e-05 7.6089973e-06 0.0 0.0
5.754218e-11 4.3955287e-11 1.9589999e-10 9.1692245e-06 2.5404066e-08 3.4647115e-11 5.716123e-09 3.2548364e-08
3.9482279e-10 1.9596172e-10 5.2569804e-10 9.822571e-11 1.2591066e-10 6.030927e-10 4.794666e-09 1.8913125e-10
1.8837439e-11 1.00198426e-10 3.3740677e-11 1.7553349e-10 2.22269e-12 1.0729213e-10 3.1971915e-08 4.1757705e-11
6.1070566e-09 2.968584e-08 2.3765057e-10 3.44015e-10 4.348402e-10 1.06913485e-10 1.25617e-10 6.3767915e-11
1.8667066e-11 1.1061431e-10 6.4656713e-12 2.1994055e-10 5.0823125e-14 8.50708e-10 0.0 0.0
3.6985202e-13 0.0 0.0 2.5282302e-12 3.3508637e-11 1.9947011e-11 6.5619656e-11 4.7766353e-11
3.3822296e-11 3.465247e-07 3.9381675e-07 3.917006e-07 1.8542565e-07 1.6972368e-07 7.054843e-07 2.6279787e-07
3.7202548e-07 1.2427533e-06 7.2466055e-09 1.0441323e-06 5.972026e-07 5.2372116e-07 5.155133e-07 1.9563677e-06
0.0 0.0 3.0951836e-12 1.6974186e-12 8.75468e-12 1.6801224e-06 6.414196e-07 2.2674502e-09
5.536716e-07 6.7382343e-06 4.3461142e-08 1.5521396e-08 1.2801631e-07 1.4748141e-08 8.775819e-09 1.699936e-08
2.1031056e-07 1.753123e-08 3.385812e-09 5.1984594e-09 1.3628376e-09 2.1800519e-08 1.4296125e-10 6.3540035e-09
1.619226e-06 6.661186e-09 3.377849e-07 6.4541227e-06 4.53101e-08 1.3124705e-08 1.067521e-07 7.121249e-09
1.0504885e-08 3.0830711e-09 2.681011e-10 2.2648416e-08 2.47353e-10 1.5521724e-08 1.0589305e-12 5.0890932e-08
0.0 0.0 1.876139e-11 0.0 0.0 2.5284355e-10 3.629209e-09 9.778387e-10
1.2062668e-09 7.2104933e-10 4.300416e-09 0.000786241 0.0007346303 0.000733945 2.3219653e-05 2.8650413e-05
0.000103153965 5.8619553e-05 6.85963e-05 0.00025311823 3.6353836e-06 0.0002735228 0.0005789008 0.0005325732

exp_avg f4 [16]
00000000: 57e6 47bc c896 563c 1f48 a6bb 8904 c5b9
00000010: 0e40 c3bc 5457 533c 12b3 a53b 8914 103c
00000020: dce4 113c 3776 f63a 6837 71bc 91b7 0a3c
00000030: 1179 c83c 509f 2fbc 9111 4bbc 97ce 99bb
-0.012200913 0.0130974725 -0.0050745155 -0.00037578147 -0.023834255 0.012899239 0.0050567472 0.008793958
0.008904662 0.0018803541 -0.014722683 0.008466617 0.024471791 -0.010719135 -0.012394325 -0.004693817

exp_avg_sq f4 [16]
00000000: 634c 4b38 5f2a d537 bc68 3738 78e4 2c37
00000010: db90 7238 233c 1e38 b353 8437 5c1c 8938
00000020: a2e0 dc37 4003 7e38 95fb 8d37 3e72 aa38
00000030: 1a4a 8d38 6266 9239 2649 4e37 3f0f 9e38
4.8470112e-05 2.541131e-05 4.372814e-05 1.0305193e-05 5.7832203e-05 3.7726142e-05 1.5774602e-05 6.5379514e-05
2.6330647e-05 6.0561346e-05 1.6925662e-05 8.127511e-05 6.7372064e-05 0.0002792357 1.2295588e-05 7.536867e-05

exp_avg f4 [16]
00000000: d7ae cbba 05df f53c b773 b6bb bbc9 483c
00000010: eda8 c6bc f00f ac3b 926e 3f3c cac7 6d3b
00000020: e703 f53a 5897 ebb9 b014 74bc 48e1 ce3c
00000030: 6e90 243c 47fd 23bc da93 d5bb c116 02bc
-0.0015539777 0.03001357 -0.0055679935 0.012255128 -0.024250472 0.0052509233 0.011684077 0.0036282414
0.001869318 -0.00044935453 -0.01489751 0.025253907 0.0100442 -0.0100091165 -0.0065178694 -0.007939995

exp_avg_sq f4 [16]
00000000: 7ae2 f537 0b33 5d38 144b 8d37 f641 0338
00000010: 5cca e438 d0da df37 2778 d338 bb0c 1937
00000020: adf1 4a37 cbf7 1238 b688 b337 89bc 0539
00000030: 3767 b038 5b4f ae38 5e9f 7f37 7769 f437
2.9311737e-05 5.2738043e-05 1.684347e-05 3.1294265e-05 0.000109095796 2.6685564e-05 0.00010083644 9.122475e-06
1.2096408e-05 3.5039888e-05 2.1402124e-05 0.00012754103 8.411559e-05 8.311748e-05 1.523629e-05 2.9136178e-05

exp_avg f4 [8, 16]
00000000: 0989 833b 53bb 7f3b 532e 823b 397f 9dba
00000010: 0354 213b 1e04 4e3b 4fce a83a 1b76 a43b
00000020: 9b8f 3c38 b435 1a3b d852 0a3a 63c7 bf3b
00000030: 255a b73a f46b 373b ff1d 9aba af35 9d3b
00000040: 5d77 2fbc ba6c d2bc 6730 98bc 2c95 ef3b
00000050: 5a21 babc c81f 6fbc 949b 2ebc 570c 6fbc
00000060: b02b d3bb 94f5 b7bc debe c9bc 9fee 94bc
00000070: 341f 5cbc 9bec 6abc 21ec bebb 6027 bbbc
00000080: 1455 b53b 7ca1 8b3c 8f20 00bc e76a efbb
00000090: c68b 8dbb b401 03bc e510 b23b 1085 01bc
000000a0: 29ef 1d3c f673 a03c 0dc9 49bb ba2f f8bb
000000b0: 5a7e 503c 5f2a 03bc dce3 8dbb b115 febb
000000c0: 2641 a63c 0487 173d 3858 a2bc 8f54 a13c
000000d0: ea92 95bc 8928 72bc c2e6 b53c 05df 9b3a
000000e0: aeb9 fe3c 7287 243d e193 b6bc 9241 8c3b
000000f0: 09f8 123d b0b4 13bc 6fe5 a43c 4841 aebc
00000100: 407a 87bc 7a8e 0fbc 83e6 f33c d4e7 d2bc
00000110: 318b df3c 2725 003d b514 3bbc 60c1 1e3d
00000120: 84ca c4bb 207f c8ba 6d14 983c f130 e23c
00000130: 2e9e 04bc 31db 0a3d f6ca 33bc 0e6e ea3c
00000140: 8d3a ae3a 0223 8f3a 3b61 b5b9 a1bf 9f3a
00000150: ea30 7f3a e3cb 533a 0870 a13a cd7e 18ba
00000160: 6e28 6e3a 9086 973a 43fb 2f3b 4693 bc39
00000170: 7433 923a a3e6 a03a f304 863a cd0b 18ba
00000180: e226 203b b31d bdbb 1a26 dcbb 20bd 8bb8
00000190: 7d64 d9bb 9b48 bfbb 6c2b 61bb 2876 66bc
000001a0: 9fb1 ccbb 7042 bbbb 43f8 2dbb 2a2c 21bc
000001b0: d448 e8bb f712 20bc f0c6 85ba 91c0 ecbb
000001c0: 50de 7b39 c909 353c 7e80 fbbb 8aa5 60bc
000001d0: 8805 89bb 605a f9bb 3613 90b9 af40 f4bb
000001e0: fd13 2b3b 8478 8c3c e6be 61bb d631 c8bb
000001f0: acf8 c53b 3ba5 05bc 1958 00bb f1da efbb
0.0040141386 0.0039021566 0.0039728074 -0.0012016065 0.0024616725 0.003143556 0.0012878868 0.005018962
4.4956436e-05 0.0023530545 0.0005276627 0.005852626 0.0013988657 0.002798793 -0.0011758207 0.0047976593
-0.010709611 -0.02568661 -0.018577768 0.007311484 -0.022720981 -0.01459498 -0.01065721 -0.014590344
-0.006444417 -0.022455968 -0.024627145 -0.01818019 -0.013435174 -0.014338638 -0.0058264886 -0.022845924
0.0055338237 0.017044775 -0.007820263 -0.007306445 -0.004319641 -0.0079960115 0.005434143 -0.00790526
0.00963954 0.019586544 -0.0030790002 -0.007574049 0.012725437 -0.0080057075 -0.0043301415 -0.0077540507
0.020294737 0.036993995 -0.019817457 0.019693641 -0.01825853 -0.014780172 0.02220476 0.0011892027
0.031094398 0.040168233 -0.022287311 0.0042802775 0.035881076 -0.009015247 0.020128934 -0.021271363
-0.016537786 -0.008761996 0.029773002 -0.02574531 0.027288051 0.03128543 -0.011418511 0.038758636
-0.006005587 -0.0015296675 0.018564427 0.027611228 -0.008094354 0.033900443 -0.010973683 0.028616931
0.0013292596 0.0010920467 -0.00034595453 0.0012187847 0.0009734767 0.0008079393 0.0012316713 -0.00058172346
0.0009085004 0.0011560488 0.0026852645 0.00035967882 0.001115425 0.0012275766 0.0010224864 -0.00058000983
0.0024437238 -0.0057713627 -0.0067184092 -6.663264e-05 -0.0066342936 -0.0058375127 -0.0034358157 -0.014066257
-0.00624676 -0.005714707 -0.002654568 -0.00983719 -0.00708876 -0.009770147 -0.0010206383 -0.007225104
0.00024020043 0.011049696 -0.0076752296 -0.013711343 -0.0041815676 -0.0076096505 -0.00027480134 -0.007454
0.0026104443 0.01714731 -0.003444606 -0.0061094565 0.006041607 -0.00815707 -0.001958376 -0.007319801

exp_avg_sq f4 [8, 16]
00000000: bab3 4a37 fc67 0d38 8a31 2d38 13f3 2a35
00000010: 2bac 8f37 3264 2c38 038f 9c36 9955 9637
00000020: b1f6 4637 04af 0238 7a11 1338 a4ad 8c37
00000030: 864c 5437 0284 1b38 7470 0437 5ef7 2538
00000040: af35 9f38 474a 3639 4322 7939 b125 0a38
00000050: 7a82 3a39 f15c 8e39 245a e037 ea5b 7f39
00000060: de85 6c38 2df6 8c39 a2da 7439 293b cc38
00000070: 1027 9938 1f2e 9839 f035 8338 061f 6b39
00000080: 55a0 d537 4378 c937 2c53 8837 8963 a636
00000090: 3fc5 1237 908a 8637 b047 7336 2999 9437
000000a0: c2c9 9b37 981e a737 5641 8037 168d 4f37
000000b0: 2f8c e737 87d6 9b37 d6f9 2837 b9d0 8037
000000c0: c1a7 f137 ce92 3d38 fd46 2e38 3714 d737
000000d0: 7f99 bf37 27d2 4738 9711 bd37 5775 1938
000000e0: aee6 5638 6d95 4139 5aaa 9337 e631 ab38
000000f0: 1335 4d38 f1f5 1e38 e1bf c337 650e a137
00000100: 4471 e037 916a 4a38 8a37 dc38 caea 6538
00000110: 8e99 f338 00c1 0c39 8cad b537 a133 8239
00000120: 62e0 5c38 3ed1 9839 0770 8838 e22c 3139
00000130: 9938 ac37 c6dc 1339 8fba 0638 4611 a538
00000140: 7f34 b334 da96 5d34 b851 9835 e022 ee34
00000150: 797e 7a35 b02c b235 c0ce c034 bc32 cd35
00000160: a575 bd35 2b97 3135 5014 9435 b646 9536
00000170: 5e9e c134 f58e 2135 f326 7d35 234a 8835
00000180: 09ab 0c38 325e 5d36 854e bd38 2b16 4f37
00000190: 543c a538 f701 db38 3fce f636 7790 da38
000001a0: 2aa8 9337 7234 1b39 7bfb 7838 7a1a bb38
000001b0: df4e 3437 6917 d238 58ed 8c37 02e3 6f38
000001c0: 1ffa c137 4d1e 4a38 9687 0e39 574a 0738
000001d0: 0814 3d39 d56f 2039 81a9 1938 20a2 fe38
000001e0: 89a7 9738 d197 a638 f131 2d39 4b75 2c38
000001f0: 0d04 aa38 150c 0b39 06cf 5438 2d52 0e39
1.2081984e-05 3.3713863e-05 4.129255e-05 6.3683655e-07 1.71271e-05 4.110131e-05 4.665811e-06 1.7921253e-05
1.1859157e-05 3.115741e-05 3.5063807e-05 1.6770158e-05 1.2654002e-05 3.707782e-05 7.893996e-06 3.9569444e-05
7.59171e-05 0.00017384543 0.00023759254 3.2936867e-05 0.00017786949 0.00027153597 2.6744856e-05 0.00024352936
5.639146e-05 0.00026886296 0.000233511 9.7384975e-05 7.3028845e-05 0.00029026062 6.2566134e-05 0.00022422904
2.546624e-05 2.4017068e-05 1.6251193e-05 4.958773e-06 8.748203e-06 1.6038568e-05 3.625155e-06 1.7714296e-05
1.857139e-05 1.9922198e-05 1.5289213e-05 1.2371011e-05 2.7602624e-05 1.8577337e-05 1.007175e-05 1.5355983e-05
2.8807555e-05 4.5197834e-05 4.1550946e-05 2.563941e-05 2.2840451e-05 4.7641017e-05 2.2538747e-05 3.6587324e-05
5.1236413e-05 0.0001846158 1.7603092e-05 8.16321e-05 4.8925238e-05 3.7899186e-05 2.3335162e-05 1.9199399e-05
2.6755624e-05 4.82598e-05 0.000105007624 5.481652e-05 0.00011615745 0.00013423339 2.1657695e-05 0.00024834
5.266106e-05 0.00029147597 6.505852e-05 0.00016896756 2.0530353e-05 0.00014101257 3.2121836e-05 7.8710305e-05
3.3379544e-07 2.0637108e-07 1.1348666e-06 4.435633e-07 9.33163e-07 1.3275039e-06 3.5913217e-07 1.5288456e-06
1.4115836e-06 6.6157617e-07 1.1032771e-06 4.448778e-06 3.606428e-07 6.0185204e-07 9.4306523e-07 1.0154366e-06
3.353789e-05 3.2986395e-06 9.026848e-05 1.2343323e-05 7.87905e-05 0.000104431 7.3553815e-06 0.00010421959
1.7602073e-05 0.0001480149 5.9362017e-05 8.9217865e-05 1.07472e-05 0.00010017941 1.6799822e-05 5.7193458e-05
2.3123865e-05 4.8188773e-05 0.00013592685 3.2255743e-05 0.00018031907 0.0001530045 3.6635905e-05 0.00012141862
7.231447e-05 7.943775e-05 0.0001651717 4.1117233e-05 8.106986e-05 0.00013260574 5.0737544e-05 0.00013572788

exp_avg f4 [8]
00000000: 3678 aabb aa40 503c b2af 43bc 3fa9 203d
00000010: 9084 2abc 7707 1c3a 1a34 aabc acc1 cfba
-0.0052023185 0.01271073 -0.0119437445 0.039223906 -0.010407582 0.000595204 -0.020776797 -0.0015850565

exp_avg_sq f4 [8]
00000000: 681d 1638 b17a 8138 09f6 bd37 4695 a239
00000010: b836 9737 2066 7237 721a 7439 360c c637
3.5790174e-05 6.1740524e-05 2.2645125e-05 0.00031010265 1.8026083e-05 1.4448102e-05 0.00023279505 2.3609125e-05

exp_avg f4 [8]
00000000: ecfd 53bc cd9e 413c c9f7 8f3b 0fef 013d
00000010: 0fea 28bb f8fa 78bb 8a1f aebb 8a57 0d3c
-0.012938958 0.011817646 0.004393552 0.031722125 -0.0025774275 -0.0037991386 -0.0053138183 0.008626828

exp_avg_sq f4 [8]
00000000: e76d c037 fd6d 4038 a309 1e38 aef8 bd38
00000010: b2f4 ae37 36de 7337 c5fc af38 453c 1e38
2.293936e-05 4.58788e-05 3.767911e-05 9.0585425e-05 2.0856362e-05 1.4535666e-05 8.391732e-05 3.7726266e-05

exp_avg f4 [4, 8]
00000000: 1369 d23b e5e7 5fbb fe72 13bd 8ea1 243d
00000010: 21d5 8dbc b374 963c 9d1d 853c 6d10 71bc
00000020: 6a20 823b b45e da38 2efd fcbb a4cd 5a3b
00000030: 7746 053c 2b33 0dba e39a 66ba 4f4c f7bb
00000040: a3b7 eb3b 2c86 8f3c f601 a93b e3f0 02bc
00000050: 3c07 533c 7bc6 afba e531 13bb d47d 6abb
00000060: 8a0d d5ba d669 2a3b 9041 1dbb 202f 953b
00000070: 2285 9e3b 80e4 59bb 8e26 a3bb 9566 0cbb
0.006421217 -0.003416532 -0.035998337 0.040193133 -0.017313542 0.018366193 0.016249472 -0.014713389
0.003971149 0.0001041269 -0.007720611 0.0033386732 0.008134476 -0.0005386348 -0.00087968836 -0.0075469385
0.007193522 0.017520033 0.0051577045 -0.007992002 0.012880143 -0.0013410592 -0.002246016 -0.0035780566
-0.0016254645 0.0026003025 -0.0023995377 0.004552737 0.004837648 -0.003324777 -0.0049789613 -0.0021423448

exp_avg_sq f4 [4, 8]
00000000: 7332 7937 af36 6338 4dcb ea38 f3c7 9839
00000010: 4409 6e38 eb9b 7d39 2709 1439 ab7f 8338
00000020: 9747 7737 ed0c 1437 d219 5a38 de38 4137
00000030: a97f df36 d1d3 e236 6a3d 5936 5519 9f38
00000040: ec2e 4639 f037 7238 e740 8638 8161 5439
00000050: 1cae 3538 dc33 3739 e7cc 6938 6f4a dc38
00000060: 3788 6037 4892 0338 2a9e cb36 a141 ac37
00000070: 99fc ef36 5197 b337 d5e2 8537 030d 2937
1.4853303e-05 5.4171946e-05 0.00011195857 0.00029140673 5.675225e-05 0.00024186044 0.0001411779 6.270347e-05
1.4739016e-05 8.824497e-06 5.1999297e-05 1.1516937e-05 6.6607795e-06 6.7599835e-06 3.2371267e-06 7.586429e-05
0.00018900231 5.7749392e-05 6.401707e-05 0.00020254219 4.3315915e-05 0.00017471559 5.574236e-05 0.00010504282
1.3383155e-05 3.136907e-05 6.068284e-06 2.0534559e-05 7.1521613e-06 2.1408925e-05 1.5960462e-05 1.00762145e-05

exp_avg f4 [4]
00000000: ace1 f23c c92e 803a aad6 3abc 4880 94bc
0.029648624 0.0009779568 -0.011403719 -0.018127576

exp_avg_sq f4 [4]
00000000: 5c89 5339 0447 fa36 0396 5838 f719 9238
0.00020173698 7.458848e-06 5.1638122e-05 6.966659e-05

exp_avg f4 [4]
00000000: adde 3b3d a3dd 113b 5bd4 04bd 4903 00bc
0.045866657 0.002225735 -0.03242908 -0.007813283

exp_avg_sq f4 [4]
00000000: 8b6e 4739 bd98 bc36 4845 9f38 ccca 4638
0.000190193 5.6206177e-06 7.5946155e-05 4.7395748e-05

exp_avg f4 [2, 4]
00000000: f5c1 6b3d 7a9b 453b f873 eebc 9924 a6bc
00000010: 64ed 7e3a 2592 673a 3139 123a 48ef 41b9
0.05755802 0.0030152486 -0.029108033 -0.020281123 0.0009724705 0.0008833728 0.000557798 -0.00018495054

exp_avg_sq f4 [2, 4]
00000000: c433 003a 0765 5c38 c17d 8d38 8416 cc38
00000010: f664 2c38 2a97 9a37 09c2 3437 caf5 ad37
0.0004890526 5.2546176e-05 6.7468274e-05 9.731672e-05 4.1102023e-05 1.8428622e-05 1.0774013e-05 2.0737662e-05

exp_avg f4 [2]
00000000: 7147 793c 13a1 dd3b
0.015214787 0.0067635863

exp_avg_sq f4 [2]
00000000: 5fc3 883a c251 7d3a
0.0010434202 0.0009663367

exp_avg f4 [2]
00000000: 7052 603d 6e8e 81bd
0.05476612 -0.063259944

exp_avg_sq f4 [2]
00000000: 59a2 c839 f339 293a
0.0003826793 0.00064554735

exp_avg f4 [2, 2]
00000000: bd50 24bc 3851 063b bd50 243c 3851 06bb
-0.010029015 0.0020495187 0.010029015 -0.0020495187

exp_avg_sq f4 [2, 2]
00000000: 7f0f 003a 16a3 a339 7f0f 003a 16a3 a339
0.00048851216 0.0003121129 0.00048851216 0.0003121129

exp_avg f4 [2]
00000000: d2f5 82bc d2f5 823c
-0.015986357 0.015986357

exp_avg_sq f4 [2]
00000000: 6240 ab39 6240 ab39
0.0003266363 0.0003266363
