test/output/local4/simulatorRun/fsv_volumes_from_scratch/fold_1/best.nn.pt (torch_old, 737310 bytes, 42 tensors)

layers.0.0.weight f4 [256, 66]
000000 6b b1 ce bd a4 30 20 be 5f 60 a2 bc 10 68 3a be
       -0.100924335 -0.15643555 -0.019821344 -0.18203759
000010 ef d5 56 bd 89 93 4d be 26 49 27 3e d6 23 11 be
       -0.052450117 -0.20075811 0.16336498 -0.14173827
000020 22 a9 a3 3d 03 0a 13 3e 50 61 3b bd d4 ad 87 3e
       0.07991244 0.14359288 -0.0457471 0.26499808
000030 d4 bb 31 3e 4a 04 eb 3d 01 c5 91 3e ab c4 50 be
       0.17356807 0.114754274 0.28470615 -0.20387523
000040 19 1c e4 3e 1b 21 5a be 24 8c 96 bd 55 c2 14 3c
       0.44552687 -0.21301691 -0.073509485 0.0090795355
000050 b7 65 4f 3d 3b e0 43 3e 86 d4 e0 3d 63 b4 f6 3e
       0.050634112 0.19128506 0.10978036 0.481845
000060 05 6b ee bc 40 07 90 3d 7a 40 e9 bd b7 f8 7b 3e
       -0.029103765 0.07032633 -0.11389251 0.24606596
000070 e6 f3 b3 bd 8a 50 6a 3d ba d5 5a 3e 5c c7 c0 3d
       -0.08786754 0.057205714 0.21370593 0.09413025
000080 52 bf f6 bd c5 b1 91 be 0d 79 97 bd aa fd 53 3e
       -0.1204821 -0.2845594 -0.073961355 0.20702234
000090 c9 07 25 3d 21 b1 15 3e f8 e5 01 3e dc 09 87 bd
       0.040290628 0.1461835 0.12685382 -0.065936774
0000a0 1c 80 1c be e5 23 2b 3e 9e 63 2e be 68 37 47 bc
       -0.15283245 0.16712911 -0.17030188 -0.012159206
0000b0 70 a9 c1 3e ab 18 85 3e 92 73 91 3d c5 fb c3 3d
       0.37824583 0.25995383 0.071021214 0.095695056
0000c0 1a 19 9d 3c c8 fc 3a bd 96 3f 60 be d3 df 9e be
       0.019177008 -0.045651227 -0.21899256 -0.3103014
0000d0 6a 99 c0 bd ca 10 e4 bc e9 6d 8f bb e6 79 33 3e
       -0.094042614 -0.027840037 -0.004377116 0.1752697
0000e0 62 0a 1b bd a5 14 3c 3e 8a ce 1a 3e 4e 55 96 3e
       -0.0378517 0.1836725 0.15117851 0.29361957
0000f0 fb c5 d5 bc 0a 21 af be 8d 6a 88 3e 78 65 04 3d
       -0.026095381 -0.34204894 0.26643792 0.03232333
000100 3a 70 1f be 0d 39 84 3d 1b ad 6d be 3c 29 88 bc
       -0.15570155 0.06456194 -0.23210566 -0.016621225
000110 8f a6 85 be d6 55 19 be 7e a4 99 3e 8a ff ca bd
       -0.26103637 -0.1497415 0.3000831 -0.099120215
000120 10 05 12 bd f4 68 91 3d 89 53 cd bd 4a e8 94 bd
       -0.03564936 0.07100096 -0.10025699 -0.07270868
000130 da e3 44 3e 73 1a 4d 3d 2b f5 18 bc 66 c8 1e 3c
       0.19227543 0.050074052 -0.009335796 0.009691333
000140 1f e8 36 be a1 1f cf bd 44 0f e7 3d af cb 02 3e
       -0.17861985 -0.101134546 0.112822086 0.12773012
000150 13 4c 67 bd 22 cc a7 bd a2 3e a3 3d 3f 9c 30 3e
       -0.056469034 -0.08193232 0.07970931 0.17247103
000160 c9 53 05 3e 70 50 75 3e 91 71 79 3e f0 0e 78 3e
       0.13020243 0.23956466 0.24359728 0.24224448
000170 69 cb 6a 3d 6d ba 6c be 23 b9 1a 3c be b9 46 3e
       0.057322893 -0.23117991 0.009443554 0.19406793
000180 80 cc 20 bd 68 bb 01 3e 15 9c 2b 3c 77 aa 21 be
       -0.039257526 0.12669146 0.010474225 -0.15787683
000190 ff e7 84 3d 64 42 3b 3e 66 49 66 bd 35 fd 81 be
       0.06489562 0.18287045 -0.056222342 -0.25388494
0001a0 92 61 67 3c c8 cd 62 be 43 bc 0c 3d c1 76 34 3e
       0.014122384 -0.22148812 0.034359228 0.17623426
0001b0 c3 0e 66 3d 63 09 59 be 8a b3 c0 bd 54 4d 2a be
       0.05616642 -0.21194987 -0.09409244 -0.16631061
0001c0 00 64 47 be 33 f0 a2 3e 92 1f b8 3c a8 6b 0a 3b
       -0.1947174 0.31823882 0.022475991 0.0021121297
0001d0 e7 84 0d be e1 9e cc bd d7 17 0c bf e5 9c 88 3e
       -0.1382023 -0.09991241 -0.54723877 0.266822
0001e0 c6 89 12 bd 66 3c dc be 7d 9e 2f be 74 d5 23 bd
       -0.035775922 -0.4301483 -0.17150302 -0.039998487
0001f0 62 4c b6 bc a4 06 2f be 65 95 76 3e 0f 76 8b bd
       -0.022253219 -0.17092377 0.24080427 -0.06809627
000200 00 e2 f0 bd 1c ef 95 3e 6d 1f 48 be 1d e4 95 bc
       -0.11761856 0.29283988 -0.19543238 -0.01829725
000210 38 d6 62 bd 04 55 43 3e da 6f 9d bb 5f 28 83 be
       -0.055380076 0.190754 -0.0048045935 -0.25616738
000220 42 2e 18 3e 36 6f 79 3e 79 d7 0a bd 65 ac d6 bc
       0.14861396 0.2435883 -0.033896897 -0.026205251
000230 9b 94 11 bd 83 28 e1 3c f0 1f 92 3d 4c 0d b7 bd
       -0.03554211 0.027485138 0.07134998 -0.08938083
000240 d1 6f 72 3e a3 0b 10 3d 41 25 75 be 76 66 85 3d
       0.23675467 0.035167348 -0.23939992 0.065136835
000250 16 ca 80 be fa 0f cd 3c f1 41 d8 bd 2c 4a 69 be
       -0.2515418 0.025032032 -0.10559452 -0.227822
000260 58 1e 70 bd d3 53 95 be c5 53 f4 3d 9d ee 1a be
       -0.058622688 -0.29165515 0.1193004 -0.15130086
000270 10 7c 29 3c 19 13 fc bd a4 1f b5 bd 12 74 b7 3d
       0.01034452 -0.1230833 -0.088439256 0.089576855
000280 68 de 67 be f1 de 96 3e a9 4a db bd 43 e1 be bd
       -0.22643435 0.29466966 -0.107076 -0.09320309
000290 f9 de 14 3e a0 77 1b 3d a2 ce d4 3b 09 b2 50 3e
       0.14538182 0.03795588 0.006494359 0.20380415
0002a0 e8 cd 42 bc 57 df 34 bd 59 67 6c bc 70 f0 07 3e
       -0.011889912 -0.044158306 -0.014428937 0.13275313
0002b0 9c 0a 66 3d 25 9c 9e be db 67 0a 3e 72 ef a9 3c
       0.05616246 -0.30978504 0.1351618 0.02074406
0002c0 4c 45 24 be 1a 26 bd 3e f7 64 e6 3d 88 a8 04 be
       -0.1604206 0.36943132 0.11249726 -0.12954915
0002d0 3d 60 f4 bb 26 04 f5 bd d6 53 50 be 90 22 e9 3c
       -0.0074577616 -0.11963682 -0.20344481 0.028458863
0002e0 bc 38 9e 3d 51 d3 8c 3d 05 4a 1d bc d0 ba a5 3e
       0.07725665 0.06876243 -0.009600167 0.3236909
0002f0 30 37 c1 3c ec 64 e7 3b f5 0f dc bd a8 9c 58 3c
       0.023585886 0.0070615914 -0.10745231 0.0132209435
000300 47 88 47 be 9b e3 9d 3e 81 bc 8f 3e ce 69 18 3e
       -0.1948558 0.30837712 0.28073505 0.14884111
000310 ce e3 4d be 5e a3 87 bc f6 db 06 3d 91 46 0b 3e
       -0.20106432 -0.016557392 0.032924615 0.13601138
000320 84 f8 42 be cb f6 b9 be 7e b0 5a 3d 2b 05 56 3d
       -0.19040114 -0.363211 0.053390972 0.052251022
000330 16 a2 59 3e fe 57 5b 3e 7a c3 43 3d 4a fd 85 be
       0.21253237 0.21420285 0.047793843 -0.26169807
000340 70 73 7a 3d 06 64 4b bd 15 5c bc 3e 53 a6 3c bd
       0.061145246 -0.049655937 0.36789003 -0.046057057
000350 8d d4 ae be b5 28 b1 3e ea c7 1c be 47 56 1a 3e
       -0.34146538 0.3460137 -0.15310636 0.15071975
000360 ed 58 83 bd 22 71 c9 3e 7f 91 4d bd 79 e8 43 3e
       -0.064134456 0.39344126 -0.050187584 0.1913165
000370 93 5b a0 bd 68 68 38 be a7 fe a0 3e bf e8 a8 3e
       -0.078299664 -0.18008578 0.31444284 0.3299007
000380 20 e8 4b 3e 0e b0 fd bc 98 45 13 be 23 be 98 3d
       0.19912767 -0.030967738 -0.14382017 0.07458141
000390 86 ba 91 3e 5f 68 7f 3e bc 1c 52 bd 8d 56 14 be
       0.2846262 0.24942158 -0.051296934 -0.14486142
0003a0 cc 15 54 be 08 88 f9 bd 46 b9 7c 3d cc 80 ad bd
       -0.2071144 -0.12184149 0.061700128 -0.08471832
0003b0 4e 21 8b be be 37 b2 be 9e 58 ed bb 34 8d 69 be
       -0.27173847 -0.34808153 -0.00724323 -0.22807771
0003c0 c4 e4 84 3e 29 ee 2e be 40 94 00 3e 11 d9 ca bd
       0.25955784 -0.17083038 0.12556553 -0.099046834
0003d0 9d 0f bd bc 07 cf 34 3e 5d 2b 4a 3d 66 4f 2c be
       -0.023078734 0.176571 0.04935776 -0.16827163
0003e0 09 80 80 3d e7 c9 f7 3d b9 e5 d1 3e 69 00 39 be
       0.06274421 0.12099057 0.40995577 -0.18066563
0003f0 03 21 4b 3d 35 96 9d bd 1b f2 34 3e 0f f2 d2 bd
       0.04959203 -0.07694665 0.17670481 -0.10300075

layers.0.1.weight f4 [256]
000000 01 5d 80 3f 49 2b 81 3f 1c ab 7e 3f 97 5d 7a 3f
       1.0028383 1.0091335 0.9947984 0.97799057
000010 9a af 8d 3f e9 ff 73 3f ee 0e 71 3f 8d 20 7c 3f
       1.1069214 0.9531236 0.94163406 0.9848717
000020 6f f5 7b 3f 30 1b 7a 3f c6 0e 75 3f 5d 48 7a 3f
       0.98421377 0.97697735 0.9572567 0.9776667
000030 7f b8 7b 3f 56 e5 7c 3f f3 55 7e 3f f1 28 83 3f
       0.98328394 0.9878744 0.993499 1.0246869
000040 0e 48 81 3f 84 91 86 3f 5c e5 88 3f 0d 87 83 3f
       1.0100114 1.0513158 1.0694995 1.0275589
000050 aa 8f 72 3f 73 f0 7a 3f dc 01 74 3f 3c 6a 81 3f
       0.94750464 0.98023146 0.9531534 1.0110545
000060 e6 ad 7b 3f 4b 70 81 3f ba 3a 7c 3f a3 aa 81 3f
       0.9831222 1.0112394 0.9852711 1.0130199
000070 d7 4c 79 3f 15 c5 82 3f d5 b6 86 3f 42 02 7c 3f
       0.97382873 1.0216395 1.0524546 0.98440945
000080 a5 86 7c 3f 3c 42 84 3f c0 93 75 3f 21 82 7d 3f
       0.9864295 1.0332713 0.95928574 0.99026686
000090 71 a5 81 3f 03 d8 7f 3f 47 fb 82 3f a7 9f 77 3f
       1.0128614 0.9993898 1.0232934 0.96727985
0000a0 30 e5 80 3f 53 db 7c 3f d3 56 70 3f 90 70 82 3f
       1.0069942 0.9877216 0.93882483 1.0190601
0000b0 2e 02 88 3f 83 3b 80 3f 31 00 7b 3f bd 15 82 3f
       1.0625665 1.0018162 0.9804717 1.0162884
0000c0 b0 39 7e 3f 36 62 7a 3f 76 28 80 3f 66 45 7e 3f
       0.99306774 0.9780611 1.0012348 0.99324644
0000d0 a4 e4 87 3f c8 7e 7c 3f ad 21 91 3f 2f 65 78 3f
       1.061665 0.9863095 1.1338402 0.97029394
0000e0 c7 e0 7d 3f 69 10 84 3f 11 a6 83 3f 7a 67 83 3f
       0.9917111 1.0317508 1.0285054 1.0265954
0000f0 35 58 82 3f 6a ab 7b 3f 4f 93 79 3f 4c ec 81 3f
       1.0183169 0.9830843 0.974904 1.0150237
000100 57 33 79 3f 30 80 7e 3f b7 3b 7e 3f c6 03 7e 3f
       0.97343963 0.9941435 0.9930987 0.9922451
000110 99 4c 78 3f 5c 1c 83 3f 0a 39 78 3f 49 9b 82 3f
       0.9699188 1.024303 0.96962035 1.0203639
000120 eb 25 7b 3f 5c d1 7a 3f e1 f2 77 3f 8e 84 83 3f
       0.98104733 0.9797571 0.9685498 1.0274827
000130 4e e5 82 3f 49 40 7b 3f db 70 7b 3f e9 e5 82 3f
       1.0226228 0.98144966 0.9821908 1.0226413
000140 33 ea 7f 3f 36 a3 7c 3f e2 bf 83 3f 96 f3 7e 3f
       0.99966735 0.9868654 1.0292933 0.9959043
000150 26 7c 7e 3f 99 ed 83 3f 6c 77 7b 3f c0 43 7a 3f
       0.99408185 1.0306884 0.982291 0.9775963
000160 78 f1 81 3f 3b 44 82 3f ab df 81 3f 05 a5 77 3f
       1.0151815 1.0177072 1.0146383 0.96736175
000170 32 1c 7c 3f 80 b4 7e 3f 3e 2a 81 3f e3 50 7b 3f
       0.9848052 0.9949417 1.0091016 0.981703
000180 66 c7 82 3f 5a 11 77 3f fa 63 7e 3f 2f 21 84 3f
       1.0217102 0.9651085 0.993713 1.0322627
000190 8c 45 7b 3f 59 3a 73 3f ad 31 7a 3f 0e d4 82 3f
       0.98152995 0.95010906 0.9773205 1.0220964
0001a0 fd 07 81 3f 7d 93 83 3f 46 6e 7d 3f 8d 6a 7b 3f
       1.0080563 1.0279385 0.9899639 0.9820946
0001b0 f1 26 7c 3f a2 b0 78 3f 80 64 82 3f 13 1a 76 3f
       0.9849692 0.9714452 1.018692 0.96133536
0001c0 2e 04 87 3f 16 c4 70 3f 78 9e 7b 3f 5c 2f 73 3f
       1.054815 0.94049203 0.9828868 0.9499414
0001d0 31 2c 7e 3f dd ba 7e 3f c1 be 7b 3f 6f 64 7a 3f
       0.9928618 0.9950388 0.9833794 0.978095
0001e0 7b bf 72 3f 5f 2c 78 3f 29 1c 77 3f e8 f5 7f 3f
       0.94823426 0.96942705 0.96527344 0.999846
0001f0 b7 8a 83 3f bc 43 85 3f 4c 7e 78 3f d4 ab 79 3f
       1.0276707 1.0411296 0.97067714 0.97527814
000200 cb 93 7d 3f 9d ac 72 3f cd 94 81 3f 29 62 7d 3f
       0.9905364 0.94794637 1.0123535 0.98977906
000210 f1 b7 7d 3f b5 26 85 3f 9b 80 7f 3f 78 95 89 3f
       0.991088 1.0402437 0.9980561 1.0748739
000220 43 ec 80 3f 52 ee 80 3f 88 7b 7e 3f 6c 2f 74 3f
       1.0072101 1.007273 0.99407244 0.9538486
000230 78 27 79 3f 06 49 7a 3f 50 5c 82 3f 68 88 7a 3f
       0.9732585 0.97767675 1.0184422 0.9786439
000240 d7 54 79 3f 44 be 7f 3f 4b a9 78 3f 5c 10 79 3f
       0.9739508 0.998997 0.9713332 0.9729059
000250 da 38 88 3f 6e 8c 74 3f 67 4c 75 3f 9b a8 7a 3f
       1.064235 0.9552678 0.95819706 0.9791352
000260 2d 61 7d 3f 1e e8 7f 3f e1 a2 7e 3f bb 75 80 3f
       0.98976403 0.9996356 0.99467283 1.0035928
000270 78 8b 7a 3f e2 08 83 3f f4 7b 88 3f a2 d2 82 3f
       0.9786906 1.0237086 1.0662827 1.022053
000280 fb 8d 80 3f ec 1f 84 3f 36 42 74 3f 4d c1 77 3f
       1.0043329 1.0322242 0.9541353 0.9677933
000290 65 4c 81 3f 40 69 80 3f 84 aa 7e 3f 70 25 7b 3f
       1.0101439 1.003212 0.99478936 0.98104
0002a0 fb b9 7a 3f 67 bd 7b 3f dc f1 79 3f 2d 75 7c 3f
       0.97940034 0.9833588 0.97634673 0.98616296
0002b0 47 62 81 3f e1 d0 75 3f d6 a7 7b 3f 12 d8 82 3f
       1.0108117 0.9602185 0.9830297 1.022219
0002c0 38 a3 74 3f ed 17 7b 3f c1 c3 7e 3f b3 58 7c 3f
       0.9556155 0.9808338 0.99517447 0.98572844
0002d0 f9 82 7f 3f 2c 44 82 3f 8f b2 80 3f 9c 9b 8d 3f
       0.99809223 1.0177054 1.0054492 1.1063113
0002e0 c1 ea 87 3f 6b d8 83 3f 5a f0 76 3f 57 df 82 3f
       1.0618516 1.030042 0.964605 1.0224408
0002f0 79 2f 84 3f 7f 7a 80 3f de 55 82 3f dd 64 8b 3f
       1.0326988 1.0037383 1.0182455 1.0890156
000300 8c 37 71 3f 81 93 7d 3f 1c 1b 78 3f b7 29 8a 3f
       0.9422538 0.990532 0.96916366 1.079398
000310 93 e6 86 3f cd bc 81 3f af df 80 3f b4 0f 80 3f
       1.0539116 1.0135742 1.0068263 1.0004792
000320 cd 97 83 3f 42 87 85 3f 5f 07 7f 3f 25 e3 80 3f
       1.0280701 1.0431902 0.9962062 1.0069319
000330 a8 06 7c 3f 07 f3 77 3f e1 9d 82 3f 6c 85 7d 3f
       0.98447657 0.96855205 1.0204431 0.9903171
000340 82 60 7c 3f 6a 6b 83 3f a2 45 80 3f 0f 51 80 3f
       0.9858476 1.0267155 1.002125 1.0024737
000350 1f 28 8e 3f 75 01 80 3f a1 f0 7f 3f 20 59 7c 3f
       1.1105994 1.0000445 0.99976546 0.98573494
000360 b2 01 82 3f d9 3a 80 3f 5c a6 7b 3f 0b ce 7c 3f
       1.0156767 1.0017959 0.9830072 0.98751897
000370 0f 71 79 3f 16 d4 80 3f bc 79 7c 3f f1 0c 77 3f
       0.9743814 1.0064723 0.9862325 0.9650412
000380 85 79 75 3f 0b 6d 81 3f 6f e0 83 3f 0b 91 82 3f
       0.9588855 1.0111402 1.0302867 1.0200514
000390 6c 90 7d 3f 4f 8d 7a 3f 41 fe 7c 3f ab b1 75 3f
       0.99048495 0.9787187 0.9882546 0.95974225
0003a0 68 f8 80 3f 1b c1 79 3f db b0 7a 3f 11 e0 83 3f
       1.0075808 0.9756028 0.9792611 1.0302755
0003b0 64 6b 85 3f 6a b5 82 3f d9 d9 73 3f 70 53 84 3f
       1.0423398 1.0211613 0.95254284 1.0337963
0003c0 e9 cf 88 3f 23 53 7a 3f 2a 33 77 3f a7 ba 7c 3f
       1.0688449 0.97783107 0.96562445 0.9872231
0003d0 82 f3 7e 3f 42 cf 85 3f 19 cf 79 3f 24 a9 7e 3f
       0.99590313 1.0453875 0.9758163 0.9947684
0003e0 4a a4 7a 3f fd 6c 72 3f d0 c9 7e 3f 29 aa 6f 3f
       0.97906935 0.9469755 0.9952669 0.9361902
0003f0 60 72 85 3f 22 15 7b 3f 82 05 7f 3f c3 36 82 3f
       1.042553 0.9807912 0.9961778 1.0172962

layers.0.1.bias f4 [256]
000000 c0 8e ef 3c 86 24 06 3d f9 06 02 bd 18 53 84 bc
       0.029242873 0.032749675 -0.03174493 -0.016152903
000010 e8 28 c5 3d af ed 07 bd 4d 2e 0a bd c4 99 1b 3c
       0.09626943 -0.033185657 -0.033735562 0.00949711
000020 c6 cd 87 bd 2d eb bd bc 85 a3 e3 bc 65 82 69 bc
       -0.06631045 -0.02318343 -0.027787933 -0.01425228
000030 3a db 4e 3c 42 e5 17 bd 70 78 6c 3c e8 ff 9b 3c
       0.01262551 -0.03708387 0.014433011 0.019042924
000040 e9 9b 2b 3d 72 3e b4 3d 5f 78 b6 3d ee b4 81 3d
       0.041896734 0.08800973 0.08909678 0.06333338
000050 f7 f9 f9 bc 52 37 65 bc 06 85 08 bd 7a bc 93 bb
       -0.0305147 -0.01399024 -0.033329986 -0.004508552
000060 d6 a6 94 bc 63 4c 92 3b 5c 49 a9 3d e1 02 71 3d
       -0.01814596 0.0044646724 0.08265945 0.058840636
000070 ab d8 2b bd 1e f6 56 3d da fe 6e 3c 8b e5 93 3c
       -0.041954678 0.05248081 0.014587129 0.01805379
000080 76 39 25 bb 68 4d 65 3d 67 c3 04 bd 10 da 01 bc
       -0.0025211251 0.055982023 -0.032412913 -0.007925525
000090 c5 42 86 3c 10 c8 f5 bb fe db a2 3c 64 67 04 38
       0.01638926 -0.007500656 0.019880291 3.1567542e-05
0000a0 54 ee 4f 3c 85 19 19 bc 4f 91 7d bd 11 d6 6a 3c
       0.012691099 -0.009344463 -0.061906155 0.014333264
0000b0 49 38 03 bc 7d c9 a6 3c d4 34 90 3c ac 38 e3 3c
       -0.008009025 0.020359749 0.017603315 0.027736984
0000c0 59 d7 ba 3c 38 0a 99 3c ed 0a 46 bd e1 8a b1 3c
       0.022807764 0.01868163 -0.048350263 0.021672668
0000d0 32 e1 e6 3b 67 b4 49 bd 9b 60 7a 3d 3d fc 5e bc
       0.0070458883 -0.04924431 0.061127286 -0.013609943
0000e0 de d3 45 bc 1f 64 0a 3d 38 9f 94 3d 52 8c c3 3d
       -0.012074439 0.03378689 0.07256931 0.09548248
0000f0 ab 0e 7e 3d b6 41 0b 3c 53 3f 83 3b af 1d ef bb
       0.062025707 0.008499553 0.0040053516 -0.0072972397
000100 04 19 10 bd 3a 23 a6 3c 90 d2 a2 3c b3 67 ec bb
       -0.035180107 0.02028047 0.019875795 -0.0072145103
000110 b3 04 e0 bc fe f1 b3 3c bb 44 d7 bb ad dc 05 3d
       -0.02734599 0.021965977 -0.0065694726 0.032681156
000120 d8 13 15 bc 82 3b 8a bc 04 b0 3f bd 17 3c 1b 3d
       -0.009098969 -0.016874079 -0.04679872 0.037899103
000130 cf 9f 3a 3d b2 79 7a bb 25 b5 a5 3c 00 cd ec 3c
       0.04556256 -0.0038219509 0.020227978 0.028906345
000140 39 3a 18 3d 46 fa 6a bb 72 9e 88 3d d6 8f 73 3b
       0.0371649 -0.003585474 0.06670846 0.003716459
000150 dd e9 0c 3d 1b ae a7 3c f1 dd 3b 3c 58 70 7e bc
       0.034402717 0.020468762 0.011466489 -0.0155297145
000160 ad 36 23 b9 7c 52 90 3d 46 48 26 3d a9 e8 41 bd
       -0.0001556526 0.07046983 0.04059627 -0.047341023
000170 29 69 8f 3a 2c d5 0b bd af da ae 3c 36 0a 00 bc
       0.0010941374 -0.034138843 0.02134451 -0.0078149345
000180 01 f7 76 3c db 96 23 bc 35 40 4b ba 4c 84 76 3d
       0.015073539 -0.009984697 -0.0007753403 0.060184762
000190 4f 31 f7 bb f1 b8 5e bd c7 d3 b3 bb 8a a3 aa 3c
       -0.00754372 -0.054375593 -0.0054878923 0.020829935
0001a0 5f e1 50 bc 9e fe 95 bb f0 eb 78 bc f0 f4 0a bd
       -0.012749045 -0.004577472 -0.015192971 -0.033924997
0001b0 4a fa 96 3c 7d c5 9a 3b b0 a9 9c 3c 68 64 96 3c
       0.018429894 0.0047232495 0.019123882 0.018358424
0001c0 74 07 8e 3d d7 ca a4 bc 4a 37 8c 3c fa f4 81 bc
       0.06935015 -0.020116253 0.017116208 -0.015863884
0001d0 ac 66 b5 bb 8c 5c 06 3d 0d 12 57 bc d2 3e af bb
       -0.005535921 0.032803103 -0.013126862 -0.005348065
0001e0 64 d7 b2 bc dd 80 ac 3c 9a c7 58 bd 7e 0c c7 3c
       -0.021831222 0.02105754 -0.05292473 0.024297949
0001f0 fd 39 f3 3c 01 fb 0d 3d d6 a6 e3 bc ae 32 de bb
       0.029690737 0.034663204 -0.027789515 -0.006780944
000200 6f c3 43 bc cd 9f 8e bd 23 2b b6 3c 63 2d ac 3c
       -0.0119484505 -0.06964073 0.022237366 0.021017736
000210 cc 65 00 bd a4 93 0b 3c bf 65 e2 3c 59 1f 82 3d
       -0.03134708 0.008519087 0.027636407 0.06353635
000220 3d 07 b9 bc 67 26 ed 3c 07 5a 12 3c 1b a7 a2 bc
       -0.02258646 0.028948976 0.008932597 -0.019855073
000230 3b 7a e6 bc 5b f8 bb bc 48 be ea 3c 31 d2 a7 3b
       -0.028134456 -0.022945574 0.028655186 0.0051214923
000240 12 34 d2 3c f9 87 19 3d 51 56 09 bb 9d 27 f5 bb
       0.025659595 0.03748319 -0.002095599 -0.007481529
000250 d9 df a6 3d 07 79 36 bc c0 7e 42 bd af bd 1e 3a
       0.08148164 -0.011137254 -0.04748416 0.0006055487
000260 79 7f 41 bd 48 5f b6 bc 7a 8e a3 3c 2e b9 37 3b
       -0.047240708 -0.02226223 0.019965399 0.002803396
000270 08 53 e7 bc e5 af 05 bc d2 c8 8d 3d 8b d2 2e 3d
       -0.028237835 -0.008159612 0.06923069 0.04268126
000280 bf d3 5c 3c be 31 32 3d 59 ad ee bc 35 48 62 bd
       0.013478219 0.04350447 -0.029135393 -0.055244643
000290 cc 28 39 3d 86 af 34 bc 14 e5 8f bb e6 11 d5 3b
       0.045204923 -0.011028176 -0.004391322 0.006502378
0002a0 09 be a1 bb 88 d1 74 bc 51 b3 49 3c ea 4a ac bc
       -0.004935984 -0.014942534 0.012310819 -0.021031816
0002b0 cc 0b 01 3d 8a 3a 46 3b 99 e4 8b bc 38 c1 e7 3c
       0.03150539 0.0030247294 -0.017076777 0.028290376
0002c0 f3 b5 cb bc a8 ac 24 bb 93 a7 fc 3a 8b 47 2c bd
       -0.024867034 -0.0025127325 0.0019276015 -0.042060416
0002d0 c6 e1 63 bc 22 e4 c6 bb 52 c2 bf 3c 6a 54 c4 3d
       -0.013908809 -0.006069676 0.023408089 0.09586413
0002e0 26 4d cc 3c 85 27 17 3d 93 b8 0a bd 52 76 05 3d
       0.024939131 0.036902923 -0.03386743 0.032583542
0002f0 86 ab fe 3c 0c 0f cb 3c 27 ad 52 3d dd 2a 7d 3d
       0.031087648 0.024787448 0.051434662 0.061808456
000300 fc 69 c2 bc c8 c3 3e 3c 31 1e 3f 3c 7f 0e ff 3d
       -0.023732178 0.011643358 0.011664913 0.12453937
000310 9e 8b ee bb 49 18 b7 3c 5f c5 32 3c b7 ee 14 3d
       -0.0072798273 0.022350447 0.010911315 0.03636047
000320 ba 6f 79 bc 93 01 01 3d 0f 76 a6 bc 1f 62 32 3d
       -0.015224392 0.031495642 -0.020319967 0.043550607
000330 24 b4 84 bc 85 d0 1d bc 75 a3 92 3c 6d a6 a4 bc
       -0.016199179 -0.009632234 0.017900208 -0.02009889
000340 56 92 da bb 1e f7 d9 b9 63 04 d3 3c 9a 40 b3 ba
       -0.0066702766 -0.00041573582 0.025758928 -0.0013675869
000350 81 8d 91 3d 6f f0 f8 3c af e5 be bb 41 64 87 bc
       0.07107068 0.030388085 -0.0058257203 -0.016527297
000360 23 23 58 3d b9 f2 1a 3c 08 2a c3 bc 24 94 99 3c
       0.052767884 0.009457284 -0.023823753 0.018747397
000370 2c 29 2f bd 62 3f 28 bc 3e f5 ba ba 9f 0c 6c bd
       -0.042763874 -0.010269018 -0.0014263762 -0.057629224
000380 d4 1d 5c bc 49 6c b8 3b 45 b2 79 3c 9f d7 49 bc
       -0.013434846 0.005628143 0.015240257 -0.0123194745
000390 e8 48 6c bc ce c4 81 bc 6f c6 2a bc f6 03 75 bc
       -0.014421679 -0.015840914 -0.010423287 -0.014954558
0003a0 f4 90 9c 3c f0 4a 54 3c b6 8d 95 3a 91 8e 02 3d
       0.019112088 0.01295732 0.0011410031 0.031874243
0003b0 4b 87 20 3d 98 05 08 3d c6 98 14 bd f2 af b2 3c
       0.039191525 0.03320846 -0.03627851 0.021812413
0003c0 76 2d 4a 3d 9f 83 a4 bb 59 e3 02 ba 18 2e 85 3d
       0.04935976 -0.0050205733 -0.0004992984 0.06502932
0003d0 10 45 94 3c 0b dd 22 3d 52 3e 27 3c 4b 70 13 3b
       0.018099338 0.039761584 0.010207729 0.0022497352
0003e0 f6 d7 91 bc 78 ef fa bc 47 92 0c bc fd af f5 bc
       -0.017803174 -0.030631766 -0.008579797 -0.029991144
0003f0 7c 83 8c 3d ee 0d 00 bd e2 99 e7 3a c4 48 a2 3b
       0.06861016 -0.031263284 0.0017669762 0.004952522

layers.1.0.weight f4 [128, 256]
000000 83 1c 65 3d 09 fb 36 bd c7 1f 06 be a1 ed e2 3c
       0.055935394 -0.044673 -0.1309806 0.0277012
000010 3e 0b 0f be c6 dc 4c 3d 93 3f 0d 3d 8f bd 20 3e
       -0.13969132 0.050015233 0.034484457 0.15697311
000020 05 46 68 bd 93 16 e1 bc 02 7d 94 bd 39 d3 a2 3d
       -0.0567074 -0.027476585 -0.07250406 0.07950444
000030 d0 69 b0 3b db c0 4c 3d 5a b3 5f bc 24 19 ac bd
       0.0053837076 0.04998861 -0.013653601 -0.08403233
000040 0a 08 20 3e 0e 68 36 bd 71 b8 63 3e 8a 46 47 bc
       0.15628067 -0.044532828 0.22238328 -0.012162814
000050 9e bc ed 3c 8a a6 b9 bc f5 da 11 3d 94 33 da 3d
       0.029020604 -0.02266242 0.035609204 0.10654369
000060 cd 49 6c 3d 50 4e 4f bd a6 fa a8 bd d3 c1 01 3e
       0.05768757 -0.050611794 -0.082509324 0.12671594
000070 0a 31 b0 3d 8e 26 4a bd fe d8 b8 3c 61 59 39 3d
       0.086031035 -0.049353175 0.022564407 0.045251254
000080 7b 42 fe bc da 86 c7 bb 5d f0 08 3e 2e 41 28 3d
       -0.03103756 -0.0060890736 0.13372941 0.041077785
000090 ce 7d e1 bc ed c5 48 be 92 56 ad 3d 62 68 cd ba
       -0.027525809 -0.19606753 0.084637776 -0.0015671367
0000a0 f8 49 20 3e 35 90 ba bd 2d aa 89 bd e1 f9 03 bd
       0.15653217 -0.091095366 -0.067219116 -0.032220725
0000b0 cd 91 c3 3d 6f fa 21 3d fa c3 0c 3d d1 77 98 bd
       0.09549294 0.039545473 0.034366585 -0.07444728
0000c0 1b 13 01 3e 34 27 3b be 62 12 0b 3e 44 24 81 3d
       0.12604944 -0.18276674 0.13581231 0.06305745
0000d0 9c 78 df bb b6 f2 9c bd 7f bc 68 bd 5b 8a 2c bc
       -0.0068197977 -0.07663481 -0.05682039 -0.010531033
0000e0 b8 bf 44 bd bc a6 28 3d d1 bf 9f bc 35 7b a1 bc
       -0.0480344 0.041174635 -0.019500645 -0.01971207
0000f0 6c 86 cc bd 43 75 82 3d 9c 4a 07 be b7 ca 19 3e
       -0.099865764 0.06370022 -0.13212055 0.15018736
000100 58 89 a7 bd c4 ea 31 3d 5d 2b ad bd af 4e e2 3d
       -0.08180493 0.04343678 -0.084555365 0.11050164
000110 53 00 01 3e 3f 53 21 bd 1e 38 2d 3b 01 aa b9 bd
       0.1259778 -0.03938603 0.0026431154 -0.09065629
000120 0c 09 01 3d 04 60 d3 bd b9 0a ab 3d 3e 69 a8 bd
       0.03150277 -0.10321048 0.083516546 -0.08223198
000130 f6 74 43 be 74 e8 82 3d ec 4d 47 bd ed 3c cb 3d
       -0.19087586 0.06391993 -0.048658296 0.0992373
000140 f2 c7 85 bd 58 b5 dd 3d 21 71 38 bd 38 d9 09 3e
       -0.06532277 0.10825604 -0.045029763 0.13461769
000150 e3 a8 6d bc 1a 7e 01 3e 38 0e 17 b9 2c 39 f2 bc
       -0.014505598 0.1264576 -0.00014405779 -0.029568277
000160 21 8b cf 3d b6 6b 92 bd 73 72 be 3c 56 35 2b bd
       0.101339586 -0.071494505 0.023247933 -0.041798912
000170 b0 33 f8 3d 62 d0 c8 bc e4 b9 5a bc 53 d0 b4 bc
       0.121192336 -0.024513427 -0.013349984 -0.022071993
000180 79 ab fc bd 77 06 99 bd 80 6f aa bd c9 2f 96 3d
       -0.12337393 -0.07471936 -0.08322048 0.07333333
000190 87 b1 37 3e 1b e6 04 3e e3 a1 a8 bc 9a 53 57 3d
       0.17938815 0.12978403 -0.020585006 0.052569963
0001a0 ae 63 dd 3d 40 81 c0 3d 71 d3 9e 3c 67 9e 04 3e
       0.10810028 0.093996525 0.019387932 0.1295105
0001b0 88 fa 0b 3d e5 98 67 3d 92 f1 9f bd 69 f2 94 bb
       0.034174472 0.056542296 -0.07809748 -0.004545499
0001c0 01 c4 19 be 07 aa c1 bd 8e d5 60 3c 53 1d fc 3d
       -0.15016176 -0.09456258 0.01372279 0.12310281
0001d0 69 04 c5 bb c0 dc 0e 3e e1 75 d8 bd 0d 3a a2 3c
       -0.0060124886 0.13951397 -0.105693586 0.019803071
0001e0 9b 87 d3 3d 4c a6 50 bd f8 18 dd bd a8 b7 31 bc
       0.10328599 -0.050939843 -0.10795778 -0.01084701
0001f0 e5 06 0e 3c a8 2b 08 3c 56 0b 11 3d 3e f2 2b bc
       0.008668636 0.00831119 0.0354112 -0.010494767
000200 54 1d 7c bc a9 da 9b bd fd 98 a8 bd 89 a0 1f bc
       -0.015387852 -0.076100655 -0.08232305 -0.009742864
000210 d0 73 91 bd a2 24 f8 3c 18 84 24 3c ff 7a 5d bd
       -0.071021676 0.030290905 0.010041259 -0.054072376
000220 b3 bc bd bd 73 f9 ea bd fb 1c e5 bd 20 5b 0d 3d
       -0.09264507 -0.1147336 -0.11187168 0.03451073
000230 9b 6c d3 bb 50 52 0c be 5b c9 c2 3c df c9 10 3c
       -0.0064521558 -0.13703275 0.023777654 0.008837192
000240 28 70 43 bd 53 b1 1f 3d e9 5e d9 bd 71 44 00 be
       -0.047714382 0.03898747 -0.10613806 -0.12526108
000250 86 20 57 bd 1b dd 55 3c e2 44 f6 3d 96 a0 02 be
       -0.05252125 0.013053204 0.12024857 -0.12756571
000260 23 cb 09 be f2 f3 37 bd 79 6d 9c be a6 aa 2f 3d
       -0.13456397 -0.04491038 -0.3055227 0.042887352
000270 e0 f6 0e be 4d cd db 3d 9b 62 13 3e 4d e4 2d 3d
       -0.13961363 0.107325174 0.14393084 0.042454053
000280 c5 65 36 bd d7 38 ed 3d 1f cf 8e bd 3f a8 35 be
       -0.04453065 0.11583107 -0.06973099 -0.17739962
000290 ea c3 a9 3d 84 3b db 3d 00 85 fc 3d 5f a5 c7 3d
       0.08289321 0.10704711 0.12330055 0.09748339
0002a0 16 8f 33 3d ef 22 c5 3c e2 a0 a3 bd db 29 f9 bd
       0.04383763 0.02406451 -0.0798967 -0.121661864
0002b0 d9 5f ff bd 74 4d 6c bb ff 4f 23 be 92 c7 b9 39
       -0.12469453 -0.0036056908 -0.15948485 0.0003543464
0002c0 ad 11 b6 bd 64 76 be bd 56 40 fc bd d5 58 37 3c
       -0.0889009 -0.09299925 -0.123169586 0.011190613
0002d0 ee 41 1d 3e 0b 63 8d 3d 92 1a a8 bc 5c 8a 8a bd
       0.15357181 0.069036566 -0.020520482 -0.06764671
0002e0 9e 7a 61 be b6 db fe 3d e4 17 05 3d 2e 4c 62 3d
       -0.22019431 0.1244425 0.032493487 0.05524843
0002f0 75 83 84 3d 90 78 86 bd 9a ca d3 bd 37 14 68 3c
       0.06470386 -0.06565964 -0.103413776 0.014164976
000300 0f 0c f5 bd 71 a6 0c be 5b bb ab bd 6e 40 86 bd
       -0.119651906 -0.13735367 -0.083853446 -0.06555258
000310 d1 78 34 3d d6 cb 75 3d a0 3b ac 3b 6a d2 43 3e
       0.044060532 0.060008846 0.0052561313 0.19123235
000320 31 84 0f be b4 1c 9b bd 20 dd 8b be 6b 3f d8 bd
       -0.14015271 -0.07573834 -0.27317142 -0.10558971
000330 a7 00 cf 3d 47 d4 27 3e 64 9d 96 bd d9 81 d1 3d
       0.10107546 0.16389571 -0.07354239 0.102298446
000340 fc fc 77 bd 00 75 b4 bd b7 2d 77 3d 20 e7 b0 3d
       -0.060544 -0.088113785 0.06034633 0.086378336
000350 19 2d 01 3d 0e 83 ea 3d 0f bc b3 bd 56 b1 21 bc
       0.03153715 0.11450778 -0.08776104 -0.00986894
000360 a8 4f a7 bd 57 1a 41 b9 52 4e 01 bd 51 0b 7f bd
       -0.0816949 -0.00018415727 -0.031568833 -0.06226665
000370 6a ff 2f bd d0 9b 0b 3c b9 10 31 be 03 ed 30 be
       -0.04296819 0.008521035 -0.17291535 -0.17277913
000380 8d 61 82 3d 6b ff 1a 3d 7a 3d 4f bd 01 a7 a3 3c
       0.063662626 0.03784124 -0.050595738 0.019977095
000390 02 c8 a9 bd 24 ed 37 bd 62 f0 10 be cb 87 4e 3c
       -0.082901016 -0.04490389 -0.14154199 0.012605618
0003a0 7e cf 02 be 61 44 ca bd f5 3c b8 3d cd c4 73 bd
       -0.12774464 -0.098763235 0.08996002 -0.059513856
0003b0 36 c7 9a 3d 5e 00 88 3d de 7d 18 3e dd d2 36 3d
       0.07557528 0.06640695 0.14891765 0.04463469
0003c0 9a 7f 21 bd 74 d3 81 3d 00 d8 1f bc 55 cd 6d bd
       -0.03942833 0.063391596 -0.009756088 -0.058057148
0003d0 fd 4d 9c 3c db ae 91 bd 35 cb 0c 3e 38 63 3b be
       0.019080156 -0.07113429 0.13749392 -0.18299568
0003e0 50 9c 69 bb b2 d2 27 3d 48 57 97 3d ad 0b ba bd
       -0.0035646148 0.04097242 0.073896945 -0.09084258
0003f0 06 87 74 3d 14 c4 ee 3d 35 f2 07 bd 40 10 d7 3d
       0.05969908 0.11658493 -0.03318997 0.10501146

layers.1.1.weight f4 [128]
000000 a7 76 79 3f 90 2b 7e 3f 97 e1 7c 3f 59 c3 7b 3f
       0.97446674 0.9928522 0.9878172 0.9834495
000010 e2 68 7a 3f 0d 33 89 3f e8 ef 6f 3f 83 0a 7e 3f
       0.9781629 1.0718704 0.9372544 0.9923479
000020 96 13 7f 3f 51 7f 7b 3f 2d e2 7e 3f 75 a9 82 3f
       0.9963926 0.98241144 0.99563867 1.0207964
000030 9c c4 7e 3f e5 52 7f 3f 32 41 80 3f 25 60 81 3f
       0.9951875 0.9973586 1.0019896 1.0107466
000040 c6 81 80 3f dd f0 7f 3f f7 b9 75 3f 58 59 7f 3f
       1.0039604 0.99976903 0.95986885 0.997457
000050 88 69 82 3f c8 1b 7a 3f 2f 2b 7b 3f f8 4f 79 3f
       1.0188456 0.9769864 0.9811277 0.9738765
000060 97 73 76 3f c2 b6 79 3f 49 00 81 3f fe 7b 7f 3f
       0.96270126 0.9754449 1.0078212 0.9979857
000070 72 df 81 3f 7c 21 87 3f ec 13 7b 3f 68 cb 82 3f
       1.0146315 1.0557094 0.98077273 1.0218325
000080 9f 93 7c 3f fb 44 7c 3f ad 57 7d 3f ab f0 7d 3f
       0.9866275 0.98542756 0.9896191 0.99195355
000090 d5 d8 77 3f 69 ea 7b 3f 77 7d 83 3f 45 60 76 3f
       0.96815234 0.98404557 1.0272664 0.96240646
0000a0 66 b2 80 3f 86 1b 85 3f 81 2f 82 3f b1 72 7f 3f
       1.0054443 1.0399024 1.0170747 0.9978438
0000b0 8f ac 79 3f 22 7d 7f 3f 3b e7 80 3f 7b 2a 7b 3f
       0.9752893 0.9980031 1.0070566 0.98111695
0000c0 13 46 81 3f bb 25 77 3f 62 d4 86 3f fe 3d 7f 3f
       1.009951 0.9654195 1.0533564 0.9970397
0000d0 f0 2a 7c 3f a8 46 78 3f e1 15 6f 3f e0 44 7c 3f
       0.9850302 0.9698281 0.9339276 0.98542595
0000e0 5e f3 7f 3f 84 42 76 3f da 84 7e 3f c8 72 74 3f
       0.99980724 0.96195245 0.99421465 0.9548764
0000f0 b2 57 7b 3f a9 50 80 3f 77 00 83 3f 31 0e 78 3f
       0.9818069 1.0024616 1.0234517 0.96896654
000100 b7 1e 80 3f 81 0a 72 3f 76 c9 83 3f d9 15 7c 3f
       1.0009373 0.9454728 1.0295856 0.98470837
000110 17 53 7b 3f b3 bb 87 3f b3 67 7c 3f d4 8a 72 3f
       0.9817366 1.0604156 0.9859573 0.94743085
000120 41 0d 82 3f 78 00 82 3f fe cc 7b 3f b2 55 81 3f
       1.0160295 1.0156393 0.9835967 1.0104277
000130 23 b2 81 3f 43 26 81 3f 63 df 76 3f 33 8f 7c 3f
       1.0132488 1.0089802 0.9643461 0.98656005
000140 ad 02 75 3f f0 28 78 3f 05 29 83 3f 94 e7 83 3f
       0.9570721 0.96937466 1.0246893 1.0305047
000150 0d 62 73 3f 7a cc 7e 3f 9b ae 7b 3f df 58 8a 3f
       0.9507149 0.99530756 0.983133 1.0808371
000160 fd 0b 86 3f 84 d3 7b 3f 0f e6 79 3f 2a 81 8a 3f
       1.0472409 0.9836962 0.97616667 1.0820668
000170 4c a8 7f 3f aa 8d 80 3f ea d3 79 3f b0 7a 78 3f
       0.99866176 1.0043232 0.9758898 0.97062206
000180 c1 7b 7c 3f ca f2 7d 3f 9c 20 80 3f df 6f 7e 3f
       0.98626333 0.9919859 1.0009952 0.9938945
000190 77 d4 86 3f 81 fd 81 3f b9 ba 75 3f 33 ba 76 3f
       1.0533589 1.0155488 0.9598804 0.9637787
0001a0 6b c7 83 3f b2 f4 7e 3f f4 b2 7c 3f bb c6 82 3f
       1.0295233 0.99592125 0.9871056 1.0216898
0001b0 d6 aa 76 3f bd 2a 7b 3f 40 2c 7c 3f ee cf 87 3f
       0.96354425 0.9811209 0.9850502 1.061033
0001c0 7c a1 82 3f 7b 04 81 3f 1a da 87 3f 53 c1 80 3f
       1.0205531 1.0079492 1.0613434 1.0058998
0001d0 be b8 84 3f e7 a7 77 3f 79 b2 79 3f 88 6b 84 3f
       1.0368879 0.96740574 0.9753795 1.0345316
0001e0 1c d8 7a 3f 6d 4c 87 3f 0c 7c 7f 3f 22 93 81 3f
       0.97986007 1.0570198 0.99798656 1.0123026
0001f0 58 ce 77 3f 24 13 7e 3f 59 26 81 3f c4 f0 75 3f
       0.9679923 0.99247956 1.0089828 0.96070504

layers.1.1.bias f4 [128]
000000 d9 75 7e bc 6b e7 ef bc d0 c9 af bc 17 0d fc bb
       -0.015531027 -0.029285153 -0.021458536 -0.00769199
000010 8b dc 52 bc a6 dd 35 3d 28 63 19 bd fe 18 83 3a
       -0.012869964 0.044400834 -0.03744808 0.0010001955
000020 e7 5b 3f bc da f2 85 bc d5 79 06 bd 7c 03 44 3c
       -0.011679626 -0.016351152 -0.03283103 0.011963721
000030 d6 d1 52 3c c0 2e b5 bb e2 4f 82 ba 25 23 da bb
       0.012867412 -0.0055292547 -0.000994202 -0.0066570216
000040 55 f7 61 bc f7 94 ae bc 73 9f de bc bf 40 ce bb
       -0.013791879 -0.021311266 -0.02717564 -0.0062943394
000050 d2 92 37 3c 33 b4 a4 3b 59 f3 63 bc ca f1 cc bb
       0.011204438 0.0050263642 -0.013912999 -0.0062544094
000060 66 bd 28 bc d6 3d 13 bd 8a 35 8e 3b 08 52 22 bc
       -0.010299062 -0.035947643 0.0043398784 -0.009907253
000070 95 f7 f8 bc 2d 0f 1e 3d 94 91 1d bc 8d e4 8a 3b
       -0.030391494 0.03858869 -0.009617228 0.004238671
000080 0b bd 9f 3b da c2 c6 39 c9 33 aa 3b 1e a2 91 bc
       0.0048748306 0.0003791068 0.0051941616 -0.017777499
000090 2f de 3f bd 75 35 3b bc 44 5e d3 bb 81 75 1c bd
       -0.04684275 -0.011426319 -0.0064504463 -0.038197998
0000a0 63 d7 92 bb 59 f5 10 3d 8f 88 fc 3c c0 4f 09 bd
       -0.0044812425 0.03539023 0.030826835 -0.03352332
0000b0 6a 22 27 ba 7e 80 85 bb b2 1f 01 bb fc 3c 91 bc
       -0.00063756725 -0.0040741554 -0.001970273 -0.017729275
0000c0 d5 d6 23 3c 82 be 4f bd fc e5 23 3d 8b 72 3a 3c
       0.00999995 -0.05071879 0.040014252 0.011379848
0000d0 42 0a 48 3c 34 1e f5 bc 9b c5 30 bd 91 72 49 3c
       0.012209477 -0.029921629 -0.0431572 0.012295381
0000e0 18 8c 60 3b de 33 75 bb 81 b5 9e bc d6 84 af bc
       0.003426319 -0.0037414948 -0.019373657 -0.021425646
0000f0 d1 29 0b bd bc 21 a5 3a 4c 6b ce bb 93 7b 35 bc
       -0.033975426 0.0012598555 -0.006299412 -0.011076826
000100 10 36 cd 3b 5a 2a 7f bd b3 db 56 bb 3e 66 20 3b
       0.0062625483 -0.06229625 -0.003278476 0.0024475004
000110 51 65 9b bc 59 37 76 3d c9 5c 91 3b 4f 47 38 bd
       -0.01896921 0.060111377 0.0044361097 -0.04498988
000120 1e 62 f9 3b 91 9d cf 3c a5 e8 83 ba f9 39 1d 3c
       0.0076105734 0.025343688 -0.001006384 0.009596341
000130 bf 2f 1f 3c 2b c6 bf 3b 87 92 4d bd 25 b1 57 3c
       0.009715973 0.005852481 -0.050188567 0.013164793
000140 62 67 d0 3b 9c 13 0e bd 3a 3c 83 3c da 6d 06 3d
       0.0063599804 -0.03468667 0.01601993 0.032819606
000150 ad ea a6 bc a8 05 fd bc 6c 1c c5 bb 74 7f 7d 3d
       -0.020375574 -0.030886486 -0.006015351 0.061889127
000160 de 57 54 3d 65 f5 cd bc e7 05 0e bd 75 6e 59 3d
       0.05184161 -0.025141427 -0.034673598 0.053083856
000170 b9 32 46 3c 8c 21 38 bc 37 d4 ba 39 f3 b3 ff bc
       0.012097054 -0.011238467 0.00035634797 -0.031213736
000180 9b eb 27 bc d7 4d 48 3b 96 5c 17 3c fc cd 84 3c
       -0.010249044 0.0030563974 0.009238383 0.016211502
000190 f2 d6 3a 3c d4 98 b4 ba ae 41 84 bb f1 2f 71 bc
       0.011403786 -0.0013778456 -0.00403615 -0.014720903
0001a0 49 bd a9 3c 89 da f9 3c 5e 94 ad bc c4 17 2a 3d
       0.020720141 0.030499713 -0.021188911 0.04152657
0001b0 2e 7e 7f bd ed 15 b2 bb fb 4f a9 3c 10 fb 96 3b
       -0.062376194 -0.0054347427 0.02066802 0.0046075657
0001c0 d1 75 91 3c f7 44 47 3c 14 e1 4a 3c 5b 38 6c bc
       0.017756375 0.012162439 0.012382764 -0.014417733
0001d0 35 61 db 3c 85 33 db bc 10 19 ba bc a1 19 2c 3d
       0.02677975 -0.026757965 -0.022717029 0.04201663
0001e0 e4 32 86 3c 0f fe 32 3d eb 76 42 3c 36 36 e4 3c
       0.016381688 0.04369932 0.011869173 0.027857881
0001f0 f5 75 25 bc 09 7d 22 3b 32 5d 8f 3c 00 f7 b9 3c
       -0.010098924 0.0024793765 0.017500494 0.022700787

layers.2.0.weight f4 [64, 128]
000000 59 fd 1e 3e 8b c8 9f 3c a0 1f ec bd 6a 4c 79 3a
       0.15526332 0.019504806 -0.115294695 0.0009509983
000010 4b db 0a be 97 45 72 be 0f 59 44 be 64 f2 33 3c
       -0.13560216 -0.23659359 -0.19174598 0.010983083
000020 ad 6b 4c be d8 cf 96 bb f2 f9 54 be 2e 31 89 bd
       -0.1996295 -0.0046024136 -0.20798472 -0.066988334
000030 fa 14 bd bd 26 48 74 3d 66 aa ab 3e d0 bb 8c bd
       -0.092325166 0.05963912 0.3352844 -0.0687176
000040 e2 56 e7 3c 52 61 18 be 0a c8 33 3e e2 68 6b 3d
       0.028239671 -0.14880875 0.17556778 0.05747307
000050 8d 95 0a 3d 01 2e 4d be 18 ee 8d bd 77 cc e2 3c
       0.03383403 -0.2003708 -0.069301784 0.027685387
000060 11 9a 3b 3e 94 06 87 3d f9 0c 82 3a fa 9c fa bb
       0.1832049 0.065930516 0.0009922079 -0.0076481076
000070 5b 5f 7b be a8 7b 7c bc 2f 38 0e 3e aa d2 e0 3d
       -0.24548094 -0.015410341 0.1388862 0.10977681
000080 7c 17 88 bd f3 14 b4 bd cc 32 b0 bd 51 25 44 3e
       -0.06645104 -0.08793058 -0.08603439 0.1915486
000090 5c c0 c6 bd b7 84 d6 bd c2 00 1d bd c7 35 0f bd
       -0.097046584 -0.10474532 -0.0383308 -0.034963395
0000a0 d7 75 ce 3d f6 79 c4 b8 19 7b 47 3e ac 08 85 3d
       0.1008107 -9.368725e-05 0.19480552 0.06495795
0000b0 fd 2e 68 bd db 79 63 be 4c 46 aa bc 01 3a e7 3d
       -0.056685437 -0.22214453 -0.020785473 0.1129036
0000c0 74 c6 1f be a1 5c c2 3c 6d c2 27 be 12 8c 8e be
       -0.15603048 0.02372581 -0.16382761 -0.2784124
0000d0 b3 50 2f 3e e0 77 4c bc 5b 85 77 be 73 1e 8f bd
       0.17120628 -0.012479752 -0.24171965 -0.069882296
0000e0 b4 71 ab bd c5 b4 3a be 42 16 3e be e2 d3 a1 bd
       -0.083712965 -0.1823302 -0.18563178 -0.079017416
0000f0 68 ec cb 3d 6a 16 8f bc 29 08 2b 3d 3b bc 14 3c
       0.099572 -0.017466743 0.04175583 0.009078081
000100 cc 4a ad bd 11 46 7f be 83 66 98 bd ee 0a 4a 3e
       -0.08461532 -0.24929072 -0.074414276 0.19730732
000110 38 95 9e be cb 88 3f be bc 5a 60 3d 3a 8d f5 bd
       -0.3097322 -0.18704526 0.05477403 -0.119898275
000120 41 a1 10 3d 89 2f 5b be 33 89 1e 3e 3e a3 af 3d
       0.035310034 -0.21404852 0.15482025 0.08576058
000130 1f 6a 01 3e 16 cc e8 3c ee d2 35 3d 1c ab f4 3d
       0.12638138 0.028417628 0.04439061 0.11946699
000140 59 99 d3 3d 90 98 e4 bd c1 ed 1b be 68 5a 92 3c
       0.10331983 -0.111619115 -0.15227415 0.017865375
000150 00 89 17 be 95 f7 3b 3c a0 aa 6d bb d2 6c 23 3e
       -0.14798355 0.011472602 -0.003626503 0.1595948
000160 52 31 64 bd 6d b0 3a bc 45 3a 5b 3e 73 72 3b 3c
       -0.055711098 -0.011394602 0.21408947 0.011440861
000170 b0 08 fb bb 6c bc 4a be da 22 09 3d 2a cd 07 be
       -0.0076609477 -0.1979844 0.033480503 -0.13261858
000180 d7 ea 9f 3e 29 c6 8e bb 1a 4d 85 3d bf eb 85 bc
       0.31233856 -0.0043571186 0.065088466 -0.016347764
000190 e6 45 6e be e6 42 eb bd 0d 14 a5 bd df 6b ae 3c
       -0.23268852 -0.11487369 -0.08060465 0.021291671
0001a0 fc 1c 3d be dc 89 4d be 70 b7 93 bd 12 07 05 be
       -0.18468088 -0.2007212 -0.07212722 -0.12990978
0001b0 ee 6e 45 3c e8 b9 89 3c 0d 26 63 3d d6 71 e8 3d
       0.0120503735 0.01681228 0.05545621 0.113498375
0001c0 8f e3 86 be 9c 8b 14 be 0e 5d 7c 3e ef fc 10 3d
       -0.26345488 -0.14506382 0.24644873 0.035397466
0001d0 ca e6 aa 3e 79 6f 7f 3a 70 f4 df bd 91 59 d1 3d
       0.33379203 0.0009744089 -0.10935295 0.102221616
0001e0 55 7a 02 be 96 dd 3c 3d ec 3a 8a 3e c4 94 80 3c
       -0.12741978 0.04610976 0.2699808 0.015695937
0001f0 c6 3e db bd 89 5d 0b be 71 db 35 bd 85 80 9b bd
       -0.107053325 -0.136099 -0.04439873 -0.075928725
000200 0e ff 9f be be dd 0b be 54 27 d0 bd 9e 2a e2 3c
       -0.3124928 -0.13658807 -0.10163751 0.027608212
000210 aa af 3a 3e 94 03 0d 3d ee 36 ef 3d 7f 07 12 3c
       0.18231073 0.03442724 0.11680399 0.00891292
000220 bd a3 b9 3d 74 57 c7 3d 98 a2 91 be 76 60 3c be
       0.09064434 0.09733477 -0.28444362 -0.18396172
000230 9c af 33 bd c9 0a 3b be 26 3c 82 bc be 73 03 be
       -0.043868646 -0.18265833 -0.015897822 -0.12837121
000240 93 dd 09 be c0 85 c6 3d 78 a9 07 be 58 23 7b bb
       -0.1346343 0.096934795 -0.13248241 -0.0038320627
000250 25 03 32 be 21 7d b5 3c 7f 79 42 bd 59 46 76 be
       -0.17384012 0.022154393 -0.04747915 -0.24050273
000260 94 95 b2 bd 2f 1c 47 bd c9 e3 3c 3e a8 6d 7b 3e
       -0.08719936 -0.048610862 0.18446268 0.2455355
000270 d0 2e 35 3d e4 3c 25 3e a7 a3 e1 bc 87 71 1b 3d
       0.044234097 0.16136509 -0.027543856 0.037950065
000280 29 fd b3 bd 7b bf ef 3d cf e7 82 3e 1c e4 4e 39
       -0.08788521 0.11706444 0.2556748 0.00019730668
000290 30 b2 2c bc 9b 94 27 bd d5 fa 71 bc 22 54 b3 3d
       -0.01054053 -0.040913206 -0.014769276 0.087562814
0002a0 0b 4f 3a be 50 f3 af 3d 1a 01 a9 bd d8 7f 26 bc
       -0.18194215 0.0859133 -0.08252163 -0.010162316
0002b0 78 c3 af bc 9f 54 5b 3e ed 75 22 3e 2b 37 f9 bb
       -0.021455511 0.21418999 0.15865298 -0.0076054535
0002c0 aa d4 3b 3e d3 43 30 be 47 1d 53 bd c6 8c 0a 3e
       0.18342844 -0.17213373 -0.051541593 0.13530263
0002d0 b8 6b 1c 3d 76 20 c9 3d 31 72 b9 3d 28 2c 82 be
       0.038188666 0.098206446 0.090549834 -0.25424314
0002e0 15 02 ae bb d3 27 91 3e e2 7b 70 bd 31 bb b1 bb
       -0.005310307 0.28350696 -0.058711894 -0.0054239263
0002f0 b3 a1 72 be 12 1d 3d be 9b cd b6 bc 75 05 cd bc
       -0.23694496 -0.1846812 -0.022314837 -0.025027016
000300 da 86 f4 3a d8 e4 d0 3d 95 bc e8 bc 3a 52 99 3e
       0.0018655912 0.101998985 -0.028410235 0.29945546
000310 a6 dd b2 3d f0 bf c3 3c 52 ff 28 bd 5a e5 8d 3c
       0.08733682 0.023895234 -0.041259117 0.017321277
000320 92 ce de bd bb ad a2 bd 84 61 78 3d fc 06 1c 3e
       -0.10879244 -0.07943293 0.060639873 0.1523704
000330 c7 21 7a bd be a2 c1 bd ad 5c d1 bd 30 f1 c0 3d
       -0.06106737 -0.09454869 -0.102227546 0.09421003
000340 bb 3f 39 3e 23 57 45 3e fd dd 3b 3d 73 7c 40 be
       0.18090717 0.19271521 0.045866 -0.18797474
000350 60 e1 2a be 57 f9 87 3d 00 79 5b 3e fe 9f dd bb
       -0.16687536 0.06639355 0.21432877 -0.0067634573
000360 83 94 8d 3d 0a de 4b 3e f8 4a 8f 3d cb 58 e4 3d
       0.06913092 0.1990892 0.06996721 0.111497484
000370 3f 7d c9 bd da 97 7a 3c 36 ef bb 3d 5a 28 df 3d
       -0.09838342 0.015294993 0.09176485 0.10896368
000380 59 c8 3f 3e d0 5b 2f 3e b9 c4 c0 bc b1 a5 82 3e
       0.1872877 0.17124867 -0.023531305 0.25517038
000390 55 a5 12 be 68 82 45 be 94 ef 60 bb 01 97 c2 3d
       -0.14320882 -0.19288027 -0.0034322487 0.09501458
0003a0 60 3f d7 bc 56 0a 5c 3d 25 d3 b3 bd 51 66 b1 3d
       -0.026275337 0.053720795 -0.08780507 0.086620934
0003b0 7d fe 0a be 95 87 51 3e 40 10 27 ba b3 db 07 be
       -0.13573642 0.20461877 -0.0006372966 -0.13267402
0003c0 f2 1b 8c bd 01 78 48 3d a0 a4 36 bd fe 5c 80 3d
       -0.06841268 0.04894257 -0.044590592 0.06267737
0003d0 7a 86 7e bd de 61 8b 3d 3b 0f 65 3d e9 bf ea bc
       -0.062139966 0.06805776 0.055922728 -0.028655963
0003e0 9d 07 1b 3e 91 e6 37 3e a3 f1 e6 bd 11 ba 7f 3d
       0.15139623 0.17959048 -0.11276557 0.062433306
0003f0 7b ef a4 be 3a ee fa bd 7a 71 68 3d 44 21 ea bd
       -0.3221396 -0.12252469 0.056748845 -0.11432126

layers.2.1.weight f4 [64]
000000 f0 d3 75 3f da 17 81 3f b5 d6 7c 3f 80 88 86 3f
       0.96026516 1.0085404 0.98765117 1.0510406
000010 7c d3 85 3f ad ec 6f 3f 08 26 73 3f 88 13 84 3f
       1.0455165 0.93720514 0.94979906 1.031846
000020 ef 95 72 3f b1 0e 7a 3f 0e 5d 78 3f 7b 57 73 3f
       0.9476003 0.9767867 0.9701699 0.9505536
000030 c8 5d 7f 3f 67 26 82 3f 36 16 84 3f 73 a9 83 3f
       0.99752474 1.016797 1.0319278 1.0286087
000040 46 67 7c 3f ff 66 81 3f 32 f8 81 3f 7b 49 77 3f
       0.9859508 1.0109557 1.0153868 0.965965
000050 1a bc 81 3f 27 83 76 3f 84 cc 70 3f d9 fc 81 3f
       1.0135529 0.9629387 0.94062066 1.0155288
000060 38 52 84 3f 90 35 81 3f e7 43 7e 3f 60 b6 84 3f
       1.0337591 1.0094471 0.9932236 1.0368156
000070 d5 1b 82 3f 76 af 76 3f f1 35 78 3f 03 51 71 3f
       1.0164744 0.9636148 0.9695731 0.9426424
000080 41 9e 80 3f d7 ea 7e 3f c8 83 7f 3f c1 90 72 3f
       1.0048295 0.9957709 0.9981046 0.94752127
000090 3c 67 81 3f 27 c8 7c 3f 2a 9f 81 3f 17 27 84 3f
       1.010963 0.9874291 1.0126698 1.0324429
0000a0 21 3f 7c 3f 22 f7 82 3f c3 ab 71 3f b5 cd 86 3f
       0.9853383 1.0231669 0.9440271 1.0531527
0000b0 b9 cd 7f 3f b3 90 8b 3f f9 ff 7a 3f f5 39 6d 3f
       0.9992328 1.0903534 0.98046833 0.9266656
0000c0 75 f4 7f 3f b4 27 85 3f e5 f2 83 3f 41 a4 7b 3f
       0.99982387 1.0402741 1.03085 0.98297507
0000d0 79 7e 7d 3f 16 6c 7a 3f dd 42 81 3f 3e 53 80 3f
       0.99021107 0.97821176 1.009853 1.0025403
0000e0 7c f7 74 3f a9 ad 87 3f 52 3f 78 3f 6f da 7f 3f
       0.9569013 1.0599872 0.9697162 0.9994268
0000f0 a8 d5 81 3f b3 9d 78 3f d2 be 7f 3f 03 fe 81 3f
       1.0143328 0.9711563 0.99900544 1.0155643

layers.2.1.bias f4 [64]
000000 54 93 50 bc 34 d3 07 b9 1a 26 d3 bc 09 42 98 3d
       -0.012730438 -0.00012953283 -0.025775004 0.0743447
000010 ab 61 71 3c 6b a2 40 bd d1 d9 29 bd 64 69 b3 bb
       0.0147327585 -0.047029894 -0.04146749 -0.00547521
000020 46 af 0c bd a1 b3 de bb 81 2c 0d bd f0 cf 25 bd
       -0.03434684 -0.006796316 -0.03446627 -0.040481508
000030 28 d2 d1 3b ad e5 be 3c 4c da 9f 3c c2 78 87 3d
       0.0064032264 0.023302877 0.019513272 0.066148296
000040 c2 84 01 bd 7c 22 be bc 81 40 ac bc 64 ef 63 bd
       -0.03162075 -0.023209803 -0.021026852 -0.055648223
000050 2d 31 b2 bc 40 3a 48 bd 13 f4 d2 bc aa 77 8f bb
       -0.021751964 -0.048883677 -0.02575115 -0.0043782787
000060 bc 1b 03 3d f8 f4 b2 b9 98 45 5c 3a 39 50 2b 3c
       0.03200887 -0.00034133322 0.0008402704 0.010456138
000070 b2 fe 8d 3c 30 56 1a bd 42 4e 3b bb 48 1b 28 bd
       0.017333362 -0.03767985 -0.002858058 -0.041041642
000080 17 35 fc 3b f5 15 3c 3c 6e ca 06 bd 17 46 82 bd
       0.0076967585 0.011479844 -0.032907896 -0.06361025
000090 f3 74 47 bc fc 82 8c bb a3 9f 66 ba 1c 39 a7 3c
       -0.012173879 -0.0042880755 -0.00087975914 0.020412974
0000a0 70 28 46 3c 21 fe 25 bd f0 c2 98 bc 89 c6 9b 3c
       0.012094602 -0.04052556 -0.018647641 0.019015567
0000b0 09 87 21 3b f7 de 4c 3d 45 04 0c bd 31 57 78 bc
       0.0024647138 0.050017323 -0.03418376 -0.015157507
0000c0 5c 4e 9b 3b 57 da 53 3d e6 c6 2a bc 38 28 a2 3a
       0.004739566 0.051721897 -0.010423398 0.0012371605
0000d0 4e 75 c3 3b a8 b6 6b bc aa 88 1a 3c 71 ce cc 3a
       0.0059649115 -0.01438681 0.009431997 0.0015625489
0000e0 22 4b 4e bd 6b 11 ad 3d cc aa 33 bd 94 45 15 bc
       -0.05036462 0.08450588 -0.043864056 -0.009110827
0000f0 8a 41 e4 3c 2e 62 cb bb cd e5 10 bc 14 86 9f 3c
       0.027863283 -0.0062067723 -0.008843851 0.019473113
