test/output/local2/simulatorRun/freesurfer_volumetric/8/current.nn.pt (torch_old, 23025 bytes, 50 tensors)

layers.0.0.weight f4 [16, 66]
-0.07409434 -0.20583917 0.27483317 0.032070503 -0.11496146 0.33581597 0.07547391 -0.0105650965
-0.19707961 0.08558011 -0.002582087 -0.22964759 -0.035729986 -0.11222901 0.26069418 0.11667172
0.11977449 -0.23039898 -0.19980843 0.37069643 0.19306295 -0.09810243 -0.018226027 -0.26765245
0.20606221 -0.2226191 0.041866466 -0.21936853 -0.09594838 -0.19414067 -0.049362626 0.13294144
-0.04755373 0.1497596 -0.04629907 0.027691161 0.27768168 0.008682437 0.18563625 0.19328286
0.043003537 -0.018253082 -0.044190817 0.05447689 -0.111612886 -0.100671485 -0.18251191 0.10569974
0.25426042 -0.13898273 0.08333417 0.000976775 0.06018288 -0.30020756 -0.017709693 0.10497531
0.08673109 -0.24033985 -0.034634463 -0.03437167 0.009673058 0.13694924 -0.08952338 -0.055076096
-0.0522762 0.099753395 0.20279591 -0.06211393 -0.10429236 0.34870407 0.18071114 0.37526754
-0.18161644 -0.16848883 0.16418731 -0.049710203 -0.09257807 0.059642415 0.1674963 0.045916546
-0.10829212 0.06870193 -0.102655165 0.15701632 -0.029237704 -0.07476057 -0.11110768 0.16185136
-0.30512592 0.10071845 0.09205476 -0.3383712 0.3790869 0.31817415 -0.095339864 0.2988252
0.23326708 -0.07352196 0.073645934 0.16582005 0.04080677 -0.005700123 -0.22451654 -0.15141088
-0.14757016 -0.11003541 -0.08800312 0.25647235 0.15335307 -0.03399763 0.09250051 -0.30557317
-0.3490374 0.24602146 -0.1316335 0.055900514 0.16025549 -0.056676783 -0.12567002 -0.019110434
-0.30886024 0.26799458 0.01629269 0.17048872 0.07273127 -0.32824445 -0.19740699 0.042415433
0.081680305 -0.043362945 -0.12310483 -0.2148942 0.370677 -0.25925848 0.027342558 0.09074242
-0.28218487 0.22272004 0.36256135 0.40743372 0.33901355 0.04493632 -0.106466256 0.06718237
-0.09775614 0.07705548 -0.3297483 0.19807793 -0.11731045 0.3281551 0.37387177 0.01906219
0.09143227 0.1510773 0.3578441 0.31691307 0.094579466 -0.09222009 0.18298335 -0.13487639
-0.072668575 -0.011930087 -0.06390439 -0.055298373 -0.047036435 -0.00243296 0.36966938 -0.45363706
-0.06538716 0.038687598 -0.041925117 0.082117006 -0.24832086 -0.01678557 -0.046676993 -0.17065154
0.15694357 0.21112357 0.18894887 0.17001715 -0.08221723 0.19841257 -0.06330782 0.08523003
-0.09919154 -0.13554354 -0.10508122 0.12785234 0.008024846 0.04879159 -0.011401085 -0.037979662
0.14839567 0.15941821 -0.15818669 -0.36647007 0.23872715 0.29932907 -0.15071845 -0.21513957
-0.000532755 -0.107785426 0.041532997 0.12405617 0.01650958 0.123684034 -0.053968254 -0.13854772
-0.04363491 -0.020763427 0.047259673 -0.014183305 -0.22116114 0.15471616 -0.1414982 -0.11113897
-0.11957602 -0.2286825 -0.029533727 -0.15197685 -0.04176525 -0.35361433 -0.02507061 -0.17447247
0.2941504 0.08614706 0.21615049 -0.15090375 0.09829923 0.17210016 -0.0018912902 -0.14821509
0.077636234 -0.06861705 0.21656989 0.06521969 -0.06781083 0.09939193 0.24634428 -0.28097513
0.048159923 -0.19573583 0.030802162 -0.022075607 -0.12541659 0.18521425 -0.15304367 0.19106586
-0.021850668 -0.043541573 -0.03155408 0.0013843265 -0.051074136 -0.24868011 -0.31847405 -0.0068182214
00000000: c6be 97bd 81c7 52be efb6 8c3e 5c5c 033d
00000010: ea70 ebbd 12f0 ab3e 1192 9a3d 3a19 2dbc
00000020: 3dcf 49be a044 af3d 3b38 29bb bd28 6bbe
00000030: 9b59 12bd 53d8 e5bd b579 853e 95f1 ee3d
00000040: 544c f53d b6ed 6bbe 959a 4cbe eccb bd3e
00000050: 4bb2 453e ede9 c8bd c04e 95bc be09 89be
00000060: f901 533e 43f6 63be 2c7c 2b3d 25a2 60be
00000070: 9680 c4bd d0cc 46be 7730 4abd cd21 083e
00000080: b3c7 42bd 955a 193e 18a4 3dbd 93d8 e23c
00000090: 4b2c 8e3e c840 0e3c 6e17 3e3e f1eb 453e
000000a0: 7a24 303d 7d87 95bc 6e01 35bd 2923 5f3d
000000b0: 4c95 e4bd da2c cebd 67e4 3abe 1b79 d83d
000000c0: 6c2e 823e 7d51 0ebe 1bab aa3d 2107 803a
000000d0: 5382 763d ceb4 99be eb13 91bc 4cfd d63d
000000e0: 12a0 b13d a61b 76be dedc 0dbd 4fc9 0cbd
000000f0: bf7b 1e3c 6c3c 0c3e 0958 b7bd 7997 61bd
00000100: 921f 56bd 824b cc3d bba9 4f3e 2d6b 7ebd
00000110: 3c97 d5bd 5789 b23e 570c 393e 1123 c03e
00000120: a9f9 39be 5688 2cbe b820 283e ed9c 4bbd
00000130: 9299 bdbd 9b4b 743d 2684 2b3e fd12 3c3d
00000140: 42c8 ddbd 99b3 8c3d df3c d2bd e3c8 203e
00000150: e983 efbc 121c 99bd 6c8c e3bd 5dbc 253e
00000160: 7739 9cbe 7a45 ce3d 3587 bc3d fd3e adbe
00000170: ae17 c23e b9e7 a23e 8c41 c3bd 9eff 983e
00000180: 91dd 6e3e ae92 96bd aed3 963d bbcc 293e
00000190: 0025 273d 19c8 babb aae7 65be 740b 1bbe
000001a0: a21c 17be 3f5a e1bd fb3a b4bd 5850 833e
000001b0: 9608 1d3e 1941 0bbd e870 bd3d 1674 9cbe
000001c0: 08b5 b2be 0ded 7b3e efca 06be f0f7 643d
000001d0: 041a 243e ea25 68bd a4af 00be 7c8d 9cbc
000001e0: ee22 9ebe 9636 893e 3f78 853c 9894 2e3e
000001f0: 22f4 943d a80f a8be 0f25 4abe cebb 2d3d
00000200: 0148 a73d 589d 31bd 631e fcbd 3a0d 5cbe
00000210: 60c9 bd3e 87bd 84be 80fd df3c 29d7 b93d
00000220: 897a 90be b910 643e a4a1 b93e 279b d03e
00000230: 2f93 ad3e 260f 383d fb0a dabd e996 893d
00000240: 5f34 c8bd 43cf 9d3d c5d4 a8be f1d4 4a3e
00000250: 7640 f0bd f203 a83e 1f6c bf3e 4f28 9c3c
00000260: d840 bb3d 02b4 1a3e 5837 b73e 6e42 a23e
00000270: e1b2 c13d e3dd bcbd fd5f 3b3e 091d 0abe
00000280: 43d3 94bd 6976 43bc 4ee0 82bd 8c80 62bd
00000290: 47a9 40bd 4c72 1fbb 4e45 bd3e 1e43 e8be
000002a0: b4e9 85bd e376 1e3d acb9 2bbd f62c a83d
000002b0: d347 7ebe e481 89bc 6030 3fbd 47bf 2ebe
000002c0: d1b5 203e c730 583e d07b 413e fa18 2e3e
000002d0: 8261 a8bd aa2c 4b3e 88a7 81bd 158d ae3d
000002e0: ef24 cbbd edcb 0abe d334 d7bd b9eb 023e
000002f0: a57a 033c b1d9 473d 9ecb 3abc 9090 1bbd
00000300: 09f5 173e 873e 233e b1fb 21be f7a1 bbbe
00000310: e474 743e a941 993e f055 1abe 8c4d 5cbe
00000320: 95a8 0bba 9bbe dcbd 811e 2a3d 2911 fe3d
00000330: 193f 873c 0e4e fd3d d10d 5dbd 74df 0dbe
00000340: 85ba 32bd 1018 aabc 5c93 413d 1861 68bc
00000350: 1178 62be ea6d 1e3e e7e4 10be d49c e3bd
00000360: 46e4 f4bd bf2b 6abe b7f0 f1bc d29f 1bbe
00000370: 0a12 2bbd f00c b5be e160 cdbc e9a8 32be
00000380: e29a 963e df6d b03d 8e56 5d3e 8386 1abe
00000390: 1b51 c93d 063b 303e 2be5 f7ba b2c5 17be
000003a0: bfff 9e3d 1987 8cbd 7fc4 5d3e e791 853d
000003b0: 68e0 8abd ff8d cb3d ad41 7c3e f9db 8fbe
000003c0: 5743 453d f96e 48be d154 fc3c e7d7 b4bc
000003d0: 356d 00be cea8 3d3e 7bb7 1cbe c5a6 433e
000003e0: 2c00 b3bc a658 32bd da3e 01bd 4a72 b53a
000003f0: 1d33 51bd 00a6 7ebe 080f a3be 636b dfbb

layers.0.1.weight f4 [16]
0.96266687 1.0129238 0.960977 0.9821682 0.99633497 1.0090941 1.0244071 0.9672414
1.0389571 0.9565705 0.9831535 0.9492461 1.0569638 1.0402005 1.0244513 0.9636818
00000000: 5671 763f 7da7 813f 9702 763f 606f 7b3f
00000010: cf0f 7f3f ff29 813f c61f 833f 229d 773f
00000020: 8cfc 843f cee1 743f f3af 7b3f cb01 733f
00000030: 974a 873f 4a25 853f 3821 833f dab3 763f

layers.0.1.bias f4 [16]
-0.037365463 -0.008482781 -0.035518713 0.016945977 -0.00184312 0.017166149 -0.00075700064 -0.036129225
0.027653279 -0.07045154 0.016816733 -0.054556854 0.05988161 0.03498854 0.026202569 -0.014041288
00000000: 870c 19bd 5dfb 0abc 127c 11bd 4ad2 8a3c
00000010: d894 f1ba 06a0 8c3c 7471 46ba 3dfc 13bd
00000020: 2189 e23c e648 90bd 3fc3 893c 0277 5fbd
00000030: 6b46 753d 2550 0f3d c5a6 d63c 6e0d 66bc

layers.0.1.running_mean f4 [16]
-256723.4 -885882.2 1.0878788e+06 -364216.4 434873.16 634332.5 -276552.5 235546.25
-252393.42 -176545.78 316111.5 430792.44 -552837.94 289016.47 -264912.3 158023.33
00000000: dab4 7ac8 a347 58c9 36cc 8449 0dd7 b1c8
00000010: 2557 d448 c8dd 1a49 1009 87c8 9006 6648
00000020: 5b7a 76c8 7268 2cc8 f059 9a48 0e59 d248
00000030: 5ff8 06c9 0f1f 8d48 0a5a 81c8 d551 1a48

layers.0.1.running_var f4 [16]
1.4121631e+09 8.5254825e+09 1.372977e+10 3.0466647e+09 3.381757e+09 4.070272e+09 1.3838011e+09 1.5115364e+09
6.110832e+08 3.4820387e+08 1.3726446e+09 2.0636886e+09 2.7691174e+09 1.0316994e+09 1.4431446e+09 6.9347226e+08
00000000: cc57 a84e 4514 fe4f eb96 4c50 6a98 354f
00000010: 8491 494f 6c9b 724f 42f6 a44e 6e30 b44e
00000020: 8fb1 114e 5b09 a64d caa1 a34e c702 f64e
00000030: 610d 254f eff9 754e 4709 ac4e 3056 254e

layers.1.0.weight f4 [8, 16]
0.34439248 0.49205434 -0.2804953 -0.06625691 -0.13443018 0.15491705 -0.885709 -0.07915139
-0.23050708 -0.19876757 0.15167323 0.27889252 -0.71053696 0.15641537 -0.5521443 -0.3982783
-0.08510978 0.2902876 -0.2996817 -0.11972411 0.10805909 0.34075084 -0.044983562 -0.3059491
-0.30688295 0.10642301 0.33419916 -0.76347923 -0.3886193 0.36453488 0.12570249 0.09047319
0.57352203 -0.24230993 0.38548818 0.7995289 -0.35450494 -0.83912104 -0.008572639 -0.23902611
-0.4419409 -0.0038634166 0.59202164 0.11457361 0.69406205 -0.23916432 0.21875589 0.061255943
-0.633889 0.40661123 0.1949085 0.18376537 -0.15935728 0.15609436 -0.007148568 0.28004012
0.3195166 0.2110492 0.19211867 -0.05317207 0.15688564 0.33314538 -0.50735474 0.10681121
0.34330165 -0.5847728 0.03397778 -0.2652484 -0.8082385 0.40596575 -0.3255826 0.13862824
-0.20115149 0.38286236 0.04893368 -0.05842408 -0.2860155 -0.2851005 0.12881097 0.22341178
-0.8712023 -0.0072777867 0.3929561 -0.15028499 0.3545247 -0.23707326 0.00805672 0.5240819
0.034155384 0.30418146 0.3321034 -0.19898137 -0.6635907 0.81838244 0.16128251 0.01293951
0.7960765 -0.104347296 0.20642442 0.15466742 0.29429486 -0.17833112 -0.81368506 0.122594185
-0.10062817 -0.054880764 0.25123438 0.38722023 -0.6952653 0.5308253 -0.42982584 -0.2325032
0.05278281 0.32495695 0.115364626 0.21859303 0.44745243 -0.021263147 0.3800223 0.1349232
0.3906801 -0.08243317 0.12724364 0.14587551 0.3511574 -0.76972115 -0.15394112 0.45542854
00000000: 3654 b03e 8cee fb3e 149d 8fbe b4b1 87bd
00000010: 11a8 09be 93a2 1e3e d3bd 62bf 201a a2bd
00000020: 0c0a 6cbe ba89 4bbe 3a50 1b3e 00cb 8e3e
00000030: c0e5 35bf 5a2b 203e 5459 0dbf 22eb cbbe
00000040: 094e aebd 94a0 943e e16f 99be ea31 f5bd
00000050: 164e dd3d e576 ae3e af40 38bd 5ca5 9cbe
00000060: c31f 9dbe 4ff4 d93d 271c ab3e 6073 43bf
00000070: 1cf9 c6be 51a4 ba3e 27b8 003e 024a b93d
00000080: 57d2 123f 1820 78be b55e c53e edad 4c3f
00000090: ac81 b5be a3d0 56bf 4174 0cbc 43c3 74be
000000a0: 1446 e2be 6031 7dbb bb8e 173f 92a5 ea3d
000000b0: 0dae 313f 7ee7 74be 8b01 603e 83e7 7a3d
000000c0: 8d46 22bf 592f d03e 1896 473e fd2c 3c3e
000000d0: 8e2e 23be 33d7 1f3e 893e eabb 6b61 8f3e
000000e0: ae97 a33e 481d 583e c2ba 443e f5ca 59bd
000000f0: a1a6 203e 0892 aa3e 00e2 01bf d6bf da3d
00000100: 3cc5 af3e acb3 15bf 492c 0b3d a3ce 87be
00000110: b8e8 4ebf beda cf3e c3b2 a6be 90f4 0d3e
00000120: a8fa 4dbe 8906 c43e af6e 483d 174e 6fbd
00000130: a070 92be b1f8 91be 06e7 033e 0fc6 643e
00000140: 1d07 5fbf 807a eebb 8b31 c93e 4fe4 19be
00000150: 4384 b53e 55c3 72be 5500 043c 3b2a 063f
00000160: 84e6 0b3d acbd 9b3e 7509 aa3e c6c1 4bbe
00000170: 15e1 29bf 8381 513f 3e27 253e 3d00 543c
00000180: abcb 4b3f 09b4 d5bd ec60 533e 2361 1e3e
00000190: d1ad 963e 6f9c 36be aa4d 50bf a912 fb3d
000001a0: 2416 cebd a7ca 60bd cba1 803e bb41 c63e
000001b0: e8fc 31bf 2be4 073f 2212 dcbe 5215 6ebe
000001c0: ca32 583d c260 a63e 4a44 ec3d dad6 5f3e
000001d0: 7c18 e53e 0d30 aebc 4892 c23e 4f29 0a3e
000001e0: 3907 c83e b9d2 a8bd 284c 023e 6460 153e
000001f0: e7ca b33e 720c 45bf bea2 1dbe ee2d e93e

layers.1.1.weight f4 [8]
0.9487668 1.0703245 0.9965189 0.9548014 0.95125693 1.0030266 1.0478966 0.9952797
00000000: 62e2 723f 6500 893f dd1b 7f3f dd6d 743f
00000010: 9385 733f 2d63 803f 7a21 863f a7ca 7e3f

layers.1.1.bias f4 [8]
-0.025716314 0.024674455 -0.009259355 -0.013796441 -0.015029406 -0.002453551 0.057672758 0.039966978
00000000: 05ab d2bc 1522 ca3c 8db4 17bc 780a 62bc
00000010: e63d 76bc c1cb 20bb 453a 6c3d 6ab4 233d

layers.1.1.running_mean f4 [8]
-0.8756865 -0.16325548 0.42273766 0.50191253 -0.5290792 0.32113802 -0.039675605 0.844266
00000000: fe2c 60bf 722c 27be 1271 d83e 577d 003f
00000010: bc71 07bf 346c a43e e382 22bd d121 583f

layers.1.1.running_var f4 [8]
1.3347331 0.16180281 1.551897 0.6159473 0.39197308 2.937382 2.333945 0.6593836
00000000: 89d8 aa3f a3af 253e 90a4 c63f b9ae 1d3f
00000010: b2b0 c83e 11fe 3b40 5b5f 1540 5dcd 283f

layers.2.0.weight f4 [4, 8]
-0.17360303 -0.048824828 0.3088806 0.89331996 0.071075 0.15652943 -1.1950382 0.4033442
-0.46989572 0.147546 0.039611783 -0.12410531 -0.13332275 -0.42953843 -0.55286014 -0.3153118
-0.27278867 0.6749596 -0.52240354 -0.101280935 -0.52413857 0.25441083 0.3000081 -0.35819915
-0.099283844 0.7951241 -0.6606668 -0.058733847 -0.11761685 0.6607178 0.52061903 -0.53025866
00000000: fec4 31be 8bfc 47bd 9925 9e3e 9eb0 643f
00000010: c58f 913d 4049 203e 03f7 98bf 2283 ce3e
00000020: 2c96 f0be 4c16 173e f73f 223d ed2a febd
00000030: c285 08be 76ec dbbe 3e88 0dbf 8c70 a1be
00000040: f5aa 8bbe 27ca 2c3f 3dbc 05bf 616c cfbd
00000050: f22d 06bf 2342 823e a99a 993e e165 b7be
00000060: 5455 cbbd 418d 4b3f 7621 29bf e792 70bd
00000070: 1ae1 f0bd cd24 293f 4a47 053f 08bf 07bf

layers.2.1.weight f4 [4]
0.9875101 0.96481234 1.0161159 0.99037075
00000000: 76cd 7c3f f1fd 763f 1610 823f f088 7d3f

layers.2.1.bias f4 [4]
0.0049326564 -0.050600845 -0.037960798 -0.031127093
00000000: 1fa2 a13b d542 4fbd c87c 1bbd 3ffe febc

layers.2.1.running_mean f4 [4]
0.07292281 -0.762998 -0.15348274 0.28153127
00000000: 8e58 953d d653 43bf 942a 1dbe de24 903e

layers.2.1.running_var f4 [4]
0.6939996 0.57951325 1.0530101 2.7377713
00000000: f5a9 313f fb5a 143f 09c9 863f a537 2f40

layers.3.0.weight f4 [2, 4]
0.5683264 0.13426284 0.4697715 0.8250469 -1.6005731 0.58545953 2.0945497 1.0765921
00000000: d77d 113f 337c 093e e485 f03e 4636 533f
00000010: 94df ccbf ade0 153f 1a0d 0640 c5cd 893f

layers.3.1.weight f4 [2]
0.9520755 1.0113947
00000000: 38bb 733f 6275 813f

layers.3.1.bias f4 [2]
-0.011805916 0.013134447
00000000: 9a6d 41bc dd31 573c

layers.3.1.running_mean f4 [2]
0.799311 0.79165673
00000000: a59f 4c3f 04aa 4a3f

layers.3.1.running_var f4 [2]
0.48805818 6.512563
00000000: c3e2 f93e eb66 d040

fc_out.weight f4 [2, 2]
-1.71532 0.7444837 -0.34894875 -1.0601659
00000000: 9b8f dbbf 7c96 3e3f 69a9 b2be 84b3 87bf

fc_out.bias f4 [2]
-0.031926144 0.031926144
00000000: fdc4 02bd fdc4 023d

exp_avg f4 [16, 66]
-0.0009041292 -8.83512e-05 -0.0002582207 -0.00030340266 -0.00013069974 -0.00022231747 -6.9649955e-06 -7.73428e-05
-8.302923e-05 0.00018242926 0.00024741128 8.996453e-05 1.6324282e-05 -3.1518233e-05 -3.457133e-05 4.4070133e-05
2.0430649e-05 -1.7289563e-05 6.523918e-06 -5.0810454e-06 -0.00013120357 0.00015009534 0.00027233534 -0.00020264972
9.824844e-05 2.0895506e-05 9.02299e-05 1.38032765e-05 -5.7315992e-05 0.00012467772 5.14169e-06 2.8761971e-05
9.232949e-08 8.923398e-05 0.0 0.0 7.630005e-07 0.0 0.0 1.795852e-05
3.3060303e-05 -1.975135e-05 2.9613635e-05 2.0907857e-05 6.4531e-05 0.0009400649 0.0019140714 0.0019997472
9.700112e-05 0.0009470457 0.0010404283 -0.0011239738 0.0027552366 0.0016326582 9.297121e-05 0.000726202
0.0017608613 0.0027756025 0.0026860933 0.0101034595 1.1475393e-09 -2.795994e-09 5.3066183e-06 3.5744852e-06
8.850671e-06 -0.00022141967 0.00011365261 1.595385e-05 7.1696195e-05 0.0007810923 0.00027395558 0.00015658405
0.00021203402 7.233661e-05 -1.9056339e-05 -5.7592853e-05 3.884575e-05 -7.1746576e-06 3.6684996e-05 -4.7526687e-06
2.9437391e-05 2.1146237e-05 -1.1158037e-05 -1.6484695e-05 -0.00035546228 8.727131e-06 3.386685e-05 0.0007405051
5.8375965e-05 0.0001301067 6.1597544e-05 1.9875573e-05 -1.9475745e-05 1.8501973e-05 3.0391016e-05 5.5085166e-06
-4.700515e-06 -4.113911e-05 -5.620581e-07 -0.00016133933 0.0 0.0 -3.3722952e-06 0.0
0.0 -9.076051e-06 -2.7569027e-05 -1.8299307e-06 -1.2745196e-06 5.1794786e-06 -1.13107435e-05 0.008599408
0.008945885 0.008905802 0.0036255936 0.0030798924 0.0067045926 0.00022906296 -0.000936393 -0.0007067453
0.0011624831 0.009528272 0.0069017797 0.0071719848 0.007196989 -0.004560495 -4.073624e-11 -8.599007e-09
-4.946334e-06 -6.4401934e-06 -1.1389704e-05 0.019004684 -0.00022070634 -1.7426073e-05 0.0005237017 -0.0001106056
0.00018119313 -9.487973e-05 -4.950643e-05 8.531663e-06 -1.9354493e-05 -6.991278e-05 0.00014442825 5.9589584e-06
-1.0488374e-05 -2.0554357e-05 -2.1169584e-05 5.8295587e-05 7.397807e-06 -9.802689e-06 8.97787e-06 2.5758793e-05
0.00040429982 0.000114387076 7.013596e-05 -0.0001147392 -3.507233e-05 -1.0829004e-05 2.4374462e-05 -2.705748e-05
-1.1222873e-05 6.887553e-05 1.6917242e-07 -2.4003379e-05 -1.1143335e-07 0.00010237034 0.0 0.0
-3.2804934e-07 0.0 0.0 1.420053e-05 -1.4692462e-05 5.2713694e-06 9.400761e-06 2.2327267e-06
-9.883948e-06 -0.0045871404 -0.004243645 -0.0042865695 -0.0005266196 -0.00056480954 -0.0010916602 -0.0018905174
-0.0022570814 -0.004149024 3.5882684e-05 -0.0011325773 -0.0054400493 -0.0052096737 -0.005167981 -0.011311504
0.0 -5.0298796e-09 -1.9718216e-06 -3.2652688e-06 -5.23609e-06 0.0025694983 -0.0012548604 -6.251715e-05
-0.00075494836 -0.0002191892 -0.00059539865 -0.000100850615 3.6751564e-05 -5.0644732e-05 -0.00013512858 1.0415209e-05
-0.00043277213 4.3432367e-05 1.505538e-06 -0.00013781934 -3.447458e-05 1.9343439e-05 1.1628121e-05 2.1272652e-05
-7.486551e-05 -1.7268394e-05 -0.0005594594 6.153942e-05 -0.00035355394 -0.000114860035 -2.7989972e-05 -1.2668463e-05
1.1340574e-05 6.713977e-05 3.215752e-06 6.933319e-05 2.3269771e-05 6.9328744e-05 -8.563594e-07 -4.305452e-05
0.0 0.0 -2.144071e-06 0.0 0.0 7.427444e-06 5.8786627e-05 -2.6405808e-06
-8.791233e-06 2.0304427e-05 6.1279345e-05 -0.009327349 -0.007722232 -0.0076160035 -0.00079939695 -0.0006702697
-0.00147172 -0.0017377895 -0.0016990451 -0.003435401 -0.001025038 -0.0028846092 -0.007282325 -0.0059512444
00000000: 1503 6dba 3049 b9b8 cc61 87b9 0412 9fb9
00000010: 720c 09b9 e41d 69b9 dbb4 e9b6 1933 a2b8
00000020: fa1f aeb8 7b4a 3f39 fbb6 8139 57ab bc38
00000030: 21f0 8837 7232 04b8 af00 11b8 f2d7 3838
00000040: 7c62 ab37 0e09 91b7 07e8 da36 d97d aab6
00000050: b193 09b9 e962 1d39 3bc8 8e39 5f7e 54b9
00000060: bb0a ce38 c248 af37 cf39 bd38 9f94 6737
00000070: 9466 70b8 ecbb 0239 c886 ac36 dd45 f137
00000080: ad46 c633 2123 bb38 0000 0000 0000 0000
00000090: ffd0 4c35 0000 0000 0000 0000 a1a5 9637
000000a0: 3baa 0a38 b3af a5b7 cc6a f837 4863 af37
000000b0: d154 8738 b06e 763a 94e1 fa3a 310e 033b
000000c0: 146d cb38 2943 783a fb5e 883a 4d52 93ba
000000d0: 3391 343b ebfe d53a 8af9 c238 975e 3e3a
000000e0: b3cc e63a e2e6 353b 2b09 303b fb88 253c
000000f0: 73b7 9d30 a623 40b1 810f b236 30e1 6f36
00000100: 587d 1437 e42c 68b9 c858 ee38 a2d4 8537
00000110: 9a5b 9638 38c2 4c3a b2a1 8f39 b630 2439
00000120: 7355 5e39 6cb3 9738 2ddb 9fb7 db8f 71b8
00000130: 4eee 2238 d7bd f0b6 37de 1938 1d79 9fb6
00000140: 51f0 f637 3363 b137 6733 3bb7 9d48 8ab7
00000150: 575d bab9 be6a 1237 410c 0e38 751e 423a
00000160: b7d8 7438 406d 0839 ee2d 8138 78ba a637
00000170: d85f a3b7 af34 9b37 36f0 fe37 ccd5 b836
00000180: 1eb9 9db6 c88c 2cb8 57e0 16b5 322d 29b9
00000190: 0000 0000 0000 0000 974f 62b6 0000 0000
000001a0: 0000 0000 5845 18b7 0944 e7b7 f19b f5b5
000001b0: 2910 abb5 62cb ad36 46c3 3db7 88e4 0c3c
000001c0: c391 123c a4e9 113c 5e9b 6d3b 05d8 493b
000001d0: 33b2 db3b 9f30 7039 4578 75ba e044 39ba
000001e0: 765e 983a 781c 1c3c 5328 e23b f802 eb3b
000001f0: b8d4 eb3b 3470 95bb ee28 33ae d5ba 13b2
00000200: aff8 a5b6 d718 d8b6 6816 3fb7 b6af 9b3c
00000210: 686d 67b9 352e 92b7 0749 093a eef4 e7b8
00000220: a9fe 3d39 2bfa c6b8 20a5 4fb8 3723 0f37
00000230: 755b a2b7 239e 92b8 aa71 1739 10f3 c736
00000240: 39f7 2fb7 256c acb7 5695 b1b7 6982 7438
00000250: ae3a f836 3b76 24b7 a89f 1637 9614 d837
00000260: 34f8 d339 18e3 ef38 f515 9338 24a0 f0b8
00000270: a11a 13b8 38ae 35b7 c277 cc37 7ff9 e2b7
00000280: df49 3cb7 4571 9038 c3a5 3534 dd5a c9b7
00000290: 224d efb3 a8af d638 0000 0000 0000 0000
000002a0: c21e b0b4 0000 0000 0000 0000 d03e 6e37
000002b0: a57f 76b7 b8e0 b036 f6b7 1d37 f4d5 1536
000002c0: 3cd3 25b7 b94f 96bb 460e 8bbb 5a76 8cbb
000002d0: d80c 0aba ba0f 14ba 0a16 8fba 3dcb f7ba
000002e0: 8beb 13bb 89f4 87bb bd80 1638 fd72 94ba
000002f0: 7142 b2bb e9b5 aabb 2b58 a9bb e353 39bc
00000300: 0000 0000 4ad3 acb1 a353 04b6 e420 5bb6
00000310: acb1 afb6 0765 283b 217a a4ba a41b 83b8
00000320: bae7 45ba 27d6 65b9 8714 1cba c37f d3b8
00000330: b125 1a38 5e6b 54b8 4db1 0db9 fbbc 2e37
00000340: b1e5 e2b9 262b 3638 e411 ca35 9983 10b9
00000350: cc98 10b8 b843 a237 6616 4337 ac72 b237
00000360: 1d01 9db8 98db 90b7 afa8 12ba b90e 8138
00000370: 355d b9b9 03e1 f0b8 02cc eab7 a28a 54b7
00000380: 6543 3e37 64cd 8c38 33ce 5736 f966 9138
00000390: 7433 c337 9664 9138 92e0 65b5 7095 34b8
000003a0: 0000 0000 0000 0000 dce2 0fb6 0000 0000
000003b0: 0000 0000 4239 f936 a991 7638 d534 31b6
000003c0: 0f7e 13b7 6d53 aa37 1983 8038 bdd1 18bc
000003d0: c70a fdbb ab8f f9bb 9f8e 51ba 0ab5 2fba
000003e0: bbe6 c0ba 8ac6 e3ba 7eb2 deba 7724 61bb
000003f0: 915a 86ba b60b 3dbb 92a0 eebb a802 c3bb

exp_avg_sq f4 [16, 66]
1.4341878e-05 1.9268228e-08 4.7742196e-06 2.5161075e-05 5.614423e-07 1.9150067e-07 7.496926e-08 3.4389796e-08
8.833701e-08 1.8170458e-07 7.2466387e-06 8.691114e-08 4.652235e-08 5.4133523e-08 5.084339e-09 2.249545e-07
2.2664601e-09 1.1969667e-07 1.0293675e-05 2.7748928e-08 4.8524225e-06 3.043189e-05 4.075403e-07 9.142557e-08
1.1836122e-07 4.680765e-08 7.549654e-08 5.4766502e-08 4.695354e-09 2.467169e-07 6.041848e-10 1.5747057e-07
7.68157e-12 3.8387344e-07 0.0 0.0 2.1601745e-10 0.0 0.0 3.0349119e-09
5.183358e-09 5.2327667e-09 4.5498005e-09 1.14809895e-08 5.447196e-09 0.0039111 0.0034369512 0.0034211662
0.0003976657 0.0003729962 0.0015347733 1.7495722e-05 4.652475e-05 0.000108545486 1.787914e-05 0.0023727908
0.0027030332 0.0023974346 0.0024070104 0.008055152 1.0027092e-15 1.4218385e-15 1.1254825e-09 9.40344e-10
4.072476e-09 0.014974069 7.2392453e-07 2.0240551e-09 1.7836005e-07 1.6257256e-06 5.5521205e-08 2.3151811e-08
3.5492864e-08 8.011362e-09 9.5668815e-09 4.113143e-08 1.08238766e-07 9.56036e-09 1.7846595e-09 1.7981325e-09
7.086245e-10 1.14842065e-08 3.1982147e-10 3.315172e-09 7.147614e-07 1.7482076e-09 2.3610336e-07 1.7646854e-06
3.4942627e-08 2.5225802e-08 4.2905455e-08 4.0000394e-09 1.2986384e-08 2.1584796e-09 3.8716605e-10 9.57661e-09
1.0531994e-10 6.8728565e-09 1.1276084e-12 3.4806444e-08 0.0 0.0 3.622993e-11 0.0
0.0 4.9745597e-10 1.5798391e-09 5.484812e-10 5.558369e-10 5.897235e-10 1.6153018e-09 0.00010214068
0.00012151523 0.000121896264 2.2601555e-05 2.474124e-05 9.373092e-05 6.9963003e-06 5.8279766e-06 2.4377108e-05
1.5662864e-06 0.00013092165 0.00010539061 0.00012370883 0.00012313045 6.608458e-05 2.3279936e-17 2.3778888e-16
3.2037536e-11 3.376712e-11 9.775545e-11 0.00030690912 2.4823876e-07 1.0352322e-09 1.053363e-06 1.0474924e-06
5.312272e-08 7.2436963e-09 2.9765344e-08 4.064053e-09 2.2299396e-09 7.828124e-09 1.7961037e-07 1.9793802e-09
1.1213126e-09 2.0503408e-09 3.8462875e-10 1.3553208e-08 3.6805078e-10 1.855954e-09 4.5100754e-07 7.1787365e-10
9.953573e-07 1.4056163e-06 1.4393283e-08 8.469246e-09 1.6332919e-08 4.148111e-09 3.5016046e-09 1.0922653e-09
9.057014e-10 1.7639374e-08 3.6609427e-10 4.8124713e-09 1.2071871e-12 4.0212395e-08 0.0 0.0
1.6893428e-11 0.0 0.0 7.893208e-11 4.992801e-10 6.093074e-10 5.76098e-10 7.8275203e-10
2.0887264e-10 3.7868027e-05 3.924434e-05 4.0294104e-05 1.7489956e-06 3.2083074e-06 9.57999e-06 2.9684297e-05
2.775798e-05 0.00011430702 5.384404e-07 2.4901106e-05 8.9767855e-05 8.74976e-05 8.6577566e-05 0.00016018741
0.0 4.8388587e-17 6.7264033e-12 1.3749712e-11 3.3147256e-11 5.960368e-05 9.507431e-07 3.3855907e-09
1.967581e-07 6.2527524e-06 6.430495e-08 2.2655904e-08 3.798297e-08 8.289736e-09 8.922337e-09 6.875242e-08
3.4389566e-07 2.5695384e-08 1.5028565e-09 5.316454e-09 1.2081914e-09 3.1343884e-08 9.047915e-11 4.9274615e-09
4.095543e-07 4.4458366e-09 2.2684857e-07 6.481832e-06 7.217275e-08 2.4692493e-08 4.6790543e-08 7.743849e-09
2.276645e-08 1.3740986e-09 5.5063504e-10 2.7892874e-08 1.0603049e-10 2.3267454e-08 9.248754e-13 3.7588904e-08
0.0 0.0 5.226928e-11 0.0 0.0 6.691387e-10 2.0373563e-09 3.6587167e-10
5.4455107e-10 2.907416e-10 5.9654987e-10 0.001055477 0.0010092561 0.001008797 2.4514346e-05 3.046426e-05
0.000109277666 6.585203e-05 6.148764e-05 0.00025417394 3.431891e-06 0.00027548507 0.00074599695 0.00070895423
00000000: e69d 7037 4883 a532 3c32 a036 ff10 d337
00000010: 05b6 1635 4e9f 4d34 c9fe a033 fbb3 1333
00000020: c9b3 bd33 931a 4334 2728 f336 e8a3 ba33
00000030: ddcf 4733 7080 6833 52b2 ae31 068b 7134
00000040: fdbf 1b31 f885 0034 ffb2 2c37 8a5c ee32
00000050: fed1 a236 fc47 ff37 eacb da34 bd55 c433
00000060: c52d fe33 8e09 4933 a920 a233 6838 6b33
00000070: c554 a131 8374 8434 ba13 2630 2e15 2934
00000080: b722 072d 2a17 ce34 0000 0000 0000 0000
00000090: 8283 6d2f 0000 0000 0000 0000 bc8e 5031
000000a0: 4d19 b231 e7cb b331 7854 9c31 ed3d 4532
000000b0: 0b2a bb31 af28 803b 793e 613b a535 603b
000000c0: c97d d039 b48e c339 722a c93a c7c3 9237
000000d0: 9223 4338 eaa2 e338 29fb 9537 d380 1b3b
000000e0: 5f25 313b 471e 1d3b efbe 1d3b c2f9 033c
000000f0: 7181 9026 95e8 cc26 65af 9a30 6a3d 8130
00000100: e1ed 8b31 cc55 753c b753 4235 8e17 0b31
00000110: 3d83 3f34 8233 da35 3676 6e33 5fdf c632
00000120: d170 1833 58a2 0932 975b 2432 7ca8 3033
00000130: e470 e833 e83e 2432 2048 f530 2a22 f730
00000140: 04c9 4230 134c 4532 dfd2 af2f 1fd1 6331
00000150: 08de 3f35 9645 f030 9983 7d34 21da ec35
00000160: d313 1633 20b0 d832 0c47 3833 b870 8931
00000170: b91a 5f32 6054 1431 c7d8 d42f 6086 2432
00000180: db99 e72e 4926 ec31 60b2 9e2b 177e 1533
00000190: 0000 0000 0000 0000 4657 1f2e 0000 0000
000001a0: 0000 0000 5abd 0830 a621 d930 efc3 1630
000001b0: 8bc9 1830 1a1a 2230 6101 de30 5c34 d638
000001c0: fed5 fe38 8fa2 ff38 7898 bd37 698b cf37
000001d0: 6891 c438 c3c1 ea36 f08d c336 717d cc37
000001e0: 3139 d235 0348 0939 2705 dd38 d6b7 0139
000001f0: 941c 0139 e496 8a38 32b8 d623 7213 8925
00000200: 0fe7 0c2e 6682 142e 6df7 d62e a5e8 a039
00000210: ad45 8534 ff47 8e30 4761 8d35 9197 8c35
00000220: 0c29 6433 3ae4 f831 afae ff32 caa3 8b31
00000230: 833d 1931 747c 0632 ecda 4034 a005 0831
00000240: ae1c 9a30 fae5 0c31 af73 d32f a4d7 6832
00000250: 8b56 ca2f 9314 ff30 0122 f234 de53 4530
00000260: 3798 8535 9ca8 bc35 5446 7732 2380 1132
00000270: 784c 8c32 2c87 8e31 e1a0 7031 ab1e 9630
00000280: 12f5 7830 6585 9732 3043 c92f f25a a531
00000290: 80e5 a92b ffb5 2c33 0000 0000 0000 0000
000002a0: 9e98 942d 0000 0000 0000 0000 d092 ad2e
000002b0: b73d 0930 327c 2730 4b5b 1e30 4729 5730
000002c0: 6ca8 652f 7cd4 1e38 4a9a 2438 7701 2938
000002d0: 08bf ea35 4d4e 5736 beb9 2037 8b02 f937
000002e0: cfd9 e837 1db8 ef38 5889 1035 b8e2 d037
000002f0: c041 bc38 eb7e b738 fa90 b538 fbf7 2739
00000300: 0000 0000 2927 5f24 0eaa ec2c 33e3 712d
00000310: 7ec8 112e f7fe 7938 9136 7f35 f1a7 6831
00000320: 7444 5334 bcce d136 0518 8a33 dc9c c232
00000330: b822 2333 a56a 0e32 da48 1932 0ba5 9333
00000340: a9a0 b834 bfb8 dc32 108d ce30 06ac b631
00000350: 750d a630 f79e 0633 3cf7 c62e 694e a931
00000360: b7e0 db34 fec1 9831 a993 7334 837e d936
00000370: 64fd 9a33 5e1b d432 bff6 4833 cf09 0532
00000380: f48f c332 ccda bc30 7f5b 1730 1499 ef32
00000390: dc29 e92e acdd c732 262a 822b 7071 2133
000003a0: 0000 0000 0000 0000 fae1 652e 0000 0000
000003b0: 0000 0000 73ee 3730 8d01 0c31 dc23 c92f
000003c0: 60af 1530 3ed6 9f2f 77fa 2330 ee57 8a3a
000003d0: 0449 843a 9c39 843a 28a4 cd37 808d ff37
000003e0: 002c e538 0a1a 8a38 edf2 8038 a642 8539
000003f0: 704f 6636 fb6e 9039 028f 433a 1dd9 393a

exp_avg f4 [16]
-0.0059543285 0.009168735 -0.009505757 -0.00047106392 -0.00527709 0.016828239 0.0025972805 -0.011412003
0.0021807742 0.00070071843 0.01196956 -0.04600794 0.0064694043 0.01938735 0.0010339732 -0.0022602822
00000000: 871c c3bb 7638 163c 09be 1bbc 21f9 f6b9
00000010: 70eb acbb 60db 893c 2337 2a3b 69f9 3abc
00000020: 52eb 0e3b 6bb0 373a f91b 443c d272 3cbd
00000030: 4cfd d33b 38d2 9e3c 6286 873a 3e21 14bb

exp_avg_sq f4 [16]
0.00049362186 0.00044767547 0.0006838034 1.5026871e-05 0.0007196686 0.00044134154 0.00043546024 0.00045800387
0.00023357867 3.814245e-05 0.00026375204 0.0013908151 0.00081221963 0.0023866422 6.9330476e-05 0.00040731896
00000000: 6766 013a fcb5 ea39 4541 333a eb1b 7c37
00000010: 24a8 3c3a dc63 e739 7c4e e439 3d20 f039
00000020: ccec 7439 25fb 1f38 3348 8a39 034c b63a
00000030: 23eb 543a 3669 1c3b 8465 9138 6d8d d539

exp_avg f4 [16]
0.003449497 -0.0002470346 -0.0048314463 0.0066299844 -0.01097649 0.01220614 0.00913605 -0.0066911886
0.008157361 0.0020903293 0.0017995716 -0.020867517 0.012759026 0.0037222737 -0.005957804 1.7216078e-05
00000000: f510 623b 6c84 81b9 1c51 9ebb 5740 d93b
00000010: bcd6 33bc 43fc 473c 5faf 153c c241 dbbb
00000020: 74a6 053c e8fd 083b 9adf eb3a 5bf2 aabc
00000030: 3c0b 513c 64f1 733b af39 c3bb 3f6b 9037

exp_avg_sq f4 [16]
0.0005508887 0.0016449739 0.0009177389 8.135836e-05 0.00039853007 0.0007368468 0.0004156945 0.0009635894
0.00055748876 0.000105624975 0.00073215057 0.0050321724 0.0012146954 0.00066705147 0.000212409 0.00013567484
00000000: 8469 103a 2a9c d73a 6a94 703a f09e aa38
00000010: cdf1 d039 f428 413a 92f1 d939 6499 7c3a
00000020: 7024 123a fa82 dd38 cbed 3f3a ece4 a43b
00000030: 6a36 9f3a 11dd 2e3a 1bba 5e39 f043 0e39

exp_avg f4 [8, 16]
0.0011612667 0.00036844535 -0.0028554872 -0.001006094 -0.0019193655 -0.004175293 -0.00050038326 0.0008716228
-0.0005653483 0.0015963331 -0.0018469231 -0.0037904673 0.0009358882 -0.0042275037 -0.0002828743 -0.0026655889
0.0021946412 -0.0029847284 0.029153602 0.021290954 0.03134579 0.049778484 0.011822312 0.027314322
0.013168755 0.0121057695 0.03377826 0.055549648 -0.001479749 0.0717468 0.0029987576 0.023496699
-0.0005711153 0.0029192027 -0.00033299453 -0.0023618285 7.023658e-05 -0.00045999628 -0.00039855138 -0.00038173737
-0.003364931 0.0011774442 0.00093419023 -0.0003876427 0.00028439597 -0.00045977285 0.0003465753 -0.00011890479
0.008829589 0.013979153 -0.00842845 0.0035020963 -0.0044041676 -0.009494267 0.00056671555 -0.0046641915
0.0065412833 0.011980125 -0.006699875 -0.008851774 0.01135565 -0.007866286 -0.00070564565 -0.00911914
-0.0060394676 -0.005034366 0.008206601 -0.011733408 0.013110081 0.0059723845 -0.012361342 0.021440709
-0.009785414 -0.0061089955 0.01092353 0.0027611214 -0.006199065 0.006695246 -0.011013929 -0.009771176
-0.0023642487 -0.0029382473 0.0006054668 -0.0025559226 0.00046530395 0.0011192514 -0.002548489 -0.0067732334
-0.0034735303 -0.0023567474 0.0021783907 -0.0011307014 -0.0033779314 -0.0014907587 -0.0025119209 0.005314551
-0.00031128555 -0.00092027837 0.0011800902 -6.520148e-05 -0.00031262188 0.0018984792 4.2868152e-05 -0.00634786
0.0001951226 -0.0013701897 0.00063773995 0.0018328564 -0.0008073808 0.00047650575 -1.4129857e-05 0.00399339
-0.00020865398 0.0051680584 -0.0011223268 -0.0050221425 0.0016796851 -0.00097238366 -0.0049815318 0.0011448385
0.0016553404 0.0048363744 0.0012653379 -0.0007270192 0.0026119146 0.0001884905 -0.00662858 -0.0036664044
00000000: a535 983a e62b c139 2023 3bbb eade 83ba
00000010: 3893 fbba e5d0 88bb 272c 03ba 9e7d 643a
00000020: e233 14ba 0d3c d13a 7514 f2ba 7d69 78bb
00000030: 6556 753a df86 8abb bf4e 94b9 29b1 2ebb
00000040: f8d3 0f3b 6f9b 43bb 89d3 ee3c 5e6a ae3c
00000050: 7164 003d 86e4 4b3d 5fb2 413c 49c2 df3c
00000060: c3c1 573c 4757 463c 135b 0a3d 0788 633d
00000070: 23f4 c1ba fcef 923d ce86 443b 267c c03c
00000080: e6b6 15ba 1850 3f3b c595 aeb9 e8c8 1abb
00000090: fa4b 9338 a82b f1b9 a9f4 d0b9 ec23 c8b9
000000a0: 2d86 5cbb 7954 9a3a 72e4 743a 863c cbb9
000000b0: fb1a 9539 ab0d f1b9 8db4 b539 865c f9b8
000000c0: fba9 103c d108 653c 7b17 0abc 6d83 653b
000000d0: d650 90bb d88d 1bbc a38f 143a 13d6 98bb
000000e0: 4358 d63b 4948 443c a08a dbbb 0807 11bc
000000f0: 0c0d 3a3c 98e1 00bc 14fb 38ba 7268 15bc
00000100: bae6 c5bb 53f7 a4bb fb74 063c 7b3d 40bc
00000110: aacb 563c feb3 c33b 3a87 4abc 6da4 af3c
00000120: 0053 20bc f82d c8bb 9bf8 323c eef3 343b
00000130: 8721 cbbb cb63 db3b c473 34bc 4817 20bc
00000140: 83f1 1abb 9c8f 40bb 30b8 1e3a 4481 27bb
00000150: 0af4 f339 d8b3 923a 8d04 27bb 00f2 ddbb
00000160: 2ba4 63bb a973 1abb 55c3 0e3b 0b34 94ba
00000170: 4960 5dbb 9065 c3ba 0a9f 24bb af25 ae3b
00000180: 0a34 a3b9 d63e 71ba 42ad 9a3a c7bc 88b8
00000190: 66e7 a3b9 64d6 f83a 54cd 3338 b601 d0bb
000001a0: d399 4c39 f097 b3ba 012e 273a 753c f03a
000001b0: 69a6 53ba 85d3 f939 460f 6db7 fcda 823b
000001c0: 20ca 5ab9 d158 a93b 0a1b 93ba c990 a4bb
000001d0: e128 dc3a 90e7 7eba 1e3c a3bb 680e 963a
000001e0: 02f8 d83a 737a 9e3b b2d9 a53a 6f95 3eba
000001f0: a82c 2b3b 89a5 4539 8f34 d9bb 0f48 70bb

exp_avg_sq f4 [8, 16]
2.235248e-05 2.8465201e-05 6.993684e-05 5.8918786e-06 5.614537e-05 6.670546e-05 1.9254425e-05 3.9655268e-05
3.6897574e-05 1.7872517e-05 5.4691845e-05 4.2816264e-05 2.7066542e-05 0.00010192999 2.310866e-05 5.0828676e-05
0.0005110408 0.002111048 0.005055589 0.0014987546 0.004795992 0.0038553996 0.0022160106 0.0025755458
0.0021385 0.0017425931 0.0030046718 0.0015931391 0.0027982919 0.0025379246 0.0014410119 0.0012398901
7.667963e-06 1.2529378e-05 3.083908e-05 7.5894013e-06 2.8012437e-05 3.0349824e-05 3.0922034e-05 3.086172e-05
2.9023533e-05 1.7794642e-05 3.2746313e-05 3.4314187e-05 2.2931159e-05 1.3500989e-05 1.33077e-05 2.4081623e-05
0.00012039279 0.00024150466 0.00024012715 8.069002e-05 0.00026179978 0.00028175407 8.730329e-05 0.00022469954
0.00021268013 0.00021586966 0.00021758454 0.000104313825 0.000260043 0.00041324846 0.00014550723 0.00019015383
0.00011991524 0.00019670314 0.00068465073 0.00011241079 0.0005571597 0.0005676559 0.0010462394 0.0008542098
0.00018568536 0.00022015547 0.00052802055 0.0002689698 0.00016954033 0.00040376338 0.00011634622 0.00066499115
9.910817e-06 7.417216e-06 4.8290818e-05 1.061647e-05 2.2771284e-05 5.3608168e-05 5.1406678e-05 2.7549591e-05
1.0751596e-05 5.6286603e-06 3.4963385e-05 1.1512046e-05 6.670317e-06 5.958541e-05 8.302847e-06 4.261824e-05
0.0006158324 0.0007671848 0.0006505308 0.0005184656 0.00077276625 0.0007944805 0.000306708 0.0006038913
0.0006898655 0.00035462948 0.0007414691 0.00019846804 0.0009400276 0.001599025 0.00043035604 0.00044121264
0.00021836792 0.00044651638 0.0008214895 0.00019087845 0.0008372767 0.00088626624 0.0005967909 0.0007851811
0.00020872481 0.00036459588 0.0009768849 0.0005162975 0.0005222353 0.0011611404 0.00026469413 0.00079128303
00000000: 9681 bb37 8ec8 ee37 0eab 9238 dab2 c536
00000010: a27d 6b38 39e4 8b38 9084 a137 8553 2638
00000020: 78c2 1a38 f0ec 9537 ec64 6538 9d95 3338
00000030: f50c e337 3fc3 d538 78d9 c137 e030 5538
00000040: 5ef7 053a 8259 0a3b 5ba9 a53b dc71 c43a
00000050: b227 9d3b dfaa 7c3b 7d3a 113b 7dca 283b
00000060: 1426 0c3b b967 e43a 07ea 443b e1d0 d03a
00000070: 8c63 373b 4f53 263b 56e0 bc3a cf83 a23a
00000080: a6a5 0037 4535 5237 3659 0138 76a8 fe36
00000090: 40fc ea37 c097 fe37 48b2 0138 8571 0138
000000a0: 9077 f337 b445 9537 1659 0938 94ec 0f38
000000b0: 4a5c c037 4e82 6237 2344 5f37 e402 ca37
000000c0: 637b fc38 6a3c 7d39 a4ca 7b39 2038 a938
000000d0: 2c42 8939 64b8 9339 9916 b738 539d 6b39
000000e0: e302 5f39 125b 6239 6827 6439 0fc3 da38
000000f0: 6156 8839 45a9 d839 4d93 1839 0864 4739
00000100: 017b fb38 1942 4e39 227a 333a 15be eb38
00000110: 5b0e 123a bece 143a f821 893a 0ded 5f3a
00000120: 89b4 4239 89d9 6639 dc6a 0a3a 8404 8d39
00000130: a3c6 3139 34b0 d339 e7fe f338 cd52 2e3a
00000140: a346 2637 66e1 f836 df8b 4a38 641d 3237
00000150: f604 bf37 55d9 6038 809d 5738 4c1a e737
00000160: c161 3437 d3dd bc36 a6a5 1238 dc23 4137
00000170: 96d1 df36 59eb 7938 754c 0b37 fdc0 3238
00000180: d06f 213a e71c 493a 6288 2a3a a3e9 073a
00000190: 7793 4a3a af44 503a a7cd a039 764e 1e3a
000001a0: 17d8 343a 90ed b939 265f 423a dc1b 5039
000001b0: 2f6c 763a 6096 d13a 69a1 e139 8f52 e739
000001c0: b1f9 6439 6a1a ea39 3a59 573a 8b26 4839
000001d0: b07c 5b3a 5254 683a f671 1c3a 9dd4 4d3a
000001e0: 24dd 5a39 3b27 bf39 d10a 803a 2458 073a
000001f0: 9ee6 083a 6831 983a a5c6 8a39 1b6e 4f3a

exp_avg f4 [8]
0.0025818048 0.009267049 -0.00635899 -0.0014398289 0.0026078124 -0.0061856345 0.001709312 -0.0026446169
00000000: 7f33 293b d2d4 173c 135f d0bb a4b8 bcba
00000010: d5e7 2a3b ddb0 cabb fe0a e03a 4f51 2dbb

exp_avg_sq f4 [8]
6.12398e-05 0.00021630923 0.00012114019 0.00094223546 0.00011479536 0.0001340063 0.0013207919 0.00025819158
00000000: de6d 8038 11d1 6239 a50c fe38 5a00 773a
00000010: 4abe f038 0b84 0c39 6c1e ad3a e35d 8739

exp_avg f4 [8]
0.0017906938 0.012178993 -0.0039702416 0.007677427 0.0078063444 7.503016e-05 -0.0018251968 -0.009525627
00000000: b7b5 ea3a 668a 473c cd18 82bb ed92 fb3b
00000010: 5dcc ff3b 8359 9d38 713b efba 6011 1cbc

exp_avg_sq f4 [8]
7.993822e-05 0.00015412958 0.00016571053 0.00022004629 0.00015558499 3.4883866e-05 0.00070291554 4.0374438e-05
00000000: 81a4 a738 d89d 2139 95c2 2d39 3abc 6639
00000010: 8724 2339 4450 1238 dd43 383a b957 2938

exp_avg f4 [4, 8]
-0.0016204471 0.0047994875 -0.0077187866 -0.0024709883 -0.0023306161 -0.0031485395 -0.004761465 -0.00148264
-0.002144846 -0.007428574 -0.007349103 0.0039778184 0.0029747789 0.0019838968 -0.00043979703 -0.0049968334
-0.0011707082 -0.0029529165 0.0054017035 -0.004977005 -0.006780014 0.0054085646 0.0065924847 0.008730211
-0.007607136 0.01691835 0.0013251437 -0.011336269 0.005813561 -0.009533327 -0.012024101 0.0018002228
00000000: 2f65 d4ba 0545 9d3b e0ed fcbb 4ef0 21bb
00000010: 40bd 18bb ba57 4ebb 1006 9cbb 2555 c2ba
00000020: 8b90 0cbb 656b f3bb bfd0 f0bb 5c58 823b
00000030: 82f4 423b 4404 023b 8f94 e6b9 7abc a3bb
00000040: 7372 99ba b885 41bb c600 b13b 2516 a3bb
00000050: e12a debb 543a b13b c505 d83b 2909 0f3c
00000060: 4845 f9bb 5a98 8a3c 72b0 ad3a c2bb 39bc
00000070: af7f be3b ac31 1cbc bc00 45bc 74f5 eb3a

exp_avg_sq f4 [4, 8]
5.4880336e-05 0.0002886138 0.00046332547 0.00092623 0.00014186552 0.0013341086 0.0007194113 0.00023526697
2.0185937e-05 2.16848e-05 8.8273584e-05 2.3153681e-05 1.3199407e-05 2.2117307e-05 1.17236095e-05 8.073411e-05
0.00041539504 0.00039570744 9.22875e-05 0.0008925075 0.00035939124 0.0011228739 0.000449173 0.00086054957
3.8246675e-05 5.493446e-05 9.076614e-05 0.00015474264 0.00016037545 0.00021678265 0.00033435787 0.00025068593
00000000: 502f 6638 1751 9739 7eea f239 3ece 723a
00000010: bcc1 1439 42dd ae3a e096 3c3a ffb1 7639
00000020: f854 a937 c1e7 b537 851f b938 273a c237
00000030: 0573 5d37 8e88 b937 85b0 4437 cc4f a938
00000040: 61c9 d939 f476 cf39 798a c138 2af7 693a
00000050: ad6c bc39 652d 933a fb7e eb39 8196 613a
00000060: 0e6b 2038 6d69 6638 b359 be38 6942 2239
00000070: 752a 2839 2650 6339 c14c af39 7f6e 8339

exp_avg f4 [4]
-0.014194531 0.0020355086 0.004427091 0.0061728726
00000000: 2e90 68bc 2b66 053b 2211 913b cf45 ca3b

exp_avg_sq f4 [4]
0.0008022471 2.4297578e-05 0.00022208014 0.00027347152
00000000: e44d 523a a7d2 cb37 2fde 6839 ba60 8f39

exp_avg f4 [4]
-0.008578625 -0.0026943572 -0.020422494 0.00011488996
00000000: 5c8d 0cbc d093 30bb 134d a7bc 14f1 f038

exp_avg_sq f4 [4]
0.0003715608 3.2881082e-05 0.00013017857 0.00031031977
00000000: 0cce c239 cbe9 0938 8b80 0839 6ab2 a239

exp_avg f4 [2, 4]
-0.01952488 0.011600115 0.012100684 0.003635418 0.0020249544 0.0007874681 -0.0002045669 0.0029433807
00000000: a4f2 9fbc 690e 3e3c f341 463c 3140 6e3b
00000010: 19b5 043b 176e 4e3a 0281 56b9 bce5 403b

exp_avg_sq f4 [2, 4]
0.0014701622 0.00011421801 0.00052523514 0.00018562873 0.0001260994 5.93368e-05 3.4255445e-05 9.591346e-05
00000000: 75b2 c03a 5488 ef38 efaf 093a 55a5 4239
00000010: 8d39 0439 67e0 7838 81ad 0f38 2625 c938

exp_avg f4 [2]
-0.012928408 0.011228487
00000000: acd1 53bc b0f7 373c

exp_avg_sq f4 [2]
0.0011325069 0.0013225407
00000000: a070 943a 1a59 ad3a

exp_avg f4 [2]
-0.01705471 -0.033284903
00000000: 52b6 8bbc c055 08bd

exp_avg_sq f4 [2]
0.00055829657 0.0006375859
00000000: a65a 123a aa23 273a

exp_avg f4 [2, 2]
0.008822165 0.0061293426 -0.008822165 -0.0061293426
00000000: d88a 103c a7d8 c83b d88a 10bc a7d8 c8bb

exp_avg_sq f4 [2, 2]
0.0005344473 0.0004182649 0.0005344473 0.0004182649
00000000: 271a 0c3a 914a db39 271a 0c3a 914a db39

exp_avg f4 [2]
-0.019683369 0.019683369
00000000: 043f a1bc 043f a13c

exp_avg_sq f4 [2]
0.00063558336 0.00063558336
00000000: 479d 263a 479d 263a
