test/output/local2/simulatorRun/fsv_volumes_from_scratch/fold_3/best.nn.pt (torch_old, 737310 bytes, 42 tensors)

layers.0.0.weight f4 [256, 66]
000000 8d ad 79 bd 41 94 0f be 0b 4a 39 bc ed 36 30 be
       -0.060956527 -0.14021398 -0.011309157 -0.17208453
000010 6a 48 49 bd 6b 9e 34 be a9 4b 2c 3e 9e 27 05 be
       -0.049141325 -0.17638557 0.16825737 -0.13003394
000020 20 ca 80 3d 06 27 da 3d ea c7 b9 bd 62 cd 84 3e
       0.06288552 0.106519744 -0.09071334 0.25937945
000030 c2 08 2f 3e 5e c7 b6 3d c1 89 87 3e 82 0e 4c be
       0.17093185 0.08924745 0.26472285 -0.1992741
000040 28 6e ed 3e b1 79 61 be ae 91 a2 bb 49 ca e3 3c
       0.46373105 -0.22019078 -0.004961214 0.027806418
000050 42 78 a5 3c ad d3 4f 3e f5 11 d9 3d 0c 76 04 3f
       0.020198945 0.20295592 0.10599128 0.51742625
000060 ff 96 2e bd e0 41 91 3d a7 2a 0a be 82 e5 87 3e
       -0.04262447 0.07092643 -0.13492833 0.26542288
000070 7e 0d ba bd 78 fe 84 3d db 99 45 3e 1f 1c c7 3d
       -0.09084605 0.064938486 0.19296972 0.097221605
000080 ff 64 e4 bd 79 88 92 be 2a 07 7f bd a5 a1 56 3e
       -0.11152076 -0.28619745 -0.06226269 0.209601
000090 a5 6f 66 3d 05 cf 2d 3e ab f3 14 3e 8b e8 aa bd
       0.056258816 0.16973503 0.14546077 -0.08345135
0000a0 7d 69 0e be 9b 12 44 3e 6c 08 27 be ac 23 fc 3c
       -0.13907428 0.19147722 -0.16311806 0.030778728
0000b0 73 ea c5 3e df 79 7b 3e 72 e8 cb 3d 4d 8f cf 3d
       0.38655433 0.24558209 0.09956445 0.10134754
0000c0 cc 32 18 3c 8e 6c 83 bd 4b 08 44 be ff 18 98 be
       0.009289455 -0.064171895 -0.19143789 -0.2970657
0000d0 16 0c a0 bd 47 6c bf bb 3c cc 08 bd 03 b5 1d 3e
       -0.07814805 -0.005841765 -0.033397898 0.15401082
0000e0 42 38 da bc 1d 5d 3f 3e cb 48 4c 3e f7 de 8c 3e
       -0.026638154 0.18687864 0.19949643 0.2751386
0000f0 c0 ea 00 3c f6 e7 a5 be 3b 0e 84 3e e8 89 27 3d
       0.007868469 -0.32403535 0.25792107 0.040903002
000100 21 dc 26 be e3 ec c0 3d b9 85 4a be 3e da 5b bd
       -0.1629491 0.094201826 -0.19777574 -0.05367493
000110 fc 47 5b be dd 7f fd bd 1a 00 9c 3e 1a 76 08 be
       -0.21414179 -0.123779036 0.30468827 -0.13326302
000120 3c 87 90 bd 51 1a 0b 3d c9 b1 0f be c5 01 d7 bd
       -0.07057044 0.033960644 -0.14032663 -0.104983844
000130 92 cd 7a 3e 2a e3 4e 3c 82 c7 5e bd 21 e5 8c bc
       0.24492481 0.012627402 -0.054389484 -0.0171991
000140 11 86 61 be d3 33 0f be f7 b9 97 3d b6 b9 a6 3d
       -0.22023799 -0.13984613 0.07408517 0.0814089
000150 68 2d dc bc 6e b5 f3 bd 5b c7 14 3e f8 46 58 3e
       -0.02687712 -0.11899839 0.14529173 0.21120822
000160 0f 36 e6 3d 1f 92 4c 3e 45 e3 54 3e 2c 5d 53 3e
       0.112407796 0.19977616 0.20789821 0.20641011
000170 43 92 23 3c 78 c4 88 be 80 f7 db bc 2e 9e 29 3e
       0.009983602 -0.26712394 -0.026851416 0.16564247
000180 cc 60 9e bd 42 9d b5 3d 46 63 18 bd ec e5 43 be
       -0.07733306 0.08867885 -0.03720405 -0.19130677
000190 e4 49 f8 3c a2 71 0c 3e 27 45 bd bd 9d 60 93 be
       0.030308671 0.13715222 -0.092417054 -0.28784648
0001a0 48 43 cd bc 05 c2 83 be 95 f5 ec bb 0c c5 0b 3e
       -0.025056496 -0.25733963 -0.007231424 0.13649386
0001b0 da 4a 6e 3c ca 6c 7c be e6 e1 f4 bd 54 f1 07 be
       0.014544213 -0.24650875 -0.11957149 -0.13275653
0001c0 bb 44 22 be e5 d3 a4 3e c8 38 86 3d ae 72 22 3d
       -0.15846531 0.32192913 0.06553799 0.03966015
0001d0 60 4f df bd e2 ef 67 bd 4a 78 03 bf b6 2a 9f 3e
       -0.109038115 -0.056625254 -0.5135542 0.31087273
0001e0 f2 de 31 bb a2 8f c4 be 51 cf 1d be c5 8f da 3b
       -0.0027140942 -0.38390833 -0.15411116 0.0066699707
0001f0 62 de 3a 3c 85 82 1d be 04 9a 50 3e 43 59 dd bd
       0.011405559 -0.1538182 0.20371252 -0.10808041
000200 f1 fb 1c be c6 bb 81 3e 47 61 6d be 9b 09 e7 3c
       -0.15330483 0.25338572 -0.2318164 0.028202822
000210 d9 d7 41 bd 38 f7 37 3e 5b 12 2f 3b 98 ae 7b be
       -0.04732499 0.179654 0.0026713822 -0.24578321
000220 d0 e6 35 3e 2a 02 69 3e 50 f7 20 bd 97 da f6 bc
       0.17763829 0.22754732 -0.039298356 -0.030133529
000230 9e 92 39 bd 56 36 1a 3d 39 68 b5 3d 7c a7 a1 bd
       -0.04530584 0.037649475 0.088577695 -0.07893273
000240 19 6c 6e 3e e4 d6 0c 3d d6 7b 80 be ac 48 51 3d
       0.23283423 0.034384623 -0.2509448 0.051094696
000250 89 88 87 be 89 e5 99 3c 9c 68 b7 bd e7 ea 70 be
       -0.26471356 0.018786209 -0.089554995 -0.23527108
000260 4f 2a 55 bd b3 b8 94 be da 2a ab 3d a2 50 26 be
       -0.0520423 -0.29047164 0.08357783 -0.16241696
000270 3d a7 9e bb 21 ac 04 be 6c 4f c3 bd 8e 17 aa 3d
       -0.0048417137 -0.12956287 -0.09536633 0.08305274
000280 b7 4c 6f be 5a 67 98 3e 46 a5 e9 bd cc d2 e8 bd
       -0.23369108 0.2976635 -0.114084765 -0.11368331
000290 d0 cb f6 3d e0 03 0f 3d 91 2c 12 3c bc 58 47 3e
       0.12050593 0.034915805 0.008921758 0.19467443
0002a0 ac c6 8c bc fc 7b 53 bd 84 c3 d5 bc d6 14 f0 3d
       -0.017184578 -0.051631913 -0.026094206 0.11722724
0002b0 0b f0 3d 3d e6 3e a5 be 2a 8a 06 3e 74 1d 32 39
       0.0463715 -0.3227455 0.13138643 0.00016986375
0002c0 25 ba 25 be 81 52 bf 3e 99 4c c3 3d 0c ab 1a be
       -0.1618429 0.37367633 0.09536094 -0.15104312
0002d0 f7 00 31 3c b2 0c dd bd 0d ac 3f be 0c 9a d2 3c
       0.010803453 -0.10793437 -0.18717976 0.02570822
0002e0 ef a7 a4 3d 35 a5 9a 3d 42 78 89 3b 0f 0a ab 3e
       0.08039843 0.07551042 0.004195244 0.33406112
0002f0 fc 9d f2 3c 61 fa 1e 3c b3 2a d4 bd 25 27 f7 bc
       0.029616348 0.00970325 -0.10359707 -0.030170033
000300 65 60 54 be 18 c4 94 3e 3a 7f 8d 3e bd 72 1c 3e
       -0.20739897 0.29055858 0.2763613 0.15278144
000310 d7 a6 4a be c6 71 8f bc bf e6 d3 3c 14 23 e6 3d
       -0.19790207 -0.017510306 0.025866864 0.11237159
000320 5f e8 35 be 88 2e bb be 90 24 a5 3c e8 de 5d 3d
       -0.17764424 -0.36558938 0.020159036 0.054167658
000330 a3 d9 3d 3e 6f 46 52 3e 07 69 2e 3d 40 39 86 be
       0.18540053 0.20534681 0.04258063 -0.26215553
000340 dc 8c ae 3d 96 7e 34 bd 05 5e b5 3e 51 98 57 bd
       0.085229605 -0.044066034 0.35423294 -0.052635495
000350 d2 8e b4 be 18 5c ab 3e e0 ce 21 be 17 9d 04 3e
       -0.35265213 0.334687 -0.15801573 0.1295055
000360 d5 a8 81 bd 17 56 c8 3e cf e1 45 bd 5c fe 4f 3e
       -0.0633103 0.3912818 -0.04831105 0.20311874
000370 ea d3 eb bd 7d 6a 2a be de d6 94 3e 73 bf a6 3e
       -0.11515029 -0.16642185 0.2907018 0.3256794
000380 8e 49 37 3e 3e 07 26 bd 0c 52 28 be b8 73 9f 3d
       0.17899153 -0.04053425 -0.16437548 0.077857435
000390 5c 6c 8c 3e fb a4 7a 3e d6 09 99 bd fd f5 1f be
       0.27426422 0.24476998 -0.07472579 -0.15621181
0003a0 10 72 6e be 24 7a 12 be e6 02 3d 3d e4 ce c0 bd
       -0.23285699 -0.14304405 0.046145342 -0.09414461
0003b0 f0 1d 94 be 2d 72 b8 be 87 53 57 bc 27 5f 7e be
       -0.2892909 -0.3602461 -0.013142473 -0.24840985
0003c0 28 08 77 3e 78 16 39 be 40 61 08 3e b1 ef 60 bd
       0.24124205 -0.18074977 0.13318348 -0.054916088
0003d0 41 96 2a bd 39 ba 49 3e 2a ee 6e 3d 03 7e 1d be
       -0.0416472 0.19699945 0.0583326 -0.15380101
0003e0 00 78 93 3d f9 c3 0e 3e 9b 87 d9 3e 59 4f 15 be
       0.072006226 0.13941945 0.4248627 -0.1458105
0003f0 f1 78 91 3d ce 58 5d bd fd 34 3f 3e 61 31 90 bd
       0.07103146 -0.05403977 0.18672557 -0.07040668

layers.0.1.weight f4 [256]
000000 9b 2e 81 3f b8 70 79 3f 26 dd 81 3f e7 76 76 3f
       1.0092348 0.9743762 1.0145614 0.9627518
000010 25 d8 84 3f 7c 32 75 3f 44 dd 80 3f 04 a8 76 3f
       1.0378462 0.9578016 1.0067525 0.9635012
000020 13 f0 6e 3f 9d d6 79 3f 63 41 74 3f e7 d5 87 3f
       0.93335074 0.975931 0.9541227 1.0612153
000030 8a 32 7b 3f 38 48 7e 3f 0d 18 81 3f 4b b7 81 3f
       0.9812399 0.9932895 1.0085465 1.0134062
000040 a3 57 81 3f be 20 7d 3f 06 3b 8f 3f e3 a9 7b 3f
       1.010487 0.98878086 1.1189888 0.983061
000050 9e 77 80 3f 77 0d 7e 3f 85 3f 76 3f 4b 49 7d 3f
       1.0036504 0.99239296 0.96190673 0.9893996
000060 e3 2f 74 3f 64 ce 7f 3f f7 74 7d 3f 1b a6 82 3f
       0.9538557 0.999243 0.990066 1.0206941
000070 7f 75 82 3f e1 37 88 3f 15 bb 8a 3f 5a 33 81 3f
       1.0192107 1.0642053 1.0838343 1.0093796
000080 a4 c7 78 3f 59 ae 7b 3f 41 bc 7e 3f 39 d9 78 3f
       0.9717963 0.9831291 0.99506 0.97206455
000090 33 08 73 3f 19 7a 7b 3f af 10 87 3f b9 f9 7b 3f
       0.94934386 0.9823318 1.0551966 0.9842792
0000a0 b7 22 7f 3f 8e ca 7b 3f f8 35 74 3f 96 d7 7f 3f
       0.99662346 0.9835595 0.9539485 0.99938333
0000b0 f7 24 89 3f c8 87 80 3f bd f8 7b 3f 91 a7 82 3f
       1.0714406 1.0041437 0.9842642 1.0207387
0000c0 01 8e 7b 3f 77 4a 82 3f 6a 43 85 3f e4 41 81 3f
       0.98263556 1.0178975 1.0411198 1.0098233
0000d0 33 94 81 3f 7c 15 7a 3f 83 d9 8e 3f 92 df 79 3f
       1.0123352 0.9768903 1.1160129 0.97606766
0000e0 d0 d3 7c 3f 34 82 76 3f 11 7c 81 3f fb 95 73 3f
       0.987607 0.96292424 1.0115987 0.9515073
0000f0 ff 4e 85 3f f2 d8 7d 3f 2f 64 78 3f e5 17 83 3f
       1.0414733 0.9915916 0.9702787 1.0241667
000100 96 db 7c 3f 47 9e 82 3f 87 1a 7b 3f 45 42 7d 3f
       0.9877256 1.0204552 0.9808735 0.98929244
000110 15 d9 82 3f 21 d0 81 3f 8c ed 79 3f e7 69 82 3f
       1.0222498 1.0141641 0.9762809 1.0188569
000120 4b 1e 7e 3f e3 98 82 3f 4a 17 78 3f 67 57 78 3f
       0.99264973 1.0202907 0.96910536 0.97008365
000130 0b 3b 83 3f 89 2f 84 3f b2 e4 79 3f 81 50 81 3f
       1.0252393 1.0327007 0.97614586 1.0102693
000140 28 16 76 3f da f3 7e 3f a8 72 84 3f 02 4d 7f 3f
       0.9612756 0.9959084 1.034749 0.9972688
000150 5d 2f 7f 3f 30 53 7d 3f 81 f6 7d 3f b5 a2 7e 3f
       0.99681646 0.9895506 0.9920426 0.9946702
000160 75 6e 7c 3f 6d 4a 84 3f 40 ef 7b 3f 18 13 7b 3f
       0.98606044 1.0335213 0.9841194 0.9807601
000170 c6 a2 7d 3f f9 91 72 3f 44 8b 82 3f a6 5a 86 3f
       0.990765 0.94753987 1.019875 1.0496414
000180 d2 25 84 3f f6 8d 76 3f 39 b4 7c 3f 66 22 87 3f
       1.0324042 0.96310365 0.987125 1.0557373
000190 e8 23 79 3f 11 41 79 3f a7 e4 80 3f cf b3 7d 3f
       0.97320414 0.9736491 1.0069779 0.9910249
0001a0 c1 d9 7b 3f 5a 27 7d 3f d3 b6 7d 3f 5c e7 7a 3f
       0.9837914 0.9888817 0.9910709 0.98009276
0001b0 0f a8 7c 3f b7 df 78 3f 45 0e 7c 3f cd 76 79 3f
       0.9869394 0.9721636 0.98459274 0.974469
0001c0 a3 10 83 3f c5 d4 78 3f 34 9d 7e 3f 6a 34 79 3f
       1.0239452 0.9719966 0.9945862 0.973456
0001d0 94 d2 80 3f 2f ab 7a 3f cf cf 7f 3f f4 1e 7d 3f
       1.0064263 0.97917455 0.99926466 0.98875356
0001e0 12 2b 7e 3f 5e 51 76 3f a8 34 7e 3f 5b 62 7f 3f
       0.9928447 0.96217906 0.992991 0.99759454
0001f0 b2 e9 83 3f b1 dd 83 3f 31 98 7c 3f 84 60 74 3f
       1.0305693 1.030203 0.98669726 0.9545977
000200 6f b6 81 3f 7e 14 78 3f 53 81 7e 3f ce 86 7c 3f
       1.0133799 0.9690627 0.99416083 0.98643196
000210 66 2b 80 3f fa 9c 7d 3f e8 87 73 3f be a7 8b 3f
       1.0013244 0.9906765 0.9512925 1.0910566
000220 65 25 7a 3f 3a 82 7f 3f 1d a6 7c 3f 16 a8 7e 3f
       0.9771331 0.99808085 0.9869097 0.9947523
000230 4a 6b 7f 3f 14 46 7d 3f 59 8b 7a 3f 1e 9f 81 3f
       0.99773085 0.98935056 0.9786888 1.0126684
000240 1d 6d 80 3f 63 3d 80 3f 96 76 7d 3f 05 42 80 3f
       1.0033299 1.0018734 0.9900907 1.0020148
000250 29 25 7e 3f 3c a6 79 3f 0f a4 78 3f 85 44 7c 3f
       0.9927545 0.9751928 0.97125334 0.9854205
000260 18 7a 79 3f d5 25 80 3f af 79 81 3f 8d a6 79 3f
       0.97451925 1.0011545 1.011526 0.9751976
000270 de 66 7f 3f 0d c8 7f 3f 83 c2 85 3f dd 5d 7b 3f
       0.9976634 0.9991463 1.0449985 0.981901
000280 30 49 7d 3f 15 65 82 3f 21 a9 75 3f e7 98 7c 3f
       0.989398 1.0187098 0.95961195 0.9867081
000290 63 52 86 3f 37 be 7d 3f fd af 7d 3f bb 22 79 3f
       1.0493892 0.9911837 0.9909666 0.9731862
0002a0 47 48 85 3f 20 57 7b 3f 76 de 79 3f a2 b3 77 3f
       1.0412682 0.9817982 0.97605073 0.9675847
0002b0 1b 4f 82 3f 46 c5 7b 3f 12 5f 7e 3f 7e 96 81 3f
       1.0180391 0.9834789 0.99363816 1.0124052
0002c0 40 d9 77 3f 44 38 7a 3f 33 00 7c 3f 1f cf 76 3f
       0.9681587 0.97742105 0.98437804 0.9640979
0002d0 4b cb 77 3f 0d 34 7e 3f 96 23 80 3f e9 b0 8a 3f
       0.96794575 0.99298173 1.001086 1.0835239
0002e0 f9 42 7d 3f ae e9 83 3f d3 c9 7d 3f 47 20 7c 3f
       0.9893032 1.0305688 0.99136084 0.9848675
0002f0 7f a0 84 3f 2e c0 81 3f c5 70 86 3f e0 b0 87 3f
       1.036148 1.0136774 1.0503165 1.0600853
000300 ab a5 80 3f 56 1e 7c 3f 21 88 82 3f a6 b5 8b 3f
       1.0050558 0.9848379 1.0197793 1.091481
000310 a5 3e 84 3f c2 45 80 3f c2 11 7d 3f d0 ef 7b 3f
       1.0331618 1.0021288 0.9885522 0.984128
000320 1c b8 77 3f ba 75 7b 3f ab 7d 77 3f 4f f3 7e 3f
       0.96765304 0.9822651 0.9667613 0.9959001
000330 1a 86 7d 3f 89 81 7c 3f 67 9a 81 3f 45 39 81 3f
       0.9903275 0.98635155 1.0125245 1.0095602
000340 54 44 76 3f 78 79 80 3f dc 80 78 3f 20 4d 7f 3f
       0.9619801 1.0037069 0.97071624 0.9972706
000350 00 fc 86 3f 00 ff 80 3f 37 ab 80 3f 58 b4 83 3f
       1.0545654 1.007782 1.0052251 1.0289412
000360 e4 04 7f 3f 85 33 80 3f 38 11 7f 3f 35 d8 7b 3f
       0.9961684 1.0015723 0.9963565 0.9837678
000370 8d a8 81 3f 12 59 7d 3f 6f 8d 82 3f f7 12 78 3f
       1.0129563 0.98964036 1.0199412 0.9690394
000380 47 6a 7c 3f 4f 77 7c 3f f1 48 81 3f 89 da 80 3f
       0.98599666 0.9861955 1.0100385 1.0066692
000390 b6 63 80 3f 5d a0 7a 3f 6d b4 7f 3f 1f 43 79 3f
       1.0030429 0.97900945 0.9988468 0.97368044
0003a0 e3 5a 77 3f 66 a0 81 3f b5 ac 7f 3f 4d dd 84 3f
       0.9662306 1.0127075 0.99872905 1.0380036
0003b0 b4 37 82 3f c5 e4 82 3f 06 28 79 3f e7 a1 85 3f
       1.0173249 1.0226065 0.97326696 1.0440034
0003c0 ee 26 88 3f 7b 0d 7e 3f ce 37 7f 3f 57 fa 88 3f
       1.063688 0.9923932 0.99694526 1.0701398
0003d0 82 24 80 3f 1a b4 7f 3f 3e ce 75 3f db 08 84 3f
       1.0011141 0.9988419 0.96017826 1.0315202
0003e0 8d 89 7a 3f 7b 45 7a 3f 96 b9 80 3f 1e 8a 7b 3f
       0.97866136 0.9776227 1.0056636 0.98257625
0003f0 90 39 84 3f 83 c3 81 3f 83 dc 81 3f 7e 2a 7d 3f
       1.0330067 1.013779 1.014542 0.9889296

layers.0.1.bias f4 [256]
000000 2c 20 a6 bc 8d d6 3e bb 25 1a 14 bd 5a 88 1e bc
       -0.020279013 -0.0029119581 -0.036157746 -0.009676063
000010 6f de 97 3d 38 46 e0 bc f0 24 18 bc f3 27 c1 3b
       0.07415473 -0.027377233 -0.00928615 0.005894655
000020 a1 e2 05 bd 8d 2c fe bc 1b 8f f5 bc d4 2f c0 bc
       -0.032686833 -0.031027103 -0.029975465 -0.023460306
000030 de 49 8e bc cb 0b 1d bc 80 01 b2 3c 7e 04 60 3c
       -0.017369207 -0.009585331 0.02172923 0.013672946
000040 62 4b a3 3c d7 d5 51 3d 0e 58 e9 3d e7 7f 3d bc
       0.019933406 0.051229324 0.11393748 -0.011566139
000050 9e 3d 2b bc e4 ac 06 bc 53 05 e2 bc 4b db 88 3c
       -0.010451702 -0.008219931 -0.02759043 0.01670613
000060 e7 cd a3 bd 90 4f 98 bc 3a 73 11 bd ee 51 63 3d
       -0.07998257 -0.018592626 -0.03551028 0.055498056
000070 2c f7 6d bb 84 94 07 3d 09 34 dc 3c 0f 6b a0 3c
       -0.0036310656 0.03310062 0.026880281 0.0195823
000080 90 83 2e 3b 01 0e 85 bc 6f 43 14 bc 75 84 00 bd
       0.002662871 -0.01624203 -0.009049281 -0.03137632
000090 87 3d 76 bc 3c 4c 55 bc 4c 7a d0 3c 36 3d 95 bc
       -0.015029318 -0.013018664 0.02544894 -0.018217664
0000a0 b2 c7 67 bb 43 fd 43 ba fe 92 96 bc 7e 98 c8 3c
       -0.003536683 -0.00074763986 -0.018380638 0.024486776
0000b0 7c 2e c7 3b 96 3a 10 3b ff 64 54 3c 4b 74 6a 3c
       0.0060785394 0.0022007576 0.0129635325 0.014309953
0000c0 3d 14 e0 3b a3 16 ce 3b d3 8b c3 bc 9c 32 91 3b
       0.00683835 0.0062893196 -0.023870384 0.004431082
0000d0 ac fd 14 ba 9a 46 4f bd 50 4b 60 3d a4 ad 19 3c
       -0.0005683552 -0.05060444 0.054759324 0.009379778
0000e0 41 61 09 3d b5 a4 10 bd 0d 4c f2 3c cd 32 1f bd
       0.033540014 -0.035313327 0.02957728 -0.038866807
0000f0 8a 47 88 3d c9 16 65 3c 9c af 12 bd 1a 60 17 3d
       0.0665427 0.013982483 -0.035812005 0.036956884
000100 6a ef b5 bc bb c1 d2 3b 8a 05 2e 3b 4d 8d 67 bc
       -0.022208888 0.006431786 0.0026553595 -0.01413281
000110 99 4e 73 3c 0a b3 1e 3c c6 d9 7c 3b 21 30 bf 3b
       0.014850282 0.009686241 0.0038581952 0.005834595
000120 9b f1 40 bc 80 3f 57 3c 8d ab 2a bb 7e 61 d2 bc
       -0.011776353 0.013137698 -0.0026042194 -0.025681254
000130 31 1b 84 bb df 9e 12 3d c4 e4 7d bc 36 10 bf bb
       -0.004031562 0.035796043 -0.0154964365 -0.00583079
000140 53 92 4c 3c 91 f3 c9 3c 96 04 dc bb 51 5b 92 bc
       0.012486058 0.024652274 -0.006714414 -0.017865809
000150 32 8d ad 3c 8f db 13 bc a2 87 8f 3c 64 67 2a 3c
       0.021185491 -0.009024515 0.01752073 0.010400627
000160 ca 15 9f 3c 5a 18 3c 3d 7a 54 f6 3c 4a 60 c0 bc
       0.01941957 0.04592166 0.030069578 -0.023483414
000170 ac 4b 26 bc 84 85 49 bd 99 a6 c4 3c 25 25 51 3c
       -0.0101498775 -0.049199596 0.024005221 0.012765204
000180 2f 24 12 3d b3 7a 07 bd 57 8f b9 bc 60 37 af 3c
       0.03567904 -0.033076 -0.022651358 0.02138871
000190 54 dc 6e 3c 99 94 f9 bb 31 7e 28 bc d6 bf 9b 3c
       0.0145788975 -0.007616591 -0.010283993 0.019012373
0001a0 51 7e bb bc e4 48 14 3c 65 ce f9 bc c3 3d 7a bc
       -0.02288738 0.009050582 -0.030493924 -0.015273514
0001b0 9e c6 80 3c 4a ca a9 3c 7a a1 e8 bb fa 71 07 bb
       0.015719708 0.020726342 -0.0070993276 -0.00206673
0001c0 0e c2 ae 3d 2f 75 bf bc 7e f0 0f bd a5 90 1a bd
       0.08533107 -0.023371307 -0.03514146 -0.0377356
0001d0 7a 62 29 3c 21 b8 a0 bc cf 48 34 3c 6e 34 b2 3c
       0.01033842 -0.01961905 0.011003687 0.021753516
0001e0 36 33 e6 bb 06 56 0a bc ea 74 c9 3c e2 2a 4a 3d
       -0.007025148 -0.008443361 0.024591882 0.049357302
0001f0 f0 21 48 3d 30 19 bb 3c 7d a4 c0 bc 22 e3 55 bd
       0.04886049 0.022839159 -0.023515934 -0.052218564
000200 6e 73 60 3c e8 5b b5 bc 2e b7 58 bc 74 ed 60 3b
       0.013699396 -0.02213855 -0.013227267 0.003432122
000210 a5 6e 01 3d 4c 1c 4a bd 64 7f 5a bc 79 8f 82 3d
       0.03159966 -0.049343392 -0.013336036 0.063750215
000220 8f 9e 82 bc 2c a7 0a bc ce 9a 23 bd ad 90 95 3c
       -0.015944747 -0.008462708 -0.039942555 0.018257463
000230 15 73 0a 3d f3 39 3c bc 30 03 99 3a 14 cc f7 3b
       0.033801157 -0.011488426 0.0011673924 0.00756217
000240 1b d2 be bb 93 9f aa 3c 4a 1d 99 3a 03 14 c4 bb
       -0.0058233864 0.020828044 0.0011681702 -0.005983831
000250 2e dd 0c bd d2 c3 af bc f4 46 02 bd 25 82 63 3c
       -0.03439062 -0.02145568 -0.031805947 0.013886009
000260 22 e3 25 bc 61 df f8 3b 9a a7 88 3c 62 43 17 bc
       -0.010124953 0.007594988 0.016681481 -0.009232374
000270 27 16 49 3c 02 e8 2d bc 47 c6 d5 3d a7 13 98 3c
       0.012273348 -0.010614397 0.10438209 0.018564058
000280 16 22 de bb 9f c9 65 3d f9 64 51 bc 22 26 4b bc
       -0.0067789657 0.056100484 -0.012780421 -0.012399228
000290 2f 37 48 3d f0 6a e2 bc 54 2c a1 3b 6c 59 05 bd
       0.048880752 -0.027638882 0.0049186144 -0.032555982
0002a0 0d 0a 5a 3d 36 0f 62 3a e7 3c e5 bc da 8b 16 bb
       0.05323224 0.00086234824 -0.027983142 -0.0022971542
0002b0 c0 57 43 3d fb 90 7f 3c 3f c6 90 3b 00 59 11 bc
       0.047691107 0.015598531 0.004418164 -0.008871317
0002c0 cb 61 8f bc 26 5c 2d bb 08 5f 82 bc c8 79 3d bd
       -0.017502686 -0.002645263 -0.015914455 -0.046258718
0002d0 18 c8 e9 bc eb 25 ef 3b 02 26 77 3c ce 47 86 3d
       -0.028537795 0.0072982213 0.015084745 0.065566644
0002e0 ef 2c 31 bc bf dc 6d 3b e6 b5 98 3b b4 fa 10 3c
       -0.010813936 0.0036294905 0.004660356 0.008848835
0002f0 d0 cf 2a 3d 43 c9 c4 3c 8e 07 b1 3d 75 1e 2d 3d
       0.04170209 0.02402175 0.08644019 0.042265374
000300 69 7b 99 3c 3d 0f b2 bc fe 86 03 3d ae 9b bd 3d
       0.018735604 -0.021735782 0.03211116 0.09258209
000310 50 5d 1f 3d 6e b7 8d 3b 40 08 a0 bb 2a 16 e7 bc
       0.03890735 0.004324845 -0.004883796 -0.02820881
000320 5a bf 00 3b 14 34 1f bc a0 02 fa bc cd d4 8c 3b
       0.0019645304 -0.009717006 -0.03051883 0.004297829
000330 b1 49 67 3c 1c 2c 36 bd 68 ce 97 3c 62 a7 11 3d
       0.0141166905 -0.04447566 0.01853104 0.03556002
000340 bc bd da bc 99 83 4f bc 50 e2 9d bc 8c 9d 37 3c
       -0.0267018 -0.012665653 -0.019272953 0.011206996
000350 92 33 4e bb 59 a1 05 3d cd 71 61 3b 13 ad c2 3b
       -0.0031463844 0.032624576 0.0034400106 0.005941042
000360 0b 72 38 3c ee 0a c4 bb cc d7 b6 3a 23 65 4b bc
       0.011257659 -0.005982748 0.001394981 -0.01241425
000370 47 ac b0 bc c2 fc 3d bc e0 40 11 bb 47 4a 12 bd
       -0.021566523 -0.011595907 -0.0022163913 -0.035715368
000380 f8 7b 76 3c 7d 8b 21 3d 99 06 78 bc 04 6c 6d bb
       0.015044205 0.039439667 -0.015138292 -0.0036227712
000390 47 64 3b 3c a9 99 01 bd 2c ee a8 3c 7c d3 22 bd
       0.011437482 -0.031640682 0.020621382 -0.03975247
0003a0 bb 8e 5b bc 75 43 36 3c 60 b4 4f 3b 7c 42 a7 3c
       -0.013400729 0.011124481 0.0031693205 0.020417444
0003b0 09 1f 83 3d e8 45 58 3d a6 7a 95 bb 51 61 52 3d
       0.06402404 0.052801043 -0.00456174 0.05136234
0003c0 00 06 97 3d 6d c0 a0 bc 92 12 cd bc 3b 73 9d 3d
       0.07374191 -0.019623006 -0.02503327 0.07687994
0003d0 d8 3c f2 3c 82 50 00 bb 03 e8 9b bc 32 9e 4b 3c
       0.029570028 -0.0019579236 -0.01903153 0.012427853
0003e0 a5 a2 62 bc a5 60 c0 bc 3b 72 b4 3c 4b 7e de 3b
       -0.013832723 -0.023483584 0.022027126 0.0067899576
0003f0 da e3 6a 3d bc a3 53 3d a6 69 04 3d 13 75 85 3b
       0.057346202 0.05166982 0.032327317 0.004072794

layers.1.0.weight f4 [128, 256]
000000 59 47 2f 3d f4 f4 05 bc 19 28 02 be 13 81 f3 3c
       0.04279265 -0.008176077 -0.12710609 0.029724633
000010 ab 52 07 be 40 4a 97 3d b5 aa 45 3d f4 36 36 3e
       -0.13215129 0.07387209 0.048258502 0.177944
000020 c0 2a 32 bd fc a4 80 bc 5e aa c0 bd 50 f2 4f 3d
       -0.0434978 -0.01570367 -0.09407495 0.050768197
000030 64 b3 42 3b 82 93 44 3d ba b8 7a bb e5 1a 52 bd
       0.0029708976 0.047992237 -0.0038257078 -0.05129518
000040 04 fb 1b 3e 10 f6 92 bd 09 6f 84 3e 28 d3 92 bc
       0.15232474 -0.07175839 0.25865963 -0.017922953
000050 e2 0a 33 3c 2d db b5 bc cf a8 f4 3c bc c0 a3 3d
       0.010927888 -0.022199238 0.02986565 0.079957455
000060 70 1b 88 3d aa 66 3f bd 3f b9 8e bd ce 1b 08 3e
       0.06645858 -0.046728767 -0.06968927 0.13291857
000070 d9 72 ab 3d 30 24 c7 3c 4c 22 26 bc 5e 86 1e 3d
       0.08371515 0.024309248 -0.010140013 0.03870236
000080 34 04 09 3c c1 40 e4 3c ed 20 06 3e f3 9f 44 3c
       0.0083628185 0.027862908 0.13098498 0.0120010255
000090 a4 b2 a3 bc a9 13 3f be ac 25 9c 3d 3a 91 41 3b
       -0.019982643 -0.18659844 0.07624373 0.0029536025
0000a0 13 96 1b 3e dd 0b bb bd fc 78 81 bd cb c7 fa bc
       0.15193968 -0.09133122 -0.06321904 -0.030612847
0000b0 d4 5f 02 3e 39 1c 41 3d 21 43 f1 3c 58 22 97 bd
       0.12731868 0.047146056 0.029450955 -0.073795974
0000c0 26 54 00 3e ed d0 3a be f5 ad 0f 3e 28 77 5d 3d
       0.125321 -0.18243761 0.14031203 0.054068714
0000d0 02 1f 1e 3c ee 12 ba bd 61 7b 87 bd 76 89 30 bc
       0.0096509475 -0.09085642 -0.066153295 -0.010774961
0000e0 21 a4 34 bd 42 47 31 3d 4f bd 60 3c a8 2a 31 3d
       -0.044101838 0.043280847 0.01371701 0.04325357
0000f0 c4 a7 ed bd 49 d1 86 3d 32 70 fe bd 35 98 20 3e
       -0.116042644 0.06582887 -0.12423743 0.15683062
000100 b4 9d 7b bd 9f 8f e8 3c 51 32 ba bd 0e be 02 3e
       -0.061429694 0.028388796 -0.09091628 0.12767813
000110 49 ac 04 3e 11 fb 39 bd cf 78 17 ba b0 9b f9 bd
       0.12956347 -0.04540545 -0.0005778195 -0.12187898
000120 c3 39 03 3d b7 31 e0 bd 3e 52 9b 3d 9c a6 1a bd
       0.032037508 -0.10946982 0.07584046 -0.037756547
000130 48 e5 35 be f5 a5 b4 3d c9 09 75 bd 11 48 bb 3d
       -0.17763245 0.08820716 -0.059823785 0.09144605
000140 66 50 8b bd 21 7b a5 3d 8d 17 04 bd 40 fb f8 3d
       -0.06802444 0.080801256 -0.032249022 0.12157297
000150 40 c9 48 bb 77 91 0a 3e ca e7 e7 bb 4c fb 28 bc
       -0.0030637532 0.13532053 -0.007077192 -0.01031382
000160 5e 2d d3 3d 02 38 cb bd 63 10 e0 3c b1 46 02 bd
       0.103113875 -0.09922792 0.027351564 -0.031805698
000170 9a 5d de 3d 46 27 0b bd 95 5a b8 bb 2e 6b da bc
       0.10857697 -0.033973 -0.0056260326 -0.026662435
000180 d5 92 f4 bd 98 a4 07 bd 5d d7 c8 bd 1c 1e 09 3e
       -0.119420685 -0.033115953 -0.09806702 0.13390392
000190 25 a5 31 3e 87 58 02 3e 15 36 39 3c 56 81 48 3d
       0.17348154 0.12729083 0.011304398 0.04895147
0001a0 ca a8 d2 3d f9 97 bf 3d 52 a8 db 3c ba 04 0b 3e
       0.102861 0.09355158 0.02681366 0.13576022
0001b0 7e d2 ed 3c 17 12 86 3d 50 a8 82 bd 03 50 fa ba
       0.029031035 0.06546419 -0.06379759 -0.0019097332
0001c0 29 d4 17 be ac 8c 92 bd 52 48 85 3c 52 aa 0b 3e
       -0.14827026 -0.07155737 0.016269837 0.13639191
0001d0 5a 26 dd 3b eb b3 20 3e ef cd d1 bd a8 ad 0f 3d
       0.0067489566 0.15693633 -0.10244357 0.03507772
0001e0 bb 92 dc 3d 19 31 0f bd 8a 6f e1 bd a5 18 8e bc
       0.10770174 -0.034958933 -0.110076025 -0.017345736
0001f0 8a 74 26 3c f4 da 02 3c a4 d0 ed 3c 49 5e c7 bb
       0.010159621 0.007986773 0.029030152 -0.0060842377
000200 38 35 54 3c 0b cc 92 bd 9f ed 93 bd 47 c6 36 3b
       0.012952141 -0.07167824 -0.07223057 0.0027889179
000210 55 46 68 bd 7f 19 3d 3d 0e b3 97 3c 9c a1 39 bd
       -0.0567077 0.046166893 0.018517997 -0.04532014
000220 c9 0f 80 bd e3 f4 af bd 66 a8 dd bd e0 3b d5 3c
       -0.06253011 -0.0859163 -0.10823135 0.026029527
000230 18 fb 9f bb 1e f8 08 be 5b 73 8c 3c 22 d2 15 3c
       -0.0048822276 -0.13375899 0.01714485 0.009144338
000240 77 a7 48 bd 69 db ea 3c 21 4b f9 bd df 7e fa bd
       -0.048987832 0.028669076 -0.12172533 -0.1223123
000250 7c cc 33 bd ba 81 24 3c 7f f0 cb 3d ba d9 1a be
       -0.043896183 0.010040695 0.0995798 -0.15122119
000260 fa 38 a2 bd cf b7 38 bd 69 da 96 be 22 57 13 3d
       -0.07921024 -0.04509717 -0.2946351 0.03597177
000270 9d aa 0c be c5 5b 19 3e ab 91 18 3e 94 5b f9 3c
       -0.13736959 0.14976414 0.14899318 0.030439176
000280 03 df 28 bd 53 90 e7 3d 6d f6 ef bd 0a 8c 36 be
       -0.041228306 0.113068245 -0.11716924 -0.17826858
000290 07 42 99 3d 22 5d cc 3d 17 6d ff 3d c0 01 fb 3d
       0.07483297 0.09978701 0.12471979 0.12256193
0002a0 a5 13 49 3d 55 8f ad 3c 76 f2 ab bd b4 f7 f5 bd
       0.049091 0.02118651 -0.08395855 -0.12010136
0002b0 e1 3d d5 bd f0 12 74 3c 41 ce 1a be 92 a3 ca b9
       -0.10412193 0.014897093 -0.15117742 -0.00038650312
0002c0 9e 0c 92 bd cb 8c bc bd dd 21 9f bd 9a 10 93 3b
       -0.07131313 -0.09206542 -0.07770131 0.004488063
0002d0 04 dc 21 3e e7 f1 d7 3c ec b8 a6 bc 7c 06 85 bd
       0.15806586 0.026360465 -0.02035185 -0.064953774
0002e0 a8 4c 58 be 20 42 06 3e 64 1c 66 3c 06 5b 68 3d
       -0.21122992 0.13111162 0.014044855 0.05672743
0002f0 bd d2 51 3d a1 80 59 bd a8 d2 00 be cf 59 46 3d
       0.051226366 -0.053101186 -0.12580359 0.048425492
000300 0e 27 14 be eb d2 fa bd f5 0f 9b bd 8c 8b 82 bd
       -0.14468023 -0.12247261 -0.07571403 -0.06374273
000310 59 6f 1e 3d 7a b6 34 3d 3e 4d 02 3a 6f c2 37 3e
       0.03868041 0.044119336 0.00049706164 0.17945264
000320 4d b1 0b be b9 19 00 be ac 9e 8e be 89 ea d8 bd
       -0.13641854 -0.12509812 -0.27855432 -0.10591609
000330 b6 a5 a5 3d 0a c4 19 3e 23 0b a3 bd 3d 3e e4 3d
       0.080882475 0.15016189 -0.079611085 0.111446835
000340 e9 12 44 bd 4e 37 0e bd 9d e3 09 3d a0 b3 d9 3d
       -0.047869597 -0.03472071 0.033664335 0.10629964
000350 64 79 12 3d 77 60 bb 3d 29 23 bc bd 05 a0 33 3b
       0.0357603 0.091492586 -0.09186394 0.0027408611
000360 ae 8a ac bd d3 c0 5a bc 58 4d 2b bd 28 81 55 bd
       -0.084248886 -0.013351637 -0.041821808 -0.052125126
000370 e7 94 56 bd f3 e5 85 3a d6 4d 5f be aa f1 32 be
       -0.052388098 0.0010215625 -0.21807036 -0.17475
000380 0d a3 ab 3d ba d5 e1 3c 80 a9 69 bd c7 83 69 3c
       0.08380709 0.027567733 -0.057046413 0.01425261
000390 ff 4b d0 bd 40 f1 5f bd 2d 48 1c be 52 b5 e6 3c
       -0.10170745 -0.054673433 -0.15261908 0.028162632
0003a0 33 46 0a be 96 e8 13 be a5 a9 b7 3d fc de 8f bd
       -0.13503341 -0.14444193 0.08967904 -0.07024953
0003b0 8c ee ce 3d 33 68 b2 3d c7 92 2d 3e de c9 41 3d
       0.10104093 0.08711281 0.16950522 0.047311656
0003c0 c3 64 c2 bc 72 da 95 3d 0f 00 a4 bc 6e de ba bd
       -0.023729688 0.07317056 -0.02001956 -0.09124456
0003d0 c8 91 c4 b8 b0 3f 81 bd 68 80 1a 3e 14 6b 3e be
       -9.373162e-05 -0.063109756 0.15088046 -0.18595535
0003e0 44 f3 38 bc 0d e8 42 3d be 9f 9a 3d 1b f0 8b bd
       -0.011288468 0.047584582 0.0755 -0.06832906
0003f0 eb a8 7b 3d f7 4a 1d 3e d4 95 0e bd 00 32 bd 3d
       0.06144039 0.15360628 -0.034810856 0.09238052

layers.1.1.weight f4 [128]
000000 a6 66 7d 3f c0 0d 83 3f 19 0a 84 3f 39 f3 82 3f
       0.98984754 1.0238571 1.0315582 1.0230476
000010 e5 6d 81 3f ad 40 7a 3f 9f 46 7a 3f ab 86 78 3f
       1.0111662 0.9775494 0.9776401 0.97080487
000020 a1 a0 89 3f cb 07 7e 3f 17 7a 84 3f ec ed 7d 3f
       1.0752145 0.9923064 1.0349759 0.99191165
000030 58 aa 82 3f da 8a 80 3f 21 33 79 3f c6 ca 83 3f
       1.0208235 1.0042374 0.9734364 1.0296257
000040 49 0c 7c 3f 6b 97 7b 3f a3 9a 76 3f 5f 73 79 3f
       0.98456246 0.9827792 0.96329707 0.9744167
000050 0f e4 7e 3f 17 81 7d 3f 64 b4 7e 3f 01 2c 76 3f
       0.9956674 0.990251 0.99494004 0.96160895
000060 4f 89 7c 3f 88 0d 77 3f 06 5b 7e 3f 37 f4 79 3f
       0.98647016 0.9650502 0.9935764 0.9763827
000070 cf 2f 80 3f a6 ac 7e 3f 10 3c 81 3f 13 a2 74 3f
       1.001459 0.9948219 1.0096455 0.95559806
000080 e0 c4 75 3f db eb 75 3f 4f 26 7f 3f c9 19 7b 3f
       0.9600353 0.9606301 0.9966783 0.9808622
000090 e4 35 7e 3f fa 4a 81 3f fb fe 80 3f 31 ce 81 3f
       0.9930098 1.0101006 1.0077814 1.014105
0000a0 82 e3 7b 3f e1 0f 84 3f d2 fe 7a 3f 56 76 85 3f
       0.98394024 1.0317346 0.98045075 1.0426738
0000b0 ce f1 7c 3f ed 81 7f 3f eb cc 7d 3f 68 fd 80 3f
       0.98806465 0.99807626 0.99140805 1.0077333
0000c0 86 7d 7c 3f 5f 93 7b 3f b6 ca 8b 3f 6e 30 7f 3f
       0.98629034 0.98271745 1.0921237 0.9968327
0000d0 2b d6 7d 3f 7b 30 81 3f 3e 8d 80 3f c6 74 80 3f
       0.9915492 1.009292 1.0043104 1.0035636
0000e0 b1 48 7f 3f 9c 33 81 3f 40 fb 7b 3f b1 df 82 3f
       0.99720293 1.0093875 0.9843025 1.0224515
0000f0 04 d9 7e 3f 7c a8 7b 3f ef 27 7d 3f b8 92 79 3f
       0.9954989 0.9830396 0.9888906 0.974895
000100 bc 9b 81 3f ae 1e 7e 3f 00 18 8b 3f 51 a4 7a 3f
       1.0125651 0.99265563 1.0866699 0.97906977
000110 53 a7 7f 3f 8e e5 7d 3f bb cb 80 3f 88 bf 85 3f
       0.9986469 0.991784 1.0062174 1.0449076
000120 51 cf 78 3f 97 7c 7d 3f 53 dc 81 3f e5 cb 7a 3f
       0.9719134 0.99018234 1.0145363 0.9796737
000130 6a e4 82 3f c7 da 7e 3f 56 87 7b 3f 36 41 79 3f
       1.0225956 0.9955258 0.9825338 0.9736513
000140 a5 ad 7a 3f 66 bd 79 3f 33 63 82 3f bd af 7c 3f
       0.9792121 0.97554624 1.0186523 0.98705655
000150 8d 6c 72 3f 30 72 80 3f 58 46 73 3f 0f 83 84 3f
       0.94696885 1.0034847 0.9502921 1.0352496
000160 fd 8d 7c 3f 35 77 87 3f 88 74 73 3f e6 bf 80 3f
       0.98654157 1.0583254 0.9509969 1.0058563
000170 3d 2d 81 3f de 5f 82 3f 5a c8 7a 3f ca 35 78 3f
       1.0091931 1.0185506 0.9796196 0.96957076
000180 e5 d1 7d 3f 8f 96 80 3f ba 02 7a 3f 14 a6 7c 3f
       0.991484 1.0045947 0.9766041 0.98690915
000190 d5 f8 83 3f a1 1f 85 3f 78 b2 82 3f 7d 9a 82 3f
       1.0310313 1.0400277 1.0210714 1.0203396
0001a0 2d b7 80 3f cb b4 80 3f cc a3 7e 3f 55 32 81 3f
       1.0055901 1.0055174 0.99468684 1.0093485
0001b0 4e 1c 82 3f c2 ec 7f 3f d4 c0 78 3f 26 94 84 3f
       1.0164888 0.9997064 0.9716923 1.0357711
0001c0 3a 21 7b 3f ed 09 7d 3f dc 90 83 3f 80 02 75 3f
       0.98097575 0.9884327 1.0278583 0.9570694
0001d0 75 7a 80 3f 39 67 7d 3f 37 d9 7e 3f 7f 28 7d 3f
       1.0037371 0.9898563 0.99550194 0.9888992
0001e0 6b ee 7e 3f fd 50 7a 3f 5b fd 77 3f 59 60 76 3f
       0.99582547 0.9777983 0.96870965 0.96240765
0001f0 6f 06 80 3f 2d f3 7e 3f 8f 65 76 3f 49 df 7e 3f
       1.0001963 0.99589807 0.96248716 0.99559456

layers.1.1.bias f4 [128]
000000 92 58 47 3b 10 a9 5e 3c 0c 38 5b 3c 7d ae 77 3c
       0.0030417782 0.013590112 0.013380062 0.015117285
000010 11 f7 b9 3b 41 db 37 bc 95 2f c7 ba a2 76 a3 bc
       0.0056752046 -0.011221708 -0.0015196676 -0.01995403
000020 f2 b7 33 3d d9 08 c3 3b a4 66 0e 3c b6 4b 82 bc
       0.043876596 0.0059519825 0.008691464 -0.015905242
000030 c5 37 17 3b 93 fa 3f 3b 8a f4 4f bd 93 94 8c bc
       0.0023074013 0.002929364 -0.05077032 -0.01716069
000040 72 28 c9 bc 1a 2c 3d bc 85 96 f1 bc da 34 07 bd
       -0.024555419 -0.011546159 -0.029490719 -0.033009388
000050 ea 0c 61 bc 72 6b 5a bd 8e e3 dd 3c b7 73 b3 bc
       -0.013735989 -0.053325124 0.027086046 -0.021905763
000060 90 09 01 bd de 47 20 bd f1 45 91 3c 75 d6 03 bc
       -0.03150326 -0.039131038 0.017733546 -0.008046736
000070 4d cc bc bb cc c3 c4 bb e5 39 57 3c 36 b5 ee bb
       -0.0057616592 -0.006004786 0.013136362 -0.0072847856
000080 ce 7e bd bc 37 37 25 bc 08 cd 02 3b fb ab d0 bc
       -0.023131754 -0.010083965 0.0019958634 -0.025472632
000090 52 5d 8d 3c 52 ff da ba 7a 76 c0 b9 88 9b b7 3c
       0.017256413 -0.0016708171 -0.00036709366 0.02241303
0000a0 d4 72 8b 3b e2 76 da 3c 75 ab 89 bc 47 bc df bb
       0.004255632 0.026668016 -0.01680539 -0.0068278643
0000b0 f4 26 b6 3b 90 3a 70 3c f7 c4 83 3c 0e 4b 0d 3c
       0.005558843 0.0146624 0.016085131 0.008623851
0000c0 f6 a5 bc bb c2 e0 4b bb a9 e5 8d 3d 24 a1 97 3c
       -0.005757089 -0.0031109308 0.0692857 0.018509455
0000d0 84 da aa b9 3d 22 72 3c dc 5d 63 3b 73 61 b6 bb
       -0.00032587734 0.014778671 0.0034693396 -0.005565816
0000e0 89 1f 75 bc 02 f2 a3 3c a9 a2 30 bc 56 26 f2 bb
       -0.014961132 0.02001286 -0.010780969 -0.007389824
0000f0 ec ea 1d bb 48 17 e0 bc 55 cd c5 bc be 4f 03 bd
       -0.0024096323 -0.027354851 -0.024145762 -0.03205847
000100 58 f4 95 3c 23 be 8f 3b 0e 3e 93 3c 7b 50 07 3c
       0.018304989 0.0043866797 0.017973926 0.008258934
000110 f0 52 01 3b 75 39 3c bb 14 41 dd 3b e6 40 b3 3c
       0.0019733272 -0.002872077 0.0067521427 0.021881532
000120 ff c5 43 bc 03 81 6f ba 40 e5 92 ba b6 5d bc bc
       -0.011949061 -0.0009136351 -0.0011207238 -0.022993904
000130 7e c6 18 bc e2 ac 71 bc 0a b7 a6 bb 17 17 ea ba
       -0.009324668 -0.014750691 -0.005087738 -0.0017859665
000140 71 9c 37 bc 93 18 f2 3a b8 ec 95 3c 1b c8 b2 bb
       -0.011206732 0.0018470458 0.018301353 -0.0054559833
000150 cf 46 ad bc cf 4b a0 bc c7 20 1a bd f0 4b 8b 3d
       -0.021151928 -0.019567398 -0.037628915 0.06801593
000160 7c 52 8f bc f5 bf 41 3d 5a 74 9d bc 6b 85 ea 3c
       -0.017495386 0.047302205 -0.01922052 0.028628072
000170 90 c3 87 3c 68 d0 d8 3a 8f e1 27 bc 24 2b 37 bc
       0.016572744 0.0016541602 -0.010246648 -0.011179719
000180 9a c6 9a bc 8c 49 9d 3b 02 73 55 3a e0 d5 9d ba
       -0.018893529 0.0048000272 0.00081424427 -0.0012041889
000190 e6 31 15 3c 54 d6 9a 3c ff b3 df 3b 06 55 48 bb
       0.009106135 0.018901028 0.006826877 -0.0030568256
0001a0 35 df c8 3c fc d5 bf 3c c9 63 b0 bb 32 2a 6d bc
       0.024520496 0.023417465 -0.005382989 -0.014475392
0001b0 d4 3e 92 3c 6f 1b 16 bc db ae 9a bc b8 22 8f bc
       0.017852224 -0.009161814 -0.018882206 -0.01747261
0001c0 ac 9a 20 3c 5b e5 fb bb 9a cc 9e 3c dc dd 49 bd
       0.009802502 -0.0076872534 0.019384671 -0.049283847
0001d0 f0 bb 32 3c 79 a4 78 bc 1c 5f 9d 3c 29 bb dc bc
       0.010909066 -0.015175932 0.01921039 -0.026944714
0001e0 83 8b 05 bc 3c 02 eb bc 0e 5b e0 bc a9 75 d9 bc
       -0.008150938 -0.028687589 -0.027387168 -0.026545363
0001f0 0d 18 98 b9 e8 98 5a bb 41 a2 dc bc 7c 22 a6 bb
       -0.00029009618 -0.00333553 -0.026932837 -0.005070029

layers.2.0.weight f4 [64, 128]
000000 c1 b8 04 3e 1f 0a bc 3c 33 e7 d5 bd 82 bf a1 3d
       0.12961103 0.022954045 -0.104444884 0.07897855
000010 44 3d a7 bd f1 de 68 be 73 a3 39 be 8b 34 73 3c
       -0.08165982 -0.22741295 -0.18128757 0.01484407
000020 9e e0 6a be 22 25 b1 bc ca ce 80 be 38 5d 87 bd
       -0.22937247 -0.021624152 -0.25157768 -0.06609577
000030 b5 fb c9 bd 85 ed ac 3d 7a 5f ab 3e 60 fa 3c bd
       -0.098624624 0.08443741 0.3347128 -0.046137214
000040 9b d7 7c 3c cb 0b 0d be d7 e0 2e 3e 3d ae 27 3b
       0.015432264 -0.1377403 0.17077957 0.0025586032
000050 97 ea 05 3d 06 79 56 be 59 18 a1 bd 03 07 94 3c
       0.032694425 -0.20944604 -0.07865972 0.01806975
000060 aa 23 39 3e e3 85 a2 3d f6 98 25 3d af 29 01 bd
       0.18080011 0.07935693 0.040429078 -0.031533893
000070 6f a4 99 be 3b 20 60 bb 44 fd 27 3e aa 56 d8 3d
       -0.30008265 -0.0034198898 0.16405207 0.10563405
000080 a0 fc 3b bd 69 a0 67 bd 60 4a 65 bd a4 1a 4a 3e
       -0.04589522 -0.056549463 -0.055979133 0.19736725
000090 7b 2c ce bd 6d e2 f9 bd c4 68 99 bd b5 90 74 bd
       -0.10067078 -0.122013904 -0.074906856 -0.059708316
0000a0 c6 87 e0 3d 4e 2a 4d bb 73 a1 2d 3e f1 fd ce 3d
       0.10963397 -0.0031305733 0.16956119 0.10107029
0000b0 d5 ff 89 bd c6 4f 56 be 80 1c 34 bd 63 d0 08 3e
       -0.06738249 -0.20928869 -0.043972492 0.13360743
0000c0 9c 06 30 be 9a 35 67 3b 91 a1 d0 bd b7 1b 85 be
       -0.17190021 0.0035279752 -0.10187066 -0.25997707
0000d0 0d e2 3e 3e f7 4a 98 bc 70 50 6f be ad d7 a5 bd
       0.18640919 -0.018590434 -0.23370528 -0.080977775
0000e0 f5 10 a6 bd 2f 1f 28 be 48 63 32 be c3 eb da bc
       -0.08108703 -0.16418146 -0.17420685 -0.026723748
0000f0 d0 51 c0 3d f7 c7 b4 3c 79 0e d9 3d d6 0b 2d 3d
       0.093906045 0.022068007 0.105984636 0.042247616
000100 a9 4a db bd be 9e 63 be 86 a5 74 bd 3c 07 7b 3e
       -0.107076 -0.22228524 -0.059728168 0.24514478
000110 97 1c 88 be 28 6f 3a be ac 3d 85 3d 49 b1 f4 bd
       -0.26584312 -0.18206465 0.065059036 -0.11947877
000120 90 a3 47 3c 48 d9 4f be c9 8e 26 3e c4 58 97 3d
       0.012184992 -0.2029773 0.16265406 0.073899776
000130 c8 e6 08 3e 10 a4 1c 3c 33 55 3f 3d 48 1d af 3d
       0.13369286 0.0095606 0.04671211 0.08550507
000140 bf 85 f6 3d f9 34 e4 bd 60 a2 22 be 1b ad 93 bd
       0.12037229 -0.11142916 -0.15882254 -0.072107516
000150 5a a6 14 be 6a d6 9f 3d cd 94 0d bc f8 a2 a1 3d
       -0.14516583 0.07804568 -0.008641434 0.07892412
000160 96 37 20 be 14 ea 92 bb fd 59 5d 3e 8c 8b c8 b8
       -0.15646204 -0.0044834707 0.21616359 -9.562736e-05
000170 22 32 0e bd dc 0e 1c be 2c 94 71 3c d2 68 13 be
       -0.03471578 -0.15240043 0.0147448 -0.14395455
000180 6f 4b 88 3e a9 d0 cd 3b 2e 6d 94 3d ff 93 81 bc
       0.2662005 0.0062809777 0.07247387 -0.01581764
000190 02 14 61 be 03 fb b6 bd 66 6a 87 bd 76 b9 66 3d
       -0.21980289 -0.089345954 -0.06612091 0.056329213
0001a0 75 8a 26 be 7c 70 38 be 87 6a 54 bd b9 94 34 bd
       -0.16263755 -0.1801166 -0.051859405 -0.044087145
0001b0 e7 8a ee 3c 07 84 bd bc 95 67 45 3d 4f e9 3d 3e
       0.029118968 -0.023134245 0.048194487 0.18546031
0001c0 ed bf 8e be 56 4c 23 be be a8 96 3e da 1e 65 3d
       -0.27880803 -0.15947089 0.29425615 0.055937625
0001d0 c0 14 9b 3e ee 4e c6 3c 52 27 dc bd 98 a6 67 3d
       0.30289268 0.024207558 -0.10749687 0.05655536
0001e0 65 9d 00 be 95 20 33 3d b3 ed 79 3e 66 23 03 bd
       -0.12560041 0.043732245 0.24407081 -0.03201618
0001f0 ec 22 07 be c5 03 18 be 6f f5 f1 bc fd 61 94 bd
       -0.13196915 -0.14845188 -0.029535977 -0.07245252
000200 cf da b9 be d8 fd 27 be 62 a5 c2 bd 9e 5d 62 3d
       -0.3629975 -0.16405427 -0.095042005 0.05526506
000210 47 e7 1b 3e b5 b7 57 3c 36 4a f4 3d fe 84 a1 3b
       0.15224944 0.013166358 0.11928217 0.004929184
000220 dd d7 f6 3d 3b 9c b6 3d d7 ad 96 be b8 63 59 be
       0.120528914 0.08916517 -0.29429504 -0.21229446
000230 0b 5b a4 bd 93 c3 36 be e0 dc ca 3b e1 65 2d be
       -0.080251776 -0.17848043 0.006190881 -0.16933395
000240 1e 2e 31 be 9f 4c 9f 3d 44 b3 34 be ff 42 af bc
       -0.17302749 0.07778286 -0.1764651 -0.02139425
000250 0a 51 16 be f3 05 e7 bc 25 b8 80 bd 13 05 75 be
       -0.14679351 -0.028201079 -0.06285123 -0.23927717
000260 3f 8f f5 bd f1 ba a9 bd 3d f1 29 3e 7a 35 41 3e
       -0.11990213 -0.08287609 0.16595931 0.18868056
000270 52 3c cf 3a 8a e6 05 3e be c4 82 bd ba ea f7 3c
       0.0015810824 0.13076225 -0.06385182 0.030263294
000280 07 d2 e6 bd 63 7c 11 3e 62 f9 91 3e c9 ce 8b bc
       -0.11270528 0.14207606 0.28510576 -0.017066376
000290 0e 3f 4e bd 16 82 af bd 45 cb 21 bd f3 84 84 3d
       -0.050353102 -0.08569734 -0.039500494 0.064706706
0002a0 cb 92 69 be 45 06 10 3d 02 a7 cd bd a6 58 a9 bc
       -0.22809903 0.03516223 -0.1004162 -0.020672154
0002b0 dc 53 09 bd 63 1c 49 3e 76 3e f0 3d 1a 7f 48 bd
       -0.03352724 0.19639735 0.117306635 -0.04894934
0002c0 0f c3 26 3e de ca 2d be d7 d8 d1 bc d4 69 e9 3d
       0.16285346 -0.16971919 -0.025616093 0.11397138
0002d0 7a 2a d4 3c d2 7f 96 3d 25 e3 35 3d e6 0a 94 be
       0.02589916 0.073485985 0.044406075 -0.28914565
0002e0 32 d2 2a bb fd b3 97 3e e0 da 70 bd fc 3d 42 bc
       -0.0026065228 0.29629508 -0.058802485 -0.011855599
0002f0 3a 3e 84 be 3d 77 02 be 58 f7 2b bd c7 b2 9f 3c
       -0.25828725 -0.12740798 -0.041983932 0.019494427
000300 af 83 14 3b 02 49 b8 3d e5 46 1e bd d4 3e 98 3e
       0.0022661497 0.089983 -0.03864183 0.29735434
000310 12 ed 9b 3d e9 47 91 3c 43 26 91 bd 85 5a 9b bc
       0.07613577 0.017734485 -0.07087376 -0.018964062
000320 bb 33 a0 bd 1d 10 cf bd 2e dd 89 3d d4 c4 05 3e
       -0.07822367 -0.10110495 0.0673164 0.13063365
000330 ac 17 b8 bd 0e 2f d2 bd c6 d6 fd bd cd b6 da 3d
       -0.0898889 -0.10262881 -0.123944804 0.10679398
000340 0a 20 14 3e 70 0a 41 3e 54 d9 0b 3d 85 68 24 be
       0.14465347 0.18851638 0.034142807 -0.16055496
000350 59 af 4a be 2e e3 bf 3d ea 5c 83 3e 70 42 b1 bc
       -0.19793452 0.09369503 0.25656825 -0.021638125
000360 22 11 11 3c 54 3b 2e 3e 20 af 1d 3d 3e 26 a6 3c
       0.008854182 0.1701482 0.03849709 0.020281907
000370 9e f8 9d bd 8f 8f 03 bd 58 88 a4 3d 6e 5a 00 3e
       -0.077134356 -0.03211933 0.08033818 0.12534496
000380 c1 04 1f 3e 3d 40 0d 3e a3 1e e6 bc 86 d5 53 3e
       0.15529157 0.13794036 -0.02809078 0.20686921
000390 ba 5d 1f be e1 7d 12 be 35 db 89 3c 45 bc 45 3d
       -0.15563098 -0.14305831 0.016828159 0.04827525
0003a0 27 74 24 bd 0d 45 70 3b 1d ca dd bd 54 a1 85 3d
       -0.040149834 0.0036662251 -0.10829566 0.065249115
0003b0 a3 ae 20 be 94 68 f2 3d de eb ff 3c 02 3b cd bd
       -0.15691619 0.11836353 0.0312404 -0.100210205
0003c0 63 2c 99 bd 15 2d 69 3d f0 0b e9 3c 68 4f 45 3d
       -0.07479169 0.05692776 0.028448075 0.04817143
0003d0 76 71 d8 bd b8 0f 48 3d b1 10 27 3c 14 ab 8a bd
       -0.10568516 0.048843116 0.010196851 -0.06770912
0003e0 85 9c 21 3e 2e 30 f0 3d ce 2e 12 be bd 38 93 3d
       0.15782364 0.117279395 -0.14275667 0.07188556
0003f0 35 7c ad be 40 ff 0e be 6c 72 1a 3d b2 50 0a be
       -0.33883825 -0.13964558 0.037706777 -0.13507345

layers.2.1.weight f4 [64]
000000 a9 04 75 3f c3 69 78 3f 2c b3 7d 3f 5e 88 81 3f
       0.95710236 0.9703638 0.9910152 1.0119741
000010 47 d1 7a 3f 28 75 7c 3f d6 c9 7e 3f 5c ea 81 3f
       0.9797558 0.98616266 0.9952673 1.0149646
000020 3c ec 79 3f da 99 7a 3f 8f 25 7c 3f 08 6b 7f 3f
       0.9762609 0.9789101 0.9849481 0.9977269
000030 b7 7a 80 3f e1 3c 78 3f 74 4a 80 3f a3 33 7f 3f
       1.003745 0.96967894 1.0022721 0.99688166
000040 f2 8c 8b 3f 31 1d 7d 3f 39 af 82 3f 09 c4 82 3f
       1.0902388 0.9887267 1.0209724 1.0216075
000050 c3 8d 7d 3f ef 4d 80 3f a1 51 6d 3f 6f 44 84 3f
       0.99044436 1.0023783 0.9270268 1.0333384
000060 7b 40 77 3f fc 78 7d 3f 40 c5 7a 3f c6 dd 82 3f
       0.96582764 0.9901273 0.9795723 1.022393
000070 4e b1 7e 3f 32 a3 6c 3f 5a 4b 77 3f 4f 76 77 3f
       0.99489295 0.92436516 0.9659935 0.966649
000080 ec cc 7c 3f 33 80 7f 3f aa a4 7e 3f e2 9f 7b 3f
       0.98750186 0.9980499 0.9947001 0.98290837
000090 ec 9a 7a 3f 15 b4 83 3f c0 d1 81 3f 1e ad 7c 3f
       0.9789264 1.0289332 1.0142136 0.98701656
0000a0 14 68 7e 3f 34 f1 7b 3f dd 05 80 3f 7d bc 82 3f
       0.9937756 0.9841492 1.0001789 1.0213772
0000b0 6c ae 82 3f 69 ce 85 3f 65 48 7e 3f f3 09 7b 3f
       1.0209479 1.0453616 0.99329215 0.98062056
0000c0 b4 d4 7d 3f 8a 4b 84 3f df a3 7a 3f ec 91 84 3f
       0.99152684 1.0335553 0.979063 1.0357032
0000d0 db bc 7e 3f 8c 6c 7e 3f 5c b5 85 3f 2e 5b 86 3f
       0.9950692 0.9938438 1.0445971 1.0496576
0000e0 b4 db 77 3f 52 40 7e 3f 13 c9 7a 3f ee 85 7a 3f
       0.96819615 0.99316895 0.97963065 0.9786061
0000f0 3c 5c 85 3f aa e5 7b 3f 18 da 82 3f 1d 5d 87 3f
       1.0418773 0.98397315 1.0222807 1.0575291

layers.2.1.bias f4 [64]
000000 3e ae 20 bd bb ee 9d bc b0 0a 14 3c 4e ff 2c 3d
       -0.03922867 -0.019278875 0.009035751 0.042235665
000010 08 d2 5e bc a8 5d 80 3c 28 7d d1 bc 2d b4 a7 3b
       -0.01359988 0.015669659 -0.025572374 0.005117914
000020 d6 93 56 bc 75 34 a6 bc cd 86 93 bc 38 af 06 bc
       -0.01309677 -0.020288685 -0.018008614 -0.008220486
000030 25 24 e5 bb c5 58 15 bd 35 98 89 ba c1 1a 9a 3a
       -0.006992834 -0.03646161 -0.0010497632 0.0011757241
000040 f6 30 45 3d 50 f5 82 3b 97 e3 0b 3d f3 9e e0 3b
       0.048142396 0.0039965287 0.034152593 0.0068548857
000050 a7 22 93 bc 44 ba 3b bc 29 bb 7b bd f2 97 7c 3c
       -0.01796086 -0.011457983 -0.061457787 0.015417086
000060 db c0 47 bc 42 b2 8f bb e2 5b ba bb c8 bc 52 bc
       -0.012191976 -0.0043852637 -0.005687223 -0.012862392
000070 80 82 1a 3a 71 69 5c bd 75 c8 86 bc e3 33 39 bd
       0.000589408 -0.053811494 -0.016453007 -0.0452155
000080 e0 b3 a8 3b 7b 72 eb 3c 2a 90 c5 bb b4 df 08 bd
       0.005148396 0.028741112 -0.0060291486 -0.033416465
000090 cc e5 6e bc 99 14 0a 3d 8e 12 e7 3c 8a c1 22 3c
       -0.014581155 0.03371105 0.02820709 0.009933839
0000a0 4b d7 dc bb 5c b0 bc bc 20 f6 e9 bb 5a 16 a6 3b
       -0.006739532 -0.023033313 -0.007139936 0.0050685825
0000b0 18 3a ae bb eb 12 be 3c f3 6a cf ba 8e a4 db bc
       -0.005316984 0.02320238 -0.001582472 -0.026811864
0000c0 b3 32 a2 bc 1e ce 24 3c 1d 3a b8 bc 6b 68 0f 3c
       -0.019799566 0.010058908 -0.022488648 0.0087529225
0000d0 69 e7 fa bc cf 7f aa 3a 6a eb bb 3c 05 0b 86 3b
       -0.030627923 0.0013008061 0.022939403 0.004090669
0000e0 c9 cb af bb 55 c7 49 3a ff 3e c0 3c 4b 9c 77 bc
       -0.0053648693 0.00076972443 0.023467539 -0.015112947
0000f0 0f ef d6 3c b7 2a fd bc a6 08 51 3c d3 36 57 3d
       0.026237039 -0.030904157 0.01275841 0.05254252
