test/output/local3/simulatorRun/fsv_volumes_from_scratch/fold_7/current.nn.pt (torch_old, 737324 bytes, 42 tensors)

layers.0.0.weight f4 [256, 66]
00000000: ada3 1abd 5c95 3dbe a617 0e3d efeb 00be
00000010: 837a 79bd 4c11 6bbe 759e f43d 0074 40be
00000020: 2a41 a6bc b086 153d 0260 6abd 8653 2a3e
00000030: fef8 ce3d 1176 703d 5638 3f3e 3c90 7dbe
00000040: 8d47 d03e 89bf 9dbe fe1e 5dbd 0831 dabc
00000050: d6e5 983d 9966 783e 957a c83d 86dc ec3e
00000060: 7f89 bbbd 5e31 2e3c 80e6 1fbe 5cd6 6b3e
00000070: 470d c9bd 58f1 053d 547a 103e 417a 0d3d
00000080: 009d 24be 4578 96be 23f5 bfbd 3221 0c3e
00000090: 8f59 6cbb 89d7 f33d d845 e23d 725c fabd
000000a0: 2111 4fbe 82d7 203e e32f 5ebe 42d3 b6bc
000000b0: 631c a43e bcb3 7a3e 8ea5 213e 50d8 cb3d
000000c0: 566f a03d e722 90bc d64b 38be 6071 7bbe
000000d0: b0e2 04bd 25e9 973c 7b04 73bb c820 643e
000000e0: 75f7 24bd 3ecd 5a3e b124 763e 354d 7b3e
000000f0: 611a 21bd 6a8d c7be 2139 733e 6370 d4bb
00000100: b144 5fbe 7665 b73d 67eb 4ebe fb26 66bd
00000110: f547 71be 38fc 0ebe 187c 763e b416 efbd
00000120: ecb7 bebd 6b10 763d a4c9 10be d5a0 a5bd
00000130: 60d7 6a3e 6667 eabb a7d7 ffbc d510 46bc
00000140: 4a7a 5bbe b55f 21be e1af 8b3d 6120 cd3d
00000150: 48de e3bc 8f86 e1bd 2216 e53d 933c 5b3e
00000160: bbeb 813d 45ed 5c3e 181a 3f3e 026a 5c3e
00000170: 3f9e 67bc e02e 8dbe 00c4 08bd 9c27 2a3e
00000180: 03b5 85bd 032b ac3d 26a0 29bd a959 4fbe
00000190: 2581 013d 1b4f 1c3e d7d2 d2bd d465 97be
000001a0: a769 f7bc cb8e 85be d350 caba e3e1 e63d
000001b0: d0f3 043d fe83 86be afe9 eabd bf7a f9bd
000001c0: 41e6 58be 1927 9b3e 59fa 803d 01ba 523d
000001d0: f76d f1bd 5e4b 94bd 59fd 0bbf 0143 963e
000001e0: e638 093c 9bbb c8be 0eed 22be 4637 3dbc
000001f0: 8a8b 23bd c029 8ebe b60f 4c3e abe6 d7bd
00000200: 1942 19be 8f73 833e 397e 61be ae59 f13c
00000210: f4cc 27bc 803f 283e b4f9 f6bb 36f2 93be
00000220: 190e 263e 0041 763e f80a 7bbd 953b 18bd
00000230: 9f83 febc db3b 4b3d 21d8 3a3d 48f5 babd
00000240: a3d0 813e 1c36 5e3d 0a93 79be a5b5 1d3d
00000250: 6991 82be 9bc4 9d3c 4f47 cabd 857f 68be
00000260: 7901 4bbd e41e 9cbe 7057 ba3d acb0 2fbe
00000270: 400d 1abd c93a f8bd 3912 9dbd d68f a83d
00000280: b9e9 7cbe 3d0f 8f3e c2ec cabd f95e e6bd
00000290: bc09 fe3d 2832 133d fa1b 14bd 49a1 3d3e
000002a0: 682b 07bd b436 6dbd 5bb0 98bc 0b95 fe3d
000002b0: e814 893d e2ea acbe fb0d 0b3e f520 7abc
000002c0: f15b 12be 7a20 e63e 30f5 903d 75d9 94bd
000002d0: 4776 cfbb dff1 d1bd 4972 4fbe 9d4a bb3c
000002e0: 7772 3f3d 96dc 983d de9d 0e3d d2e8 aa3e
000002f0: 0aff 953d b285 053d 635d 2bbe 4306 8abd
00000300: b5f6 5bbe 3582 9b3e dced 943e 044d 0a3e
00000310: 1a83 4abe 86e8 29bd 53ee 3f3c 742a c43d
00000320: 2f47 3cbe 31cd c1be eda4 053d 25ed 613c
00000330: 88fd 463e 1302 473e ea2e 6d3d 51b2 76be
00000340: 0abd 1a3d 3b94 6cbd 1d1e b83e 6a03 e3bc
00000350: 1982 adbe 0f5e a73e e98d 2bbe 345e 0f3e
00000360: 670c 9dbd 795a c43e 3cae 98bd 4afa 423e
00000370: b8f2 d4bd 8815 5abe 49ea 9b3e 2253 a73e
00000380: 6738 473e e7b7 51bd 6f60 22be 2927 3c3d
00000390: 615e 9b3e 2ce2 763e 2dd5 8dbd c1df 1dbe
000003a0: 36a5 7ebe 4bb2 0dbe ea71 a83c 9d5b eebd
000003b0: 91ce 99be e2c4 abbe e5d8 a5bc e65b 82be
000003c0: d5f7 7c3e 9edc 58be 1265 ff3d a83f 11bd
000003d0: d847 7bbd 344d 353e bfbf 5a3d c886 1bbe
000003e0: 7438 273d 03ee fa3d 47bc ca3e 073a 30be
000003f0: cce3 c03d a6a7 3fbd a05b 4c3e f13a acbd
-0.03775375 -0.18514007 0.03469052 -0.12590002 -0.060907852 -0.22955817 0.11944286 -0.1879425
-0.020294745 0.0365054 -0.057220466 0.16633424 0.10106085 0.058706347 0.18673834 -0.24762052
0.4067959 -0.30810192 -0.053984635 -0.026634708 0.07465713 0.24257888 0.09789006 0.46261996
-0.09157085 0.010631887 -0.15615273 0.2303099 -0.098169856 0.032700866 0.14109164 0.03454042
-0.16075516 -0.29388633 -0.09372928 0.13684538 -0.0036064123 0.119063444 0.11048478 -0.12224664
-0.20221378 0.1570721 -0.21697955 -0.022317532 0.32052907 0.24482626 0.1578581 0.09953368
0.07833736 -0.017594768 -0.17997679 -0.24554968 -0.03244275 0.01854379 -0.0037081528 0.2227813
-0.040275056 0.21367356 0.24037434 0.24541171 -0.039331798 -0.38975078 0.23752262 -0.006483124
-0.21803547 0.08954899 -0.20206986 -0.05618952 -0.23562606 -0.13963401 0.24070776 -0.11674252
-0.09312424 0.06007425 -0.1413942 -0.08087317 0.22933722 -0.0071534393 -0.03123076 -0.012088974
-0.21433368 -0.15759166 0.068206556 0.100159414 -0.027815953 -0.11011993 0.11185862 0.21409826
0.0634379 0.21574886 0.18662298 0.21524814 -0.01413685 -0.27574825 -0.033390045 0.16616672
-0.06528666 0.08406641 -0.041412495 -0.20249046 0.031617302 0.15264551 -0.10294121 -0.29569876
-0.030201746 -0.26085505 -0.0015435464 0.11273553 0.03245908 -0.26272577 -0.11470353 -0.12181615
-0.21181585 0.30303267 0.0629775 0.05144692 -0.11788552 -0.07240938 -0.5468345 0.29347995
0.008375382 -0.39205632 -0.15910742 -0.011548823 -0.039927997 -0.27766228 0.19927868 -0.10542043
-0.1496662 0.25674102 -0.22020806 0.029461708 -0.010241736 0.16430473 -0.007537091 -0.2889573
0.16216315 0.24048233 -0.061289757 -0.037166197 -0.031068621 0.04961763 0.045616273 -0.09128815
0.2535449 0.05425082 -0.24372497 0.038503308 -0.25501564 0.019258788 -0.09876882 -0.22704895
-0.04956195 -0.30492318 0.09098709 -0.17157239 -0.037610292 -0.121205874 -0.07669491 0.082305595
-0.24698533 0.27941313 -0.09908439 -0.11248583 0.124042004 0.035936505 -0.036159493 0.18518557
-0.03300038 -0.057913497 -0.01863878 0.124307714 0.06693441 -0.3377295 0.13579552 -0.015266647
-0.14292885 0.44946653 0.07078016 -0.07268039 -0.0063312384 -0.102512114 -0.2025844 0.022862727
0.04674002 0.074639484 0.034818523 0.33380753 0.073240355 0.032598205 -0.16734843 -0.067394756
-0.2148083 0.30372778 0.29087722 0.13505942 -0.19776574 -0.041481517 0.011714536 0.0957841
-0.1838653 -0.3785186 0.03262799 0.01378945 0.19432652 0.19434385 0.05790607 -0.2409146
0.037777938 -0.05775855 0.35960475 -0.027711589 -0.3388832 0.3268895 -0.16753353 0.1400078
-0.07668381 0.38350275 -0.074551076 0.1904079 -0.103978574 -0.21297276 0.30452183 0.32680613
0.1945511 -0.051200774 -0.15857099 0.045935784 0.30345443 0.24109715 -0.06925426 -0.15417387
-0.2486771 -0.13837545 0.020562131 -0.116385676 -0.3004041 -0.33548647 -0.020245025 -0.25460738
0.24703915 -0.21177909 0.124704495 -0.035461098 -0.061347812 0.17705232 0.05340552 -0.15188134
0.040825322 0.122524284 0.3959677 -0.17209636 0.09418449 -0.04679074 0.19956827 -0.0840968

layers.0.1.weight f4 [256]
00000000: d436 723f c7c9 763f 9de6 823f da45 773f
00000010: 3fb6 873f 0aa0 723f a507 7d3f 83b3 803f
00000020: 6e45 7f3f 7b09 753f 2f5a 6d3f 145b 7e3f
00000030: b38a 783f fac0 783f 7715 7d3f 1611 813f
00000040: 8aa8 823f aef3 7d3f 796f 9e3f 490e 833f
00000050: 2a50 693f 928e 7c3f 8bb3 793f de38 763f
00000060: 85c1 773f 4e52 7d3f c146 823f fe8c 843f
00000070: 183a 843f c08c 843f 62cc 8e3f 9caa 793f
00000080: 5651 813f 2362 853f ecc2 7b3f 5f17 853f
00000090: ff7b 783f 9fce 823f 4e63 8d3f 0ca4 793f
000000a0: d1a0 7a3f 950a 723f 6a1e 673f b117 843f
000000b0: 603c 8a3f 6ded 813f 3a4d 763f 9dab 843f
000000c0: 1bc0 7d3f 0985 803f 72a1 863f 8280 763f
000000d0: 6c44 853f fe60 7c3f 8e0e 943f 7845 7e3f
000000e0: 9d59 803f 7f3b 7d3f 2676 813f 6118 863f
000000f0: 8069 843f 98e0 7b3f 15fc 773f 2b00 763f
00000100: 660f 7c3f 1a03 7e3f 6076 783f 74c2 743f
00000110: 4e4f 7f3f e85b 863f 03a5 7c3f aa6d 873f
00000120: 188c 7f3f 1151 833f acf7 773f ab33 7a3f
00000130: 0695 783f c7f9 843f 0aea 7a3f 1bcc 7d3f
00000140: e8a7 833f 4a01 753f 4ee1 813f 7fa0 793f
00000150: 5d98 723f 4d38 7d3f a995 783f 0f27 743f
00000160: 592e 813f 3d9e 7b3f a24a 883f 0516 773f
00000170: 5b08 7e3f f367 773f 20ac 7d3f d4c0 6f3f
00000180: d6a4 823f a4d5 7d3f 5d88 823f 3eb3 873f
00000190: 5072 783f 25c4 713f a656 7a3f be8d 7a3f
000001a0: b18d 7e3f 0ba2 7a3f f149 753f 9b14 723f
000001b0: 9b53 733f 464b 763f 2bf0 803f 3955 7b3f
000001c0: e2c7 873f 3738 753f 1ad4 883f e8ba 703f
000001d0: d584 803f 4e84 753f 7235 763f 2ca4 753f
000001e0: 5c2b 723f c527 713f ea5d 713f 0578 7f3f
000001f0: 5725 863f 2e73 7d3f f9dd 733f 036b 703f
00000200: bb1d 833f 3bbe 723f fa10 763f 63ec 7b3f
00000210: 3daf 7a3f d254 7b3f fff2 763f 7a2e 923f
00000220: 608a 793f be10 813f 2bdd 813f 5262 743f
00000230: 3acd 7e3f e9a2 743f a89b 843f 4994 7d3f
00000240: ca1e 793f ffe8 7d3f a0db 7c3f f966 7c3f
00000250: a6fb 793f 49f9 7b3f 49b1 783f 9a13 773f
00000260: d325 673f 69f7 723f c838 7d3f 424f 7f3f
00000270: dc0c 743f e918 853f d4aa 863f 5c90 863f
00000280: 5d30 813f fa7b 853f eb91 763f 0a49 743f
00000290: 32d3 823f b289 753f 32da 7e3f 0a14 7f3f
000002a0: 22d2 7f3f 5599 783f 5f93 773f be91 733f
000002b0: a282 833f e8bb 693f 2d52 753f ffe0 7a3f
000002c0: 550c 743f eb42 7a3f dd46 763f d90f 823f
000002d0: e6e6 763f 5610 793f 2739 803f f743 8a3f
000002e0: 804b 863f f0bf 833f 832c 723f 2855 7f3f
000002f0: 869f 853f 180d 7b3f a0bc 863f 5fe8 883f
00000300: 611e 6e3f 2908 803f 0197 763f c2d2 8b3f
00000310: 096a 8e3f f9a0 813f 92d3 7c3f b47c 7e3f
00000320: 2d49 863f d8b8 7a3f c437 813f 8c5f 7b3f
00000330: 5ee5 7c3f 027b 753f 2169 853f cb5f 7f3f
00000340: 578f 793f 6669 833f c38b 723f 3ede 763f
00000350: bcd5 843f 07db 813f 19d5 843f 1b3a 823f
00000360: 3ee8 7f3f eecb 823f da6f 803f b7d8 793f
00000370: c13f 823f a952 6f3f 6456 713f c2be 6d3f
00000380: 2951 6f3f 2834 743f cc45 893f f1ef 793f
00000390: 02c6 813f 1158 763f bcbb 803f 2d74 7f3f
000003a0: 0e2f 723f 40aa 6e3f 88ad 753f 1f56 843f
000003b0: 7ecf 853f d560 833f 35f3 673f bf7f 873f
000003c0: 1fe0 883f 1686 7c3f bda5 783f b830 823f
000003d0: 3ae3 753f 1110 813f c56f 6f3f 5dac 813f
000003e0: da24 743f e93b 733f 4841 7f3f 4b2c 783f
000003f0: 1d63 8d3f 63a3 853f b101 873f 6662 863f
0.9461491 0.9640164 1.0226628 0.9659096 1.0602492 0.9477545 0.9883979 1.0054783
0.99715316 0.9571759 0.92715734 0.99357724 0.9708664 0.9716946 0.9886088 1.0083339
1.0207684 0.9919995 1.2377769 1.0238734 0.91137946 0.98655045 0.97539586 0.9618052
0.9677966 0.9895371 1.0177842 1.0355527 1.0330229 1.0355453 1.1156123 0.97525954
1.0102947 1.0420574 0.983443 1.0397757 0.97064203 1.0219306 1.104593 0.9751594
0.97901636 0.94547397 0.90280783 1.031973 1.0799675 1.0150582 0.9621159 1.0364872
0.99121255 1.0040599 1.0518019 0.9628984 1.0411506 0.985855 1.1566942 0.9932475
1.0027348 0.9891891 1.0114181 1.047619 1.0344696 0.9838958 0.9686902 0.96094006
0.98460996 0.9922348 0.97055626 0.9560921 0.99730384 1.0496798 0.9868929 1.0580342
0.9982314 1.0259115 0.9686229 0.9773509 0.9710239 1.0388726 0.98013365 0.99139565
1.0285616 0.9570509 1.0146883 0.9751052 0.9476374 0.98914033 0.97103363 0.953721
1.0092269 0.9828833 1.0647776 0.96517974 0.992315 0.9664299 0.99090767 0.9365361
1.0206554 0.99154115 1.0197865 1.0601575 0.9704943 0.9443992 0.97788465 0.9787253
0.99434954 0.9790351 0.9581595 0.9456269 0.95049447 0.9620861 1.0073293 0.98176914
1.0607874 0.957889 1.0689728 0.94035196 1.0040537 0.95905006 0.961753 0.9595363
0.9459741 0.9420131 0.94283926 0.9979251 1.0480145 0.99003875 0.9526058 0.93913287
1.0243448 0.9482152 0.96119654 0.9840757 0.9792364 0.981763 0.9646453 1.1420434
0.9747677 1.0083234 1.014562 0.95462525 0.995319 0.9556108 1.0360003 0.9905439
0.97312605 0.9918365 0.9877262 0.98594624 0.9764961 0.98427254 0.97145516 0.96514285
0.9029209 0.9490877 0.98914766 0.9973031 0.9533212 1.0398227 1.0520883 1.0512805
1.0092884 1.042846 0.96316403 0.9542395 1.0220702 0.9591323 0.9955169 0.9963995
0.9993001 0.97108966 0.96709245 0.9514426 1.0274241 0.9130235 0.95828515 0.97999567
0.9533132 0.9775836 0.9620188 1.0161086 0.96446073 0.9729055 1.0017442 1.0801991
1.0491791 1.029295 0.9459917 0.99739313 1.0439308 0.98066854 1.0526314 1.0695914
0.93015105 1.000249 0.96324164 1.0923693 1.1126109 1.012725 0.9876033 0.9940903
1.0491081 0.979383 1.0095143 0.9819267 0.98787487 0.9589082 1.0422708 0.99755543
0.97484344 1.026654 0.9474451 0.96432865 1.0377727 1.0144967 1.0377532 1.0173982
0.9996375 1.0218484 1.0034134 0.97596306 1.0175706 0.93485504 0.94272447 0.928692
0.93483216 0.95392084 1.0724425 0.97631747 1.0138552 0.9622813 1.0057292 0.99786645
0.9460305 0.9322853 0.9596791 1.0338782 1.0453947 1.0263926 0.9060548 1.058586
1.0693396 0.986421 0.97127897 1.0171118 0.96049845 1.0083028 0.9352992 1.0130726
0.9536873 0.9501329 0.99708986 0.96942586 1.1045872 1.0440487 1.0547391 1.0498779

layers.0.1.bias f4 [256]
00000000: 7e9f 77bd 03b4 bb3c 40a2 8e3d 2de7 7e3b
00000010: aa7b bc3d 593e cabc ff86 e1b9 c2e4 fa3c
00000020: e13d 21bd 362c 803b 6420 02bd 436c 3f3b
00000030: 19ee 46bc 9d50 44bd fcca 943a 665e b73c
00000040: 550f 973d 9cd1 573d a902 7f3e e6c0 f23c
00000050: ba19 4cbd fc2c bebb 218f 5abc 04f9 10bd
00000060: 9881 093c 2102 02bc 37a9 723d 8343 2a3e
00000070: 3af6 27bc fb78 a23d 5371 9a3d 25dc 6cbc
00000080: d89b ed3c 3d20 bf3c ff70 35bc 0c3d f93c
00000090: a8c4 ce3b 56b6 c53c 1334 2b3e 4802 19bc
000000a0: 463b 97bb 0429 4fbd 7be8 97bd 8a7e 293d
000000b0: e84a 8b3c c912 363d 453c 5f3c cb2d d33c
000000c0: 50bb b8ba 6d8a 843c acbe 2ebc bcbc b4bc
000000d0: 86a9 433c f6ed b7bc 02bf 8e3d a18e e33c
000000e0: 51f7 af3d f054 6c3c 509d 6b3d 165b 223c
000000f0: 83a4 a03d 1942 b6bc e6b2 42bc 89a2 e83b
00000100: ce70 0dbc 6915 90bc be5d 573c 7315 4dbc
00000110: fb57 ac3c ad70 5a3d c1fa 29bc 932c 573d
00000120: 8c80 dabc 8add 533d 0bdd 373c 5b15 75bc
00000130: b8c6 feba 542a d13b 07f0 833c eb3b d33c
00000140: f255 903d 48e7 453c b043 1cbc e800 aaba
00000150: 0a72 05bd 5ae2 343b 9bf4 113c eeac c1bc
00000160: 07c1 ba3c e7f5 48bc 7307 d13d 5316 21bd
00000170: acc1 543b cd68 bfbb 10a4 593b d32c 88bd
00000180: 6d90 433d a4c2 4abc e038 653d 1614 a5ba
00000190: 8290 433c efb2 15bd 11d0 12bd 0689 b5bc
000001a0: 4e11 05bc bca8 14bc 2c73 21bd 7cfe cbbc
000001b0: 452f 18bd 8a4c 283c 6a8b cf3c 6d53 9ebc
000001c0: fdd6 bc3d 12b6 0abd 8dfc 683d 529c 90bc
000001d0: 1fc0 643c 88dc 8abc aeb3 a3bc 23ea 76bc
000001e0: 5f6d 84bc 53f7 0cbd 1570 05bb 46cf 543d
000001f0: c3e4 e63d 1892 c9bc c852 eebb e019 d4bc
00000200: 5dc3 afbb ecf2 96bc 3d3f dcbc 7608 003d
00000210: e266 26b9 3499 96bc fe4a 423d edeb 303e
00000220: 80ff 65b6 a8d6 1e3d 0127 383b 6007 22bd
00000230: 44c0 00bc 7317 ccba 9ccb e23c 5840 623c
00000240: bc07 bcbc 1a7c 0f3c ed92 cf3c 1282 8ebc
00000250: 418e aa3c 5ce0 6ebb a706 81bc 0ce7 d5bc
00000260: ad05 aebd 0c4b c6bc 5582 1e3c 2079 f23c
00000270: 6248 4bbd 9654 7fba fd43 d93d 344e 9f3d
00000280: 410a cd3c d217 583d 9929 bfbc 631f 01bd
00000290: 1e4a 2c3d 349a 20bd 831e 1ebb e479 123c
000002a0: b163 423d fcdf fabb 7454 fb3b 7baa 56bd
000002b0: 3b68 073e ccb4 05bd 409f fdbc 4cdd b7bb
000002c0: f6b3 ebbc 30b8 393c a9cd 59bd eb83 ce3a
000002d0: 00f8 49bb eccc f8ba 0902 5c3d c453 093e
000002e0: 0b4f 133d 0eae c6bc ecc8 2dbd 13bf da3c
000002f0: 622e 483d 674e ac3c ee91 253e 83a2 273d
00000300: 8690 ecbb a508 8b3c 5b46 c5bc 7be4 1f3e
00000310: 9471 c73d e907 b13c df6a 4fbc bce7 8ebc
00000320: 763c 373c a1a6 f0bc edf9 153d 5246 6b3a
00000330: 0c7e 18bd 912e 83bc dfab 523d b554 083a
00000340: 7679 3ebc 3b73 933c c041 41bd cc8f 4bbb
00000350: 5c0b 413d c631 c0bb 308e 923b 0ed9 6e3c
00000360: 9390 223d 9a83 5f3c c65f 983b 9cc3 83bb
00000370: a17b fab9 d922 4cbd 1d7c 9abc 9e1d f9bc
00000380: 81f2 adbc 81e5 413c 8c70 df3d 3983 863c
00000390: 8c63 f93c c387 a3bd c680 263d 5a70 5ebc
000003a0: 97a0 98bc 53e3 a2bc d19c 60bb 8e8d 743d
000003b0: 6312 ee3c cb77 713d 8f06 20bd 74bd 5a3d
000003c0: ad52 ba3d 50b8 8dbc 370b cbbc d1e2 083d
000003d0: 788b 15bd 4c0e 583d 02c2 98bc 8bb6 023d
000003e0: 7572 babc 3100 aebc 655f 413c ea36 1b3c
000003f0: a9cc 1a3e 034e 8f3d e79d 6d3d 202d 6c3b
-0.060454838 0.022912985 0.069645405 0.0038895116 0.092032745 -0.024687933 -0.00043015924 0.030626658
-0.039365653 0.0039115204 -0.03176917 0.0029208816 -0.012141728 -0.04792844 0.0011351998 0.02238388
0.07375971 0.052690133 0.24903359 0.029632997 -0.049829222 -0.0058037024 -0.013339789 -0.03539373
0.008392714 -0.007935078 0.059243407 0.16627316 -0.010251576 0.079332314 0.07541146 -0.014456783
0.029004976 0.023330802 -0.011074304 0.030424617 0.0063100643 0.024134796 0.16719083 -0.009338923
-0.0046152202 -0.050576225 -0.07417389 0.041380443 0.017003492 0.04445151 0.013625209 0.025778672
-0.0014093909 0.016179288 -0.010665577 -0.022062652 0.011942273 -0.022452336 0.069700256 0.027777972
0.08592094 0.014424548 0.05752307 0.009909412 0.07843878 -0.022248315 -0.011883473 0.007099454
-0.008632852 -0.017588334 0.0131449085 -0.012517321 0.021038046 0.053330112 -0.010374726 0.052532744
-0.026672624 0.051724948 0.011222134 -0.014958705 -0.0019437885 0.0063832197 0.016105665 0.025785407
0.07047643 0.0120790675 -0.009537622 -0.0012970241 -0.03257946 0.0027600736 0.008908416 -0.02364203
0.02279712 -0.012265659 0.10206499 -0.03932793 0.003246407 -0.0058413506 0.003320936 -0.066491745
0.047745157 -0.0123755075 0.055962443 -0.0012594487 0.011936309 -0.036547597 -0.03584296 -0.022160064
-0.008121802 -0.009073433 -0.039416477 -0.024901621 -0.037154455 0.010272155 0.025335032 -0.01932689
0.09220693 -0.033865042 0.056881476 -0.017652664 0.013961821 -0.01695086 -0.019983139 -0.015070471
-0.016165433 -0.034415554 -0.0020360996 0.051955484 0.112741016 -0.024605796 -0.007273052 -0.025891244
-0.0053638653 -0.018426381 -0.026885623 0.03125807 -0.0001586932 -0.0183836 0.0474348 0.17277499
-3.427238e-06 0.03877893 0.002809942 -0.039557815 -0.00785834 -0.0015570953 0.02768498 0.013809286
-0.022952907 0.008757615 0.025338614 -0.017396007 0.020819785 -0.0036449647 -0.015750242 -0.026111148
-0.08497176 -0.024205707 0.009674628 0.029598773 -0.049629577 -0.00097400823 0.10608671 0.07778588
0.025029304 0.05275709 -0.023335265 -0.031524073 0.04206287 -0.03920956 -0.0024127073 0.008940194
0.047458354 -0.0076560955 0.0076699797 -0.052408677 0.13223355 -0.032643124 -0.030959725 -0.0056110974
-0.028772335 0.011335418 -0.05317465 0.0015755867 -0.0030817986 -0.001898197 0.05371288 0.1341086
0.035964053 -0.024252918 -0.042427942 0.02670244 0.04887236 0.021033479 0.16168949 0.040926468
-0.007219377 0.016971895 -0.0240814 0.15614502 0.0973846 0.021610217 -0.012659757 -0.017444484
0.011183849 -0.02937633 0.0366153 0.0008975017 -0.037229583 -0.016013416 0.05143344 0.00052006106
-0.011625638 0.017999282 -0.047181845 -0.0031061051 0.047129974 -0.0058653085 0.0044725165 0.014578117
0.039688658 0.013642216 0.004650089 -0.004021121 -0.00047775827 -0.04983792 -0.01885801 -0.03040963
-0.021233799 0.011834503 0.109101385 0.016419994 0.030442975 -0.07984879 0.04065015 -0.013576591
-0.018631263 -0.019883787 -0.0034273157 0.05970531 0.029061502 0.058952134 -0.039068755 0.053403333
0.090978004 -0.017299801 -0.024785621 0.033419434 -0.03650996 0.05274801 -0.018647198 0.031912368
-0.022759655 -0.021240326 0.011802529 0.009473542 0.15117134 0.069973014 0.058011916 0.0036037639

layers.1.0.weight f4 [128, 256]
00000000: 8693 803d 7638 1bbd 0fb8 03be 01c8 0d3d
00000010: 64f3 0dbe d48d 6f3d e6d9 833d b137 313e
00000020: 8637 42bd 8b45 b8bc d460 a5bd e744 863d
00000030: 2468 d03b a47d 603d d07f bc3b 569a 88bd
00000040: a237 323e ae46 a8bd c7e2 933e 3b7f 033d
00000050: 2f74 a13a 2687 b2bc 677c 2a3d 4171 953d
00000060: dda2 813d 3a65 40bd 6015 a8bd 514f 023e
00000070: a5e8 803d c35c f1bc e665 13bd bb1a 653d
00000080: e39d 9dbb fc70 603d 6c91 0b3e 048e a03d
00000090: ca0d 90bc b352 45be d9e9 883c 2b2d 983c
000000a0: 9f08 273e 5a89 9fbd 3079 00bd 8e6c c0bc
000000b0: b6de b53d bdaa 583d 0756 0d3d e1b5 99bd
000000c0: 6256 0c3e 9714 3dbe aaf5 0c3e 738c 863d
000000d0: a905 993a 20fa c4bd 987b 9bbd cc48 91bc
000000e0: 569a d0bc 4b34 af3d 45ea 3fbc 91a7 bdbc
000000f0: 8567 cabd c449 893d 0027 0bbe 74dc 283e
00000100: 3014 5dbd 3414 683d 06d3 afbd 905a d93d
00000110: 0690 053e 604c dabc 8861 003c 3730 e8bd
00000120: 3218 e83c 0b34 babd 8a7a c63d e36b 79bd
00000130: f462 29be 6894 b73d 06fc 2abd 91f4 d13d
00000140: 4362 36bd 263d ec3d e33b 13bd 1758 0d3e
00000150: e1e4 5abb aa64 003e 9713 e2ba 0763 cdbc
00000160: 579d cf3d 9381 b8bd 5b11 3ebc a391 d9bc
00000170: e114 003e ed89 88bb 8b56 1dbc e571 acbc
00000180: ee80 00be 3a67 a1bd d5d5 75bd eceb e33d
00000190: 3462 343e a20c 073e 10c9 acbc c247 513d
000001a0: 4540 f33d 6396 d53d 05bd 243d c6e5 113e
000001b0: 8e95 033d cbe8 5c3d f817 2abd 311b e4bb
000001c0: 9106 1bbe ed90 b4bd 3272 8bbc feef fe3d
000001d0: c439 743b 7589 283e d573 d5bd a740 c13c
000001e0: a23d da3d 2466 adbc 9dcd bdbd 10dc 90bb
000001f0: d4df 63bb f4a9 f63b b826 f13c 86ea 55bc
00000200: 301e 8cbc a7e7 88bd d915 40bd 4d11 583b
00000210: d7a1 8cbd 61fa 313d 2ab9 113c 8922 0fbd
00000220: a3d8 9bbd adef c5bd c5c8 e9bd 160c e73c
00000230: e081 02bc f713 03be 1c0a 123c 0c97 153c
00000240: 7970 52bd af23 1e3d 40b8 cebd a849 f4bd
00000250: 6202 82bd 459a 5c3c 180d da3d d1bf 15be
00000260: 1679 c5bd e138 42bd 3a4a 91be c922 3a3d
00000270: 3933 03be 42d6 ea3d b1e2 1d3e 93e3 243d
00000280: d1c7 11bd bef5 fb3d fafa d1bd b6b8 33be
00000290: c27a 093e 0431 eb3d d74d 0c3e fdf6 e13d
000002a0: 4834 883d 4afb c33c 4485 a8bd e67c fbbd
000002b0: f6a4 b2bd 898f 423d 1fce 11be 95d7 e23b
000002c0: 8c6b b2bd caed c8bd e47c ccbd 1bb0 d73b
000002d0: b6f9 223e bfa9 5c3d 9be9 81bc 419d 10bd
000002e0: 9e14 63be 56ed ac3d af81 153d bcf2 de3d
000002f0: 19b5 873d cb5e f2bc 1b1a 01be b885 103d
00000300: cfa0 f1bd 0d0f f4bd 4f2f a7bd 7441 47bd
00000310: 4150 213d f0a6 7a3d a942 7f3c 5ff7 433e
00000320: 17c0 09be 24a0 1bbd ac4c 7cbe b41f d9bd
00000330: c10c bf3d 0c1b 1a3e d41e b8bd d5b1 e53d
00000340: b71a 16bd 1efd c9bd f80a 803d b496 a03d
00000350: a57c 713c e971 b43d 4b6e b8bd 7da2 083c
00000360: 0fe7 86bd 0a91 2ebb 1499 05bd 3e5b 62bd
00000370: ab3d ccbc 8793 9a3c 5b45 28be ba8c 2bbe
00000380: 5470 c63d cc38 2b3d a068 49bd 5c04 0f3d
00000390: f345 a9bd b4b1 20bd 7e64 10be 6d9c 513d
000003a0: f02c ffbd 318d 08bd 9b5b ba3d cd1c 80bd
000003b0: 8468 aa3d aa9c 983d 5dfb 1f3e afb5 163d
000003c0: f4cd 573c 1b35 ad3d 23bd 93bc 6c42 a0bd
000003d0: b278 b1bb 8bda 19bd 555c 1b3e 7663 39be
000003e0: 68a0 a13b 5b10 5c3d 34bb 8f3d 9e20 8abd
000003f0: 7c67 a03d c2c0 443e ee6b 0bbd 444d da3d
0.06278138 -0.037895642 -0.12863182 0.034614567 -0.13862377 0.058484867 0.06438045 0.17306401
-0.047416233 -0.022494098 -0.08075109 0.06556111 0.006360071 0.05480732 0.005752541 -0.06670062
0.17404035 -0.08216606 0.28883955 0.03210376 0.0012317951 -0.02179296 0.041622546 0.07296992
0.06329892 -0.046971537 -0.08207202 0.1272557 0.062943734 -0.029463178 -0.03598585 0.055933695
-0.0048100813 0.05479525 0.13629693 0.07839587 -0.0175847 -0.19269828 0.01671307 0.018576225
0.16311882 -0.077898696 -0.031365573 -0.023489263 0.08880369 0.052897204 0.03450587 -0.07505394
0.13704827 -0.18464886 0.13765588 0.06569757 0.001167466 -0.0961802 -0.07591933 -0.017734908
-0.025464218 0.08554896 -0.011713569 -0.023151191 -0.09883026 0.06703523 -0.13589096 0.16490346
-0.05397433 0.056659892 -0.085851714 0.106129766 0.13043222 -0.026647747 0.007835753 -0.11337321
0.02833185 -0.09091958 0.09691341 -0.060893904 -0.16541654 0.08963853 -0.041744255 0.102517255
-0.044527303 0.11535101 -0.035945784 0.13803135 -0.0033400583 0.125384 -0.001724827 -0.025071634
0.10137432 -0.09009089 -0.011600818 -0.026558703 0.12507965 -0.0041668327 -0.009603153 -0.021050403
-0.12549183 -0.07881017 -0.06001838 0.11128983 0.17615587 0.13188413 -0.021091968 0.051093824
0.11877493 0.104290746 0.040219326 0.14247808 0.03212505 0.053932946 -0.041526765 -0.0069612493
-0.15139224 -0.08816705 -0.017022226 0.124481186 0.0037265876 0.16458686 -0.10422484 0.023590399
0.10656287 -0.021166869 -0.09267733 -0.0044207647 -0.0034770863 0.007527584 0.029437408 -0.013056403
-0.017104238 -0.06684809 -0.046895836 0.0032969296 -0.06866806 0.04345167 0.008894244 -0.034945045
-0.076096795 -0.09664855 -0.11415247 0.028204005 -0.007965535 -0.12800585 0.008913543 0.009130251
-0.051376794 0.03860825 -0.10093737 -0.11928111 -0.06348111 0.013464515 0.10647029 -0.14623953
-0.09642236 -0.047417525 -0.28376943 0.04544333 -0.12812509 0.11466648 0.15418507 0.040256094
-0.03559095 0.12302731 -0.10252948 -0.1755093 0.13425735 0.11483958 0.13701569 0.110334374
0.06650597 0.023923535 -0.082285434 -0.12279682 -0.0872287 0.047500167 -0.14238785 0.006922672
-0.08711919 -0.0981098 -0.099847585 0.0065822727 0.1591557 0.05387282 -0.015858462 -0.03530622
-0.22175834 0.08443706 0.03650063 0.10886142 0.066263385 -0.029586216 -0.12607615 0.035283774
-0.1179825 -0.11916933 -0.0816332 -0.048646405 0.039383177 0.06119436 0.015579858 0.19137333
-0.13452183 -0.03799452 -0.24638623 -0.1060175 0.093286045 0.1504938 -0.08990255 0.112155594
-0.03664657 -0.098627314 0.06252092 0.07841244 0.01473919 0.08810789 -0.09005412 0.0083395215
-0.0658704 -0.0026636743 -0.03261669 -0.055262797 -0.02493175 0.018869175 -0.16432707 -0.16752902
0.09689394 0.041802213 -0.049172044 0.034916267 -0.08265295 -0.03923197 -0.14100835 0.05117457
-0.12459743 -0.033337776 0.090995036 -0.06255493 0.08320716 0.07451756 0.15623231 0.03679436
0.013171662 0.08457395 -0.018034523 -0.07825169 -0.0054159993 -0.037561934 0.1517194 -0.18104348
0.004932452 0.053726535 0.07018128 -0.067445025 0.07832238 0.19214156 -0.034038477 0.106592685

layers.1.1.weight f4 [128]
00000000: f71e 813f 785d 853f ac4c 843f 066c 813f
00000010: 461b 773f 57d2 773f 6982 773f 779e 7d3f
00000020: 7a68 843f 7111 743f 3739 803f 9589 7c3f
00000030: 51a2 853f 8f3a 873f f312 783f e24f 813f
00000040: 362a 7a3f 2144 803f 9e49 7f3f b477 763f
00000050: 0c68 783f d830 793f f011 7d3f 1862 7b3f
00000060: 5ec1 7b3f 6606 7b3f 4331 7d3f 1321 7b3f
00000070: 6b39 783f 11a2 843f 1730 773f b1ea 6a3f
00000080: 01c9 6d3f d7fe 7a3f fafb 813f 4f06 7f3f
00000090: 16ff 7d3f 5325 843f b74c 8f3f ab8e 7d3f
000000a0: 743a 7c3f 5558 823f 2a79 743f a533 863f
000000b0: 7160 773f 910c 783f eede 803f d355 783f
000000c0: ee39 863f 1ada 763f 09ba 873f 3b67 803f
000000d0: 2dfb 7d3f a50c 7d3f 07a6 733f a1e4 7d3f
000000e0: b0f4 813f 30cc 803f 4808 773f 4ed2 7d3f
000000f0: 4e4b 7f3f fd72 763f 3ea6 7b3f aafa 753f
00000100: 3034 823f 3975 803f a400 793f 688e 7e3f
00000110: a2c2 7d3f abe3 873f 5bd3 813f bf82 833f
00000120: 1bb7 793f 6a94 813f 0409 813f 23bb 783f
00000130: de6d 773f 3702 833f dd26 7e3f a88e 7c3f
00000140: 41c6 783f 4bd7 7c3f 9eb5 873f 638e 733f
00000150: db32 763f c9a2 703f 316e 693f d359 833f
00000160: 4b18 773f 8772 7e3f b66b 713f 07c3 813f
00000170: 09ba 7b3f 9772 7d3f 4806 7f3f 4b1a 7b3f
00000180: afe3 763f 5ccd 803f f009 7f3f e35f 833f
00000190: 638d 803f e411 823f cd1e 863f 6c56 803f
000001a0: e137 763f fd31 803f 9872 813f dde0 6f3f
000001b0: 5437 823f 1e69 823f 815f 773f 75f6 883f
000001c0: 73fb 813f 587f 823f e3e9 843f 476a 7d3f
000001d0: 178f 843f 8c6f 783f 0dc5 7c3f 3a64 7f3f
000001e0: e9eb 6c3f 679b 893f 9031 723f 16d4 853f
000001f0: 487f 7b3f 7f22 813f 3b56 7d3f d592 753f
1.0087575 1.0419149 1.0335898 1.0111091 0.9652599 0.9680533 0.96683365 0.99069923
1.0344384 0.95339113 1.001746 0.98647434 1.044016 1.0564746 0.96903914 1.0102503
0.9772066 1.0020791 0.99721706 0.962764 0.9703376 0.97340155 0.98855495 0.98196554
0.9834193 0.9805664 0.9890329 0.9809734 0.9696261 1.0361959 0.96557754 0.9176436
0.9288483 0.98045105 1.0155022 0.99619 0.99217355 1.032389 1.1195287 0.9904582
0.9852669 1.0183207 0.9549738 1.0484511 0.9663153 0.96894175 1.0068033 0.9700596
1.0486429 0.96426547 1.0603648 1.0031503 0.9921139 0.9884742 0.9517521 0.99176985
1.0152798 1.0062313 0.9649701 0.99149024 0.9972428 0.9626921 0.9830054 0.9608561
1.0172176 1.0035774 0.972666 0.99436045 0.9912511 1.0616354 1.0142626 1.0274276
0.9754502 1.0123417 1.0080876 0.9716055 0.9665202 1.0235051 0.9927805 0.98655176
0.9717751 0.9876601 1.06023 0.9513914 0.9617135 0.9399839 0.91183764 1.0261787
0.96521443 0.99393505 0.9430498 1.0137643 0.9833074 0.99002975 0.9961896 0.98086995
0.9644117 1.0062671 0.9962454 1.0263637 1.0043148 1.016171 1.047815 1.0026374
0.96179014 1.0015255 1.0113096 0.9370249 1.0173135 1.0188329 0.966301 1.0700213
1.0154861 1.0195112 1.0383877 0.9899029 1.0356168 0.9704521 0.98738176 0.9976231
0.9254747 1.075055 0.94606876 1.0455348 0.9824109 1.0088652 0.989597 0.9592717

layers.1.1.bias f4 [128]
00000000: c8f4 b53b 42b4 003d 848f 0d3d cea9 e9bb
00000010: 9f62 bfbc bd7f 3dbd 1c2e 00bd 8a2d ecbb
00000020: c5e7 0f3d 72ce 43bd 9672 a7bc dc12 4abd
00000030: 88d0 443d a95a c53c 24b4 6cbc 68a4 04bd
00000040: a592 08bc fb51 18bc 77c0 38bc 6669 babc
00000050: a327 3bbd a1b2 15bd a8c0 a73c 259b adbc
00000060: b087 70bc 5fc3 e8bc 2c83 91bc f43d 2fbd
00000070: c211 32bc db8a 883b 3780 afbc 948b 24bd
00000080: aa8f a3bd e294 b6bb a0e3 8d3c f2b9 1abc
00000090: a420 f4bb 29d2 443d 70b6 bb3d d827 18bd
000000a0: 2ef9 cbbc 6095 c53c 07c6 40bd ec58 703c
000000b0: c504 b9bc a740 b23c ddc9 dc3a 968f 393b
000000c0: c018 9c3d a422 97bc ef9d bf3b 5d3f 003d
000000d0: 8c63 043d 4df6 f4bb 34ee 19bd 30c4 e1bc
000000e0: 3520 e13c 9d62 4d3c 7fe8 e5bc 4a16 77ba
000000f0: 571b f23b 9608 74bd c91d 5ebc 1bed 46bd
00000100: 2f20 cf3c 4b17 20bc 44d2 afbc dc3a 673c
00000110: ed75 43bd be22 1c3c d5bd d93c 4807 ba3c
00000120: 7070 1dbd e2cf 2c3c 048f 863c cb4b acba
00000130: 4884 78bd 49f9 243c 83de 28bc d0b9 02bd
00000140: 3bfb b6bc ab23 97bc 69e2 5b3d 7adf c7bc
00000150: c8fd 81bd a59b 55bd b456 31bd efc6 913c
00000160: 980f 19bc 4bf0 b6bc c0e0 8dbc 9727 e43c
00000170: ac70 f2bc becc 26bc e700 af3c 144a 6bbc
00000180: e036 32bb da97 ca3c e4e1 ddbc dc24 8fbb
00000190: ae96 38bc d2a4 b33a 7aec e23c df6e d0bc
000001a0: 8604 a1bc 92cb 92bb bb7a 073d ff7c 1cbd
000001b0: 9917 b8bc 42e5 1f3d b2e2 d03c 1fb3 1d3d
000001c0: c68e 903c 0ff6 4ebc bfbc 763c b689 90bc
000001d0: 039f 473d c235 f6bc a123 16bc 37da 3bbc
000001e0: f3df 35bd 5e43 843c 5f83 81bd a1d8 2a3d
000001f0: 5c4a 6ebc 955d fa3b 922c ef3b 8508 08bd
0.005552862 0.031421907 0.034560695 -0.007130838 -0.023362456 -0.0462644 -0.031293973 -0.007207577
0.035133142 -0.047804303 -0.020440381 -0.049334392 0.048050433 0.024091082 -0.014447246 -0.032383353
-0.008335744 -0.009296889 -0.011276356 -0.022755336 -0.045692097 -0.036547307 0.020477608 -0.021192143
-0.014680788 -0.028413473 -0.017762743 -0.042783692 -0.010868492 0.0041669435 -0.021423442 -0.040172175
-0.07986386 -0.0055719474 0.017320454 -0.009443747 -0.00745018 0.048051987 0.091656566 -0.037147373
-0.024899092 0.02411908 -0.047063854 0.014669638 -0.022585282 0.021759344 0.0016844828 0.0028314344
0.07621908 -0.018449135 0.0058476846 0.031310428 0.032321498 -0.0074756504 -0.037580684 -0.02755937
0.027481178 0.012535718 -0.028064964 -0.00094256236 0.007388513 -0.0595785 -0.013556906 -0.048565965
0.025283901 -0.0097711785 -0.021462567 0.014113154 -0.047719885 0.009529768 0.026579777 0.02270855
-0.038437307 0.01054761 0.016425617 -0.0013145147 -0.06067303 0.0100692 -0.010306957 -0.031915486
-0.022336593 -0.018449625 0.05368272 -0.024398554 -0.06347233 -0.052150387 -0.043295577 0.017795054
-0.009342097 -0.022331377 -0.017319083 0.02785091 -0.029594742 -0.01018065 0.021362735 -0.014360923
-0.0027193353 0.024730612 -0.027085252 -0.0043684077 -0.011266394 0.0013705736 0.027700651 -0.025443492
-0.019655477 -0.004479834 0.03307603 -0.038205143 -0.02247219 0.039036997 0.025498722 0.0385009
0.017646205 -0.012631907 0.015059649 -0.01764379 0.04873563 -0.03005493 -0.009163768 -0.011465601
-0.044403028 0.016145404 -0.06323885 0.0417105 -0.014544096 0.0076405504 0.0072990144 -0.03321125

layers.2.0.weight f4 [64, 128]
00000000: b886 0b3e 3b40 663b 47cc 03be 002c bf3b
00000010: 6de4 3abe 1db5 7abe b0d8 5fbe 765d 25bc
00000020: 11d6 7ebe e51c 17bd 3b63 7cbe c850 b9bd
00000030: cf68 b5bd 75a0 613d 566f 983e eaf1 2cbe
00000040: f9d7 95ba 7a70 26be a928 373e 08e0 31bc
00000050: ece7 193d b5fa 5bbe 88bb 5cbd 2901 ddbc
00000060: 77ac 2d3e 2df8 713d 090f 123c d6fe 48bd
00000070: 7b0b 97be 5787 14bd 9946 1d3e 88b9 043e
00000080: dbd0 bdbd 06a6 b4bd 41ff 5bbd 4cc7 243e
00000090: c022 05be 52f0 edbd 8ecf d1bc 2564 b4bd
000000a0: 16ae 803d 50e0 3bbc e55b 573e 1246 133d
000000b0: 971c 91bd 5836 4ebe 3276 4cbd 3433 ef3d
000000c0: 9a23 36be ab79 df3c c3ba 0dbe 7946 91be
000000d0: ef00 433e 5902 f5bc 81fe 80be 51f0 7fbc
000000e0: 1d1b efbd 57fb 23be 7297 46be 5279 83bd
000000f0: 7e56 933d 724d 19bd 41e4 a73d 63fe a43c
00000100: cb3c cabd 78ad 3dbe 3242 b4bb 5092 563e
00000110: fd65 97be 3e9d 2fbe 048c c03c fe02 00be
00000120: 44eb 18bc f12b 5abe 98e4 053e 4ee3 a93d
00000130: c6b2 dd3d 759c ef3b 0e6b 873d c3b6 863d
00000140: d9db c93d 3da0 d6bd 453f 2abe b4d0 45bd
00000150: da81 1abe be2a 0d3c 12f6 5a3c 9d1b cf3d
00000160: ba5b 04be 7031 70bc 7446 5a3e db0c 273d
00000170: 82fb a6bc 70b3 25be 050b 20bb b4ae 03be
00000180: b5a8 913e 9b14 543c 72ae 673d 479d c6bc
00000190: 3ddd 7fbe 9d8d 1ebe 41d6 b5bd 2a09 cd3c
000001a0: 60ef 60be 5c45 37be 5e76 1bbd 7413 00be
000001b0: d7ec acbb 1fdc ce3b d91d 373d ddb8 c93d
000001c0: 3b3d 8ebe dbbd 1bbe 667e 773e eaca ee3c
000001d0: e9e8 a83e e296 393d d6a9 d2bd 8338 6d3d
000001e0: 3e56 0fbe 3820 563d 928d 7a3e f3bf c53b
000001f0: 982c 0ebe 4085 09be 0bc1 17bd 3677 79bd
00000200: cccf acbe 1485 37be 5f54 dbbd a9e6 b53b
00000210: b6f9 133e 1806 9c3c a227 d23d 9b52 42bd
00000220: 5a09 073e c060 933d d93f 90be f11b 60be
00000230: d37a e1ba 10e1 31be b31b 80bb e36e 39be
00000240: 7cf2 01be f396 5c3d 0752 33be 248c 7b3c
00000250: b85d 34be 1954 af3b 49ad 97bd 4b0d 82be
00000260: aa97 13be 8a21 46bd 14d7 043e a85b 533e
00000270: 1e90 ad3c 3e33 a63d 8c57 17bd a607 8e3c
00000280: 248d 06be 2180 d03d 0476 853e f86e 86b8
00000290: add6 96bd c890 3abd 4cc5 0e3d dff0 963d
000002a0: 87c4 67be 9dcf bc3c 984a 9dbd c405 26bd
000002b0: 120b 18bd 619d 343e 032e 143e f104 61bd
000002c0: ab4e 2b3e c188 f4bd 857c 99bd 7af8 fa3d
000002d0: 402a 933d bb05 f83d 9fcd 413d b7bc 98be
000002e0: 5c43 52bc 98cc 893e 6520 abbd 0d01 c1bc
000002f0: 2838 8abe 4114 1dbe 67fd a5bd 8435 953c
00000300: ad5e c6b9 921d e23d 84fd 23bc 78bd 913e
00000310: 121d 853d f353 573d 96a3 9fbd 73da cb3c
00000320: 7413 a8bd 333b cdbd b55f 763d 9e71 0a3e
00000330: 5aee 92bd fce1 babd 651b fabc fad2 443d
00000340: b1c7 423e e907 213e 2ea8 1a3c 43c2 1abe
00000350: 7915 50be 5d2c 3f3d 05f8 813e 265f 003d
00000360: 9998 9cbb 9735 3a3e c129 d03c 15a4 c03d
00000370: d29b d2bd 422f 06ba 28cd 893d 1f2e 093e
00000380: b6ca 5c3e 236e 173e eb6f 30bd ea37 393e
00000390: 891c 24be 52a5 2dbe 4cea b23b 1142 fc3c
000003a0: c8cc 4ebd 2c16 813b 6152 a6bd 636e 9c3d
000003b0: d6d2 18be 7d72 543e dd10 1f3d f526 02be
000003c0: c268 b2bd bc94 763d 391b 8abd 1771 183d
000003d0: db86 8dbd d4e3 db3c 6f69 833c c4c1 6fbd
000003e0: 7562 013e 3014 353e 6217 21be 3e26 fa3d
000003f0: e6ea b8be 8b88 ffbd ed71 2b3d 1d91 24be
0.1362561 0.00351335 -0.12870894 0.0058341026 -0.182512 -0.24483152 -0.21860003 -0.010093084
-0.24886347 -0.03689279 -0.24647228 -0.09048611 -0.08857881 0.055084664 0.29772443 -0.16889158
-0.0011432163 -0.16253844 0.17886604 -0.010856636 0.037574694 -0.21482356 -0.05388978 -0.026978092
0.16960321 0.05907457 0.0089147175 -0.049071155 -0.29500946 -0.036261883 0.15358962 0.129614
-0.09268352 -0.08820729 -0.053710226 0.1609165 -0.13001537 -0.11618103 -0.025611665 -0.088081636
0.06283204 -0.0114670545 0.21031149 0.035955496 -0.07085531 -0.20137918 -0.049917407 0.11679688
-0.17787018 0.027279695 -0.13840775 -0.2837408 0.19043325 -0.029908346 -0.2519417 -0.015621261
-0.11675093 -0.16013847 -0.1939371 -0.064196244 0.071942315 -0.037427373 0.08197833 0.020140832
-0.098748766 -0.18523204 -0.005501055 0.20954251 -0.29569998 -0.17149827 0.023504265 -0.12501141
-0.009333435 -0.21305825 0.13075483 0.08295308 0.10825114 0.0073123523 0.06612216 0.06577828
0.09856386 -0.10479782 -0.16625698 -0.048294738 -0.15088597 0.008616148 0.013364332 0.10112689
-0.12925616 -0.014660224 0.21315938 0.040783744 -0.0203836 -0.16181731 -0.002442063 -0.12859613
0.28449026 0.012944366 0.05656285 -0.024244918 -0.2498674 -0.15483709 -0.08878756 0.025028784
-0.21966314 -0.17897552 -0.03795468 -0.12507421 -0.005277257 0.0063128616 0.0447062 0.09849713
-0.2778109 -0.15209143 0.24169311 0.029149491 0.32990196 0.04530991 -0.102863 0.057915222
-0.13997743 0.05227682 0.24468067 0.006034845 -0.13884199 -0.13429737 -0.037049334 -0.060904704
-0.33752286 -0.17921859 -0.10709452 0.0055511785 0.14450726 0.019045874 0.102614656 -0.04744206
0.13187161 0.07196188 -0.28173712 -0.21885659 -0.0017202742 -0.17371011 -0.003909552 -0.18108706
-0.12690157 0.053854894 -0.1751176 0.015353236 -0.17613876 0.0053506014 -0.074060984 -0.25400767
-0.14413324 -0.04837183 0.12972671 0.20640433 0.021186884 0.081152424 -0.036948726 0.017337631
-0.13139778 0.10180689 0.260666 -6.4102875e-05 -0.07365165 -0.04554823 0.034856126 0.07370161
-0.22633563 0.023048216 -0.07680243 -0.040532842 -0.037119932 0.1763816 0.14470677 -0.054936353
0.16729228 -0.11940146 -0.07494453 0.122544244 0.07185793 0.12110468 0.047315236 -0.29831478
-0.012833443 0.26913905 -0.08355788 -0.023560071 -0.2699597 -0.15339758 -0.08104973 0.018213995
-0.00037836042 0.11040796 -0.010009173 0.28464866 0.06499685 0.052570295 -0.077948734 0.024884438
-0.082068354 -0.10021057 0.060149867 0.13519904 -0.07174368 -0.09125134 -0.03053064 0.048052765
0.19021489 0.15725674 0.009439511 -0.15113167 -0.20320691 0.046673167 0.25384536 0.03134074
-0.0047789332 0.18184505 0.025410535 0.09406296 -0.102836266 -0.00051187363 0.067285836 0.133965
0.21561703 0.14788108 -0.043075483 0.18087736 -0.1602651 -0.16957596 0.0054600593 0.030793222
-0.050488263 0.0039394107 -0.08121181 0.07638242 -0.14924178 0.20746799 0.03883444 -0.12710173
-0.08711387 0.060200438 -0.067434736 0.037217226 -0.06910487 0.026842035 0.016041486 -0.0585344
0.12635215 0.17683482 -0.15731576 0.12214325 -0.36116713 -0.124772154 0.041856695 -0.16070981

layers.2.1.weight f4 [64]
00000000: de67 6d3f 2147 6e3f d1d7 813f da9a 893f
00000010: cfdb 873f 6265 713f 5486 723f 17b0 863f
00000020: 0dd7 713f 5ab1 743f c141 7d3f 40a4 753f
00000030: bc35 7e3f 1cc0 703f 1f23 753f ed75 843f
00000040: bd1f 8d3f 6ae7 813f a35e 843f a118 803f
00000050: 7944 813f e90d 803f 9115 723f b962 823f
00000060: abb3 7c3f 98a8 7e3f 2d76 723f 9f91 7d3f
00000070: 901e 803f 3658 6f3f 4dda 6b3f f9a2 663f
00000080: 1c63 7c3f d147 7a3f b05f 7a3f be77 7b3f
00000090: 8972 823f 8b2d 813f f289 7e3f e697 793f
000000a0: b7e6 753f a584 803f e6e5 753f e96a 813f
000000b0: 9990 7e3f e59b 793f b519 6b3f baa8 7e3f
000000c0: 9913 803f 1f09 793f 98a4 7a3f 2f7b 813f
000000d0: d143 7a3f 3e59 803f f7c9 8a3f e22f 763f
000000e0: b312 733f 0994 843f 2da6 713f 76e7 793f
000000f0: 101e 893f c5dc 753f 2f82 833f d798 873f
0.92736614 0.93077284 1.0143987 1.0750382 1.0613955 0.9429532 0.9473622 1.0522488
0.94468766 0.95583117 0.9892846 0.9595375 0.9930074 0.94043136 0.95756716 1.0348488
1.1025311 1.0148747 1.0341381 1.0007516 1.0099021 1.0004245 0.9456416 1.0186378
0.9871165 0.99476004 0.9471157 0.99050325 1.0009327 0.93493974 0.92129976 0.90092427
0.9858873 0.97765833 0.9780226 0.9822959 1.0191203 1.0092024 0.9942924 0.97497404
0.9605517 1.004048 0.9605392 1.0110751 0.9943939 0.975035 0.918361 0.99476206
1.0005981 0.9727954 0.979074 1.0115718 0.9775973 1.0027235 1.0842885 0.96166813
0.9495041 1.0357677 0.9439419 0.97618806 1.0712299 0.9603999 1.0274104 1.0593518

layers.2.1.bias f4 [64]
00000000: 075d ddbc 6343 76bd da70 f4bb a396 823d
00000010: 438a f2bc 8740 61bd 000a 27bd 72f2 a6b8
00000020: b273 b5bc f9b0 11bd 36c7 593a 7dd5 28bd
00000030: 19f6 3bbc ffec 33bd 70f5 c0bc f567 453d
00000040: c777 b73d 30a4 153b 3ccc 473d 2fa1 e5bc
00000050: b71f 493c 688a 04bc 5f84 49bd 718a 03bd
00000060: 7e65 86bc fe71 b8bc 8f2b 82bd 3516 c9bc
00000070: 5002 263b 6012 d1bc 1dda 86bd 637c ccbd
00000080: 1bc1 3e3c a8bf 763c 567b 22bc f483 2bbd
00000090: d3b1 22bd dcdf 353d a91f 603a 6476 5bbc
000000a0: 026a d3bc 6985 cc3b 8780 74bd 1ba2 40bc
000000b0: 1cf0 d8bc 8233 703c 7ff7 adbd 459f fdbc
000000c0: b58a 99bc 34df 28bd fc60 9fbc 2146 e5bc
000000d0: 947b ebbc 16b0 f3bc 6f2c 663d 1da8 bbbc
000000e0: 0d65 28bd 02d1 783d 169b 42bd d2c8 d7bc
000000f0: 0b53 803c 1546 8ebd 7618 ec3b 7970 583d
-0.027021898 -0.06012286 -0.007459742 0.06376388 -0.029606944 -0.05499318 -0.04078102 -7.960656e-05
-0.022149894 -0.035569165 0.0008307578 -0.041219223 -0.0114722485 -0.04392719 -0.023554534 0.048194844
0.089583926 0.002283346 0.048778757 -0.02803096 0.012275628 -0.008089639 -0.049198505 -0.03211445
-0.016405817 -0.022515293 -0.063559644 -0.024546722 0.0025330968 -0.025521457 -0.065845706 -0.099846624
0.01164272 0.015060343 -0.009917101 -0.041873887 -0.039720368 0.044402942 0.00085496396 -0.013394926
-0.025807384 0.0062414897 -0.059692886 -0.011757399 -0.02648168 0.014660718 -0.08494472 -0.030959735
-0.018742898 -0.041228488 -0.019455425 -0.027987542 -0.02874545 -0.02974705 0.05619472 -0.022907311
-0.041111995 0.0607462 -0.047511183 -0.026340876 0.015664598 -0.06946961 0.0072050644 0.052841637

layers.3.0.weight f4 [32, 64]
00000000: 54a5 e33d bb54 283e 8931 4b3e 751f d83e
00000010: a78f eabe b421 503e d573 973d 1a76 4e3d
00000020: ba4f 253e ad85 b1be c251 57ba 918a b93d
00000030: 9b11 48be f281 86be 5c8b 1d3d dd4a d6bd
00000040: 91e3 8cbe dfa8 293e 594a 163c 1622 2e3b
00000050: 539b 1c3d 554f cd3e 75e9 9cbd 49e6 9abe
00000060: ce36 213d 1519 933e 754d f9be 2363 33bd
00000070: 5a88 0d3c c2ed d03d f5e2 0abc ba3e 42be
00000080: 3f87 3c3e 444f 7a3e ebee b83d e9cd dcbd
00000090: 318b acbd ad2f 4fbe b4b5 88bc 2402 c4bd
000000a0: b462 1f3e 2e05 09bd 9e1e 883d 9110 b53d
000000b0: 8ad3 403e 2d94 5bbe 9912 633e e8e1 24bd
000000c0: ffbe f93d 7cfc 91bc 55e9 243d 52ca 59be
000000d0: f2c1 e3bd 3d1a b7bd 8f53 0cbe e7b7 97bc
000000e0: e620 a93d 4387 b13e 4064 123e 2911 1cbd
000000f0: 17e2 91bd 57b0 65bc ce5e e8bc 7607 973e
00000100: fec2 42be 725c a3bd ac8c 88be 507b 8ebc
00000110: c475 933d 09d6 0bbd 69a9 1ebc c7a9 47be
00000120: e5d5 36be 649c 863c 0289 243e bd80 90bd
00000130: 19fb 08bd a7e8 d73c ef57 d93c 7533 2f3c
00000140: 5362 ab3e 01e5 53bd 3f8f 99be 8f43 50be
00000150: 0158 87bd 7f48 2d3e f728 2d3e 7694 313e
00000160: ed4a aabd af69 c7bc ed8a 1cbe ea90 1a3d
00000170: 8949 323d 7667 cebe 09d6 003d fe1c 153d
00000180: 54a2 953e 9319 60bd f68e ef3c 3081 743c
00000190: 9387 4a3d e9a0 d9bc 2636 c7be 1057 a8be
000001a0: 91b9 f6be db12 4c3e b01f 413d ea63 d13c
000001b0: 90f6 c1bd a53a fabd 38ab bbbd 341c 90be
000001c0: 434e 07be 55db e13e f875 50be 3632 aa3b
000001d0: 709f 5ebd b6cd 353e 1045 5c3e 72d5 82be
000001e0: 057f ab3c d91b e1bd e5de 4fbe 72b1 89be
000001f0: fcb1 1e3e a1c7 863e 4d03 933e 0375 5cbe
00000200: 3256 a43e a595 eebc db5c 5e3e 50a5 60be
00000210: 048f 25bd 926a dd3d 7fff 8bbe 9d05 92bd
00000220: 2e86 c8bd 85f5 203e 11f0 da3e 308d aabc
00000230: 17a9 523e 14d3 363c 4eca 2bbe 4df6 0a3e
00000240: 84a9 883d b46e 87b9 0301 1ebe 28c0 283c
00000250: ade9 1a3e 4694 32bd ebbc d1be a41f 733e
00000260: 99aa 943d 4568 493e 920c 33be 4747 38be
00000270: 9bdf 4c3e 1a7e 363e e293 0abd 3f9e f7bd
00000280: ce5a 82be fe58 d3bd 0955 a73d 922b dfbd
00000290: bc45 4abd 232e 6dbe e813 39be e477 d0bd
000002a0: ed30 8cbe 8706 773e 7fcf 2bbd 3320 11be
000002b0: 9e3e 123d 6f8d 423d f658 20be 6f1b 34bd
000002c0: 79a3 6bbc 4ca6 b73d 56c0 19be 0eee 9dbd
000002d0: 99cb ee3c d99d 713e 44aa 5e3e 8ad7 683e
000002e0: f775 0c3e a4ac a7bc 564c e3bc c29f 8dbe
000002f0: 8eda 823e e11c 0b3e cebf 213e a084 cabd
00000300: b289 21be b52a e93d 27b6 ec3d 97b1 493e
00000310: 3330 87bd e1f2 c2bc 6be3 24be 9ad2 963d
00000320: a4fb 7bbd 38ee 26be 2722 803e 880c 0abe
00000330: af16 87be dcc8 d13d b654 d1bd cbdf 283e
00000340: c534 813c af56 8e3d da80 77be 9877 d8be
00000350: 6c36 843d 58ed 183e 6a8d b3be b11d 1cbb
00000360: 1a10 553e 4623 49be 3469 0a3e 83d5 b93d
00000370: 8af2 f4bc 9062 9b3e c8ca 2fbd 68e9 583c
00000380: a3a9 7a3d ce01 2d3e 44d0 2b3e eb5e 9d3e
00000390: 8309 2dbd 0590 34bd 7c77 b9be 643f d03d
000003a0: f647 083e c82d 6e3e 1cc8 04be 98b1 0e3b
000003b0: b29d 91be def5 a9bd 81c9 953e 85c0 893e
000003c0: f935 883e 0e90 b7bd e26e 693e b322 0abd
000003d0: 7b08 0d3d f71e 373e b485 55bd 0abc 6ebc
000003e0: ed8d 323d f2de 413e 1b55 17be 5708 893d
000003f0: 609c efbd 1019 4dbe 5d80 d13d f59e 04be
0.11115518 0.16438572 0.19843115 0.422115 -0.45812723 0.20325357 0.0739514 0.0504056
0.16143695 -0.346723 -0.0008213782 0.090596326 -0.19537966 -0.26271015 0.03846298 -0.10463498
-0.2751737 0.16568325 0.009172999 0.002657061 0.038234066 0.40099588 -0.07661716 -0.3025382
0.039358906 0.28730074 -0.48691908 -0.043795716 0.008638466 0.10201599 -0.008476962 -0.18969241
0.18410967 0.244443 0.09029945 -0.10781462 -0.08424986 -0.2023303 -0.016688205 -0.09570721
0.15564996 -0.033452205 0.06646465 0.088410504 0.18830696 -0.21443243 0.22175063 -0.040254503
0.12194633 -0.01782059 0.040261585 -0.21268585 -0.111209765 -0.089405514 -0.1370375 -0.018520309
0.08258228 0.3467351 0.14296055 -0.038102303 -0.07123201 -0.0140190935 -0.028365519 0.2949788
-0.19019696 -0.07976617 -0.26669824 -0.017392784 0.072001964 -0.034139667 -0.009683945 -0.19498359
-0.17855032 0.016431995 0.1606789 -0.07055805 -0.03344259 0.026356054 0.026531188 0.010693421
0.33473453 -0.051732067 -0.299921 -0.20338272 -0.06608582 0.16922186 0.16910158 0.1734179
-0.08315072 -0.024342386 -0.15287371 0.037735857 0.04352716 -0.4031331 0.03145412 0.036404602
0.2922541 -0.05471189 0.029242974 0.014923379 0.0494457 -0.026565986 -0.389085 -0.32878923
-0.4818845 0.19929068 0.04714936 0.025560338 -0.09470856 -0.12218217 -0.09163517 -0.28146517
-0.13213448 0.4411265 -0.20357502 0.005193974 -0.05435127 0.17754254 0.2151072 -0.2555347
0.020934591 -0.1099164 -0.20299871 -0.26893193 0.15497583 0.2632418 0.28713456 -0.21529011
0.32097012 -0.02912409 0.21715109 -0.21938062 -0.040419593 0.10811342 -0.27343366 -0.07129977
-0.09791218 0.15718658 0.4276128 -0.020819277 0.20572315 0.011158723 -0.16776392 0.13570519
0.066729575 -0.00025831687 -0.15430073 0.01029972 0.15128203 -0.043598436 -0.40964445 0.23742539
0.072591014 0.19668682 -0.17485264 -0.1799594 0.20007174 0.17821541 -0.03383244 -0.1209073
-0.25459903 -0.10319708 0.08170516 -0.10896982 -0.04938291 -0.23162131 -0.18074 -0.10179117
-0.27381077 0.24123584 -0.04194593 -0.1417244 0.035704248 0.047498163 -0.15658936 -0.043971475
-0.014382237 0.089672655 -0.15014777 -0.07711421 0.029149817 0.2359537 0.21744639 0.22738472
0.13716875 -0.020468064 -0.02774636 -0.27660948 0.2555737 0.13585235 0.15795824 -0.098885775
-0.15775183 0.11385099 0.1155818 0.19696651 -0.0660099 -0.023797454 -0.16102378 0.07364388
-0.06151928 -0.1630181 0.25026056 -0.13481343 -0.26384494 0.10243389 -0.102212355 0.1649162
0.015772233 0.06950127 -0.24170247 -0.42278743 0.06455693 0.1493429 -0.35068828 -0.0023821408
0.20806924 -0.19642362 0.13516694 0.09073927 -0.029900808 0.30348635 -0.042917997 0.013239242
0.061196934 0.1689522 0.16778666 0.3073648 -0.0422454 -0.04408266 -0.36223972 0.10168341
0.13308701 0.23259652 -0.1296696 0.0021773335 -0.28440624 -0.082988486 0.29255298 0.26904693
0.26603678 -0.08963023 0.22796205 -0.033724498 0.034431916 0.17882906 -0.052129462 -0.014571199
0.043592382 0.18932703 -0.14778559 0.06691044 -0.11699748 -0.20029092 0.102295615 -0.12951262

layers.3.1.weight f4 [32]
00000000: 4102 963f efd9 8e3f fa90 893f 13d8 853f
00000010: e6e2 7c3f 4d32 8d3f 7763 8f3f bcce 833f
00000020: da6c 963f 9c10 8c3f 942c 8c3f df16 953f
00000030: f337 843f b469 893f d136 8b3f 0372 963f
00000040: d58d 843f b56d 8d3f e13b 763f 2a86 833f
00000050: a9aa 853f 92a3 7e3f 9b7a 8d3f 0fe8 823f
00000060: a4f0 8a3f b5a5 8e3f 2d29 923f ce3d 9b3f
00000070: a885 943f 10aa 853f e98f 9b3f 2cce 883f
1.1719438 1.1160258 1.0747368 1.0456566 0.9878372 1.1030976 1.1202229 1.0297465
1.1751969 1.0942569 1.0951104 1.1647605 1.0329574 1.0735383 1.0876104 1.1753544
1.0355784 1.1049105 0.9618512 1.0275319 1.0442706 0.9946834 1.1053041 1.0227069
1.0854688 1.114432 1.1418816 1.2128236 1.1603289 1.0442524 1.2153293 1.0687919

layers.3.1.bias f4 [32]
00000000: de8c 0e3e 566f a13d a1c8 a33d fbce 903c
00000010: 8aac eabc e219 583d 25ff 323d 504d 9bbc
00000020: e6dd e33d a00f cf3d 5638 d33d 6746 383e
00000030: 56f4 6dbc 21e0 493d 7ae1 ed3a 4c8e 0f3e
00000040: baca c63c 68e5 5f3d 16fd b8bc bcbf 72bc
00000050: 9dc9 813c bc99 46bd 35da 713d a7e8 243c
00000060: d51d c93d c32f e63d 96df cd3d 27da 353e
00000070: 0d2d da3d c0d9 7a3d d0cd 5e3e 5ea0 383d
0.13920924 0.07882564 0.07997251 0.017676821 -0.028646726 0.05275906 0.043700356 -0.018957764
0.11126308 0.10110402 0.103134796 0.17995606 -0.014523586 0.04928601 0.0018148862 0.14019126
0.02426659 0.05466214 -0.022581618 -0.014816221 0.015843207 -0.048486456 0.05904599 0.010065234
0.09820143 0.112395786 0.10052411 0.17759 0.10653124 0.06124282 0.21758199 0.045074813

fc_out.weight f4 [2, 32]
00000000: a5e9 16bf a404 c83e bed9 d73e fdf6 973d
00000010: b46a 953d f63b 24bd d095 073e 2b1e 933d
00000020: b753 50be 1db2 ccbe a8c1 f7bd f6b5 f8be
00000030: a3ee 113f 6453 973e edef c33d 2f6c 993d
00000040: bfeb 883e 4eea 9e3e f7f9 aa3d 5a7a 263e
00000050: 5ae7 a1bb 18e8 143e ceb0 3b3e 2e91 903e
00000060: 1dd5 9ebb cf75 d4be 5b50 a93e cf2a ed3d
00000070: 459a cdbe 5162 e6bc 6e15 39be 360f e63e
00000080: 2f7b cebd 4993 8ebe 61c4 f3bd b556 6b3e
00000090: 92b5 4dbe c8e0 f23e 213b 6dbe 0b5d edbd
000000a0: fbb9 773e 7571 ac3e 39ff fd3e 41fe 613e
000000b0: 47b3 e33d c88a 75be cc5f b7bd ac3e 093f
000000c0: bfa5 adbe 63b4 63be 704e cf3d 99ca 2ebd
000000d0: 2ea0 953d 88a9 93be 4a88 2dbe d7be 43bd
000000e0: 6f20 2b3e 5246 b83e a19e 803b 4709 e03e
000000f0: cf17 a2bd e0f4 0b3e 081b 173e 6659 14bd
-0.58950263 0.3906604 0.42158312 0.07420156 0.07295743 -0.040096246 0.13240743 0.071834885
-0.20344435 -0.3997964 -0.12097484 -0.48576325 0.57004756 0.2955581 0.095672466 0.074913375
0.2674236 0.31038135 0.08348458 0.16257611 -0.0049409093 0.14541662 0.18329164 0.28235763
-0.0048471824 -0.4149613 0.3306912 0.11580431 -0.4015676 -0.028123053 -0.18074581 0.4493348
-0.10082089 -0.27846745 -0.11902691 0.22982295 -0.20088795 0.4743712 -0.23167087 -0.11590012
0.2419204 0.3368031 0.49608782 0.22069646 0.11118179 -0.23978722 -0.08953819 0.53611255
-0.33915517 -0.22236781 0.10122383 -0.04267368 0.073059425 -0.2884028 -0.16946521 -0.04778942
0.16711591 0.3599115 0.00392516 0.43757078 -0.079146974 0.13667631 0.14756405 -0.03621807

fc_out.bias f4 [2]
00000000: 6600 3bbd 6600 3b3d
-0.045654677 0.045654677
