test/output/local2/simulatorRun/freesurfer_volumetric/fold_6/best.nn.pt (torch_old, 736762 bytes, 42 tensors)

layers.0.0.weight f4 [256, 66]
00000000: 08a1 2b3e fcb6 de3d 9525 76bd 0e23 343e
00000010: 077b b5bd 9e24 c63e ef22 10bd 15d8 26be
00000020: c37b 3ebe d739 833d a587 143e 82a1 753e
00000030: 3adb 98bd f4e8 86bd ebdf 8e3e b902 34bc
00000040: c027 04bd bc06 a2bc e2cc 413c 7b53 58bc
00000050: 68d1 02be 819e 543e 66de 0e3e bf37 19bc
00000060: b8e1 993e eafe 653e 1781 0fbd 19cf 593d
00000070: d5f2 4db9 442e 843e d53e 113d 9046 8ebd
00000080: ff7c 4b3e 73e9 a7bc 70bb 67be 11f8 8b3e
00000090: 1d8b 07be e87a d6bd 68b5 76bd d37a 613e
000000a0: 7576 20be 10ad 43be c408 49be 386d 8abe
000000b0: b1f2 323d 838b 8fbd 0313 953e 610a b6bb
000000c0: 034f 0fbc 236b 39bd 50e4 213c 9fc4 a33d
000000d0: 6ef9 91bd b1b2 dabd 8883 013d f4b8 063e
000000e0: c680 aa3d a72b 0c3e edbf 673e 260c 143e
000000f0: 0e17 d03d 4147 65bd d90f 81be 7b1b d7be
00000100: 637a 093e 7a29 e33d 514c cebd 1c0f 713e
00000110: e137 7fbe cfe1 97be e89a a33d ed01 83be
00000120: d4bf 203e 5f27 81be 547c d23e d837 6dbd
00000130: 257f 8fbe 7440 5e3e 1620 3a3e 511b 5bbe
00000140: 07ad a13d d326 b9be 055d 31be 1ba7 99bd
00000150: 345a 25be 0d03 5cbe a9e8 eb3d 0db9 c53d
00000160: 3df5 7dbe 88a6 693c a494 05bd e7dd a3bd
00000170: 7176 79bd 4638 69be 4729 aabd bae3 083e
00000180: 93b1 9abd 2189 12be 5c4c b2be 4b04 3bbe
00000190: e916 d2bd 4bfa 8a3d f4a5 44bd c27f c5bc
000001a0: c51f 583e eb0c 36bc c5eb d63e 7c88 d1bd
000001b0: 7436 75bd a066 993d 8fc3 6a3e 3d98 583e
000001c0: 4ee0 9fbe 721e 63be 2d9f d5bd 7b70 3c3d
000001d0: 3586 3cbe 746e 4b3e 2655 8cbd 45ed 2cbe
000001e0: ef3d f53d c9bf 2b3e bc49 23be 64b7 61bc
000001f0: 6041 c0bd 2500 ddbc 0e28 09be 814f 39bd
00000200: c3c5 97bd a5b1 203e d5c6 8fbe f99a ddbe
00000210: d986 a0bd 262d cfbd 212b 09bd b432 a1bd
00000220: b2a6 8dbe fa6e 2f3d 7ed6 a13d 936f 213d
00000230: 4ca2 2dbe af7d a83e f992 453e bcca aebd
00000240: e690 09be 382c 3b3e 3abc 373e e82f 63bd
00000250: e431 013e 6b95 9c3d be38 c5bd b07e cf3d
00000260: cefd ffbd f44a 273e 826e c43e 10cd 0d3e
00000270: d3cb 11be f35c 2a3e 9511 c7bc 601b c8bc
00000280: c7e5 67be ebaa febd 6188 03be 4bf0 833d
00000290: 52e7 77bd e90a d1bd 5117 a9bd 0cc7 73be
000002a0: 3a4f 8cbe a3d3 27bd 5c59 a0be ac59 12be
000002b0: 84e8 08be 4c1d bb3c ccc6 ba3d 8c31 71bd
000002c0: fe01 ac3d 8a54 523c 7f96 78bc 4401 17be
000002d0: e38f 0fbe d68f 0c3e b918 58bd acec 81be
000002e0: efe4 fdbd 4a4a d6bb 4307 603c ca3a 6bbe
000002f0: c7c5 013e f50b b93b 6b7f 74be 9a84 bd3c
00000300: 1b28 94be ff35 1b3d f2c1 543c 39fb 4fbc
00000310: 4f2f e33d 2162 de3d 446c 2abe ee0c 0bbe
00000320: 50d9 7cbc 238f 2e3e 0ed5 fa3c 5d9d eb3d
00000330: 671c b93d 37e9 0a3d 7f6c 84be 166a abbd
00000340: e65f 273e 725c 503e 28cb 80bc 9877 b7bd
00000350: d02b d53d c63a fdbe 4b4d 67be 9d59 25be
00000360: 7ed0 933d 6c21 9b3d 575a e7bd 3884 2dbe
00000370: 6820 093e cccc 633d d3ad d03c 40f4 4a3e
00000380: d927 3cbe b39c eb3d 17a6 07be e216 d4bd
00000390: b104 4bbe 3629 3e3d 888f d4bd 3f05 593d
000003a0: 966b 6d3d d47c d43e f5ae 263e 9888 6d3d
000003b0: 0918 8d3d bf4e acbd 9ff6 3e3e 7b4a b13e
000003c0: 2e80 81bd ee47 e13e f5c5 9c3d 21de f8bc
000003d0: 0f19 ff3d 4522 9b3e 9fca 67bb d7a6 cbbd
000003e0: 36d6 2abe 20d9 c1bc e3bd 453e 2909 c5bd
000003f0: 8508 e8bd 24cc 283e 6ffb 243d 73e8 8cbe
0.16760647 0.10874745 -0.060094435 0.17591497 -0.08861356 0.38699812 -0.035189565 -0.16293366
-0.18601899 0.064075164 0.1450487 0.23987392 -0.07463689 -0.06587401 0.2790521 -0.010986977
-0.03226447 -0.019778602 0.011828633 -0.013203497 -0.12775195 0.2076359 0.13952026 -0.00935167
0.30055022 0.22460523 -0.03503522 0.05317602 -0.00019640785 0.25816548 0.035460312 -0.069470525
0.19871901 -0.02049706 -0.22630095 0.27337697 -0.13236661 -0.10472661 -0.060231596 0.2201951
-0.15670188 -0.19108987 -0.1963225 -0.27036452 0.04368848 -0.070090316 0.29116067 -0.0055554365
-0.008746865 -0.04526819 0.009881094 0.07996487 -0.07127653 -0.10678614 0.03161958 0.13156492
0.08325343 0.13688527 0.22631808 0.1445776 0.10160647 -0.055976156 -0.25207403 -0.42013153
0.13425593 0.110918954 -0.1007315 0.2354092 -0.2492366 -0.29664466 0.079885304 -0.25587407
0.15698177 -0.2522535 0.4111048 -0.057914585 -0.2802669 0.21704274 0.18176302 -0.21397139
0.078943305 -0.36162433 -0.1732064 -0.07502576 -0.16147691 -0.21485539 0.11518986 0.09654436
-0.24800582 0.014260896 -0.032612458 -0.08001309 -0.06090397 -0.22775373 -0.08308654 0.13368121
-0.07553401 -0.14310123 -0.34823883 -0.18263356 -0.10258276 0.06786021 -0.048009828 -0.024108771
0.21105869 -0.011111478 0.41976753 -0.102311105 -0.059866384 0.07490277 0.22926162 0.21151824
-0.31225818 -0.22179583 -0.10430751 0.046005707 -0.18410571 0.19866353 -0.06852178 -0.16887386
0.119747035 0.16772379 -0.15946096 -0.013776634 -0.09387469 -0.026977608 -0.13394186 -0.045241836
-0.07410767 0.15692766 -0.28081384 -0.43282297 -0.0783822 -0.10116033 -0.033488397 -0.07870999
-0.2766624 0.042830445 0.07902239 0.039413046 -0.16956443 0.3290839 0.19294347 -0.08534762
-0.1343418 0.18278587 0.17942896 -0.05546561 0.12616688 0.07645687 -0.09629963 0.101315856
-0.12499581 0.16337186 0.3836556 0.13847756 -0.14237909 0.1663702 -0.024300376 -0.024427116
-0.22646247 -0.12434944 -0.12844993 0.064423166 -0.06052334 -0.10207159 -0.082564004 -0.23806399
-0.27404195 -0.040973317 -0.31318176 -0.1429202 -0.13369948 0.022841118 0.09119949 -0.058885142
0.083988175 0.0128375385 -0.0151726 -0.14746577 -0.14019732 0.13726744 -0.052757952 -0.2537588
-0.12397181 -0.0065396177 0.013673606 -0.22971645 0.12673102 0.0056471773 -0.23876731 0.023134518
-0.28936848 0.03789329 0.012985693 -0.0126941735 0.11093008 0.1085856 -0.16642863 -0.13579151
-0.015432671 0.1704679 0.03061917 0.11504624 0.090386204 0.033913817 -0.25864026 -0.08369844
0.16345176 0.20347765 -0.015721872 -0.089583576 0.10408747 -0.49458903 -0.22588079 -0.16147466
0.07217501 0.07574734 -0.11296528 -0.16944969 0.13391268 0.05561523 0.02547351 0.19819736
-0.18374576 0.115044974 -0.13246952 -0.10355927 -0.19826008 0.04642602 -0.10378939 0.05298352
0.05796393 0.41501486 0.16277678 0.057991594 0.0688935 -0.08413457 0.18648766 0.34627137
-0.063232765 0.4400019 0.07654945 -0.030379357 0.124559514 0.30299583 -0.0035368574 -0.099439315
-0.16683277 -0.023663104 0.19310717 -0.09620888 -0.1132975 0.16484123 0.04027885 -0.27521095

layers.0.1.weight f4 [256]
00000000: b91b 7d3f 4388 833f cb5d 7e3f 2b75 813f
00000010: f094 7e3f 041b 823f 2c2c 813f a4c2 763f
00000020: bcb8 7d3f 1b7a 8b3f 9559 7a3f 5e61 7a3f
00000030: 0caf 873f 3a48 823f c3db 7b3f d2ed 753f
00000040: a1b9 823f 3cde 813f 23f7 793f f2b9 743f
00000050: 1228 803f 0907 7c3f 5f4e 7a3f 6bae 7c3f
00000060: cbf4 7c3f 740d 7d3f 729f 743f 40e9 803f
00000070: ecc7 803f 7244 7b3f e842 7c3f 4535 7e3f
00000080: f7b6 7c3f f09b 873f c242 7c3f 3058 793f
00000090: 43e0 7a3f 3381 7a3f 5d54 7c3f 2b79 7d3f
000000a0: e668 7b3f 46b2 793f f6b6 7d3f 90cc 7a3f
000000b0: 96d4 7c3f 69b3 873f b40f 773f bb96 7b3f
000000c0: 5034 7b3f 7cb5 793f ff3c 7e3f 8b8a 733f
000000d0: 266e 803f acd0 803f 5ff0 853f fae8 813f
000000e0: ee13 783f d49a 7f3f 5b57 7d3f f12f 763f
000000f0: d49f 903f 6cd7 793f 0116 813f 8003 803f
00000100: 3dd4 833f 492b 743f edb3 7b3f 9bb9 7c3f
00000110: 1778 7b3f 1bda 853f e1ce 7d3f a4e2 7e3f
00000120: 1d11 7f3f 1aa6 7c3f c2c4 833f e3e3 7b3f
00000130: 7e9f 793f 164a 7b3f 4f3d 7c3f fe4f 863f
00000140: 55dd 7b3f 7b42 823f 519f 783f 8df8 833f
00000150: 4703 833f db3f 763f 8db7 803f 9066 803f
00000160: 52cf 783f 61b2 7e3f d4cd 7f3f bdfc 813f
00000170: 1ebb 893f 7d50 7c3f 825e 823f bdc4 7e3f
00000180: 1f7f 833f 999f 763f f6c7 783f cd2a 7d3f
00000190: 5481 823f e4be 7c3f e19c 773f 5401 813f
000001a0: 1282 7e3f 5d03 803f 3431 7b3f c231 7e3f
000001b0: 7f50 7f3f 168a 783f d88c 823f eb6d 7a3f
000001c0: 03df 7e3f 08ac 783f 5297 7d3f fded 7d3f
000001d0: eb5e 803f 07be 7a3f a86b 7e3f b6af 783f
000001e0: 1c29 813f dbf4 7b3f 22b7 773f 6fc4 7d3f
000001f0: 148e 7d3f 7784 813f ec7a 803f acf6 773f
00000200: a626 7a3f 7531 7f3f fc1d 813f 20c7 8c3f
00000210: 68cb 7f3f e461 7c3f a771 793f d91d 793f
00000220: c22f 773f c3b1 7a3f 7442 803f 3347 7f3f
00000230: 54c8 7a3f bc0e 7c3f 4fb6 7c3f 711d 813f
00000240: bae9 7a3f ab9a 863f 0462 763f ee23 7a3f
00000250: dd18 833f 3764 7a3f 53c2 7c3f 61c2 7c3f
00000260: b888 803f 64f4 7a3f 419b 803f 1425 7e3f
00000270: f866 823f 98aa 7c3f 0c91 813f 9a7a 713f
00000280: 93c3 7a3f 3402 793f 7f09 783f 73e6 843f
00000290: 5b04 833f 556d 7b3f 1f78 7c3f b00f 7c3f
000002a0: 31b8 813f 838c 7e3f 7337 7e3f 8623 7d3f
000002b0: 8000 823f 29b9 7d3f 1f17 823f 98b6 7c3f
000002c0: 6b92 823f ec15 813f d502 7d3f 76c0 793f
000002d0: 54ab 813f c6fc 7e3f 4a30 773f c2c1 7e3f
000002e0: 5c2d 7c3f 5ef6 7a3f 2a1f 773f 5266 753f
000002f0: 7b30 823f 7a32 7e3f 42ea 7f3f b7ac 803f
00000300: 9acb 7e3f f3d5 7a3f f5ed 813f a5dc 803f
00000310: 872f 7b3f 4c5c 823f 84b5 7e3f 3730 803f
00000320: 2631 823f 8531 7c3f 06fc 813f cea2 7b3f
00000330: 1f8a 7b3f fa71 7e3f 25da 7c3f c1f9 7d3f
00000340: 0bd7 853f ec06 833f f4e8 7e3f ae18 7f3f
00000350: 3f3a 7c3f 40b6 753f ee7f 793f a9e6 8a3f
00000360: 794b 7e3f c777 7d3f 1ba6 893f 8784 793f
00000370: ef74 7c3f ebe9 843f fda3 803f 717d 853f
00000380: 92ee 793f 8a0f 7e3f 95a4 793f e8e8 7d3f
00000390: 369a 7c3f 0f24 773f 1322 873f b9fb 843f
000003a0: c2ce 7c3f 051a 7a3f f131 7f3f 36de 863f
000003b0: a205 7b3f f07e 793f b367 783f 071d 783f
000003c0: a2da 7a3f ee63 7e3f 3d27 813f 8614 7d3f
000003d0: 0dd0 823f 0a14 843f b149 843f f8be 7d3f
000003e0: a30f 803f ea07 823f 0194 823f 6a9b 803f
000003f0: fdf0 833f dbe6 7a3f 1f50 7b3f b51e 803f
0.98870426 1.0275959 0.99361867 1.0113882 0.9944601 1.0164495 1.0091605 0.9639075
0.9911001 1.0896639 0.9779294 0.9780482 1.0600295 1.0178292 0.98382205 0.9606601
1.02129 1.0145946 0.97642726 0.9559623 1.0012228 0.98448235 0.97775835 0.9870364
0.98811024 0.9884865 0.95555794 1.0071182 1.0061011 0.98151314 0.9853959 0.9930003
0.9871668 1.0594463 0.98539364 0.9740019 0.97998446 0.9785339 0.9856623 0.9901301
0.9820694 0.9753765 0.991073 0.9796839 0.9876188 1.0601627 0.96508336 0.9827687
0.981267 0.9754255 0.9931182 0.95133275 1.0033615 1.0063682 1.046398 1.0149224
0.9690541 0.99845624 0.9896142 0.961669 1.1298776 0.9759433 1.008484 1.0001068
1.0299145 0.9537855 0.9832142 0.9872071 0.9823012 1.0457186 0.991438 0.99564576
0.9963549 0.9869095 1.0294421 0.983946 0.9750899 0.9815992 0.9853105 1.0493162
0.983846 1.0176538 0.971181 1.0310227 1.0235375 0.96191186 1.0056015 1.00313
0.97191346 0.99490935 0.99923444 1.0155255 1.0760229 0.98560315 1.0185091 0.9951895
1.0273169 0.96337277 0.97180116 0.98893434 1.0195718 0.98728776 0.96723753 1.007853
0.9941722 1.0001026 0.98121953 0.99294674 0.997322 0.970857 1.0199232 0.9782397
0.9955904 0.971375 0.9905902 0.99191266 1.0028967 0.9794621 0.9938302 0.97143114
1.009067 0.98420495 0.96763813 0.9912786 0.9904492 1.011855 1.0037513 0.96860766
0.9771522 0.9968484 1.0087276 1.0998268 0.9991975 0.9858687 0.97439045 0.9731117
0.9655725 0.9792749 1.002028 0.99718016 0.97961926 0.9845998 0.9871568 1.008711
0.9801289 1.0515951 0.9624331 0.97711074 1.0241963 0.97809166 0.98734015 0.987341
1.0041723 0.9802916 1.004738 0.99275327 1.0187674 0.98697805 1.012239 0.943277
0.9795467 0.97268987 0.9688949 1.0382828 1.0235704 0.982137 0.9862079 0.9846144
1.0134336 0.99433154 0.9930336 0.9888233 1.0156403 0.99110657 1.0163306 0.98716116
1.0200933 1.0084815 0.98832446 0.975593 1.013041 0.9960445 0.9655806 0.995144
0.9850671 0.98032176 0.9653193 0.95859253 1.0171045 0.9929577 0.99966824 1.0052708
0.9952942 0.9798271 1.0150744 1.0067335 0.98119396 1.0184417 0.9949572 1.0014714
1.0171249 0.9851306 1.0155036 0.98295295 0.9825763 0.99392664 0.9877036 0.9920922
1.0456251 1.0236487 0.9957421 0.99647033 0.98526376 0.95981216 0.9746083 1.0851642
0.9933391 0.9901089 1.0753816 0.97467846 0.98615927 1.0383886 1.0050045 1.0428907
0.97629654 0.9924246 0.9751676 0.9918351 0.9867281 0.96539396 1.0557274 1.038932
0.9875299 0.9769595 0.9968558 1.0536563 0.9805547 0.97459316 0.9703323 0.9691929
0.9798986 0.9937123 1.00901 0.9885944 1.0219742 1.0318615 1.0334989 0.9911952
1.0004772 1.0158665 1.0201417 1.0047429 1.0307919 0.9800851 0.9816913 1.0009371

layers.0.1.bias f4 [256]
00000000: f9db 7f3c 5cd7 98bc 8207 733a 63ff 9c3a
00000010: 49dd f7bb d892 033c 3e17 a03c 5f4b 1cbc
00000020: f5be e23c b6f9 b33d 952a a5bc 0099 99bc
00000030: 7e2c 9b3d 5fc5 d6ba 0d47 9bbc 4613 10bd
00000040: 173f ccbb 416b ed3a 544f 46bb 1204 06bd
00000050: 0a1c 50bc 18d1 afbb d107 13bd 5051 d93a
00000060: e65e 1f3c 42dc ecbc c6ee 3cbd 5029 773c
00000070: 2317 223c fcd7 55bc 748a c1bb 9bdb 903c
00000080: 7f35 31bc 93ad 583d 2b7f 0abd bae3 a9bc
00000090: 96d9 3bbc c67b 80bc f7ff ab3c d689 b8bc
000000a0: 55e4 a33b 34f3 8ebc 69be 9abb c0d6 e0bc
000000b0: 8523 46bc 6548 db3d b7c4 adbc 2cc7 a9bc
000000c0: 5637 06bd c5ff c4bc b029 9fbb fad1 3ebd
000000d0: ee57 6c3b 18ae 283c c9cb ba3c 729d d93b
000000e0: 51c5 d6bc 540f 8339 3c1e 323c d96c 3cbd
000000f0: 26ea ad3d 4651 7ebc 894f 57bc c7bf 56bc
00000100: a248 ae3c d4f9 41bd bdf5 debb 0ce2 393c
00000110: 3bc4 9cbc 0eef 263d 77da af3c 320e 2b3c
00000120: 29e3 593c b501 8dbc 5ec4 e03c 53fa 303c
00000130: cc5b 22bd dbe3 6fbc bbac 66bc e078 853d
00000140: 778b 32bc 2ad1 6f3c fa0b e7bc 43e0 9d3d
00000150: b8c1 0e3c e4ea 8e3a 5687 ce3b 818f ba3b
00000160: 0909 c4bc f4b6 febc ca9e 06bc 4f9e 483d
00000170: 6c22 eb3d 1d9d 043d d1d9 193d f98b 533b
00000180: f8c2 e13b 2fbc 3abd 06f9 f2bc 3ded e5bc
00000190: 8c92 1ebc 12a5 adbb 0611 ffbc c922 6a3c
000001a0: 710c 0f3d 201a 5ebc df39 bfbc 6339 caba
000001b0: 7e46 09ba 5897 1dbb 8e47 bd3c fd96 8cbc
000001c0: f0d0 073c 4e17 b63a aa8a 01bc f5bc d4bc
000001d0: 69f2 4e3c 08ec 0ebd 0732 f2bb 8759 b9bc
000001e0: 0672 043d 7bbe 703b b186 b239 4ed3 813c
000001f0: 1676 193d 3f26 7f3b f43c 7cbb f22a a5bc
00000200: a057 bf39 cd44 cebb 869a aebb 5ceb e33d
00000210: c980 f5bb e811 33bc f230 1bbc 6987 15bc
00000220: 494f 9cbc e7a2 2ebc 5235 8fbc 50c2 c93c
00000230: 65fc 08bd 07a7 e53a 7dd0 ab3c 91c6 fa3c
00000240: 017b e7bc 8fed b43d 9f4f 04bd 8cb4 cebc
00000250: 69a4 0c3d 3d18 84bc 7bf9 2e3c df5c e83b
00000260: 3c69 3ebc f659 b6bc fee3 d53c 3366 4a3c
00000270: 7867 55b9 759b 93ba 68b8 083c bec9 6abd
00000280: 9d15 e039 883d d3bc 3b31 bdbc 520d d43c
00000290: 7a7f 843d d75f c93b f5ff 8a3c ee03 f13b
000002a0: 3eb2 19bc 35d4 a53c 57a5 b33c c05a bf39
000002b0: c559 763c 0880 c23c 8f1a 1ebc 81c6 993c
000002c0: dce9 8f3d 325a 543d 8641 553c 033d f8bc
000002d0: 45cc 653d e89e 533b 5c2c 95bb 3525 46bc
000002e0: 8eb9 d33b a52f fa3a 466d c8bc 74db 10bd
000002f0: 2df7 da3c 1dc7 833c 3a3a 71b9 b3a5 913c
00000300: 6b49 86bc 0528 7cbc 0a90 773b 3650 113d
00000310: 3683 15bd 97b5 173d 4d8b 85bb 4454 2dbc
00000320: 8c1f 8c3c 9f2d 88bc 83d4 0c3d 537c 8bbc
00000330: 583d 653b 25b2 63bc df4e d3bc 5179 e13b
00000340: 98ff 97bc ac7a f739 860d 40bc 026f 1f3b
00000350: ec02 4ab8 2a7f d1bc 3a65 bcbb 9bb4 a63d
00000360: f8d7 6bbc b43a f13b 215d 4e3d 553b bdbc
00000370: a6b4 cabc 9f08 7b3c 00a0 ae3c e8f7 883d
00000380: c644 dabc da92 0dbd dadb 03bd f204 ce3c
00000390: 1c03 95bb 9eab c8bc 7ff0 ba3d 7043 8b3d
000003a0: c94c 8cbc 95ce b4bc 7fcd e7bb 24ce 833d
000003b0: 650e 0bbc 631a 00bd d596 c73b 212b bebc
000003c0: a848 82bd 9159 073c f49d 0e3d 8b72 d1bb
000003d0: bcc2 3c3b df16 a53c fa00 283d 81d0 2dbc
000003e0: fd79 d33c c61c 7f3c 0b3c 313d 7232 0b3d
000003f0: ba1e 913c b87f 013c d1f8 e1bc cd37 653d
0.01561641 -0.018657379 0.0009270833 0.0011977967 -0.007564221 0.008030616 0.019542333 -0.009539454
0.027678946 0.08787863 -0.020161906 -0.018749714 0.075768456 -0.0016385725 -0.018954778 -0.03517463
-0.006233107 0.0018113629 -0.0030259686 -0.032718726 -0.0127019975 -0.005365502 -0.035896126 0.0016580019
0.009727215 -0.02891362 -0.04612615 0.015085533 0.009893212 -0.013051983 -0.0059063975 0.017682841
-0.010815977 0.05289991 -0.033812683 -0.020738471 -0.011465451 -0.01568402 0.020996077 -0.022526663
0.0050015845 -0.017449953 -0.0047224057 -0.02744615 -0.012093429 0.107071675 -0.021211965 -0.020724855
-0.032767616 -0.024047742 -0.0048572645 -0.046586968 0.0036063152 0.010295413 0.02280225 0.0066410834
-0.026217135 0.00024997687 0.010871466 -0.046002243 0.08491926 -0.015522307 -0.013141521 -0.013107247
0.021274868 -0.047357395 -0.0068041966 0.011345398 -0.019136539 0.040755324 0.021466477 0.010440396
0.013298788 -0.017212728 0.027437385 0.010801869 -0.039638326 -0.014641727 -0.014079268 0.06517196
-0.010897509 0.014637271 -0.028203953 0.0770879 0.008713178 0.0010903743 0.0063027544 0.0056933765
-0.02393009 -0.031093098 -0.008216569 0.0489791 0.11481175 0.032376397 0.03756124 0.0032279475
0.006889697 -0.045589622 -0.02965976 -0.028067226 -0.009678494 -0.005299219 -0.031136047 0.01429052
0.034923974 -0.013556033 -0.023343025 -0.001542848 -0.00052366394 -0.0024046507 0.023105409 -0.01716184
0.008289561 0.0013892443 -0.007906595 -0.025969008 0.012631037 -0.034893066 -0.0073912176 -0.022625698
0.032335304 0.003673463 0.0003405116 0.015847828 0.03746613 0.0038932709 -0.003848848 -0.02016208
0.00036495645 -0.006294823 -0.005328479 0.111288756 -0.007492159 -0.010929562 -0.009472119 -0.009126523
-0.019080775 -0.010658956 -0.01748148 0.024628788 -0.033443827 0.0017521092 0.020973438 0.030612262
-0.028256895 0.08834373 -0.032302495 -0.025232576 0.03433648 -0.016124839 0.010679598 0.007091149
-0.0116217695 -0.022259694 0.026109692 0.012353468 -0.00020351808 -0.001126154 0.008344747 -0.057321303
0.00042740713 -0.025786176 -0.023094764 0.025885258 0.06469627 0.006145458 0.016967753 0.007355205
-0.009380875 0.02024279 0.021929426 0.00036497973 0.015036051 0.02374269 -0.009649887 0.018771412
0.07027027 0.05184383 0.01301611 -0.03030253 0.05610301 0.003229076 -0.004552407 -0.012093832
0.006461329 0.0019087686 -0.024466168 -0.035365537 0.02672919 0.016086156 -0.00023005242 0.017779207
-0.01639243 -0.015390401 0.0037775063 0.035476886 -0.036502086 0.037038412 -0.004075444 -0.0105791725
0.017104886 -0.016623316 0.034382354 -0.017027056 0.003497919 -0.013897453 -0.025794445 0.006880917
-0.018554494 0.0004720291 -0.011721974 0.002432764 -4.8163274e-05 -0.025573332 -0.005749372 0.081399165
-0.014394753 0.0073617343 0.050381783 -0.02309958 -0.024744343 0.01532188 0.021316528 0.06687909
-0.026644122 -0.034563877 -0.03219209 0.025148842 -0.00454749 -0.024495896 0.09127902 0.06799972
-0.017126458 -0.022071162 -0.0070740576 0.064358026 -0.008487319 -0.031275164 0.0060909786 -0.023213925
-0.06361514 0.0082611 0.034818605 -0.0063918284 0.0028802594 0.020152507 0.041016556 -0.010608793
0.025815004 0.015570825 0.043270152 0.033983655 0.017714847 0.007903986 -0.027584465 0.05596142

layers.1.0.weight f4 [128, 256]
00000000: dc48 5dbd 0880 29bc 298b 05be 63f0 6fbd
00000010: 727a b83c 9047 1b3d 0646 3d3c b7eb 3fbd
00000020: 57d6 3a3d 2006 403d dcf8 ee3d a71b d33d
00000030: b592 d63c cb91 4abb 2e0c 43bd 9f59 cabc
00000040: c8eb 963d e22e 063d bba3 a0bd 58f5 c8bb
00000050: ba40 ecbd 96c1 63bd 11bc 6a3d e092 b6bd
00000060: 6475 43bd 367f dabd 91ec b0bd b741 813d
00000070: bd9c 5d3c fa72 8fbd bae8 c9bd 0d4d 923b
00000080: 7c4e ac3d 6a88 e83d f73f 5a3e 97c4 ab3d
00000090: 55cd d5bc 841e 44be d97e 38bd 2017 7a3d
000000a0: 791f 7b3c bdfe a3bc 6f84 883a 1a00 a53d
000000b0: 2754 4a3d e504 ef3d 2f8d 003e 5e47 b93a
000000c0: 7a34 67be 71b6 fb3c 2ef1 cf3d a30d 3b3e
000000d0: 3dfa e8bc c024 96bb 847e 1d3d 33ff 77bd
000000e0: e3db 92bd 8db0 f3bd e10c 323e e843 023e
000000f0: 3fa7 87bd 2fc3 6d3c 9229 aa3d 78f9 9b3d
00000100: 0b45 c0bb ec2c 713d 8d07 a73d 8e61 bfbc
00000110: de33 91bd 59f6 de3c e5d7 893b adf1 343d
00000120: efea ab3b 5ff8 763d 938b 6ebd d007 bbbd
00000130: 01a1 b7bd dd1e 20bc 1216 e43c 6480 f3bc
00000140: a3f0 343c 86cc 03bd 3e88 58be 19c7 aabd
00000150: 1f50 38bd 0ec8 f7bd d5ee 60bd ecf2 c5bd
00000160: 8d3e fbbb 2b37 8a3d eb1d 053c 2e4c 46bc
00000170: e2c0 0f3d 9ffc 65bd 17a3 de3d bbc9 e83d
00000180: 9185 253d ff5b 0d3d b2e0 e5bd 5e35 793d
00000190: eb10 093e 3612 0cbe 7c66 71bc 7b7e 08be
000001a0: 6d39 763c 8407 993d fcb6 0abd 9577 5dbc
000001b0: 90c4 583d 362f 02be dd49 433e cb49 513d
000001c0: d412 363e 1ecb 563d 1caa d9bd 690b 4fbd
000001d0: c791 ffbb 3a9b 29bc a971 a53d 5aeb ec3d
000001e0: e446 e23b b796 9bbb 1856 a6bd c2b8 1ebd
000001f0: dcf9 bbbd 85d6 b33d b99e 2a3e 50b5 003d
00000200: 563d cc3c 893c b83d bde2 813d 8364 413e
00000210: 1697 a0bc a951 f93d 1bf3 073e ea9c 2f3e
00000220: db9b 683d 19e1 1bbc cfa8 da3d 5e25 cdbd
00000230: 97f5 2ebd 9557 9ebb 1842 9abd e17a 53bd
00000240: 98b4 093d e40d 22bd 6aa5 1d3b 6a29 27be
00000250: 6825 723d 2e34 c83d 2cad a13d 62e3 afbd
00000260: 94eb e8bd fc9b bfbd b80c 9e3c a3cb d1bc
00000270: 3875 ff3d e933 d43d 7ff4 b9bb 6220 19bd
00000280: 739f 6a3c a376 4dbd ead2 9ebd fac5 cb3d
00000290: 1b2b 393d 69f2 723d 26f2 9b3d 81ff 473d
000002a0: e8f8 87bd b779 6b3e 8924 083d 2103 28bc
000002b0: 486e 603d 143d d73c 0dd9 2e3d 7c40 003d
000002c0: 684b 0a3d 2aed a23d 8506 1c3d 6371 28be
000002d0: 2d61 573e 5aaa 523e 4e21 babc 0b80 d6bd
000002e0: 4393 f0bb 5e6e 90bd e3a5 87bd 9dd8 c73d
000002f0: 5e78 9d3c 62c1 c33d 39b4 22bd aa1d 813c
00000300: 254d d4bc 2517 a83d adf3 503e 677b f23b
00000310: 2940 143c ced0 f7bd c8d2 433c 762a 113c
00000320: 8048 22bb f1d2 4f3b 61ca c83d 1ca2 dc3d
00000330: afe0 9cbc 9172 653e e5b0 fabd cc64 253e
00000340: fc77 15bd 71c9 bfbd 6cc2 bb3d b9b1 01be
00000350: e968 e43c f9a2 143d a181 3c3e 24c5 cfbd
00000360: 26fc 8abd e997 d83d 8e4f 98bc 8d4a 8b3d
00000370: a1c7 4a3d 14ad a7bd d581 e9bd 71cb 8fbd
00000380: 71bc c03d d351 bcbd a86c 113e 7eaa a9bd
00000390: 2849 db3d 3f42 2e3e a62c 2fbe 79de 023d
000003a0: 8def 613d 8e25 f83d 852a 9e3d 616a 41bc
000003b0: 2225 36bd 57c7 203e cf6f 29be d693 253d
000003c0: 3edf 82bd 843e f0bd b695 12bd 5aa9 833d
000003d0: 8d2e ce3a 5956 863c 9890 6bbc aa75 c1bd
000003e0: 28d7 0d3a 654d 70bc 53c6 043d 7f68 15bb
000003f0: ad5d 3fbc 52c5 2ebe d291 213e 1184 a6bc
-0.054024562 -0.010345466 -0.13041367 -0.05857886 0.022519324 0.037910044 0.011552339 -0.046855655
0.045614567 0.04688084 0.1166856 0.10308009 0.026193002 -0.0030909653 -0.047619037 -0.024700938
0.073691905 0.032759555 -0.07843729 -0.006132763 -0.11535783 -0.05560454 0.05730826 -0.08914733
-0.047719374 -0.10668795 -0.086388715 0.06311362 0.013526139 -0.07004352 -0.09858842 0.0044647516
0.08413407 0.11354144 0.21313463 0.08387106 -0.026098887 -0.19152266 -0.045042846 0.06105721
0.015327328 -0.02001893 0.0010415445 0.0805666 0.04939666 0.116708554 0.12553857 0.0014135649
-0.22578612 0.030726643 0.10153423 0.18266921 -0.028439635 -0.0045820177 0.038450733 -0.06054611
-0.07170846 -0.11898909 0.17387725 0.12721217 -0.066236965 0.014511867 0.0830871 0.07615942
-0.0058676056 0.05888073 0.08155737 -0.023361947 -0.07089971 0.027217077 0.004206645 0.044175792
0.005246512 0.06029546 -0.058238577 -0.091323495 -0.08966256 -0.009772983 0.027842555 -0.029724307
0.0110437 -0.03217747 -0.21145722 -0.08338756 -0.044998284 -0.12098704 -0.054915268 -0.09665474
-0.0076673687 0.06748804 0.008124809 -0.012103124 0.035096057 -0.05614912 0.10870951 0.11366602
0.040410582 0.034511562 -0.11224498 0.06084191 0.1338536 -0.13678822 -0.014733907 -0.13329498
0.01502834 0.074721366 -0.033865914 -0.01351728 0.05292183 -0.12713322 0.19071145 0.051095765
0.1778062 0.0524398 -0.10628149 -0.05054799 -0.0077993604 -0.01035195 0.080783196 0.11568327
0.0069054235 -0.004748191 -0.0812189 -0.038750418 -0.09178516 0.08781151 0.1666211 0.031422913
0.024931591 0.08995921 0.06342075 0.18885998 -0.019603293 0.121737786 0.13276331 0.17149702
0.05678926 -0.009514117 0.10676729 -0.10016893 -0.04271468 -0.004832218 -0.07532138 -0.05163086
0.033619493 -0.03956403 0.0024054893 -0.16324392 0.059117705 0.097755775 0.07894358 -0.08588292
-0.11373058 -0.093559235 0.019293174 -0.025609797 0.124735296 0.103614636 -0.005674898 -0.0373844
0.014320242 -0.05016197 -0.077550724 0.099498704 0.045207124 0.05931321 0.076145455 0.048827652
-0.06639272 0.2299565 0.033237968 -0.010254652 0.054792672 0.026274242 0.042687465 0.031311497
0.03376332 0.07955392 0.038092155 -0.16449504 0.21033163 0.20572796 -0.022720959 -0.10473641
-0.0073417737 -0.07052301 -0.06623437 0.097581126 0.019222435 0.09558369 -0.039722655 0.015761215
-0.025915692 0.082075395 0.20405455 0.0073999646 0.0090485 -0.12100373 0.01195211 0.008860221
-0.0024762452 0.0031711424 0.09804226 0.107731074 -0.019150106 0.22406985 -0.12240771 0.16151732
-0.03649138 -0.09364594 0.091679424 -0.12665452 0.027882056 0.036288235 0.18408825 -0.101450235
-0.06786375 0.105758496 -0.018592622 0.06801329 0.049506787 -0.08187309 -0.114017166 -0.07021225
0.09410942 -0.09195294 0.14201605 -0.08284472 0.10707313 0.17017458 -0.17106876 0.031950448
0.055160094 0.12116538 0.07722954 -0.011805148 -0.044469006 0.15701042 -0.16546558 0.04042419
-0.06390236 -0.11730674 -0.035787307 0.064287856 0.0015730426 0.016398596 -0.014377736 -0.09446271
0.0005410784 -0.01466689 0.0324157 -0.002279788 -0.011680049 -0.17067459 0.15778282 -0.020326646

layers.1.1.weight f4 [128]
00000000: 7623 7b3f 2e96 743f f43b 773f d307 7d3f
00000010: 89fa 7a3f e667 7a3f 2cdb 833f a5c0 7d3f
00000020: 6fa1 733f 2da4 833f 3824 823f fb39 783f
00000030: f765 7d3f da22 7e3f 73f8 773f 0227 6d3f
00000040: b468 803f a33b 823f 045a 803f c185 813f
00000050: fcdd 803f d4ac 803f 1fd1 803f 3b9a 803f
00000060: 29f2 7a3f 1dcf 863f 1ac6 743f a948 773f
00000070: 6de6 803f 4fbc 7a3f 88a2 783f 83e3 843f
00000080: 3e8c 803f de16 803f 3fd5 8a3f 637a 7b3f
00000090: 4861 833f 8baf 783f 4374 823f 7405 803f
000000a0: 9d41 783f 26c3 793f 7fa2 7e3f e9a0 7b3f
000000b0: d3c5 813f fc3d 7b3f 939b 803f 84cb 853f
000000c0: ff6f 753f d14e 823f 72bf 803f 75ee 7e3f
000000d0: 64da 843f 4305 783f d9d1 833f ce26 793f
000000e0: f60d 7c3f 5aac 7e3f bde4 743f 4bf3 7b3f
000000f0: 30c8 733f 08a2 7b3f 2ed0 7a3f 91d9 753f
00000100: f131 823f 09a7 843f 2d7f 7a3f fd18 7b3f
00000110: c585 843f ede0 823f 70d9 7a3f e67f 843f
00000120: 207b 7b3f b080 773f fb1c 803f beb6 763f
00000130: 60ea 803f be44 7b3f d7af 803f aa4e 813f
00000140: 0e13 713f 5585 863f b002 813f 45bb 743f
00000150: 8282 853f 3741 7f3f 479e 7f3f 276e 7f3f
00000160: 3fb9 753f 7d28 773f 47ba 833f f2a2 7f3f
00000170: 7599 803f e098 7e3f b5ba 803f 3d03 813f
00000180: d9ab 793f 5563 773f 1038 7c3f 3c50 803f
00000190: 320f 7e3f 38cc 853f cba9 7d3f 1d49 7e3f
000001a0: 41ec 743f 497d 813f 4850 7f3f cb30 7b3f
000001b0: c4cf 843f b960 7f3f 6a4d 853f 4607 813f
000001c0: b237 833f 4632 833f 77bd 7e3f d55c 803f
000001d0: 2231 7f3f 8362 783f f3df 803f 7dcb 7c3f
000001e0: 4965 803f e327 793f e4ab 833f b2b9 763f
000001f0: 4c5c 773f 87a8 8a3f 6893 813f 5a25 7e3f
0.98100984 0.95541656 0.96575856 0.98840064 0.98038536 0.97814786 1.0301261 0.9912208
0.95168203 1.0284477 1.0167303 0.9696347 0.9898371 0.9927193 0.9686348 0.92637646
1.0031953 1.017445 1.002747 1.0118943 1.0067744 1.0052743 1.0063819 1.0047067
0.9802576 1.0531956 0.9561478 0.96595246 1.007032 0.97943586 0.97123003 1.0381931
1.0042799 1.0006979 1.0846328 0.9823362 1.0264063 0.9714286 1.019173 1.0001664
0.9697512 0.975634 0.994667 0.98292404 1.0138496 0.98141456 1.0047477 1.0452733
0.9587402 1.0180303 1.0058424 0.99582607 1.0379148 0.9688303 1.0298415 0.97324836
0.984588 0.9948174 0.95661527 0.9841811 0.95227337 0.98294115 0.97973907 0.96035105
1.0171491 1.0363475 0.97850305 0.98085004 1.0353323 1.0224892 0.97988033 1.0351532
0.9823475 0.96680737 1.0008844 0.9637259 1.0071526 0.9815177 1.0053662 1.0102131
0.941697 1.050944 1.0078945 0.9559825 1.0430453 0.99708885 0.9985089 0.99777454
0.9598579 0.96546155 1.0291222 0.9985801 1.0046831 0.9945202 1.0056978 1.0079113
0.97527844 0.96635944 0.98523045 1.0024486 0.99241936 1.0452948 0.9908721 0.9933031
0.95672995 1.0116359 0.99731874 0.9812133 1.0375905 0.9975696 1.041425 1.0080345
1.0251372 1.0249717 0.9950785 1.002833 0.99684346 0.97025317 1.0068344 0.98748
1.003091 0.9732649 1.0286832 0.963771 0.9662521 1.083268 1.012311 0.99275744

layers.1.1.bias f4 [128]
00000000: b464 90bc cf9b 09bd 0e25 b7bc b508 12bc
00000010: 251b a9bc 9c72 24bd 1606 6b3b 5718 cdbb
00000020: 8995 c3bc 37d8 d23c 856e 7dbc d9be 03bd
00000030: 9076 203c e4b6 023b e726 17bc a9cb 26bd
00000040: 3570 65bc f81f b83c 646e 0dbc 7c18 aa3c
00000050: 72db a23b 07ef 613b 2723 213b 3d5e ea3c
00000060: 2453 78bc 8dab 283d 6ec0 81bc 16b5 39bc
00000070: ce5a 943c 17ad febb 17d7 f5bc 1a47 0d3d
00000080: 0d23 6fbc 7153 68b8 7e83 d73d bcb8 1fbc
00000090: fc45 643c 6704 96bc da60 583d 9281 8abc
000000a0: d1ec a7bc f313 7abc 05aa acbc 2e93 66bb
000000b0: 6c79 f43b e4ba 103c bb25 713c 4a32 bbba
000000c0: e960 41bd 1d8e 5abc c495 9ebc 2769 cd3b
000000d0: 3ce7 d43b fcaa 05bd eada a43c 98e9 a7bc
000000e0: e9b2 2fbb 92a9 e7bb 8fad 18bd 6edf bebb
000000f0: a903 2abd 4d03 d6bc 312e 1bbc 6ece d7bc
00000100: c8dc e63c 0507 dd3b 7fe3 42bd d6bc 91bc
00000110: 96f5 923d 89f1 7a3a 73c3 06bc 5f5a 1b3d
00000120: c0ae abbc 1f39 88bc 8c92 9fbc dda4 9139
00000130: d1cc b33c ce46 00bc 77c7 913c 5ead 47ba
00000140: 1662 0ebd fddc 1f3d ee69 0ebb b211 20bc
00000150: 03a9 2f3d 978b 2bbc ffeb 8f3c 8d0b 313c
00000160: a27e c0bc 1af8 c9bc 0607 c43c f324 b6bb
00000170: 1b93 7f3a b691 2c3c 7e7d 923c 2b01 8e3c
00000180: aea5 06bd 1f54 fbbc 5c9d 45bc 28ff 9a3b
00000190: 97b8 22bc 17d5 0e3d 4061 483b 6161 ecbc
000001a0: bc61 073c 3498 a1bc ff77 9ebc 8ca3 25bc
000001b0: ebde 133d 6ead 87bc bc64 623c 9e53 aa3b
000001c0: 9744 ce3c 8b0e 373d cad5 ab3a 4d2f 993b
000001d0: 4cc5 8939 2ec2 fabc cb02 743c 2cf0 583a
000001e0: 395f 50bc e842 2dbd 055d 1f3d 0924 ccbc
000001f0: d086 c4bb da3d 623d 5e32 6e3c 4965 9b3a
-0.017626144 -0.033595856 -0.022356536 -0.008913209 -0.020642826 -0.040148363 0.0035861782 -0.006259005
-0.023875015 0.025737865 -0.015468244 -0.03216443 0.0097938925 0.0019945437 -0.009225584 -0.04072157
-0.014003803 0.022476181 -0.008632276 0.020763628 0.0049700076 0.0034474747 0.0024587603 0.02860939
-0.015156541 0.04117923 -0.015838828 -0.011334678 0.018109705 -0.0077720988 -0.03000979 0.034491636
-0.014595759 -5.539082e-05 0.10523127 -0.009748634 0.013932701 -0.018312646 0.05282674 -0.016907487
-0.020498665 -0.015263545 -0.021077165 -0.003518294 0.0074607637 0.008833621 0.014718468 -0.0014281955
-0.04721156 -0.0133395465 -0.019358523 0.0062686387 0.006497292 -0.032633767 0.020123918 -0.020497128
-0.002680952 -0.007069775 -0.037274893 -0.0058249747 -0.041507397 -0.02612462 -0.009471462 -0.02634355
0.028181449 0.0067452216 -0.04758024 -0.01779024 0.07175748 0.00095727347 -0.00822531 0.03792798
-0.02095735 -0.0166288 -0.019479059 0.00027779388 0.02194825 -0.007829381 0.017795308 -0.0007617081
-0.03476151 0.03902911 -0.002173062 -0.009769844 0.04288579 -0.0104702925 0.017568586 0.010805977
-0.023497883 -0.024654437 0.02392913 -0.005558604 0.00097493985 0.010532787 0.017882105 0.017334541
-0.03287285 -0.03067976 -0.012061443 0.004730124 -0.009931705 0.034871187 0.0030575544 -0.028855028
0.008263048 -0.019725896 -0.019344328 -0.010109793 0.036101263 -0.01656219 0.013817962 0.005197956
0.02517919 0.044691604 0.0013109979 0.004674828 0.00026277674 -0.03061017 0.014893244 0.00082755345
-0.012718015 -0.042300135 0.03890707 -0.024919527 -0.005997516 0.055234767 0.014538376 0.0011855747

layers.2.0.weight f4 [64, 128]
00000000: 2ca0 8f3d 33f7 8e3e b552 3fbe e1fb a93e
00000010: be1e ba3d b042 4b3c 5048 36be 3faa 563d
00000020: ae21 2a3d e0fb 953c 0251 a1bd ad01 6abc
00000030: a156 8fbd 18a9 83bd c89c 36be b988 423d
00000040: 552d 133e 30de 5d3e f869 893d 509f 9b3d
00000050: 1a22 0d3e b5fa 133c 1ae5 dbbc 2e40 9a3c
00000060: 55ea e9bd 10c8 763b b8d9 263d 4ad1 a43d
00000070: 70bf 87bc 6f81 e5bd 64ed df3d 37a0 f1bc
00000080: f586 d0ba 17b7 8bbe 4f60 c23d 88e3 26be
00000090: aa1c 0d3d f2d0 4d3e 4d58 063d 15b2 2c3e
000000a0: 5977 173e a730 51be 3e33 bb3c 6dbb b03d
000000b0: 0652 5abe 4bea e6bc f9ba 913c 01d2 793d
000000c0: 531e 283d 1a7b 513d 0161 433d 62d3 86bd
000000d0: 7f8a f6bd 414a b33c c546 cdbd c99f 06be
000000e0: 6b7a 01be f4f0 963d 75af e1bd 26ff a9bd
000000f0: f4f4 5dbe db14 9bbc da48 a83d 2cd7 b73d
00000100: 9c9f e5bc 2b68 0d3e c8b1 2dbd ed57 543d
00000110: c3fe a0bc 7a74 68bd a899 3fbd 976e 0cbc
00000120: 48c1 813c 0c29 113d cb22 243e 7864 49be
00000130: a962 b2bd 2ff6 f1bd 9b34 5e3e af9c 0cbe
00000140: f01b 85be b9b6 58bd 7cfb 8a3d 103c 82bc
00000150: 7d9b 24bd bcdf 6bbd a527 a4bc 4420 ec3d
00000160: 4b1b 65bc 34d7 9a3e 5ed6 013e 1a63 ddbc
00000170: dd6a cdbc fd5f 273d 31ab f9bd d912 be3d
00000180: 167a 9c3d f636 79bd a779 a2bd c4bb 1bbe
00000190: 8b26 43be e912 1dbd d26f 67be aa7a ebbd
000001a0: 9251 153d 87b3 043e 90aa c73d bcd0 92bd
000001b0: dc2a f1bc 824b 253e aa3a a93d b573 0fbe
000001c0: 7bf5 ff3b af6b 833c 7b8b 9abd b18a 9d3c
000001d0: 2d09 bd3d b3ab 1b3d 0604 f1bc bfa6 88be
000001e0: 8bb8 babd c389 903d ed2b 06bd b248 0c3e
000001f0: c346 813d ba4c 0a3e acbd 90bd 1042 d6bd
00000200: 871a 433b a857 093e 9800 773e e594 923d
00000210: ffef dbbd da01 e23b 4b2f 213e dbbd f33d
00000220: 59e9 a7bd 878e 3abe ce44 183e 511e 9d3e
00000230: ff65 3fbe f444 cbbc 61ac 23be 0e0f 7e3e
00000240: b306 233e 7eed 7d3d 8403 babd 7278 ab3c
00000250: 9ba9 13bd ac0e f3bd dc11 e9bd a4c0 c6bd
00000260: 4fb6 fbbd d9eb a63d 4cf8 4abd 8fc7 213d
00000270: 98d9 3ebe a041 00bd 9093 2bbe 98cb 983c
00000280: f2b6 713e 2d3f a8bd cbd6 b13d c7d9 87bd
00000290: 3bed 2fbd cd97 583e 09b2 303d 86c9 78bd
000002a0: 9bb9 e73c 0f19 f53c e392 383d 10d6 e73d
000002b0: 40ff 303d 466c 55bd d668 7bbd cbf4 283e
000002c0: 2db7 4e3d de8d ffbd 3671 1e3b 628c 87bc
000002d0: 414a 293e c475 223c 44bb cb3d 233c 023e
000002e0: a272 d8bd ed35 12bc 4f48 9bb9 53bf 043d
000002f0: 6418 0f3e e772 6cbd 903c 81be 80f2 09bd
00000300: ec99 19bd 2bf7 423d 7449 3ebd 72ba 95bc
00000310: ca52 e9bd a0f7 4fbe 4f65 4e3d 5eee bebd
00000320: 7514 07bd 9094 0cbe 337b 1cbe 0a9e 44be
00000330: 012b f33c 7a8b 3ebb 7f31 a1bd c501 f13d
00000340: b113 853d c36c f33d 2b3a 323e ca49 4bbd
00000350: 5c47 c03d 21ac 45bd f46e 8ebd d363 013e
00000360: b91d b53b 732d ad3d 65eb 3bbe d596 9a3c
00000370: 638f aa3d 1bf9 db3d bce1 36be deac b63e
00000380: 1057 d53b b56c abbd 837c a9bd 581d e23d
00000390: fd84 523d ea36 333e 4709 403d 5528 893a
000003a0: 3f57 e9bd 0ccb 793d 4b09 02be f9c0 4cbd
000003b0: 7881 0a3e 2b1a 67be 7a08 03bd 39e0 003e
000003c0: 191b 3c3d 634d 363d 92bf dd3b d3a6 18bd
000003d0: 02b3 41bd e28f 89bd 522d 82bd 455e d83d
000003e0: 889c 15bd 0fca 6b3b 69f9 413d 33de 263d
000003f0: bba1 063d 5f59 f63d 8e52 00bd da28 8e3b
0.07012972 0.27922973 -0.18683894 0.3319998 0.09087895 0.012406036 -0.17801023 0.052408453
0.041536026 0.01830858 -0.07876779 -0.014282626 -0.06998945 -0.064287364 -0.17833245 0.04749367
0.14372762 0.21666789 0.06709665 0.07598746 0.1378254 0.009031941 -0.026842643 0.018829431
-0.114216484 0.0037655868 0.040734977 0.08047731 -0.016570777 -0.11206328 0.109339505 -0.029495342
-0.0015909361 -0.27288124 0.09491026 -0.16297734 0.034451164 0.20099238 0.032799054 0.16864808
0.14791621 -0.20428716 0.022851583 0.08629499 -0.21320352 -0.028187891 0.01778935 0.06099129
0.041044544 0.05114279 0.047699932 -0.06583287 -0.12038135 0.021885993 -0.10023264 -0.1314689
-0.12644355 0.07370177 -0.11019794 -0.08300619 -0.21675473 -0.018930843 0.0821702 0.08976588
-0.02803021 0.13809268 -0.042405874 0.051841665 -0.01965273 -0.056751706 -0.046777397 -0.008571289
0.015839234 0.035439536 0.16028897 -0.19667232 -0.08710224 -0.11814534 0.21699755 -0.13731645
-0.25997877 -0.052908633 0.06786248 -0.01589778 -0.040187348 -0.057586417 -0.020038435 0.11529592
-0.013983558 0.30242312 0.12679431 -0.027024794 -0.02507537 0.040863026 -0.12190855 0.09280939
0.076404735 -0.06084343 -0.079333596 -0.15208346 -0.19057672 -0.038348112 -0.2260125 -0.11498006
0.036454745 0.12959109 0.09749329 -0.07168719 -0.029439382 0.16142085 0.082631424 -0.14008982
0.007811246 0.016042558 -0.07546135 0.019231172 0.09230266 0.038005542 -0.029420864 -0.26689717
-0.0911723 0.07057526 -0.032756735 0.13699606 0.06312325 0.13505831 -0.07067427 -0.10461819
0.002977045 0.13412344 0.2412132 0.07157306 -0.10739135 0.0068971934 0.15740697 0.119014464
-0.081988044 -0.18218432 0.14869997 0.30687192 -0.18691252 -0.024813153 -0.15983726 0.2481043
0.15920524 0.06199407 -0.09082702 0.020931456 -0.03605042 -0.11868033 -0.113803595 -0.09704712
-0.12290632 0.08150453 -0.0495532 0.039496955 -0.18637693 -0.031312585 -0.1675551 0.018651769
0.23604944 -0.08215175 0.08683547 -0.066333346 -0.04295085 0.21151657 0.043138538 -0.060739063
0.028286746 0.029919175 0.045061957 0.11320126 0.043212175 -0.05210521 -0.061379276 0.16499631
0.05046766 -0.12478231 0.0024176366 -0.016546432 0.16532232 0.009915773 0.099478275 0.12718253
-0.105687395 -0.00892399 -0.00029617778 0.032409023 0.13974148 -0.057726767 -0.25241518 -0.03367853
-0.037500307 0.047599 -0.04645677 -0.01827738 -0.11392744 -0.20309305 0.050389584 -0.09322809
-0.032978494 -0.13728547 -0.15281372 -0.19200912 0.029683592 -0.0029074834 -0.07870769 0.11767916
0.064978965 0.11885979 0.17405002 -0.049630918 0.09388611 -0.048259858 -0.069547564 0.12635736
0.005527225 0.084559344 -0.18351515 0.01887075 0.0832813 0.107408725 -0.17859548 0.35678762
0.006510623 -0.083703436 -0.08275702 0.11040753 0.05139636 0.17501417 0.046883848 0.001046429
-0.11393594 0.060984656 -0.12698857 -0.04998872 0.13525951 -0.22568576 -0.031990506 0.12585534
0.04592428 0.044507395 0.0067672217 -0.03726847 -0.047289856 -0.067168966 -0.063563004 0.105648555
-0.036526233 0.003597859 0.047356997 0.04073925 0.032869082 0.12028765 -0.03132873 0.004338366

layers.2.1.weight f4 [64]
00000000: f6f2 783f fcfc 7e3f 1528 853f a694 7c3f
00000010: d033 813f f17f 743f 06dc 803f 584f 753f
00000020: df6f 6e3f f1a3 803f 85ba 853f b4ba 8b3f
00000030: a4d8 803f 0d5a 823f 64f7 6e3f 6f22 813f
00000040: fa0d 813f 87e0 6e3f b93c 793f c91b 7f3f
00000050: 55a4 7d3f d651 7e3f 94fe 773f 5a59 723f
00000060: b17b 8b3f 52fb 713f ad67 713f 2f4f 763f
00000070: 912c 7b3f 06bc 873f 4617 763f f3a5 843f
00000080: 868f 7a3f 4064 743f e9a6 743f d5e1 743f
00000090: ad4d 833f 8508 813f 9e88 6f3f 65ed 753f
000000a0: 0499 753f 307b 763f 64d7 743f 1a2b 843f
000000b0: 31cc 7f3f c466 7a3f 0970 7f3f 399f 833f
000000c0: 3734 833f 1fca 6d3f c741 833f ffda 863f
000000d0: d6b2 7b3f 7521 853f 3757 823f 7043 843f
000000e0: 01d6 7f3f 0e96 6f3f d94a 823f 533d 7d3f
000000f0: 36e3 7d3f b7a3 783f d54e 813f 2b2b 8c3f
0.9724573 0.99604774 1.0402857 0.9866432 1.0093937 0.95507723 1.0067146 0.95824194
0.9313945 1.0050031 1.0447546 1.0916352 1.0066113 1.0183731 0.9334624 1.0088633
1.008239 0.9331135 0.9735828 0.9965177 0.99078876 0.9934362 0.9687283 0.9466759
1.0897123 0.9452411 0.9429882 0.96214575 0.9811488 1.0604255 0.9612926 1.0363144
0.9787525 0.9546547 0.95567185 0.9565709 1.025808 1.0080725 0.93567836 0.9606536
0.9593661 0.9628172 0.9564116 1.0325654 0.99920946 0.9781306 0.9978033 1.0282966
1.025031 0.9288654 1.0254449 1.0535582 0.98319757 1.0400835 1.0182866 1.033308
0.9993592 0.9358834 1.0179092 0.989217 0.9917482 0.9712481 1.0102183 1.0950674

layers.2.1.bias f4 [64]
00000000: 7a53 f4bc 57ee 35bc 9324 623d 8f8c 44bc
00000010: e9dc cf3c da7c 4abd 07ce 02bb 65f8 f9bc
00000020: 8e94 0fbd a504 403d a45a 963d e670 9d3d
00000030: 31a8 e13b 51a7 803c 3c53 15bd 1cdf 133c
00000040: 911e 0abc a089 17bd d1f8 92bb b7cd 8ebc
00000050: 7c11 4fbc 9c25 c0bc 25b3 97bc 49a1 01bd
00000060: d7c4 a33d 3d63 37bc 2c99 72bd e221 2abd
00000070: 3730 8dbc cdce 9f3c 9fb3 80bc 52dc d93c
00000080: ba91 40bc 281f 32bd 7052 b6bb b227 e9bc
00000090: 1709 333d 5528 c7bc 2292 e1bc 6716 14bd
000000a0: e8ef 18bd 5cbe ebbc c61d ebbb 461f 5b3d
000000b0: 87ef 53bc 4754 29bd 3952 2dbc e105 d93c
000000c0: e719 7c3d 3041 4bbd 4610 3c3c b9fa 813c
000000d0: bb0d 023c 56b8 4f3d 80d9 7e3c acd3 0d3b
000000e0: 8a20 d4bb ea4c 22bd f0f5 94bc 5936 58bc
000000f0: 3be3 50bc ed50 a9bc c3b8 28bc e988 623d
-0.029824961 -0.011104188 0.05521066 -0.011996402 0.025373893 -0.049435474 -0.0019959228 -0.030513952
-0.035053782 0.04687943 0.07341507 0.07687549 0.006886505 0.015704783 -0.03645633 0.009025361
-0.008430139 -0.036996484 -0.0044852276 -0.017432077 -0.012638446 -0.023455434 -0.01851804 -0.031647954
0.079965286 -0.011193094 -0.059228107 -0.04153622 -0.017234905 0.01950779 -0.01571065 0.026594315
-0.011753494 -0.043486744 -0.0055640265 -0.028461311 0.04370984 -0.024311224 -0.027535502 -0.036154177
-0.037338167 -0.028777294 -0.00717518 0.05349662 -0.012935526 -0.04134014 -0.010578685 0.026492061
0.06154814 -0.049622715 0.011478489 0.015866624 0.007937844 0.050712906 0.015554786 0.002164106
-0.0064736055 -0.039624132 -0.018183678 -0.013196551 -0.012749488 -0.020668471 -0.010297957 0.05530635

layers.3.0.weight f4 [32, 64]
00000000: 0c19 483e b7dd a7be 73cb b33b 77fa 653c
00000010: ee80 eebd 3e92 213b e062 883e 4c69 ef3d
00000020: 49fd fabb ccdf f7bc 50e3 c6bd 51f3 fd3e
00000030: 0985 d8be 2bd8 75be d656 1bbd 34ca 63be
00000040: 6840 15be a8ea abbe 6eab eb3d 1d9c 1bbe
00000050: 1d64 0dbe 1885 76be 6352 5cbb 13c8 fa3d
00000060: e02d 3fbd cbc8 bd3d cd19 6a3d 2126 fcbd
00000070: e948 8b3e 4f70 1fbd e231 0f3e f0cd 533e
00000080: 0681 9f3d a3e0 443e 7da2 d63d 1da1 74be
00000090: 8341 1fbd 50e7 b93c 3ea9 0bbe 46a4 5a3e
000000a0: de78 acbd a1e0 603d 6ca2 09be e956 97bb
000000b0: bb5b 163e f465 09be 3470 97bd 4d79 53be
000000c0: 26ca 243e fe6d e5bc 7a16 043e 03c6 90bd
000000d0: de93 afbd 5309 6b3e 3e19 0ebe f166 de3d
000000e0: bb96 15be 889d c5bd 298c 89be 5829 273c
000000f0: 02f4 753e 1197 8dbd ce63 14be a31a 48bc
00000100: 45ef b4be ec81 b43d 0bdc 1abe fc87 543e
00000110: 1110 4b3d 8a6a dcbd dc4a 713e c032 39be
00000120: b37f 553e 9615 45be 801f 18be 94e1 07be
00000130: 55f1 b8bd d558 803e e95b 48be 3aa9 42be
00000140: 5b34 7ebd 8608 f23c dab0 08be 3255 93bc
00000150: eb41 d93e 438f 1dbd 05ab c3bd a249 bd3a
00000160: 91f7 52bd 9cd9 29bd 49d3 15be 602b 19bd
00000170: e33a 20be 8ad4 30be 3231 db3d 6eef 4abe
00000180: 1396 3ebe d5a2 32bd f429 4f3e 7fda 643d
00000190: f841 65be 8315 45be 45e2 1c3e fbfe f83d
000001a0: 15b7 073e 8997 4abe f591 033e d4f8 573b
000001b0: 9bab 47bc f37a a6be 8361 7dbe 1d59 d0bc
000001c0: 1800 0bbe a86d 2abb baf8 6fbe 7e33 2b3e
000001d0: 6d3b 0b3e 73fc 83be db6b 06bd da30 ecbd
000001e0: df57 4dbe ef7c 603e af11 4dbe 0f44 7f3c
000001f0: b921 4d3e 2b6b c2bd 11b3 96bb 69a8 753d
00000200: 4d16 4d3d 15e5 02bd 17b3 37be 1ec6 7d3d
00000210: a18b 19bc 010e 9b3d a8b4 b6bd 2448 00be
00000220: 2043 433d 13a6 973c 54e1 b23e b00f f83e
00000230: 72bf 3b3e e6d0 87bd a480 ddbc 9b9d 233b
00000240: 0f45 833d 5c24 2f3e c143 23be 4646 003d
00000250: 18c3 75bc eb93 0a3e 9ec0 4b3e 7c3f 0bbb
00000260: 3a0f 8a3e e58f 2ebe 0b7e d8bd d3ec 593e
00000270: bad4 36be fb0b 773d 48f5 2bbd 105e 42bd
00000280: 59e5 1f3e 01c5 cf3d b60f 6f3b a680 1bbe
00000290: 5960 823d beca 783d 7ac4 acbc bb1d 733d
000002a0: 5c4a 7d3e f62e 733d 5cf7 a43d cf1f 8bbd
000002b0: 14b2 82be 2c26 6cbc 3fa9 73bd c7d3 cbbd
000002c0: 4dea c43c d68b 863d 04fa 8b3e 1b29 aabd
000002d0: 6f35 44bd a79a 05be 6402 d8bd 4ae6 c13e
000002e0: edd7 a9bd bcba 7c3e d0e9 f13c 8c9a 8fbe
000002f0: f1b1 a2be 0a9c 523e 67ee d2bd 8259 3abe
00000300: 9601 c9bb bfb2 cabd e718 383d eb18 25be
00000310: dd0c ca3d 1134 13be 7460 d2bd e618 19bd
00000320: 4515 e3bd 406b 79be 9a26 273e e4b8 9e3d
00000330: 4313 3ebe dd1e de3e 0962 d63d 1200 4abe
00000340: 74e1 af3d dac4 6bbc eaf1 c73e 38cc 253d
00000350: dad6 8c3e 311d 913e 9340 b9bd eff7 37be
00000360: 6b36 4fbe 3096 7d3b 985c 58be bf5e b93d
00000370: 2e70 933c c8cb 60be b99e 403e 182c 2b3c
00000380: 4888 46bd 5657 a8bc 8a35 80bc db1a b6bd
00000390: cc31 98be c3a2 13bd 1482 8cbe fa67 82bd
000003a0: 4a71 68bd d5c0 2e3d aa57 22be 61eb 43be
000003b0: e5df b6bd 5563 8f3e 8a0c 033e a48e db3d
000003c0: 780d 123b bea9 a13d 50d0 3bbe 42f4 b13d
000003d0: bbd2 dabd de88 dfbd d254 703e dc29 71be
000003e0: 3216 3e3e 701f 8abd 42c7 7a3e 6be4 3d3e
000003f0: d6fb 403e 928e 3bbd 503b 293c 19ea 03be
0.19540805 -0.32786343 0.0054868995 0.014036766 -0.11645685 0.0024653818 0.26637936 0.11690006
-0.0076595885 -0.030258082 -0.09711325 0.49599698 -0.42288998 -0.24008243 -0.03792461 -0.22245103
-0.1457535 -0.33577466 0.11507307 -0.15196271 -0.13807721 -0.24074209 -0.0033618442 0.122451924
-0.04667461 0.09266814 0.05715351 -0.1231196 0.27204064 -0.038925465 0.13983873 0.20684028
0.07788281 0.19226317 0.10480211 -0.23889585 -0.038880836 0.022693306 -0.1363878 0.21351728
-0.08421491 0.054901723 -0.13440865 -0.004618515 0.1468343 -0.13417798 -0.07394448 -0.20651741
0.16092739 -0.02800655 0.12899199 -0.07069018 -0.08573125 0.22952776 -0.13876817 0.10859478
-0.1460828 -0.09649187 -0.26864746 0.010202728 0.24018863 -0.06913579 -0.14491197 -0.012213382
-0.35338798 0.08813843 -0.15123002 0.20754999 0.04957587 -0.10762508 0.23563713 -0.18085766
0.20849495 -0.19246516 -0.14855766 -0.13269645 -0.090304054 0.25067773 -0.19566311 -0.19009867
-0.06206165 0.02954508 -0.13348714 -0.01798496 0.42433104 -0.038466703 -0.09554104 0.00144415
-0.05150563 -0.041467294 -0.1463138 -0.03739488 -0.15647464 -0.17268577 0.10702743 -0.19817898
-0.18611936 -0.04361232 0.20230848 0.055872437 -0.22388446 -0.19246487 0.1532069 0.12158009
0.13253434 -0.19784369 0.12848647 0.003295471 -0.01218691 -0.32515678 -0.24744229 -0.025433118
-0.13574255 -0.0026005302 -0.23434725 0.16718861 0.13596888 -0.2577854 -0.032817703 -0.11532755
-0.20053051 0.21922658 -0.20026277 0.015580191 0.20032395 -0.09493097 -0.004598983 0.05997506
0.050070096 -0.03195675 -0.17939411 0.061956517 -0.009371669 0.075710304 -0.08921176 -0.1252752
0.047671437 0.018511808 0.34937537 0.4844947 0.1833475 -0.06631641 -0.02703888 0.0024965766
0.06409656 0.17103714 -0.15943815 0.031317018 -0.015000127 0.13532989 0.19897696 -0.0021247556
0.26964742 -0.17047079 -0.10570916 0.21281748 -0.17854586 0.06031416 -0.041981965 -0.047452986
0.15614833 0.101449974 0.003647787 -0.15185794 0.06366033 0.060740225 -0.021089781 0.059354525
0.24735397 0.059370957 0.080549926 -0.067931764 -0.25526488 -0.014413398 -0.059487578 -0.09952503
0.024037505 0.0656964 0.27339184 -0.083086215 -0.04790252 -0.13047276 -0.10547331 0.3787101
-0.08293138 0.24680609 0.029530436 -0.28047597 -0.31776384 0.20567337 -0.10299378 -0.18198207
-0.0061342223 -0.09897374 0.044945624 -0.16122787 0.09865735 -0.1437533 -0.10272303 -0.03737726
-0.11088041 -0.24357319 0.16323319 0.07750109 -0.18562035 0.43382922 0.104679175 -0.1972659
0.08587924 -0.014390195 0.39051753 0.04047796 0.2750767 0.28342584 -0.0904552 -0.17965673
-0.20235603 0.0038694255 -0.21129072 0.090512745 0.017997827 -0.21952736 0.18810548 0.0104475245
-0.04846981 -0.020549458 -0.01565053 -0.08891841 -0.29725492 -0.036043894 -0.27442992 -0.06367488
-0.056748666 0.042664368 -0.15853754 -0.19132759 -0.08929423 0.28005472 0.12797752 0.10720566
0.002228586 0.07893704 -0.18341184 0.086891666 -0.10684725 -0.10914777 0.23469856 -0.23551124
0.18563154 -0.067442775 0.24490073 0.18544166 0.18846068 -0.045790263 0.010329083 -0.1288227

layers.3.1.weight f4 [32]
00000000: b41b 8d3f 01b8 853f 8312 9a3f c29e 913f
00000010: 8435 8b3f 200a 8f3f 025b 8e3f fbb2 963f
00000020: 2dca 803f 5455 933f a1b8 903f 3831 8b3f
00000030: a36a 8d3f ec49 8c3f d483 923f 3bd2 883f
00000040: 0c0e 8e3f 4f78 8b3f 8eaf 8a3f f223 923f
00000050: 5174 863f 91b0 8b3f dfb4 803f fdac 923f
00000060: 6f6a 863f 7356 8c3f a328 8c3f 41da 933f
00000070: 11a0 953f effd 903f 2606 8e3f 7fb0 8b3f
1.1024079 1.0446779 1.2036899 1.1376574 1.0875707 1.1174965 1.1121523 1.177337
1.0061699 1.1510415 1.1306344 1.0874395 1.1048168 1.0960059 1.1446481 1.0689157
1.1098037 1.089609 1.0834825 1.141722 1.0504247 1.0913259 1.0055197 1.1459042
1.0501231 1.0963882 1.0949901 1.1550981 1.1689473 1.1327494 1.1095626 1.0913237

layers.3.1.bias f4 [32]
00000000: b87d bc3d 37ca f53c d5f2 1b3e 7f49 dd3d
00000010: 78ab fb3d 5e70 a53d 0d88 043e abf8 333e
00000020: 2c11 843c 6647 ed3d 80d6 ea3d 2e51 ce3d
00000030: 6ae9 b53d 5f54 543d 83e3 003e c364 953d
00000040: a424 013e 38e3 6c3d 05d8 6a3d f6c7 eb3d
00000050: 31fc 5f3d 3279 e93d bbf7 843c a567 0d3e
00000060: 1956 823d 234d f13d 6fb1 c23d 9b03 5a3d
00000070: 5604 ec3d 7b8e 143e c728 5d3d 4d44 883d
0.092036664 0.03000365 0.15229352 0.10805034 0.122885644 0.08078073 0.12942524 0.17575328
0.01612147 0.11585884 0.11466694 0.100740775 0.08882411 0.051838275 0.12586789 0.072946094
0.12611634 0.05783388 0.05733492 0.11512749 0.054683868 0.11400069 0.016231408 0.13809069
0.06364078 0.11782291 0.09506499 0.053226095 0.115242645 0.14507477 0.053993966 0.06653652

fc_out.weight f4 [2, 32]
00000000: 9f8a a8be a9b8 a73e cb09 3abe 9073 43be
00000010: a9dc 7abe 0510 983d 3af9 7d3d 6e54 9cbe
00000020: c4be fcbe e27f 7e3e 98ec 8fbe b9e0 eebd
00000030: 1913 c7be 1cbe 563e de0d d23e 9467 023e
00000040: 9887 acbe 1785 8d3e 423b 39ba a72d e8be
00000050: 947d 1fbe 69d8 c8bd 01da 953e bd51 f7be
00000060: 289a ecbd 0a8f 34bf 93f4 9fbe a460 f03d
00000070: 7161 8a3e fc80 e1bd 9ef9 ffb9 f11a 32be
00000080: 4df4 06be d40a 43be e4e3 633d 478c 09bf
00000090: cfed 393d 1287 babd 428b 29be bab6 babd
000000a0: 3942 34be 7833 c2bc db20 d53e 0ac5 2d3e
000000b0: 4290 023f b622 08bf 934a a1be f050 52be
000000c0: 1aa5 a73e 2b80 6b3d c5e9 2b3e f9f9 6abe
000000d0: 0dc6 27bd e85b f83e a8ca cb3d b7b1 6b3e
000000e0: b652 a1be 7485 7fbd 0b45 023b a8f9 c1bd
000000f0: efc1 81be 4400 f83d d885 94be f052 ffbe
-0.3291826 0.32758072 -0.18167798 -0.19087052 -0.24498238 0.074249305 0.06200526 -0.30533165
-0.49364293 0.24853471 -0.28110194 -0.11663956 -0.38881758 0.20970958 0.41026205 0.12734824
-0.336972 0.27640602 -0.000706602 -0.4534733 -0.15575248 -0.09806902 0.29267886 -0.4830455
-0.115528405 -0.7053076 -0.31241283 0.11737183 0.27027467 -0.1101093 -0.0004882337 -0.1739309
-0.13179131 -0.190471 0.055637255 -0.5372967 0.045392808 -0.09107794 -0.16557029 -0.091168836
-0.17603387 -0.023706183 0.4162663 0.16969696 0.5100137 -0.53177965 -0.31502208 -0.20538688
0.3274315 0.057495277 0.16788395 -0.2294692 -0.04096036 0.4850762 0.09950763 0.23017012
-0.31508416 -0.06238313 0.0019877579 -0.09471446 -0.25343272 0.12109426 -0.29008365 -0.49867964

fc_out.bias f4 [2]
00000000: 2d9d 84bb 2b9d 843b
-0.004047057 0.004047056
