test/output/local4/simulatorRun/fsv_volumes_from_scratch/fold_3/current.nn.pt (torch_old, 737324 bytes, 42 tensors)

layers.0.0.weight f4 [256, 66]
00000000: a11d 91bd 4666 0dbe f278 9dbc a186 35be
00000010: 09e1 66bd ec9e 36be 7635 2f3e fa36 0cbe
00000020: dc1d 793d 5a63 d63d 390e cbbd 5dda 7f3e
00000030: e12a 343e 7643 b93d f94e 883e 9118 4fbe
00000040: 96e7 ec3e f17a 5ebe 34d6 17bc 7356 b33c
00000050: f91b 4f3c 712b 483e f284 dc3d 5ac8 003f
00000060: 23b0 34bd f5cb 8b3d 3f98 05be 4b07 873e
00000070: 01ea b1bd 33aa 653d 1d9c 443e 90fc b73d
00000080: 5ca7 dbbd f038 91be eb43 87bd 654f 553e
00000090: 0ddb 663d 285a 2a3e bf4a 183e 829b a7bd
000000a0: 11ef 0bbe 8f7a 433e 9729 28be 2759 ab3c
000000b0: 9573 c23e ce38 7d3e a925 d53d de9c ec3d
000000c0: 998f 113c 549c 6fbd e6d8 4dbe 5b36 99be
000000d0: 0acf aabd e576 86bc df6d f3bc 1f8e 1c3e
000000e0: 034d 12bc f724 373e 2299 3f3e 0432 8d3e
000000f0: ff80 483a a7b0 a5be cd3a 873e 26de 1c3d
00000100: e2e0 27be 7e4f 983d e739 47be 46ac 70bd
00000110: c1b1 56be 9df6 fabd 38bd 903e f6d4 0bbe
00000120: 2cdd a7bd ce70 043d 6064 14be 663a d6bd
00000130: 1415 7e3e fa73 be3a 2ecf 6ebd e4ef b2bc
00000140: a1ac 66be 7558 18be be4c 8d3d f806 9a3d
00000150: 7238 d7bc 5cbe f9bd 6b85 1b3e e637 5d3e
00000160: 4f66 c33d 2d5c 463e a6d7 483e 83ac 4f3e
00000170: 2ca2 52bb d89b 8abe c811 05bd 0133 293e
00000180: 66e5 a5bd 8b5d ab3d 97ab 39bd 1810 48be
00000190: ad14 da3c efb8 063e 502e c6bd 5e4b 95be
000001a0: fd15 f9bc 1c24 87be 0fe0 3ebc 69ae 053e
000001b0: ee54 2c3c 42d1 80be 81d2 f8bd a19f 05be
000001c0: 6de7 23be c05f a23e c033 913d 4a96 3a3d
000001d0: 0d6d d9bd 239f 54bd cdd3 02bf 4b94 a13e
000001e0: 8cc1 d13a b769 c1be ccf2 1cbe f5d7 4c3c
000001f0: 5a5a 6a3c 09cd 27be c8a4 4c3e 6a56 eabd
00000200: a633 20be 241f 803e 3835 70be df31 0b3d
00000210: ae3d 53bd 1a1a 393e 48c2 23ba 3bb1 81be
00000220: 9fe1 263e 01e5 693e a261 4bbd 8738 14bd
00000230: 1364 2ebd 0e46 283d cd22 903d d21f acbd
00000240: 2bf3 6e3e e89a 333d 58fb 7dbe 5098 283d
00000250: 7e2e 86be 1459 ab3c 70e2 f2bd 7c45 70be
00000260: c2ce 77bd c6d6 96be 39ab 883d 7c57 2bbe
00000270: a897 b1bc 2eb6 01be 99d3 c9bd 3841 a53d
00000280: 5a8d 75be 0d3e 923e 1bd6 e3bd 565b e3bd
00000290: eae0 fe3d f5b2 f33c cd3c 0f3b 005b 483e
000002a0: 8e19 92bc 89cd 4ebd 40d2 c1bc f49a f93d
000002b0: 8507 3d3d b01b a7be f764 083e fd55 983b
000002c0: 6ebc 1bbe b906 ca3e 69fc cb3d 4f47 08be
000002d0: 4cbe 543c 30d2 eebd b479 40be 37a3 bf3c
000002e0: 4542 943d 312a 953d a315 1a3c 4448 ab3e
000002f0: 238f fc3c 3ece b33c 705f f4bd 83e8 f2bc
00000300: 88d7 57be eda3 993e c2cb 8c3e fa5a 153e
00000310: dc66 50be 0742 90bc 61c1 e73c 9632 e73d
00000320: 4119 38be 315c bcbe b458 003d 5247 603d
00000330: d074 403e 0b7d 523e db29 223d 1d5a 86be
00000340: 7b0c b43d 92ae 37bd 9e8c b63e 2162 57bd
00000350: b865 b5be 4f4d aa3e 27a5 21be 9517 043e
00000360: 9058 41bd 8de5 c83e ccef 58bd bc27 4e3e
00000370: ef9a d9bd 1afa 2bbe a787 943e 74c7 a63e
00000380: f642 3b3e ce96 22bd 0095 26be 9b54 9e3d
00000390: a7bf 8b3e 88a4 783e b962 99bd 9350 1dbe
000003a0: 5dd0 70be c320 14be f1f4 3a3d 3414 c3bd
000003b0: 5343 93be d2fc b8be 5c39 2fbc 91c8 7fbe
000003c0: 6a2d 773e bef7 3bbe 598a 063e 88cd 62bd
000003d0: 6cd5 28bd 5bf8 533e d5f7 6e3d b7dc 19be
000003e0: e89b 8e3d 9e43 0f3e b680 d83e 8aaa 18be
000003f0: 137d 923d 4e35 5cbd 6b76 443e 2dbc 9bbd
-0.070857294 -0.13808545 -0.01922271 -0.17727138 -0.056366954 -0.17834061 0.17110237 -0.13692847
0.06081949 0.104681686 -0.09914822 0.24985643 0.17594482 0.0904607 0.2662275 -0.20224215
0.46270436 -0.21726586 -0.009267379 0.021891808 0.012640947 0.19547822 0.10767545 0.5030571
-0.04411329 0.06826011 -0.13046359 0.26372752 -0.08687211 0.056070518 0.19200177 0.08983719
-0.10725281 -0.28363752 -0.06604751 0.20831068 0.056361247 0.16635954 0.14872263 -0.08183958
-0.13665415 0.19089721 -0.16422115 0.020916535 0.37978807 0.247287 0.10407574 0.115533575
0.008884334 -0.058498695 -0.20102271 -0.29924282 -0.08340271 -0.016414115 -0.029715477 0.1528859
-0.008929494 0.17885195 0.1871076 0.2757722 0.00076486164 -0.32361338 0.2641205 0.038297795
-0.1639438 0.07437037 -0.19455682 -0.058758043 -0.20966245 -0.12254069 0.28269362 -0.13655457
-0.08196482 0.03233414 -0.14491415 -0.10460357 0.24812728 0.0014530413 -0.05830305 -0.021842904
-0.2252679 -0.14877494 0.06899403 0.075208604 -0.026272032 -0.12194511 0.15187614 0.21603355
0.09540998 0.193711 0.19613513 0.20280652 -0.003214012 -0.27072024 -0.03248766 0.16523363
-0.08100395 0.08367451 -0.045329656 -0.1953739 0.026621187 0.13156484 -0.09676802 -0.29159063
-0.030405993 -0.26394737 -0.011650099 0.13054813 0.010518296 -0.2515965 -0.121495254 -0.13049175
-0.1600625 0.31713676 0.07089949 0.045553483 -0.10616503 -0.051909577 -0.5110443 0.3155845
0.0016003116 -0.37775967 -0.15326995 0.01250266 0.014303768 -0.16386808 0.19984734 -0.114422634
-0.15644702 0.25023758 -0.23457801 0.033983108 -0.051572494 0.18076363 -0.00062469067 -0.2533053
0.16297005 0.22841264 -0.049653657 -0.03618672 -0.042575907 0.041082434 0.07037888 -0.08404507
0.23334949 0.043848902 -0.24802911 0.04116088 -0.26207346 0.0209165 -0.11859596 -0.23464006
-0.060499914 -0.29460734 0.06673283 -0.16732591 -0.02167876 -0.12667152 -0.09854812 0.0806908
-0.23979703 0.28562966 -0.11124822 -0.11101405 0.12445243 0.02974842 0.0021856308 0.19565964
-0.017834451 -0.050488982 -0.023659825 0.12187758 0.04614975 -0.3263831 0.13319765 0.0046489225
-0.15208599 0.39458254 0.09960253 -0.13308452 0.012984823 -0.11661184 -0.18796426 0.023393257
0.072392024 0.07283438 0.009404573 0.33453572 0.030829972 0.02194893 -0.11932266 -0.029651886
-0.21078312 0.30007878 0.27499205 0.14585486 -0.20351738 -0.01760961 0.028290452 0.112889454
-0.17978384 -0.36789086 0.031334594 0.054755516 0.1879456 0.20555513 0.039590698 -0.26240626
0.08791443 -0.044844218 0.35654157 -0.052583817 -0.35429168 0.33262107 -0.15785657 0.12899621
-0.0472036 0.39237633 -0.052963063 0.20132345 -0.10625254 -0.16794625 0.29009745 0.32574046
0.18287262 -0.0396946 -0.16267776 0.07730981 0.27294657 0.24281514 -0.07489533 -0.15362768
-0.23516984 -0.14465623 0.04564375 -0.09525338 -0.28762302 -0.36130387 -0.010694828 -0.24978854
0.24138418 -0.18356225 0.13138713 -0.05537179 -0.04121916 0.20700209 0.05834182 -0.15025602
0.069633305 0.13990638 0.422857 -0.14908805 0.07152762 -0.053761773 0.19185798 -0.07604251

layers.0.1.weight f4 [256]
00000000: fe8d 7e3f ba03 773f b00f 823f 11f2 753f
00000010: 12a0 863f 0cd9 723f 9949 7d3f 9955 743f
00000020: 0a6a 6a3f 9557 783f e68d 713f b76b 8a3f
00000030: 87be 7a3f 6aef 7d3f dfe5 803f 60ac 813f
00000040: 0708 813f 1bab 7e3f d5c1 943f 1f10 7d3f
00000050: 5442 803f 0d4e 7d3f 332e 733f 2a10 7c3f
00000060: 9c9a 753f 0bfc 7b3f 0b8f 7c3f 911e 823f
00000070: de5d 823f a5d0 8a3f b020 8d3f 03bc 803f
00000080: 9f8a 793f a397 773f 9e6f 7b3f fd0f 773f
00000090: ddc4 703f 81a2 7b3f 3e12 883f 829b 793f
000000a0: f1bc 7d3f 6912 7a3f 13e4 733f de3a 7d3f
000000b0: 8f42 8b3f 94fd 7f3f b118 7b3f f9e8 833f
000000c0: 79c3 793f cdb6 823f 4f0d 853f ddc5 803f
000000d0: e3d6 823f b550 783f 0bc6 923f 780e 783f
000000e0: 267e 793f 93a1 773f c491 813f 9940 723f
000000f0: cba2 863f cb24 7c3f c968 763f 923c 833f
00000100: 7406 7f3f 72d7 823f 95ae 7a3f 0d6c 7c3f
00000110: d949 813f e39c 843f fd00 793f 57e1 823f
00000120: 6f77 7f3f d58e 823f 741c 763f af56 783f
00000130: f090 833f 6c19 843f 7438 763f 1cff 803f
00000140: 79cd 723f 8fda 7c3f ae47 863f 1a54 7e3f
00000150: e031 7d3f 5edc 7c3f 3ceb 793f 9761 7f3f
00000160: 2805 7a3f 3336 853f 114e 7c3f 4659 783f
00000170: cc2a 7e3f 9edb 6a3f 404c 833f e6ea 873f
00000180: ddde 843f a8c5 703f 3811 7d3f 8696 883f
00000190: 6441 763f e013 793f 6012 813f a4b2 783f
000001a0: d0a6 7a3f 1776 7b3f d7e7 7c3f 5ea0 7b3f
000001b0: 8030 7a3f 210a 783f e339 7c3f 3545 763f
000001c0: 2166 853f 474e 773f 5a6a 7a3f 01e8 733f
000001d0: 7b52 813f 4c20 793f b3e3 7c3f 2d29 7b3f
000001e0: be88 7d3f cf8a 733f 8a42 7d3f 89c3 7d3f
000001f0: 3e69 873f 0e3b 833f 2020 7c3f 9c21 733f
00000200: a3c5 813f 1519 743f eabf 763f 86d0 7b3f
00000210: 83bc 7d3f df7e 793f d4e7 713f dee0 8f3f
00000220: 19c1 783f e8b1 7f3f b40b 7c3f a2f7 7b3f
00000230: 149b 7d3f f1f3 7c3f 2144 7c3f df5a 813f
00000240: 3694 803f f263 7f3f 4948 7e3f ab41 803f
00000250: 4277 7f3f fb6c 793f 8332 783f 97d0 7c3f
00000260: 62b8 743f a438 7d3f f7c0 803f 6d92 7a3f
00000270: f586 7e3f 1b05 7b3f 9dbc 883f 1776 7d3f
00000280: 04c5 7a3f 7d7d 833f 6c39 733f 5124 7d3f
00000290: 9b92 853f dca5 7b3f 8541 7e3f c9df 753f
000002a0: a415 853f 1f63 7a3f 98af 793f 5571 783f
000002b0: 813a 823f 04c1 793f ec78 7a3f 7fdf 803f
000002c0: a608 753f 4e4c 783f 5d73 783f e56d 743f
000002d0: e936 783f 37b6 7b3f fc8b 803f de9d 903f
000002e0: bd0e 7e3f 4b3e 853f 2233 7f3f 0cc6 7d3f
000002f0: b958 863f 7d41 813f f329 893f 4ad2 893f
00000300: 2ef6 7c3f 1dd3 7a3f a6f7 823f efb2 8f3f
00000310: 197c 843f 9874 803f a281 7a3f e582 763f
00000320: 96ae 713f 3761 763f cb1a 743f f0bd 7b3f
00000330: 3417 7c3f f45e 7b3f 0a7d 823f 4851 813f
00000340: b54b 743f 43c9 803f a924 753f 3426 7c3f
00000350: 312e 893f 9c4a 803f 73c7 7f3f ea94 833f
00000360: 1383 7e3f 45e4 7e3f 8b29 7e3f 3ee9 7b3f
00000370: 571a 7f3f b522 7a3f 0898 823f 4eb8 783f
00000380: 3d77 7a3f b43f 7d3f 8e6c 823f 01f9 813f
00000390: 167b 813f f7cd 7b3f 5339 7f3f 3409 783f
000003a0: 9fee 743f d9fc 833f d33c 813f c3bb 853f
000003b0: b774 843f 022d 833f 1649 793f 3593 863f
000003c0: 36bd 8a3f 0324 7c3f fb80 803f 28d5 893f
000003d0: 9ad5 7f3f b429 813f 42e2 743f aeea 853f
000003e0: 36d9 793f 3ddc 793f 7684 803f 7f09 793f
000003f0: c84d 843f 2ef6 803f f18c 813f 33cc 7b3f
0.9943541 0.9649006 1.0161037 0.9607249 1.05176 0.9486244 0.98940426 0.9544311
0.9156805 0.9700864 0.94357145 1.0814122 0.9794697 0.9919344 1.0070151 1.013073
1.0080575 0.99479836 1.1621653 0.98852724 1.0020242 0.9894722 0.9499237 0.98462164
0.9593904 0.9843146 0.98655766 1.0165578 1.0184896 1.0844923 1.10256 1.0057377
0.97477144 0.96715754 0.9821719 0.9650877 0.9405039 0.98294836 1.0630567 0.9750291
0.99116427 0.9768434 0.9526989 0.9891795 1.0879687 0.99996305 0.9808455 1.0305473
0.9756389 1.0212036 1.0394686 1.0060383 1.0221828 0.9699815 1.1466688 0.9689708
0.9745811 0.9673092 1.0122609 0.9462982 1.051843 0.9849364 0.9625364 1.025286
0.9961922 1.0221999 0.9792264 0.9860237 1.0100662 1.0360378 0.97267133 1.0225018
0.99791616 1.0199839 0.96137166 0.9700727 1.0278606 1.0320258 0.9617989 1.0077853
0.94844776 0.98770994 1.0490625 0.9934708 0.9890423 0.98773754 0.97624564 0.99758285
0.9766412 1.0407165 0.9855662 0.9701122 0.9928405 0.9174136 1.0257645 1.061856
1.0380512 0.940516 0.988544 1.0670936 0.9619353 0.9729595 1.0083733 0.97147584
0.97910786 0.98227066 0.9879126 0.98291576 0.97730255 0.96890455 0.9852583 0.9619935
1.0421792 0.96603817 0.9781853 0.95275885 1.0103296 0.97314906 0.9878494 0.98109704
0.99036777 0.9513368 0.98929656 0.9912649 1.0578992 1.0252397 0.9848652 0.9497316
1.0138439 0.9535077 0.9638659 0.98365057 0.9911577 0.97459215 0.94494367 1.1240499
0.97169644 0.9988084 0.9845536 0.9842473 0.99064755 0.98809725 0.98541456 1.0105857
1.004523 0.9976188 0.9932905 1.002004 0.9979135 0.97431916 0.96952075 0.9875578
0.95593846 0.9891455 1.0058888 0.9787968 0.9942468 0.98054665 1.068256 0.99008316
0.9795687 1.0272671 0.95009494 0.9888354 1.0435365 0.98299956 0.99318725 0.96044594
1.0397229 0.97807497 0.9753356 0.9704793 1.0174104 0.97560143 0.9784076 1.0068206
0.9571632 0.9699143 0.9705103 0.95480186 0.96958786 0.9832491 1.004272 1.1298177
0.9924124 1.0409635 0.996874 0.9913032 1.0495826 1.009811 1.0715927 1.07673
0.9881314 0.97978383 1.0231826 1.1226481 1.0350372 1.0035582 0.97854054 0.9629348
0.9440702 0.9624209 0.9535338 0.98336697 0.98472905 0.9819176 1.0194409 1.010293
0.9542802 1.006142 0.95759064 0.98495793 1.0717221 1.0022769 0.9991371 1.027982
0.99418753 0.9956706 0.9928214 0.98402774 0.99649566 0.9770921 1.0202646 0.97156227
0.97838193 0.9892533 1.0189378 1.0154115 1.0115688 0.9836115 0.99696845 0.9688904
0.95676607 1.0311538 1.0096687 1.0447925 1.0348119 1.024811 0.97377145 1.0513674
1.0838993 0.9849245 1.0039362 1.0768175 0.99935305 1.0090852 0.9565774 1.0462244
0.9759706 0.9760168 1.0040424 0.97280115 1.0336237 1.0075128 1.0121137 0.9835846

layers.0.1.bias f4 [256]
00000000: 9a30 a7bc ceee b039 228c 2dbc 0270 b1bc
00000010: cc81 043e 6269 1dbd 1b3d 96bc 1c6b fc39
00000020: 2d2c 3fbd 64f1 16bd bc76 c6bc de1e 86bc
00000030: eb05 a5bc 5a70 4cbc 85b6 b93c 9f64 173c
00000040: 9371 963c 2f09 4d3d fc78 153e cde9 f3bb
00000050: 08fe 1abd 5fa0 e6bb ffb2 14bd 0e6c a63b
00000060: 2e9b aebd 5b47 c8bc 4f09 c7bc 8270 5d3d
00000070: 7c3c 5fbc 4728 123d 9978 013d d2f0 7d3c
00000080: 7a04 fb3b 38e7 91ba 42fc 74bb 3509 0abd
00000090: 58d8 b1bc 88a1 413b 8a5d 153d 1d63 e4bc
000000a0: df1f faba 44bd 69bc 8800 ccbc 689c a93c
000000b0: 1d48 393c a750 0cbc 3a27 af3c ea83 b73c
000000c0: 6f93 873b 13ea 6e3c db7c 99bc 4714 93ba
000000d0: 31e1 193c 9c9d 58bd 383a 813d 3461 89ba
000000e0: b824 b13c d868 fcbc 1038 013d a0f1 49bd
000000f0: d752 9a3d 0db2 ba3c 1b43 3fbd b3a2 273d
00000100: e75c 11bc 298a 6e3a 6685 ae3b 78a1 12bc
00000110: 1e8e ac3c 98ea 003d cf8a 8c3b eb17 0b3c
00000120: 6c04 ab3a 0cd8 1a3c f6b1 25bc 9f67 febc
00000130: e10d ecbb b06d 0e3d c50d aebc 8426 ccbb
00000140: 48d8 5d3c 9602 4d3c ef29 013d 9857 b5bc
00000150: 43fb 813c 74fb 11bc 1612 0e3c cd05 ff3c
00000160: eebc 153c cee1 703d bca4 2a3d cf44 ccbc
00000170: 69e2 cb3b 2927 8bbd e6d9 063d b62e 94bb
00000180: 6af5 3c3d 4c20 1abd 1bb5 f5bc 1851 f73c
00000190: 49df 303c fe17 b63a 09e9 74bc dc74 5e3c
000001a0: bd72 18bd 5382 20bb ecf0 f5bc ea39 17bb
000001b0: cfc6 173c 1af9 473c e747 1f3a 6d6a 69bc
000001c0: 143c b83d 1098 18bd 7201 7bbd a5b4 41bd
000001d0: b91a 5b3c 3b2d 35bc 91e6 ca3b f152 6c3c
000001e0: 8fb7 84bc aafb 13bc 91f1 9d3c 928e 143d
000001f0: cd84 863d a206 2a3d c1bd c2bc 2e8b 52bd
00000200: 8324 733c bcb7 f8bc ce4d ccbc 8b46 f23b
00000210: 0dd9 bb3c fbbd 7dbd 5690 5ebc 4336 c03d
00000220: ed6c 69bc 63d5 91bc 1b85 f4bc 2803 8e3c
00000230: b213 e93c 2f3e 38bc 3c32 a8ba 7007 553b
00000240: d83f c9bb ee0f e83b 335f c13b f335 d3bb
00000250: 9abd 06ba 1e9b a9bc a657 e0bc b015 bb3c
00000260: 03b0 8ebc 0dc7 333b 770d 1a3c f7ac eebb
00000270: f23d 303c ddef c9bc 7c60 063e 487b 143d
00000280: c513 c6bb d831 893d 8335 9cbc de8c 2fbc
00000290: 2cdf 6e3d 4f2e d6bc d6dd 0f3c 0c3c 2bbd
000002a0: c904 3c3d e7d4 80bb c869 b5bc 2138 ec3a
000002b0: 2dca 4e3d 7c2a 563b 35e6 8b3b 418a 83bc
000002c0: 3da0 29bd dd67 b2bb 7475 1dbd 44ee 49bd
000002d0: 1700 dbbc 8adc cd3b 194e 553c 14ae a83d
000002e0: 708a 73bb 0692 813c 11c4 a6bb ac98 cc3c
000002f0: 9b22 373d cbca e43c 0f33 033e dee0 6a3d
00000300: c784 fc3c 3f27 94bc b084 b13c 68ee ef3d
00000310: 4c31 1d3d 9504 f63b 192d 37bc 7df4 26bd
00000320: 800d 50bc f3c6 88bc da5b 12bd 33fb 5e3b
00000330: 4f63 5f3c d7e8 50bd ceee b03c 2e44 353d
00000340: 9cf4 0cbd 0ece 86bb 44ab fbbc 00e1 8b3c
00000350: 09f5 1f3b 469a cd3c 2928 5fbc 79f8 843c
00000360: 0191 5a3c 5d8a a1bc 81e9 5cba c62f f6bb
00000370: 65cf 5fbc 490a 94bc 1649 e039 9f7b fbbc
00000380: 6290 e23b 7f83 f33c 8d18 67bc f817 033a
00000390: 5230 ab3c 81f3 97bc ae89 cf3c 6798 05bd
000003a0: 2d51 73bc 8c91 b83c aafc c23b 7a3e 043d
000003b0: 574c df3d 6944 993d e3a2 b73b 0367 6e3d
000003c0: 8214 f23d 9608 b4bc 6450 0cbd 82ae 963d
000003d0: 7125 923c 727f 5d3b d233 74bc d78d a63c
000003e0: 90a7 50bc 1119 a0bc 08ee c63c 9482 63bc
000003f0: 9e53 893d 76b9 7f3d f790 893d 5fab 98bb
-0.020408917 0.0003374726 -0.010592492 -0.021659855 0.12940139 -0.03843058 -0.018339684 0.00048144988
-0.04667299 -0.0368513 -0.024226539 -0.01637214 -0.020144423 -0.012477959 0.02267004 0.0092402985
0.018364703 0.050057586 0.14596933 -0.0074436427 -0.03783992 -0.0070381607 -0.036303516 0.005078799
-0.08525692 -0.024448087 -0.02429643 0.054062374 -0.01362526 0.035682943 0.03160915 0.015499311
0.0076604458 -0.0011131531 -0.0037381803 -0.033700187 -0.021709606 0.0029545743 0.03646616 -0.027879292
-0.0019082985 -0.014266316 -0.024902597 0.020704463 0.011308697 -0.008564151 0.02138101 0.022401769
0.0041374485 0.014582175 -0.018736294 -0.0011221253 0.009392069 -0.052884683 0.063099325 -0.0010481239
0.021623954 -0.030811712 0.031547606 -0.049302697 0.07535332 0.02278998 -0.046694856 0.040926646
-0.008872247 0.0009099567 0.005325961 -0.00894963 0.02106386 0.031473726 0.004289008 0.008489589
0.0013047582 0.009450924 -0.01011323 -0.03105527 -0.007203803 0.034772575 -0.0212468 -0.0062301774
0.013540335 0.012512824 0.03153413 -0.022136495 0.015866881 -0.008910049 0.008671304 0.031130696
0.009139283 0.058809094 0.04166101 -0.024935154 0.0062220586 -0.067945786 0.032922648 -0.00452217
0.046132483 -0.037628457 -0.029993584 0.030190036 0.010795423 0.0013892648 -0.014948138 0.013577666
-0.037218798 -0.0024491742 -0.030022107 -0.002307529 0.009263708 0.0122053865 0.0006076083 -0.014246565
0.08995834 -0.037254393 -0.061280675 -0.047291417 0.01337307 -0.011058147 0.0061920364 0.014424072
-0.016200809 -0.009032169 0.019280227 0.03626878 0.065682985 0.04151023 -0.023772122 -0.051402263
0.014840248 -0.030361049 -0.024939444 0.0073936633 0.022930646 -0.061948758 -0.013584217 0.093853496
-0.014247161 -0.017801946 -0.029848626 0.01733549 0.028451774 -0.0112452945 -0.0012832354 0.0032505654
-0.006141644 0.007081977 0.005901241 -0.00644564 -0.0005139947 -0.020703848 -0.027385544 0.02283749
-0.017417913 0.0027431876 0.009402624 -0.0072838026 0.010756956 -0.024650509 0.13122743 0.036250383
-0.006044837 0.0669896 -0.019068485 -0.010714738 0.058318302 -0.026145129 0.008780917 -0.041805312
0.045903 -0.00393163 -0.022145167 0.0018022099 0.05048578 0.0032679131 0.004269386 -0.016057136
-0.04141258 -0.0054445104 -0.03844209 -0.049299493 -0.026733441 0.006282394 0.013019108 0.08236328
-0.0037161373 0.0158167 -0.005089291 0.024975143 0.044710737 0.02792873 0.12812446 0.057343356
0.030825032 -0.01808512 0.021669716 0.11715394 0.03837709 0.0075078704 -0.011180186 -0.040760506
-0.012698531 -0.016696429 -0.035732128 0.0034024238 0.013634517 -0.051003303 0.021598246 0.044254474
-0.034412965 -0.004113919 -0.030721314 0.017075062 0.0024407527 0.025097977 -0.013620415 0.016231762
0.013340236 -0.019719297 -0.0008427129 -0.0075130193 -0.013660287 -0.01807131 0.00042779063 -0.030698596
0.0069141844 0.029725788 -0.014104974 0.0005000825 0.020897064 -0.018548729 0.025334205 -0.032616045
-0.014850897 0.02253034 0.00595053 0.032286145 0.109032325 0.07483751 0.0056041344 0.05820371
0.11820318 -0.02197675 -0.034256354 0.073575035 0.01784012 0.0033797887 -0.014904933 0.020331306
-0.0127352625 -0.019543203 0.024283424 -0.013886113 0.06705402 0.06243273 0.06717103 -0.004659101

layers.1.0.weight f4 [128, 256]
00000000: 0aeb 1d3d 6004 b7bc f252 0cbe 76b3 bf3c
00000010: 41b0 e5bd 6350 9d3d ab7e 3a3d 8029 363e
00000020: 0a96 36bd b33a 53bc 95df d6bd ca2c 713d
00000030: 322b 33bb 45d0 4e3d f137 eabb 154d 5abd
00000040: 2c4a 1b3e e94b adbd 21d4 943e 63d2 64bc
00000050: 9e63 943b f59f d5bc a49c f23c b56d 9c3d
00000060: 42a9 883d b70a 5ebd 7149 91bd afce 0b3e
00000070: 51df a53d b420 173d 68ed aabc f14b 0a3d
00000080: 3356 753c a731 c03c 6e4a fd3d d8b2 103c
00000090: f47c fdbc cb1c 41be 5c60 723d 89e2 3fbb
000000a0: 4cd3 173e ac66 c6bd 90cd 7fbd 435b 12bd
000000b0: 4ae8 043e d389 243d b822 ee3c 1c3e 76bd
000000c0: 5df5 f63d 7b99 3dbe 4e8e 083e 89b3 523d
000000d0: 5178 563c 5b0f c3bd d11e 7cbd ab21 8bbc
000000e0: 2d8e 4fbd b08d 173d c65a c53a 00ec 1c3d
000000f0: 0ae2 fcbd 1249 733d fb0d 01be 3ee9 203e
00000100: 3e48 77bd 4e70 ff3c 9c5b c7bd 4b3c e73d
00000110: 2c35 f23d c0d7 69bd 73f2 bdbb ddc9 00be
00000120: 2d37 d93c 9db8 e2bd f124 923d 597b 2fbd
00000130: 4ea4 3dbe c793 b73d f081 80bd 1ef1 ad3d
00000140: b9ea 85bd cc08 9d3d bdee 20bd 8389 ee3d
00000150: 43ec ee3a 256e 083e 2b98 49bc c1e1 1ebc
00000160: 4697 ca3d 1409 d1bd eed8 f43c fe12 f5bc
00000170: 01de e73d f46e 29bd 168a 2bbc 9dae 0bbd
00000180: 647a 00be 8da2 10bd c351 c7bd 77c0 013e
00000190: 6212 2c3e d5fa fa3d a6a6 27bb d67c 333d
000001a0: 644c d03d af03 b53d 24d8 8e3c fcaa 103e
000001b0: fe9f bc3c a06b 743d cf96 89bd 089f dabb
000001c0: 4857 2dbe 5578 88bd 362e 843c 794f 033e
000001d0: a66d ee3b d379 163e 11ac dfbd e1e6 e83c
000001e0: 03bb c73d 1166 e0bc 5c71 e7bd f665 b1bc
000001f0: 6743 353a 5360 d2bb abf4 db3c c1c6 5dbc
00000200: 30ec 8b3c 24d1 98bd b6f3 8fbd ca06 7bbb
00000210: 8c96 64bd 0cfe 283d 6b3d 9b3c 412f 07bd
00000220: 1138 94bd 7c2a afbd 5e18 d6bd 10a5 9e3c
00000230: a670 8cbb a17a 0ebe 92e1 6b3c f1fd 613b
00000240: c400 72bd 397e bf3c 4c3c ebbd 3432 04be
00000250: 1168 45bd f5d8 b93b 6569 be3d 9bcc 1dbe
00000260: 17ee 9ebd 0b10 57bd 3377 95be 8d3c 003d
00000270: 6d08 11be 8043 123e bad2 203e 6b9f b73c
00000280: 7888 34bd c18a d93d e580 eebd a7ec 38be
00000290: 8f6e 973d b9b2 c13d 15a0 f53d 7019 ed3d
000002a0: 57ea 583d 2a37 713c 9142 b8bd 6c13 01be
000002b0: f2e1 d5bd 86ba ca3b 7dd5 1ebe 5ab4 c9bb
000002c0: 437e 86bd 5996 bdbd 79ec a5bd f7c6 7f3b
000002d0: b456 1e3e c7a4 683c f97d 53bc 022c 8ebd
000002e0: 28a9 5ebe 93bf fd3d 973d c93b dd69 843d
000002f0: 6c17 263d 374d 7ebd cf4b 10be 5139 3c3d
00000300: ad7a 1ebe ffee f4bd 2099 a3bd c1d5 93bd
00000310: 26ea ef3c 096a 4b3d 2427 09bb a878 383e
00000320: 0f44 11be e102 fbbd f358 8fbe a9c8 e7bd
00000330: a673 a03d 5ee6 0c3e 281a b0bd 98d6 da3d
00000340: 5f21 4abd 13b7 5cbd 341b 213d 6aa8 cd3d
00000350: 9c8d c03c 0b6b b03d 955d cbbd 559f 1c3c
00000360: bdbc b4bd 0535 abbc cbb7 3ebd bcd5 73bd
00000370: 6b79 7bbd 4e44 34bc 8c88 62be 66e0 33be
00000380: cd0d 983d 045f cd3c 31cb 82bd db5f 253c
00000390: aa94 b7bd 6deb 71bd c552 21be 2e22 1c3d
000003a0: 234b 0ebe 55c4 1cbe 7d09 a73d 5a05 a2bd
000003b0: b810 d93d da9c c23d 1fe9 2a3e 5b53 283d
000003c0: 017d 76bc 0c41 8c3d 5ca4 c7bc 6a0f b6bd
000003d0: 22e3 d4bb 92e2 50bd aa0f 1a3e b0c3 43be
000003e0: 4e5e 75bc c9ec 393d bbb0 8d3d 61d8 9abd
000003f0: 6ed3 833d d073 273e b51b 0ebd 3d71 ae3d
0.03855423 -0.022340953 -0.13703516 0.023401003 -0.112152584 0.07681348 0.045530956 0.17789268
-0.044576682 -0.012892413 -0.10491864 0.058880605 -0.0027338979 0.05049159 -0.007147782 -0.053296167
0.15165013 -0.08461744 0.29068092 -0.013966176 0.004528477 -0.02607725 0.029615708 0.076381125
0.06672908 -0.054209437 -0.07094086 0.13653062 0.08099235 0.036896423 -0.020865157 0.03376383
0.014974165 0.023461176 0.12367712 0.008831702 -0.030943371 -0.1885864 0.059173927 -0.0029279313
0.14826697 -0.09687552 -0.0624519 -0.035731565 0.12979236 0.040170502 0.02906929 -0.060117826
0.12058518 -0.1851558 0.13335535 0.05144075 0.013090209 -0.09524413 -0.061552826 -0.016983828
-0.0506727 0.037000358 0.001505696 0.038311005 -0.12347801 0.059395857 -0.1260299 0.15713975
-0.06037163 0.03118148 -0.0973427 0.11290797 0.11826548 -0.05709052 -0.0057967245 -0.12577005
0.026515568 -0.110703684 0.07135952 -0.042842243 -0.18519709 0.08963733 -0.062747836 0.08493255
-0.065389104 0.076676935 -0.03929018 0.11647322 0.001822837 0.13323267 -0.012304346 -0.009697379
0.09892134 -0.1020681 0.029888596 -0.029916283 0.11321641 -0.04136558 -0.010469934 -0.03410207
-0.12546688 -0.03531127 -0.09732392 0.12671076 0.16803887 0.12254874 -0.0025581508 0.043820225
0.1017082 0.08838593 0.017437048 0.14127725 0.023025509 0.05967295 -0.067182176 -0.00667179
-0.16927826 -0.066635765 0.016135316 0.12823285 0.0072762547 0.1469491 -0.10921491 0.028430404
0.097524665 -0.027392419 -0.113009185 -0.021655064 0.0006914646 -0.006420174 0.026850065 -0.013536156
0.017080396 -0.074617654 -0.07028906 -0.0038303607 -0.055807635 0.041257903 0.018950185 -0.03300405
-0.07237256 -0.08553025 -0.104538664 0.019365817 -0.0042858897 -0.13913967 0.014397042 0.0034483636
-0.05908276 0.023375617 -0.1148611 -0.12909776 -0.04819495 0.0056716152 0.09297446 -0.15410082
-0.07760256 -0.052505534 -0.29192504 0.031307746 -0.1416337 0.14283562 0.15705386 0.022414884
-0.04407546 0.10622168 -0.116456784 -0.18059026 0.07394134 0.09457917 0.11993424 0.115771174
0.05295786 0.014722625 -0.089970715 -0.12605065 -0.10443486 0.006186786 -0.15511127 -0.006155533
-0.06567051 -0.09257192 -0.08101744 0.0039028504 0.15462762 0.014199442 -0.012908452 -0.069419876
-0.21744215 0.123900555 0.0061413753 0.06465504 0.04054968 -0.062085357 -0.14091419 0.0459531
-0.15476485 -0.119596474 -0.07988191 -0.07218505 0.029286455 0.04966167 -0.002092787 0.18014777
-0.14186119 -0.122564085 -0.2799755 -0.1131757 0.07834558 0.13759753 -0.08598739 0.10685462
-0.04934823 -0.05388553 0.039332584 0.10041888 0.023505025 0.08614167 -0.09929959 0.009559472
-0.088250615 -0.020899305 -0.046561997 -0.059530005 -0.06139509 -0.011002613 -0.22122401 -0.1756607
0.07424507 0.025069721 -0.06386412 0.0100936545 -0.08963902 -0.05906241 -0.1575423 0.038118534
-0.1389585 -0.1530927 0.081561066 -0.07911177 0.10598892 0.09502573 0.16690491 0.04109512
-0.015044452 0.06848344 -0.024370365 -0.08889659 -0.006496803 -0.050997324 0.15045038 -0.19117618
-0.014976097 0.04539183 0.06918474 -0.07560802 0.064368114 0.16352773 -0.034694392 0.08517692

layers.1.1.weight f4 [128]
00000000: 0fc5 7c3f e577 823f 674d 843f b3b9 813f
00000010: d124 813f 5b5b 7b3f fa71 7b3f c621 783f
00000020: 1832 8b3f 6b0d 7c3f f063 853f e667 813f
00000030: 90ec 823f d642 823f b475 783f b157 843f
00000040: b337 793f 64f0 7c3f 1136 743f 7f84 773f
00000050: fa7e 7f3f 1105 7a3f 3ab5 7f3f ac20 733f
00000060: 6728 7b3f dae1 753f 9c09 803f 74ef 763f
00000070: d8ec 7e3f 0549 7d3f c904 803f 71c0 733f
00000080: f402 743f c8fc 753f 2ea2 7f3f 656b 7a3f
00000090: 1263 803f e702 823f 4280 813f 4dac 813f
000000a0: e369 7b3f 621a 833f 960c 783f a804 853f
000000b0: d81a 793f a005 7f3f f27b 7c3f db79 7f3f
000000c0: eae0 7b3f 4ca7 793f 6e85 8d3f 4f04 7d3f
000000d0: 5bf6 7b3f b1d5 823f 43a7 823f 041f 803f
000000e0: e1ac 7e3f 5e76 813f 3bca 773f af64 823f
000000f0: a1b7 7e3f e20f 7b3f c3f5 7d3f b45d 7a3f
00000100: 9e37 823f e249 7e3f 8e9b 893f f321 7b3f
00000110: 5804 7f3f d823 7a3f 0f1b 843f 082d 873f
00000120: b447 7b3f e638 803f 6c47 803f d431 783f
00000130: befa 833f 288b 7e3f ab0a 7c3f 0ea6 773f
00000140: 4f6b 7d3f 1e9e 753f 93a5 823f b629 7c3f
00000150: 17b4 733f 6272 803f a501 723f 5a69 873f
00000160: 63a7 7e3f 5857 863f 2030 763f a620 833f
00000170: 8fb7 7f3f 9c8b 823f 8b89 793f 7688 7b3f
00000180: fead 803f 30da 803f 331b 753f 8420 7d3f
00000190: 9b7e 823f 1100 853f c8ae 813f e338 823f
000001a0: da5f 803f 929b 7e3f 4bc0 7f3f dc61 7f3f
000001b0: 9cc9 813f b211 803f 11d6 783f 3d8e 843f
000001c0: a3cd 7b3f a490 803f 3a2e 843f 5bd1 743f
000001d0: 9547 803f e5ed 7e3f b85b 803f 845f 793f
000001e0: 3a18 813f 11ff 763f 5c10 753f 2f8f 743f
000001f0: e195 7d3f 330f 833f a0b6 753f d23e 813f
0.9873819 1.0192839 1.0336121 1.0134796 1.008936 0.9818627 0.9822079 0.96926534
1.0874662 0.98457974 1.0421124 1.0109832 1.0228443 1.0176647 0.970546 1.0339261
0.97350615 0.98804307 0.95395 0.9668655 0.99803126 0.9766398 0.99885905 0.9497173
0.98108524 0.9604775 1.0002933 0.96459126 0.99580145 0.98939544 1.000146 0.9521552
0.95317006 0.9608884 0.9985684 0.9782012 1.0030234 1.0157136 1.0117266 1.0130707
0.98208445 1.0242426 0.96894205 1.0392046 0.97306585 0.9961796 0.98626626 0.9979531
0.98390067 0.975209 1.1056345 0.988347 0.98422784 1.0221463 1.0207294 1.0009465
0.9948254 1.0114248 0.96792954 1.0186976 0.99498945 0.9807111 0.9920313 0.9779923
1.0173223 0.99331486 1.0750597 0.9809868 0.99616003 0.97710943 1.0320758 1.0560617
0.98156285 1.0017364 1.0021796 0.9695103 1.0310895 0.99431086 0.9845378 0.96737754
0.98991865 0.9594439 1.0206779 0.98501146 0.9519667 1.0034907 0.9453376 1.0579026
0.9947416 1.0495405 0.9616718 1.0244339 0.99889463 1.0198855 0.974755 0.982551
1.0053098 1.0066586 0.9574463 0.9887774 1.0194887 1.0390645 1.0131464 1.017361
1.0029252 0.9945613 0.9990279 0.99758697 1.0139651 1.00054 0.9720164 1.0355908
0.9836065 1.0044141 1.0326607 0.9563195 1.0021845 0.9958175 1.002799 0.9741137
1.0085518 0.9648295 0.9572809 0.9553098 0.9905682 1.0239013 0.9598179 1.0097296

layers.1.1.bias f4 [128]
00000000: 4a5e 933a 4e33 1d3c 17a7 683c 6cae 3e3b
00000010: a870 a03b e2c1 0cbc 01f8 093c fa28 9ebc
00000020: 8e6b 523d 57af abba 23a7 113c 0373 01bc
00000030: 19e7 6dbb 7264 643b 67fd 5cbd b4ff 12bc
00000040: 0d91 e1bc 43d1 b2bb 845a 11bd 1916 1dbd
00000050: 76a9 04bc 9e48 95bd 636a 003d 3ef1 ddbc
00000060: 001b cebc fa7b 31bd 694a 9e3c 3440 6cbc
00000070: e4c9 69bc 1e26 89bc 3252 a93b 45a3 62bc
00000080: f55a 33bd 68c0 45bc 67b3 f93b 4424 efbc
00000090: 9b6f a23c d08f cfba 5534 e03b 6cd1 d13c
000000a0: f033 443b b2d0 a83c e763 05bd 47ed c0bb
000000b0: a385 4dbb b9ce 923c f8b3 a63b d23d 15bb
000000c0: 4584 86bb 0eb8 9ebc 06a6 a13d 8845 613b
000000d0: 1ab1 8bbc 5489 a13c f7c4 5d3c 07d7 12bc
000000e0: 5260 03bc ddcc 1f3d 5467 b3bc 0587 a8bc
000000f0: 4c1f 0abb c270 e2bc f77e 98bc d3c4 f9bc
00000100: 8f5e a83c 0a67 38ba 2af0 173c 052b 813c
00000110: c29c e0b9 fa08 5ebc a6a9 6d3c d050 0d3d
00000120: b8be 88bb 3066 233c 1781 53bc d174 18bd
00000130: 947f 3ebc 70ed 96bc 5b9c f8bb 5c57 83bb
00000140: 64f7 c73b f8c1 90bb a320 a53c 2512 5bbb
00000150: 7257 a5bc 1fbc c3bc 259b 38bd 57f4 a33d
00000160: 083e a4bc 6672 263d 7485 5cbc 432f 1c3d
00000170: 7e3c 653c 37b1 00bb ba1a 0cbc 2512 b1bc
00000180: 15d5 10bc 5fa9 d83b 88df aaba b205 46b9
00000190: 79c7 503b 4074 b53c dee2 39bb f22d bebb
000001a0: 2d4c b23c 6941 ae3c 35a2 82ba 6a64 abbc
000001b0: 1204 343c 7cf8 16bc ee35 adbc 2d7e 7cbc
000001c0: 9277 833c 5fbc f63b c917 a33c f5c0 54bd
000001d0: 0b8a 8b3c d6b4 77bc 3e9b dc3c 8b8d 1cbd
000001e0: 9ae4 9abb 0efc 21bd 1eb6 24bd 1c84 0bbd
000001f0: b54f 0cbc 693f 763c d8c4 0cbd f3ba bf3b
0.001124331 0.0095947515 0.014199994 0.0029095663 0.004896242 -0.008591147 0.008420945 -0.019306649
0.051372103 -0.001309852 0.008889946 -0.007900956 -0.0036301075 0.003484991 -0.0539526 -0.008972097
-0.027534986 -0.005457075 -0.035486713 -0.038351152 -0.008097043 -0.07289241 0.03135146 -0.027092572
-0.025159359 -0.043331124 0.01932259 -0.014419604 -0.014269326 -0.016741809 0.005167269 -0.013832872
-0.043787915 -0.012069799 0.0076202634 -0.029192097 0.019828608 -0.0015835706 0.006842176 0.025612555
0.0029938184 0.020607326 -0.032565977 -0.0058876607 -0.0031360171 0.017920839 0.005087372 -0.0022772443
-0.004105123 -0.019374873 0.078929946 0.003437372 -0.017052222 0.019718803 0.01353573 -0.008962399
-0.00801857 0.039013732 -0.021899857 -0.020572195 -0.0021075783 -0.027641658 -0.018615229 -0.03048936
0.020552902 -0.0007034397 0.009273568 0.015767584 -0.00042841403 -0.013551945 0.014505779 0.034500897
-0.004173126 0.009973094 -0.012909195 -0.03722078 -0.011627097 -0.018423766 -0.0075869984 -0.004008217
0.0061024893 -0.004417654 0.020157164 -0.0033427563 -0.020183299 -0.023893414 -0.045069832 0.080055885
-0.02004911 0.040636443 -0.013459552 0.03813101 0.013991473 -0.0019636878 -0.008551294 -0.021615097
-0.008839865 0.0066119875 -0.0013036588 -0.00018884873 0.0031857176 0.022150159 -0.0028363983 -0.005803817
0.021764839 0.021271424 -0.0009966554 -0.020921905 0.010987299 -0.009214517 -0.02114388 -0.015410942
0.016048227 0.00752978 0.019908803 -0.05194183 0.017033597 -0.015118798 0.026929494 -0.038220923
-0.0047269585 -0.03954702 -0.040212743 -0.034061536 -0.0085639255 0.015029767 -0.034367412 0.0058511435

layers.2.0.weight f4 [64, 128]
00000000: 8a18 013e 7d0d c73c ab86 d6bd 38e9 993d
00000010: 7580 a5bd 0468 6abe 1224 3abe 2952 b03c
00000020: db14 70be 00f1 c2bc cea7 82be f5a6 8ebd
00000030: 9f98 cdbd 2308 a33d 3a71 ad3e eafc 3dbd
00000040: 8088 503c 77b3 0fbe 3575 293e 0bae d43a
00000050: 5527 e83c 7861 59be 3a35 95bd 2d12 9c3c
00000060: 6e2c 3b3e 095b aa3d 6b41 363d cd71 29bd
00000070: 27c8 9abe c4c4 9ab9 cf9a 223e 3739 ce3d
00000080: a281 34bd 6db0 60bd 8443 89bd ace8 493e
00000090: 361b babd faf5 f8bd b962 9cbd 9326 7abd
000000a0: d17b dc3d 52af 9f3b d07c 293e d95b cd3d
000000b0: deea 85bd 931c 5dbe 7427 44bd 3c45 093e
000000c0: 4487 34be 7371 8ab9 991b d4bd abd1 86be
000000d0: edd5 393e e775 09bd 4054 72be 93ad a7bd
000000e0: 7243 9ebd 95a7 21be 7b70 30be a4b8 d5bc
000000f0: 3a64 c63d 71c4 b13c 1a62 d33d 069b 473d
00000100: f3c5 e2bd 17fd 64be c50b 64bd 7d11 793e
00000110: 93e3 83be c1b9 42be f5c0 883d 4564 04be
00000120: 9b1c b63b a78b 50be 4f00 253e 2cbd 983d
00000130: 54d8 063e bcaf 563c df78 1a3d 31ab b33d
00000140: 87ad f53d 7db3 d5bd 7b95 22be ae8a 93bd
00000150: e5a8 14be eeb3 a63d cab8 c0bb 2988 853d
00000160: 3c13 26be 5878 38bb 4aec 5b3e 5053 23bc
00000170: ee12 16bd 7de7 17be 3a8e 513c 6f69 1cbe
00000180: 805d 8a3e fcb1 003c 9f5f 933d b11e 86bc
00000190: 44ec 61be 95cc afbd b481 8ebd 1e6c 8d3d
000001a0: d803 2abe 0062 3bbe 4963 6fbd 260e 19bd
000001b0: 9c50 ee3c a75d e8bc e6b0 483d db1a 4c3e
000001c0: f715 8dbe a561 2abe bcfc 953e 4e2e 593d
000001d0: 9385 933e e448 c73c 91d9 e0bd b8a4 5f3d
000001e0: 6b7d 01be a5e6 1a3d e0c9 783e 9c76 e9bc
000001f0: e977 0cbe 55d8 1bbe e49e afbc 1d0c 96bd
00000200: d631 b7be 0a24 2cbe ffbe d9bd ff5f 573d
00000210: d212 1e3e 062c b03b d903 013e 3dec 26b9
00000220: 6649 f93d 9d6a a63d fb36 9bbe 6ab2 62be
00000230: 830e adbd e4ea 43be 1b9e 16bb c998 35be
00000240: 1673 32be 6271 b13d dac8 2dbe 72cc 02bd
00000250: a67a 0abe ac88 0fbd 19fe 84bd 482d 7abe
00000260: 0d6c 07be d01d bdbd 8201 343e aeb0 373e
00000270: 0b38 5cbb c6c3 093e 61b9 83bd 7af8 193d
00000280: 4c89 e5bd 6c02 0b3e 6015 933e 4ca6 dfbc
00000290: a619 22bd 5c3e bcbd f098 31bd 37c7 6a3d
000002a0: 52e4 66be 2e27 b53c 5445 d6bd 5618 e8bc
000002b0: deec 18bd 01b0 4b3e 96bd e33d 5710 45bd
000002c0: e278 2b3e 8bed 22be 889c 78bc 687f f53d
000002d0: df97 0e3d 17ef a23d ad85 063d 9b94 96be
000002e0: bd78 723b 51b5 923e db80 87bd bb28 7cbc
000002f0: 57f5 8abe e79b f8bd bfa3 2ebd d61b 1d3c
00000300: 0099 2e3c e296 ae3d d99d 13bd 7c0c 9b3e
00000310: 97c0 9d3d bc0f e13c e786 a1bd be70 8abc
00000320: 1625 85bd aded cbbd 1613 583d 49a2 063e
00000330: b901 d2bd 8754 dabd 2b3a f5bd aed4 cf3d
00000340: b934 183e aa23 3b3e b0bd d53c bc48 29be
00000350: d138 46be f898 bb3d 7e7b 7f3e 8758 0cbc
00000360: e84e 9d3b 2622 1b3e 0e41 f93c 604e e93c
00000370: 346d a3bd b8c7 fbbc c8f1 a53d 1ba1 053e
00000380: a6f7 1a3e 9e92 0b3e 3b0d f7bc cb65 483e
00000390: af88 1bbe 9e6e 10be 8fc5 b03c 8fa7 2d3d
000003a0: 4325 21bd 041b 0dbb a16b cbbd de75 523d
000003b0: eb12 1abe 6abd 023e e7c4 c03c 75ba e9bd
000003c0: b81a a1bd 416a 823d 999f 103d fd60 453d
000003d0: 5e95 bdbd f8d3 3d3d 3a5a 903b a989 97bd
000003e0: 6fad 1a3e 15e3 eb3d 8d08 17be eb97 8c3d
000003f0: af2f b0be 7c34 16be b67d 0d3d 296d 13be
0.12607017 0.024298424 -0.104749046 0.07515186 -0.08081142 -0.22891241 -0.18177822 0.021523552
-0.23445456 -0.023796558 -0.2551865 -0.06965438 -0.10038876 0.07960536 0.33875448 -0.046383776
0.012727857 -0.14033304 0.16548617 0.0016226185 0.028339067 -0.21228588 -0.07285543 0.019051636
0.18278667 0.08318145 0.04449598 -0.041368295 -0.3023083 -0.0002951977 0.15879367 0.100695066
-0.04406894 -0.054855753 -0.06702331 0.19717664 -0.09087221 -0.12156291 -0.07636017 -0.061071943
0.107658036 0.0048731947 0.16551518 0.10027284 -0.06538938 -0.21592931 -0.047889188 0.13405317
-0.17629725 -0.00026405937 -0.10356826 -0.2633184 0.18148012 -0.033559706 -0.23664951 -0.081874035
-0.07727708 -0.15786584 -0.17230408 -0.02608902 0.096870854 0.021700116 0.10321446 0.048731826
-0.11072912 -0.22362171 -0.055675287 0.24323077 -0.25759563 -0.19016172 0.06677429 -0.12928875
0.0055576093 -0.20365773 0.16113399 0.07457957 0.1316846 0.013103422 0.037712928 0.087728865
0.11995988 -0.10434625 -0.15877335 -0.072041854 -0.14517553 0.081397876 -0.0058814036 0.06520111
-0.16218275 -0.0028147902 0.21476856 -0.009968594 -0.036639147 -0.148344 0.012790257 -0.15274595
0.2702446 0.007854935 0.07195973 -0.016372057 -0.22062784 -0.08583943 -0.06958333 0.06905387
-0.16603029 -0.18299103 -0.058444295 -0.03736701 0.029091172 -0.02836497 0.04899683 0.1993212
-0.2755582 -0.16638811 0.29294384 0.053022675 0.28812847 0.02432675 -0.109789975 0.054600447
-0.126455 0.037817616 0.24295759 -0.02849894 -0.13717617 -0.15219243 -0.02143807 -0.07326529
-0.3578021 -0.16810623 -0.10632133 0.052581783 0.15436867 0.0053763418 0.12599124 -0.00015918999
0.12172203 0.081258036 -0.30315384 -0.22138372 -0.084500335 -0.19132572 -0.0022982422 -0.17734064
-0.17426714 0.08664204 -0.1697115 -0.031933255 -0.13523349 -0.03504245 -0.06493778 -0.24431336
-0.13224812 -0.09234202 0.175787 0.17938492 -0.003360274 0.13453588 -0.064318426 0.03759048
-0.11207828 0.13575143 0.28727245 -0.027300976 -0.03957524 -0.091915816 -0.043358743 0.057318892
-0.22548035 0.022113409 -0.10462442 -0.028331917 -0.03733527 0.19891359 0.11120145 -0.048111286
0.16745332 -0.15910928 -0.015174039 0.119871914 0.034812804 0.07955759 0.032842327 -0.29410252
0.0036998235 0.28653958 -0.06616374 -0.01539057 -0.27140304 -0.12139111 -0.04263663 0.009589156
0.010656595 0.08524872 -0.036039207 0.30282962 0.07702749 0.027473323 -0.07887059 -0.016899463
-0.06501214 -0.099574424 0.052752577 0.13147844 -0.10254235 -0.106606536 -0.11973985 0.10147987
0.14863862 0.18275324 0.026091427 -0.16531652 -0.19357611 0.09160036 0.24949452 -0.008566028
0.004800666 0.15149745 0.030426528 0.028479755 -0.07979813 -0.030734882 0.08102757 0.13049738
0.15133533 0.13630149 -0.030157676 0.19570081 -0.1518886 -0.14104697 0.021578578 0.042396124
-0.039342176 -0.0021530995 -0.09932638 0.05138194 -0.15046279 0.12767568 0.02353139 -0.11412517
-0.07866424 0.063679226 0.035308454 0.0481882 -0.09257005 0.046344727 0.004405287 -0.073993035
0.15105222 0.11517922 -0.14749356 0.068649136 -0.3441138 -0.14668459 0.034543715 -0.1439711

layers.2.1.weight f4 [64]
00000000: bc46 723f 88bf 733f b885 7b3f 3b67 833f
00000010: 0aac 7b3f 6631 7a3f ea36 803f c129 833f
00000020: 93f0 763f cf3e 7b3f dbea 7a3f 7dae 803f
00000030: b84e 803f 9063 7b3f 7deb 7b3f 3a9d 7c3f
00000040: d5ce 8c3f b998 7e3f e9f5 823f 1c2e 853f
00000050: 92e6 7e3f 4104 813f f0f4 6a3f 4430 853f
00000060: 549a 753f 3003 7c3f d110 7d3f dced 833f
00000070: 160a 803f 3365 673f db36 733f 734e 713f
00000080: f8f2 773f a1b5 7d3f b3b0 7d3f e3c9 7a3f
00000090: e71a 793f cf76 843f ed1e 813f 8f3c 7c3f
000000a0: 61fd 7f3f cec9 7b3f e7ff 7b3f 8666 843f
000000b0: dfa1 833f 13d6 873f d998 7d3f 6ae8 773f
000000c0: bf25 7c3f dad8 833f 02f6 7b3f 3a29 853f
000000d0: 39df 7b3f 643c 7e3f 09ca 843f 27ab 873f
000000e0: dbb2 723f 6b38 803f d0ca 763f 6e1f 7a3f
000000f0: c32b 853f 7b3e 783f 2e84 813f 9dcc 883f
0.9463918 0.9521413 0.98250914 1.0265878 0.98309386 0.97731626 1.0016758 1.0247117
0.9646084 0.98142713 0.9801461 1.005325 1.0024023 0.98198795 0.984062 0.9867741
1.100062 0.99451786 1.0231296 1.0404696 0.9957057 1.0079423 0.91779995 1.0405354
0.9593861 0.98442364 0.98853785 1.0306964 1.0003078 0.9038879 0.9500558 0.9426033
0.96855116 0.9910527 0.99097747 0.97964305 0.97306675 1.0348758 1.0087563 0.98529905
0.99996 0.98354805 0.9843735 1.0343788 1.0283774 1.0612205 0.9906135 0.9683901
0.98495096 1.0300553 0.98422253 1.0403206 0.98387486 0.993109 1.0374156 1.0599107
0.9480416 1.0017217 0.9640322 0.9770421 1.040398 0.9697034 1.0118463 1.0687443

layers.2.1.bias f4 [64]
00000000: 1751 49bd 4fe0 10bd 99ca 853b 3366 353d
00000010: 2161 64bc 1ead 1e3c e8e5 16bd d072 353c
00000020: a10d aabc 1c2f 9dbc 4bbe f1bc a63c 073c
00000030: d6b4 f4bb d268 11bd 63b0 1fbc 5f85 4abc
00000040: 4594 3d3d 2dc9 433c f8e9 0f3d 982e 4e3c
00000050: af27 86bc dc5f c9bb 45c2 8abd 1693 ba3c
00000060: c91b 42bb 4508 62bc ce9a f73b e00c 1dbc
00000070: ec30 253c e8bd 93bd 7962 bebc 6a80 77bd
00000080: 7667 0cbb 2594 b23c 5e53 31bc ac21 12bd
00000090: 9256 9dbc 68ed 1e3d 7918 923c deca 603c
000000a0: ec0a 88ba 8b2b c6bc e8ee c1bc 93f0 8d3c
000000b0: 900a 9fbc 1a3a f13c 08c1 3fbc 3a6b 26bd
000000c0: b008 00bd d8dc 023c 3bb6 96bc d660 203a
000000d0: 3681 35bd 7537 733a e16c b83c 445d ae3a
000000e0: dd28 bebc ff81 9d3b ba61 c83b 01ab 8dbc
000000f0: 9c48 a73c 0a39 35bd 181b 8c3c 2727 593d
-0.0491496 -0.035370167 0.0040829894 0.044286918 -0.013939173 0.009684829 -0.03684035 0.011074737
-0.020758452 -0.019187503 -0.029509684 0.008254206 -0.0074678464 -0.035500355 -0.009746644 -0.0123609
0.04628398 0.0119498195 0.03513524 0.012584351 -0.016376344 -0.0061454605 -0.06775335 0.022775214
-0.0029618612 -0.013795917 0.007556296 -0.009585589 0.010082465 -0.07213956 -0.023240315 -0.0604252
-0.0021423972 0.021799156 -0.010823099 -0.035676643 -0.019206319 0.038800627 0.017833935 0.013720242
-0.0010379232 -0.024190685 -0.02367349 0.017326629 -0.019414216 0.02944665 -0.011703737 -0.040629603
-0.031258285 0.007987224 -0.018397441 0.00061179453 -0.04431268 0.0009277978 0.022512855 0.0013302942
-0.023212845 0.0048067565 0.0061151655 -0.017293455 0.020420365 -0.04424385 0.017102763 0.053015854

layers.3.0.weight f4 [32, 64]
00000000: 9463 e53d 3853 213e a257 323e 6894 d13e
00000010: 72f5 c7be 7ea5 7f3e de22 b23d 86b1 c53c
00000020: 1911 183e b945 a7be 8b4b f6bb 3d55 d33d
00000030: d76d 0bbe dca7 8ebe 5508 9b3c cb1d acbd
00000040: a2c3 84be 8731 143e 9a46 493c b62c de3c
00000050: 1e7f 9e3d 16e2 fa3e 8dd7 debd 59df 81be
00000060: caab 413d 7a59 963e e6c1 f5be f04b 03be
00000070: 8207 803c b050 ef3d b735 f1bc a4a8 44be
00000080: 5aa4 4a3e 55db 993e 2e07 a23d 6690 93bd
00000090: afa8 15bd 5ff6 2bbe e9f2 11bd 2d6c 03bd
000000a0: d670 383e 3c07 05bd 62dc 993d 0855 d43d
000000b0: 8504 133e bf41 67be 228e 853e 04a9 3bba
000000c0: bfad b23d b55f 8ebc 29fe 963d 54f8 7dbe
000000d0: 5bc4 6fbd cbe6 d6bd abd2 73bd 6597 99bd
000000e0: a338 ec3d fa41 bc3e f4c6 d03c 74e9 50bd
000000f0: 8e10 2fb9 f02b 02bd 5f6a 17bc 9f08 9c3e
00000100: 3d77 29be 3b77 16bc edbb 8fbe 224a bb3c
00000110: e849 633d 5116 ecbc f9db 3dbd 214a 52be
00000120: d240 24be f62d 603c d70c 343e ae25 6abd
00000130: 895b 70bd b18f c53b d1c3 203c e10e 8ebb
00000140: 0a06 af3e 7c91 06bd e29d 8dbe 2e2a 4cbe
00000150: 6d75 21bd 1eea 003e 15f8 273e 241c 2e3e
00000160: 870f 8ebd 8330 3abd 3fba 2cbe 2265 c43c
00000170: a755 8b3d bee8 bebe f81d c03d 1fd0 1c3d
00000180: 62d1 903e d1aa f8bc d49c 493c 6920 20bc
00000190: d2f0 733d 9507 16bd 9986 c2be 98e2 a3be
000001a0: 9558 00bf b12f 643e 8125 4b3d d8ed 233d
000001b0: 8dcc b0bd 0fad 03be 136e fbbd 2edb 87be
000001c0: 3a49 23be 5bdc eb3e 4d11 4dbe 97a3 b3bb
000001d0: 6e1a afbd dae1 253e 219e 533e 1454 7dbe
000001e0: 8a4d 323d 3b22 dcbd 3af6 56be 868a 92be
000001f0: 93e0 123e 4bb9 8a3e f486 913e cf02 41be
00000200: fe26 a23e c94e e23c 25e7 823e 0711 33be
00000210: d866 8dbd bedc aa3d bafa 83be 665c 57bd
00000220: 061e 80bd fd79 2f3e 14d5 d23e 052b ffbc
00000230: 2f02 5e3e 69ed d93c 8507 36be 12f0 183e
00000240: 2453 833d 8c4c b23c 8a72 35be cdd5 4cbd
00000250: 8b54 113e 1da7 a1bd a255 b3be ebec 7c3e
00000260: 3853 ae3d 2f23 4e3e 026f 15be 02a6 22be
00000270: 22d6 4e3e 106b 253e 9325 bebc 0e0b 9dbd
00000280: 1c5d 78be 2f5a c9bd a1f1 e43d 2cd0 b4bd
00000290: 09bd 55bd fa94 8dbe b5a8 30be 5774 eebd
000002a0: 4fb9 90be 5d97 723e 8b6c 3fbc 4616 27be
000002b0: 46c5 663d 8bbd ea3c 57bf 2bbe c952 13bc
000002c0: c60d 6ebc 34b1 193e 63fe 13be 29ad fabc
000002d0: efed 0a3b edbf 613e 7d73 573e 193f 8d3e
000002e0: e6ea 053e 70a0 7f3d e1da 34bc 3c7d 8dbe
000002f0: fabb 843e b92c 423e 76b7 e83d 687e b0bd
00000300: 6650 51be f3c3 753d 3d8b 923d 8a41 533e
00000310: e0bf e6bd 8df3 363c 191c 23be 5a6f 163d
00000320: 9ed1 03be 4e64 24be 7a12 8d3e dd47 53be
00000330: fd57 62be 6a62 013e cb98 46be 75b6 363e
00000340: 6063 383c 8ad9 683d 191d 68be a897 c5be
00000350: 78a4 0a3d 0e3c 263e e656 c6be 9697 a4bc
00000360: cded 383e c0a1 56be bac8 183e 0a82 bc3d
00000370: 1ec4 14bd d204 843e b880 a5bd f5f5 2cbd
00000380: cb55 203d 45fe f03d e68a 403e 696c a63e
00000390: 3ccc 8e3d 2edd fd3a 5a3f b6be 1b48 063e
000003a0: 1d54 2d3e 33f1 663e a189 f1bd bb2a b73b
000003b0: d36d 85be 868e 09bd dc6a 973e 2148 303e
000003c0: 2f30 8b3e 9d9f dabd 2816 833e ac82 90bd
000003d0: b653 213d 1018 343e ffba 9abc 8718 d7bd
000003e0: 3db4 3c3c d43e f93d 3bad 74be 3348 a43d
000003f0: 507c 2ebd 54f6 51be 32a7 a23d 6b8a 2dbe
0.11200634 0.15754402 0.17416242 0.40933537 -0.39054447 0.24965474 0.08698057 0.024132501
0.14850272 -0.32670382 -0.0075163296 0.10318992 -0.1361612 -0.27862442 0.018924871 -0.0840412
-0.25930506 0.14472018 0.012284899 0.02712093 0.077390894 0.49000615 -0.10880957 -0.25365713
0.04728297 0.2936514 -0.47999495 -0.12821937 0.01562858 0.11685312 -0.029444559 -0.19204956
0.19789258 0.3005015 0.07911526 -0.07205276 -0.036537822 -0.16793202 -0.035632048 -0.032085586
0.18011793 -0.032477602 0.07512738 0.10367781 0.14357193 -0.22583674 0.26085 -0.0007158669
0.08724546 -0.017379621 0.07372696 -0.24801761 -0.05853687 -0.10493239 -0.05952708 -0.07499579
0.1153424 0.36769086 0.025485493 -0.05100389 -0.00016695468 -0.031780183 -0.009241669 0.30475327
-0.16549392 -0.0091837 -0.28073063 0.022862498 0.055490404 -0.028819235 -0.04635236 -0.2053609
-0.16040352 0.013682833 0.17583023 -0.05716484 -0.058681045 0.0060290922 0.009812311 -0.00433527
0.34184295 -0.03285359 -0.27659518 -0.19937965 -0.039418627 0.12589309 0.1640323 0.17002922
-0.06936555 -0.04545642 -0.16867922 0.023974005 0.06803446 -0.37286943 0.09380716 0.038284417
0.28284746 -0.03035489 0.012305457 -0.009773352 0.059555836 -0.036628325 -0.37993315 -0.32008815
-0.50135165 0.22283818 0.049596313 0.040021747 -0.08632765 -0.12858985 -0.12276854 -0.26534408
-0.15945902 0.46066555 -0.20026131 -0.005482148 -0.08549963 0.16199437 0.2066579 -0.24739105
0.04353098 -0.107487164 -0.20992365 -0.2862131 0.14343481 0.27094492 0.28423274 -0.18848728
0.31670374 0.027625458 0.25566974 -0.17486964 -0.069043815 0.083428845 -0.25777227 -0.052578352
-0.062557265 0.17136379 0.4117819 -0.031148443 0.2168052 0.026602464 -0.17776306 0.1493533
0.06412342 0.021765016 -0.17719474 -0.050008584 0.14192407 -0.078932025 -0.3502627 0.24699752
0.085119665 0.20130609 -0.14593127 -0.1588364 0.20198873 0.16154122 -0.023211276 -0.07668124
-0.24254268 -0.09831654 0.111788996 -0.08828768 -0.05218223 -0.27652723 -0.17251857 -0.11643284
-0.2826638 0.23690553 -0.0116835935 -0.1631709 0.05634048 0.028654834 -0.16772209 -0.0089919055
-0.014529651 0.15009004 -0.1445251 -0.030600147 0.0021198948 0.2204587 0.21040149 0.27587202
0.13077888 0.062408864 -0.011038513 -0.2763461 0.25924665 0.18962373 0.113631174 -0.0861786
-0.20440826 0.060001325 0.07155464 0.2063047 -0.11267066 0.0111664655 -0.15928687 0.036727287
-0.12872931 -0.16053888 0.2755316 -0.20632882 -0.22103877 0.12635198 -0.19394223 0.1784304
0.011254162 0.056848086 -0.2266735 -0.38592267 0.033848256 0.16233847 -0.38738173 -0.020091813
0.18059464 -0.2096014 0.14920321 0.092044905 -0.036319844 0.25784928 -0.08081192 -0.04222675
0.03914432 0.11767248 0.18802986 0.32504585 0.06972548 0.0019368285 -0.35595208 0.13113444
0.16926618 0.22552948 -0.11793829 0.0055898107 -0.26060352 -0.033583187 0.29573715 0.17215015
0.271852 -0.10674975 0.2560284 -0.07056174 0.039386474 0.17587304 -0.018887995 -0.10502725
0.0115175815 0.12170187 -0.23894207 0.080215834 -0.042599022 -0.20504123 0.07942046 -0.16947334

layers.3.1.weight f4 [32]
00000000: 9fa5 8a3f 458e 893f 81b7 893f 95f4 8a3f
00000010: 8ed3 7d3f 16ec 8b3f 1f40 823f 614c 7b3f
00000020: 762a 8c3f 9f4d 8b3f 8b2a 8d3f 5c6f 8d3f
00000030: 3715 7f3f 8316 833f 8089 7a3f 2c89 8e3f
00000040: b781 7f3f 7dbe 863f d7b1 763f a8ff 823f
00000050: 41a4 843f 9578 7b3f c508 833f 706e 833f
00000060: 7e22 8b3f 6c2b 8b3f b854 873f 640e 933f
00000070: ec75 8b3f 2005 853f 36ce 923f cd62 843f
1.0831794 1.0746542 1.0759126 1.085589 0.9915093 1.0931423 1.0175818 0.9816342
1.0950458 1.0883063 1.1028608 1.1049609 0.99641746 1.0241245 0.9786606 1.1135612
0.99807304 1.0526882 0.9636511 1.023427 1.0362626 0.9823087 1.0237051 1.0268078
1.0869901 1.0872626 1.0572729 1.1488767 1.0895362 1.0392189 1.146918 1.0342652

layers.3.1.bias f4 [32]
00000000: 04d0 aa3d 25f0 a13c e452 333d bddf a33d
00000010: ba94 cabc e6b3 883d 4845 9dbb eb49 04bd
00000020: dd6b ab3d 6cf4 8d3d 79ef c33d 75a8 d83d
00000030: 5cee 06bd 2ace 1dba f999 bebc 31b5 aa3d
00000040: c5f0 a4bc 94be d13b 9b71 49bd c242 d6bc
00000050: 5bf0 ea3c f956 e4bc 0743 87bc 91cb 763b
00000060: 2633 403d 9c4f 883d bc8b 2d3c 8bd9 fa3d
00000070: 5183 a53d 8141 2e3d 70f2 fd3d 054b d03c
0.08340457 0.01976783 0.043780223 0.08001659 -0.024729121 0.06674938 -0.0047995187 -0.032297056
0.08370183 0.069313854 0.0956716 0.10579006 -0.03294216 -0.00060197955 -0.02326678 0.08335341
-0.02013434 0.0064008925 -0.04918061 -0.02615488 0.028679064 -0.027873503 -0.016511453 0.0037657956
0.04692378 0.06655809 0.010592397 0.12248524 0.08081687 0.04254294 0.12399757 0.025426397

fc_out.weight f4 [2, 32]
00000000: 90f2 05bf ad4e b53e c9ec d73e ba11 5a3d
00000010: 5ad1 9c3d 947b f8bc 5f7b 713d 7e1f f73c
00000020: 368b 19be 880a c9be 29bd fdbd 56ba dcbe
00000030: fcfa 083f f295 803e 473a 83bc 5234 f83d
00000040: 510a 6d3e 73ce 873e 317c c03d 3a03 213e
00000050: da1e e9bb bdc0 073e 230c f93d 8c1f 923e
00000060: 659f 9fba 6b7b c7be 2384 8d3e dfe3 153e
00000070: b664 b8be 6623 a0bc f6cd 13be d7f7 d53e
00000080: 081a 2bbe 9bba 77be 0210 f4bd e166 803e
00000090: f268 51be 07e1 ed3e f003 22be 9006 98bd
000000a0: 85f1 403e e1c9 a83e 157e ff3e ef06 2a3e
000000b0: 44a8 153e df0f 48be 8a7a b53c 42cb fa3e
000000c0: 2d3f 9bbe 9d7c 35be 37cc b93d 48ee 18bd
000000d0: b213 9a3d e315 8dbe 4cbb dcbd 1b32 50bd
000000e0: 0a69 273e f64b ab3e 0f75 6e3d 0062 d03e
000000f0: 26ee f6bd 0a2d 033e 15a7 e33d c2f3 9cbb
-0.52323246 0.35411587 0.4217284 0.05323956 0.07657118 -0.030332364 0.058955546 0.030166384
-0.14994511 -0.39265847 -0.12389595 -0.43110913 0.5350797 0.251144 -0.016019 0.12119354
0.23148467 0.26524696 0.09398688 0.15723887 -0.0071142735 0.13257118 0.12160518 0.28539693
-0.001217824 -0.38961348 0.27639875 0.14637707 -0.36014336 -0.01954813 -0.14434037 0.4179065
-0.16709149 -0.24192278 -0.11917116 0.2507849 -0.2045019 0.46460745 -0.15821815 -0.07423127
0.18842132 0.3296652 0.4990088 0.16604207 0.1461497 -0.19537304 0.022153158 0.48983198
-0.30321637 -0.17723317 0.09072154 -0.037336618 0.07523288 -0.2755576 -0.107779115 -0.050829034
0.16348663 0.3345639 0.058217105 0.40699768 -0.12057142 0.1281015 0.11115853 -0.0047898004

fc_out.bias f4 [2]
00000000: 59bb 34bd 59bb 343d
-0.04412398 0.04412398
