test/output/local3/simulatorRun/freesurfer_volumetric/3/best.nn.pt (torch_old, 23025 bytes, 50 tensors)

layers.0.0.weight f4 [16, 66]
00000000: 6348 94bd 3921 4bbe 0ee4 673e b724 e3bb
00000010: 555d f3bd 18a1 a33e d415 e63d b031 223d
00000020: f28f 4fbe 8210 a23d 8ed6 0ebd 9538 7cbe
00000030: 82bf dbbc 2f1f 99bd 321b 8a3e 6eb7 f23d
00000040: a537 1c3e 492a 63be 30ff 58be 375e a63e
00000050: 60b3 053e 87b4 08be a2ce 1bbd 1302 92be
00000060: 81ee 7e3e 7a03 52be a993 133d 0bee 79be
00000070: d173 cabd b76f 43be 54f1 2bbd 0351 383e
00000080: 942b cbbd 568d 513e 18a4 3dbd 93d8 e23c
00000090: 534d 983e c840 0e3c 6e17 3e3e baa0 443e
000000a0: 7b0d da3c 4f0b 2dbc 1769 c63b 1e02 c33d
000000b0: 6ecb a7bd 23c3 d3bd 5043 3dbe 07a4 d33d
000000c0: eb66 7f3e 7998 10be 7d79 a33d ef84 c53c
000000d0: 96f3 b83d 8f8c 8bbe d851 abbc 5163 c33d
000000e0: ee7a b73d 46f7 71be ef3f fabc d445 ffbc
000000f0: 1499 c13b 3adf 173e 3dd4 a3bd 5809 5fbd
00000100: e6c1 2ebd 0725 ea3d 7ef5 fb3d 1ca1 a9bd
00000110: f25f 23be 72f8 b23e 6017 773e 14be cf3e
00000120: 5562 e1bd d76b 13be 3f6c b23d 0143 85bd
00000130: 18ff 95bc a264 013e 3ffb 563e f7de a6bc
00000140: 5cd0 18bd 2580 e73d e468 14be 70ae 173e
00000150: 8f2f cdbd fdec 25bd c526 0cbe ee2b 243e
00000160: 868f 5bbe 964a f03d f79a fa3d 8260 8ebe
00000170: 057b d73e 1c1e ac3e 76a6 13bd 68e4 ac3e
00000180: bc93 633e 38d3 d7bd 906f cf3d e7ad d53d
00000190: 0025 273d 19c8 babb b7c7 8bbe 740b 1bbe
000001a0: a21c 17be 438b a5bd 6c90 97bd 4b96 8e3e
000001b0: 4449 083e 5428 38bd 096e d93d fd94 90be
000001c0: b794 a2be 6837 8e3e 4bcd d1bd b8f6 a03d
000001d0: c675 3d3e 5f73 d9bc fb6a f2bd 80f1 dcb8
000001e0: a24c 6abe 5773 9b3e 965e 373d 4d05 523e
000001f0: 5344 db3d c6ca aabe 0dc3 5abe 3740 a1bc
00000200: d8a2 f93d eddd 39bd c41f d8bd ebb5 2dbe
00000210: 1b33 b53e 57c3 94be 5fa0 813d 2785 b63d
00000220: 7562 32be 8cfd 2f3e 447b ac3e ac5c c83e
00000230: 3e63 983e 9063 bf3c 8449 f8bd ed38 d93d
00000240: 93ca f2bd 2276 773d 775e a7be cfd5 703e
00000250: 56cb ebbd 0b76 9e3e f9cd b43e 01c7 a2bc
00000260: d755 dd3d bbe1 133e 7b5f b93e 3e03 6f3e
00000270: 8c43 9b3d cd2a f7bd c737 313e 0972 53be
00000280: 0250 60bd a883 533c 698e a1bd 8943 94bd
00000290: b315 02bd 12a4 763c 4e45 bd3e 1e43 e8be
000002a0: 212b 99bd e376 1e3d acb9 2bbd 308e ac3d
000002b0: 19d3 80be 138d fd3c 1397 8abc 792e 07be
000002c0: 5e35 ff3d b85a 443e 64ac 363e bf77 233e
000002d0: b82d bcbd 0226 3b3e 8b42 9bbd 0d34 853d
000002e0: 7b45 f4bd 6e92 1fbe b722 d9bd 7790 e43d
000002f0: bae0 a9bb 848d 383d bfe4 77bc d740 4fbc
00000300: 09f5 173e 66ea 053e 1cc9 22be 15a6 b1be
00000310: d25d 803e 760c a43e d5fd 22be 3f45 62be
00000320: 3393 95bc 2778 cdbd 422d 113d d3e5 e53d
00000330: b2e4 b83c a626 ca3d db0b 8ebd 8b27 fcbd
00000340: 0fdf 88bd aad2 a6bc e81c d03c 35c4 28bc
00000350: 45a2 73be 5515 0e3e 89cd d6bd a3c8 fdbd
00000360: e7d2 1ebe 25cc 82be 5e79 79bd 725f 10be
00000370: fa47 3abd 6ca9 bdbe 70d1 a9bc fd74 42be
00000380: 2e59 9c3e 1369 983d 2e21 363e 47d2 24be
00000390: 29c1 cc3d e535 423e 5eb0 15bd efa6 bebd
000003a0: bfff 9e3d 1987 8cbd 30f5 673e e791 853d
000003b0: 68e0 8abd f8d4 cc3d a846 533e ee5f 81be
000003c0: a0f8 1d3d 704b 55be 2a61 303d 9112 92bc
000003d0: 4f60 f6bd 50ef 423e 05c1 09be 8b75 533e
000003e0: d8dd a1bb 7a72 34bd 912a 02bd 0b8d 833a
000003f0: ab0f 6cbd 8f65 72be 2cc6 a0be 8fde 99ba
-0.07240369 -0.19836892 0.2264559 -0.006931867 -0.11883036 0.31958842 0.11234632 0.039598167
-0.20269755 0.07913305 -0.034872584 -0.2463096 -0.026824716 -0.07476651 0.26973873 0.11851393
0.15255602 -0.221841 -0.21191096 0.32493755 0.13056707 -0.13350116 -0.038038857 -0.28517208
0.2489567 -0.20509139 0.03602949 -0.24407212 -0.098853715 -0.19085585 -0.041978195 0.17999654
-0.09920421 0.20464072 -0.04629907 0.027691161 0.29746494 0.008682437 0.18563625 0.19201937
0.026617756 -0.010561778 0.006055008 0.09521888 -0.08193098 -0.10339954 -0.18482709 0.1033402
0.24941604 -0.14120664 0.079821564 0.02411124 0.09030835 -0.27255675 -0.02091305 0.095404275
0.08958994 -0.23629484 -0.030548064 -0.031161226 0.005908141 0.14831248 -0.079994656 -0.05445227
-0.042665385 0.11432844 0.12302683 -0.08282682 -0.15954569 0.34955174 0.2413001 0.40574706
-0.110050835 -0.14396606 0.087120526 -0.065069206 -0.018310115 0.12636045 0.2099428 -0.02036999
-0.037308082 0.113037385 -0.14493138 0.14812636 -0.10018837 -0.040509213 -0.13686664 0.16032383
-0.21441469 0.11732976 0.122365884 -0.27808005 0.42086044 0.33616722 -0.03604742 0.3376801
0.22224325 -0.10538334 0.10128701 0.1043356 0.04080677 -0.005700123 -0.27300808 -0.15141088
-0.14757016 -0.08083203 -0.07400593 0.2784904 0.13309199 -0.044960335 0.10616691 -0.2823867
-0.31754085 0.27776647 -0.10244235 0.07859558 0.18501958 -0.026544271 -0.11836811 -0.000105354
-0.22880796 0.30361435 0.04476794 0.20509835 0.10706391 -0.3335783 -0.21363468 -0.01968394
0.12189263 -0.04537766 -0.10552934 -0.16963927 0.35390553 -0.29055282 0.063294165 0.089121155
-0.17420371 0.17186564 0.33687794 0.39133203 0.29763216 0.023362905 -0.12123397 0.10606561
-0.11855044 0.060415395 -0.32689258 0.23519062 -0.115133926 0.30949435 0.35313395 -0.019870283
0.10807388 0.14441578 0.36205658 0.2334108 0.07581243 -0.120687105 0.17306434 -0.2064897
-0.0547638 0.012909807 -0.07888491 -0.07239444 -0.031758975 0.015053766 0.36966938 -0.45363706
-0.07478929 0.038687598 -0.041925117 0.084255576 -0.25161055 0.030951058 -0.01691774 -0.13201322
0.12461351 0.19175231 0.178392 0.15963648 -0.09188408 0.18276218 -0.075810514 0.065040685
-0.11927315 -0.15583202 -0.106023245 0.11160367 -0.00518426 0.045056835 -0.015130221 -0.012649736
0.14839567 0.13077697 -0.1589703 -0.34697023 0.2507158 0.32040757 -0.15917142 -0.22096728
-0.018258667 -0.10032683 0.03544355 0.11225476 0.022569988 0.09870653 -0.06935855 -0.1231223
-0.0668317 -0.020364124 0.025404409 -0.010300686 -0.2379237 0.13875325 -0.104884215 -0.12391784
-0.1551014 -0.25546375 -0.06090676 -0.1409891 -0.0454788 -0.3704332 -0.02072975 -0.1898994
0.3053679 0.07441916 0.17786095 -0.1609584 0.0999778 0.18965872 -0.03654515 -0.09309184
0.077636234 -0.06861705 0.22652125 0.06521969 -0.06781083 0.10001558 0.20632422 -0.252685
0.038567185 -0.20829558 0.043061413 -0.017831119 -0.12030088 0.19036603 -0.13452537 0.20650308
-0.004939776 -0.044054486 -0.031778876 0.0010036541 -0.05763213 -0.23671554 -0.31401193 -0.0011739301

layers.0.1.weight f4 [16]
00000000: 1d42 763f 02b1 843f 1e6f 7a3f 0497 803f
00000010: 6559 7d3f 27ef 803f ded3 833f 4a81 793f
00000020: 7d32 803f 9b26 7d3f 0606 7f3f 54ad 7c3f
00000030: 72ad 833f 529d 823f 410c 7f3f 3f44 793f
0.9619463 1.0366518 0.978258 1.0046086 0.9896453 1.0072984 1.0299032 0.97462904
1.0015408 0.9888703 0.99618566 0.9870198 1.0287306 1.020426 0.9962807 0.9736976

layers.0.1.bias f4 [16]
00000000: af8a 0fbd 5600 a23c a5d2 cebc e2b0 ba3b
00000010: cdec 0dbd ec43 253c 7c45 f73c 7b9d c6bc
00000020: 733b cd3a 6782 bdbc 0add 42bb 4210 9e3b
00000030: 51f7 d63c 616b a53c a99a e7bb 6fee e2bc
-0.03504437 0.01977555 -0.025246928 0.0056973556 -0.03464966 0.010086995 0.0301845 -0.024245014
0.0015657976 -0.02313347 -0.00297338 0.0048237154 0.026240977 0.020192804 -0.0070679975 -0.027701585

layers.0.1.running_mean f4 [16]
00000000: ce7e 6ac8 1f9f 07c9 3059 8449 e90f 8fc8
00000010: b463 0849 c424 0149 2546 efc8 baf0 9448
00000020: c538 26c8 e931 85c8 1686 2249 8184 1745
00000030: 1ad0 0fc9 b3f1 f048 0030 a947 65da dc48
-240123.22 -555505.94 1.084198e+06 -292991.28 558651.25 528972.25 -490033.16 305029.8
-170211.08 -272783.28 665697.4 2424.2815 -589057.6 493453.6 86624.0 452307.16

layers.0.1.running_var f4 [16]
00000000: 16a9 854e e810 8a4f 2536 4450 67a1 9a4e
00000010: e2f5 5b4f 99e0 384f 8430 284f 4ab4 a24e
00000020: 2367 cf4d 5e4a 634e e9c3 9a4f f2dc 104d
00000030: 64c7 644f 575b 374f fd01 e04d 4ab6 0c4f
1.1212255e+09 4.6327276e+09 1.3167531e+10 1.2971345e+09 3.6903245e+09 3.101727e+09 2.8217518e+09 1.3648622e+09
4.3495536e+08 9.5332544e+08 5.193061e+09 1.5189994e+08 3.8382725e+09 3.0762166e+09 4.6977834e+08 2.3607567e+09

layers.1.0.weight f4 [8, 16]
00000000: 5340 9d3e 94b1 dd3e 9b10 94be 0b7e b8bd
00000010: 89f7 07be 24b4 193e 9666 58bf c846 c3bd
00000020: bdea 9cbe 78cf 68be 4287 1d3e cd99 843e
00000030: 75ce 41bf f9bb 1b3e 2006 0cbf e931 cebe
00000040: 623d d5bd 294b a13e 8e6e 9dbe 667d 21be
00000050: 6e01 a33d eea9 a93e e607 41bd 7b51 9ebe
00000060: 5896 82be c4c6 cc3d 0b76 a43e e6e8 4abf
00000070: 5db8 bbbe 9621 ac3e 40fd 933d 1008 f63d
00000080: dfcb 153f cf6b 96be f7d2 e83e 61ae 483f
00000090: fd5a 92be 94ba 48bf 4f37 7dbd 6850 3cbe
000000a0: 4233 e7be ea61 4fbc d85f 2c3f 89fb be3d
000000b0: 9e11 243f 6197 6cbe d062 613e f7f2 093e
000000c0: 14a9 12bf 0d75 dc3e 4d0c 373e 182f 633e
000000d0: a809 1abe bf3d 1d3e bbe8 6d3b 5348 913e
000000e0: 4c79 993e 9b3d 683e 9dd6 4d3e 12e7 a6bd
000000f0: 5e42 293e 97f3 9f3e f021 09bf 34e0 ae3d
00000100: c912 b53e 7b96 15bf ff81 c23c b03a 83be
00000110: ae98 4dbf d6d6 cc3e 838a b7be d191 0b3e
00000120: 3122 46be ac76 c33e d786 583d 0c9c a3bd
00000130: 8e43 90be 702b 74be 861f 203e 46aa 463e
00000140: b7b5 62bf ea74 1dbd a8d1 ce3e 0731 1ebe
00000150: 193b c03e 0d99 57be c603 523d bbdf 0d3f
00000160: 614c fa3c cea3 8e3e 1f49 b03e 8aea 5dbe
00000170: 13bb 2dbf 2f8d 453f d0fa 0b3e 69d4 e33c
00000180: bc2c 553f 1ee4 94bd 4d5c 3b3e 8e40 603e
00000190: 4e69 873e 536f 59be b817 4dbf 937f b93d
000001a0: 9d96 84bd 92f7 e6bc c9d4 5d3e 4cbf e53e
000001b0: e88c 2cbf 5fc8 083f bee8 c7be d352 80be
000001c0: 43d2 2c3d 0a66 a53e 907f 043e eb29 5b3e
000001d0: e094 ef3e a698 a1bb 1646 b33e 1d2a 183e
000001e0: ae02 c33e c5fe afbd a572 143e e586 0e3e
000001f0: 91c1 b33e dd1a 42bf 40da 29be 869d ed3e
0.30713138 0.43299544 -0.2891892 -0.09008416 -0.13278021 0.15010124 -0.84531534 -0.09534985
-0.3064784 -0.22735393 0.15383628 0.2589859 -0.75705653 0.15208425 -0.54696846 -0.40272453
-0.104120985 0.31502655 -0.3074841 -0.15770492 0.07959257 0.3313746 -0.047126673 -0.3092154
-0.25505328 0.09998849 0.3212131 -0.79261625 -0.36664096 0.33619374 0.07226038 0.120132565
0.5851421 -0.29379126 0.45473453 0.7839108 -0.28585044 -0.78409696 -0.061820325 -0.18390048
-0.45156294 -0.012657622 0.67333746 0.0932532 0.6408938 -0.23104621 0.2201035 0.1347159
-0.5728924 0.43058053 0.17875786 0.22185934 -0.15042746 0.15355586 0.0036302048 0.28375491
0.29975355 0.2267975 0.201014 -0.08149542 0.16529223 0.31240532 -0.5356741 0.08538857
0.35365894 -0.5843274 0.023743628 -0.25630713 -0.80311096 0.40007657 -0.35847864 0.13629843
-0.1934898 0.38176477 0.05286297 -0.07988748 -0.2817654 -0.23844695 0.15637025 0.19400892
-0.88558525 -0.038441576 0.4039433 -0.1544839 0.37545088 -0.21054478 0.05127313 0.5541951
0.030553998 0.27859348 0.34430787 -0.21671501 -0.6786358 0.77168554 0.13669896 0.027811246
0.83271384 -0.072700724 0.18296929 0.21899626 0.2644753 -0.21233873 -0.80114317 0.09057536
-0.0647404 -0.028194223 0.21663202 0.4487251 -0.67402506 0.5343074 -0.39044756 -0.2506319
0.04219271 0.32304412 0.12939286 0.21402709 0.4679327 -0.004931527 0.3501441 0.14859815
0.38087982 -0.08593515 0.14496858 0.13918646 0.35108617 -0.7582224 -0.16587162 0.46409243

layers.1.1.weight f4 [8]
00000000: b287 7c3f c4bc 7c3f 2305 843f f65e 7a3f
00000010: aab9 843f 661c 7e3f fa21 833f ccde 7e3f
0.98644555 0.98725533 1.0314068 0.9780115 1.036916 0.9926208 1.0244744 0.9955871

layers.1.1.bias f4 [8]
00000000: 0056 90bb aeac 5a3c de99 183d 3162 42b9
00000010: 9b1e 233c 81fc aebb b3cc bf3c a069 9dbb
-0.0044047832 0.013346834 0.037256114 -0.00018537861 0.009956027 -0.0053401594 0.023413038 -0.0048038512

layers.1.1.running_mean f4 [8]
00000000: dd92 72bf 6549 7cbe 5f1a 043f 0fda 093f
00000010: 9fd3 fbbe eba6 ae3e 0fbd 3d3d a6fa 603f
-0.94755346 -0.24637373 0.5160274 0.53848356 -0.49184892 0.34111723 0.04632288 0.8788246

layers.1.1.running_var f4 [8]
00000000: e76e 363f e7f2 293f 3031 303f 7e0d d93e
00000010: 9f11 cb3e 8d6d 6f40 85fe 2d3f 3b4c 3b3f
0.71262974 0.66386265 0.68825054 0.42393106 0.3966188 3.7410614 0.6796649 0.73163193

layers.2.0.weight f4 [4, 8]
00000000: 8538 22be e26a 00bd 2407 8f3e 38dd 6a3f
00000010: b696 e43d 3df1 363e e5d0 96bf 1158 c23e
00000020: c340 edbe 74c7 1a3e ecdd 87bd 45a6 7fbd
00000030: 95cc 1dbe 743c c6be 8306 14bf 40ba abbe
00000040: 96fe a6be 2d9a 113f f32b 0fbf 6685 efbd
00000050: e041 1cbf 1dd9 6a3e 51b1 8b3e dc7a bfbe
00000060: 3eff d7bd be22 483f c1c1 35bf b009 58bd
00000070: dc24 6dbd f6a8 2b3f 6780 eb3e 3bb6 08bf
-0.15841873 -0.03135193 0.27935135 0.91743803 0.11161558 0.17865463 -1.17825 0.37957814
-0.46338472 0.15115148 -0.06634125 -0.062414426 -0.15410073 -0.38717997 -0.57822436 -0.33540535
-0.3261611 0.5687588 -0.55926436 -0.116953656 -0.6103802 0.22934385 0.2728372 -0.37398422
-0.105467305 0.7817801 -0.7099877 -0.052743614 -0.05789648 0.6705469 0.459964 -0.5340306

layers.2.1.weight f4 [4]
00000000: c7e0 7d3f 9108 803f 619b 7f3f fbd0 7c3f
0.9917111 1.0002614 0.99846464 0.9875638

layers.2.1.bias f4 [4]
00000000: 4be3 4f3b c9af ffbc 8608 e53c ba84 65bc
0.003172117 -0.03121175 0.027958166 -0.014008695

layers.2.1.running_mean f4 [4]
00000000: 3dc5 403e 6eee 4abf c30e c7be 1c17 3f3e
0.1882524 -0.79270065 -0.3887845 0.1866116

layers.2.1.running_var f4 [4]
00000000: 9d26 aa3f e0f9 4c3e 1c42 6e3f db31 3240
1.3293034 0.20017195 0.93069625 2.784293

layers.3.0.weight f4 [2, 4]
00000000: 9951 0a3f 8066 243e a0cd e43e 0495 613f
00000010: f600 d0bf 1aca 1d3f b505 0540 f4fd 843f
0.5403076 0.16054726 0.4468813 0.88118005 -1.6250293 0.6163651 2.0784733 1.039

layers.3.1.weight f4 [2]
00000000: 677c 7e3f 676d 7b3f
0.9940857 0.9821381

layers.3.1.bias f4 [2]
00000000: 7ff5 73bb 35d2 d33c
-0.0037225184 0.02585707

layers.3.1.running_mean f4 [2]
00000000: 051b 4f3f 762e 5d3f
0.80900604 0.8639902

layers.3.1.running_var f4 [2]
00000000: 870c 0b3f 4deb dd40
0.5431599 6.9349732

fc_out.weight f4 [2, 2]
00000000: 4af9 e0bf ef2d 373f ac02 9dbe 43ff 83bf
-1.7576077 0.71554464 -0.306661 -1.0312275

fc_out.bias f4 [2]
00000000: 9a88 2bbc 9a88 2b3c
-0.01046958 0.01046958

exp_avg f4 [16, 66]
00000000: 3bd9 8eba bb65 79b9 f475 393a 8507 c83a
00000010: 1b13 5438 3c2d 8e38 a345 4eb9 845d 63b9
00000020: 166b 2ab9 8e9b 6837 6bd2 96b6 09f5 0f39
00000030: db35 81b7 c1a3 39b7 759e 9538 e217 98b8
00000040: 385b 0137 107c 41b9 124e 2ab7 c7c0 e938
00000050: 74c2 883a d741 0e3b 7095 a2b9 8c64 5037
00000060: ca5e 39b9 fd18 84b8 4c83 7638 074f 4f38
00000070: e379 a638 3f9b f4b8 87cd 3238 f12b 82b9
00000080: e4f1 b4b0 94b0 56b9 0000 0000 0000 0000
00000090: c95d aeb6 0000 0000 0000 0000 3c6c 0138
000000a0: c455 e238 a955 6238 a811 79b6 4ce3 ac38
000000b0: d5f3 3db6 afd3 243b b508 903b 24dd 8b3b
000000c0: 8edd a23b 74ca ba3b 19dc 2e3c 23e8 a5bb
000000d0: e18d d3bb 90b8 3cbc dbfc 78ba 1712 623c
000000e0: 0147 5cbb d246 d7ba 873b d8ba 33e9 d43b
000000f0: f89b 0032 42b4 1133 2e71 07b7 55f3 fc36
00000100: c7a5 1bb5 cd4a 44bd da97 ad3a 8f13 a938
00000110: b03b 13b5 aaa9 31ba 626d 1f39 4b63 5339
00000120: 0c11 9838 a073 6537 c303 0139 9c99 d4b8
00000130: afb5 22ba a67d d8b8 2314 ffb7 a24b 6e38
00000140: bde4 12b8 1c93 49b8 f425 f535 0668 de38
00000150: 8b77 8d3a 1049 0137 a6df c4b9 16e0 feb9
00000160: 4e07 9838 b9c0 5939 3443 9a38 1062 ec37
00000170: 11b7 1eb9 09a2 ceb7 4373 9ab6 156e cdb7
00000180: ced7 8336 7c42 1a39 e4e0 09b3 800a 0039
00000190: 0000 0000 0000 0000 c4b5 bb36 0000 0000
000001a0: 0000 0000 64aa 00b8 ae24 90b5 43c0 aeb7
000001b0: acbb 09b8 e909 cdb7 a61d d437 5bcb d43b
000001c0: 4d6a 6d3b 2f2c 6c3b 70de 823b 0431 673b
000001d0: e274 f63b 9404 9cba f3a1 c1ba 99dc 2ebb
000001e0: 8cb9 e239 6e1d d83b 673c 043c 930c ad3b
000001f0: ccd8 ae3b 3ba3 d83b 0000 0000 1dd1 6931
00000200: 97b8 0fb6 28c9 f2b6 9394 1db7 0447 313c
00000210: 2c46 bdb8 1c54 c0b7 9eca 2d37 e3d6 5c38
00000220: 15ed 2b38 9e0b 5eb7 81d2 6ab8 0353 1236
00000230: 06a6 d6b7 65bc e8b7 96c9 c238 747f 79b8
00000240: 47ba 26b7 51ab afb7 fd38 52b7 621c 9fb6
00000250: 84b6 89b6 175e 4ab8 bd49 acb8 ca9a eab6
00000260: 7ad2 ce38 3ab7 1039 6c05 0c38 379f d634
00000270: a169 d4b7 a6bb d936 4c4d feb7 bce4 8ab7
00000280: c15c cfb6 9643 6237 90b0 4cb4 5be5 55b8
00000290: df6e f8b3 473c 8ab8 0000 0000 0000 0000
000002a0: 813c 77b5 0000 0000 0000 0000 985d 29b6
000002b0: e61c c937 17e5 8037 286a 2f37 af81 5937
000002c0: 2a03 9b37 db10 9c3a cfed ce3a bfc9 cb3a
000002d0: 1562 d439 ab8c 153a 26e6 7f3a b0be 8039
000002e0: ceac 4f39 652b e839 8de3 23b9 ed23 813a
000002f0: f57b 773a 8f61 a43a 3d41 a83a 8c98 0bbb
00000300: 0000 0000 0000 0000 8c55 9db5 1756 44b6
00000310: 034a 89b6 44ed 42bb ac8d 0c3a 34c3 3936
00000320: 9a70 7b3a 082d 373a c6ef 1739 a106 8bb7
00000330: 3de0 98b8 0feb a2b8 a949 d437 a526 fab8
00000340: 5184 3f3a baf7 be38 c0c1 4ab7 afa6 1a37
00000350: 2d30 3ab6 aef3 4cb6 ddfb 3bb5 f591 2cb8
00000360: b77c 113a 9bce 5f38 ff7a 8e39 f89c 543a
00000370: 2894 b238 2185 8cb8 5aee 85b8 fd3e 61b8
00000380: a614 8937 4085 c737 b417 2737 5c9f 82b7
00000390: ace9 0337 f9df 3336 7efd f5b4 f51d 5e39
000003a0: 0000 0000 0000 0000 dd40 0ab3 0000 0000
000003b0: 0000 0000 4044 83b7 1094 3437 21b8 41b7
000003c0: e783 e5b6 697a 2437 06be 8cb6 5f84 5c3c
000003d0: 3f2c 4b3c 50d3 4a3c 9429 25b9 6b7e d039
000003e0: f260 7b39 4f0a a53b 1c21 973b 641b 1e3c
000003f0: 2da7 c7b8 5938 b53a f678 333c 8e10 213c
-0.001089848 -0.00023784388 0.00070747663 0.001526103 5.0562532e-05 6.779513e-05 -0.00019671633 -0.00021683244
-0.00016252356 1.38644955e-05 -4.4948442e-06 0.00013728825 -1.5403077e-05 -1.1064986e-05 7.1343886e-05 -7.252373e-05
7.710238e-06 -0.00018452131 -1.0150967e-05 0.000111462134 0.0010433928 0.0021706724 -0.00031010387 1.24211765e-05
-0.00017678287 -6.298905e-05 5.877325e-05 4.9426246e-05 7.9382e-05 -0.000116637435 4.262992e-05 -0.0002482827
-1.3165473e-09 -0.00020474411 0.0 0.0 -5.196522e-06 0.0 0.0 3.0856798e-05
0.00010792495 5.3962376e-05 -3.7114169e-06 8.2439365e-05 -2.8305124e-06 0.0025150587 0.004395569 0.0042683054
0.004970259 0.005700404 0.010672593 -0.0050630732 -0.0064561223 -0.0115186125 -0.00094981276 0.013798258
-0.0033611658 -0.0016424304 -0.0016497233 0.006497526 7.486044e-09 3.3924387e-08 -8.072979e-06 7.538513e-06
-5.798324e-07 -0.047922898 0.0013244108 8.062191e-05 -5.4848624e-07 -0.0006777296 0.0001520417 0.00020159518
7.2511e-05 1.3676385e-05 0.000123038 -0.0001013756 -0.00062068825 -0.000103230865 -3.0407746e-05 5.681406e-05
-3.502214e-05 -4.805914e-05 1.8264968e-06 0.00010605161 0.0010793073 7.70601e-06 -0.00037550664 -0.00048613612
7.2492854e-05 0.00020766527 7.35581e-05 2.8179056e-05 -0.00015136252 -2.4632567e-05 -4.602976e-06 -2.4489165e-05
3.929227e-06 0.00014711352 -3.2102335e-08 0.00012210943 0.0 0.0 5.5941946e-06 0.0
0.0 -3.0676267e-05 -1.0739511e-06 -2.0831945e-05 -3.283813e-05 -2.444252e-05 2.5286176e-05 0.0064939684
0.003622669 0.0036037078 0.003993802 0.0035277018 0.0075212577 -0.001190322 -0.0014772996 -0.002668178
0.00043244322 0.006595305 0.008071042 0.00528104 0.005335903 0.0066112555 0.0 3.402483e-09
-2.1416106e-06 -7.2355797e-06 -9.392522e-06 0.010820154 -9.025293e-05 -2.292735e-05 1.0358779e-05 5.2652216e-05
4.0990377e-05 -1.3234936e-05 -5.5985995e-05 2.1804015e-06 -2.5588099e-05 -2.7744283e-05 9.288189e-05 -5.9484926e-05
-9.937742e-06 -2.0941401e-05 -1.2530244e-05 -4.7418735e-06 -4.104166e-06 -4.824818e-05 -8.215334e-05 -6.9917633e-06
9.86205e-05 0.00013801167 3.338365e-05 3.997645e-07 -2.5321557e-05 6.488949e-06 -3.0315154e-05 -1.6557395e-05
-6.1798787e-06 1.3486386e-05 -1.9063214e-07 -5.099676e-05 -1.1568567e-07 -6.59158e-05 0.0 0.0
-9.2102715e-07 0.0 0.0 -2.5237441e-06 2.3974524e-05 1.5365467e-05 1.0455529e-05 1.2964402e-05
1.8478913e-05 0.0011906879 0.0015787425 0.0015547796 0.00040508868 0.000570486 0.0009761773 0.00024556136
0.00019805433 0.0004428282 -0.0001562966 0.0009852626 0.0009440773 0.0012541282 0.0012836825 -0.0021300642
0.0 0.0 -1.1722309e-06 -2.9256387e-06 -4.0915343e-06 -0.0029743472 0.0005361687 2.7680771e-06
0.0009591669 0.0006987606 0.00014489805 -1.6573178e-05 -7.2896924e-05 -7.768545e-05 2.530667e-05 -0.00011928127
0.00073057885 9.106049e-05 -1.2085249e-05 9.217924e-06 -2.7744202e-06 -3.054021e-06 -7.002944e-07 -4.114393e-05
0.0005549895 5.335976e-05 0.0002717599 0.00081105484 8.515298e-05 -6.7005174e-05 -6.386331e-05 -5.3702843e-05
1.6341288e-05 2.3784698e-05 9.9594945e-06 -1.5571415e-05 7.862614e-06 2.6803448e-06 -4.5819246e-07 0.0002118273
0.0 0.0 -3.218962e-08 0.0 0.0 -1.5648198e-05 1.076331e-05 -1.1546567e-05
-6.8400873e-06 9.803663e-06 -4.194447e-06 0.013459294 0.012400686 0.012379482 -0.00015751115 0.0003976704
0.0002397334 0.0050366293 0.0046121012 0.009650085 -9.5201984e-05 0.0013825997 0.010954132 0.009830607

exp_avg_sq f4 [16, 66]
00000000: 2714 5236 5d35 9532 c268 f533 5c06 fd35
00000010: 7b96 2934 7a04 2233 fd53 7e33 a6e3 6b32
00000020: ff62 4c33 39f3 9233 44f2 9d35 634a a133
00000030: 0345 ad32 cf4f a432 4a92 cc30 731f 9432
00000040: aab8 872e adbe f432 e6b5 8e36 342d 4031
00000050: 60b2 0834 629e c035 7917 b333 a6d0 6e33
00000060: 1c89 8e33 b963 8b31 45c2 9433 3915 0532
00000070: e675 d530 fc50 0833 7c9c d42f 9b49 b732
00000080: dc0d ff2b 3d2a 3b33 0000 0000 0000 0000
00000090: e89c 7f2e 0000 0000 0000 0000 21c1 cf30
000000a0: ba51 9031 f343 2331 e5f2 4830 7710 c531
000000b0: bb6a bf30 973c 533a 22b5 5d3a cd50 5d3a
000000c0: d505 2539 0b2a f638 ce21 0f3a 2005 ab36
000000d0: 069a ae37 0ec9 3e38 1297 af35 72b8 063a
000000e0: 4bbb 6a3a 6af7 753a b209 773a 371d d93a
000000f0: b364 5e24 b333 5e25 b9e4 892f 58b2 0230
00000100: 84ea be30 aa73 323a c525 c934 8f93 0c31
00000110: d975 5732 674a fe33 788e 6232 1c1a a731
00000120: bc6a 5532 5014 9d31 9711 5832 d23d 9232
00000130: 63ac 3233 13c4 ed31 9ffe b72e 068f 3c31
00000140: 7fec 2d2f 0d4e 0431 f44a a12d 5ce8 1931
00000150: 58fe d934 5756 102f 2760 1a33 cf79 5334
00000160: f0d3 9d32 655d 2632 cd0a 7b32 7caf f42f
00000170: 8532 e231 f5be 572f 7892 182e 7270 db30
00000180: c0be d62d 45e8 5731 7e07 0d29 e3c4 1932
00000190: 0000 0000 0000 0000 c4e3 402d 0000 0000
000001a0: 0000 0000 f59c 382e f3f5 5530 4f0b 162f
000001b0: 69a5 312f 2c1d bd2e 3ddb d62f 5efb 2a38
000001c0: a428 6338 c987 6238 9a69 b436 46bb a136
000001d0: 6028 aa37 8fe6 4136 49b0 8236 5c9f 6137
000001e0: 0fa2 6f34 e422 f537 c895 2638 d43c 5e38
000001f0: 3402 5e38 9af5 fe36 0000 0000 33ef df23
00000200: 4b7e 822f 79b7 cb2f f67d a430 b716 9838
00000210: 35e4 7c33 cead 8a2f 4bd1 9232 b5df 3833
00000220: 942f 7630 091d 7e2f 509f b130 7637 aa2e
00000230: f0a3 0e30 83b1 8d30 e1ac 2b32 7e30 c82f
00000240: cf5b 612e 6451 5a2f 2609 e72d e80e 902f
00000250: d494 852d 107a c030 5262 8d33 9cb7 732e
00000260: 9222 5932 f636 1933 8481 4130 e278 f92f
00000270: c157 1030 ddde 5d2f ae8c 552f ec63 3a2e
00000280: 17fd d52d 0e7c 802f d4d7 bb2c 41c0 7a30
00000290: 77b8 7628 5432 2531 0000 0000 0000 0000
000002a0: cb89 3a2b 0000 0000 0000 0000 bf2b 872c
000002b0: 3a49 2a2f 0231 982e 20c5 5c2e 1e51 692f
000002c0: 92df fc2e e821 f334 a027 8735 2246 8835
000002d0: ceb0 e833 f1ca 1034 bcc0 fc34 d40c a934
000002e0: f3e3 ef34 10e3 bf35 1d42 2832 ba4b b334
000002f0: 7d9b 4d35 bb00 e435 0bed e735 7bc1 9935
00000300: 0000 0000 0000 0000 b1a1 992b 3e22 b12c
00000310: b35d 132d 66ac da35 1e50 0535 5f56 3d30
00000320: f197 5334 9c8e b636 cc31 4033 e9e4 8932
00000330: 7084 c732 4d2e 3a31 88a4 7931 6169 d331
00000340: e0ef d333 2c09 8732 a383 bf30 95db c330
00000350: f447 5030 731e b432 04ee 052e db29 7e31
00000360: ec47 a034 fdaa 882f 11ea cf33 529f b236
00000370: 3174 4a33 96f6 5632 7b38 1f33 eebe 2c31
00000380: c704 0c32 da13 3a30 75a7 282f 140c b832
00000390: 176f fa2e e64d 0032 9519 082b 8992 a731
000003a0: 0000 0000 0000 0000 9078 0b2c 0000 0000
000003b0: 0000 0000 bfe0 962e 2fb7 9330 8192 5d2f
000003c0: badb 332f 3c2d 092f 4e84 ec2f b568 473a
000003d0: 729d 3f3a 4e9b 3f3a d7f9 a337 d8c9 cd37
000003e0: fba2 b738 3351 1338 b371 fe37 d832 0939
000003f0: c19b 3e36 b5b8 7d39 5dcf 053a 731e 003a
3.1304169e-06 1.737015e-08 1.1427757e-07 1.885182e-06 1.5794096e-07 3.7722636e-08 5.921537e-08 1.3730562e-08
4.7587488e-08 6.842897e-08 1.176792e-06 7.5106776e-08 2.0171234e-08 1.9128406e-08 1.4884531e-09 1.7243769e-08
6.171892e-11 2.8492048e-08 4.2531055e-06 2.7965372e-09 1.273088e-07 1.435121e-06 8.339607e-08 5.5603458e-08
6.63733e-08 4.0567696e-09 6.9271245e-08 7.746444e-09 1.5531298e-09 3.1738622e-08 3.8673764e-10 2.1337476e-08
1.8122687e-12 4.3577746e-08 0.0 0.0 5.8119648e-11 0.0 0.0 1.5116123e-09
4.200243e-09 2.3758246e-09 7.310475e-10 5.7353264e-09 1.3927414e-09 0.000805804 0.0008457472 0.0008442521
0.00015737799 0.00011738025 0.00054600544 5.0967938e-06 2.081414e-05 4.5486777e-05 1.3082483e-06 0.0005139179
0.00089543004 0.0009382876 0.0009423747 0.0016564493 4.8223872e-17 1.9272947e-16 2.5082672e-10 4.7547166e-10
1.3890973e-09 0.00068073964 3.7466648e-07 2.0456559e-09 1.25414426e-08 1.18413304e-07 1.3187325e-08 4.863308e-09
1.24225e-08 4.5716106e-09 1.2576854e-08 1.702475e-08 4.160064e-08 6.919899e-09 8.367106e-11 2.74389e-09
1.5818279e-10 1.9252895e-09 1.8336867e-11 2.2396511e-09 4.060446e-07 1.3127398e-10 3.594337e-08 1.969522e-07
1.8373584e-08 9.683707e-09 1.4612579e-08 4.450803e-10 6.583209e-09 1.9621978e-10 3.469089e-11 1.5966306e-09
2.4413693e-11 3.1418648e-09 3.1314788e-14 8.950539e-09 0.0 0.0 1.09645105e-11 0.0
0.0 4.1976162e-11 7.7838463e-10 1.3646438e-10 1.6156822e-10 8.599907e-11 3.9082151e-10 4.0765262e-05
5.4158867e-05 5.400906e-05 5.3767117e-06 4.8199754e-06 2.028438e-05 2.8893444e-06 3.894824e-06 1.3448149e-05
2.2317566e-07 2.9222523e-05 3.971698e-05 5.2985575e-05 5.2930976e-05 7.5983817e-06 0.0 2.4279013e-17
2.37366e-10 3.705585e-10 1.1968371e-09 7.252156e-05 5.8880875e-08 2.522555e-10 1.7091812e-08 4.30443e-08
8.956189e-10 2.3111481e-10 1.2923724e-09 7.740557e-11 5.189227e-10 1.0309552e-09 9.992818e-09 3.6414244e-10
5.124062e-11 1.98559e-10 2.6265722e-11 2.620404e-10 1.5186442e-11 1.4004531e-09 6.5837085e-08 5.541488e-11
1.2638923e-08 3.5673075e-08 7.0397044e-10 4.5378729e-10 5.25116e-10 2.017901e-10 1.9422217e-10 4.2380252e-11
2.4327691e-11 2.337121e-10 5.3388214e-12 9.122268e-10 1.3695743e-14 2.4039268e-09 0.0 0.0
6.62717e-13 0.0 0.0 3.8417876e-12 1.5487425e-10 6.920865e-11 5.019729e-11 2.1220045e-10
1.1499347e-10 4.5286947e-07 1.0069816e-06 1.0153201e-06 1.08355025e-07 1.3484875e-07 4.707889e-07 3.1488037e-07
4.4683074e-07 1.4296693e-06 9.7939195e-09 3.3396446e-07 7.6594716e-07 1.6987536e-06 1.727983e-06 1.1455699e-06
0.0 0.0 1.0916182e-12 5.034444e-12 8.376788e-12 1.629244e-06 4.9662947e-07 6.888054e-10
1.9706182e-07 5.4406246e-06 4.4748774e-08 1.6052995e-08 2.3226875e-08 2.7092881e-09 3.6327794e-09 6.1528884e-09
9.869086e-08 1.572024e-08 1.3934492e-09 1.4250526e-09 7.577221e-10 2.0968605e-08 3.04521e-11 3.6985657e-09
2.9854652e-07 2.485975e-10 9.681765e-08 5.3233607e-06 4.7137465e-08 1.2512507e-08 3.707144e-08 2.5137825e-09
8.150159e-09 6.7694617e-10 1.5339004e-10 2.1425912e-08 1.1388417e-10 7.468293e-09 4.835241e-13 4.876999e-09
0.0 0.0 1.9820014e-12 0.0 0.0 6.861133e-11 1.0747722e-09 2.0151882e-10
1.6358018e-10 1.2476148e-10 4.3022158e-10 0.000760685 0.0007309533 0.0007309214 1.9547455e-05 2.4531895e-05
8.7564775e-05 3.5123154e-05 3.0332105e-05 0.00013084279 2.8402867e-06 0.00024196769 0.0005104447 0.000488735

exp_avg f4 [16]
00000000: 0549 513c a7e2 26bc 06d0 a13b 6364 74bb
00000010: c665 463c 8515 03bb 8ca7 13bc 3091 253c
00000020: 1586 3e3a dfa2 9b3a 4059 41bb 13fd c6bb
00000030: 8425 65bc 40ca 1cbc 887f 173c c7b9 133c
0.012773757 -0.010185874 0.0049381284 -0.003729128 0.012109226 -0.002000184 -0.009012114 0.010105416
0.00072679046 0.0011874101 -0.002950266 -0.0060726493 -0.013985995 -0.0095697045 0.009246714 0.009016461

exp_avg_sq f4 [16]
00000000: 1e02 a837 5194 0939 796a 1b39 3767 1138
00000010: 9070 ba38 6cdf d637 4565 5238 833f 7c39
00000020: 2996 0239 1de8 a536 c0fc 7838 1b39 6e39
00000030: 8aba d538 86bf 843a aaa6 1a37 e506 4339
2.0028147e-05 0.0001312059 0.00014821616 3.466682e-05 8.8901375e-05 2.5614827e-05 5.0162216e-05 0.00024056253
0.00012453705 4.9444047e-06 5.93632e-05 0.00022718722 0.00010191377 0.0010127879 9.21792e-06 0.00018599218

exp_avg f4 [16]
00000000: bd0c 023c 26ef adbb 1a24 913b 76a3 03bc
00000010: ad62 883c e8e2 b5bb e744 96bc 3c5a a03b
00000020: 9610 ca3b 5a2e 8e3b 37ab d93b 622d d3bb
00000030: 3a53 55bb 23d8 c0bb b7ab 3b3c 4cef cb3b
0.007937607 -0.0053080497 0.0044293525 -0.008034578 0.016648615 -0.005550731 -0.018343402 0.0048935693
0.006166528 0.0043390216 0.006642725 -0.006444619 -0.0032550828 -0.0058851405 0.011454514 0.006223595

exp_avg_sq f4 [16]
00000000: 3b12 d637 b89c 5a38 cca6 3d38 e661 3038
00000010: 3fed 4239 0265 ac37 a67b 8e39 5e0a e337
00000020: c74e a538 eaa8 2b37 41d8 e936 d767 a339
00000030: 0132 2d39 96e8 cd39 9990 b937 c485 d038
2.5519277e-05 5.2121206e-05 4.5216453e-05 4.2052845e-05 0.00018589663 2.0551033e-05 0.00027176476 2.7065336e-05
7.8824865e-05 1.0231723e-05 6.9691164e-06 0.0003116715 0.00016517194 0.00039273937 2.2121052e-05 9.943129e-05

exp_avg f4 [8, 16]
00000000: 71e6 c33a ca2d 093c 9ef3 aabb a3e9 b53b
00000010: cafc 11bb df17 8dbb f062 933b 6645 543a
00000020: e9ca a03b b19c 5f3b e3e0 a0bb b0aa d7ba
00000030: 5d2c 4f3b f6c0 54bb e470 57bb 56ee f1bb
00000040: 6537 833c 1182 72bb e437 f8bb b87a 9e3b
00000050: 59c1 afbb 46f4 32bc b290 073c 1802 b7bc
00000060: a898 76bc 4471 723b 69cc 04bc 3274 923a
00000070: 00db 00bb 5008 6abc b80d 683c 5d7e 1cbb
00000080: 4d0d 1abb d102 5abb 70fb 41ba 5f2d 163b
00000090: ac1d 423a f128 3039 161a cfba 9366 053a
000000a0: 6c4f b5bb 9508 8bbb 7f25 40ba 436c be3b
000000b0: 5207 cfbb 1150 b7b8 3e3a 613b 3600 10bb
000000c0: d6a2 4dbc 41c2 64bc 7210 1d3c 977a 13bc
000000d0: 53f0 153c c5b8 e93b 9342 83bc ec54 2e3c
000000e0: 17ef 42bc ed62 50bc 02a7 1a3c 0834 27bb
000000f0: c256 9fbc 0611 ee3b a5b5 fc3a cb5d 433c
00000100: 8f1d 293b 475d 403c 6dee cdbb b728 d9bb
00000110: 9b42 25bc 339d 63bb 2a8d c439 c21c ad3a
00000120: f6e9 033c 9fb2 e53b 33ec 05bc 11f6 38bb
00000130: 17e1 003c c586 baba 44fb 8f38 3aa4 1dbc
00000140: e532 843a f1f7 1239 4066 f63a 198f a73a
00000150: 085a 86bb 3413 c63a 39ea 653a 33c8 ccb9
00000160: ceba acb9 25c0 aa3a c86e 453a 3828 113b
00000170: 2a30 4c38 2338 e43a f677 a63b ed18 403b
00000180: 8278 143c 64bf 563b 8b8f 44bc eb8b 5fbb
00000190: bbc5 a7bb 221a 40bc 72f5 2d38 70c4 8cbc
000001a0: 4ec2 1cbc 295f bd39 cad1 25bc 2d4c 26bc
000001b0: 3269 46bb 7bed 44bc fe25 dabb be69 3fbc
000001c0: 59dc 29bc a72f 93bb dc74 a63b f507 82bc
000001d0: 1c5b 833c 9063 4d3b 5882 87bc 5098 f43b
000001e0: 6ff4 9038 260d 15bc 4c96 bb3b 5641 c0bb
000001f0: dedf 84bc 24d1 4f3b 2ae8 93bc 8bc9 fe3b
0.0014945996 0.008372733 -0.0052170297 0.0055515333 -0.0022275918 -0.004305824 0.0044978783 0.00080974994
0.0049070013 0.0034120495 -0.004909621 -0.0016454067 0.0031612136 -0.0032463646 -0.0032873685 -0.007383148
0.016017625 -0.0037003795 -0.007575022 0.0048364066 -0.005363625 -0.010922497 0.008274244 -0.022339866
-0.0150510445 0.003699378 -0.008105376 0.0011173545 -0.0019661784 -0.014284208 0.014163427 -0.002387903
-0.0023506463 -0.003326584 -0.0007399833 0.0022915227 0.0007404934 0.0001679992 -0.0015800621 0.0005088832
-0.0055331495 -0.0042429664 -0.0007329806 0.0058112456 -0.0063180113 -8.7410335e-05 0.003436699 -0.0021972782
-0.01255103 -0.013962329 0.00958644 -0.009001396 0.009151536 0.007132622 -0.016022956 0.010640364
-0.011897824 -0.012718898 0.009439232 -0.002551319 -0.019450549 0.007265213 0.0019280209 0.011924217
0.0025804972 0.011740989 -0.006284526 -0.006627168 -0.010086681 -0.003473115 0.0003748921 0.0013207423
0.008051386 0.0070098187 -0.00817399 -0.002822284 0.007866166 -0.0014230838 6.865573e-05 -0.009621674
0.0010085969 0.0001401601 0.0018798783 0.0012783735 -0.004100088 0.0015111924 0.00087705586 -0.00039059072
-0.00032945577 0.0013027234 0.00075314613 0.0022149216 4.8682246e-05 0.001741175 0.0050802184 0.0029311732
0.009061934 0.0032767886 -0.011997114 -0.0034110497 -0.005120007 -0.011724981 4.1475003e-05 -0.017183512
-0.00956781 0.0003611979 -0.010120818 -0.010149998 -0.0030275104 -0.01201951 -0.006657361 -0.011682926
-0.010367476 -0.0044917646 0.0050798487 -0.015872935 0.016034655 0.0031339861 -0.016541645 0.007464446
6.9119844e-05 -0.009097373 0.005724704 -0.0058671637 -0.01622003 0.003171035 -0.01805504 0.0077754906

exp_avg_sq f4 [8, 16]
00000000: ed6e aa36 5187 5937 f21e 0a38 cf11 c535
00000010: d706 a237 89be e837 ef32 b936 6704 4e37
00000020: 3161 5c37 7d2a c836 f1eb c337 2c22 ba36
00000030: 3bae c936 2989 bc37 2faa a036 5c41 fe37
00000040: c14f 5c38 77b1 5738 4de2 563a a8d5 0f38
00000050: 425c 143a e877 733a c7ea b437 9693 7d3a
00000060: a4ad 4739 4ea1 3c38 bad6 723a 7a9d 6139
00000070: 9077 4337 ed6b 943a 489c 7238 7efa 6a3a
00000080: 63f6 a935 5f3d 2736 cd25 8435 a355 5335
00000090: c49f 7e34 8bc4 e634 e7f4 e335 e971 0235
000000a0: 523f 6136 4c8f 9d36 e302 8335 46d0 c435
000000b0: 96dc 2836 b039 da34 a98b 5e36 eb35 6c36
000000c0: f57f da37 d298 dd38 7d34 0138 ff44 5936
000000d0: a028 d138 b5c9 2e38 7423 8b37 8a40 3538
000000e0: ca0b fc37 8cde 1039 ff1b 3b38 5927 5738
000000f0: d901 d238 aaca e537 4716 8937 8e52 0e38
00000100: aecc 8d37 af0e d737 ee96 8938 7a8d a137
00000110: ecd3 8838 5e25 9738 79ca 1937 b1f9 7439
00000120: fc68 2938 842e 2938 d793 9238 09f7 c138
00000130: 0e02 6a37 b386 cb38 77c7 ce37 e5f3 8238
00000140: aa73 9534 bb3f a234 2ff0 b134 b05f 9434
00000150: 0d43 7835 c44c d734 d154 8634 360d 3c34
00000160: 94af 1f37 bbd9 ab34 2be1 b834 0187 b535
00000170: 2b85 5134 f0bd c634 3ebc 3c35 30d5 3435
00000180: efbd 2e37 f041 b836 a620 b738 6fbf 5a37
00000190: e976 6439 a50f ed38 0227 0a37 9b31 d138
000001a0: 7d94 1038 4d7c 4f37 1ce6 0039 e83c a438
000001b0: 0098 2e37 28a7 9338 0a14 1338 4cc9 e238
000001c0: 00ea 053a e6a9 313a f19b 043a 52e4 ec39
000001d0: cd70 3f3a 1dbc 153a 4905 0f3a 4f22 fa39
000001e0: 1ec7 1239 31ef 353a a94c 203a 8c7c 1938
000001f0: 3428 3b3a 7cb4 043a 2c40 c239 c673 153a
5.0793083e-06 1.2965714e-05 3.2930584e-05 1.4682827e-06 1.931509e-05 2.774528e-05 5.519359e-06 1.2279582e-05
1.3135651e-05 5.9654108e-06 2.335568e-05 5.54721e-06 6.01055e-06 2.2475217e-05 4.7881836e-06 3.0309595e-05
5.2526364e-05 5.142527e-05 0.00081971736 3.429284e-05 0.00056594994 0.0009287582 2.1566999e-05 0.0009673176
0.00019042805 4.497292e-05 0.0009263564 0.00021516337 1.16507435e-05 0.0011323668 5.7842844e-05 0.0008963718
1.2663189e-06 2.4920662e-06 9.845768e-07 7.8728243e-07 2.3713716e-07 4.2983842e-07 1.6984094e-06 4.8594535e-07
3.356447e-06 4.6956466e-06 9.761101e-07 1.4663754e-06 2.5162349e-06 4.0647637e-07 3.316187e-06 3.5198125e-06
2.604721e-05 0.00010566566 3.080488e-05 3.237568e-06 9.9734636e-05 4.1672687e-05 1.65866e-05 4.321387e-05
3.004623e-05 0.00013815815 4.4610348e-05 5.129664e-05 0.000100139245 2.73933e-05 1.6342046e-05 3.3932323e-05
1.6903821e-05 2.5636835e-05 6.560782e-05 1.9258576e-05 6.524459e-05 7.207201e-05 9.1666525e-06 0.0002336267
4.0390514e-05 4.033606e-05 6.98936e-05 9.248971e-05 1.3947965e-05 9.704884e-05 2.4649997e-05 6.244312e-05
2.783757e-07 3.0221221e-07 3.3143576e-07 2.763677e-07 9.248477e-07 4.0102725e-07 2.5021157e-07 1.751367e-07
9.5180185e-06 3.2009652e-07 3.4436502e-07 1.3524842e-06 1.9513088e-07 3.7018572e-07 7.0309386e-07 6.7365454e-07
1.0415431e-05 5.4913035e-06 8.732201e-05 1.3038384e-05 0.00021788072 0.00011303955 8.234523e-06 9.975136e-05
3.4470566e-05 1.23671025e-05 0.00012292754 7.831474e-05 1.0406598e-05 7.0406415e-05 3.5066194e-05 0.00010814014
0.0005108416 0.0006777331 0.00050586375 0.0004518354 0.00073028804 0.000571193 0.00054558046 0.00047709278
0.00013997822 0.00069402443 0.0006114939 3.6594036e-05 0.00071394746 0.00050622947 0.00037050375 0.00057011505

exp_avg f4 [8]
00000000: d671 8b3b d842 293a 7618 3bbc a51f 6a3c
00000010: 9768 e93b 37d9 723a 95a7 58bc b12a 41bb
0.0042555137 0.0006456799 -0.011419406 0.014289771 0.007123064 0.0009263935 -0.013223548 -0.002947491

exp_avg_sq f4 [8]
00000000: 8b15 d337 6497 ce36 a573 a638 906d 993a
00000010: ad69 a737 8ddb 3738 7792 853a 694c 2238
2.5163192e-05 6.1569026e-06 7.937037e-05 0.0011705626 1.995716e-05 4.3835073e-05 0.0010190745 3.8694972e-05

exp_avg f4 [8]
00000000: 5b2f a7b8 4bfc ddbb 7218 43bc 5d11 ec3b
00000010: 79b7 c2bb b788 07bb 8f2e dbbb 62d1 1d3c
-7.972001e-05 -0.0067744604 -0.011907684 0.0072042183 -0.005942282 -0.0020680854 -0.0066889 0.00963244

exp_avg_sq f4 [8]
00000000: 3f46 7537 cb80 1638 668d 6f38 708b 0c3a
00000010: d797 9938 e828 4a38 01d3 7e3a bfb3 9538
1.4619493e-05 3.5882735e-05 5.7113728e-05 0.0005361354 7.323891e-05 4.819865e-05 0.0009720773 7.138354e-05

exp_avg f4 [4, 8]
00000000: 720b 25bb 9369 5aba 984b 67bc e003 5b3c
00000010: 57d1 5cba 318c a33c f07d 223c 2b16 a8bb
00000020: d048 06bc c18d e139 7367 8bbb 668e 63bb
00000030: 6715 6c3c 0f58 b43b 9d96 c23b c5b6 15bc
00000040: 4f1f 853b d046 933b 1c88 4b3c e3f7 47bc
00000050: b66c 90bc 6c04 dcbc 57c7 8f3a df29 823b
00000060: f956 27bc 612f 3ebb bab9 1e3b 203a 9f39
00000070: 7dbc c43c f122 fd3b e61a 323b 816c a73b
-0.0025183824 -0.0008331772 -0.014117144 0.013367623 -0.0008423528 0.01996431 0.009917721 -0.0051295958
-0.008196071 0.0004302096 -0.0042542755 -0.0034722327 0.0144094 0.0055036615 0.0059383647 -0.009137814
0.00406257 0.0044945255 0.012422588 -0.012205097 -0.017629962 -0.026857577 0.0010969442 0.0039722766
-0.010213607 -0.002901994 0.0024219588 0.0003037015 0.02401566 0.0077251126 0.0027176677 0.00510937

exp_avg_sq f4 [4, 8]
00000000: 276a 5438 e54f 7e38 cfcf bc3a d1f8 a03a
00000010: ad30 ba36 89d9 ab3a c7c8 4a3a 67da b438
00000020: 295a 4937 6622 2e37 06ae 5737 8139 2f37
00000030: 9ca4 f536 566f c236 dd9f 0736 663d dc37
00000040: cd42 c238 0608 0638 491d a537 3166 3e39
00000050: a517 7638 5db8 4839 19b7 2e38 980b 1439
00000060: 945a b836 fc99 b537 d84a e536 dcb9 9937
00000070: 13b4 a037 a963 8237 e5fc 8537 821b 9437
5.06436e-05 6.0632727e-05 0.0014405194 0.0012281184 5.5488986e-06 0.0013111095 0.00077356066 8.6237495e-05
1.2001526e-05 1.0379217e-05 1.2855517e-05 1.04442015e-05 7.320732e-06 5.7946118e-06 2.020962e-06 2.6254635e-05
9.2630835e-05 3.1955562e-05 1.968317e-05 0.00018157881 5.867299e-05 0.00019142167 4.1655356e-05 0.00014118699
5.494172e-06 2.1648586e-05 6.833445e-06 1.8325569e-05 1.915734e-05 1.5543616e-05 1.5972599e-05 1.7655784e-05

exp_avg f4 [4]
00000000: e43d b2bd d8ae 1c3b 5c47 a83c 8aea 803d
-0.08703211 0.0023907926 0.02054184 0.06294735

exp_avg_sq f4 [4]
00000000: d1f3 103a 0906 ef36 96a7 3339 24d4 2e39
0.00055294955 7.1234576e-06 0.00017133201 0.00016672962

exp_avg f4 [4]
00000000: e192 23bd d4f9 f73a bff0 293c bc6e 923d
-0.039934997 0.0018919059 0.01037234 0.07150027

exp_avg_sq f4 [4]
00000000: e356 9739 bffe 2236 b8cc 3838 b40a 1639
0.000288657 2.4288163e-06 4.4059678e-05 0.00014309102

exp_avg f4 [2, 4]
00000000: 735a 33be f5c0 3dbb 1f0a 1c3d 6bd7 ae3d
00000010: 313f 92bb ccb6 913b 6053 e23a c526 59bc
-0.17514972 -0.0028954123 0.03809559 0.085371815 -0.0044630994 0.00444684 0.0017267279 -0.013253872

exp_avg_sq f4 [2, 4]
00000000: 9409 803a a36e 6e37 aec1 c738 d086 4f39
00000010: c20d 7838 db54 c537 1d6f e837 c016 8e37
0.000976848 1.4211665e-05 9.525135e-05 0.0001979128 5.914062e-05 2.3523744e-05 2.7708296e-05 1.6938313e-05

exp_avg f4 [2]
00000000: 21f8 863d eefc 94bd
0.065902956 -0.07274805

exp_avg_sq f4 [2]
00000000: 83cc f039 1755 9b39
0.0004592874 0.000296273

exp_avg f4 [2]
00000000: aa8b 323d 89dd e3bd
0.043590225 -0.11126239

exp_avg_sq f4 [2]
00000000: 846b 7039 6363 d039
0.00022928236 0.000397469

exp_avg f4 [2, 2]
00000000: 3943 39bd 00e5 2abd 3943 393d 00e5 2a3d
-0.045230124 -0.041722298 0.045230124 0.041722298

exp_avg_sq f4 [2, 2]
00000000: 73a9 6239 30c4 c738 73a9 6239 30c4 c738
0.00021616164 9.525602e-05 0.00021616164 9.525602e-05

exp_avg f4 [2]
00000000: ef46 89bd ef46 893d
-0.06702983 0.06702983

exp_avg_sq f4 [2]
00000000: 9464 153a 9464 153a
0.0005698886 0.0005698886
