test/output/local1/simulatorRun/fsv_volumes_from_scratch/fold_4/best.nn.pt (torch_old, 737324 bytes, 42 tensors)

layers.0.0.weight f4 [256, 66]
-0.035546094 -0.15850829 0.035392847 -0.118735 -0.08887387 -0.1829771 0.11794229 -0.12916452
0.01844697 0.08029276 -0.062121276 0.22658831 0.12526433 0.0567096 0.1958748 -0.228251
0.4334543 -0.2759889 -0.005454031 0.022329899 0.07167029 0.24678671 0.04955722 0.5136652
-0.09231906 0.054829497 -0.18431647 0.25249523 -0.1056599 0.06898041 0.164761 0.08121645
-0.15210861 -0.30018407 -0.043576647 0.19271229 0.052964017 0.16570008 0.11930207 -0.11715212
-0.16747856 0.17142935 -0.19268115 0.0411752 0.36817822 0.21961656 0.10989381 0.0028379685
0.054391734 -0.065369606 -0.12463528 -0.2824714 -0.02929474 0.05618862 -0.050063547 0.18419252
-0.06777332 0.20756619 0.31842756 0.33355322 0.008380023 -0.3578067 0.22540265 0.043662515
-0.17147738 0.20054987 -0.22847122 -0.05021878 -0.23358671 -0.13445926 0.310936 -0.12861043
-0.07612342 0.018871132 -0.1173946 -0.12087427 0.23586445 -0.019843023 -0.052904043 -0.0001862993
-0.19682929 -0.1289945 0.090879805 0.0966593 -0.029534329 -0.12381464 0.111668676 0.21041748
0.1268403 0.20313264 0.21927547 0.21513449 0.013051312 -0.26688895 -0.026004316 0.13065222
-0.0613104 0.11090728 0.0023239818 -0.20516087 -0.0033869469 0.14270698 -0.113717 -0.30083036
-0.011991361 -0.23361114 -0.008305861 0.14391752 0.024702301 -0.23757105 -0.121298954 -0.10202412
-0.12810938 0.4144364 0.050515056 0.020595215 -0.12611997 -0.05609797 -0.5392312 0.2800179
0.009699084 -0.39068264 -0.1394004 0.022650162 -0.033720706 -0.090075806 0.19286346 -0.07515241
-0.14923306 0.22396258 -0.25518802 -0.012845578 -0.06411112 0.17391811 0.0035356458 -0.26588523
0.0928033 0.24693231 -0.05830074 -0.025466831 -0.04565817 0.02446049 0.08352151 -0.11433943
0.23120303 0.02939576 -0.2524983 0.020120308 -0.25846925 0.022912685 -0.13675113 -0.22820653
-0.039682753 -0.2667018 0.07121322 -0.15318745 -0.03056718 -0.13086526 -0.12013479 0.07688895
-0.2498621 0.29160917 -0.11801009 -0.0963832 0.1306504 0.024632411 -0.016726092 0.19053797
-0.03227985 -0.054756384 -0.025876218 0.12316608 0.05079403 -0.3381957 0.1322623 0.007078365
-0.15558799 0.40908957 0.10067582 -0.09736308 -2.196649e-05 -0.1013299 -0.18741663 0.04562831
0.057948142 0.084502585 0.008318444 0.33655635 0.03162192 0.047680404 -0.11820602 -0.0033463717
-0.20099616 0.3076674 0.26908076 0.13050865 -0.21108638 0.023169996 0.014193856 0.13764463
-0.175673 -0.31126836 0.018818488 0.03501536 0.19544831 0.19439144 0.012877619 -0.3008026
0.11773033 -0.07870808 0.32345498 -0.071235746 -0.38044342 0.33268085 -0.18021888 0.110467955
-0.025805842 0.37128398 -0.03887127 0.23040779 -0.087009676 -0.17177983 0.30211973 0.30506474
0.15939526 -0.04451943 -0.14161883 0.075613596 0.25048986 0.23917192 -0.05812954 -0.16566207
-0.18710545 -0.14024924 0.05674876 -0.094210096 -0.2898168 -0.37273967 -0.04632424 -0.22648017
0.23369934 -0.15551291 0.1012394 -0.16040008 0.009939031 0.13269834 0.086184666 -0.16529849
0.103549674 0.15268539 0.46421385 -0.1603659 0.027943319 -0.05310147 0.14343134 -0.10008791
00000000: c898 11bd ff4f 22be 17f8 103d 562b f3bd
00000010: 8103 b6bd 595e 3bbe ba8b f13d b443 04be
00000020: 1a1e 973c 8870 a43d e172 7ebd c406 683e
00000030: 4b45 003e 5348 683d 6793 483e a1ba 69be
00000040: b9ed dd3e 6b4e 8dbe bab7 b2bb 31ed b63c
00000050: dfc7 923d a8b5 7c3e 83fc 4a3d 907f 033f
00000060: c611 bdbd e594 603d 75bd 3cbe 0e47 813e
00000070: 3864 d8bd 9a45 8d3d 1cb7 283e cf54 a63d
00000080: 5cc2 1bbe bab1 99be 6d7d 32bd 5f56 453e
00000090: ccf0 583d 48ad 293e a554 f43d 73ed efbd
000000a0: 807f 2bbe 2d8b 2f3e 354e 45be 54a7 283d
000000b0: db81 bc3e 2ae3 603e 0110 e13d 36fd 393b
000000c0: dec9 5e3d 80e0 85bd c840 ffbd 17a0 90be
000000d0: 86fb efbc 0a26 663d 6f0f 4dbd f79c 3c3e
000000e0: bdcc 8abd 3b8c 543e f008 a33e 7dc7 aa3e
000000f0: 5d4c 093c 7132 b7be f4cf 663e 77d7 323d
00000100: c497 2fbe f25c 4d3e 5cf4 69be 35b2 4dbd
00000110: 5b31 6fbe b0af 09be 0133 9f3e 74b2 03be
00000120: 98e6 9bbd a297 9a3c 946c f0bd ee8c f7bd
00000130: 7386 713e d68d a2bc e9b1 58bd 5659 43b9
00000140: 9e8d 49be 2217 04be 311f ba3d 50f5 c53d
00000150: faf1 f1bc 8892 fdbd 8cb2 e43d ae77 573e
00000160: 6ce2 013e 0102 503e c089 603e 374c 5c3e
00000170: 2cd5 553c aba5 88be 0107 d5bc b2c9 053e
00000180: 9d20 7bbd 5b23 e33d f24d 183b b115 52be
00000190: 8af7 5dbb c721 123e 75e4 e8bd 7006 9abe
000001a0: 6a77 44bc c237 6fbe 4e15 08bc 1d5f 133e
000001b0: 7b5c ca3c d345 73be 966b f8bd 06f2 d0bd
000001c0: 1b2f 03be 0231 d43e e0e8 4e3d 4cb7 a83c
000001d0: 9825 01be fcc6 65bd 0e0b 0abf 825e 8f3e
000001e0: e8e8 1e3c 8e07 c8be fabe 0ebe d58c b93c
000001f0: b91e 0abd aa79 b8bd 007e 453e 82e9 99bd
00000200: 8dd0 18be 7256 653e 01a8 82be 4276 52bc
00000210: b14c 83bd 9717 323e 4bb6 673b 1c22 88be
00000220: a80f be3d d3db 7c3e c2cc 6ebd d19f d0bc
00000230: 1004 3bbd 5e61 c83c 530d ab3d cb2a eabd
00000240: 7dc0 6c3e 60cf f03c 7547 81be 58d3 a43c
00000250: 1556 84be 62b3 bb3c 7d08 0cbe f9ae 69be
00000260: 628a 22bd 238d 88be 3dd8 913d 2cdd 1cbe
00000270: 0668 fabc 8b01 06be 3b09 f6bd f477 9d3d
00000280: dadb 7fbe cc4d 953e 46af f1bd 8e64 c5bd
00000290: 38c9 053e e9c9 c93c 2805 89bc 631c 433e
000002a0: e037 04bd 3b48 60bd 5dfa d3bc 7f3e fc3d
000002b0: 670d 503d fd27 adbe c56f 073e a1f1 e73b
000002c0: 7552 1fbe 3074 d13e 202f ce3d 4b66 c7bd
000002d0: ae44 b8b7 0d86 cfbd 25ea 3fbe c0e4 3a3d
000002e0: 085b 6d3d b10f ad3d 154a 083c 1d51 ac3e
000002f0: fd85 013d 874c 433d ff15 f2bd cd4e 5bbb
00000300: f0d1 4dbe 9586 9d3e f4c4 893e 0fa4 053e
00000310: 0727 58be 01cf bd3c 598d 683c b7f2 0c3e
00000320: 9fe3 33be 915e 9fbe 3b29 9a3c 446c 0f3d
00000330: 9a23 483e 8d0e 473e a6fc 523c cc02 9abe
00000340: 991c f13d b431 a1bd e49b a53e 0ce4 91bd
00000350: 7bc9 c2be 2555 aa3e 4c8b 38be 063d e23d
00000360: c666 d3bc ef18 be3e 7b37 1fbd 05f0 6b3e
00000370: 2132 b2bd 0de7 2fbe 70af 9a3e 7231 9c3e
00000380: 8338 233e 015a 36bd 8704 11be 4ddb 9a3d
00000390: 3540 803e 7ce9 743e 3e19 6ebd 51a3 29be
000003a0: 9298 3fbe 7f9d 0fbe 6371 683d 39f1 c0bd
000003b0: de62 94be bcd7 bebe 7cbe 3dbd 6bea 67be
000003c0: e14e 6f3e c73e 1fbe 9a56 cf3d eb3f 24be
000003d0: 51d7 223c 13e2 073e 9681 b03d 0244 29be
000003e0: da11 d43d 8f59 1c3e 70ad ed3e f536 24be
000003f0: 63e9 e43c ed80 59bd aadf 123e e4fa ccbd

layers.0.1.weight f4 [256]
0.988238 0.9859245 0.9816636 0.95566183 1.144734 0.9830304 1.0116011 0.94605124
1.0207032 0.9645138 0.9720151 1.045016 0.9619517 0.95972174 0.96248955 1.0350634
1.019914 1.0025362 1.1960309 1.0229679 0.9908572 0.99222004 0.9630462 1.0010383
0.98020077 0.9713309 0.9494721 0.9978085 1.0190917 1.1093621 1.1147908 1.0111353
0.9699508 0.9841226 0.97966546 0.9963795 0.97476006 0.97109103 1.097836 1.0098076
0.9731329 0.9555964 0.91430444 1.0178448 1.114851 1.0167803 0.9653829 1.0201652
0.99984306 0.98461336 1.0651677 0.98105764 0.99474835 0.974628 1.1189556 0.9443537
1.0061594 1.0060767 1.0435675 0.9760929 0.99689144 1.0030354 0.94694763 1.145948
0.9648614 0.9729382 0.97537744 0.98468775 1.0131065 1.0534569 0.9730896 1.0621853
0.97895783 1.0168726 0.91510445 0.974331 1.0162508 1.0203501 0.97673905 1.0152725
0.9616323 0.96919006 1.0483679 0.96323925 0.97029555 0.989872 0.9754155 0.97000784
0.96698654 0.96548057 1.016919 0.97541183 1.001658 0.9439261 0.974709 0.9991491
1.0173792 0.9631763 1.0102532 1.0360887 0.98542774 0.95272 0.9964017 0.98359984
1.0362575 1.0042456 0.9507058 0.9785938 0.9838879 0.9722218 0.9881812 0.9699865
1.0942464 1.0011454 0.96154946 0.9720784 1.0370704 0.94469875 0.98214597 0.9332165
0.9771143 0.9319358 0.9800532 0.96398014 1.0679554 0.98468935 0.9731023 0.93374354
0.9946709 0.9162001 0.97957313 0.99621326 0.97525203 1.0152832 0.9920998 1.2045949
0.94367754 0.9927203 0.9868537 0.93014085 0.995952 0.96386695 1.0157017 1.0073097
0.9761178 0.98835313 0.9827264 0.98899144 1.0569333 0.9854033 0.98578155 0.98003703
0.9649486 1.0041903 0.97991335 0.994788 0.97944266 0.9717639 1.0496987 1.0049676
0.9875408 1.0451801 0.9258872 0.997988 1.0060146 0.97769535 0.99276096 0.952536
1.0082624 0.95597535 0.96171707 0.982555 1.0341306 0.9482473 0.9823335 0.9951877
0.9820693 0.923138 0.9661035 0.9726827 0.98151284 0.99865794 0.9845463 1.1263169
0.9961182 1.0276288 0.967493 0.98088044 1.0440246 0.9835414 1.0385484 1.0557952
0.9309158 0.96917987 0.9829401 1.1317462 1.0640285 1.0364643 1.0030282 0.9993233
1.035879 0.96990097 0.96441925 0.98243535 0.9466859 1.003009 0.9799593 0.98344994
0.98654246 1.0392696 0.95351577 0.935372 1.1460825 1.0377595 1.0020524 1.002029
1.0112022 0.9797605 0.91893953 0.9377327 0.9871575 0.97384346 1.0463976 1.0329316
0.9668498 0.9855735 1.0588776 0.98411494 0.9787895 0.9434751 0.99187416 0.9095358
0.9630025 0.98094106 0.99031425 1.0407573 1.0705866 1.009634 0.9807006 1.0132989
1.1147811 0.96030414 1.0620852 0.9916067 0.97279304 1.0016868 0.9660162 1.0014365
0.9673733 0.9802328 1.0148271 0.9537632 1.1048863 0.99478316 1.0099281 1.0383286
00000000: 2afd 7c3f 8c65 7c3f 4e4e 7b3f 41a6 743f
00000010: a586 923f e1a7 7b3f 257c 813f 6a30 723f
00000020: 67a6 823f 60ea 763f fbd5 783f 16c3 853f
00000030: 7742 763f 53b0 753f b765 763f f57c 843f
00000040: 8b8c 823f 1b53 803f 8a17 993f 9df0 823f
00000050: d1a8 7d3f 2202 7e3f 328a 763f 0622 803f
00000060: 70ee 7a3f 24a9 783f 9b10 733f 6170 7f3f
00000070: 9971 823f 94ff 8d3f 77b1 8e3f e26c 813f
00000080: b24e 783f 75ef 7b3f 5bcb 7a3f ba12 7f3f
00000090: e089 793f 6c99 783f e485 8c3f 6041 813f
000000a0: 3d1f 793f f7a1 743f db0f 6a3f bd48 823f
000000b0: 70b3 8e3f db25 823f 5523 773f c694 823f
000000c0: b7f5 7f3f 9f0f 7c3f 6a57 883f 9826 7b3f
000000d0: d4a7 7e3f 3881 793f f039 8f3f 2ac1 713f
000000e0: d5c9 803f 1fc7 803f 9f93 853f 39e1 793f
000000f0: 4734 7f3f 7763 803f 296b 723f 6dae 923f
00000100: 2801 773f 7a12 793f 56b2 793f 7f14 7c3f
00000110: 79ad 813f add7 863f 661c 793f b0f5 873f
00000120: fb9c 7a3f e228 823f 4944 6a3f c26d 793f
00000130: 8214 823f d59a 823f 920b 7a3f 73f4 813f
00000140: 892d 763f d71c 783f eb30 863f d996 763f
00000150: 4a65 783f 4068 7d3f d5b4 793f 6f52 783f
00000160: 6e8c 773f bc29 773f 672a 823f 97b4 793f
00000170: 5436 803f 24a5 713f 8786 793f 3cc8 7f3f
00000180: 7b39 823f b992 763f fa4f 813f 8e9e 843f
00000190: fe44 7c3f 75e5 733f 2f14 7f3f 33cd 7b3f
000001a0: 16a4 843f 1f8b 803f 7561 733f 2085 7a3f
000001b0: 14e0 7b3f 87e3 783f 71f9 7c3f 0951 783f
000001c0: 4410 8c3f 8825 803f 1b28 763f 21da 783f
000001d0: b9be 843f c7d7 713f eb6d 7b3f 47e7 6e3f
000001e0: 2a24 7a3f 5893 6e3f c4e4 7a3f 67c7 763f
000001f0: c3b2 883f 9a14 7c3f 3b1d 793f d109 6f3f
00000200: c1a2 7e3f 178c 6a3f 4ec5 7a3f d507 7f3f
00000210: 1eaa 793f cdf4 813f 41fa 7d3f 2a30 9a3f
00000220: da94 713f eb22 7e3f 72a2 7c3f b61d 6e3f
00000230: b6f6 7e3f fcbf 763f 8302 823f 86ef 803f
00000240: dbe2 793f b604 7d3f f593 7b3f 8b2e 7d3f
00000250: 9749 873f 6443 7c3f 2e5c 7c3f b5e3 7a3f
00000260: df06 773f 4f89 803f 9adb 7a3f 6daa 7e3f
00000270: c1bc 7a3f 85c5 783f 875c 863f c7a2 803f
00000280: 79cf 7c3f 76c8 853f f206 6d3f 247c 7f3f
00000290: 16c5 803f 3e4a 7a3f 9525 7e3f 66d9 733f
000002a0: be0e 813f cdba 743f 1733 763f b988 7b3f
000002b0: 645e 843f 56c0 723f 357a 7b3f 9fc4 7e3f
000002c0: e568 7b3f c652 6c3f 8f52 773f bc01 793f
000002d0: 6d44 7b3f 0ca8 7f3f 3a0b 7c3f 272b 903f
000002e0: 9a01 7f3f 5789 833f 9fad 773f fb1a 7b3f
000002f0: 99a2 853f 5fc9 7b3f 27ef 843f 4c24 873f
00000300: 7f50 6e3f 2c1c 783f f6a1 7b3f 0fdd 903f
00000310: 1632 883f ddaa 843f 3a63 803f a7d3 7f3f
00000320: af97 843f 6e4b 783f 2ee4 763f e280 7b3f
00000330: 025a 723f 9962 803f 9dde 7a3f 60c3 7b3f
00000340: 0c8e 7c3f c906 853f 9c19 743f 8a74 6f3f
00000350: d5b2 923f 4ed5 843f 4143 803f 7c42 803f
00000360: 136f 813f 96d1 7a3f 9f3f 6b3f 400f 703f
00000370: 5bb6 7c3f ce4d 793f 5bf0 853f 1a37 843f
00000380: 7883 773f 8b4e 7c3f 4d89 873f f5ee 7b3f
00000390: f391 7a3f 9687 713f 77eb 7d3f 57d7 683f
000003a0: 5587 763f f41e 7b3f 3c85 7d3f 8937 853f
000003b0: fb08 893f b03b 813f 320f 7b3f c7b3 813f
000003c0: 26b1 8e3f 7ed6 753f 68f2 873f f0d9 7d3f
000003d0: f708 793f 4637 803f d64c 773f 122f 803f
000003e0: c7a5 773f 89f0 7a3f dbe5 813f d329 743f
000003f0: ea6c 8d3f 1caa 7e3f 5345 813f f4e7 843f

layers.0.1.bias f4 [256]
-0.004992618 0.028371636 -0.019144138 0.020734109 0.15369089 -0.031600215 0.0024712735 -0.011160334
-0.021959588 0.0052132495 0.012685503 -0.012240386 -0.02672796 -0.061135024 0.018240944 0.032013096
0.036204822 0.09689279 0.1883554 0.09614069 -0.005684285 -0.007971531 -0.016329464 -0.018170068
-0.007940563 -0.0132822115 -0.030311221 0.0344567 0.018797815 0.07990678 0.06670959 -0.0015874316
-0.0080292635 -0.03032202 0.031598434 -0.01444459 -0.00067321234 -0.0056562265 0.05185809 -0.00910034
0.04726614 -0.045135934 -0.062320724 0.023520034 0.041998345 0.016804041 0.02539894 0.033689994
-0.006211703 0.03088644 0.016507842 0.00038684288 0.01770864 -0.04931245 0.09410916 -0.015542195
0.022724584 0.010418667 0.06551295 -0.021586047 0.016678983 0.02219073 -0.020769294 0.13614759
-0.027383106 -0.051804926 0.018466167 0.007290059 0.047195204 0.0955827 -0.026929056 0.045924284
-0.04968778 0.02350139 -0.056232642 -0.015253807 0.010176359 -0.005973385 0.004111276 0.021787502
0.027282335 -0.014415863 0.048829038 -0.03928692 -0.015621146 0.0018547836 -0.013062201 0.0039149523
0.005566861 0.0048530353 0.069215655 -0.024247158 -0.010265955 -0.019403987 -0.0096004745 -0.025655778
0.043326456 -0.0068445164 0.023243744 0.048689593 0.0036042258 -0.027720738 -0.005015519 -0.0062259124
0.02775174 -0.015905343 -0.032424185 -0.009907819 -0.025628215 0.018967237 -0.00884897 -0.022476701
0.114463255 -0.032125924 -0.009854213 -0.03215156 0.032808743 0.0028530098 -0.019977035 -0.008006438
0.026085857 -0.020360427 -0.0048838733 -0.0061189183 0.13331233 -0.018614193 -0.020077415 -0.04130768
0.016902247 -0.05608997 -0.030631848 0.048151474 -0.004028053 -0.010190496 0.011304238 0.08045004
0.0017800397 0.0013986941 0.010803442 -0.024006039 0.04057667 -0.026463132 0.021684365 0.011478049
0.012344364 -0.0016960712 0.009705048 0.025400184 0.108847186 0.0059209275 -0.033473063 0.0236257
-0.058329724 -0.009472958 0.13408326 0.008982003 -0.024826175 -0.008201415 0.10873966 0.034903076
-0.0176676 0.10712917 -0.05780168 0.023354791 0.07651615 -0.025161894 0.02103971 0.019665675
0.03674912 -0.021870997 -0.010610863 0.0041911034 0.13476788 0.011524163 -0.014904881 -0.024958499
0.013622544 -0.015775505 -0.051079486 -0.058007687 -0.01774827 0.014095696 0.012457793 0.15048735
-0.023588058 0.051543444 0.0067839855 -0.022574823 0.054076277 0.050328244 0.113206916 0.027292196
-0.027947895 0.01644123 0.021654788 0.16626473 0.052338306 0.08257305 -0.013128982 0.027127804
0.07388435 0.007981813 -0.020486157 0.008681039 -0.022647996 -0.021180887 0.024150591 0.0004383478
-0.010143241 0.0311841 -0.05403167 -0.04532071 0.024454912 0.0035481874 0.005966907 0.037158336
0.043855965 -0.034746826 -0.057807736 -0.051085945 -0.0186913 -0.03947619 -0.001535949 0.052598983
-0.04993978 0.0037617937 0.09531126 0.001431955 -0.0056703095 -0.059313588 0.023483831 -0.06057969
-0.005913073 -0.012309353 0.016938565 0.054362852 0.08049379 0.0351584 -0.018404562 0.044833492
0.13640235 -0.043038707 0.06075294 0.0010493767 -0.015330931 0.017707204 0.041719846 -0.0013034099
-0.023497593 0.004750514 0.06431148 -0.0376921 0.15272966 0.0055747963 0.021553813 0.018518407
00000000: 1e99 a3bb a26b e83c 2bd4 9cbc 94da a93c
00000010: 2561 1d3e 3a6f 01bd 17f5 213b d5d9 36bc
00000020: 98e4 b3bc e8d3 aa3b dbd6 4f3c e68b 48bc
00000030: 98f4 dabc b868 7abd 086e 953c 2a20 033d
00000040: 824b 143d ba6f c63d 3de0 403e 69e5 c43d
00000050: 3d43 babb 069b 02bc 5ec5 85bc 65d9 94bc
00000060: 2319 02bc a29d 59bc 3d4f f8bc 7822 0d3d
00000070: e0fd 993c 2aa6 a33d 0a9f 883d 5e11 d0ba
00000080: 2c8d 03bc e365 f8bc 5c6d 013d 00a9 6cbc
00000090: 847a 30ba de57 b9bb 2669 543d 9819 15bc
000000a0: 249a 413d 75e0 38bd 0444 7fbd 16ad c03c
000000b0: 7506 2c3d a1a8 893c 7011 d03c 85fe 093d
000000c0: 8b8b cbbb 8f05 fd3c 743b 873c 2cd1 ca39
000000d0: b611 913c dafb 49bd 4ebc c03d b1a4 7ebc
000000e0: e828 ba3c 0fb3 2a3c a72b 863d 39d5 b0bc
000000f0: 5da2 883c 55c9 b53c 5e24 aabc 466a 0b3e
00000100: 8952 e0bc 6731 54bd 5c46 973c 72e1 ee3b
00000110: c24f 413d ddc0 c33d 539a dcbc 1a1b 3c3d
00000120: 6a85 4bbd fd85 c03c 3354 66bd 1beb 79bc
00000130: beba 263c 63bc c3bb e2b7 863b b47b b23c
00000140: 347f df3c 8330 6cbc f500 483d 52eb 20bd
00000150: d6ef 7fbc 361c f33a d802 56bc 0049 803b
00000160: 376a b63b 3606 9f3b f0c0 8d3d faa1 c6bc
00000170: 8932 28bc 1cf5 9ebc 4f4b 1dbc 112c d2bc
00000180: 1577 313d f747 e0bb aa69 be3c bd6e 473d
00000190: e034 6c3b 9a16 e3bc 3959 a4bb bd02 ccbb
000001a0: 9e57 e33c ec4b 82bc 39cf 04bd 6854 22bc
000001b0: 43f2 d1bc 2e61 9b3c 45fb 10bc 0f21 b8bc
000001c0: b66b ea3d 7996 03bd 9173 21bc 5bb1 03bd
000001d0: 7662 063d 90f9 3a3b e1a6 a3bc 6f2d 03bc
000001e0: 02b2 d53c e9ca a6bc e608 a0bb 3581 c8bb
000001f0: 0783 083e cb7c 98bc 6479 a4bc 3e32 29bd
00000200: 9576 8a3c 99be 65bd a4ef fabc 7b3a 453d
00000210: c2fd 83bb 0af6 26bc 6935 393c fec2 a43d
00000220: 3950 e93a 6354 b73a ec00 313c 50a8 c4bc
00000230: b933 263d 36c9 d8bc 69a3 b13c 6d0e 3c3c
00000240: 0440 4a3c b54e deba ec01 1f3c 0c14 d03c
00000250: 46eb de3d 5704 c23b 0d1b 09bd af8a c13c
00000260: 26eb 6ebd 7734 1bbc 1f4d 093e 4029 133c
00000270: 4360 cbbc 3a5f 06bc e6b2 de3d 87f6 0e3d
00000280: a5bb 90bc 8a66 db3d 74c1 6cbd 8c52 bf3c
00000290: 80b4 9c3d 5120 cebc 785b ac3c e919 a13c
000002a0: 3f86 163d ce2a b3bc 2fd9 2dbc 8655 893b
000002b0: 9700 0a3e d8cf 3c3c 9a33 74bc c475 ccbc
000002c0: 1731 5f3c a23b 81bc b938 51bd 7899 6dbd
000002d0: d264 91bc a2f1 663c c51b 4c3c 5b19 1a3e
000002e0: be3b c1bc 381f 533d 324c de3b d6ee b8bc
000002f0: 167f 5d3d fd24 4e3d 07d9 e73d e293 df3c
00000300: fcf2 e4bc c2af 863c 6265 b13c 4d41 2a3e
00000310: b160 563d 0f1c a93d f11a 57bc 213b de3c
00000320: ae50 973d 26c6 023c 96d2 a7bc eb3a 0e3c
00000330: 4a88 b9bc 8a83 adbc 76d7 c53c 0cd2 e539
00000340: d62f 26bc cc75 ff3c 5050 5dbd 35a2 39bd
00000350: ab55 c83c b588 683b 0b86 c33b 5733 183d
00000360: 50a2 333d b052 0ebd cec7 6cbd 7f3f 51bd
00000370: 7f1e 99bc c9b1 21bd e551 c9ba 0872 573d
00000380: a88d 4cbd 6d88 763b 8d32 c33d 70b0 bb3a
00000390: 01ce b9bb cef2 72bd 2a61 c03c 6922 78bd
000003a0: 74c2 c1bb 2bad 49bc bfc2 8a3c 95ab 5e3d
000003b0: eed9 a43d 4102 103d 2ac5 96bc 53a3 373d
000003c0: 0fad 0b3e 5b49 30bd 13d8 783d 3d8b 893a
000003d0: 962e 7bbc b30e 913c 6ee2 2a3d 2ed7 aaba
000003e0: 067e c0bc 33aa 9b3b bdb5 833d 0863 1abd
000003f0: 2a65 1c3e c8ac b63b 9f91 b03c eab3 973c

layers.1.0.weight f4 [128, 256]
0.07750848 -0.051821414 -0.12036709 0.0055305967 -0.106579095 0.08633828 0.036335498 0.14455324
-0.085513376 -0.015108696 -0.06404777 0.029187512 0.020436468 0.09866465 0.013928364 -0.063706934
0.13148081 -0.03688741 0.2982249 -0.011194345 0.025487766 0.0088151395 0.013281211 0.06519544
0.08354552 -0.023930093 -0.07559198 0.09541255 0.15513009 -0.049539182 0.026250059 0.035194658
0.02113646 -0.041940495 0.11117773 0.015028851 0.006156987 -0.1712357 0.01845752 -0.045973983
0.15124606 -0.096954666 -0.101233415 -0.02696317 0.18429007 0.024258118 0.059514735 -0.10622041
0.12192273 -0.16121185 0.07107244 0.047091294 -0.010067545 -0.05208305 0.05398075 -0.018114228
-0.04664238 0.06858749 -0.05122399 0.05885677 -0.08670918 0.08362709 -0.08779609 0.23069341
-0.084523804 0.03248153 -0.0756883 0.13387026 0.12691136 -0.07242914 -0.01612126 -0.04860375
0.06168451 -0.12442902 0.07652535 -0.06348307 -0.18226764 0.107639685 -0.063380815 0.09262749
-0.11830921 0.09795863 -0.027330285 0.12679195 0.0053703533 0.1732356 0.007880288 0.0054456964
0.08197531 -0.058092203 0.006525358 -0.049397457 0.095745765 -0.00024684457 0.03547947 -0.03995418
-0.111605756 -0.063805 -0.16725627 0.067444794 0.19099285 0.11301719 0.025891328 0.08164185
0.102124125 0.097497605 0.05889112 0.12751682 0.07047618 0.072870694 -0.07725037 -0.020544238
-0.118698716 -0.110974625 0.054523528 0.1335562 0.05084932 0.104710266 -0.078675576 0.011110349
0.12195183 -0.053487863 -0.121629514 -0.016970355 0.01776377 0.017826898 0.046119962 0.0051115677
0.014776855 -0.09873951 -0.07684709 0.008835809 -0.046998926 0.067338035 -0.004916998 -0.061476465
-0.12402339 -0.05965781 -0.078701004 0.032049518 0.0063483203 -0.15374844 -0.0012399921 0.022015348
-0.01794687 0.042893607 -0.12178888 -0.13303398 -0.090025514 0.049187988 0.11489113 -0.14736204
-0.0707043 -0.04420142 -0.22646384 0.040730555 -0.149144 0.13004138 0.12894683 0.005758342
-0.051955286 0.11072468 -0.07296098 -0.17974254 0.0493093 0.0915057 0.11548438 0.10317638
0.0312528 0.049476434 -0.09287627 -0.13115868 -0.099222705 0.022771137 -0.15193763 -0.0164423
-0.09052377 -0.063500606 -0.1363686 -0.0017544086 0.15636735 0.03152372 -0.0001222514 -0.052317385
-0.18824458 0.14935994 0.10079932 0.061170712 0.061372798 -0.054142743 -0.115878955 0.07639794
-0.13814148 -0.13321821 -0.07982642 -0.1464277 0.008878239 0.10523963 -0.013726209 0.16992192
-0.1318969 -0.12395797 -0.26526257 -0.09389237 0.12174002 0.16875796 -0.048620027 0.08927314
-0.040854715 -0.09643808 0.06982565 0.07134136 0.10567227 0.14283283 -0.10464467 -0.024142899
-0.08302118 0.0006557167 -0.033011246 -0.03675225 -0.064225525 0.01697474 -0.18059309 -0.22406709
0.050810065 0.039695747 -0.0767112 0.044716477 -0.11133924 -0.0635467 -0.1357401 0.034012828
-0.12968028 -0.05068473 0.086265795 -0.054415535 0.1486365 0.05874356 0.15872899 0.09609864
-0.007546567 0.06269144 -0.016867854 -0.060497504 0.0008359075 -0.09246463 0.13129546 -0.21239595
-0.021178722 0.040260017 0.071767606 -0.14548746 0.14663826 0.106536746 -0.0006249372 0.09821399
00000000: c4bc 9e3d b142 54bd 0583 f6bd 023a b53b
00000010: 2446 dabd 20d2 b03d 88d4 143d c405 143e
00000020: a321 afbd 778a 77bc 7a2b 83bd a61a ef3c
00000030: 616a a73c b110 ca3d cb33 643c c878 82bd
00000040: e8a2 063e 4117 17bd efb0 983e 7c68 37bc
00000050: b8cb d03c 606d 103c 7099 593c 3085 853d
00000060: ea19 ab3d 0b09 c4bc f8cf 9abd a867 c33d
00000070: 6cda 1e3e 99e9 4abd 5d0a d73c 4628 103d
00000080: 5f26 ad3c ccc9 2bbd 26b1 e33d 923b 763c
00000090: 8dc0 c93b 6958 2fbe 3a34 973c 374f 3cbd
000000a0: 3fe0 1a3e 2b90 c6bd 7753 cfbd dee1 dcbc
000000b0: 89b6 3c3e f6b8 c63c b9c5 733d 168a d9bd
000000c0: a0b2 f93d b814 25be 6d8e 913d cde2 403d
000000d0: 58f2 24bc 0955 55bd eb1a 5d3d 4a64 94bc
000000e0: 150c 3fbd 9977 8c3d 3fd0 51bd cc13 713d
000000f0: 9594 b1bd ae44 ab3d 70ce b3bd e53a 6c3e
00000100: d11a adbd 5a0b 053d 7802 9bbd 4915 093e
00000110: 0df5 013e bb55 94bd bc10 84bc ba14 47bd
00000120: e6a8 7c3d a4d4 febd 53b9 9c3d 6903 82bd
00000130: 5ea4 3abe 3272 dc3d cdcd 81bd 7bb3 bd3d
00000140: 194c f2bd 899e c83d c3e3 dfbc c0d5 013e
00000150: caf9 af3b ac64 313e 531c 013c d071 b23b
00000160: ace2 a73d 17f2 6dbd acd2 d53b fd54 4abd
00000170: 5b16 c43d eb6a 81b9 ec52 113d ffa6 23bd
00000180: 8f91 e4bd 32ac 82bd 3a45 2bbe 7f20 8a3d
00000190: a193 433e 8e75 e73d 0d1a d43c d833 a73d
000001a0: 7426 d13d d3ac c73d d137 713d c593 023e
000001b0: d155 903d 3b3d 953d 7135 9ebd 644c a8bc
000001c0: 5018 f3bd aa46 e3bd 1054 5f3d f5c2 083e
000001d0: 6047 503d 5672 d63d a920 a1bd 2e08 363c
000001e0: e2c1 f93d 1716 5bbd e518 f9bd 6a05 8bbc
000001f0: 5385 913c b709 923c 49e8 3c3d f07e a73b
00000200: 9f1a 723c f137 cabd 0262 9dbd 12c4 103c
00000210: f281 40bd 86e8 893d c51e a1bb bfce 7bbd
00000220: faff fdbd bf5b 74bd fe2d a1bd 5b46 033d
00000230: 9205 d03b 3b70 1dbe 3b87 a2ba 8859 b43c
00000240: 5005 93bc 35b1 2f3d 736c f9bd 0f3a 08be
00000250: 4c5f b8bd 5879 493d 0a4c eb3d 13e6 16be
00000260: 6bcd 90bd 8c0c 35bd 23e6 67be 15d5 263d
00000270: 34b9 18be 9129 053e a30a 043e 79b0 bc3b
00000280: 11cf 54bd 9fc3 e23d 916c 95bd 6e0e 38be
00000290: 8cf8 493d 5767 bb3d 1383 ec3d 234e d33d
000002a0: f002 003d cda7 4a3d ea35 bebd 764e 06be
000002b0: 4635 cbbd 898a ba3c 8a95 1bbe 01b2 86bc
000002c0: 8764 b9bd 9b0c 82bd 36a4 0bbe 2ff4 e5ba
000002d0: c31e 203e 041f 013d 9c30 00b9 c14a 56bd
000002e0: 30c3 40be d0f1 183e e06f ce3d 248e 7a3d
000002f0: 0b62 7b3d c8c4 5dbd f251 edbd 8676 9c3d
00000300: f674 0dbe 5b6a 08be 097c a3bd 25f1 15be
00000310: 0976 113c e087 d73d e5e3 60bc 0300 2e3e
00000320: fb0f 07be addd fdbd 7fd0 87be a54a c0bd
00000330: d552 f93d e3ce 2c3e cb25 47bd d6d4 b63d
00000340: 4657 27bd 5481 c5bd c000 8f3d 6b1b 923d
00000350: b46a d83d c542 123e f24f d6bd 54c7 c5bc
00000360: 0207 aabd 67e4 2b3a cd36 07bd 8789 16bd
00000370: ac88 83bd 9c0e 8b3c 65ed 38be d871 65be
00000380: 371e 503d 0298 223d c31a 9dbd a028 373d
00000390: d405 e4bd c624 82bd 74ff 0abe 0951 0b3d
000003a0: e8ca 04be cb9a 4fbd 1fac b03d d3e2 5ebd
000003b0: 2b34 183e 169d 703d da89 223e 5dcf c43d
000003c0: 3149 f7bb 5f64 803d 742e 8abc 3bcc 77bd
000003d0: cd20 5b3a 195e bdbd 5172 063e 537e 59be
000003e0: 007f adbc b0e7 243d e5fa 923d aafa 14be
000003f0: 5728 163e f02f da3d d3d2 23ba 6b24 c93d

layers.1.1.weight f4 [128]
0.99738294 0.9952247 1.0263643 0.9785502 0.97305334 1.0354083 0.93861884 0.9499318
1.0357876 0.9964166 0.9918168 1.005674 0.987 1.0096825 0.9692497 1.0279452
1.0240289 0.9962313 0.9968205 0.96464974 0.9833274 0.9758655 0.9851301 0.96635413
0.9530032 0.9675538 1.004646 0.9933613 1.0197109 0.9968403 1.0572402 0.9319367
1.0252526 0.9804326 0.98956835 0.98533714 0.9964798 0.9791732 1.0297107 0.9579426
0.98990417 1.0315067 0.9956052 1.0744394 0.97584736 0.99574625 1.0343883 0.9738767
1.018446 1.0038542 1.061007 0.94991434 0.9989089 0.9938139 0.9675983 0.97534245
0.9787935 1.0344383 0.9823765 0.95661527 0.9845563 1.0066968 0.9931098 0.9957316
0.97609603 0.9928406 0.99233884 0.97045517 0.99594784 0.98744154 0.9876415 1.0297078
0.961995 0.9784883 1.0221573 1.0301144 0.97844756 0.97542274 1.0102848 0.9658221
0.9801751 0.97358036 1.0518414 1.011201 0.9523961 1.0074735 0.960212 0.98565847
0.99621874 1.0706694 0.9492665 1.0511508 1.0072744 0.97959733 0.98834425 0.99530995
1.0729609 0.96634585 1.0048753 0.9850367 1.056084 1.0335745 1.0053089 1.0569208
0.9975453 0.993305 0.960264 0.96952534 0.99068993 1.0328299 0.96761644 1.000766
1.0133979 0.9953278 1.0233158 0.9699835 1.0150597 0.97227097 0.96835506 1.0063454
0.9729688 1.0202289 0.9641234 1.0552026 1.0158719 1.0057645 0.978204 0.9975494
00000000: 7d54 7f3f 0cc7 7e3f e85f 833f 4482 7a3f
00000010: 061a 793f 4288 843f 5349 703f bb2e 733f
00000020: b094 843f 2915 7f3f b5e7 7d3f edb9 803f
00000030: 08ac 7c3f 473d 813f c020 783f b593 833f
00000040: 6113 833f 0409 7f3f a12f 7f3f 49f3 763f
00000050: 58bb 7b3f 52d2 793f 7c31 7c3f fc62 773f
00000060: 05f8 733f 9bb1 773f 3d98 803f ed4c 7e3f
00000070: e385 823f ed30 7f3f a653 873f 6793 6e3f
00000080: 7a3b 833f a2fd 7a3f 5a54 7d3f 0e3f 7c3f
00000090: 4d19 7f3f 18ab 7a3f 8fcd 833f ba3b 753f
000000a0: 5c6a 7d3f 6908 843f fbdf 7e3f 3b87 893f
000000b0: 22d1 793f 3ae9 7e3f d666 843f fc4f 793f
000000c0: 705c 823f 4b7e 803f 14cf 873f 962d 733f
000000d0: 7eb8 7f3f 966a 7e3f 86b4 773f 0bb0 793f
000000e0: 3692 7a3f 7968 843f 077d 7b3f bde4 743f
000000f0: e20b 7c3f 71db 803f 723c 7e3f 44e8 7e3f
00000100: 6ee1 793f cd2a 7e3f eb09 7e3f c06f 783f
00000110: 70f6 7e3f f8c8 7c3f 13d6 7c3f 77cd 833f
00000120: 4e45 763f 367e 7a3f 0dd6 823f cada 833f
00000130: 8a7b 7a3f 4eb5 793f 0351 813f 1e40 773f
00000140: c1ec 7a3f 903c 793f bda2 863f 096f 813f
00000150: 3bd0 733f e4f4 803f 74d0 753f 1d54 7c3f
00000160: 3108 7f3f b20b 893f 2103 733f 1c8c 863f
00000170: 5eee 803f e4c6 7a3f 2104 7d3f a2cc 7e3f
00000180: c856 893f 7162 773f c19f 803f 5d2b 7c3f
00000190: c32d 873f 2b4c 843f f6ad 803f 2e49 873f
000001a0: 215f 7f3f 3d49 7e3f ddd3 753f d032 783f
000001b0: db9d 7d3f c533 843f b6b5 773f 1a19 803f
000001c0: 06b7 813f cdcd 7e3f 03fc 823f d750 783f
000001d0: 7aed 813f c0e6 783f 1ee6 773f edcf 803f
000001e0: 7c14 793f dc96 823f cbd0 763f e110 873f
000001f0: 1708 823f e4bc 803f 946b 7a3f 665f 7f3f

layers.1.1.bias f4 [128]
-0.006841142 0.018403463 0.038833242 -0.027679747 -0.027771873 0.011347482 -0.0668699 -0.06520687
0.040992666 -0.02582237 -0.017754704 -0.0075636697 -0.031929556 -0.00055921474 -0.030707046 -0.02141487
0.0011517367 -0.013083444 0.0020567472 -0.026619853 -0.028028177 -0.010650402 -0.007820503 -0.0033825135
-0.02599821 -0.0009134956 -0.029646626 -0.04429879 0.00995123 -0.011792716 0.0290841 -0.03204436
0.013965791 -0.029881218 0.005139195 -0.021283813 0.016011838 0.005398929 0.022415388 -0.027214605
0.0057771024 0.0317866 -0.00014256942 0.032245327 -0.022296108 0.0032295878 0.03031294 -0.041482057
0.0457174 0.021187998 0.038918752 -0.017566754 0.0016407892 -0.021849157 -0.024542583 -0.011995378
-0.015355243 0.005524665 -0.013817627 -0.05882599 0.007194255 -0.024514118 -0.027441913 -0.017738586
-0.00847368 -0.004546687 0.002716679 0.004834105 0.0044804174 -0.0010904677 0.012160968 0.029119022
-0.041745547 -0.028571121 0.014624229 0.022434682 0.010846692 -0.002932374 -0.0016641205 -0.023153324
-0.0108862 0.0069962475 0.03107124 0.017803919 -0.014569652 -0.0064134044 -0.019882562 -0.019039968
-0.0037327104 0.06142458 -0.035108898 0.06263652 -0.0069595226 -0.05016595 -0.010521035 -0.02418474
0.056906343 -0.017554825 0.014754962 -0.012490708 0.010733784 0.013433181 -2.6334208e-05 0.03445099
-0.013285536 0.029656071 -0.053132776 -0.018255828 -0.010621829 0.031481992 -0.032533363 -0.008768359
0.01237879 -0.012047762 0.0067057176 -0.031373646 -0.0035284476 -0.00087503844 -0.0153481215 0.025605267
-0.013907977 0.01609938 -0.023869235 0.063679926 0.018695794 0.004550677 -0.0015159688 -0.011382965
00000000: a92b e0bb dcc2 963c 9b0f 1f3d a3c0 e2bc
00000010: d781 e3bc caea 393c 16f3 88bd 2e8b 85bd
00000020: ede7 273d 6f89 d3bc 5072 91bc a9d8 f7bb
00000030: 91c8 02bd 4498 12ba 588d fbbc 3d6e afbc
00000040: dff5 963a f15b 56bc 7eca 063b e111 dabc
00000050: 599b e5bc 067f 2ebc 9121 00bc 29ad 5dbb
00000060: 33fa d4bc a777 6fba 7bdd f2bc a672 35bd
00000070: 7c0a 233c 3c36 41bc c741 ee3c f240 03bd
00000080: c6d0 643c 75c9 f4bc b166 a83b 645b aebc
00000090: 422b 833c 80e9 b03b 7aa0 b73c 2af1 debc
000000a0: d94d bd3b aa32 023d b07e 15b9 ad13 043d
000000b0: 54a6 b6bc 7ea7 533b d852 f83c 17e9 29bd
000000c0: 2b42 3b3d 7492 ad3c 4569 1f3d 27e8 8fbc
000000d0: c00f d73a 01fd b2bc 870d c9bc 4388 44bc
000000e0: 8f94 7bbc 4008 b53b 5463 62bc 85f3 70bd
000000f0: c9bd eb3b d5d1 c8bc ddcd e0bc 8350 91bc
00000100: 31d5 0abc 60fc 94bb 4f0a 323b 6967 9e3b
00000110: 77d0 923b 06ee 8eba cc3e 473c 048b ee3c
00000120: 61fd 2abd fc0d eabc 769a 6f3c f0c8 b73c
00000130: 53b6 313c 122d 40bb 9e1e daba 0aac bdbc
00000140: 085c 32bc c740 e53b 1d89 fe3c 86d9 913c
00000150: 8db5 6ebc 8927 d2bb c1e0 a2bc b5f9 9bbc
00000160: 7da0 74bb 5798 7b3d 59ce 0fbd 9347 803d
00000170: b50c e4bb d07a 4dbd 6b60 2cbc 131f c6bc
00000180: a016 693d 23cf 8fbc ccbe 713c d4a5 4cbc
00000190: c1dc 2f3c d816 5c3c 48e8 dcb7 7b1c 0d3d
000001a0: 94ab 59bc 4af1 f23c c1a1 59bd 3f8d 95bc
000001b0: 2e07 2ebc 43f3 003d b441 05bd 2aa9 0fbc
000001c0: 69d0 4a3c fa63 45bc a3bb db3b a781 00bd
000001d0: 873d 67bb d662 65ba b076 7bbc 23c2 d13c
000001e0: 49de 63bc d9e2 833c 6a89 c3bc 9f6a 823d
000001f0: ec27 993c d81d 953b 79b3 c6ba 9e7f 3abc

layers.2.0.weight f4 [64, 128]
0.12315153 0.047292735 -0.10402048 -0.008649817 -0.10854107 -0.20130454 -0.19972362 0.021990063
-0.1900949 0.0052355817 -0.20941667 -0.0658332 -0.117789924 0.07689788 0.29807812 -0.09454636
0.033264942 -0.19189401 0.1199948 0.055429034 -0.002603856 -0.18899499 -0.11335155 0.01460401
0.19410889 0.06169644 -0.018438563 -0.0062967627 -0.27854964 -0.03478822 0.14149378 0.08754317
-0.12758765 -0.060374323 -0.059804693 0.19599608 -0.113509454 -0.11316149 -0.074366495 -0.037069093
0.08777511 0.0057588997 0.19632217 0.038777594 -0.042262394 -0.22893396 -0.015103737 0.10691267
-0.21824712 -0.027651822 -0.14677285 -0.30523005 0.19980665 -0.046347618 -0.22576065 -0.06294751
-0.072753824 -0.21123938 -0.17554249 -0.06399855 0.11265656 -0.001139077 0.082285 0.041226964
-0.07474367 -0.20739472 -0.09057339 0.18880449 -0.3420502 -0.17320074 0.06277082 -0.15057525
0.011807381 -0.27614135 0.14890905 0.079407774 0.16393118 0.019352304 0.013083421 0.102160275
0.10669888 -0.081102334 -0.14732307 -0.018659731 -0.15771961 0.040795375 0.022344049 0.11426201
-0.12603039 -0.039850257 0.23017916 -0.026655104 -0.005620778 -0.215982 -0.05775988 -0.11153021
0.2433716 -0.013528211 0.08423086 0.006996916 -0.22466867 -0.12546286 -0.06906819 0.033835243
-0.21972437 -0.17205538 -0.0872827 -0.08006107 0.0075233956 -0.028251939 0.06797295 0.15457083
-0.3500992 -0.13364924 0.27705646 -0.013089456 0.2929032 0.049833216 -0.0846266 0.05113198
-0.09702862 0.080958076 0.2646619 0.04522367 -0.10777465 -0.12722589 -0.024765605 -0.054717094
-0.362318 -0.12896714 -0.12206847 0.0009868603 0.13412799 -0.003670751 0.08178241 -0.036250558
0.14183982 0.04198296 -0.29997095 -0.22128735 -0.056559537 -0.20209625 0.03619781 -0.17193687
-0.12572208 0.0729118 -0.17553577 -0.027406404 -0.14408626 0.0059317867 -0.06874564 -0.24359812
-0.11678945 -0.058256395 0.15964654 0.17782623 0.042247623 0.11294127 -0.08099092 0.03323651
-0.1083056 0.09361113 0.254517 -0.039545454 -0.08056213 -0.02527641 -0.03444607 0.06903835
-0.22020443 0.04985847 -0.09703621 -0.027784865 -0.076399155 0.17872353 0.11269408 -0.051290914
0.16564909 -0.16662672 -0.062118363 0.10930813 0.042549577 0.11084846 0.034881 -0.32865235
-0.00589764 0.24407224 -0.1017055 -0.020253813 -0.29143736 -0.16058695 -0.061567917 0.030518917
-0.040500782 0.09953428 -0.06400344 0.28147653 0.07558297 -0.01772132 -0.09360604 0.0003468849
-0.105432294 -0.08862731 0.032524858 0.15357107 -0.07831182 -0.1032665 -0.09435317 0.10331881
0.1951232 0.17862202 0.008925593 -0.13491134 -0.19388467 0.043336235 0.25016132 -0.017780842
0.0063515636 0.17860925 0.030416653 0.056926277 -0.13854611 -0.038808793 0.057965986 0.09679934
0.16700383 0.13916484 -0.05589521 0.24307275 -0.21967766 -0.21042365 -0.03855031 0.02514831
-0.045058846 0.003347815 -0.11404981 0.07444698 -0.13412261 0.17668909 0.019718288 -0.1067265
-0.084815934 0.036759734 -0.08231128 0.042073887 -0.06629309 0.055929173 0.003477305 -0.021592844
0.14697433 0.17840768 -0.1517018 0.10623521 -0.33693334 -0.18403493 0.032240823 -0.14966151
00000000: df36 fc3d 07b6 413d b008 d5bd f6b7 0dbc
00000010: c84a debd c722 4ebe 5984 4cbe 8124 b43c
00000020: 3da8 42be 3e8f ab3b 5371 56be 8fd3 86bd
00000030: d83b f1bd a37c 9d3d b29d 983e 86a1 c1bd
00000040: d240 083d dd7f 44be d5bf f53d 8e09 633d
00000050: 74a5 2abb e787 41be dc24 e8bd a845 6f3c
00000060: 7bc4 463e 68b5 7c3d 780c 97bc 1355 cebb
00000070: 0f9e 8ebe 187e 0ebd bfe3 103e d549 b33d
00000080: 56a6 02be 114b 77bd c4f5 74bd 32b3 483e
00000090: a577 e8bd 36c1 e7bd 764d 98bd c3d5 17bd
000000a0: 70c3 b33d 27b5 bc3b ae08 493e 41d5 1e3d
000000b0: 551b 2dbd aa6d 6abe aa75 77bc 08f5 da3d
000000c0: 2c7c 5fbe 1386 e2bc 9f4b 16be 1d47 9cbe
000000d0: 1d9a 4c3e 00d7 3dbd cd2d 67be a0ea 80bd
000000e0: f5ff 94bd 234f 58be 69c1 33be ac11 83bd
000000f0: 7cb8 e63d 154d 95ba 0a85 a83d 9bdd 283d
00000100: 3613 99bd 485f 54be 8b7e b9bd f755 413e
00000110: 3421 afbe 895b 31be fd8d 803d 6630 1abe
00000120: bf73 413c 6662 8dbe 9d7b 183e 8ba0 a23d
00000130: 93dd 273e b988 9e3c d85b 563c 6839 d13d
00000140: f184 da3d fb18 a6bd dcdb 16be 4bdc 98bc
00000150: 4081 21be 0d19 273d de0a b73c 3302 ea3d
00000160: 1c0e 01be 063a 23bd 16b4 6b3e ce5b dabc
00000170: 812e b8bb 632a 5dbe a095 6cbd f369 e4bd
00000180: 6836 793e 6ea5 5dbc 3b81 ac3d 6346 e53b
00000190: 8b0f 66be 5679 00be a073 8dbd d396 0a3d
000001a0: 6dff 60be 492f 30be 46c1 b2bd 0ff7 a3bd
000001b0: d186 f63b 9c70 e7bc 6735 8b3d d147 1e3e
000001c0: 3440 b3be 59db 08be 58da 8d3e 2875 56bc
000001d0: 69f7 953e ea1d 4c3d b650 adbd c46f 513d
000001e0: f1b6 c6bd 59cd a53d c481 873e 743c 393d
000001f0: f5b8 dcbd 8147 02be 3de1 cabc 081f 60bd
00000200: bf81 b9be f60f 04be 09ff f9bd 8959 813a
00000210: d958 093e fb90 70bb 897d a73d 777b 14bd
00000220: 753e 113e 53f6 2b3d cb95 99be 2799 62be
00000230: f9aa 67bd 52f2 4ebe 2844 143d 3810 30be
00000240: 4abd 00be c852 953d a6bf 33be 6583 e0bc
00000250: 598b 13be 6f5f c23b 84ca 8cbd c971 79be
00000260: 4f2f efbd 429e 6ebd 627a 233e 1418 363e
00000270: d80b 2d3d c14d e73d 91de a5bd 0223 083d
00000280: 54cf ddbd 31b7 bf3d 0d50 823e 6afa 21bd
00000290: c2fd a4bd 7910 cfbc 5317 0dbd fa63 8d3d
000002a0: 457d 61be 6538 4c3d ecba c6bd 169d e3bc
000002b0: 2977 9cbd 4d03 373e 27cc e63d 6c16 52bd
000002c0: ea9f 293e 32a0 2abe d36f 7ebd f1dc df3d
000002d0: 7748 2e3d 8404 e33d 61df 0e3d 1f45 a8be
000002e0: fd40 c1bb 13ee 793e f94a d0bd 53eb a5bc
000002f0: 4737 95be e870 24be a42e 7cbd cf02 fa3c
00000300: 26e4 25bd a1d8 cb3d 3c14 83bd b11d 903e
00000310: 3fcb 9a3d 4d2c 91bc 86b4 bfbd 1ade b539
00000320: e3ec d7bd 3c82 b5bd c938 053d bc41 1d3e
00000330: f361 a0bd 637d d3bd 3c3c c1bd d098 d33d
00000340: 60ce 473e b1e8 363e a73c 123c 3326 0abe
00000350: b489 46be 5681 313d 2515 803e 21a9 91bc
00000360: c720 d03b 58e5 363e 582c f93c 872b 693d
00000370: 08df 0dbe f8f5 1ebd be6d 6d3d bb3e c63d
00000380: 0d03 2b3e 3a81 0e3e 60f2 64bd 10e8 783e
00000390: 2ef3 60be 4c79 57be eee6 1dbd d403 ce3c
000003a0: a08f 38bd 0467 5b3b f292 e9bd a977 983d
000003b0: 7057 09be fced 343e 3f88 a13c 6c93 dabd
000003c0: fab3 adbd 6091 163d d192 a8bd ab55 2c3d
000003d0: acc4 87bd fd15 653d 7fe3 633b 7ae3 b0bc
000003e0: 7080 163e 81b0 363e b757 1bbe d991 d93d
000003f0: 8782 acbe a773 3cbe f40e 043d de40 19be

layers.2.1.weight f4 [64]
0.9466105 0.9218526 0.97713745 1.0832924 0.9789657 0.9501154 0.97224396 1.0653242
0.9722165 0.98397934 0.97531337 0.961517 0.9851939 0.95419824 0.96058303 0.99785376
1.0356891 1.0537977 1.0172569 1.0183653 1.025525 1.0083573 0.95149577 1.0300469
0.9918365 0.94048357 0.99669516 0.95342225 0.9975853 0.9960342 0.9098694 0.9638611
0.9611512 0.98539895 0.968451 0.9433714 0.98254216 1.0410452 1.0365306 0.9965932
0.9335591 0.9815859 0.98714364 1.0176772 0.98382723 1.0450885 1.0132477 0.98110706
0.99766594 1.0137182 1.0040123 1.0309976 0.99064887 0.9950696 1.0352336 1.0127412
0.9295305 1.0398308 1.0735409 0.9299748 1.0313418 1.0287697 1.045837 1.00177
00000000: 1155 723f 88fe 6b3f ae25 7a3f 53a9 8a3f
00000010: 7f9d 7a3f c33a 733f fbe4 783f 8b5c 883f
00000020: 2ee3 783f 12e6 7b3f 23ae 793f fa25 763f
00000030: ab35 7c3f 5646 743f c5e8 753f 5873 7f3f
00000040: 7691 843f d8e2 863f 7935 823f cb59 823f
00000050: 6744 833f da11 813f 3a95 733f 94d8 833f
00000060: ffe8 7d3f 88c3 703f 6a27 7f3f 7b13 743f
00000070: c061 7f3f 19fc 7e3f 33ed 683f 9abf 763f
00000080: 010e 763f 1b43 7c3f 68ec 773f ca80 713f
00000090: e287 7b3f f840 853f 09ad 843f bb20 7f3f
000000a0: bbfd 6e3f 3749 7b3f 72b5 7c3f 3f43 823f
000000b0: 1adc 7b3f 76c5 853f 1ab2 813f d529 7b3f
000000c0: 0967 7f3f 85c1 813f 7a83 803f bbf7 833f
000000d0: 2a9b 7d3f e2bc 7e3f 8982 843f 81a1 813f
000000e0: b6f5 6d3f 2d19 853f ca69 893f d412 6e3f
000000f0: 0203 843f baae 833f fddd 853f 003a 803f

layers.2.1.bias f4 [64]
0.0033640612 -0.054127283 -0.01979249 0.08376594 -0.010813957 -0.064317144 -0.016812203 0.029148754
-0.027213383 -0.03366575 -0.019807164 -0.05206535 -0.0060408204 -0.042525932 -0.027984567 0.04176325
0.008066379 0.055172525 0.015484677 -0.010375008 -0.028555177 0.008663237 -0.04671154 -0.0003275403
0.007889312 -0.009812207 -0.018886369 -0.042179897 0.0061165434 0.008010267 -0.0655572 -0.04902378
-0.022886481 0.029420331 0.018293269 -0.038044363 -0.045879994 0.0074231545 0.055834923 0.019314958
-0.07891517 -0.051953427 0.005298972 0.032753758 -0.03109999 0.0077474434 0.0011321765 -0.03895944
-0.022310004 0.021326331 -0.016363917 0.04146414 -0.01215087 -0.01448829 -0.008544896 0.0018326222
-0.044647135 0.06319478 0.053447004 -0.05640575 0.041035958 -0.025671763 0.007429169 0.043778546
00000000: 9577 5c3b 92b4 5dbd dc23 a2bc 7a8d ab3d
00000010: 062d 31bc b5b8 83bd bfb9 89bc 5ec9 ee3c
00000020: 9aee debc 19e5 09bd a242 a2bc 7a42 55bd
00000030: 13f2 c5bb ac2f 2ebd e43f e5bc f10f 2b3d
00000040: d928 043c 96fc 613d 71b3 7d3c f0fb 29bc
00000050: 8cec e9bc 40f0 0d3c 9a54 3fbd b7b9 abb9
00000060: 2c42 013c 61c3 20bc 96b7 9abc d4c4 2cbd
00000070: 496d c83b 7f3d 033c da42 86bd 29cd 48bd
00000080: 6e7c bbbc e802 f13c c4db 953c 68d4 1bbd
00000090: a9ec 3bbd ef3d f33b 29b3 643d 673a 9e3c
000000a0: 479e a1bd 1ecd 54bd 00a3 ad3b ce28 063d
000000b0: 68c5 febc 44de fd3b 8a65 943a ef93 1fbd
000000c0: 78c3 b6bc 8fb4 ae3c 9f0d 86bc 4dd6 293d
000000d0: 7114 47bc 4b60 6dbc e4ff 0bbc 9934 f03a
000000e0: eadf 36bd 446c 813d 3feb 5a3d b709 67bd
000000f0: 5215 283d 974d d2bc 6370 f33b 2251 333d

layers.3.0.weight f4 [32, 64]
0.15358806 0.13851587 0.21784244 0.43610674 -0.43333706 0.1902874 0.059688255 0.07077904
0.16276973 -0.38529888 -0.017494744 0.10752186 -0.12452235 -0.24187453 0.04369772 -0.09169404
-0.24743451 0.19433898 -0.014923566 -0.040689226 -0.02356018 0.40595132 -0.057722278 -0.30857277
0.031314105 0.31956965 -0.49783212 -0.06162799 -0.008185644 0.0416351 -0.0035629442 -0.18462013
0.14954013 0.22500947 0.05098363 -0.12165646 -0.0833628 -0.19339162 -0.007850254 -0.070634924
0.15281358 -0.04150908 0.07042176 0.08229341 0.12853856 -0.16806692 0.21588755 -0.016770361
0.0996918 -0.09886472 0.079057306 -0.24152865 -0.11402145 -0.11737159 -0.10486417 -0.039557174
0.13084812 0.39763272 0.13944851 -0.11726478 -0.05143567 -0.075018294 -0.059294727 0.272422
-0.20303987 -0.049050204 -0.30210057 -0.02064852 0.0023228866 -0.02106973 -0.010153041 -0.20907916
-0.16495252 0.031051103 0.1628053 -0.058637835 -0.08871119 0.027280573 -0.009680283 -0.0029483647
0.30064672 -0.035002377 -0.2947496 -0.21395998 0.0052490863 0.15458316 0.12532626 0.2078561
-0.097169735 -0.04080527 -0.1586679 0.032115683 0.051226173 -0.3909611 0.049703557 0.040481847
0.31651664 -0.008409378 0.019704418 -0.0058552544 0.06548537 -0.08344177 -0.400028 -0.2994177
-0.44397655 0.19170694 0.023911787 0.028612372 -0.07576085 -0.169047 -0.08655205 -0.27176368
-0.1478459 0.45936757 -0.19844899 0.012411567 -0.041644886 0.13061848 0.21802014 -0.24860609
0.00679967 -0.14365354 -0.24426413 -0.27637592 0.16400298 0.31949556 0.277958 -0.14615849
0.30720198 0.02554615 0.2266073 -0.22091389 -0.106032275 0.049301494 -0.27192736 -0.0624056
-0.06948951 0.19157487 0.4046496 -0.036784574 0.16822378 0.036517814 -0.20101868 0.12391217
0.03393996 0.0025136399 -0.17035726 -0.03063377 0.18566842 -0.03533993 -0.40902868 0.22516553
0.04574115 0.20322353 -0.19187918 -0.17873664 0.20107763 0.21429892 -0.0408332 -0.09613264
-0.23636645 -0.07552577 0.102002434 -0.10991966 -0.07557481 -0.2726924 -0.20418344 -0.09748759
-0.27602768 0.22639424 -0.051868312 -0.13998677 0.07194021 -0.03354755 -0.18221435 -0.022386156
-0.026733804 0.11786682 -0.16267775 -0.083095685 0.039463352 0.21516562 0.1928004 0.24783571
0.11425093 -0.01835098 -0.08583418 -0.26732644 0.24666774 0.17372459 0.16873255 -0.015259097
-0.12550217 0.09511091 0.089399114 0.2289949 -0.08809702 -0.016545504 -0.16370492 0.06010423
-0.082558535 -0.2004346 0.27881908 -0.14097181 -0.23152024 0.14321241 -0.23977628 0.19799492
0.056453265 0.12071601 -0.22126243 -0.38804 0.056525122 0.16992405 -0.31440344 0.015046067
0.23303781 -0.21071962 0.12686464 0.13793747 -0.054399133 0.26236677 -0.04390814 -0.01763596
0.017940795 0.11275361 0.18850349 0.3167497 0.080230914 0.0243756 -0.35451892 0.11128043
0.14450653 0.29312178 -0.065463096 -0.0069198264 -0.25813332 -0.01866814 0.3046703 0.24588856
0.23684028 -0.11614832 0.25898767 -0.06962409 0.020879729 0.1861003 0.006442122 -0.120624065
0.029506734 0.14260961 -0.13451791 0.04248598 -0.044462766 -0.2321632 0.10931294 -0.1322568
00000000: 3046 1d3e 1bd7 0d3e 1712 5f3e 6249 df3e
00000010: 5bde ddbe b3da 423e ac7b 743d 9af4 903d
00000020: 1cad 263e e545 c5be 2351 8fbc 6c34 dc3d
00000030: 9305 ffbd f5ad 77be 61fc 323d 16ca bbbd
00000040: 795f 7dbe cc00 473e f981 74bc bfa9 26bd
00000050: 4701 c1bc dad8 cf3e 326e 6cbd 40fd 9dbe
00000060: 3843 003d a29e a33e dae3 febe a26d 7cbd
00000070: 141d 06bc 9189 2a3d 4980 69bb 0f0d 3dbe
00000080: 0c21 193e e268 663e 36d4 503d 0627 f9bd
00000090: 1eba aabd 7408 46be 5a9e 00bc 0ba9 90bd
000000a0: 2a7b 1c3e 6d05 2abd 4939 903d 7389 a83d
000000b0: 9d9f 033e bc19 2cbe a011 5d3e ff61 89bc
000000c0: 372b cc3d 9679 cabd cce8 a13d 4953 77be
000000d0: 1484 e9bd 8460 f0bd 07c3 d6bd b406 22bd
000000e0: 0dfd 053e 8496 cb3e 97cb 0e3e 8428 f0bd
000000f0: 36ae 52bd 31a3 99bd 07df 72bd e57a 8b3e
00000100: afe9 4fbe dee8 48bd edac 9abe 1627 a9bc
00000110: 923b 183b 6d9a acbc f158 26bc d918 56be
00000120: 50e9 28be e25e fe3c 6fb6 263e 3a2e 70bd
00000130: 36ae b5bd 827b df3c 0d9a 1ebc 5a39 41bb
00000140: 5eee 993e a75e 0fbd 6be9 96be 5318 5bbe
00000150: 8700 ac3b 0c4b 1e3e 8755 003e 3bd8 543e
00000160: ed00 c7bd 6d23 27bd d779 22be bc8b 033d
00000170: 89d2 513d 0e2c c8be f595 4b3d 4bd0 253d
00000180: 780e a23e 7dc7 09bc 296b a13c 6fdd bfbb
00000190: 321d 863d 85e3 aabd 78d0 ccbe 474d 99be
000001a0: e550 e3be d34e 443e a7e2 c33c 7e64 ea3c
000001b0: 8128 9bbd a81a 2dbe 3442 b1bd 9c24 8bbe
000001c0: ea64 17be 3a32 eb3e 3636 4bbe e359 4b3c
000001d0: d493 2abd dac0 053e ac40 5f3e 9892 7ebe
000001e0: c4cf de3b ea19 13be 6020 7abe 2581 8dbe
000001f0: 66f0 273e ec94 a33e 8350 8e3e 92aa 15be
00000200: 9449 9d3e 2946 d13c be0b 683e 4037 62be
00000210: 7327 d9bd 5df0 493d 103a 8bbe 049d 7fbd
00000220: 8450 8ebd 342c 443e 3b2e cf3e 6cab 16bd
00000230: db42 2c3e b493 153d d7d7 4dbe aac5 fd3d
00000240: a104 0b3d e1bb 243b 2272 2ebe acf3 fabc
00000250: dd1f 3e3e 9ac0 10bd 356c d1be cb91 663e
00000260: 125b 3b3d d419 503e fa7b 44be bd06 37be
00000270: 4be7 4d3e 2d71 5b3e b740 27bd 31e1 c4bd
00000280: 0c0a 72be 41ad 9abd a7e6 d03d 8f1d e1bd
00000290: f7c6 9abd 579e 8bbe 7715 51be 93a7 c7bd
000002a0: 8053 8dbe e4d3 673e de73 54bd b158 0fbe
000002b0: 6455 933d 2869 09bd 6696 3abe 2c63 b7bc
000002c0: da00 dbbc 2964 f13d ff94 26be 122e aabd
000002d0: 53a4 213d 6054 5c3e 786d 453e a5c8 7d3e
000002e0: 64fc e93d cb54 96bc d5c9 afbd 03df 88be
000002f0: 7896 7c3e dce4 313e 3ac8 2c3e 4b01 7abc
00000300: a483 00be 82c9 c23d e216 b73d a47d 6a3e
00000310: 366c b4bd 708a 87bc 43a2 27be da2f 763d
00000320: 7314 a9bd ba3e 4dbe 60c1 8e3e ea5a 10be
00000330: a413 6dbe 46a6 123e ea87 75be 2ebf 4a3e
00000340: 8a3b 673d f539 f73d 9e92 62be 2ead c6be
00000350: e386 673d 9200 2e3e 7df9 a0be c783 763c
00000360: 77a1 6e3e e2c6 57be cee8 013e 7b3f 0d3e
00000370: a0d1 5ebd f054 863e 06d9 33bd 4a79 90bc
00000380: 93f8 923c 5deb e63d 0f07 413e 042d a23e
00000390: 1b50 a43d 57af c73c 8183 b5be fee6 e33d
000003a0: 85f9 133e 0f14 963e 8411 86bd b6bf e2bb
000003b0: 0d2a 84be eded 98bc bffd 9b3e 36ca 7b3e
000003c0: 4286 723e 2cdf edbd 089a 843e 1397 8ebd
000003d0: f70b ab3c 1491 3e3e 7018 d33b c009 f7bd
000003e0: 1bb8 f13c 4108 123e 10bf 09be c705 2e3d
000003f0: 971e 36bd 31bc 6dbe 76df df3d 546e 07be

layers.3.1.weight f4 [32]
1.1180977 1.0911498 1.0924225 1.0346906 0.9936631 1.0946393 1.0607444 0.9929813
1.132027 1.1083848 1.0936071 1.1125599 0.99056304 1.0962768 0.9860559 1.1005758
1.062285 1.0887115 1.0467081 1.0157976 0.9879629 1.0288379 1.0381972 1.0683519
1.1454262 1.120875 1.0988318 1.1965873 1.1268386 1.0156273 1.1349622 1.0444053
00000000: d31d 8f3f ccaa 8b3f 80d4 8b3f be70 843f
00000010: b460 7e3f 241d 8c3f 79c6 873f 0634 7e3f
00000020: 43e6 903f 8edf 8d3f 51fb 8b3f 5d68 8e3f
00000030: 8a95 7d3f cc52 8c3f 296e 7c3f abdf 8c3f
00000040: f4f8 873f e65a 8b3f 88fa 853f a805 823f
00000050: 23eb 7c3f f6b0 833f a5e3 843f c1bf 883f
00000060: 539d 923f d578 8f3f 85a6 8c3f c629 993f
00000070: 3f3c 903f 1300 823f 7146 913f 13af 853f

layers.3.1.bias f4 [32]
0.13172099 0.05039998 0.059487578 0.01764162 0.02667727 0.051937602 0.046783175 -0.024878962
0.09278617 0.081174925 0.107465185 0.12655587 -0.036202163 0.03618982 -0.014317548 0.063203454
0.043085925 0.03497947 0.03753519 0.0016649518 -0.017120257 -0.016115598 0.025188418 0.021673227
0.1663117 0.10314339 0.06952486 0.1785489 0.119851634 0.02188092 0.14610593 0.009650587
00000000: dee1 063e 3670 4e3d 3fa9 733d 2985 903c
00000010: 4a8a da3c 86bc 543d b79f 3f3d f7ce cbbc
00000020: ad06 be3d 0a3f a63d b516 dc3d dd97 013e
00000030: b848 14bd c73b 143d 2694 6abc d070 813d
00000040: de7a 303d a246 0f3d 80be 193d 833a da3a
00000050: c83f 8cbc dc04 84bc f157 ce3c 0d8c b13c
00000060: 9d4d 2a3e d73c d33d 0d63 8e3d 86d5 363e
00000070: c674 f53d 9d3f b33c cb9c 153e 7f1d 1e3c

fc_out.weight f4 [2, 32]
-0.54835796 0.36857936 0.43346786 0.08548133 0.07864168 -0.03406413 0.092243865 0.04158644
-0.17971115 -0.4094754 -0.117950745 -0.43941575 0.529368 0.31273386 0.03480052 0.12758702
0.29344237 0.29513985 0.13900901 0.15161854 0.008364702 0.17675896 0.13383293 0.31855968
-0.03317674 -0.41969427 0.303406 0.12658271 -0.37995762 -0.0017915859 -0.1430755 0.42851886
-0.1419662 -0.25638643 -0.13091025 0.2185433 -0.20657226 0.46833947 -0.19150628 -0.08565132
0.21818735 0.34648216 0.49306357 0.17434844 0.15186168 -0.25696298 -0.02866638 0.48343885
-0.3651739 -0.20712619 0.045699347 -0.03171613 0.05975393 -0.31974548 -0.120006494 -0.08399182
0.19544415 0.3646449 0.031210065 0.4267917 -0.10075727 0.11034493 0.10989366 -0.015402202
00000000: 3061 0cbf 6fb6 bc3e 80ef dd3e d610 af3d
00000010: e40e a13d d486 0bbd 5aea bc3d 8b56 2a3d
00000020: 3306 38be c2a6 d1be 2990 f1bd 1afb e0be
00000030: a984 073f a71e a03e fd8a 0e3d 2ca6 023e
00000040: 143e 963e 921c 973e 6158 0e3e e441 1b3e
00000050: 1a0c 093c 4d00 353e 800b 093e 411a a33e
00000060: 55e4 07bd 2be2 d6be 0858 9b3e e69e 013e
00000070: ce89 c2be a6d3 eaba 6282 12be d366 db3e
00000080: 965f 11be 1545 83be 560d 06be d1c9 5f3e
00000090: ae87 53be 31ca ef3e 391a 44be f669 afbd
000000a0: 816c 5f3e 1c66 b13e d472 fc3e 6688 323e
000000b0: a181 1b3e a790 83be c2d5 eabc 4c85 f73e
000000c0: 13f8 babe e318 54be 3d2f 3b3d c6e8 01bd
000000d0: 89c0 743d aeb5 a3be f7c5 f5bd e703 acbd
000000e0: 8322 483e bdb2 ba3e 40ac ff3c 7184 da3e
000000f0: d459 cebd 86fc e13d ed0f e13d 8459 7cbc

fc_out.bias f4 [2]
-0.03933428 0.03933428
00000000: fb1c 21bd fb1c 213d
