test/output/local1/simulatorRun/fsv_volumes_pretrained_test/fold_4/best.nn.pt (torch_old, 737310 bytes, 42 tensors)

layers.0.0.weight f4 [256, 66]
00000000: b190 443e 7779 813b 04dd c03d a3d1 8fbe
00000010: d54f a43d 1b77 033e fb76 13bd e3c7 903e
00000020: 5e49 eebc c193 b33e 8153 11be 65c4 b53e
00000030: 6895 86be a59d 29be aa7c 8fbd b20d a93e
00000040: 7d64 2cbe fd1e 23be df71 f03c 46c0 993c
00000050: b122 5b3e aeef 1f3b 41b2 733e 59ff b1bd
00000060: 86ea 793d aed1 af3e 1ec6 cd3c 8baa 8abe
00000070: d000 20be 72c9 d13d fbb7 8d3d 17f2 bbbe
00000080: 64c4 16bd dec5 67be 76f8 5abe 0af1 4cbe
00000090: ce14 4fbe c025 a5be 40e2 83bb d29f c5bd
000000a0: a57e 0a3e 2824 34bc 860b b5bc a278 d23b
000000b0: 9aac d13d 653b 143c 44ff 663d 10c1 d23d
000000c0: b284 fcbd cb05 373e 974c 32be 3b0e 343e
000000d0: d32e f03d 47ba 313e 5d7a 973c 540c 633d
000000e0: 2455 433e c2a3 e43d ebdd efbd 93d2 27be
000000f0: 59d0 553e 465b 123e b62b b23d 1c5a 203d
00000100: ceba ae3c 0d77 e53e 9b90 2dbe a798 56be
00000110: f93d 84bd f24e 8fbe 6f8a 2dbe eb98 983e
00000120: b3be 68bd 9383 d83e f19b 06be d26a 79be
00000130: 6110 573e ef9b 803d 6889 c9be 5c8e 483d
00000140: c8c7 49be 9070 9b3d 6e38 e239 bf55 41be
00000150: d76a 4c3e 3589 93bc f3f8 96bd e7d0 70bb
00000160: 3148 0b3d d5c2 003e f0a1 5b3e 2e06 0bbe
00000170: 7671 be3d 4801 3fbd 31e0 b03d 1799 ffbd
00000180: dc54 86be 6989 be3e bd9b a03d 0647 7f3c
00000190: 9392 043e 4db7 cabd 7873 c63e 2362 963e
000001a0: d10d 2e3e 120a 3bbe cbc6 f5bd eba7 043e
000001b0: 4801 ae3d 0cee cf3d 993f 09bd 5750 8a3e
000001c0: ade4 e3bc 8b70 d23d ab8b 4c3e 0d6b 88be
000001d0: 4474 f9bd ccf2 913d 96a7 e73d 1eb8 423e
000001e0: 3aa8 19be 82d0 083e 39d9 6dbe 44ac 6abd
000001f0: 43f5 35be 5bac 293e a4f9 86bd 2f2c 0dbe
00000200: c4e5 e2bd 450e 4d3e ce36 59be 1572 343e
00000210: 38aa 423e 5627 2fbe 5c78 853d 0b4f 96bd
00000220: 419e b13e ef0b bfbd 300a 85be 7ff5 873e
00000230: 8a77 7bbd 92b1 1b3e 0570 a8bd bc63 d6bc
00000240: 08b7 003d 3708 0d3d 0a64 c2bc 917f 97bd
00000250: b16a 0a3e 0b8b 553d 6cf3 073e 764b 543e
00000260: 9fac e93d c08d 5ebd a9d6 59be e0b1 80be
00000270: f34c 0c3d 9f37 593d d480 ee3c 0270 ec3d
00000280: 3cfc 3b3e 8b87 6cbe 8587 65bc 2fca 123d
00000290: 1830 873e aa85 2ebc 3bd1 cb3d 84cd 67be
000002a0: ea43 66bc 4cf9 5ebd b13b 00bd f91f e73d
000002b0: 43b1 3abc cf19 dc3d 33b8 fa3d b35f 68be
000002c0: 41ea f93c c97a 2b3e 8139 283e 17b4 3cbc
000002d0: 968b 1ebe e76c 0abe f8d2 37bc 8fd7 643e
000002e0: 049a a9bd ddf1 4fbc 1ee5 983d 28ff 52be
000002f0: a265 ca3d 4e04 fb3e 9a9b 003d 9a79 1ebd
00000300: a85f a3be 1048 793d 3f1d 5ebc fdd2 b53d
00000310: 8da0 16be 2393 193e 388d 2abe 432a 703d
00000320: 9ce3 293d ccde aabd 76b7 4fbd 7a2d 85bd
00000330: f211 2a3d 2ea7 7f3e d5c7 0bbe 76d0 cc3d
00000340: c999 59bc cf4b 34be ff6a 183e ea81 153d
00000350: 1842 6bbc 7a6a 473e ecbe 52be 180a 53be
00000360: 00c5 02be 38e8 bf3d 6b4b 13be 5a8e 0bbe
00000370: 8643 b8be 8e92 cfbc 0fba 0f3e 49ee e6bd
00000380: cf36 2ebe 7be4 03bf a882 ab3d 54f0 4bbd
00000390: a493 78bd 0946 afbd db80 fbbd deb3 a8bd
000003a0: 1312 2e3d 4708 ccbd ab98 5d3e bd39 b7be
000003b0: c1c1 873e cb56 fd3d a221 52bd e74e b13d
000003c0: 7caf 053e c636 0f3d aec0 043d ca95 f03d
000003d0: 3d1a bcbe 8d4e babe db54 bdbd e257 3fbe
000003e0: ab2a 63ba 72f7 563d ac0b da3d 57e9 163e
000003f0: f677 8cbd a09c 50be 783b c63d 8fe9 8b3d
0.1919582 0.0039512473 0.094171554 -0.28089628 0.08023039 0.12838404 -0.03600214 0.282775
-0.029087719 0.35073665 -0.1419201 0.355014 -0.26285863 -0.16564043 -0.070062 0.3301826
-0.16835208 -0.1592979 0.029351173 0.018768441 0.21399952 0.0024404335 0.23798467 -0.08691282
0.061014675 0.3433966 0.025118884 -0.2708324 -0.1562531 0.10243501 0.06919857 -0.36708137
-0.036808386 -0.22634074 -0.21383843 -0.20013824 -0.2022278 -0.32255363 -0.004024774 -0.09649624
0.13524874 -0.010994948 -0.022100221 0.006423072 0.10237999 0.009047364 0.056395784 0.1029073
-0.12329997 0.17873304 -0.17412029 0.17583553 0.11727681 0.17356215 0.018490965 0.05543168
0.19075447 0.11164047 -0.11712249 -0.16388921 0.2088026 0.1429263 0.086997434 0.039148435
0.02132931 0.4481739 -0.16949694 -0.2095667 -0.06457133 -0.27989918 -0.1694734 0.29804167
-0.05682249 0.42287883 -0.13145424 -0.24357155 0.21002342 0.06279742 -0.39362645 0.04896389
-0.19705117 0.07589829 0.00043148122 -0.18880366 0.19962631 -0.018009761 -0.07371702 -0.003674561
0.034004394 0.12574323 0.21448493 -0.13576576 0.09298985 -0.04663208 0.08636511 -0.124803714
-0.26236618 0.3721421 0.07842205 0.015580898 0.12946539 -0.09898243 0.3875997 0.29371747
0.16997458 -0.1826556 -0.120008074 0.1295468 0.08496338 0.10152826 -0.033507917 0.2701442
-0.027819002 0.10275372 0.19975154 -0.26644173 -0.12180379 0.07126388 0.11311261 0.19015548
-0.1500558 0.1336079 -0.23227395 -0.05729319 -0.17769341 0.16569655 -0.06590584 -0.13786386
-0.110789806 0.20024975 -0.21212313 0.17621644 0.19010246 -0.17104849 0.06517097 -0.07339295
0.3469105 -0.09328448 -0.25984335 0.26554486 -0.0613933 0.15204456 -0.08224491 -0.026170604
0.031424552 0.034431662 -0.023729343 -0.07397378 0.13517262 0.052134555 0.13276452 0.20731911
0.11409878 -0.054334402 -0.21273293 -0.25135708 0.034253072 0.05303156 0.029114164 0.11544801
0.18357939 -0.2309858 -0.014009361 0.03583735 0.2640388 -0.010651985 0.09952017 -0.22636992
-0.014054278 -0.054436967 -0.031306926 0.11285395 -0.011394802 0.1074711 0.122421645 -0.22692756
0.030507209 0.16746058 0.16428186 -0.011517546 -0.15482935 -0.13518105 -0.011219732 0.22347854
-0.08281329 -0.012691942 0.07465576 -0.20605147 0.09882666 0.49026722 0.031398393 -0.038690187
-0.31908917 0.06085974 -0.0135567775 0.088781334 -0.14709683 0.14997534 -0.16655433 0.058634054
0.04147683 -0.083432764 -0.05071207 -0.065028146 0.04152102 0.24966118 -0.13650449 0.10000698
-0.013281294 -0.17607044 0.14884566 0.03650085 -0.01435902 0.19474211 -0.20580643 -0.20609319
-0.12770462 0.09370464 -0.14384238 -0.13628522 -0.35989016 -0.025338437 0.1403582 -0.11275918
-0.17013095 -0.5152051 0.0837453 -0.04978974 -0.060687676 -0.0855828 -0.122804366 -0.08237432
0.042497706 -0.09962516 0.2164027 -0.35786238 0.2651501 0.1237007 -0.051301606 0.086576276
0.13055223 0.034964345 0.032410316 0.1174732 -0.36738768 -0.36388054 -0.092447005 -0.18685868
-0.0008665721 0.052482076 0.106467575 0.1473745 -0.06858818 -0.20372248 0.096793115 0.06831657

layers.0.1.weight f4 [256]
00000000: c73e 803f 7df1 7e3f 8156 7e3f 91f8 7f3f
00000010: 9a44 7f3f 7df7 7e3f 5e77 7f3f c22a 803f
00000020: f35f 7f3f 3d77 7f3f e986 803f 0b4d 803f
00000030: a12d 803f d37d 803f 266b 7e3f 6c8a 803f
00000040: ffea 803f d76f 7e3f a254 803f d6aa 803f
00000050: 358b 7d3f 1510 803f 0a6a 7f3f 0a19 7f3f
00000060: c794 7e3f 6079 803f d07f 7f3f 661f 7e3f
00000070: 9fd0 803f 2490 803f 01a1 803f 4cd9 7f3f
00000080: 6ba3 803f d626 7f3f a780 803f eba7 7f3f
00000090: f59b 803f 26ff 803f 7df4 7e3f 6482 803f
000000a0: 381d 813f 7fde 7f3f 4562 7e3f 0629 7f3f
000000b0: cc3e 7f3f e582 803f a30a 803f 2f4b 803f
000000c0: d62c 7f3f e655 803f f513 803f 6828 803f
000000d0: aee4 7f3f c6aa 7e3f 152e 7f3f 449e 7e3f
000000e0: a8f0 7e3f 4e66 7f3f 125c 803f 97b0 7e3f
000000f0: 55aa 803f 0a02 7e3f d2bd 803f c99f 803f
00000100: f451 7f3f 49c3 803f d6fd 7f3f 2593 7e3f
00000110: 03b0 7e3f 8c18 803f a554 803f fd2f 7f3f
00000120: 03f8 7e3f c30f 7f3f 5439 803f 0857 803f
00000130: d8f1 7f3f cea4 7f3f b651 803f 98f7 7f3f
00000140: 49b9 803f 5bff 7d3f 94ba 7f3f e384 7f3f
00000150: 07d0 7e3f 49d8 7f3f 4f44 803f 9eae 803f
00000160: e216 813f 5ed3 7e3f 726e 7e3f 1ec8 803f
00000170: 208e 803f bd09 803f f168 803f fe76 803f
00000180: 804e 803f 861a 803f e6aa 803f c57e 803f
00000190: 3003 7f3f 5849 803f 4418 7f3f e474 803f
000001a0: 97fb 7f3f 2b2c 803f feac 7f3f 0b85 7d3f
000001b0: 4fc5 7f3f c096 803f 35d2 7f3f 5229 803f
000001c0: e1a1 7e3f a728 803f d5f4 803f a4a7 803f
000001d0: 3905 813f 7c2e 7e3f cdd2 7e3f 8377 7f3f
000001e0: 0df9 803f 112c 803f fc50 803f 8203 7f3f
000001f0: 8b43 7f3f c0a2 803f 993e 7e3f ba00 803f
00000200: 02ad 803f 4fd3 7e3f 9932 803f d88f 803f
00000210: 5017 803f bc34 803f 6c69 7f3f 615f 803f
00000220: 34e3 7d3f 2333 7f3f 9f32 7e3f 49be 803f
00000230: ccb1 803f 4173 803f 9982 7e3f a9a8 7f3f
00000240: a549 7f3f b517 803f cacb 7f3f 6f94 7e3f
00000250: bc5d 7e3f 6955 7f3f 2ae4 7f3f 2d93 7f3f
00000260: 0902 7e3f 6321 7f3f a123 803f 021a 803f
00000270: 4289 7e3f 4f10 803f 0533 803f 2b22 803f
00000280: 9125 803f 33bc 803f c6cf 7e3f 19b6 803f
00000290: e5cd 7e3f c48a 7e3f e73b 803f a9a2 803f
000002a0: aa68 7e3f ef23 803f 59de 7f3f c4de 803f
000002b0: ccd5 7e3f 4989 7e3f d996 7e3f 0c0a 803f
000002c0: 5832 803f 199d 803f 2ec7 803f 4e9c 7f3f
000002d0: e1cb 7e3f 790e 803f e18b 7e3f a8db 7f3f
000002e0: f831 803f 661d 803f 4645 803f fd22 803f
000002f0: 7a02 813f 2cc0 7e3f 7fc6 7f3f fd89 803f
00000300: a857 7e3f d61c 803f b7e2 7f3f 5ed5 803f
00000310: f8ec 7d3f 7970 7f3f dbcc 7e3f 7e1e 7f3f
00000320: 851d 803f 35b5 7e3f 5a67 803f 1be6 7f3f
00000330: ca8b 803f bfb7 7f3f a749 7f3f 7e03 803f
00000340: 195c 7e3f 0338 7f3f cd34 803f 4bd7 7f3f
00000350: 3312 7f3f f318 803f 8bd1 803f 3338 803f
00000360: 6f0b 7f3f f046 803f 15b1 803f 98b5 803f
00000370: 1104 803f 9590 7f3f d345 7e3f 82f0 7f3f
00000380: 7756 803f 9c3b 803f 901c 7f3f 14e5 7e3f
00000390: f5a7 803f 7157 7f3f d5b7 7f3f e54f 803f
000003a0: 1721 803f 7a17 813f 0585 7f3f 8075 7f3f
000003b0: d85a 803f 94dc 7f3f c9c7 7f3f 59e4 7f3f
000003c0: e574 7f3f 2ec1 803f 4680 803f fe1d 7e3f
000003d0: d40b 803f a47c 7e3f 37a9 7e3f ba97 7e3f
000003e0: d574 803f eb7c 803f ee07 7f3f 71f9 7e3f
000003f0: aa84 803f 3e65 803f 9a2a 7f3f ac91 803f
1.0019158 0.9958723 0.99350744 0.9998866 0.9971405 0.9959639 0.99791515 1.0013049
0.9975578 0.9979132 1.0041171 1.0023512 1.0013925 1.0038399 0.99382246 1.0042243
1.0071715 0.99389404 1.0025828 1.0052135 0.9904054 1.0004908 0.9977118 0.9964758
0.99445766 1.0037041 0.998044 0.9926666 1.0063666 1.0043988 1.0049134 0.99940944
1.0049871 0.99668634 1.0039262 0.998656 1.0047594 1.0077865 0.9959181 1.0039792
1.0087042 0.9994888 0.993687 0.9967197 0.99705195 1.0039946 1.0003246 1.0022944
0.9967779 1.0026214 1.000609 1.0012331 0.9995831 0.9947933 0.9967969 0.99460244
0.9958596 0.9976548 1.0028098 0.99488205 1.0051981 0.9922186 1.0057929 1.0048763
0.99734426 1.0059596 0.999967 0.99443275 0.9948732 1.0007491 1.0025831 0.996826
0.99597186 0.99633425 1.0017495 1.002656 0.999784 0.99860847 1.0024936 0.99987173
1.0056545 0.99217767 0.9989407 0.99812144 0.99536175 0.999394 1.0020846 1.0053289
1.0085108 0.9954127 0.99387276 1.0061071 1.0043373 1.0002972 1.0032026 1.0036314
1.0023956 1.0008094 1.0052154 1.0038687 0.9961424 1.0022383 0.996464 1.0035672
0.9999327 1.0013479 0.9987334 0.9903113 0.99910444 1.0046005 0.99930125 1.001261
0.9946576 1.0012406 1.0074717 1.005116 1.0079719 0.9928968 0.99540406 0.99791735
1.0076004 1.0013448 1.0024714 0.9961473 0.9971244 1.0049667 0.99314266 1.0000222
1.0052798 0.9954118 1.0015441 1.0043898 1.0007114 1.0016093 0.99770236 1.0029107
0.9917481 0.99687403 0.9929599 1.005807 1.0054259 1.0035173 0.99418026 0.9986673
0.9972175 1.0007235 0.9992033 0.9944524 0.9936178 0.997397 0.99957526 0.9983395
0.99221855 0.9966032 1.0010873 1.0007937 0.9942819 1.0004977 1.001557 1.0010427
1.0011464 1.0057434 0.9953579 1.0055572 0.9953292 0.9943049 1.0018281 1.004964
0.99378455 1.0010966 0.9994865 1.0067983 0.9954498 0.9942823 0.99448925 1.0003066
1.0015364 1.0047942 1.0060785 0.9984788 0.99529845 1.0004417 0.9943219 0.99944544
1.0015249 1.0008972 1.002114 1.0010678 1.0078881 0.9951198 0.99912256 1.0042111
0.993525 1.00088 0.99955314 1.0065114 0.9918971 0.99780995 0.99531335 0.996559
1.0009009 0.9949525 1.003154 0.9996049 1.004266 0.9988975 0.9972176 1.0001066
0.9935928 0.9969484 1.0016114 0.99937886 0.99637145 1.0007614 1.0063947 1.0017151
0.9962682 1.0021648 1.0054041 1.0055418 1.0001241 0.9982999 0.99325293 0.9997636
1.0026387 1.0018191 0.9965296 0.99568295 1.0051256 0.997428 0.9988988 1.0024382
1.0010098 1.008529 0.99812347 0.99788666 1.0027723 0.9994595 0.9991422 0.99957806
0.9978774 1.0058954 1.0039146 0.99264514 1.000361 0.99408937 0.9947695 0.99450266
1.0035654 1.0038122 0.99621475 0.9959937 1.0040486 1.0030897 0.9967438 1.0044456

layers.0.1.bias f4 [256]
00000000: b862 7b3b 0d48 42ba 6ee8 0cbc c5fd 4b3b
00000010: 19f6 a6bb 5405 a2bb 262b 3aba c8eb 6bbb
00000020: 80d1 9cbb ddc2 533a 4ea2 1a3b 82a1 f33b
00000030: 267a 0f3b a0a2 f4ba 0806 81bb 2733 bb3b
00000040: 52ea 023c c83b 39bb c6fd 803b c3b5 bc3b
00000050: 0a82 04bc 7bca a439 a5ec 053b 9b1b b83b
00000060: d8d2 e7bb 07f9 4fbb f0fa 0f3b b4e9 e9bb
00000070: 4ac0 b03a b9d2 cb3b 37bb b23b 6404 94bb
00000080: 67d3 a53b f46b 98ba 4e8e 3f3b eed9 85bb
00000090: b2b5 13ba 6746 863b 5a85 b3bb 370c 96ba
000000a0: f9f2 983b 44ea a93a 6c33 b7bb 7c06 eabb
000000b0: 2efa a2bb 80b7 edb9 a35a 303b 1cc3 bd3a
000000c0: 11d6 933a 18f6 3dbb 99ee a4bb 77a5 cbba
000000d0: faa2 fdba 843e a8bb 85bb 91bb 34bf b4bb
000000e0: 2595 55bb 88b2 5dbb 0bd3 8fbb 07f9 c0bb
000000f0: c0ea 293b f530 44bb fa00 763a 260e c93b
00000100: 03da 4bbb 9870 e43b e8a6 e7ba 0c82 94bb
00000110: c32b bbbb 70f2 043c 35ca b43b 91c2 a4ba
00000120: 5747 b1bb 1bb4 bbbb 3e5a dd3a e27e a93b
00000130: af77 76bb 75fa 34ba f701 2a3b f3e4 a639
00000140: 2259 acb9 5a34 c9bb a76a 2aba 4219 3bbb
00000150: fc56 a1bb 6411 49ba 963f d03b e8ef 5bba
00000160: 4e0b d03b 3d9b 8dbb 306d b8bb 3bda e538
00000170: 1bdb 6e3b 6a8a 093b 2431 773b ff6b b23b
00000180: f274 943b ce6c 8f3b ca7a ca3b 9827 603b
00000190: d539 c73a 219f 8e3a 0e5b 74bb 5cf4 a73a
000001a0: 603c 153b eb48 2c3b ab1f 86bb 1caf f439
000001b0: c49a 0739 d179 ec3b bb74 a4bb 2a88 003b
000001c0: b7fb 96bb a5fb a4ba f46b db3b acde a13b
000001d0: 6d3e 203b aaf3 fcba 6c4b a73b 6d47 8cbb
000001e0: d982 17bb d000 733a d625 ad3a f94f 60bb
000001f0: 6024 74bb 1db6 8c3b 377e b8ba 6e6f 4fbb
00000200: e6ed df3b 75af 94bb c904 d4ba 625a 443b
00000210: 3e36 493b 3e3f 543b 4907 d13b 19c4 9c3b
00000220: 3178 fabb 69ae d1ba 3674 85bb a805 d13b
00000230: ded0 f13b b2f3 613b bcf3 f0bb 6ccb 80bb
00000240: 76da d23b 024f 123a 8ca7 32b9 7991 aabb
00000250: c583 dabb 7c23 23bb bf67 feba 4ccd d6ba
00000260: 3c9e e639 1ef7 9e3a db02 6f3b eefd f5ba
00000270: e46a 3a3b c0e5 de3b 3bf4 46bb 3e0e 6e3a
00000280: 5aea 5fbb 137a 92bb 7961 46bb 50bf 7e3a
00000290: 7d44 22bb b990 6abb 0c6d 35b8 aa2a 453b
000002a0: 5776 68bb 0627 abbb d4f8 b8bb 7291 353a
000002b0: aaec bebb e726 13bb 94e5 073b 3288 32b9
000002c0: d4e0 403a cbaf d83b 636d 013c 6d42 9fbb
000002d0: 847c 17bb 540b 1dbb b64e 90bb e038 8cbb
000002e0: c26f 2d3b b4e6 86bb 4e33 a43b 7399 f8ba
000002f0: 4432 dd3b 3379 0ebc 513e 803b d978 b13b
00000300: 4996 1abb 2858 71b9 89c9 8a3a 998e c33b
00000310: 9b32 19bc 6b3a 8c3a 04ae bfbb bc44 3c3b
00000320: 5929 b3bb ce6c e4bb ccad 683b 91b5 5bbb
00000330: 22f2 833b e068 5bba d2d9 a7bb 43f7 6ebb
00000340: d3ab c03a 74a2 e7ba 6e43 373b 07b9 8f3a
00000350: 8a39 29bb fb1f 86bb 1efc a63b 205d 0739
00000360: 162d b3bb b410 2b3b bae7 2f3a c44e e93b
00000370: c202 4e3b fcbd d0ba c24e c9bb f654 a9ba
00000380: c297 77bb 5b3e ae3a 3cec 463a 8f56 b1ba
00000390: 019b 8b3b ed79 0dbc c0e5 15bc 87c1 d43b
000003a0: 8ee6 603b 0ac3 9538 a43e c9bb 1750 8e3b
000003b0: 87c3 573b 38a2 9f3b c371 a23b fbae 25b9
000003c0: e28c 49bb 014e 443b a8ef 2dbb f0d6 c4bb
000003d0: bc01 9f3b 85e4 5bba 7a4e a3bb 88ac a1bb
000003e0: 9099 d53b d94a e339 9609 9839 88bb 5abb
000003f0: f249 883b 61d3 a63b 9e50 9cbb 46fb 9a3b
0.0038358402 -0.0007411249 -0.008600337 0.00311266 -0.005095255 -0.004944483 -0.00071017665 -0.003599869
-0.0047857165 0.0008078048 0.0023595276 0.0074350247 0.0021892875 -0.0018664189 -0.0039374866 0.005712885
0.007990437 -0.0028264392 0.003936502 0.0057589724 -0.008087644 0.00031431377 0.002043524 0.005618525
-0.007074695 -0.0031734125 0.0021969639 -0.0071384553 0.0013485041 0.0062201885 0.0054544467 -0.004517125
0.0050606015 -0.0011628852 0.0029229107 -0.004084817 -0.00056346797 0.004097748 -0.005478543 -0.0011447732
0.0046676365 0.0012963493 -0.0055908468 -0.0071418863 -0.0049736714 -0.0004534088 0.0026909492 0.0014477703
0.0011279007 -0.0028985795 -0.005033326 -0.0015536983 -0.0019350939 -0.0051344056 -0.004447403 -0.0055159573
-0.0032590118 -0.0033828337 -0.004389172 -0.0058890614 0.0025927275 -0.0029936407 0.0009384301 0.00613572
-0.0031105287 0.00697143 -0.0017673643 -0.0045321044 -0.005712004 0.008114442 0.005517269 -0.0012570192
-0.0054101157 -0.0057282574 0.0016887856 0.0051725963 -0.0037607958 -0.0006903776 0.0025941113 0.00031832568
-0.00032872806 -0.006140274 -0.0006500878 -0.002854899 -0.0049236994 -0.0007670133 0.0063552363 -0.0008389936
0.006349004 -0.0043214844 -0.0056282505 0.000109602195 0.0036446515 0.0020987042 0.00377185 0.005445003
0.0045305425 0.004376984 0.0061791884 0.0034203287 0.001519973 0.0010881164 -0.0037285718 0.0012813914
0.0022771582 0.002628858 -0.0040931306 0.00046669773 0.00012932258 0.00721667 -0.005018798 0.001961241
-0.0046076435 -0.0012587203 0.0066962186 0.0049398746 0.0024451271 -0.0019298692 0.0051054265 -0.0042809756
-0.0023118763 0.00092698354 0.0013210129 -0.0034227355 -0.0037253127 0.0042941705 -0.0014075701 -0.003165211
0.0068337796 -0.0045375177 -0.0016175742 0.00299611 0.0030702497 0.0032386328 0.0063790423 0.004784119
-0.0076437225 -0.0015997413 -0.0040726913 0.006378848 0.0073796352 0.003447753 -0.007353274 -0.0039305
0.006434734 0.0005581231 -0.00017037819 -0.00520533 -0.00666854 -0.0024892977 -0.0019409581 -0.0016388088
0.00043986912 0.001212809 0.0036470208 -0.0018767694 0.002844506 0.0068022907 -0.0030357975 0.0009081102
-0.0034166784 -0.004470119 -0.00302705 0.0009717839 -0.002476006 -0.0035791828 -4.325532e-05 0.0030085244
-0.0035470927 -0.005223158 -0.005644897 0.0006926275 -0.0058265524 -0.0022453608 0.0020736204 -0.0001702614
0.0007357721 0.006612753 0.007899615 -0.0048602135 -0.0023114989 -0.002396305 -0.0044039143 -0.004279241
0.0026464318 -0.0041168574 0.005010999 -0.001896663 0.006750377 -0.008695888 0.0039136787 0.0054160175
-0.0023588112 -0.00023016392 0.0010588627 0.0059679267 -0.009350444 0.0010698562 -0.0058496017 0.0028727492
-0.0054675755 -0.0069709783 0.0035503982 -0.003352497 0.004026667 -0.00083698146 -0.0051224018 -0.0036463297
0.0014699645 -0.0017672316 0.0027963775 0.0010965177 -0.002582165 -0.004093168 0.0050959727 0.00012909295
-0.005468021 0.0026102485 0.000671025 0.0071199853 0.003143475 -0.001592576 -0.006143422 -0.0012918997
-0.0037779664 0.001329373 0.0007588302 -0.0013529825 0.0042604213 -0.008635026 -0.009149015 0.006492797
0.0034317109 7.1412025e-05 -0.0061415005 0.0043430435 0.003292294 0.004871633 0.004957409 -0.00015800812
-0.0030754139 0.002995372 -0.0026540551 -0.006007068 0.0048525017 -0.0008388239 -0.0049837204 -0.0049338974
0.00651855 0.0004335258 0.0002899884 -0.0033375937 0.0041592056 0.0050911163 -0.0047703525 0.004729661

layers.1.0.weight f4 [128, 256]
00000000: 622f 4abc fc14 4bbd a143 ce3d bfe7 693e
00000010: b207 3bbe d0b1 3fbe 798f 18bc e2dc cd3c
00000020: b21b b53c 2c9c 0cbe 375d cfbd 227c f7bd
00000030: 4fba fe3c 8659 60bd 0cce 17bd 360e 903c
00000040: 5c78 a83c bd60 43bd af3c 3dbe 6512 cb3d
00000050: bf2e d9bc 5d92 8d3d 797d c8bd c109 8a3d
00000060: 7310 d53d 0330 5e3e aed9 ebbc 2c83 bdbd
00000070: 6dd3 fbbc 76ea d4bd 6b37 38bd ce45 15bd
00000080: af63 5bbd 9d40 04be 2c03 1ebe d830 3ebd
00000090: 86e5 723c 9a70 0e3e a747 21be 9fde debc
000000a0: be8b 30bd 40a1 3d3e 146c 02bd 57f4 f4bd
000000b0: fd37 af3d 552f 7d3d 2bd3 d63d 84c5 eabc
000000c0: 16fb ce3d dfb0 ce3d a1af 813d ce8f e6ba
000000d0: 81a9 9bbd a00b 56bb f899 77bd 0146 eabd
000000e0: f671 ddbd d07e 973c 68c3 a43d 8306 be3d
000000f0: 8751 8fbd 459d 0b3d 81ed d0bd 0db5 9cbd
00000100: 6ed0 abbd cc08 af3c 26af 86bd e7d1 65bd
00000110: 7c10 e93c 4e6a 53bd 6d32 133e 8f32 40bd
00000120: f459 bebc d70d 02bd 0f02 5fbd 2a2b d2bd
00000130: 4a00 0a3e 9509 24bd 66d4 613e e04c d93d
00000140: 13eb bcbc de32 e1bd d09b d63d bf03 96bd
00000150: 05e8 a3bc 8fbe 9abd b0c8 58bd a214 4f3e
00000160: 10de e5ba af08 b93d a3a4 b1bd af9f 40bd
00000170: 2cac 863d 10ae 1cbd ec6d 363d 8edc 1cbe
00000180: e667 93bd 9668 d93d 3b92 05bd 3231 753c
00000190: a8f1 1cbc cde6 81bd 6a1e fcbd a582 f3bc
000001a0: 5745 b53d b24a 183d 3589 33bd a3e4 b9bc
000001b0: 1e04 253d 36c2 723d 4b4f 1e3d 5e17 70bd
000001c0: c8a3 983d 410a 87bd 048e 2a3d 1dc6 463d
000001d0: 6da1 fd3c 9811 77bd 1082 d8bd e391 36be
000001e0: db0f 6abe c907 ce3d 5dda 6fbd 49c2 66bd
000001f0: e788 523d 3eab aa3c ca8e 493c 3e4a 51bd
00000200: ed66 3ebc ad7f 30bd 1955 f53c 3074 c9bc
00000210: 5330 25bd 6170 5abd 0853 753d 141d d0b9
00000220: 970a a7bd 9ab1 79bd e672 27bd 8ec0 c3bd
00000230: ce9e e8bd 1dc1 c13c e95a 993b 2139 18be
00000240: 8352 f63d 2e47 e6bd 9108 033e 3396 b83c
00000250: 4f7f dcbc b89a c33d 840f 2fbe a7d6 4a3d
00000260: 45f7 37bd a8f1 713d f2bd e0bd 7aef a6bd
00000270: 56f0 48be b678 9abd e285 443d c10e 623d
00000280: 3e55 383d cca7 01be b231 0abd 0288 b63c
00000290: a56d 21be 47d4 babd bff5 25bd 5a8f 09be
000002a0: ce6d 78bc ef6e 33bd 40ed 0dbc cc00 0bbd
000002b0: 323d 1ebe e9ce 273e 3857 28bd ed02 0a3c
000002c0: db55 03be c5fd 3b3d a390 023d a3d7 00bd
000002d0: 72b4 d7bc 1c17 e93d 0c90 b63c 8814 a1bd
000002e0: a953 863c ef92 21bd f46d 84be b23e 403d
000002f0: f19a b33d b3ff ad3c 8ee2 a8bd a389 febd
00000300: 2720 823d 3ce0 d6bd 317c 173e d883 2cbd
00000310: 8f35 853e fec6 c2bd 972d 80bb 9d2d ad3d
00000320: 76de f53d 83b5 81bd 3883 e5bd 18f6 0bbe
00000330: 5f6a 36bd b2c7 a4bd 6e15 ac3d 86e5 883d
00000340: 7cab 0b3e 2d7f 903d 4369 c03d 4126 de3d
00000350: ea15 9c3d bd95 fdbd 9139 473d f1d8 c1bd
00000360: 9f3c 2c3e ac80 13be db4c 2ebe 98b6 1c3d
00000370: 714b 1a3d 4fbd 273e c448 56bc 2e56 40bc
00000380: b482 6f3d 7546 253d 0393 b7bc bf77 0d3e
00000390: ff85 0cbe 82de 543d 7a52 0d3e 2346 1b3e
000003a0: 9881 e7bd 86a3 c33d 1ea7 10be e82d 4ebe
000003b0: c3d1 133d 8f9b 0d3e 1032 2dbe 98c3 af3d
000003c0: d113 cc3b ff2e 653d 0ca4 053e 41fe d23d
000003d0: b944 573d 8a61 14be e5eb dcbd 74b4 a1bd
000003e0: a872 0f3d 72cc 9bbd 650c 8b3c 1607 31bd
000003f0: 8ac8 643d 1f33 fbbd d60f e93d 9389 c6bd
-0.0123403985 -0.04958056 0.10071493 0.2284231 -0.18264654 -0.18720174 -0.00931155 0.02512974
0.022107933 -0.1373145 -0.10125201 -0.12084223 0.031094698 -0.054772876 -0.037061736 0.017584901
0.020565204 -0.04769968 -0.1848018 0.09915618 -0.026511548 0.06912682 -0.09789557 0.06740142
0.10403528 0.21698003 -0.028790321 -0.09253535 -0.030740464 -0.103962824 -0.044974726 -0.036443524
-0.053561863 -0.12915273 -0.15430897 -0.0464333 0.01482523 0.13910142 -0.1574999 -0.027205763
-0.04310202 0.18518543 -0.031841353 -0.119606666 0.08555601 0.061812717 0.10489496 -0.028658636
0.101064846 0.10092329 0.06332327 -0.0017590465 -0.0760069 -0.0032660738 -0.06044957 -0.114391334
-0.10812752 0.018493086 0.08045083 0.09278586 -0.06997972 0.03408553 -0.1020155 -0.0765172
-0.08389364 0.0213665 -0.06576376 -0.05610838 0.028450243 -0.051615052 0.14374705 -0.046923216
-0.023236252 -0.03175148 -0.054445323 -0.10262139 0.13476673 -0.0400482 0.2205368 0.10610366
-0.02306131 -0.1099603 0.104789376 -0.07324933 -0.020008096 -0.075558774 -0.052925766 0.20222715
-0.0017537493 0.090348594 -0.0867398 -0.047027286 0.06575808 -0.038251936 0.044538423 -0.1531851
-0.071975514 0.10615651 -0.03261016 0.014965342 -0.0095791 -0.0634285 -0.123104885 -0.029725382
0.08851116 0.03718061 -0.043832023 -0.02269203 0.04028713 0.059267245 0.03864984 -0.058616035
0.07453114 -0.06593753 0.041639343 0.04852878 0.030960763 -0.060319513 -0.105716825 -0.17829089
-0.22857611 0.10060079 -0.058557857 -0.05633763 0.05140009 0.020833608 0.01230211 -0.051096193
-0.011621219 -0.04309051 0.029947804 -0.024591535 -0.04032929 -0.05332983 0.059893638 -0.00039694516
-0.08156317 -0.06096039 -0.04088106 -0.09558211 -0.113584146 0.023651654 0.004680027 -0.14865543
0.120274566 -0.11244045 0.12796237 0.022532558 -0.026916174 0.09550995 -0.17095762 0.049521115
-0.04491355 0.059068352 -0.10973729 -0.08151145 -0.19622931 -0.07542555 0.047979243 0.05518985
0.04500317 -0.12661666 -0.0337388 0.02228165 -0.15764482 -0.0912252 -0.040517565 -0.1343359
-0.015162898 -0.043806966 -0.008662522 -0.033936307 -0.15453032 0.16387524 -0.041098803 0.008423549
-0.1282572 0.04589631 0.031876218 -0.031455647 -0.02633116 0.11381361 0.022285484 -0.07865244
0.016397314 -0.039446767 -0.25865138 0.04693479 0.08769787 0.021240091 -0.08246337 -0.12428596
0.06353789 -0.10491988 0.14793469 -0.042117923 0.26017424 -0.09510611 -0.0039116847 0.08455966
0.12005322 -0.06333449 -0.112066686 -0.13668096 -0.044535037 -0.08045901 0.08402525 0.06684403
0.13639635 0.07055507 0.09395077 0.1084714 0.07621367 -0.12382076 0.048638884 -0.094652064
0.1682 -0.14404553 -0.17021506 0.038260072 0.037669603 0.16380809 -0.013078872 -0.011739297
0.058474258 0.040350396 -0.022408968 0.13815211 -0.1372299 0.051970012 0.13800994 0.15163474
-0.11304015 0.09552674 -0.1412625 -0.201347 0.036088716 0.13828872 -0.16913629 0.085822284
0.0062279482 0.055953022 0.1305086 0.10302401 0.052555773 -0.14490333 -0.10787181 -0.07895747
0.035021454 -0.07607354 0.016973684 -0.04321965 0.05585531 -0.1226561 0.113799736 -0.09694209

layers.1.1.weight f4 [128]
00000000: 6df4 7e3f 964a 803f e64f 7e3f eb37 803f
00000010: d6e8 803f 6b01 803f c1fd 7e3f e781 7f3f
00000020: 6a98 803f b283 7f3f b954 7e3f 306f 7f3f
00000030: e424 803f f384 7e3f 47ff 7e3f d070 803f
00000040: dd5f 7f3f 0eff 7f3f 3231 7f3f 9d7f 803f
00000050: 5b08 803f 187e 803f 516c 803f 89e6 7f3f
00000060: 4f7e 803f 16a2 7f3f 8091 803f a2c7 803f
00000070: a965 803f 32b8 803f 6f40 803f 7b78 7e3f
00000080: 9eb1 803f 9a0a 803f b8bb 803f 6b83 7f3f
00000090: 02e5 7f3f 88d0 7f3f 4914 7f3f 290f 803f
000000a0: 3191 7f3f bf1d 7f3f 4698 803f 8824 7e3f
000000b0: 38b4 803f 7340 803f 68c4 7f3f df55 803f
000000c0: a0bf 7f3f 98b8 7f3f aa17 7f3f a800 803f
000000d0: 45e8 7f3f 684f 7f3f c7ad 803f 6063 803f
000000e0: 3a0f 813f 0681 803f 0f4e 803f 2326 813f
000000f0: 2ea4 803f a712 803f 5ebc 7e3f 3359 803f
00000100: 0e6a 7e3f 3018 7f3f c056 803f 30f1 7f3f
00000110: df44 7e3f 2e7a 803f e6f4 7f3f 8d30 803f
00000120: ec36 7f3f 689c 803f 4870 803f 2441 7f3f
00000130: 4639 7e3f 7087 7f3f d149 7e3f fb14 803f
00000140: 9f54 7e3f 28b7 803f 77a3 7e3f 337e 7f3f
00000150: b014 813f 2b41 7e3f b382 7f3f 2c7f 803f
00000160: 9ad7 803f 28f1 803f 241f 7f3f 1f3c 803f
00000170: a272 803f d2c9 7e3f 8752 7f3f c02a 803f
00000180: 1d51 803f dc6b 803f fe0b 803f 6749 803f
00000190: 6591 7e3f 41ba 7e3f 681b 803f 5493 803f
000001a0: b786 803f 9c1d 7f3f 7d80 7e3f c361 803f
000001b0: e1e3 803f 5983 803f 1089 803f 30bf 7f3f
000001c0: 902b 7f3f 7ab3 803f af1d 7f3f 51e4 803f
000001d0: 8b1e 803f 29b9 803f af84 7e3f 03c9 7d3f
000001e0: 1f99 7f3f 5aa2 7f3f b939 7f3f 2028 7f3f
000001f0: 6396 803f 07e0 7e3f a3b7 803f a96a 803f
0.99591714 1.0022762 0.99340665 1.0017065 1.0071056 1.0000433 0.9960595 0.9980759
1.0046513 0.99810326 0.99348027 0.99779034 1.0011258 0.99421614 0.9960827 1.0034428
0.9975565 0.9999856 0.9968444 1.0038944 1.000255 1.0038481 1.0033056 0.99961144
1.0038546 0.998567 1.0044403 1.0060923 1.0031024 1.0056212 1.0019664 0.9940259
1.0054204 1.0003235 1.0057287 0.998099 0.99958813 0.9992757 0.9964033 1.0004627
0.9983092 0.99654764 1.004647 0.9927449 1.0054998 1.0019668 0.9990907 1.0026206
0.9990177 0.9989104 0.99645483 1.00002 0.9996379 0.9973054 1.0053033 1.0030327
1.0082772 1.0039375 1.0023822 1.0089763 1.0050104 1.0005692 0.99506176 1.0027221
0.99380577 0.9964628 1.0026474 0.999774 0.9932384 1.0037286 0.9998306 1.0014817
0.9969318 1.0047731 1.0034266 0.9970877 0.9930614 0.99816036 0.99331385 1.0006403
0.9934787 1.0055895 0.9946818 0.9980194 1.0084438 0.9931819 0.99808806 1.003881
1.0065796 1.0073595 0.9965689 1.0018348 1.0034983 0.99526703 0.997353 1.0013046
1.0024754 1.0032916 1.000366 1.0022401 0.99440604 0.9950295 1.0008364 1.0044961
1.0041112 0.99654555 0.9941481 1.0029835 1.0069543 1.0040084 1.0041828 0.99901104
0.99675846 1.0054772 0.9965467 1.0069677 1.0009321 1.0056506 0.9942121 0.99134845
0.9984302 0.99857104 0.9969745 0.996706 1.0045894 0.9956059 1.0056041 1.003255

layers.1.1.bias f4 [128]
00000000: 3619 2abb d258 0fbb f426 69bb e5df 0d3b
00000010: d4ea fc3b c92e a63a 8119 a0bb 15ac 9a3a
00000020: e3e0 883b 0a7b 93b8 e17e 88bb 1d88 0f3b
00000030: 189a 68ba e228 b1bb d595 503b 0820 0d3b
00000040: c619 94b8 a08e c63a b15e 1fbb 91b9 943b
00000050: 8609 e239 ed46 833b b715 803a e6a2 adbb
00000060: 1d4b 42ba 8700 51bb b371 3b3a 96e6 c53b
00000070: 8e11 8dbb 5878 be3b 8376 0fba bce3 cebb
00000080: 0fa7 9a3b 96dd 8a3a 21c6 873b 4659 9b39
00000090: 202b 92bb 71ea 073c 4cfc a8ba 2c8e 80b8
000000a0: f457 b3b9 4a34 2abb 6238 853b 238b 45bb
000000b0: 5f8f 723b 9fe5 953a 4283 833b d02b 9bbb
000000c0: 0a18 9d3a be66 d6ba a81e 4a3b a341 8a3a
000000d0: acad 3d39 a52c 6c3a 44f3 963b de05 86bb
000000e0: 24ad 1d3c f8a7 383b e02e a83b a688 843b
000000f0: 04d4 ca3b 4a07 17bb 0433 dabb e315 d1bb
00000100: a575 ebbb dd0d 4fbb cebb 923b 037a deba
00000110: ac0f 6cbb 0f70 5e3b de44 05bb 5adb cabb
00000120: f1c0 b5bb f570 e8ba fce2 e03a f735 f7ba
00000130: bec1 fbbb 3864 2e38 e5bf dcbb fc08 5fbb
00000140: 20cd e5bb 2e86 e43b 4ccf a0bb 0b37 48bb
00000150: 0bb1 023b 2029 e4bb dfdd 62bb 5dcf eb3a
00000160: f85a e53b 3c2b db3b f059 cebb 4981 e53a
00000170: e4ee 9b3b 86bb 64bb 1c44 3eb9 b0ed bd3b
00000180: b85b be3a d7f6 bdbb 1878 8d3a c3ed 86bb
00000190: f571 d2bb bfe1 31bb 51b7 e33a e0a2 7dba
000001a0: 8781 b73b cd3b b0bb e8dc bcba 2f09 143b
000001b0: c02f 013c c016 44bb 5036 7239 76c5 3abb
000001c0: 59b2 c9ba d318 133c b142 66bb 6adf ec3b
000001d0: 2efe 5e3b 14e8 bcb8 775d 98bb 7b09 43bb
000001e0: 710c 0d3b 89e5 b1bb 4473 84bb f0f1 d0bb
000001f0: 7793 c53b 6e89 b1bb da01 e7ba 3a17 0a3b
-0.0025954968 -0.002187301 -0.0035576196 0.0021648344 0.0077184234 0.0012678738 -0.004885853 0.0011800552
0.004177199 -7.032424e-05 -0.004165516 0.0021901198 -0.00088730594 -0.005406485 0.0031827588 0.0021533985
-7.0619906e-05 0.0015148707 -0.0024317915 0.004538723 0.00043113175 0.0040062577 0.0009772097 -0.00529896
-0.00074117054 -0.0031891183 0.00071504264 0.006039451 -0.004305071 0.005812686 -0.0005472677 -0.006313769
0.004719622 0.0010594602 0.004143492 0.00029630418 -0.0044607073 0.008295641 -0.0012892573 -6.129997e-05
-0.0003420707 -0.0025971108 0.0040655592 -0.0030142746 0.0037011725 0.001143623 0.00401345 -0.0047354475
0.0011985314 -0.0016357524 0.0030841026 0.0010548126 0.00018089142 0.0009009338 0.0046066362 -0.004090055
0.0096237995 0.002817629 0.005132541 0.00404461 0.006189825 -0.0023045116 -0.0066589136 -0.006380783
-0.007185655 -0.0031593957 0.0044779545 -0.0016973618 -0.0036020083 0.0033941304 -0.0020335237 -0.0061906995
-0.005546682 -0.0017733859 0.001715749 -0.0018860687 -0.007683008 4.157817e-05 -0.006736743 -0.0034032455
-0.007012978 0.0069740033 -0.004907524 -0.0030550386 0.0019941952 -0.0069629103 -0.0034617109 0.0017990876
0.0069993697 0.0066885035 -0.0062973425 0.0017509843 0.0047587026 -0.0034901812 -0.00018145185 0.005796157
0.0014523184 -0.005797248 0.0010793237 -0.004117699 -0.006422276 -0.0027142612 0.0017373358 -0.00096754543
0.0056001577 -0.0053782226 -0.0014409097 0.0022588482 0.00788492 -0.0029920787 0.00023099151 -0.0028499044
-0.0015388235 0.0089780865 -0.0035134966 0.0072287815 0.0034026015 -9.0077665e-05 -0.0046498138 -0.002976029
0.0021522308 -0.005428974 -0.004042061 -0.0063764974 0.006029542 -0.005417994 -0.0017624453 0.0021070973

layers.2.0.weight f4 [64, 128]
00000000: 0720 dfbd 2ec6 01bd c206 393e 3ad3 533e
00000010: c6c7 68be 061e d8bd 89d2 8ebd e62b af3d
00000020: d38f e03d b40f eebd 7972 633d ad6a 2e3e
00000030: 3331 e43d 92ea 64bd 1340 153e 065f afbd
00000040: 3742 423c 036a 81bc 3509 93bd 9fac 1cbd
00000050: 4751 cb3e 6b77 dbbb 51df 903d 08a0 2cbe
00000060: ab2d 1bbe 8e29 0cbd 2c81 5a3e b479 59bd
00000070: 875a 233e 1e25 e53c 4460 a2bd f7aa 423b
00000080: 01f2 46bd 2734 3c3e 5ad3 993d 1a66 c8bd
00000090: 1826 49bc 1876 84bd c46d 8e3d e1ad a3bd
000000a0: 22e1 a03d a4d0 2d3e 50af 59be a241 94bc
000000b0: ff9c 3cbe e2d4 01be d331 a43d b69a 17bd
000000c0: 62a4 5fbe fe5c 8abd 43bb 2e3e 9241 8cbc
000000d0: 110f 843d ad0c 8a3c 772e 173e 6b79 0cbe
000000e0: 8713 73bd 2041 093e 0a5d b4bd 9621 a0bc
000000f0: 4b68 913d 3c59 8cbd 7bde 4f3d 1f70 d33c
00000100: 2cd3 843d a99a 6c3d 1c5c 743d 71d2 9f3c
00000110: b7d6 ea3c a277 9abc 1236 26be 9878 61be
00000120: 7421 183e 66ad f9bd ea67 46bc cea9 e6bd
00000130: cb44 6ebd 442a 903c 7407 c13d ad94 74be
00000140: 5b2c 30bd 623a ebbd 2c47 35be 7d43 59be
00000150: 99d8 3abe 4f17 463e f136 563d 9647 ca3d
00000160: d15a 13be 223a 7c3d 68df 13be 89a1 a2bd
00000170: 7e7a e03a 6e21 903e f9dc aa3d dc0c 7b3b
00000180: 0366 0fbe d18c b5bd a341 afbd 7bec fe3d
00000190: 7ff1 b5bc e2fe ee3d 8abf bc3d da26 343e
000001a0: 9691 26bd 591c 25bd 945b b6bd 8726 9e3d
000001b0: 1764 8fbe fe12 e2bd 36fd d33d b8eb 133e
000001c0: 3a20 653d eb82 163e a061 313e 127b 22be
000001d0: ed42 ea3d a0af d13d 0ca4 943d 613b 003e
000001e0: 0213 a03d ce62 083d 63e9 13bd 72d8 a0bc
000001f0: 8682 ffbc 8f93 46be 12a5 b938 28f8 903d
00000200: 5d8b 5cbe 3b28 2cbe ed5e c0bd a902 9bbd
00000210: cf67 7f3d 7f27 4abe 50df 4c3e b280 6e3e
00000220: a1a1 c9bd 33da 033e acba 16be 53bf 7bbd
00000230: 3329 343e f788 103e d2f8 f03d 2908 ec3d
00000240: fb0d 123d e2c8 c9bd 8368 21be a197 dfbc
00000250: 7017 2f3e 8c7e c23d e980 6bbd dd0d 073d
00000260: 9898 77be 64ac 29bd 04c4 b5bc ccf7 253d
00000270: 0459 f33c cf06 423e c03f 78bd 142d f93d
00000280: 30be 483e b466 cc3d 5669 5b3c d48d 73bb
00000290: 7f8c 59be df19 2cbd 2c64 b0bd bff8 bdbd
000002a0: 347c 8b3e 2bb5 1bbd e071 eb3d c3d4 3fbe
000002b0: 04cb b13d b9e6 3839 1a8a 493c 2ba8 d23d
000002c0: 6012 213e e698 423e 3111 3ebe 00fe bbbb
000002d0: 8707 8a3d 9c97 e2bd c736 b8bd 92bb 0f3e
000002e0: af0e 76be 7827 1f3d b8c1 913d 9786 05be
000002f0: 4612 06be c3a0 2ebc f7de 03be 9ae0 003e
00000300: 1bb3 783d 993f 89bd d9d5 2ebd 9a18 6d3e
00000310: d3d9 0fbe e366 fdbc 1b7f 6bbe 6b8a 3abe
00000320: 4fa0 003c 94f4 103d 41aa cf3c 653c 80be
00000330: 39a4 0fbe 999c 64be f2a1 e2bd 8c02 cbbd
00000340: 18a5 d23d 9cd2 5bbd c197 a6bd 9f9e 22bc
00000350: c45c 6e3d 3eef 393d f8a7 7fbc 4991 803d
00000360: d069 bcbb 81c7 f8bd c3fa 753c 54c8 f73d
00000370: 3717 473d 9bcd 453e cf8f 6fbd aa1d df3b
00000380: adb9 463e 7359 2a3e 9f82 f0bd 2bc6 323e
00000390: 5e89 f0bd d2a8 debb 6dc6 68be 4649 853d
000003a0: e6c2 21bd d762 33bd 53fe e3ba 421b 08be
000003b0: 8510 b1bd 8941 e4bd e549 1abd 3e66 2bbe
000003c0: 8a2e f4bd c2a1 58be dd02 893e cd65 cdbd
000003d0: 86c4 8b3d 3549 babd 3faf bbbd 263b 1abe
000003e0: d356 883d ed40 0abe 7ba7 a73d 0812 0b3e
000003f0: 7e60 813c 5bbe 503e bdcd bc3e c932 163d
-0.108947806 -0.03168314 0.18068984 0.20686045 -0.22732458 -0.105526015 -0.0697375 0.08553295
0.10964932 -0.11624089 0.05552909 0.17032881 0.111421965 -0.055887766 0.14575224 -0.08563046
0.011856607 -0.01579762 -0.071794905 -0.03825056 0.39710447 -0.0066975853 0.07073844 -0.16857922
-0.1515414 -0.034219317 0.21338338 -0.05309458 0.15952502 0.0279718 -0.079285175 0.0029703954
-0.048570637 0.1837927 0.07511015 -0.09785099 -0.012277149 -0.06467837 0.0695453 -0.07992149
0.07855441 0.16974121 -0.21258283 -0.018097702 -0.18419264 -0.12678865 0.08017316 -0.03701278
-0.21840051 -0.06756018 0.17063622 -0.01712111 0.06448186 0.016851747 0.14763819 -0.13718192
-0.059344795 0.1340375 -0.08806808 -0.019547265 0.070999704 -0.068529576 0.050749283 0.0258103
0.0648559 0.057764683 0.059658155 0.019509526 0.028666837 -0.018855873 -0.16231564 -0.22018659
0.14856511 -0.12191276 -0.012109736 -0.112628564 -0.058171075 0.017598279 0.0942525 -0.2388484
-0.04301105 -0.11485745 -0.17702931 -0.21217151 -0.18246688 0.19344829 0.05229849 0.09876935
-0.14390112 0.061578877 -0.14440691 -0.07940967 0.0017126349 0.28150505 0.083429284 0.0038307225
-0.14003758 -0.08864749 -0.08557441 0.12447449 -0.02220988 0.11669709 0.09216221 0.17592946
-0.040666185 -0.040310238 -0.08904186 0.07722192 -0.2800605 -0.11038779 0.103510305 0.14445388
0.055938937 0.14698379 0.17322397 -0.1586726 0.11438546 0.10238576 0.07257852 0.12522651
0.078161255 0.033297352 -0.036111247 -0.01963446 -0.031190168 -0.19392227 8.852234e-05 0.07078582
-0.21537538 -0.16812222 -0.09393106 -0.07568867 0.06235486 -0.19741629 0.20007062 0.23291281
-0.098452814 0.12876205 -0.14719647 -0.061461758 0.17593841 0.14114748 0.11766209 0.11524994
0.035657864 -0.098527685 -0.15762524 -0.027293982 0.17098784 0.09496793 -0.057495985 0.032972205
-0.24179304 -0.04142417 -0.022188194 0.04051952 0.029705532 0.1894791 -0.06060767 0.12166801
0.19603801 0.099805266 0.013391813 -0.0037163394 -0.21245001 -0.04201686 -0.08612856 -0.0927596
0.27243197 -0.038014572 0.11496329 -0.18733506 0.086813 0.00017633558 0.012300992 0.10285982
0.15729666 0.19003639 -0.18561246 -0.0057370663 0.06739717 -0.110640734 -0.08994823 0.14036396
-0.24029039 0.038856 0.07117027 -0.13039623 -0.13092908 -0.010658446 -0.12878023 0.12585679
0.060717683 -0.067015834 -0.04268441 0.23153916 -0.14047937 -0.03093285 -0.22997706 -0.18216865
0.007850721 0.035389498 0.025349738 -0.25046077 -0.1402749 -0.22325362 -0.11066045 -0.09912595
0.102853954 -0.05366765 -0.081344135 -0.0099255135 0.058193937 0.045394175 -0.015604012 0.06277711
-0.0057499185 -0.12147427 0.0150133995 0.120987564 0.048606124 0.19316714 -0.058486756 0.006808956
0.19406767 0.16635685 -0.11743664 0.17458408 -0.11744951 -0.0067950273 -0.22731943 0.065081164
-0.03949251 -0.043795433 -0.001739452 -0.13291648 -0.08645729 -0.11145312 -0.037668128 -0.16738221
-0.11922939 -0.21155456 0.26759997 -0.100291826 0.06824593 -0.090959944 -0.09164285 -0.15061626
0.066571854 -0.1350133 0.08186241 0.13581097 0.015793081 0.20385115 0.36875716 0.036669526

layers.2.1.weight f4 [64]
00000000: 0c20 7f3f 11a6 7f3f 3d77 7e3f 10d0 803f
00000010: d1fa 7e3f 4db7 7e3f f729 803f d724 7f3f
00000020: 7ac8 803f 14f0 7f3f 6b1c 7f3f aab5 7f3f
00000030: 7d41 803f 5d0c 7f3f b990 7f3f d385 803f
00000040: b5d2 803f cb84 7f3f 5b31 803f 4270 803f
00000050: 8d0c 803f 978c 803f fa3a 7e3f 6344 803f
00000060: d074 7f3f c942 7f3f 70cd 803f 5152 803f
00000070: 5a64 7e3f 36d7 7f3f e750 803f e8f4 7f3f
00000080: f4a9 7f3f 7a3c 7f3f 1835 803f 3013 7f3f
00000090: 01ab 803f eb20 7f3f b412 7f3f 65eb 7e3f
000000a0: 4e5a 7f3f c59d 803f 4b8b 7e3f 1638 803f
000000b0: 0183 7f3f 4dfb 7f3f e95d 803f 1d30 7e3f
000000c0: f4a5 803f f076 803f 6cd6 803f 7212 7f3f
000000d0: 880f 803f cb50 803f f254 7f3f a56a 7f3f
000000e0: e9be 803f e59c 803f 87e7 7d3f b541 7e3f
000000f0: f303 7f3f 57a3 7e3f 6dde 7f3f 9edd 7d3f
0.99658275 0.9986277 0.99400693 1.0063496 0.99601465 0.99498445 1.0012807 0.9966559
1.006118 0.99975705 0.9965274 0.9988657 1.0019985 0.9962824 0.99830204 1.004084
1.0064303 0.99812 1.0015062 1.0034258 1.000383 1.0042905 0.9930874 1.002087
0.99787617 0.9971128 1.0062695 1.0025121 0.99371874 0.9993776 1.002469 0.9998307
0.998687 0.99701655 1.0016203 0.9963865 1.0052186 0.99659604 0.99637914 0.99577934
0.9974717 1.0048147 0.99431294 1.0017116 0.9980927 0.9999283 1.0028659 0.99292165
1.0050645 1.0036297 1.0065436 0.9963752 1.000474 1.0024656 0.9973899 0.997721
1.0058261 1.004788 0.9918141 0.9931901 0.996154 0.99467987 0.9994877 0.99166286

layers.2.1.bias f4 [64]
00000000: 7e2b 3fbb 7c93 f23b 84d5 d6bb 49f4 973b
00000010: 6c69 97bb a982 c7ba ba86 d53b b3d2 07bc
00000020: 7cb1 9a3b 977e cebb e634 16bb 64f5 acba
00000030: 2916 5139 3ad6 e3bb c2ba b93b 9692 3f3b
00000040: e4c5 b13b 74aa 633a d3e8 42bb 750c a839
00000050: 7bd3 923b 930c 853b 7849 7dbb 23b6 8f3b
00000060: 3278 00bb 680d 38bb d3b5 063c 9656 0bbb
00000070: 9c51 f2bb 2c6f d23b 00bd 9d36 ddee d53b
00000080: 1d28 983b ecfb f1bb 6af9 fd3b 8edf 0fbb
00000090: 2670 b53b fd50 813b a866 453b 2563 a0bb
000000a0: b99a 38ba 8a30 0fbb f932 39bb 99ad b1ba
000000b0: 9c04 beba afe5 54ba 3256 8f3b b5bb 88bb
000000c0: dd76 a13b 9faa 5f3b 2a6d 4d3a 1d50 acbb
000000d0: 38fc a0bb d3c7 2c3b 36c2 35b8 c3de 5b3b
000000e0: a08f 8f3b 50e5 a937 4acd eabb 1ba7 bebb
000000f0: fe1c 75ba c6eb acbb 0f09 a3bb 5cda 0bbc
-0.002917021 0.0074028354 -0.0065562148 0.0046372754 -0.0046207216 -0.0015221435 0.006516305 -0.008289981
0.004720865 -0.006301712 -0.0022919714 -0.0013195691 0.00019940049 -0.006953028 0.005668015 0.002923166
0.0054252017 0.0008684762 -0.0029740825 0.00032052738 0.004480777 0.004060337 -0.0038648527 0.004385726
-0.0019602892 -0.0028084163 0.008222061 -0.0021261326 -0.0073949825 0.006421944 4.700967e-06 0.006528719
0.0046434538 -0.0073847678 0.0077506797 -0.0021953317 0.005537051 0.003946422 0.0030121002 -0.0048946314
-0.00070420984 -0.0021849 -0.0028259142 -0.0013555764 -0.0014497223 -0.0008121384 0.004374289 -0.004172767
0.0049274997 0.0034128798 0.0007836396 -0.0052585737 -0.0049128793 0.0026364222 -4.3334636e-05 0.0033549524
0.004381135 2.0253152e-05 -0.0071655856 -0.0058182604 -0.00093503285 -0.00527713 -0.004975445 -0.008535948

layers.3.0.weight f4 [32, 64]
00000000: eb49 adbe 1cb5 18be 6a4b 00be d85b 7539
00000010: 5278 923e 8cd0 063d da7e 55be c8c2 84be
00000020: 9dc8 303e 7564 94bd 5402 ccbc 1f9c 2ebe
00000030: cbaa 63bc 1f88 0cbe 0000 8d3c 2fed fbbd
00000040: dedb ec3d f48b 11be 4f3b 613d cbcf 03be
00000050: 3f56 82bb d922 7d3e b871 c7be 111e 0ebe
00000060: a287 903e 6f4c a2bd cd87 5fbe f00c d4bd
00000070: 6ca7 b9be ddc2 78bb 378b a53e 1dba 523d
00000080: 3bdd 5bbe 1746 88bd b18b 2b3e 34eb 36be
00000090: 8952 803d ff34 2ebe ce1b 2b3e c9b4 433e
000000a0: 2f2d 583e 16cd b63e 12e3 39be fb1d a9bd
000000b0: f68d a03e 1463 b3bd e422 4f3d d6fe a03e
000000c0: 848f c4bc 7b7b 23bd 1718 913d 7a84 73be
000000d0: 6362 0a3e f803 9e3d e71a 373e 115f 903d
000000e0: db99 e23c cd19 e93d 5dde 353d 653c 6cbe
000000f0: 365b f9bc 62ae ea3d 94d2 99bd caa3 d63d
00000100: 1852 be3d b208 163e de63 983d 9398 ffbb
00000110: e606 91bd 18eb ebbd 8ec7 bf3d cb35 463e
00000120: 2fb0 4dbe 204f a6bd b0f3 5c3e 74e7 2ebe
00000130: d177 273e 7c8b 823d 460d 9abd 5757 f33d
00000140: b9e9 e93d 0f2f 07be dcc9 9abe ce82 36bd
00000150: 25a9 23bd dcb1 00bc e823 15be 04bc d0bd
00000160: 3a4e a0bd 6f1f 2dbe 7b68 2abe 5ebd 14bb
00000170: 29d5 fcbd d74e d53b 3494 9c3c 657a 0a3c
00000180: daa7 98be 36e7 fdbc 6946 44bd a6b0 81bd
00000190: 4657 183e df41 92be 93ca d33e 50e2 b1bc
000001a0: 40bd 2bbc 4cf0 bd3c bb5b 7d3e d557 ebbd
000001b0: ffd9 1f3e 7edb 54bd 54c9 103e 8771 203d
000001c0: 3405 5d3e 3083 e33c 4aca 823e 8765 b4bd
000001d0: 4061 c63d 5e30 9e3d 0021 81bc 9c1a 34be
000001e0: 71d6 29be 2b5f febd 4aa6 893e bac6 893e
000001f0: 9064 2cbd 2069 a63d 85c5 97bd c218 0abe
00000200: a8b0 36be 56b1 223d 2f00 eebd 6e2d af3d
00000210: 27d7 e53c fe3e c0bc 8995 f73b 7aaf d6bd
00000220: ec6a a13d 4705 d13e 2829 23bc 981f 31be
00000230: cdc5 0cbd 1b37 43bd 38a4 dcbe 2bbb 9dbd
00000240: 05c5 d83c 1d05 963d b0fc 2d3e 4b75 223e
00000250: ef4f dc3d e9fb 2ebd 5ac1 e83d 0fbd f9bd
00000260: 82f2 3ebe d531 4c3d 3d60 323d f70c c83e
00000270: 0da5 46be 2e90 293e 98b7 bc3e 074d 31bc
00000280: ac6a 283e fc46 57bc 2aac f6bc d252 103f
00000290: 5fb0 923e df57 d63e c251 583d 1ad2 863e
000002a0: 43fa c33d ef46 c43c d8f7 c13d 47b6 013e
000002b0: aa76 233e 5e27 443c 5a5d 063e 3933 433d
000002c0: da57 9dbe f6a6 d93d 2636 d1bc 4dec 7a3e
000002d0: 537d 9abd ee47 f33d 9cdf 403d ef2f 1b3e
000002e0: 56a8 db3c f848 fb3d 0c4f 68be d4bb d33d
000002f0: a8aa aabc be9e 8e3c 1dcb 4e3d 2e42 73be
00000300: 44bb 19be a4e5 b23c 48b4 b3bd a839 bfbe
00000310: b14a 583d 00a6 88bd a4c8 d43c f9b3 80be
00000320: c8db d4bd 1ca7 f2bd 4344 9a3e a604 683e
00000330: 222f a43e 6a18 08bd 516c 4bbe 531d 083b
00000340: f0bb 3b3e 8b22 763e 6056 e93c c169 f83e
00000350: a0b6 97bb 7538 a2be 284e f0bb 60c4 c2bd
00000360: cd5a c03d 1b68 3a3d 1ff3 ab3d 9cfb 953e
00000370: cc84 a0bd 3cbf bb3e 2074 8ebe a97f 8dbd
00000380: bb25 db3b 5711 2bbe 4558 3dbe 7409 cf3d
00000390: e523 23be c84c b2bc f071 a9bd 297b c6bd
000003a0: d7c9 733d 4e93 253d c79b f4bd a5ad 293e
000003b0: af12 5f3e a944 d43c 1dbd ab3d 2636 61bd
000003c0: 2b16 783e ef14 b9bc d8f1 fabc 3642 c13c
000003d0: 0e53 613e 8534 6f3e 4f1b dfbe 3c4c 323e
000003e0: 873b ce3e 1a33 f2bd 3a2e a03d 652c 89bc
000003f0: 6c50 b6be dd85 4d3e 3302 8e3e 274e 6c3e
-0.33845457 -0.14912838 -0.12528768 0.00023399235 0.28607422 0.03291373 -0.20849171 -0.25929856
0.17264028 -0.07245723 -0.024903454 -0.17051743 -0.013895701 -0.13723801 0.017211914 -0.123010986
0.11565374 -0.14213544 0.0549882 -0.12872235 -0.0039775665 0.24720325 -0.38953948 -0.13878657
0.2822848 -0.07924735 -0.21829148 -0.1035403 -0.36260545 -0.0037957944 0.32332775 0.051447023
-0.21471111 -0.066539936 0.16752507 -0.1786316 0.06265742 -0.17012404 0.16709825 0.19111933
0.21110986 0.35703343 -0.18153027 -0.082576714 0.31358308 -0.08759132 0.050570384 0.31444424
-0.023994215 -0.039912682 0.07084673 -0.23781005 0.13514094 0.07715601 0.17881356 0.070493825
0.027661255 0.11381874 0.044401515 -0.23069914 -0.030439 0.11459042 -0.07510868 0.10480459
0.09293002 0.14651754 0.07440923 -0.0078001707 -0.07081394 -0.1151945 0.09364234 0.19356458
-0.2008674 -0.08120561 0.21577334 -0.1708048 0.163543 0.06374261 -0.07522063 0.11881893
0.11421532 -0.13201545 -0.3023213 -0.04455834 -0.03995623 -0.007854905 -0.14564478 -0.10192111
-0.078274205 -0.16906522 -0.16641419 -0.002269588 -0.123453446 0.0065096426 0.019113638 0.008452033
-0.2981556 -0.030994039 -0.04791871 -0.06332521 0.14877042 -0.2856588 0.4136549 -0.02171436
-0.010482132 0.023185872 0.24742024 -0.11491362 0.15610503 -0.051967137 0.141393 0.039170768
0.21584016 0.027772516 0.2554496 -0.08808427 0.09686518 0.07724069 -0.015762806 -0.17588276
-0.16585709 -0.124204956 0.2688468 0.2690943 -0.04208809 0.0812552 -0.07410721 -0.13486007
-0.17840827 0.039719902 -0.11621129 0.08553587 0.028056694 -0.023467537 0.007555668 -0.10482688
0.07881722 0.4082434 -0.009958543 -0.17297208 -0.034368325 -0.047659975 -0.4309404 -0.07701715
0.026461134 0.07325194 0.16990924 0.15865056 0.107574336 -0.04272071 0.11365004 -0.12194263
-0.18647197 0.04985221 0.04354881 0.3907239 -0.193989 0.16558906 0.3685882 -0.010821587
0.16446942 -0.013139483 -0.030111391 0.56376374 0.28650185 0.41863915 0.052812345 0.2633217
0.09569218 0.023959605 0.094711006 0.1266719 0.15963235 0.0119722765 0.13121548 0.04765627
-0.30731088 0.106275484 -0.025538515 0.24504204 -0.07543435 0.11878954 0.04708825 0.15155004
0.026813667 0.12269777 -0.22686404 0.1033856 -0.020833328 0.017409679 0.050486673 -0.23755714
-0.15012842 0.021838017 -0.0877462 -0.37348676 0.052805606 -0.06672287 0.02597458 -0.25137308
-0.103934824 -0.1184828 0.30130205 0.22658023 0.3206721 -0.033226408 -0.19865538 0.0020769432
0.18333411 0.24036615 0.02848357 0.48518184 -0.004629925 -0.31683698 -0.0073335357 -0.09510112
0.09392319 0.04550944 0.08395981 0.29293525 -0.07837829 0.36669338 -0.2782297 -0.06909115
0.0066878474 -0.16705833 -0.18490703 0.10109225 -0.15931661 -0.021765128 -0.08273685 -0.0969146
0.05951866 0.040423684 -0.11943775 0.16570146 0.21784471 0.025911646 0.0838568 -0.05498328
0.24227206 -0.02259299 -0.030632898 0.023591142 0.22004339 0.23359878 -0.43575522 0.17411894
0.4027979 -0.11826153 0.07821317 -0.016744802 -0.35608232 0.20070596 0.27736053 0.23076688

layers.3.1.weight f4 [32]
00000000: f8bb 7d3f 7d4a 813f 106b 803f e698 803f
00000010: 5b07 7e3f 8d31 7e3f cbe7 7d3f a0a9 7d3f
00000020: 262f 813f 0c9f 7d3f 03a0 7d3f 3ea7 7d3f
00000030: 876e 7d3f aa90 7d3f c99b 7d3f af8e 7d3f
00000040: 1e8e 7d3f 847c 7d3f b27d 7d3f 7918 7e3f
00000050: 8ea5 7d3f 52bc 7d3f aed4 7d3f d480 7d3f
00000060: 1ae3 7d3f ee0a 813f eb94 7d3f d862 7d3f
00000070: b62f 813f 6301 813f 07b8 7d3f 8877 7d3f
0.9911494 1.0100857 1.0032673 1.0046661 0.99229974 0.9929436 0.99181813 0.9908695
1.0092514 0.9907081 0.99072284 0.99083316 0.98996776 0.99048865 0.99065834 0.9904584
0.9904498 0.9901812 0.9901992 0.9925609 0.9908074 0.9911548 0.9915265 0.990247
0.99174654 1.008146 0.99055356 0.9897895 1.0092685 1.0078548 0.9910893 0.99010515

layers.3.1.bias f4 [32]
00000000: 2d56 22bc c15c 183c 7bcc 803b 6dbc 113c
00000010: 7959 01bc 2679 cbbb 3a24 1abc 9a1c 28bc
00000020: 1894 1a3c 74ff 1fbc 6e72 28bc 60f9 1fbc
00000030: 4d14 21bc 81be 21bc 5b1f 1ebc ddbe 23bc
00000040: 68e5 12bc 3f16 1cbc 6316 25bc 0844 17bc
00000050: 35c4 1ebc f98e 1dbc 7c9b 1cbc f12d 1ebc
00000060: 3ea9 13bc b48c 1f3c e1c0 1abc 3908 16bc
00000070: 4530 133c d27a 1b3c 922a 1abc c0ab 1fbc
-0.009908241 0.009299458 0.003930626 0.008895022 -0.007894867 -0.0062095104 -0.009408051 -0.010260725
0.009434722 -0.009765495 -0.010281188 -0.0097640455 -0.0098315 -0.00987208 -0.00965103 -0.009994236
-0.0089658275 -0.009526788 -0.010076138 -0.0092325285 -0.009690334 -0.009616607 -0.009558555 -0.009654508
-0.009012518 0.009738136 -0.0094454 -0.009157234 0.008983676 0.009489732 -0.009409564 -0.009745538

fc_out.weight f4 [2, 32]
00000000: 715e aabe 8d89 243d ab3f d0bd fa63 233f
00000010: 21f6 80be 1643 893d 8644 bbbb 6c3e 803d
00000020: 2312 dd3d 4479 c7be 2ef3 fabe ff7e 9dbd
00000030: 9ec4 4b3c 1696 8c3e a855 a7be f4a5 d83e
00000040: 4630 3d3d 5751 c5be 5e55 2bbe ae5e 713d
00000050: e430 c6be f566 683d 9721 96be 2cf5 0abe
00000060: 8de3 20be d060 bc3d 86fe 513e fbb5 17be
00000070: 76fa b23c 9f16 703e ca61 90be e669 4abe
00000080: b7e8 90bd 0639 69bc 1f69 efbd 0018 acbe
00000090: cf22 653e 505c da3d 6edc 9f3e e691 b13e
000000a0: 9bd2 71be b80d 463d d8f5 bdbd aeb4 083e
000000b0: 0d6b 1f3f d7b5 ad3e aa6d ddbd 31d6 023f
000000c0: cfff f53d f8e8 cfbd 9c2a 56bd 63e1 2c3e
000000d0: 042c fdb9 dc57 683e 332f 54be c659 cc3d
000000e0: bf22 afbd eda1 893d 69ff 913e 3c24 063e
000000f0: 5a78 dabe 8a59 f5bb 9bab d03c cab0 513e
-0.33275178 0.04017024 -0.10168394 0.6382443 -0.2518778 0.06702249 -0.0057149557 0.06261906
0.10794475 -0.38959706 -0.49013656 -0.07690238 0.012437014 0.27458256 -0.32682538 0.42314112
0.046188615 -0.3853862 -0.16731784 0.058928184 -0.38709176 0.056738812 -0.29322502 -0.13570088
-0.15711804 0.09198153 0.20507249 -0.14815514 0.021847945 0.2344613 -0.28199607 -0.1976696
-0.07075637 -0.014234787 -0.11689972 -0.3361206 0.2237656 0.106621385 0.31222862 0.34681624
-0.23615496 0.048352927 -0.092754066 0.13350174 0.6227272 0.33927795 -0.108119324 0.5110808
0.12011682 -0.10151857 -0.05228673 0.16882853 -0.00048288715 0.22689766 -0.2072113 0.099780604
-0.08551549 0.06720338 0.28515175 0.1309976 -0.42669946 -0.0074874805 0.025472453 0.20477596

fc_out.bias f4 [2]
00000000: dd17 213c dd17 21bc
0.00983235 -0.00983235
